Results/test34/Doughnut/Doughnut-21026.onnx (onnx, 128129 bytes, 6 tensors)

action_model._discrete_distribution.branches.0.bias f4 [2]
0	0x3bbb9743	0.005724819
1	0xbbbb9744	-0.0057248194

action_model._discrete_distribution.branches.0.weight f4 [2, 128]
0	0x3a9f520a	0.0012155187
1	0x3c8878e8	0.016659215
2	0x3c816e33	0.015799617
3	0x3c4f177a	0.012639875
4	0x396fcd25	0.00022869238
5	0xbcb742df	-0.022370754
6	0xbbc95cad	-0.006145081
7	0xbc3e37ee	-0.011610014
8	0x3c2ef93a	0.010679537
9	0xbbd0995c	-0.006365938
10	0x3c2ffac8	0.010740943
11	0x3bf0b992	0.0073463405
12	0x3b937fef	0.004501335
13	0x3c2a4c36	0.010394147
14	0xbca52637	-0.020159824
15	0x3c667947	0.014067001
16	0xbc3fd37e	-0.0117081385
17	0x3c68583a	0.014181191
18	0x3a807c52	0.0009802675
19	0x3b46d227	0.0030337663
20	0x3c2f0f86	0.010684853
21	0x3c551aed	0.013006908
22	0xbbafa99a	-0.0053607943
23	0xbbd9a933	-0.0066424846
24	0x3ba62b3d	0.0050710724
25	0x3cae14d1	0.02125016
26	0x3c3910c8	0.011295505
27	0x3c6ea949	0.014566728
28	0x3c0989fa	0.008394713
29	0x3c28fefd	0.0103147
30	0xbb65cd5e	-0.0035065035
31	0x3c3d57ed	0.011556608
32	0xbc8433ce	-0.016137984
33	0x3bde7fae	0.006790123
34	0xbc951e85	-0.01820303
35	0x3cfad5e0	0.030619562
36	0xbbfa7f43	-0.0076445653
37	0x3c15b148	0.009136505
38	0x3bbae32a	0.0057033496
39	0x3cbcc00d	0.023040796
40	0xbbc952f1	-0.0061439206
41	0xbb2840a6	-0.00256733
42	0xba85c8b4	-0.0010206909
43	0xbbd5c913	-0.006524214
44	0xbb813456	-0.0039430065
45	0xb82c11cc	-4.102457e-05
46	0x3be10954	0.006867567
47	0x3bab22b4	0.005222643
48	0xbca016d4	-0.019542135
49	0x3bb34c60	0.005471751
50	0x3ca8b40e	0.02059367
51	0xbc3ceb1b	-0.011530663
52	0xbca36c01	-0.019948961
53	0x3b2becb5	0.0026233618
54	0x3c0c851c	0.008576658
55	0x3c1de7da	0.009637797
56	0x3c900042	0.017578248
57	0x3c814d9f	0.015784083
58	0xbc868c27	-0.016424252
59	0xbc53ce43	-0.012927595
60	0xbc82606f	-0.015915124
61	0x3c5c02fe	0.013428448
62	0x3c72355f	0.0147832325
63	0x3c9c4816	0.019077342
64	0xba8d0ca6	-0.0010761216
65	0x3abbfe05	0.0014342671
66	0x3bd80d35	0.0065933713
67	0xbbd011b9	-0.006349769
68	0x3c8cf97b	0.017208805
69	0xbc97d6ce	-0.018535044
70	0xbca50110	-0.020142108
71	0x3bd12a3a	0.0063832076
72	0xb88b3426	-6.63775e-05
73	0xbb030143	-0.0019989766
74	0xbc4508b7	-0.012026004
75	0xbc25950f	-0.010106339
76	0xbb09b7a4	-0.0021014
77	0x3b96b5da	0.004599315
78	0x399ed8f8	0.00030297763
79	0xbafe53f1	-0.0019403679
80	0x3c175a54	0.0092378445
81	0xbb1acbfd	-0.0023620122
82	0xbb616a2c	-0.0034395559
83	0x3be3d247	0.0069525572
84	0xbc8503c1	-0.016237142
85	0x3bd9a50b	0.006641989
86	0x3c3e568c	0.011617314
87	0xbc4c121f	-0.012455492
88	0xbbe4d3f1	-0.006983273
89	0xbce16e54	-0.027518429
90	0xbb4fc792	-0.0031704647
91	0xbc77833c	-0.015106972
92	0xbbef85cb	-0.0073096505
93	0xbc6cdf32	-0.014457511
94	0x3b56d17a	0.0032778666
95	0x3b79bce2	0.0038106968
96	0xbc9dd478	-0.019266352
97	0xbc8933aa	-0.016748268
98	0xbca3bb86	-0.01998688
99	0xbce951ac	-0.028481327
100	0x3c127031	0.008937881
101	0x3ba8a34d	0.00514642
102	0xbbfbf63f	-0.007689267
103	0xbc3b3664	-0.011426542
104	0x3982b3e3	0.00024929558
105	0x3c223103	0.009899381
106	0x3c218448	0.009858198
107	0xbbedee2e	-0.0072610592
108	0xbc1c8af8	-0.009554617
109	0x3b804bad	0.0039152713
110	0x3c9de7ca	0.019275565
111	0xbbf239c9	-0.0073921424
112	0x3b61744d	0.0034401596
113	0xbc692454	-0.014229853
114	0x3c1798fe	0.009252785
115	0x3c8523ca	0.016252417
116	0xbbc6fe8c	-0.006072825
117	0xbb14ede0	-0.0022724792
118	0xbb50d557	-0.0031865442
119	0xbc2896c1	-0.010289849
120	0xbc0dd285	-0.008656149
121	0xbc2ff8c8	-0.010740466
122	0xbb694e83	-0.0035599775
123	0xbc22427c	-0.009903546
124	0x3c9b37a7	0.018947436
125	0x3c104ec8	0.008807845
126	0xbc17ba8f	-0.009260788
127	0xbc43ba6b	-0.011946301
128	0x3b699962	0.0035644402
129	0x3be58687	0.0070045623
130	0xbc52b754	-0.012861092
131	0x3b8ddfa7	0.00432964
132	0x3b27460f	0.0025523936
133	0x3ca1361b	0.01967912
134	0x3c25293f	0.010080635
135	0xbbc1cb61	-0.0059141372
136	0x3bc2d005	0.005945208
137	0x3c07ee28	0.008296527
138	0xb9a85ce2	-0.0003211266
139	0x3c2aae03	0.010417464
140	0x3a9c4e9f	0.0011925286
141	0x3b954e89	0.0045564813
142	0x3c1cb230	0.009563968
143	0xbc992eb6	-0.018699031
144	0x3be6c09b	0.0070420033
145	0xbc19cf7f	-0.00938785
146	0x3bb04abc	0.005380003
147	0xbbd86b2f	-0.006604574
148	0xbb19acdc	-0.002344898
149	0x3a8e49d8	0.0010855747
150	0x3ca11ece	0.01966801
151	0x3c481302	0.012211563
152	0xbc923a23	-0.017849987
153	0xbc57fd4f	-0.013182952
154	0xbbd63612	-0.0065372074
155	0xbb8b1910	-0.004244931
156	0x3c2578c9	0.010099598
157	0x3ba700e3	0.0050965413
158	0xbbad3b46	-0.005286607
159	0xbc854ce4	-0.016272016
160	0x3c1e6488	0.009667523
161	0x3c2ba8a6	0.010477221
162	0x3c4e94ca	0.012608716
163	0xbbbd2060	-0.0057716817
164	0x3bedacaf	0.0072532515
165	0x3910c9a2	0.00013808024
166	0x3bf11414	0.00735713
167	0xbacb823f	-0.0015526487
168	0x3b9f9edd	0.004871233
169	0x3c16b056	0.009197315
170	0xbcd3fb4b	-0.025876662
171	0x3c0f6d15	0.0087540345
172	0x3c36d51b	0.011159207
173	0xba4962e3	-0.0007682277
174	0xbceef279	-0.029168354
175	0xbc685b53	-0.01418193
176	0x3c0320b8	0.008003406
177	0xbc5ba73e	-0.013406573
178	0xbc3581cb	-0.011078308
179	0x3b7f705e	0.0038976888
180	0xba085ba9	-0.00052016467
181	0xbc9b807e	-0.018982168
182	0xbc001f0d	-0.007819903
183	0x3c90d1fe	0.017678257
184	0xbc21f084	-0.009884004
185	0xbcd9948e	-0.026560094
186	0x3c8be2bd	0.01707589
187	0x3b0e543a	0.0021717683
188	0x3b94e7a9	0.0045442176
189	0xbc126a1d	-0.008936432
190	0xb9d373e1	-0.00040331393
191	0xbc602a1d	-0.013681916
192	0xbb9d7cae	-0.0048061227
193	0x3ad2776a	0.0016057317
194	0x386f111a	5.6997967e-05
195	0xbba85c89	-0.005137984
196	0xbc8c6bc4	-0.01714123
197	0xbc22c98a	-0.009935746
198	0xbc423e13	-0.01185562
199	0xbc24b524	-0.010052953
200	0x3b0b696b	0.002127255
201	0x3c90868e	0.017642286
202	0xbc0bfbb9	-0.008543902
203	0x3b9b93d9	0.0047478494
204	0x3bda8f98	0.0066699497
205	0xbb391f6d	-0.002824749
206	0x388551e5	6.357188e-05
207	0xbc21ccb4	-0.009875465
208	0xbc375366	-0.011189317
209	0x3c8a8e74	0.01691363
210	0x3b65238f	0.0034963822
211	0xbbf13942	-0.007361562
212	0x3cc835e8	0.024439767
213	0x3c79119b	0.015201951
214	0xbc3c45ff	-0.011491298
215	0x3cec185e	0.028820213
216	0x3c50880f	0.012727751
217	0x3c541e94	0.0129467435
218	0xbb8e75fc	-0.004347561
219	0x3bab3833	0.0052252053
220	0x3ad9ed05	0.0016626423
221	0x3c931110	0.017952472
222	0xbc6bf724	-0.014402185
223	0x3abd01de	0.0014420112
224	0x3c271764	0.010198448
225	0x3c5f3bd1	0.013625101
226	0xbc58e71c	-0.0132386945
227	0x3a02e7fd	0.00049936754
228	0xbb9d53cc	-0.004801249
229	0xbbe90883	-0.0071116104
230	0x3b82fe4a	0.003997599
231	0x3bf86d3d	0.0075813816
232	0xbc69e454	-0.014275629
233	0xb9546073	-0.00020253826
234	0xbc558534	-0.013032246
235	0x3c926101	0.01786852
236	0x3a820f13	0.0009922705
237	0xbc7e0a4d	-0.015505386
238	0xbb2f7a96	-0.0026775948
239	0x3c0809e1	0.008303137
240	0xbc4b27ac	-0.012399595
241	0x3c8ce4a3	0.017198866
242	0x3c494328	0.012284078
243	0x3a39a031	0.00070810603
244	0x3bbd5f76	0.005779202
245	0xbc2a1b63	-0.010382506
246	0x3c6b98aa	0.01437966
247	0xbadcec97	-0.0016855177
248	0x3ae6d693	0.0017611556
249	0x3bc4650d	0.0059934915
250	0x3aa93a5a	0.0012911067
251	0xba11b070	-0.0005557602
252	0xbb03ce83	-0.0020112104
253	0x3c3509a2	0.01104966
254	0x3c173af9	0.009230369
255	0xbae87323	-0.0017734509

network_body._body_endoder.seq_layers.0.bias f4 [128]
0	0xbbad1867	-0.00528245
1	0xbbaf5ae1	-0.00535141
2	0xbad15531	-0.0015970824
3	0xbbba5a5b	-0.0056870407
4	0x3b9c463d	0.0047691152
5	0xbaaac4d6	-0.0013028632
6	0xbbaf7254	-0.005354205
7	0x3ba766cc	0.00510869
8	0xbb405a5e	-0.0029350738
9	0xbbb8dd26	-0.0056415973
10	0x3ba92d3d	0.0051628635
11	0xbbad9008	-0.005296711
12	0x3bb84911	0.0056239446
13	0x3ba23041	0.0049496
14	0xbb501a06	-0.0031753792
15	0x3bcbf26f	0.0062239687
16	0x3bac8c0f	0.0052657197
17	0x3ba09a07	0.004901174
18	0xbb4b62ac	-0.0031034155
19	0xbb270467	-0.0025484802
20	0xba7744d1	-0.00094325567
21	0x3b91e99f	0.0044528986
22	0xbba86bd2	-0.0051398063
23	0xbba4ed4c	-0.005033171
24	0xbba92d54	-0.0051628742
25	0xbbaf016a	-0.0053407447
26	0xbbd5023a	-0.0065005096
27	0x3b9bd46c	0.0047555473
28	0x3bbcd87f	0.005763113
29	0x3b977c4b	0.004622971
30	0x3ba34647	0.004982743
31	0xbbc0490a	-0.005868082
32	0x3b6acd9a	0.0035828114
33	0xbbc99a50	-0.0061524287
34	0x3b80d156	0.003931205
35	0x3be35bfe	0.0069384566
36	0xbbae98e4	-0.0053282846
37	0xbbbc5cbe	-0.0057483604
38	0xbbdb9468	-0.006701041
39	0xbb9ba691	-0.004750081
40	0x3ba892c2	0.005144448
41	0xbbcaf26b	-0.0061934493
42	0xbbb8fc41	-0.0056453054
43	0x3ba75c87	0.0051074657
44	0xbba1a3b7	-0.0049328464
45	0x3b9ee5fe	0.0048491945
46	0x3ae0d35d	0.0017152835
47	0x3ba4456f	0.00501316
48	0x3b9fe724	0.004879849
49	0xba2d3930	-0.0006607948
50	0xbba380a7	-0.004989702
51	0xbba9daeb	-0.0051835678
52	0x3b9ef6a2	0.0048511783
53	0x3c0f3382	0.008740308
54	0x3b96b12d	0.0045987577
55	0x38dcc4c3	0.00010527067
56	0xbbb458f2	-0.005503767
57	0x3ba0cc8d	0.004907197
58	0x3ac7aba6	0.001523365
59	0x3bb5f99b	0.005553437
60	0xbbb030ef	-0.005376927
61	0xba7b1341	-0.0009577759
62	0x3ba896fa	0.005144951
63	0xb9441025	-0.00018698031
64	0xba54cbd4	-0.0008117531
65	0x3ba1e5c0	0.0049407184
66	0xbb52acba	-0.003214641
67	0xbb663222	-0.0035125096
68	0x3b839668	0.0040157326
69	0xbb63b9ac	-0.003474812
70	0xbbadbc38	-0.0053019784
71	0x3b9fda75	0.004878337
72	0xbaa933f2	-0.0012909158
73	0x3b21c75c	0.0024685478
74	0xbb8fcb9e	-0.0043882867
75	0x3ba7683e	0.005108862
76	0x3aa6dcb8	0.0012730574
77	0x3bba89f1	0.0056927134
78	0xbbb46e5d	-0.0055063204
79	0xbb46cc65	-0.003033423
80	0x3baaf621	0.005217329
81	0x3bad952b	0.005297323
82	0xbb8c6f67	-0.004285741
83	0xbba64ef0	-0.005075328
84	0xbaa66cd9	-0.0012697234
85	0xbba8cd8e	-0.005151457
86	0x3ba29223	0.0049612685
87	0x3bcc24a7	0.0062299552
88	0x3b685205	0.0035449278
89	0x3baa0a99	0.0051892516
90	0x3baf2ae1	0.0053456877
91	0xbbc40bd4	-0.0059828553
92	0x396a9d74	0.00022374635
93	0xbab50972	-0.0013812019
94	0x3b9c0e3c	0.004762439
95	0x3bcb1775	0.0061978647
96	0x3ba01465	0.0048852437
97	0x3babd70a	0.0052441405
98	0xbb46094d	-0.0030217946
99	0x3bafd283	0.005365671
100	0x3b912cb3	0.0044303774
101	0x3ba79bbe	0.0051150015
102	0xbba14b3c	-0.0049222987
103	0xbbb915ba	-0.005648342
104	0xb9130671	-0.00014021412
105	0x3b9ed880	0.004847586
106	0xbba04b09	-0.0048917574
107	0xbbb727ba	-0.0055894526
108	0xbbb160a3	-0.0054131313
109	0x3bd62701	0.0065354113
110	0xbbbeeea7	-0.0058267894
111	0x3b9cda4f	0.0047867666
112	0x3ba2298a	0.0049487995
113	0xbbd16c54	-0.0063910875
114	0x3b9cf53c	0.0047899764
115	0xbbb3a9a5	-0.0054828697
116	0x3ba8e7ea	0.0051545994
117	0x3ba40d9f	0.0050065066
118	0xbbb4d6ba	-0.0055187615
119	0x3ba04b80	0.004891813
120	0xbbb40081	-0.005493224
121	0x3ba0803c	0.004898099
122	0xbb0de877	-0.0021653452
123	0x3be7b359	0.0070709405
124	0xbbb6ef86	-0.0055827526
125	0x3baa566f	0.005198292
126	0xbbbc9350	-0.0057548657
127	0xbbc53c57	-0.006019156

network_body._body_endoder.seq_layers.0.weight f4 [128, 114]
0	0xbddb0a33	-0.10695305
1	0x3d9522e1	0.07282043
2	0x3b802026	0.0039100824
3	0x3da4b980	0.08043194
4	0xba8ace21	-0.0010589996
5	0x3b80ad6a	0.0039269226
6	0x3dc190ac	0.09451422
7	0x3d9318b7	0.07182448
8	0xbda04c5f	-0.07827067
9	0x3db385bb	0.087657414
10	0xbded6eac	-0.115933746
11	0x3d39cd12	0.045361586
12	0xbe3b609e	-0.18298575
13	0xbd570a43	-0.05250002
14	0xbd1732fc	-0.036913857
15	0xbda23cab	-0.07921728
16	0x3cb84796	0.022495072
17	0xbab5a950	-0.0013859663
18	0xbd85e904	-0.06538585
19	0x3e0b9e93	0.1363471
20	0xbd9717a3	-0.07377555
21	0x3d27be1b	0.040952783
22	0xbe3f9e28	-0.18712676
23	0xbd2d81b4	-0.042360023
24	0x3c75e535	0.0150082605
25	0xbc959f69	-0.01826449
26	0xbcc336bf	-0.023829816
27	0x394dae31	0.00019615215
28	0xbd0af6c6	-0.033926748
29	0x3e1ea88b	0.15493982
30	0xbd600f7c	-0.054702267
31	0x3daaa89e	0.083329424
32	0xbdd363af	-0.103217475
33	0x3da36d5a	0.079798415
34	0xbd8d3c06	-0.06896214
35	0xbde8d255	-0.11368243
36	0xbe22e993	-0.15909414
37	0xbdd0a44b	-0.101875864
38	0xbdb00c92	-0.085961476
39	0xbde987d6	-0.11402862
40	0xbd8ec75c	-0.069716185
41	0x3d010ff2	0.031509347
42	0xbc26ebcf	-0.010188057
43	0x3d6ed8d7	0.058312263
44	0xbd099529	-0.033589516
45	0x3d1c4aef	0.0381574
46	0xbe06f513	-0.13179426
47	0xbdb29679	-0.08720107
48	0x3db9d70e	0.090742216
49	0x3c816f16	0.01580004
50	0xbda5fb1d	-0.08104537
51	0x3d9402af	0.07227074
52	0xbc93429a	-0.017976094
53	0xbd27039d	-0.04077493
54	0xbc5dcfdb	-0.013538326
55	0xbe189d30	-0.14903712
56	0x3bb6ad70	0.0055748746
57	0x3d3b02a8	0.04565683
58	0x3c638c87	0.013888485
59	0xbdeee246	-0.11664252
60	0xbd67d167	-0.056596186
61	0xbb961ffe	-0.0045814505
62	0xbde92986	-0.11384873
63	0xbd7232c1	-0.059130434
64	0xbd8b5d05	-0.068048514
65	0x3c8c3438	0.017114744
66	0x3c546728	0.0129640475
67	0x3d3990dc	0.045304164
68	0xbe06aea0	-0.13152552
69	0xbd48b803	-0.049003612
70	0xbdf85e0e	-0.121273145
71	0x3d567396	0.052356325
72	0xbd82121b	-0.063511096
73	0x3d75897f	0.05994558
74	0x3e0e461c	0.13893932
75	0x3e2bf48c	0.16792506
76	0x3c25c6f3	0.010118234
77	0x3e10928e	0.14118406
78	0x3d49ab56	0.049235664
79	0xbd2e3048	-0.042526513
80	0x3d81087f	0.063004486
81	0x3da5013b	0.08056875
82	0x3dc3206a	0.09527667
83	0x3be6ea78	0.007046994
84	0xbcb1a452	-0.0216848
85	0x3d47e040	0.048797846
86	0xbd4eb96c	-0.0504698
87	0x3d867d4c	0.06566867
88	0x3d4fcd4b	0.050732892
89	0x3dc8ad79	0.09798712
90	0x3d037334	0.032092288
91	0x3d6454ca	0.055744924
92	0xbdc615a6	-0.09672098
93	0x3d935980	0.07194805
94	0x3c82ddb4	0.015974857
95	0x3d45bfe2	0.048278697
96	0x3df2b0b8	0.11850113
97	0xbd58c32f	-0.052920517
98	0x3d0219d1	0.0317629
99	0x3d0df29f	0.03465521
100	0x3e5b2de9	0.21404232
101	0xbd8a11c9	-0.067416735
102	0xbe099858	-0.13437021
103	0xbe0e77db	-0.13912909
104	0x3e00f130	0.12592006
105	0xbd41d62b	-0.047323387
106	0x3d4d64bf	0.050144907
107	0x3d5d7697	0.054068174
108	0xbd66afd1	-0.056320015
109	0xbe137083	-0.14398389
110	0xbbb720e3	-0.005588637
111	0xbde4316f	-0.11142241
112	0xbaa7b61c	-0.0012795362
113	0x3e72645b	0.23671095
114	0x3da3d4d8	0.07999581
115	0x3d337834	0.043815807
116	0xbc6d23e0	-0.014473885
117	0x3e1c7023	0.15277152
118	0xbe630e94	-0.2217353
119	0xbdb7b8b3	-0.089707755
120	0xbd974501	-0.07386208
121	0xbcec03e2	-0.028810445
122	0xbd34c2f6	-0.04413124
123	0xbd6a9ce5	-0.057278533
124	0x3d0ef4db	0.03490148
125	0x3e237850	0.15963864
126	0xbd959e1f	-0.0730555
127	0x3cdc4e3d	0.026892776
128	0x3dd989ed	0.106220104
129	0x3d99c244	0.07507756
130	0x3cce92d6	0.025216501
131	0xbdc4ae22	-0.09603526
132	0x3e8cd0f8	0.2750318
133	0xbe06a078	-0.13147151
134	0x3d8447f6	0.06459038
135	0x3ddfbd76	0.10924809
136	0x3d9b0779	0.07569785
137	0x3b044f79	0.002018897
138	0x3e253cee	0.16136524
139	0x3d2927e6	0.041297816
140	0xbde5007a	-0.111817315
141	0xbbfc47ae	-0.0076989746
142	0xbddf6f7a	-0.10909934
143	0xbdb6276b	-0.08894237
144	0x3dfe4a03	0.1241646
145	0xbdb276ad	-0.08714042
146	0xbd91ab85	-0.07112793
147	0xbbff3f39	-0.007789519
148	0x3d757b4b	0.059932034
149	0xbcc5fefc	-0.024169438
150	0xbe11af28	-0.14226973
151	0x3d566d3d	0.05235027
152	0xbcf5a606	-0.029986393
153	0xbe69d383	-0.22834592
154	0xbc8fced0	-0.01755467
155	0xbdf5beaf	-0.11999261
156	0xbcfc5875	-0.030803898
157	0x3ad6a843	0.001637705
158	0xbd8f197c	-0.06987283
159	0xbd29ab31	-0.041423026
160	0xbe089c76	-0.13340935
161	0xbdcbbace	-0.099477395
162	0x3db3b90a	0.08775528
163	0xbd80a608	-0.06281668
164	0xbd282484	-0.04105045
165	0x3b91b2d8	0.0044463687
166	0x3bfcb3fd	0.007711886
167	0xbd80c865	-0.06288222
168	0x3e7382a7	0.23780309
169	0xbd7b69c7	-0.061380174
170	0x3d96e8b0	0.073686
171	0x3d30bf61	0.043151263
172	0xbd9bd90c	-0.07609758
173	0xbd9efead	-0.07763419
174	0x3d6f6c1d	0.058452714
175	0xbd43bbb1	-0.04778642
176	0xbe4fbd0a	-0.20286956
177	0x3e6262af	0.22107957
178	0xbe81975a	-0.25310785
179	0xbd997393	-0.07492747
180	0x3e55155b	0.20808928
181	0xbb1799a1	-0.0023132341
182	0xbc6d0695	-0.014466901
183	0xbd18f548	-0.037343293
184	0x3dfd2585	0.12360672
185	0x3c7acd08	0.015307672
186	0x3d77d8eb	0.060509603
187	0x3da00089	0.07812602
188	0xbce3a4f5	-0.027788619
189	0x3e5b68ba	0.21426669
190	0xbd7069f0	-0.05869478
191	0x3de34a13	0.11098113
192	0x3e019e8e	0.1265814
193	0x3c651433	0.013981867
194	0xbddeafbc	-0.108733624
195	0xbb432013	-0.0029773756
196	0xbdae302e	-0.08505283
197	0xbc69016d	-0.014221531
198	0x3d2b8e03	0.04188348
199	0xbd61fc26	-0.055172108
200	0x3cc0c00d	0.023529077
201	0x3d8c0b22	0.06838061
202	0x3d3e10c3	0.046402704
203	0xbe2a6ced	-0.16643114
204	0x3d127667	0.03575745
205	0x3e0846aa	0.13308206
206	0x3c5a773f	0.013334095
207	0x3d771153	0.060319256
208	0xbdb43618	-0.0879938
209	0xbc99676e	-0.018726077
210	0xbd3815c8	-0.044942647
211	0x3e472a75	0.1944979
212	0x3e065f8c	0.13122386
213	0xbcaba009	-0.020950334
214	0xbdf60cc7	-0.12014156
215	0xbdc401c3	-0.095706485
216	0x3dad7edc	0.08471462
217	0xbbc2bd7a	-0.0059429975
218	0x3dc2bac7	0.09508281
219	0x3b458ca9	0.0030143654
220	0xbdc45369	-0.09586222
221	0xbe8a4447	-0.27005216
222	0x3ca7c8bb	0.020481458
223	0x3c90ef0c	0.017692111
224	0x3c732e1c	0.014842536
225	0x3dada1e8	0.08478147
226	0xbc8d9a60	-0.017285526
227	0x3c0d7e3f	0.008636056
228	0x3ce2365f	0.027613817
229	0xbe1b9a2a	-0.15195528
230	0xbc9d72cf	-0.019219784
231	0xbe0d7549	-0.13814272
232	0xbd39ea1f	-0.04538929
233	0xbc85be5e	-0.016326126
234	0x3b003c70	0.0019567274
235	0xbda806cb	-0.08204421
236	0xbd8eaac5	-0.069661655
237	0x3c1fdfde	0.009757964
238	0x3d704d49	0.058667455
239	0x3e2182a6	0.15772495
240	0xbdec8a7b	-0.115498506
241	0xbc579dcd	-0.013160181
242	0xbd41f9dc	-0.047357425
243	0x3df2cc0e	0.118553266
244	0x3dd3c604	0.10340503
245	0x3d235385	0.039874572
246	0x3df870c3	0.121308826
247	0x3c2e29bb	0.0106300665
248	0x3daaf41f	0.08347344
249	0xbd95174b	-0.072798334
250	0x3d14c972	0.036324926
251	0xbaa7d4ed	-0.0012804546
252	0xbd75cf13	-0.060011934
253	0x3d551aad	0.052027393
254	0xbe8242ff	-0.2544174
255	0xbdacb8de	-0.08433698

network_body._body_endoder.seq_layers.2.bias f4 [128]
0	0x3beaaf97	0.007162045
1	0x3bc9d2b7	0.0061591524
2	0x3babeba8	0.0052465983
3	0xb84aee43	-4.838245e-05
4	0x3af7c51a	0.0018903345
5	0xbbc97720	-0.006148234
6	0xbbb757d8	-0.0055951886
7	0xbbc65723	-0.006052868
8	0xbb7eb84f	-0.003886718
9	0xbbab557b	-0.005228696
10	0x3b9b83fb	0.004745958
11	0xbbd1f995	-0.0064079263
12	0xbb73bee5	-0.003719264
13	0x3ba5ed76	0.005063708
14	0xbbbf345c	-0.005835099
15	0x3bafd657	0.0053661275
16	0xbbb48feb	-0.0055103204
17	0x3ba9ae44	0.005178245
18	0x3b740a54	0.0037237601
19	0x3bd62c71	0.0065360595
20	0x3ba12fa2	0.0049190084
21	0x3b9a6a13	0.004712352
22	0xbbc75517	-0.0060831415
23	0xbbd1d48d	-0.006403512
24	0x3ba56a22	0.0050480524
25	0x3baf1fc5	0.0053443634
26	0x3ba97b3e	0.0051721623
27	0x3ba7779c	0.005110694
28	0xbbe3258f	-0.0069319676
29	0xbb4ece9a	-0.003155625
30	0xbbd89b6d	-0.006610325
31	0x3baaf934	0.0052176956
32	0xbbc0c88d	-0.0058832825
33	0xba49d8ab	-0.00076998275
34	0xbbbdaaeb	-0.0057881973
35	0x3bb04464	0.0053792465
36	0xbbc03dfb	-0.0058667636
37	0x3b99a612	0.0046889866
38	0x3bc1b7bb	0.005911795
39	0x3ba9724f	0.0051710973
40	0xbbaab2dc	-0.00520931
41	0xbbc07e76	-0.0058744503
42	0x3bae00fd	0.0053101764
43	0xbbbb074d	-0.0057076574
44	0xbbb26cf9	-0.0054451195
45	0xbbf6460d	-0.007515675
46	0x3baee5c4	0.005337449
47	0x3bab9b81	0.0052370434
48	0xbbbc029a	-0.005737615
49	0x3ba9dbf7	0.0051836926
50	0x3bac6bf9	0.005261895
51	0xbbbb032d	-0.0057071657
52	0xbbb7c5d5	-0.0056083
53	0x3bac6769	0.005261351
54	0x3ba50b2b	0.0050367317
55	0xbba4866b	-0.0050209067
56	0x3babe6b4	0.005246008
57	0x3bacc738	0.005272772
58	0xbbe542c0	-0.0069964826
59	0xbbb99a76	-0.005664165
60	0xbbbcce6b	-0.0057619116
61	0x3bac7939	0.0052634743
62	0x3ba2e325	0.0049709254
63	0x3bb1b8b4	0.0054236297
64	0xbb99a9ab	-0.0046894155
65	0xbbdb1274	-0.0066855494
66	0xba9a4661	-0.0011770242
67	0x3be2a3a6	0.006916481
68	0x3bac3b24	0.0052560735
69	0xb9dfe6ec	-0.00042705925
70	0xbba34509	-0.004982595
71	0x3bc279a9	0.005934913
72	0x3be85014	0.007089624
73	0xbbbac035	-0.0056991824
74	0xbbca43a7	-0.0061726156
75	0xbbb6e4f0	-0.0055814907
76	0xbb9d7db6	-0.0048062457
77	0x3baa8b8d	0.005204624
78	0x3bcd880d	0.006272322
79	0x3b86c5d4	0.0041129384
80	0x3ba93c53	0.005164662
81	0xbbad980e	-0.0052976673
82	0x3ab835e7	0.001405415
83	0x3ba67d28	0.0050808378
84	0xbbc239fb	-0.005927322
85	0xbb9da816	-0.004811297
86	0x3baf7e73	0.00535565
87	0xbbc254cf	-0.00593052
88	0xbbba7517	-0.0056902277
89	0xbbc1c7ee	-0.005913726
90	0xb87e797a	-6.0671453e-05
91	0xbbcdcf00	-0.00628078
92	0xba24cd49	-0.00062866934
93	0xbbc49b5e	-0.0059999665
94	0x3bace60e	0.005276448
95	0x3ac579c8	0.0015066201
96	0xbbb996e1	-0.005663738
97	0xbbbd48cb	-0.0057765
98	0x3afec9ad	0.0019438766
99	0xbbc8901e	-0.0061206957
100	0x3ba007b8	0.0048837326
101	0x3ba24ba4	0.0049528647
102	0xbbb012cb	-0.005373334
103	0xbbca436b	-0.0061725876
104	0x3ba7a7e9	0.005116452
105	0x3b99d08b	0.0046940497
106	0x3badc443	0.0053029372
107	0xbbc635b7	-0.006048884
108	0xbb72743e	-0.0036995555
109	0x3ba85706	0.005137327
110	0x3bab2802	0.005223275
111	0xbbb995ea	-0.005663623
112	0x3baaa21f	0.0052073146
113	0xbbc347ed	-0.005959502
114	0xba8a405b	-0.0010547744
115	0x3ba47c05	0.005019667
116	0xbbea1c7b	-0.0071445084
117	0x3b4288c9	0.002968358
118	0xbbc7b83b	-0.00609496
119	0xbbc2b699	-0.0059421775
120	0xbbabed11	-0.0052467664
121	0xbbd58379	-0.006515917
122	0x3b798426	0.0038073151
123	0xbb2c6f62	-0.0026311507
124	0x3ba798ff	0.005114674
125	0x3a98616a	0.0011625711
126	0xbbcaeee1	-0.0061930274
127	0xbb53bc2f	-0.003230821

network_body._body_endoder.seq_layers.2.weight f4 [128, 128]
0	0xbe16671e	-0.14687774
1	0xbd27d96a	-0.040978827
2	0x3cd65282	0.02616239
3	0xbd9de9ed	-0.077106334
4	0xbda1aee3	-0.07894685
5	0x3df1ec8c	0.11812696
6	0xbe626905	-0.22110374
7	0xbcabc41a	-0.020967532
8	0x3d6c3e45	0.057676572
9	0xbcffd4bb	-0.031229367
10	0x3cb18cb7	0.021673543
11	0x3cdff6f7	0.027339442
12	0x3c0f800f	0.008758559
13	0x3e0d206d	0.137819
14	0xbdf52642	-0.11970188
15	0xbdf786af	-0.12086236
16	0x3d928d8e	0.07155906
17	0x3da5bb99	0.08092422
18	0xbda84f12	-0.082182065
19	0xbe04d7bf	-0.12972926
20	0xbd9537d5	-0.0728604
21	0x3da08ba8	0.07839137
22	0xbd71d4d9	-0.059040878
23	0xbd07a755	-0.033118565
24	0xbe21d17c	-0.15802568
25	0xbd058501	-0.032597546
26	0x3db28cc6	0.08718257
27	0x3c7f5f54	0.015586693
28	0x3d25d8b4	0.040489867
29	0xbde61de3	-0.11236169
30	0xbd9dc95e	-0.07704423
31	0x3d9b31c4	0.075778514
32	0xbd452f08	-0.048140556
33	0xbdd0a6d7	-0.10188072
34	0x3d1b65a1	0.037938718
35	0xbc360211	-0.011108891
36	0x3cd43c2f	0.025907604
37	0xbe1ee727	-0.15517865
38	0xbd426a9b	-0.04746495
39	0x3c0677dd	0.008207289
40	0x3dde3576	0.108500406
41	0xbc2e1089	-0.0106240595
42	0xbcf724de	-0.030168947
43	0x3d2338e3	0.039849173
44	0x3c8e9474	0.017404772
45	0x3b8adde8	0.004237879
46	0x3dbb273e	0.09138344
47	0xbde262fe	-0.110540375
48	0x3c736649	0.01485593
49	0xbd47f7b4	-0.048820212
50	0x3bb15ac2	0.0054124305
51	0xbc863aab	-0.016385397
52	0x3c3dc1ac	0.0115818195
53	0xbd5f6097	-0.054535475
54	0x3d71fef5	0.059081037
55	0x3bc39841	0.005969078
56	0x3d2c474d	0.042060185
57	0xbdfecf17	-0.12441843
58	0x3da27546	0.079325244
59	0x3a9e33b9	0.0012069858
60	0x3e3c676f	0.18398832
61	0x3e04e748	0.12978852
62	0x3da7940a	0.08182533
63	0xbda074e8	-0.07834798
64	0x3cf12e83	0.029441124
65	0x3d9aca39	0.07558102
66	0xbe82258c	-0.2541927
67	0xbd3d3b3c	-0.04619907
68	0xbc91ea9c	-0.017812066
69	0x3de8f1df	0.11374258
70	0xbdae8537	-0.085215025
71	0x3d7f61ce	0.062349133
72	0x3d5a4bc1	0.0532949
73	0xbc95776f	-0.018245427
74	0xbd813438	-0.06308788
75	0x3c51a9ee	0.012796862
76	0xbd26d122	-0.04072679
77	0x3e2d2501	0.16908647
78	0x3b495ef7	0.003072677
79	0xbe40818f	-0.18799423
80	0xbdb542d1	-0.08850635
81	0xbca92e9f	-0.020652113
82	0x3c62fae9	0.013853767
83	0x3e11dd8c	0.1424467
84	0x3dd5d9b8	0.10441917
85	0x3d216c9b	0.039410215
86	0xbdbc87e0	-0.092056036
87	0xbda3cb0b	-0.07997712
88	0xbd987e06	-0.07445912
89	0x3d04420a	0.032289542
90	0xbcc8f515	-0.024530927
91	0xbbf046b1	-0.007332646
92	0xbc577250	-0.013149813
93	0xbe10438c	-0.14088267
94	0xbcd24e35	-0.025672058
95	0x3d9a7107	0.075410895
96	0xbd4a8dbc	-0.049451575
97	0x3deac124	0.1146262
98	0x3d196ab5	0.03745528
99	0x3cc253c5	0.023721585
100	0xbe5a24a9	-0.21303047
101	0xbdc622ac	-0.09674582
102	0xbe3b7622	-0.18306783
103	0xbdce8678	-0.10084242
104	0x3c0d0419	0.008606934
105	0x3e04c9a1	0.1296754
106	0xbe3f7aef	-0.18699239
107	0xbd909d83	-0.07061293
108	0xbda99908	-0.082811415
109	0xbd8af8cc	-0.067857355
110	0xbd8ac456	-0.06775729
111	0x3df4f49b	0.11960717
112	0xbd1399bf	-0.036035296
113	0x3d22501f	0.03962719
114	0xbd8ac9b0	-0.0677675
115	0xbd31ed5a	-0.043439247
116	0xbdd2ddcb	-0.1029621
117	0x3dad3937	0.084581785
118	0xbc098839	-0.008394294
119	0xbd972c98	-0.073815525
120	0x3d985af0	0.0743922
121	0xbe2d5bc0	-0.16929531
122	0xbd151ae1	-0.036402587
123	0xbdfb611f	-0.12274384
124	0x3da5773e	0.08079384
125	0xbd375606	-0.044759773
126	0xbc556c9e	-0.013026385
127	0x3bb12e18	0.005407106
128	0xbe2f346e	-0.17109844
129	0xbdc83724	-0.09776142
130	0xbcf90ff9	-0.030403124
131	0xbce3ce04	-0.027808197
132	0xbd6fdb65	-0.05855884
133	0xbe6020d3	-0.21887521
134	0xbd89e156	-0.067324325
135	0x3cbd0025	0.023071358
136	0xbd121da2	-0.03567279
137	0xbdb82cb8	-0.089929044
138	0xbe0ffe11	-0.14061762
139	0xbd9b86c5	-0.075940646
140	0x3e05edb4	0.13078958
141	0x3cbd5a06	0.023114216
142	0x3d83e0e9	0.064393826
143	0xbd727ea4	-0.059202805
144	0xbd0d8fe3	-0.03456105
145	0xbc86763a	-0.016413797
146	0xbe40b104	-0.18817526
147	0x3dea481e	0.114395365
148	0x3d61cc16	0.055126272
149	0x3c664a78	0.014055841
150	0xbd92b285	-0.07162956
151	0xbe140da8	-0.14458334
152	0x3d97c662	0.074108854
153	0x3d646324	0.05575861
154	0x3d859cfb	0.06524082
155	0xbdd7090b	-0.10499772
156	0xbaeb0cc4	-0.0017932882
157	0x3d0184e0	0.03162086
158	0x3d852c98	0.06502646
159	0x3b666393	0.0035154566
160	0x3d3ae34a	0.045626916
161	0x3df568ed	0.11982904
162	0x3df526cc	0.119702905
163	0x3e29e0e8	0.16589701
164	0xbd8239c2	-0.06358673
165	0xbdb1cc18	-0.08681506
166	0xbdb633c3	-0.088965915
167	0x3b6388f2	0.0034719077
168	0x3dcbc62b	0.09949907
169	0xbcb6feef	-0.022338359
170	0xbd672447	-0.05643108
171	0x3d814b99	0.06313247
172	0xbd1cc6ac	-0.038275406
173	0x3e48de71	0.19616105
174	0xbdab27fc	-0.08357236
175	0xbd0921d1	-0.033479515
176	0xbb7cca76	-0.0038572825
177	0xbd4029d5	-0.046914894
178	0x3d081c9c	0.03323041
179	0xbd849a36	-0.06474726
180	0x3d2927e4	0.04129781
181	0x3be02e70	0.0068414733
182	0xbe873614	-0.26408446
183	0x3dc34c50	0.0953604
184	0xbd95367a	-0.07285781
185	0xbe42335a	-0.18964902
186	0xbc727eac	-0.014800709
187	0x3d871564	0.06595877
188	0x3dfbfec9	0.12304456
189	0xbda2c8dc	-0.07948467
190	0xbc2d695d	-0.010584203
191	0x3d81276a	0.06306346
192	0x3d816520	0.06318116
193	0x3d14056f	0.036137994
194	0x3cde2f39	0.027122127
195	0x3dd2b78e	0.102889165
196	0x3e0a82d4	0.1352647
197	0xbc0e7ffb	-0.008697505
198	0x3dc4f14c	0.09616336
199	0xbd5b1d01	-0.053494457
200	0x3d8690ac	0.06570563
201	0xbcc50671	-0.024050923
202	0xbbe98954	-0.0071269665
203	0x3d6c3aa6	0.05767312
204	0xbc7392e2	-0.014866563
205	0xbd8dbaff	-0.06920432
206	0x3cb8267c	0.022479288
207	0xbd488217	-0.04895219
208	0xbe178b15	-0.1479915
209	0x3ca0a58e	0.019610193
210	0x3d5d8b24	0.054087773
211	0x3d12983d	0.035789717
212	0x3c99406e	0.01870748
213	0xbd8cd89d	-0.06877253
214	0x3cf442bc	0.029816978
215	0x3d925ef2	0.07147016
216	0x3ddbe485	0.10736946
217	0x3d596d23	0.053082597
218	0xbdc41d8d	-0.09575949
219	0xbddb08ae	-0.10695015
220	0x3dd23e01	0.102657326
221	0xbe4d43dd	-0.20045419
222	0xbe5e6ee3	-0.21721987
223	0x3d1eaa5e	0.038736694
224	0x3b882c53	0.0041556745
225	0x3e16b35e	0.1471686
226	0xbd9249ba	-0.071429685
227	0xbdbd39b3	-0.09239521
228	0x3c43d851	0.011953429
229	0xbd416f21	-0.04722512
230	0x3d2b734d	0.041858006
231	0x3bfc0f6f	0.0076922695
232	0xbe03a09b	-0.12854235
233	0xbc98ffac	-0.018676601
234	0x3da987fe	0.082778916
235	0x3e238ebd	0.15972419
236	0x3d9b299d	0.075762965
237	0x3d9d2e37	0.076748304
238	0x3d5bb1d9	0.053636406
239	0xbb5e9f2a	-0.003396938
240	0xbcf81845	-0.03028501
241	0x3dab0abe	0.08351658
242	0xbbbd1c09	-0.0057711643
243	0xbde24353	-0.11047997
244	0xbe3d1849	-0.18466295
245	0xbbdd1341	-0.00674668
246	0xbe23c60b	-0.15993516
247	0x3dd229cb	0.102618776
248	0x3da9faf1	0.082998164
249	0x3d173243	0.036913168
250	0x3c8dccdb	0.017309597
251	0x3d5df9f4	0.054193452
252	0xbe81352e	-0.25235885
253	0xbdc317d2	-0.09526028
254	0x3e3b8342	0.1831179
255	0x3e6520cf	0.22375797
