Results/test1/Doughnut/Doughnut-36096.pt (torch, 770311 bytes, 33 tensors)

network_body._body_endoder.seq_layers.0.weight f4 [128, 114]
00000000: 7773 aebd e0e6 3b3c 80e1 4dbb 3e4a 793d
00000010: c311 4cbd 530b 713c a67f a93b 0670 ca3c
00000020: bd39 a7bd f32b 103e 1adb 853d 3207 1cbc
00000030: db9b 05bd 1118 273d 33ea 4b3d be4b 193e
00000040: 368f 8d3b c8cc 123e 0d44 7ebd 1b83 273d
00000050: 1c92 0a3d e13f 303e 000a cdbd f659 d639
00000060: 641a d93a f188 11be 70ab a7bd cff0 25bd
00000070: e437 0c3e 7b3a d03d 8fa4 20bd 1fb3 f03d
00000080: 10d2 a8bd a080 6ebb b541 c8bd a20f 3fbd
00000090: 4e46 20be 22dd a73d d6a0 f93d 7472 263e
000000a0: fb3d 0fbd bf73 1b3d 73ba cbbd 320e 23bb
000000b0: f078 013e 2bfd b4bd 99dc b83d 4f8b 7ebd
000000c0: 0366 633d e7f2 41bd 931f 3a3d 1f2f 323e
000000d0: bfa7 0ebe 4a78 eb3d 8311 bfbd 821c 28bb
000000e0: 936a dfbd 17c4 fb3d 6a19 423e 54cd 1abe
000000f0: cb1e bb3d 3fb4 723c 4fa8 183c 2489 523c
00000100: 29a1 30bd 8090 f73d 2b26 b6bd 3ad2 f8bd
00000110: 3f23 4bbe 43c8 a33c 8aa3 2abc a9cd 073d
00000120: b6c6 d4bc 0630 b5bd d54b 273e 5105 6a3d
00000130: e3ec 2abd 5745 61bd 1c3f 49bd 1a56 04be
00000140: 6544 e8bd 701d f3bd b354 b93c 2dab 2f3e
00000150: 61c2 46bd 6ae0 7cbd 22e7 443d 6877 d23d
00000160: 4810 29bc ad8f 1fbd 53b7 fabd 69d5 673e
00000170: 15cf 383d 7f46 80bd 537d a93d f25b 273e
00000180: 8e07 ec3d 7c5e 04bc 023b e53c ed55 7c3c
00000190: f8ad fe3c 4b40 463e 30ca 7fbd 08bc b7bd
000001a0: 35d5 9cbd de04 f43d d910 b6bc 3ae2 75bd
000001b0: 52fb 5e3d 4168 1bbd d790 603d 9cad 133e
000001c0: 195e 813e d83f 90bd 7ad7 9ebd d9fd 203e
000001d0: 3567 22be 1dd8 303d e2d5 b9bd 0d6f b83d
000001e0: 2b95 1dbe d88d 1fbd 1794 613e 7aa8 04be
000001f0: f22e d53d 1024 f63d a959 1e3d 040a ae3b
00000200: ac54 033e 1278 e03d 7bd5 9ebb be0c 9fbc
00000210: 18ab a7bd 6197 0e3d 7e88 06bd c66a ebbd
00000220: f324 2f3d b006 1bbe fa8b 0c3e 03d8 93bc
00000230: 6c5f adbd 08f6 a73d de75 ffbd 7eb3 3c3d
00000240: c099 eebd 599e 1f3e 347a b23c bd41 563d
00000250: 97c5 abbc feb8 423d 7849 713e c7ea 053d
00000260: fa77 4dbd 6315 2c3e e350 943d 3a04 66bc
00000270: ddc9 a73c e412 343c fff8 cebd c0a3 1ebd
00000280: bb22 2cbd 0eb9 4ebc ca49 12bc fa27 aabd
00000290: c329 913c 3eac b8bd e118 2bbe cbc7 86bd
000002a0: 81f3 973c f4bc 073d a2b4 07be 2a24 353d
000002b0: 30ea fbbc 5aaf f3bb d487 0cbe 23df 213e
000002c0: 98d3 023c cde1 8ebd c7ca 77be e1b1 cbbc
000002d0: 9156 313d 3f47 d5bd 12b0 933d 598d 3f3c
000002e0: 02d9 95bd 3a62 0ebe 6bf1 c03c 233f 3f3d
000002f0: 13b2 0e3d 51a2 613d cd8e 93bc b1f0 383e
00000300: b957 183e ae95 8ebc 57c6 b7bd 3f8a 513e
00000310: 628a f1bc 0533 5c3d e371 483d 0e52 903c
00000320: 104a 9d3d a716 f13d 2e1f 91bd c3ee 4dbd
00000330: 45a0 bc3c 26b1 1a3d 4298 a3bd 9b1b 183e
00000340: 68b9 aabd 7632 ecbc 5774 6a3e d674 703c
00000350: dd05 313c cfda 4ebd ce0b 423d f7df 7b3d
00000360: 0a4f 0ebe a8c1 643c b39b 09bc d00e 843c
00000370: f6b9 283c e483 aabc b7a1 a4bc 2299 b83d
00000380: a175 553d f3ba e63d 9040 c03d 2fe4 5bbc
00000390: e331 36bc 6543 4dbd 9063 493c 0d0e 923e
000003a0: cfeb 27be 6635 fe3d e26c 203e 6c58 f2bc
000003b0: 7b80 e8bc 6a40 c33d 877a 213d ba6f 7e3d
000003c0: 2232 333d 2886 3abe 53bf 5f3c acce 6cbd
000003d0: a98c 073e 35f3 0bbd 1fd9 f9bd c4bd e6bd
000003e0: 360e 013e e0f5 54be cb9a 2a3e c5de 083d
000003f0: 890c 833e 0853 183c 486a 373d 3a3a 8c3d
-0.08518117 0.011468619 -0.0031414926 0.06086182 -0.049821626 0.014712173 0.0051726876 0.02471162
-0.081653096 0.14079265 0.06535931 -0.0095232 -0.03261934 0.040794436 0.049783897 0.149703
0.0043200506 0.1433593 -0.062076617 0.040896516 0.033830747 0.17211868 -0.10011673 0.00040884287
0.0016563651 -0.14212395 -0.08186996 -0.040512856 0.13693196 0.10167404 -0.039219435 0.11752915
-0.08243191 -0.0036392584 -0.097781576 -0.046645768 -0.15651819 0.081964746 0.1218888 0.16254598
-0.03497122 0.03795218 -0.09947672 -0.0024880287 0.1264379 -0.088373505 0.09026451 -0.062144574
0.055517208 -0.04735079 0.045440268 0.17400788 -0.13931178 0.11497553 -0.09329512 -0.0025651758
-0.10908999 0.122932605 0.18955007 -0.15117389 0.09136733 0.014813482 0.009317472 0.01285008
-0.043122444 0.12088108 -0.08893999 -0.121494725 -0.19837664 0.019992953 -0.010414967 0.033155117
-0.025973659 -0.0884705 0.16337521 0.057133976 -0.04172982 -0.05499777 -0.04913245 -0.1292347
-0.1134117 -0.11870849 0.022623396 0.17155142 -0.048525218 -0.061737455 0.048071988 0.10276681
-0.010318823 -0.03895538 -0.122419976 0.22640003 0.045119364 -0.06263446 0.08275857 0.16343668
0.115248784 -0.008079167 0.027982239 0.015401346 0.031088814 0.19360463 -0.06244868 -0.08971411
-0.076578535 0.11914991 -0.02222483 -0.0600302 0.054438896 -0.03794122 0.05482563 0.14421695
0.25267103 -0.07043427 -0.07755943 0.15721835 -0.15859683 0.04317485 -0.09073998 0.09005556
-0.15388934 -0.038953632 0.22029148 -0.12954894 0.10409345 0.12018597 0.038659725 0.0053112525
0.12825269 0.109604016 -0.004847226 -0.019415256 -0.081869304 0.034812335 -0.032845013 -0.11494975
0.042759847 -0.1513927 0.13725272 -0.018047338 -0.08465466 0.082012236 -0.12473653 0.046069615
-0.11650419 0.15587749 0.021786787 0.052308787 -0.020968242 0.047539704 0.23563182 0.032694604
-0.050163247 0.16805033 0.072419904 -0.014039094 0.020481998 0.010990832 -0.10106086 -0.038730383
-0.04202531 -0.012617363 -0.0089287255 -0.08308406 0.017720109 -0.090172276 -0.1670871 -0.06581076
0.018548729 0.033139184 -0.132525 0.04422394 -0.030751318 -0.007436675 -0.1372369 0.15807776
0.007985018 -0.06976662 -0.24198447 -0.024865093 0.043295447 -0.1041398 0.07211317 0.011691415
-0.073167816 -0.13904658 0.023552617 0.04669107 0.034837794 0.055086438 -0.018012429 0.18060566
0.14877214 -0.017405357 -0.08973377 0.20462893 -0.029484931 0.053759594 0.048936736 0.017617252
0.07680142 0.11771899 -0.07086025 -0.05027653 0.023025641 0.0377666 -0.07988025 0.1485428
-0.08336145 -0.028832655 0.22895943 0.014676293 0.010804621 -0.05050164 0.04737454 0.061492886
-0.13897339 0.013962187 -0.008398938 0.016120344 0.010298243 -0.020814843 -0.020096643 0.09013583
0.052114133 0.112661265 0.09387314 -0.013421102 -0.011120292 -0.0501131 0.012291804 0.28526345
-0.16398548 0.12412529 0.15666535 -0.029583178 -0.028381577 0.095337704 0.03942349 0.06211827
0.043748982 -0.18215239 0.013656455 -0.057814285 0.13237251 -0.034167487 -0.12199616 -0.11266664
0.12603077 -0.20796919 0.16660611 0.033415575 0.255955 0.00929714 0.044779092 0.06847043

network_body._body_endoder.seq_layers.0.bias f4 [128]
00000000: 9784 d6ba 2757 053b 2835 bd3a b5a8 a4ba
00000010: 4497 a93a 9582 863a 385e d1ba 9160 c8ba
00000020: d93f af3a 3a17 c3ba d119 c4ba 9125 193b
00000030: fd71 c3ba b562 8ebb 26d7 75bb d3a8 08bb
00000040: 4391 993a 5abb 92ba a7f5 d4ba 4ce9 b63a
00000050: 0c3b a03b 9544 ce3a 2244 c63a 2a79 f93a
00000060: 0d3c 88bb c2a6 c13a aef1 c2ba 4d60 56bb
00000070: 4655 beba e5d8 963a a0d9 9f3a c9c7 023b
00000080: 45c9 e8ba 0a65 ceba 4d32 a93a bc2c 03bb
00000090: dbba 33bb 7526 b13a 8de4 f0ba f67a c13a
000000a0: bae1 af3a 74e3 d7ba 7d5f ab3a 32fe 8fba
000000b0: 6ae9 dc3a 72fd 343b 9f83 803b 601d b43a
000000c0: 1665 bf3a 2c7c 973b ee57 bb3a 3f54 b4ba
000000d0: 90aa b43a 7a08 203b c84f dbba afe6 853a
000000e0: 8698 833a a42a bf3a ee9d 873a ae9f 103b
000000f0: 1e84 cfba 5148 c4ba 6a38 873a b8d3 b13a
00000100: 3734 c5ba d60e f7ba 0bb7 b83a 1f64 c5ba
00000110: f637 a33a 7eff d9ba f26d f8ba f0fd fbba
00000120: 0533 91bb 8672 bf3a feb8 dfba d0a7 bb3a
00000130: bbb3 c0b8 5c9e c9ba c6fb c63a 3c3a bdba
00000140: e5e5 a13a 1eb2 b53a 8cf2 a03a d2cc cc3a
00000150: 2d88 7aba c5c3 d03a 11cf d53a 4654 83bb
00000160: 8eca 843a 9561 d23a 457b 28bb fafc 28bb
00000170: 864a 853a 31fa ba3a 15cf d4ba 16ce 92b8
00000180: 0661 ea3a 390d 3f3b 27be b43a 8832 c7ba
00000190: 5ed9 c7ba bce4 ab3a ff7e cbba 9869 c8ba
000001a0: 209f a43a 0787 86bb 6720 daba 3bda d7ba
000001b0: 7b83 b4ba 3294 fcba 19e0 d9ba 23fe ac3a
000001c0: 5150 b63a 536f b63a 35b5 d7ba f694 863a
000001d0: 9bf7 64bb 9cd0 a83a 1724 dcba 82ce 96bb
000001e0: 3fb3 e9ba 948c 96bb 743e 6a3b 00ff dbba
000001f0: 6dcd bc3a 42f7 dbb9 0ebc b03a f503 b03a
-0.0016366419 0.0020346136 0.0014435397 -0.0012562486 0.0012938757 0.0010262305 -0.0015973514 -0.0015287568
0.0013370469 -0.0014884241 -0.0014961307 0.0023368339 -0.001491129 -0.004345263 -0.0037512272 -0.002085258
0.0011716265 -0.0011194751 -0.0016247527 0.0013955026 0.0048898514 0.0015736992 0.0015126506 0.0019033302
-0.0041575492 0.0014774429 -0.0014873052 -0.0032711208 -0.0014521263 0.0011508731 0.0012195595 0.0019955507
-0.0017760178 -0.0015746665 0.0012908668 -0.0020015677 -0.0027424607 0.0013515489 -0.001837866 0.0014761377
0.0013418712 -0.0016470985 0.0013074722 -0.001098579 0.0016854231 0.0027616885 0.0039219405 0.0013741665
0.001460227 0.0046229567 0.0014293173 -0.0013758017 0.0013783742 0.0024419115 -0.0016732151 0.0010215844
0.0010039962 0.0014584851 0.0010346749 0.0022067833 -0.0015832221 -0.0014975165 0.0010316495 0.0013567125
-0.0015045468 -0.0018849026 0.0014092637 -0.0015059746 0.0012452591 -0.0016631929 -0.0018953665 -0.001922546
-0.004431131 0.0014606274 -0.0017068682 0.001431698 -9.188751e-05 -0.0015382278 0.0015181236 -0.0014436911
0.0012351839 0.0013862287 0.0012279316 0.0015625006 -0.0009557035 0.0015927484 0.0016312321 -0.004007849
0.0010131167 0.001605081 -0.002570824 -0.0025785551 0.0010169304 0.0014265237 -0.0016236032 -7.000209e-05
0.0017881698 0.0029152168 0.001378958 -0.0015197555 -0.0015247276 0.0013114433 -0.0015525519 -0.0015290258
0.001255963 -0.004105452 -0.0016641737 -0.0016468236 -0.0013772094 -0.001927024 -0.0016622572 0.0013198297
0.0013909434 0.0013918675 -0.0016457202 0.0010267782 -0.0034937623 0.0012879553 -0.0016795424 -0.0046022544
-0.0017829909 -0.004594395 0.0035742791 -0.001678437 0.0014404483 -0.00041955156 0.0013483779 0.0013428914

network_body._body_endoder.seq_layers.2.weight f4 [128, 128]
00000000: 9478 963d dd40 593c e001 02be 5fde 10bd
00000010: d1ed f3bd 0df3 84bd 2ee0 e1bc c16c d1bc
00000020: ddd0 2a3d 9bfc 353c fcaf 17bd b896 e63c
00000030: fdcc dfbd f613 21bd de3a 7bbd b4f1 003e
00000040: 0836 b5bc 8699 d73c b876 8cbd 7477 a9bd
00000050: e219 a83c 1953 123c 1963 8dbc cf45 30bc
00000060: f92c 553d a9d5 013e c6d8 42bd ceb6 833c
00000070: 3396 adbc 9c99 1f3e f9aa 12bd 28e6 81bd
00000080: 0b2b a53d fd1b 4abd d5f2 72bc f7f3 be3d
00000090: 05e5 223d ad01 c13d 43f7 293e ecfa 08be
000000a0: 19ce 6b3d a9af 013e 6413 fc3c 4579 7dbc
000000b0: 260d fdbc fe60 e73b 3290 683d ede2 cc3d
000000c0: a74d a83c ca66 17bc 7a02 e93d e77c 8e3c
000000d0: 2790 95bd a74b dfbc 468e 4c3d 1d31 153c
000000e0: 9d30 3fbd 5db4 12bd 38f5 28bc f0a1 273d
000000f0: 0c86 12be c23a a0bd 671d dbbc efa6 3abe
00000100: 33c3 c1bd 8c6b a53d 079e afbc b671 9ebd
00000110: d4b0 dc3b 2df1 3abe 8a92 413e 0443 4b3d
00000120: 5812 113d 5f8a 6ebc 6c1b 46bd 28de 4b3c
00000130: d00a 063d b226 413d f119 4d3e f184 b23d
00000140: af03 d0bd 30f2 84bd d706 c4bd 8ec3 dfbd
00000150: 529c 283c 0e6b 29bb bc6c 3fbc 6aa0 193d
00000160: f1a9 78bd 64d1 ae3c 04d0 90bd 46c2 83bd
00000170: 839d 153d 911e ffbc 9d71 a13b 2c11 293e
00000180: 4053 773d 7d84 15bc 430e 70bd ad8b 6abd
00000190: 7214 a2bd 1158 adbd 26c7 753d c266 0dbd
000001a0: 8ede 6dbd 5e80 e43d 8ef6 c83d 56f9 26bd
000001b0: 9cfb 74bd 3c98 89bd 84d4 f6bc b293 8bbd
000001c0: 44f8 24be 318b 75bd 31a1 a33d f0eb 56bd
000001d0: dcff b4bd e617 383e e8fe 1ebb edab 8dbd
000001e0: 3f69 88bd 9582 8d3d 77a8 eabd a982 08be
000001f0: 74af 55bd 6a64 b93d 0ecd bbbc 12d5 2a3d
00000200: 2e8f 193d 1370 063d 9ce7 57bd 7f3c a6bd
00000210: 50f8 85bc dbe4 46be 5c0c 63be 3d84 6a3d
00000220: 2825 a43d d300 aebd c3b5 d83d 1237 5e3c
00000230: ce0f a63d e12b 46bc a869 563d b7cd 56be
00000240: 58f0 bcbc 135e ac3d c5a6 1abe 6f47 02be
00000250: 815f 283e e412 263d dfd0 4abd 1001 54bd
00000260: 8ed5 833d 059d b6bd d327 a2bd e4b4 33bd
00000270: 897b a5bd 6d30 053e f82f 083e e9ce a2bd
00000280: 02a7 d1bc ca05 aabd 1d73 6a3d a137 43be
00000290: 4aba d9ba eede 7cbe bdbb a93c 4a00 353d
000002a0: e807 8abb 3183 693c 11b3 443d 0307 353e
000002b0: cf70 003e 227e 423d 918a cabc 1c30 233c
000002c0: 8739 8a3c 65d0 35bd d174 1e3e e7b6 563d
000002d0: 3801 d9bc 994b 313c 924c 10bd 809d 403e
000002e0: af43 87bd 3179 9ebc 11c4 3d3c b3a6 94bc
000002f0: e3aa f63c 9fa3 2c3d 8997 233e 8045 18be
00000300: 38ef 49be 5fc8 55bd 5f85 3fbe 8322 babd
00000310: 2742 403e 5d50 ffbc 892c 38bb 21ce e1bc
00000320: 5ec3 ac3d 9878 34be f7b1 83bd 9363 e53c
00000330: b888 1c3e cfae 12be 0f7f fbbc 896b 173d
00000340: ef39 973c e884 7bbc 92b8 b43d 48f3 a93c
00000350: 836f 813d 605a a9bc 4dfc 103e 2bc9 bd3d
00000360: ae4c 1fbe af61 bbbd 58af c83d 21f5 0d3e
00000370: 4aa1 cd3d 4dc2 7c3d 36a1 9e3d 29ae 02bc
00000380: 183b 303d 4959 1f3e 1a38 b4bd 2715 8f3d
00000390: 8adb 3bbd a309 313d 52d6 cfbb 88d1 e13d
000003a0: ff8d 303e 76c3 09bd 1bf9 643b 4870 c1bd
000003b0: cb08 c3bd efa9 e83d 3a32 bf3c 1a2c 80bc
000003c0: 7d5c 1a3d e740 ba3d 46f6 fd3d ac46 57bd
000003d0: dca7 283d fcd3 c83d 5483 79bd 7441 333c
000003e0: fee9 ddbc f0ef 623b 4a5d adbd 840a 083e
000003f0: 9c10 8abc e9fe 413d 7ec2 debb a12f 02bc
0.07347217 0.0132600935 -0.12696028 -0.03536832 -0.11910594 -0.06491671 -0.027572718 -0.025564553
0.041703094 0.011107589 -0.037033066 0.02814804 -0.1092777 -0.039325677 -0.061335437 0.12592202
-0.02212049 0.026318323 -0.06858581 -0.08274737 0.020520154 0.008930945 -0.017259168 -0.010758831
0.052044842 0.12679161 -0.047570013 0.016078379 -0.021189785 0.15585941 -0.035807583 -0.06342727
0.080648504 -0.049343098 -0.0148284035 0.09323876 0.03976919 0.09424148 0.16598229 -0.13376969
0.057569597 0.12664665 0.030770965 -0.015470807 -0.030890059 0.007061123 0.05677814 0.1000422
0.02054484 -0.009240815 0.113774255 0.017393542 -0.073028855 -0.027257754 0.04994037 0.009105948
-0.04667722 -0.03581654 -0.010312371 0.04092592 -0.14308947 -0.07823707 -0.026747419 -0.18227743
-0.094610594 0.080771536 -0.021437658 -0.077365324 0.0067349467 -0.18256064 0.18903556 0.049624458
0.035417885 -0.014559357 -0.048365995 0.012443103 0.032725155 0.047156043 0.20029427 0.08716763
-0.101569526 -0.06491506 -0.09571617 -0.10925971 0.010291176 -0.0025851163 -0.011683639 0.0375065
-0.060708944 0.02134008 -0.07070926 -0.06433539 0.036527168 -0.031142505 0.004926874 0.16510457
0.060382128 -0.009125826 -0.05860735 -0.05726211 -0.07914056 -0.08464063 0.060004376 -0.034521826
-0.058073573 0.111572966 0.098126516 -0.04076513 -0.059810266 -0.067184895 -0.030130632 -0.0681528
-0.16110331 -0.059947196 0.07989729 -0.0524711 -0.08837864 0.17977867 -0.0024260823 -0.06917558
-0.06660699 0.06909672 -0.11457913 -0.13331093 -0.05216928 0.090523556 -0.022924926 0.041707106
0.037490062 0.032821726 -0.052711114 -0.081170075 -0.016353756 -0.19423239 -0.22172683 0.05725502
0.080148995 -0.08496251 0.10581543 0.0135629345 0.08108483 -0.0120954225 0.052346855 -0.20976911
-0.023063824 0.08416381 -0.1510268 -0.12722562 0.16442682 0.04054536 -0.0495156 -0.051758826
0.06437217 -0.08916668 -0.07917752 -0.043873683 -0.08080203 0.13006754 0.13299549 -0.07949621
-0.02559233 -0.083018854 0.057238687 -0.1906419 -0.0016611305 -0.24694416 0.020719403 0.04418973
-0.0042123683 0.01425247 0.048022334 0.17678456 0.12543033 0.04748357 -0.024724277 0.009960201
0.016873134 -0.044388194 0.1547425 0.052420523 -0.026489839 0.010821247 -0.035229273 0.18810081
-0.066047065 -0.019344898 0.01158239 -0.018145895 0.030110782 0.04214823 0.15975775 -0.14870262
-0.19720161 -0.052193042 -0.18703221 -0.09088614 0.18775235 -0.03116625 -0.0028102717 -0.02756411
0.08435701 -0.17624128 -0.064304285 0.028001582 0.15286529 -0.14324497 -0.030700235 0.036967788
0.018460242 -0.015351512 0.088242665 0.020745888 0.06320097 -0.020672977 0.14158745 0.09266885
-0.15556595 -0.09149491 0.09799069 0.1386304 0.10040529 0.061708737 0.07745592 -0.007976093
0.043025106 0.15561403 -0.08799763 0.06986456 -0.045863666 0.04322208 -0.0063426876 0.11026293
0.17241667 -0.03363367 0.0034938517 -0.09445244 -0.095231615 0.11360537 0.02333938 -0.01564603
0.03768586 0.090944104 0.124004886 -0.052557632 0.04117571 0.09806058 -0.06091626 0.010940898
-0.027089115 0.0034627877 -0.08465059 0.13285261 -0.016853623 0.047362242 -0.0067980876 -0.007945926

network_body._body_endoder.seq_layers.2.bias f4 [128]
00000000: 0b27 deba d484 ad3a 997f b33a cff1 4a3a
00000010: 1eda a53a a92a d53a 52fe e2ba 0595 94ba
00000020: b60e bc3a 09ab 53bb 613f f1ba b63d 6aba
00000030: 78c6 a6b9 03a7 bdba a6cd acba e3aa b73a
00000040: 086a f0ba 05fc f4ba abe6 093b 6ce4 943a
00000050: 3c93 a139 9b84 c03a 8c63 d1ba b35f a43a
00000060: 5f8b 8c3a 2c72 87bb a2f3 d4ba 0ba3 adba
00000070: 8c5f 993a e347 bd3a aa2f 8e3a 3f6c b53a
00000080: 68da 973a 73f4 dfba 5ad5 bb3a c799 de3a
00000090: 1897 ba3a 3f55 b83a 5800 45ba 299f 763b
000000a0: 0a0a 92bb 59f7 013b 500d b33a 2f25 973a
000000b0: 6e19 1bbb 1e03 ebba f0e2 d4ba 060e a1ba
000000c0: a089 4b39 1168 8cba 31d1 b3ba b235 b63a
000000d0: 4771 9c3a 62d3 f63a e0e6 6d3b 1432 b53a
000000e0: 9507 4e3a b353 b2ba 95c2 fd3a ca2f 8cbb
000000f0: ecd2 d23a e79f a9ba d051 f1ba 59cc b53a
00000100: ecd4 c13a dd3c b5ba 8dbe e13a 254c a93a
00000110: 2b5a a03b c4bb ecba 09d5 c9ba cdc8 07bb
00000120: 00a6 e93a 8595 b93a 840e e63a 549c 8dbb
00000130: 5d78 ab3a cdb1 b93a 6116 b33a 27ed ce3a
00000140: c3cd a43a beda 8d3a 59de a4ba d2de 9e3b
00000150: e093 65ba 4da7 be3a 282c bc3a cbb8 7a3b
00000160: b53a e8ba 48f9 b73a 9050 cfba e605 ba3a
00000170: d823 c03a e0ef ecba f41f bcba 07b0 b33a
00000180: 7c7e aa3a 4200 e4ba d02d 11bb f6b7 273b
00000190: 8900 b43a b2fd 27ba c625 b03a 441f 2abb
000001a0: d8c6 efba d634 753b 8ee3 403b 2a1a 95bb
000001b0: 24a9 b13a e06b c03a 093c f03a aad8 bd3a
000001c0: c01a e5ba f082 a5ba a338 f2ba d517 8ebb
000001d0: efda cdba 59be 053b 09cb 9d3a b6e7 c63a
000001e0: 7666 c03a 7f82 e3ba 9479 be3a add5 deba
000001f0: 4eae b93a c065 bd3a f59d f3ba b119 59bb
-0.0016948892 0.0013238438 0.0013694643 0.0007741721 0.0012653505 0.0016263324 -0.0017318225 -0.0011335915
0.0014347646 -0.003229799 -0.0018405729 -0.0008935587 -0.00031809858 -0.0014469329 -0.0013183847 0.001401272
-0.0018342147 -0.001869083 0.002104203 0.0011359579 0.0003081801 0.0014687957 -0.0015975102 0.0012540728
0.0010722688 -0.0041334834 -0.0016246925 -0.0013247443 0.0011701449 0.001444098 0.0010847945 0.0013841464
0.0011585476 -0.0017086401 0.0014330551 0.0016983085 0.0014235703 0.0014063491 -0.0007515005 0.0037631488
-0.004456763 0.0019831269 0.0013660584 0.0011531467 -0.002366628 -0.0017930006 -0.0016241949 -0.0012287505
0.00019410858 -0.0010712167 -0.001371896 0.00139015 0.0011935615 0.0018831308 0.0036300942 0.0013824129
0.0007859406 -0.0013605267 0.0019360358 -0.004278158 0.0016084588 -0.0012941331 -0.0018411223 0.0013870104
0.0014788187 -0.0013827343 0.0017222926 0.001291637 0.0048935614 -0.001806133 -0.0015398572 -0.0020719052
0.0017825961 0.001415894 0.0017551933 -0.0043216143 0.0013082136 0.0014167369 0.0013663286 0.001578723
0.0012573529 0.0010822637 -0.0012578472 0.0048483396 -0.0008757692 0.0014545709 0.0014356421 0.0038257118
-0.0017717691 0.0014036084 -0.0015816856 0.0014192432 0.001465912 -0.0018076859 -0.0014352784 0.0013709076
0.0013007666 -0.0017395096 -0.002215255 0.0025591827 0.001373307 -0.0006408348 0.0013438992 -0.0025958577
-0.0018293513 0.0037415526 0.0029432508 -0.004550238 0.0013554436 0.0014680587 0.0018328439 0.0014484127
-0.0017479286 -0.0012627523 -0.0018480014 -0.004336337 -0.0015705506 0.0020407645 0.0012038659 0.0015175256
0.0014678973 -0.0017357616 0.0014532083 -0.0017000936 0.0014166327 0.001444988 -0.0018586504 -0.0033126886

action_model._discrete_distribution.branches.0.weight f4 [2, 128]
00000000: e296 23bc b5f1 db3b fa69 87ba 093b 153c
00000010: da92 90ba 841d 8c3b 4e23 d9bb 5493 41bb
00000020: 33d2 ea3b 3ae0 71ba b32e bb37 ca2e 073c
00000030: 0456 5d39 fce0 3eb9 aa30 c93b 1def 1fbb
00000040: fae3 6eba a748 92bc e637 adba a709 e33b
00000050: f5f2 bd3b f61c 283c db25 3dbb c17b 50bc
00000060: bbd4 823b c619 7f3c f84e 53bc 8c07 a73b
00000070: 8475 353c 4a45 8c3b 8026 063c 0dfd f0ba
00000080: d8d2 2bbc 9707 2bbc 3d3f 683c 195c f93a
00000090: bf43 30bb e50c 553c e59c b5bb a0e6 783b
000000a0: 8207 ccbb 004a 733a 802c f7b9 cfb9 283b
000000b0: d2e3 5e3a f454 2cbb 44b5 3a3b 26b5 ef3b
000000c0: 855f 2b3c e916 03bc 75aa fdba 4314 6a3c
000000d0: 14ff 4e3c 3e24 a23a 2de5 893a a1b9 9d3b
000000e0: 4fae d2bb 3270 edbb 4b74 123b ef1f 403a
000000f0: b98b a83c cd9b 34bb 2809 89bc c986 97bb
00000100: 668a 413c de50 e63b eb66 cc3b a82f 3b3b
00000110: a7ad d2ba 4ddb bcbb c6c5 6fbc edbf fabb
00000120: 5060 a1b9 9007 c13c 690c 79bb 27e2 17bc
00000130: 04cf 513c e88d f53a 796b 19bc 9a02 ef3b
00000140: e1fc 9d3b b472 90bb 5e27 b3bb ba07 043c
00000150: e77e 283c 9410 073c d564 793b c4b3 c53a
00000160: 82c7 82bc 1ff5 fbba 2f1b 6abb aca0 f13b
00000170: cdcc a7bc 4a08 b1bc 9642 9839 4c84 203a
00000180: 4b7d 3a3c 24c7 e3bb eb41 413c 1bc2 503b
00000190: cefe 63bb ca52 c43b d50e 4e3c 2db6 dbbb
000001a0: c196 1bbc fb44 463c 3495 243b 9377 ecbb
000001b0: 86d6 cb3b b4d8 833b 34e8 f73b 0bbd 933c
000001c0: 332a 193a 7d16 58bb 4db4 a8bb 8990 0fbc
000001d0: ca28 0bbc 843d c6bb 14f8 2bbb 19c2 4d3c
000001e0: 41bc 0a3c 787a 42bc cfa1 9e3c 64cf 72bc
000001f0: a579 9dbb d688 ae3c 8716 babb 1f2e 103c
00000200: 452e 30bc d66e 92ba ab17 37bc ea9f 433c
00000210: 2798 eabb d83e 45bc ca79 043c b1d4 3239
00000220: f61c 4ebc bb1d 4bbb 821d 803c 3658 363c
00000230: 730c 973a 024e 39bb 586b 1f3c 383e 54bc
00000240: 9144 e23b bf9c 2bbc 19b3 a6bb 7a07 213b
00000250: 33ee 103c 6196 ddbb 0703 4e3c 1c98 2e3c
00000260: 8071 213a bcdd d33c 54ac 233c 4256 2d3b
00000270: 27f8 c23b 1edd 30bc 54e5 873b 6db6 4abc
00000280: 205d 7abc f902 fd3b d955 a7bb 5461 56bc
00000290: 934f 93bc 7e6e d0b9 afad ab3b b27b e13b
000002a0: abb9 35bb 4f4d b23a 61e8 16bc 464e 03bb
000002b0: ec8e 8b3b ca0e 3e3c 86a1 1e3c c45c 2b3c
000002c0: bb86 593c a041 9dbb 0467 643b 530f 4b3b
000002d0: f769 ff3b ebc2 bbbb d3ed 403a d342 3bbc
000002e0: 582b 84bb 8d46 9439 70ea 4cbb f81c 6339
000002f0: 2490 583b 5bdc 303a b09d d0bb fbbf 88bc
00000300: ee9a 97bc 970f 613c c798 d4bb eae6 72bb
00000310: 094b 17bb 7ccd e4bb 43d3 0bbb 9ded 25bb
00000320: 6680 aebb 1270 e5b9 c7a8 44bc 5836 06bc
00000330: f6b6 b53b 000e 4bbc 2e5f a6bc f0e3 82bb
00000340: 6a6b b4ba 27aa 20bb 5771 b2ba 8970 e93b
00000350: 26f5 5c3c 8ca8 3cbc c446 aabc 79aa 15b8
00000360: c2c2 143c fec6 40bc 9f8e a13b 4286 02bc
00000370: 1239 1a3c 1c82 17bc 82df 263c 510c 1cbc
00000380: da5a 6e3b d91f 8c3b a787 813c c3be a53b
00000390: bfd8 63bc 61ba 583b a682 293b 2b7f 82bb
000003a0: 124c 963b 7642 393c 4e16 8a3b 5f8e cabb
000003b0: b59f 09bb 00ad 9dbc 39b3 0b3b a29d 12bc
000003c0: 3c35 2a3c 6589 113a b105 be3b fc41 12bc
000003d0: 8237 9a3b c722 82bb e863 03bc 07c5 f2bb
000003e0: 091b 5cbc 70dd 743c c2fe 4dbc 6289 df3a
000003f0: a971 9fbc 0f47 b53a cdeb fcbb cea5 f13b
-0.009984704 0.0067121633 -0.0010331266 0.009108313 -0.0011030093 0.0042759795 -0.006626523 -0.0029537277
0.007166171 -0.0009226833 2.2313883e-05 0.0082509015 0.00021108246 -0.00018203625 0.0061398344 -0.0024403997
-0.00091129506 -0.017856909 -0.0013215512 0.006928641 0.005796785 0.010260811 -0.0028861675 -0.012724818
0.0039926446 0.01557011 -0.012897246 0.005097335 0.011075381 0.004280721 0.00818789 -0.0018385962
-0.010487281 -0.010438821 0.014175233 0.001902464 -0.0026895849 0.013003563 -0.005542385 0.003797926
-0.006226481 0.0009280741 -0.00047144666 0.0025745516 0.0008502576 -0.0026295753 0.002848939 0.0073152957
0.010459785 -0.008001068 -0.0019353168 0.014287057 0.012634058 0.001237042 0.001052057 0.0048133885
-0.0064294706 -0.0072460407 0.0022347148 0.0007328977 0.020574437 -0.0027558685 -0.016727999 -0.004624222
0.011812782 0.007028683 0.0062378547 0.002856234 -0.0016073481 -0.0057634474 -0.014634555 -0.007652274
-0.0003078007 0.023563176 -0.0038001782 -0.0092702275 0.012805704 0.0018734308 -0.009364002 0.0072940113
0.0048214053 -0.004408205 -0.0054673394 0.008058483 0.010284162 0.008243699 0.0038054485 0.0015083482
-0.015964273 -0.0019222832 -0.003572177 0.00737389 -0.020483399 -0.021610398 0.0002904131 0.00061232294
0.011382411 -0.0069512296 0.011795501 0.0031853977 -0.0034789327 0.0059913145 0.012576778 -0.0067050667
-0.009496392 0.012101407 0.0025113346 -0.007216403 0.0062206415 0.0040236358 0.0075655226 0.018034479
0.0005842775 -0.0032972388 -0.0051484467 -0.008762487 -0.008493612 -0.0060498137 -0.0026240395 0.0125584835
0.008467735 -0.011870019 0.019364266 -0.014819954 -0.004805761 0.021305483 -0.005678955 0.008800059
-0.010753219 -0.0011171948 -0.0111750765 0.011939982 -0.0071592513 -0.012038909 0.008085677 0.00017054637
-0.012580147 -0.0030993063 0.01563907 0.01112943 0.0011524096 -0.0028275256 0.009730183 -0.012954287
0.0069051464 -0.010474383 -0.005087268 0.0024571107 0.008845854 -0.0067623113 0.012573964 0.010656383
0.00061585754 0.025862567 0.009989817 0.0026449119 0.005949992 -0.010794906 0.004147211 -0.012372595
-0.015280992 0.0077213016 -0.0051066694 -0.013084728 -0.01798228 -0.00039755175 0.0052392106 0.0068812007
-0.0027729075 0.0013603362 -0.009210677 -0.0020035668 0.004258981 0.011600206 0.009682065 0.010459129
0.013276751 -0.004799083 0.003485144 0.0030984476 0.0077946144 -0.005730023 0.00073596573 -0.011429506
-0.0040334873 0.00028281324 -0.0031267665 0.00021659199 0.00330449 0.0006746703 -0.006366454 -0.016693106
-0.018506493 0.013736627 -0.006487939 -0.0037063905 -0.0023085496 -0.0069825035 -0.0021335639 -0.002531863
-0.005325365 -0.00043761783 -0.01200313 -0.0081916675 0.0055454923 -0.012393475 -0.020309057 -0.0039944574
-0.0013764922 -0.0024515481 -0.00136141 0.007124011 0.013486182 -0.011514794 -0.020785697 -3.5683133e-05
0.009079637 -0.011766193 0.004930332 -0.00796658 0.009413021 -0.009247329 0.010185124 -0.009524421
0.003637007 0.0042762575 0.015811754 0.005058141 -0.013906657 0.0033070075 0.0025865226 -0.0039824448
0.004586705 0.011307349 0.0042140847 -0.0061815227 -0.0020999734 -0.019247532 0.0021316542 -0.008948715
0.010388669 0.00055517844 0.0057990183 -0.008926865 0.004706324 -0.003971431 -0.008019425 -0.0074087414
-0.01343418 0.014945373 -0.012572946 0.0017054493 -0.019463377 0.0013830381 -0.0077185393 0.007374502

action_model._discrete_distribution.branches.0.bias f4 [2]
00000000: 0bdd d03a 1add d0ba
0.0015935017 -0.0015935034

exp_avg f4 [128, 114]
00000000: 0000 0000 d72f ad37 d72f ad37 0000 0000
00000010: d72f ad37 d72f ad37 0000 0000 d72f ad37
00000020: d72f ad37 0000 0000 d72f ad37 d72f ad37
00000030: 0000 0000 d72f ad37 d72f ad37 0000 0000
00000040: d72f ad37 d72f ad37 0000 0000 d72f ad37
00000050: d72f ad37 0000 0000 d72f ad37 d72f ad37
00000060: 0000 0000 d72f ad37 d72f ad37 0000 0000
00000070: d72f ad37 d72f ad37 0000 0000 d72f ad37
00000080: d72f ad37 0000 0000 d72f ad37 d72f ad37
00000090: 0000 0000 d72f ad37 d72f ad37 0000 0000
000000a0: d72f ad37 d72f ad37 0000 0000 d72f ad37
000000b0: d72f ad37 0000 0000 d72f ad37 d72f ad37
000000c0: 0000 0000 d72f ad37 d72f ad37 0000 0000
000000d0: d72f ad37 d72f ad37 0000 0000 d72f ad37
000000e0: d72f ad37 0000 0000 d72f ad37 d72f ad37
000000f0: 0000 0000 d72f ad37 d72f ad37 0000 0000
00000100: d72f ad37 d72f ad37 0000 0000 d72f ad37
00000110: d72f ad37 0000 0000 d72f ad37 d72f ad37
00000120: 0000 0000 d72f ad37 d72f ad37 0000 0000
00000130: d72f ad37 d72f ad37 0000 0000 d72f ad37
00000140: d72f ad37 0000 0000 d72f ad37 d72f ad37
00000150: 0000 0000 d72f ad37 d72f ad37 0000 0000
00000160: d72f ad37 d72f ad37 0000 0000 d72f ad37
00000170: d72f ad37 0000 0000 d72f ad37 d72f ad37
00000180: 0000 0000 d72f ad37 d72f ad37 0000 0000
00000190: d72f ad37 d72f ad37 0000 0000 d72f ad37
000001a0: d72f ad37 0000 0000 d72f ad37 d72f ad37
000001b0: 0000 0000 d72f ad37 d72f ad37 0000 0000
000001c0: d72f ad37 d72f ad37 0000 0000 0a34 0037
000001d0: 0a34 0037 0000 0000 0a34 0037 0a34 0037
000001e0: 0000 0000 0a34 0037 0a34 0037 0000 0000
000001f0: 0a34 0037 0a34 0037 0000 0000 0a34 0037
00000200: 0a34 0037 0000 0000 0a34 0037 0a34 0037
00000210: 0000 0000 0a34 0037 0a34 0037 0000 0000
00000220: 0a34 0037 0a34 0037 0000 0000 0a34 0037
00000230: 0a34 0037 0000 0000 0a34 0037 0a34 0037
00000240: 0000 0000 0a34 0037 0a34 0037 0000 0000
00000250: 0a34 0037 0a34 0037 0000 0000 0a34 0037
00000260: 0a34 0037 0000 0000 0a34 0037 0a34 0037
00000270: 0000 0000 0a34 0037 0a34 0037 0000 0000
00000280: 0a34 0037 0a34 0037 0000 0000 0a34 0037
00000290: 0a34 0037 0000 0000 0a34 0037 0a34 0037
000002a0: 0000 0000 0a34 0037 0a34 0037 0000 0000
000002b0: 0a34 0037 0a34 0037 0000 0000 0a34 0037
000002c0: 0a34 0037 0000 0000 0a34 0037 0a34 0037
000002d0: 0000 0000 0a34 0037 0a34 0037 0000 0000
000002e0: 0a34 0037 0a34 0037 0000 0000 0a34 0037
000002f0: 0a34 0037 0000 0000 0a34 0037 0a34 0037
00000300: 0000 0000 0a34 0037 0a34 0037 0000 0000
00000310: 0a34 0037 0a34 0037 0000 0000 0a34 0037
00000320: 0a34 0037 0000 0000 0a34 0037 0a34 0037
00000330: 0000 0000 0a34 0037 0a34 0037 0000 0000
00000340: 0a34 0037 0a34 0037 0000 0000 0a34 0037
00000350: 0a34 0037 0000 0000 0a34 0037 0a34 0037
00000360: 0000 0000 0a34 0037 0a34 0037 0000 0000
00000370: 0a34 0037 0a34 0037 0000 0000 0a34 0037
00000380: 0a34 0037 0000 0000 0a34 0037 0a34 0037
00000390: 0000 0000 d21f 2db8 d21f 2db8 0000 0000
000003a0: d21f 2db8 d21f 2db8 0000 0000 d21f 2db8
000003b0: d21f 2db8 0000 0000 d21f 2db8 d21f 2db8
000003c0: 0000 0000 d21f 2db8 d21f 2db8 0000 0000
000003d0: d21f 2db8 d21f 2db8 0000 0000 d21f 2db8
000003e0: d21f 2db8 0000 0000 d21f 2db8 d21f 2db8
000003f0: 0000 0000 d21f 2db8 d21f 2db8 0000 0000
0.0 2.0645484e-05 2.0645484e-05 0.0 2.0645484e-05 2.0645484e-05 0.0 2.0645484e-05
2.0645484e-05 0.0 2.0645484e-05 2.0645484e-05 0.0 2.0645484e-05 2.0645484e-05 0.0
2.0645484e-05 2.0645484e-05 0.0 2.0645484e-05 2.0645484e-05 0.0 2.0645484e-05 2.0645484e-05
0.0 2.0645484e-05 2.0645484e-05 0.0 2.0645484e-05 2.0645484e-05 0.0 2.0645484e-05
2.0645484e-05 0.0 2.0645484e-05 2.0645484e-05 0.0 2.0645484e-05 2.0645484e-05 0.0
2.0645484e-05 2.0645484e-05 0.0 2.0645484e-05 2.0645484e-05 0.0 2.0645484e-05 2.0645484e-05
0.0 2.0645484e-05 2.0645484e-05 0.0 2.0645484e-05 2.0645484e-05 0.0 2.0645484e-05
2.0645484e-05 0.0 2.0645484e-05 2.0645484e-05 0.0 2.0645484e-05 2.0645484e-05 0.0
2.0645484e-05 2.0645484e-05 0.0 2.0645484e-05 2.0645484e-05 0.0 2.0645484e-05 2.0645484e-05
0.0 2.0645484e-05 2.0645484e-05 0.0 2.0645484e-05 2.0645484e-05 0.0 2.0645484e-05
2.0645484e-05 0.0 2.0645484e-05 2.0645484e-05 0.0 2.0645484e-05 2.0645484e-05 0.0
2.0645484e-05 2.0645484e-05 0.0 2.0645484e-05 2.0645484e-05 0.0 2.0645484e-05 2.0645484e-05
0.0 2.0645484e-05 2.0645484e-05 0.0 2.0645484e-05 2.0645484e-05 0.0 2.0645484e-05
2.0645484e-05 0.0 2.0645484e-05 2.0645484e-05 0.0 2.0645484e-05 2.0645484e-05 0.0
2.0645484e-05 2.0645484e-05 0.0 7.641511e-06 7.641511e-06 0.0 7.641511e-06 7.641511e-06
0.0 7.641511e-06 7.641511e-06 0.0 7.641511e-06 7.641511e-06 0.0 7.641511e-06
7.641511e-06 0.0 7.641511e-06 7.641511e-06 0.0 7.641511e-06 7.641511e-06 0.0
7.641511e-06 7.641511e-06 0.0 7.641511e-06 7.641511e-06 0.0 7.641511e-06 7.641511e-06
0.0 7.641511e-06 7.641511e-06 0.0 7.641511e-06 7.641511e-06 0.0 7.641511e-06
7.641511e-06 0.0 7.641511e-06 7.641511e-06 0.0 7.641511e-06 7.641511e-06 0.0
7.641511e-06 7.641511e-06 0.0 7.641511e-06 7.641511e-06 0.0 7.641511e-06 7.641511e-06
0.0 7.641511e-06 7.641511e-06 0.0 7.641511e-06 7.641511e-06 0.0 7.641511e-06
7.641511e-06 0.0 7.641511e-06 7.641511e-06 0.0 7.641511e-06 7.641511e-06 0.0
7.641511e-06 7.641511e-06 0.0 7.641511e-06 7.641511e-06 0.0 7.641511e-06 7.641511e-06
0.0 7.641511e-06 7.641511e-06 0.0 7.641511e-06 7.641511e-06 0.0 7.641511e-06
7.641511e-06 0.0 7.641511e-06 7.641511e-06 0.0 7.641511e-06 7.641511e-06 0.0
7.641511e-06 7.641511e-06 0.0 7.641511e-06 7.641511e-06 0.0 7.641511e-06 7.641511e-06
0.0 7.641511e-06 7.641511e-06 0.0 7.641511e-06 7.641511e-06 0.0 7.641511e-06
7.641511e-06 0.0 7.641511e-06 7.641511e-06 0.0 -4.127605e-05 -4.127605e-05 0.0
-4.127605e-05 -4.127605e-05 0.0 -4.127605e-05 -4.127605e-05 0.0 -4.127605e-05 -4.127605e-05
0.0 -4.127605e-05 -4.127605e-05 0.0 -4.127605e-05 -4.127605e-05 0.0 -4.127605e-05
-4.127605e-05 0.0 -4.127605e-05 -4.127605e-05 0.0 -4.127605e-05 -4.127605e-05 0.0

exp_avg_sq f4 [128, 114]
00000000: 0000 0000 27f6 d530 27f6 d530 0000 0000
00000010: 27f6 d530 27f6 d530 0000 0000 27f6 d530
00000020: 27f6 d530 0000 0000 27f6 d530 27f6 d530
00000030: 0000 0000 27f6 d530 27f6 d530 0000 0000
00000040: 27f6 d530 27f6 d530 0000 0000 27f6 d530
00000050: 27f6 d530 0000 0000 27f6 d530 27f6 d530
00000060: 0000 0000 27f6 d530 27f6 d530 0000 0000
00000070: 27f6 d530 27f6 d530 0000 0000 27f6 d530
00000080: 27f6 d530 0000 0000 27f6 d530 27f6 d530
00000090: 0000 0000 27f6 d530 27f6 d530 0000 0000
000000a0: 27f6 d530 27f6 d530 0000 0000 27f6 d530
000000b0: 27f6 d530 0000 0000 27f6 d530 27f6 d530
000000c0: 0000 0000 27f6 d530 27f6 d530 0000 0000
000000d0: 27f6 d530 27f6 d530 0000 0000 27f6 d530
000000e0: 27f6 d530 0000 0000 27f6 d530 27f6 d530
000000f0: 0000 0000 27f6 d530 27f6 d530 0000 0000
00000100: 27f6 d530 27f6 d530 0000 0000 27f6 d530
00000110: 27f6 d530 0000 0000 27f6 d530 27f6 d530
00000120: 0000 0000 27f6 d530 27f6 d530 0000 0000
00000130: 27f6 d530 27f6 d530 0000 0000 27f6 d530
00000140: 27f6 d530 0000 0000 27f6 d530 27f6 d530
00000150: 0000 0000 27f6 d530 27f6 d530 0000 0000
00000160: 27f6 d530 27f6 d530 0000 0000 27f6 d530
00000170: 27f6 d530 0000 0000 27f6 d530 27f6 d530
00000180: 0000 0000 27f6 d530 27f6 d530 0000 0000
00000190: 27f6 d530 27f6 d530 0000 0000 27f6 d530
000001a0: 27f6 d530 0000 0000 27f6 d530 27f6 d530
000001b0: 0000 0000 27f6 d530 27f6 d530 0000 0000
000001c0: 27f6 d530 27f6 d530 0000 0000 b602 3230
000001d0: b602 3230 0000 0000 b602 3230 b602 3230
000001e0: 0000 0000 b602 3230 b602 3230 0000 0000
000001f0: b602 3230 b602 3230 0000 0000 b602 3230
00000200: b602 3230 0000 0000 b602 3230 b602 3230
00000210: 0000 0000 b602 3230 b602 3230 0000 0000
00000220: b602 3230 b602 3230 0000 0000 b602 3230
00000230: b602 3230 0000 0000 b602 3230 b602 3230
00000240: 0000 0000 b602 3230 b602 3230 0000 0000
00000250: b602 3230 b602 3230 0000 0000 b602 3230
00000260: b602 3230 0000 0000 b602 3230 b602 3230
00000270: 0000 0000 b602 3230 b602 3230 0000 0000
00000280: b602 3230 b602 3230 0000 0000 b602 3230
00000290: b602 3230 0000 0000 b602 3230 b602 3230
000002a0: 0000 0000 b602 3230 b602 3230 0000 0000
000002b0: b602 3230 b602 3230 0000 0000 b602 3230
000002c0: b602 3230 0000 0000 b602 3230 b602 3230
000002d0: 0000 0000 b602 3230 b602 3230 0000 0000
000002e0: b602 3230 b602 3230 0000 0000 b602 3230
000002f0: b602 3230 0000 0000 b602 3230 b602 3230
00000300: 0000 0000 b602 3230 b602 3230 0000 0000
00000310: b602 3230 b602 3230 0000 0000 b602 3230
00000320: b602 3230 0000 0000 b602 3230 b602 3230
00000330: 0000 0000 b602 3230 b602 3230 0000 0000
00000340: b602 3230 b602 3230 0000 0000 b602 3230
00000350: b602 3230 0000 0000 b602 3230 b602 3230
00000360: 0000 0000 b602 3230 b602 3230 0000 0000
00000370: b602 3230 b602 3230 0000 0000 b602 3230
00000380: b602 3230 0000 0000 b602 3230 b602 3230
00000390: 0000 0000 b6e0 1d32 b6e0 1d32 0000 0000
000003a0: b6e0 1d32 b6e0 1d32 0000 0000 b6e0 1d32
000003b0: b6e0 1d32 0000 0000 b6e0 1d32 b6e0 1d32
000003c0: 0000 0000 b6e0 1d32 b6e0 1d32 0000 0000
000003d0: b6e0 1d32 b6e0 1d32 0000 0000 b6e0 1d32
000003e0: b6e0 1d32 0000 0000 b6e0 1d32 b6e0 1d32
000003f0: 0000 0000 b6e0 1d32 b6e0 1d32 0000 0000
0.0 1.556775e-09 1.556775e-09 0.0 1.556775e-09 1.556775e-09 0.0 1.556775e-09
1.556775e-09 0.0 1.556775e-09 1.556775e-09 0.0 1.556775e-09 1.556775e-09 0.0
1.556775e-09 1.556775e-09 0.0 1.556775e-09 1.556775e-09 0.0 1.556775e-09 1.556775e-09
0.0 1.556775e-09 1.556775e-09 0.0 1.556775e-09 1.556775e-09 0.0 1.556775e-09
1.556775e-09 0.0 1.556775e-09 1.556775e-09 0.0 1.556775e-09 1.556775e-09 0.0
1.556775e-09 1.556775e-09 0.0 1.556775e-09 1.556775e-09 0.0 1.556775e-09 1.556775e-09
0.0 1.556775e-09 1.556775e-09 0.0 1.556775e-09 1.556775e-09 0.0 1.556775e-09
1.556775e-09 0.0 1.556775e-09 1.556775e-09 0.0 1.556775e-09 1.556775e-09 0.0
1.556775e-09 1.556775e-09 0.0 1.556775e-09 1.556775e-09 0.0 1.556775e-09 1.556775e-09
0.0 1.556775e-09 1.556775e-09 0.0 1.556775e-09 1.556775e-09 0.0 1.556775e-09
1.556775e-09 0.0 1.556775e-09 1.556775e-09 0.0 1.556775e-09 1.556775e-09 0.0
1.556775e-09 1.556775e-09 0.0 1.556775e-09 1.556775e-09 0.0 1.556775e-09 1.556775e-09
0.0 1.556775e-09 1.556775e-09 0.0 1.556775e-09 1.556775e-09 0.0 1.556775e-09
1.556775e-09 0.0 1.556775e-09 1.556775e-09 0.0 1.556775e-09 1.556775e-09 0.0
1.556775e-09 1.556775e-09 0.0 6.4759875e-10 6.4759875e-10 0.0 6.4759875e-10 6.4759875e-10
0.0 6.4759875e-10 6.4759875e-10 0.0 6.4759875e-10 6.4759875e-10 0.0 6.4759875e-10
6.4759875e-10 0.0 6.4759875e-10 6.4759875e-10 0.0 6.4759875e-10 6.4759875e-10 0.0
6.4759875e-10 6.4759875e-10 0.0 6.4759875e-10 6.4759875e-10 0.0 6.4759875e-10 6.4759875e-10
0.0 6.4759875e-10 6.4759875e-10 0.0 6.4759875e-10 6.4759875e-10 0.0 6.4759875e-10
6.4759875e-10 0.0 6.4759875e-10 6.4759875e-10 0.0 6.4759875e-10 6.4759875e-10 0.0
6.4759875e-10 6.4759875e-10 0.0 6.4759875e-10 6.4759875e-10 0.0 6.4759875e-10 6.4759875e-10
0.0 6.4759875e-10 6.4759875e-10 0.0 6.4759875e-10 6.4759875e-10 0.0 6.4759875e-10
6.4759875e-10 0.0 6.4759875e-10 6.4759875e-10 0.0 6.4759875e-10 6.4759875e-10 0.0
6.4759875e-10 6.4759875e-10 0.0 6.4759875e-10 6.4759875e-10 0.0 6.4759875e-10 6.4759875e-10
0.0 6.4759875e-10 6.4759875e-10 0.0 6.4759875e-10 6.4759875e-10 0.0 6.4759875e-10
6.4759875e-10 0.0 6.4759875e-10 6.4759875e-10 0.0 6.4759875e-10 6.4759875e-10 0.0
6.4759875e-10 6.4759875e-10 0.0 6.4759875e-10 6.4759875e-10 0.0 6.4759875e-10 6.4759875e-10
0.0 6.4759875e-10 6.4759875e-10 0.0 6.4759875e-10 6.4759875e-10 0.0 6.4759875e-10
6.4759875e-10 0.0 6.4759875e-10 6.4759875e-10 0.0 9.189696e-09 9.189696e-09 0.0
9.189696e-09 9.189696e-09 0.0 9.189696e-09 9.189696e-09 0.0 9.189696e-09 9.189696e-09
0.0 9.189696e-09 9.189696e-09 0.0 9.189696e-09 9.189696e-09 0.0 9.189696e-09
9.189696e-09 0.0 9.189696e-09 9.189696e-09 0.0 9.189696e-09 9.189696e-09 0.0

exp_avg f4 [128]
00000000: ef2e ad37 e03c 0037 5735 2db8 3d40 0137
00000010: a611 b0b7 d9ec b1b7 4312 0f38 dccd a836
00000020: 0b5e c4b7 ed0b f436 3d8d 3237 ce92 31b5
00000030: 1edd bb35 61cc ca34 bbcb bab5 f260 d935
00000040: d5a7 85b7 8ae7 bab4 d39d b236 9e94 a3b7
00000050: b070 3cb5 0222 b5b7 a916 b2b7 018a 82b6
00000060: 2048 2837 3529 29b7 2946 1536 149e 0133
00000070: 2cc7 5a37 2e6c 6ab8 8d82 6db8 da86 53b4
00000080: f131 d237 9987 cb36 2ac9 31b7 c0f9 e135
00000090: a7c1 26b7 b963 7eb8 be81 0f37 f922 61b6
000000a0: 8398 f1b7 f85e 3138 fe35 29b8 539b 25b5
000000b0: b159 92b6 2eb2 0b36 2081 1234 3f5a 1db8
000000c0: 0888 20b6 9d8f ffb4 005a c8b7 39c7 e935
000000d0: 28cc b4b5 8bdf 79b4 dcbb 2f38 3ad9 e4b5
000000e0: 7f96 7fb6 169c 92b6 9cff 06b8 93e0 34b6
000000f0: 2b01 d536 d601 abb4 3482 7eb7 fe63 18b8
00000100: d65a 0338 28be 9337 9952 24b8 a17a 5337
00000110: a1cd 1cb7 b0f7 4237 d508 0336 8a94 a337
00000120: 3e1d c835 b64d 79b7 e755 ef37 b9de 90b6
00000130: 8671 cab7 cc3b 2438 6970 82b7 4128 5d37
00000140: 10a7 b2b6 ea93 a3b7 ea7d a4b7 d2b2 a8b7
00000150: adb0 0c36 e75c e4b7 d2ab abb6 a95c 7d33
00000160: 5c0d 21b5 655e 76b7 f1d7 c7b6 610b aeb6
00000170: 9805 6bb7 b7a9 4cb8 e452 8337 91d0 8736
00000180: a570 61b7 6b02 6c36 1a4b 19b8 7300 2237
00000190: 1350 c936 4b56 1bb8 639b c8b7 27fa 7836
000001a0: 0942 14b7 006e f1b4 7555 3437 2992 8f37
000001b0: e0ab 7d36 fb4a 3d2f 6ca7 9b37 3893 64b8
000001c0: d8f7 aab6 718f 2fb8 076f 3c38 b22a 14b6
000001d0: aafb 4db4 70c9 2bb8 a7c1 f536 b606 d336
000001e0: 5d33 e536 1839 3e36 ab2f f935 bbf0 8738
000001f0: d4a1 59b7 54bc aeb4 7e31 27b8 4bb3 68b8
2.0645062e-05 7.643568e-06 -4.129609e-05 7.703956e-06 -2.0989053e-05 -2.1210335e-05 3.4110864e-05 5.0307553e-06
-2.3408813e-05 7.273155e-06 1.0642511e-05 -6.615127e-07 1.3996939e-06 3.7774137e-07 -1.3917373e-06 1.6195975e-06
-1.5932988e-05 -3.4813667e-07 5.3231865e-06 -1.950032e-05 -7.019944e-07 -2.1592718e-05 -2.1229805e-05 -3.8903677e-06
1.0030373e-05 -1.0082779e-05 2.2243569e-06 3.0178924e-08 1.3040186e-05 -5.5890698e-05 -5.6626788e-05 -1.9699965e-07
2.5057207e-05 6.065657e-06 -1.0596859e-05 1.6836493e-06 -9.939459e-06 -6.0651193e-05 8.553672e-06 -3.354797e-06
-2.8800458e-05 4.2288535e-05 -4.0343024e-05 -6.1693316e-07 -4.3615805e-06 2.0816328e-06 1.3644285e-07 -3.7515765e-05
-2.3921039e-06 -4.7601944e-07 -2.3883767e-05 1.7417834e-06 -1.3470462e-06 -2.3271257e-07 4.189821e-05 -1.7050545e-06
-3.8085561e-06 -4.36931e-06 -3.2186144e-05 -2.695281e-06 6.3480306e-06 -3.1852568e-07 -1.5169895e-05 -3.633275e-05
3.131743e-05 1.7612314e-05 -3.9177572e-05 1.2605132e-05 -9.346201e-06 1.162097e-05 1.9525662e-06 1.9500283e-05
1.4909672e-06 -1.485965e-05 2.8531022e-05 -4.3174628e-06 -2.413314e-05 3.9156337e-05 -1.5549553e-05 1.3181999e-05
-5.324262e-06 -1.9499992e-05 -1.9608957e-05 -2.011043e-05 2.0964465e-06 -2.7222979e-05 -5.1161996e-06 5.8990427e-08
-5.9996614e-07 -1.4684721e-05 -5.955801e-06 -5.186929e-06 -1.4008394e-05 -4.879545e-05 1.5655016e-05 4.047594e-06
-1.3437272e-05 3.5168148e-06 -3.6547986e-05 9.656057e-06 5.9995887e-06 -3.7035246e-05 -2.3914215e-05 3.7100488e-06
-8.836862e-06 -4.4969784e-07 1.0748733e-05 1.711499e-05 3.7799982e-06 1.7216088e-10 1.8555402e-05 -5.4496544e-05
-5.0952476e-06 -4.185684e-05 4.4926095e-05 -2.207857e-06 -1.9183668e-07 -4.095718e-05 7.324113e-06 6.2890713e-06
6.8307113e-06 2.834544e-06 1.8565819e-06 6.482141e-05 -1.29718865e-05 -3.2547052e-07 -3.9861996e-05 -5.548009e-05

exp_avg_sq f4 [128]
00000000: 0ef3 d530 e900 3230 c1e2 1d32 70dd 982f
00000010: 30a6 7031 67fb ac31 fcb3 8f31 91b4 f62e
00000020: 48ac 6f31 e69c 712f e02b 2130 45ea 862b
00000030: 970c 342e bf00 e22f dca7 742c 24ca 1e2d
00000040: 5140 1031 e0d1 4e2c 98df d22e 1c02 4d31
00000050: 1ff5 6d2b bb51 1531 fec9 1731 1008 b22d
00000060: 4eed 1d2f 6c16 c02f 0860 952d 94e2 a227
00000070: 57a9 5f30 4a32 cc32 c3e3 c732 9c33 702a
00000080: fd08 f230 8fa4 142f 2783 9730 e251 e42c
00000090: 914e ad30 65e0 c632 6741 962f 7be4 5d2e
000000a0: 2405 a431 26ca c831 ca87 3432 e008 962e
000000b0: 24b3 8f2e 1c4e 792e a351 692a 7b81 0032
000000c0: 85cd 002e f95f 762c d912 5a31 24c3 912d
000000d0: 9c44 752e 6649 b72a 0fa1 c131 f999 e72f
000000e0: 4b9f fb2f 61ed ca2e 3921 3132 82b0 062d
000000f0: 8a57 402f d3ca b82d cee7 0931 a873 ee31
00000100: d729 8e31 db69 3e30 f7b9 fc31 3869 3630
00000110: 8e29 4c30 4344 1130 2154 302d cabf 8d30
00000120: c1b1 822c 6e04 9a30 f1e1 3031 4c14 782f
00000130: bd6f f431 4a9d d631 68c0 9930 c71a 5530
00000140: c690 c22f 05f6 2d31 7d38 8331 2ae1 eb30
00000150: 8b19 012e 0554 2e31 1943 a82e 4fa2 e22e
00000160: a15b ff2e ce38 3b30 cde1 782f ab35 cd2e
00000170: 2b60 3431 7820 5232 e209 5830 2456 532f
00000180: d2d0 d42f 7a88 112f 3cd3 0232 248a bf2f
00000190: a676 4a2f 3f11 2032 cc5a 0232 755b 712e
000001a0: ca30 4f30 6bc2 652f 91de 0030 9b7f 8030
000001b0: 5623 bc2e 2347 b026 c8e6 8330 698e 9c32
000001c0: 84c1 8a2f 5b47 2232 87a2 f931 4142 952f
000001d0: 89d3 5d2b 1add 2b32 c5c8 372f 01bc a82e
000001e0: 4977 152f f75d 032f 702a d82c 3cdd 6032
000001f0: a47b 8830 ce68 962b 89ba 2a32 ddfb 9e32
1.556687e-09 6.4757316e-10 9.190161e-09 2.780598e-10 3.5019063e-09 5.03444e-09 4.1823096e-09 1.121886e-10
3.4877008e-09 2.1974564e-10 5.863381e-10 9.586296e-13 4.0938444e-11 4.110969e-10 3.4767666e-12 9.026144e-12
2.0991318e-09 2.9390865e-12 9.5894126e-11 2.9832625e-09 8.453949e-13 2.1728812e-09 2.2088211e-09 2.0239838e-11
1.4363374e-10 3.4940528e-10 1.6981985e-11 4.520969e-15 8.1367574e-10 2.3771594e-08 2.3270223e-08 2.1334188e-13
1.7610372e-09 1.3518985e-10 1.1023972e-09 6.4892406e-12 1.2609737e-09 2.3152277e-08 2.7331312e-10 5.0452514e-11
4.7736126e-09 5.8437477e-09 1.0508254e-08 6.822787e-11 6.534709e-11 5.668542e-11 2.072288e-13 7.480021e-09
2.928637e-11 3.5011978e-12 3.1733889e-09 1.6571251e-11 5.5767488e-11 3.255826e-13 5.6353495e-09 4.212806e-10
4.5769818e-10 9.2280635e-11 1.031031e-08 7.656211e-12 1.7493398e-10 2.100845e-11 2.006789e-09 6.9398602e-09
4.1375006e-09 6.9272027e-10 7.355307e-09 6.636074e-10 7.427382e-10 5.28477e-10 1.0023122e-11 1.031361e-09
3.714557e-12 1.1206234e-09 2.5739804e-09 2.256268e-10 7.114038e-09 6.2461014e-09 1.11869e-09 7.7527e-10
3.5391262e-10 2.531466e-09 3.8190238e-09 1.7162496e-09 2.935389e-11 2.5368092e-09 7.6516744e-11 1.0306122e-10
1.1612334e-10 6.811093e-10 2.2635689e-10 9.331854e-11 2.6248113e-09 1.2230991e-08 7.8594387e-10 1.9220942e-10
3.871095e-10 1.323616e-10 7.615025e-09 3.4840852e-10 1.8413945e-10 9.317147e-09 7.587641e-09 5.4878286e-11
7.5375495e-10 2.08965e-10 4.6882415e-10 9.349493e-10 8.555527e-11 1.2231735e-15 9.597096e-10 1.822555e-08
2.5239555e-10 9.445865e-09 7.265331e-09 2.7150018e-10 7.8808536e-13 1.0003783e-08 1.6715081e-10 7.673152e-11
1.359385e-10 1.1947764e-10 6.1438007e-12 1.3088819e-08 9.930443e-10 1.068723e-12 9.9377155e-09 1.8508155e-08
