Results/test1/Doughnut/Doughnut-21504.pt (torch, 770311 bytes, 33 tensors)

network_body._body_endoder.seq_layers.0.weight f4 [128, 114]
00000000: 7773 aebd f530 453c 24b9 28bb 3e4a 793d
00000010: 3cbf 49bd 6855 7a3c a67f a93b 1115 cf3c
00000020: 7810 a6bd f32b 103e 5f04 873d 1dbd 12bc
00000030: db9b 05bd 986a 293d ba3c 4e3d be4b 193e
00000040: 6423 a03b 6761 133e 0d44 7ebd a2d5 293d
00000050: a3e4 0c3d e13f 303e bbe0 cbbd 64ce 7f3a
00000060: 641a d93a 52f4 10be 2b82 a6bd cff0 25bd
00000070: 83cc 0c3e c063 d13d 8fa4 20bd 64dc f13d
00000080: cba8 a7bd a080 6ebb 7018 c7bd 1bbd 3cbd
00000090: 4e46 20be 6706 a93d 1bca fa3d 7472 263e
000000a0: 74eb 0cbd 46c6 1d3d 73ba cbbd aecb fbba
000000b0: 8f0d 023e 2bfd b4bd de05 ba3d c838 7cbd
000000c0: 0366 633d 60a0 3fbd 1a72 3c3d 1f2f 323e
000000d0: 2013 0ebe 8fa1 ec3d 8311 bfbd 26f4 02bb
000000e0: 4e41 debd 17c4 fb3d 09ae 423e b538 1abe
000000f0: cb1e bb3d 54fe 7b3c 64f2 213c 2489 523c
00000100: a24e 2ebd c5b9 f83d 2b26 b6bd f5a8 f7bd
00000110: a08e 4abe 43c8 a33c 7559 21bc 3020 0a3d
00000120: b6c6 d4bc c106 b4bd 74e0 273e 5105 6a3d
00000130: 5c9a 28bd d0f2 5ebd 1c3f 49bd 7bc1 03be
00000140: 201b e7bd 701d f3bd bef9 bd3c cc3f 303e
00000150: 61c2 46bd e38d 7abd a939 473d 6877 d23d
00000160: 33c6 1fbc 263d 1dbd 53b7 fabd 086a 683e
00000170: 9c21 3b3d 7f46 80bd 98a6 aa3d 91f0 273e
00000180: 8e07 ec3d cc28 f6bb 0de0 e93c ed55 7c3c
00000190: 84a9 013d ead4 463e 30ca 7fbd c392 b6bd
000001a0: f0ab 9bbd de04 f43d ce6b b1bc b38f 73bd
000001b0: 52fb 5e3d ba15 19bd 5ee3 623d 9cad 133e
000001c0: 67a8 813e 9316 8fbd 7ad7 9ebd 4b27 213e
000001d0: c33d 22be 1dd8 303d fa82 b9bd f5c1 b83d
000001e0: 2b95 1dbe 10e8 1ebd 89bd 613e 7aa8 04be
000001f0: da81 d53d f876 f63d a959 1e3d 5d38 b33b
00000200: 1e7e 033e 1278 e03d 22a7 99bb 26c1 9dbc
00000210: 18ab a7bd 293d 0f3d b6e2 05bd c66a ebbd
00000220: bbca 2f3d 3edd 1abe fa8b 0c3e 6b8c 92bc
00000230: 840c adbd 08f6 a73d f622 ffbd 4659 3d3d
00000240: c099 eebd cbc7 1f3e ccc5 b33c bd41 563d
00000250: ff79 aabc c65e 433d 7849 713e 8f90 063d
00000260: 32d2 4cbd 6315 2c3e cba3 943d 0f6d 63bc
00000270: ddc9 a73c 0faa 363c 17a6 cebd c0a3 1ebd
00000280: f37c 2bbd e321 4cbc ca49 12bc 12d5 a9bd
00000290: 5b75 923c 3eac b8bd 6fef 2abe e374 86bd
000002a0: 81f3 973c bc62 083d 308b 07be 2a24 353d
000002b0: 989e fabc 0181 eebb d487 0cbe 9508 223e
000002c0: c36a 053c cde1 8ebd 55a1 77be 4966 cabc
000002d0: 9156 313d 57f4 d4bd fa02 943d 598d 3f3c
000002e0: 1a86 95bd c838 0ebe 6bf1 c03c ebe4 3f3d
000002f0: db57 0f3d 51a2 613d 3543 92bc 231a 393e
00000300: b957 183e 164a 8dbc 6f73 b7bd 3f8a 513e
00000310: ca3e f0bc cdd8 5c3d e371 483d a69d 913c
00000320: f89c 9d3d a716 f13d 46cc 90bd fb48 4dbd
00000330: 45a0 bc3c ee56 1b3d 5a45 a3bd 9b1b 183e
00000340: 8066 aabd dee6 eabc 5774 6a3e 010c 733c
00000350: 089d 333c cfda 4ebd 96b1 423d bf85 7c3d
00000360: 0a4f 0ebe d358 673c 8804 07bc d00e 843c
00000370: 2151 2b3c 4c38 a9bc b7a1 a4bc 0aec b83d
00000380: 691b 563d f3ba e63d 7893 c03d 044d 59bc
00000390: e331 36bc 88fd 4ebd fc7a 423c 0d0e 923e
000003a0: 585a 28be 5358 fd3d e26c 203e b6cc f5bc
000003b0: c5f4 ebbc 6a40 c33d 64c0 1f3d 97b5 7c3d
000003c0: 2232 333d b1f4 3abe bfd6 583c acce 6cbd
000003d0: 201e 073e 58ad 0dbd 1fd9 f9bd d79a e7bd
000003e0: ad9f 003e e0f5 54be 422c 2a3e a224 073d
000003f0: 890c 833e 746a 113c 25b0 353d 3a3a 8c3d
-0.08518117 0.012035598 -0.0025745118 0.06086182 -0.04925464 0.0152791515 0.0051726876 0.0252786
-0.0810861 0.14079265 0.065926306 -0.008956221 -0.03261934 0.04136142 0.050350882 0.149703
0.0048870314 0.14392625 -0.062076617 0.0414635 0.034397732 0.17211868 -0.09954973 0.00097582326
0.0016563651 -0.14155701 -0.08130296 -0.040512856 0.1374989 0.10224104 -0.039219435 0.11809614
-0.081864916 -0.0036392584 -0.09721458 -0.046078783 -0.15651819 0.08253174 0.1224558 0.16254598
-0.034404233 0.038519166 -0.09947672 -0.0019210482 0.12700485 -0.088373505 0.0908315 -0.06157759
0.055517208 -0.046783805 0.046007253 0.17400788 -0.13874483 0.11554252 -0.09329512 -0.001998195
-0.108523 0.122932605 0.19011702 -0.15060695 0.09136733 0.015380461 0.009884451 0.01285008
-0.04255546 0.12144808 -0.08893999 -0.12092773 -0.1978097 0.019992953 -0.009847988 0.033722103
-0.025973659 -0.08790351 0.16394216 0.057133976 -0.041162834 -0.054430783 -0.04913245 -0.12866776
-0.112844706 -0.11870849 0.023190375 0.17211837 -0.048525218 -0.06117047 0.048638973 0.10276681
-0.009751844 -0.038388394 -0.122419976 0.22696698 0.04568635 -0.06263446 0.083325565 0.16400363
0.115248784 -0.0075121876 0.028549219 0.015401346 0.031655803 0.19417158 -0.06244868 -0.08914711
-0.07601154 0.11914991 -0.02165785 -0.059463214 0.054438896 -0.037374236 0.055392615 0.14421695
0.25323793 -0.069867276 -0.07755943 0.15737645 -0.15843873 0.04317485 -0.09058185 0.09021369
-0.15388934 -0.03879553 0.22044958 -0.12954894 0.10425158 0.1203441 0.038659725 0.0054693655
0.12841079 0.109604016 -0.0046891132 -0.01925714 -0.081869304 0.034970436 -0.03268691 -0.11494975
0.04291795 -0.1512346 0.13725272 -0.017889222 -0.08449653 0.082012236 -0.1245784 0.046227716
-0.11650419 0.15603559 0.021944903 0.052308787 -0.020810125 0.047697805 0.23563182 0.032852706
-0.050005145 0.16805033 0.072578035 -0.013880982 0.020481998 0.011148944 -0.10090273 -0.038730383
-0.041867208 -0.012459251 -0.0089287255 -0.08292593 0.017878225 -0.090172276 -0.16692899 -0.06565263
0.018548729 0.033297285 -0.1323669 0.04422394 -0.030593202 -0.007278562 -0.1372369 0.15823586
0.00814313 -0.06976662 -0.24182637 -0.024706976 0.043295447 -0.103981666 0.0722713 0.011691415
-0.073009685 -0.13888848 0.023552617 0.046849173 0.034995895 0.055086438 -0.017854312 0.18076377
0.14877214 -0.017247241 -0.08957564 0.20462893 -0.029326815 0.053917695 0.048936736 0.017775368
0.07695955 0.11771899 -0.07070212 -0.050118428 0.023025641 0.0379247 -0.07972212 0.1485428
-0.083203316 -0.02867454 0.22895943 0.014834405 0.010962732 -0.05050164 0.04753264 0.061650988
-0.13897339 0.014120298 -0.008240826 0.016120344 0.010456354 -0.020656727 -0.020096643 0.09029396
0.052272234 0.112661265 0.094031274 -0.013262991 -0.011120292 -0.050534755 0.011870142 0.28526345
-0.16440713 0.12370362 0.15666535 -0.03000484 -0.028803239 0.095337704 0.039001837 0.061696615
0.043748982 -0.18257405 0.013234793 -0.057814285 0.13195086 -0.03458914 -0.12199616 -0.1130883
0.12560911 -0.20796919 0.16618446 0.03299392 0.255955 0.008875478 0.044357438 0.06847043

network_body._body_endoder.seq_layers.0.bias f4 [128]
00000000: 0726 8cba 71b2 0f3b 1af0 853a 14a2 56ba
00000010: 2e63 833a e909 5c3a 3bae 81ba 5162 8aba
00000020: a630 7e3a f1eb 80ba b6fa 87ba 35f4 8c3a
00000030: 90fa 9dba b5c7 85bb 7134 9dbb 974c 9cba
00000040: e281 653a d48b 93ba 88f8 84ba 7e15 8d3a
00000050: df34 663b 43c2 8d3a 8385 873a 185f 543a
00000060: b5af 20bb 83f7 733a cf2a 7cba 5ae6 22bb
00000070: abb4 82ba a929 613a bcc6 6e3a 3231 ae3a
00000080: 32c1 86ba fd9b 82ba ae38 823a f4f2 84ba
00000090: 048e 3ebb 8ce6 813a 9af8 97ba af1a 833a
000000a0: 3ed7 7a3a 8ca6 86ba e2d5 793a c823 89ba
000000b0: 0ce0 883a e2a0 363b 1da7 873b cc7f 7f3a
000000c0: 9f03 893a 58be 813b d75f 843a 4c7f 82ba
000000d0: e8a4 9d3a d2da 003b 9cd6 83ba 07ee 993a
000000e0: 0fc2 733a 99e5 7e3a b75f 583a 6084 603a
000000f0: 982b 89ba f8b9 deba cd32 533a 3de2 793a
00000100: a72a 82ba a84b 7fba a4f8 7c3a 06b5 84ba
00000110: 987a 833a 08d8 8dba 7822 8bba 8059 92ba
00000120: 7ab4 2dbb 3c69 863a d921 8aba c74e 9d3a
00000130: 2884 75b9 5ba0 86ba 137e 8b3a 582f 84ba
00000140: bb9c 853a e25d 843a 4bf7 813a 82ee 853a
00000150: e3b3 33ba e388 813a fe13 803a 163c 80bb
00000160: 5dfe 853a 3a65 7f3a ddac 3dbb 01cf 51bb
00000170: b6f5 633a b68b 833a aef5 83ba dca8 c838
00000180: e78e 703a 0830 513b c563 823a 7257 7bba
00000190: e026 8fba 9c9f 7d3a c3c7 d7ba ef07 87ba
000001a0: cc14 813a 03be 7dbb f2b0 91ba 5697 84ba
000001b0: ef18 7cba 2835 f0ba 9be7 7fba 8067 803a
000001c0: 591e 843a 1354 813a 4050 89ba 9a86 913a
000001d0: 6b7c 60bb 2335 703a eda0 80ba 29c0 50bb
000001e0: bca3 88ba d8a0 80bb 7f32 a93b 5689 84ba
000001f0: 73db 833a 1836 0cba d1aa 803a 04f2 7f3a
-0.0010692485 0.0021926428 0.001021865 -0.00081876037 0.0010024065 0.0008393811 -0.0009893844 -0.0010557865
0.000969658 -0.0009835941 -0.00103744 0.0010753932 -0.0012052823 -0.004082645 -0.0047975113 -0.0011924681
0.0008755011 -0.0011256882 -0.0010144869 0.0010763851 0.0035126728 0.0010815341 0.0010339472 0.0008101328
-0.0024518792 0.00093065965 -0.0009619416 -0.0024856539 -0.0009972056 0.00085892767 0.0009108593 0.0013289808
-0.0010280965 -0.0009964701 0.0009935105 -0.0010143206 -0.0029076347 0.0009910627 -0.0011594475 0.0010002459
0.0009568817 -0.0010273024 0.0009530467 -0.0010462934 0.0010442748 0.002786689 0.0041397945 0.0009746521
0.001045335 0.0039594583 0.0010099363 -0.000995615 0.0012027295 0.0019661677 -0.0010058465 0.0011743911
0.00092986313 0.0009723544 0.0008254009 0.0008564647 -0.0010465262 -0.0016992679 0.0008056581 0.00095323083
-0.0009930924 -0.00097387517 0.00096500874 -0.001012475 0.0010031043 -0.0010821829 -0.0010615131 -0.0011165589
-0.0026505277 0.0010254751 -0.0010538652 0.0012001627 -0.00023414253 -0.0010271178 0.0010642431 -0.001008491
0.0010193804 0.001009878 0.0009915618 0.0010218176 -0.00068551133 0.0009882714 0.0009771583 -0.003913413
0.0010222901 0.0009742562 -0.0028942146 -0.0032014253 0.00086959766 0.0010036144 -0.0010067725 9.568196e-05
0.00091765675 0.0031919498 0.0009947947 -0.00095879205 -0.001092162 0.0009674968 -0.0016462732 -0.0010302047
0.0009848117 -0.0038717992 -0.0011115356 -0.0010115902 -0.00096167525 -0.0018326389 -0.000976199 0.000979647
0.0010079845 0.0009866975 -0.0010476187 0.0011102736 -0.0034253846 0.00091631914 -0.0009813585 -0.0031852818
-0.0010424773 -0.003925424 0.0051634903 -0.001011173 0.0010059908 -0.0005348637 0.0009816532 0.0009763541

network_body._body_endoder.seq_layers.2.weight f4 [128, 128]
00000000: b7bf 953d f1ce 5b3c f141 02be ecdb 0fbd
00000010: 2c75 f4bd 7a8c 85bd 4426 e5bc 6c2c cfbc
00000020: 9bd6 293d fa20 3a3c bd5f 19bd 111b e93c
00000030: 8086 e0bd 4e34 22bd 13fc 79bd 4337 013e
00000040: 580a b7bc acfd d93c c9df 8bbd 6a00 aabd
00000050: 2687 aa3c c7cc 0d3c b12d 8fbc 8c1e 2abc
00000060: 1df2 533d 1644 023e fa9c 41bd 563b 863c
00000070: 4eb9 abbc 6e4d 1f3e 8ae2 13bd f040 81bd
00000080: 9a70 a43d 15ea 48bd 8e7c 77bc 3294 bf3d
00000090: 77ed 213d cb70 c03d da9a 293e 12a6 08be
000000a0: 449e 6a3d 0b4d 013e b0b7 f93c 621e 7dbc
000000b0: 394b fabc a799 ef3b 20c9 693d 634f cc3d
000000c0: 01c2 aa3c 9cbb 12bc 3980 e83d 1815 913c
000000d0: f9c5 94bd 27b4 dcbc 3dea 4a3d ac67 103c
000000e0: a9d2 3fbd 824c 11bd eca3 2dbc da14 293d
000000f0: d9f6 12be 449a a0bd 3351 ddbc 03ed 3abe
00000100: 7493 c2bd e975 a43d 35c7 b1bc 5aee 9dbd
00000110: 42d3 d33b e3c1 3abe d6e1 413e 0cdb 493d
00000120: 0863 123d ddf0 68bc 24b0 47bd f184 473c
00000130: 0bde 043d a7a3 3f3d 85da 4c3e 42fa b23d
00000140: 9697 d0bd b279 85bd d381 c4bd 09c5 dfbd
00000150: d365 2d3c 8f79 38bb 2125 39bc c86d 193d
00000160: 2cc2 79bd 06a7 ac3c 9b39 91bd 279f 81bd
00000170: f87e 143d 69ac 00bd 94d9 aa3b 4352 293e
00000180: 0714 793d aa04 24bc f920 71bd b03e 6abd
00000190: 1189 a1bd 90ec adbd 6fa6 743d e031 0cbd
000001a0: 2abf 6ebd 5df8 e33d 661f c83d 7ad5 25bd
000001b0: 27e9 73bd 04f6 88bd 1222 fabc a726 8cbd
000001c0: 3531 25be 61a7 76bd 59e1 a23d 851f 58bd
000001d0: fe3e b4bd 0adf 373e 69a2 0cbb 311d 8ebd
000001e0: f0dd 87bd 6230 8d3d 5e09 eabd aed8 08be
000001f0: 4b8f 56bd ec02 ba3d f9fc bdbc 5db7 293d
00000200: 71a8 173d 7208 073d 7deb 58bd 2bb8 a5bd
00000210: ed32 88bc 4f3c 47be cea9 63be 27bc 6b3d
00000220: 4fa7 a33d b478 adbd 875f d73d 6b1a 643c
00000230: e117 a53d 3193 4bbc 08df 573d 8f85 56be
00000240: a0b9 bebc f00f ad3d 8152 1abe d38f 02be
00000250: 28bd 283e 9bd7 243d cfa8 4bbd d3de 51bd
00000260: f60d 833d 3d4a b5bd 8d71 a1bd f733 32bd
00000270: 3f09 a5bd 0dda 043e 97d6 073e 5e09 a2bd
00000280: e486 d5bc 4359 a9bd b533 693d 57da 42be
00000290: fd70 fdba 4d2e 7dbe d7df a53c 599c 363d
000002a0: 71be 94bb bad9 603c a75f 433d dd25 353e
000002b0: 7ddf 003e 3bac 433d 40ac c7bc 1f15 1e3c
000002c0: db0d 8d3c 1d6c 34bd 0b32 1e3e 7e44 583d
000002d0: 036d d4bc 64d8 373c 48cc 12bd 9346 403e
000002e0: c082 87bd f1e9 9abc 5b7f 383c f7b5 90bc
000002f0: 022b ea3c 5505 2a3d cc4a 233e c890 18be
00000300: af89 4abe ea67 5abd f2ce 3fbe 9c9c b9bd
00000310: 46f5 3f3e a927 febc f847 21bb 6a73 e5bc
00000320: f37d ad3d 5607 34be 57da 84bd 7013 e33c
00000330: e532 1c3e 4533 13be 407c fdbc 6c49 183d
00000340: 0fa8 943c 66f9 7fbc 923d b43d b0e1 aa3c
00000350: 171e 823d d02b abbc 0b89 113e 13b8 bd3d
00000360: 1d99 1fbe 7ef4 bbbd d53b c83d a91a 0f3e
00000370: e903 cd3d 948d 7b3d e748 9f3d beaf fcbb
00000380: 1f09 333d 6768 1e3e bbc9 b4bd 6a0d 8f3d
00000390: a7b4 3abd 0ebf 2f3d 2d2f dabb eb80 e23d
000003a0: bf58 303e 070c 0bbd 5876 383b 40d1 c0bd
000003b0: ba77 c2bd d668 e93d 9d2a ba3c e2b5 82bc
000003c0: 7e83 193d 27a7 b93d 66f0 fc3d ada4 58bd
000003d0: 5269 2a3d f567 c83d 7a41 78bd c4cd 2d3c
000003e0: fea0 dbbc 99f5 543b 76a3 acbd a4a0 073e
000003f0: 86b1 8bbc 3c71 433d d227 e8bb 8209 07bc
0.07311957 0.013416038 -0.12720467 -0.035121843 -0.11936411 -0.065209344 -0.027972348 -0.025289737
0.04146443 0.011360401 -0.03744482 0.02845529 -0.10963154 -0.039600663 -0.061031412 0.12618737
-0.0223438 0.026610218 -0.06829793 -0.0830086 0.020816397 0.00865478 -0.017477842 -0.0103832595
0.05174457 0.12721285 -0.047268845 0.016385715 -0.020962384 0.15556881 -0.036104716 -0.06311214
0.080292895 -0.049051363 -0.01510538 0.09354438 0.039533105 0.093965136 0.16562977 -0.13344601
0.05727984 0.12627046 0.030483097 -0.015449138 -0.030553447 0.007312018 0.057076573 0.09976079
0.020844461 -0.008955862 0.113525815 0.017710254 -0.07264323 -0.026941372 0.049539793 0.00881378
-0.04683176 -0.035473354 -0.010598164 0.04127965 -0.14351977 -0.07841924 -0.027016258 -0.18254475
-0.09500781 0.08030302 -0.021701435 -0.077114776 0.006464393 -0.18238024 0.18933806 0.049281165
0.035738975 -0.0142175825 -0.048751965 0.012177692 0.03243832 0.04678693 0.20005234 0.08739139
-0.10185163 -0.06517352 -0.095950745 -0.10926253 0.010583359 -0.0028148626 -0.011300356 0.03745821
-0.060976192 0.021075737 -0.070910655 -0.06329184 0.0362539 -0.031414423 0.0052139256 0.16535287
0.060810115 -0.010010878 -0.058869336 -0.05718869 -0.078874715 -0.08492386 0.059729036 -0.034227252
-0.058287777 0.11131356 0.09771614 -0.04048679 -0.059548523 -0.06687549 -0.030533824 -0.0684331
-0.16132052 -0.06021822 0.07953138 -0.052764434 -0.08801077 0.17956176 -0.0021459109 -0.069391616
-0.06634128 0.06893994 -0.11427568 -0.13363907 -0.05238275 0.090825886 -0.023191916 0.041434634
0.037025873 0.03296704 -0.052958954 -0.08091768 -0.016625846 -0.194566 -0.22232744 0.057552483
0.07990896 -0.08470288 0.10516267 0.013922314 0.08061195 -0.01242523 0.052702934 -0.20949386
-0.023281872 0.084503055 -0.15070535 -0.12750177 0.16478407 0.04024468 -0.049721535 -0.051237892
0.06399147 -0.088520505 -0.07882986 -0.04350659 -0.08058404 0.12973805 0.13265453 -0.07911943
-0.026065297 -0.082689784 0.056934077 -0.19028603 -0.0019336041 -0.24724694 0.020248337 0.0445827
-0.004539304 0.013723785 0.047698643 0.17690225 0.12585254 0.047771674 -0.024374127 0.00964859
0.01721852 -0.044048417 0.15448777 0.052799694 -0.025930887 0.011221025 -0.03583935 0.18776922
-0.066167355 -0.01891038 0.011260833 -0.017664893 0.02858496 0.04150899 0.15946501 -0.1489898
-0.19779085 -0.053321756 -0.18731287 -0.09063074 0.18745908 -0.03102477 -0.0024609547 -0.028009135
0.084712885 -0.17580923 -0.064869575 0.02771923 0.1525379 -0.14375027 -0.030943036 0.037179396
0.018146543 -0.015623426 0.08800806 0.02085957 0.063533954 -0.020894915 0.14212434 0.09263625
-0.15585752 -0.091774926 0.09777037 0.13975014 0.100105114 0.061414316 0.07777577 -0.00771138
0.04370987 0.15469514 -0.088275395 0.069849804 -0.04558244 0.042906813 -0.006658456 0.110597454
0.17221354 -0.033947017 0.002814671 -0.09414911 -0.09495492 0.11396949 0.022725398 -0.01595587
0.037478916 0.09065085 0.1235054 -0.052891422 0.041604348 0.09785453 -0.06060932 0.01060814
-0.026810165 0.003249502 -0.08429615 0.13244873 -0.017052423 0.04771541 -0.007084825 -0.008242013

network_body._body_endoder.seq_layers.2.bias f4 [128]
00000000: c659 03bb e795 7b3a f30b 803a 3c35 853a
00000010: 78d0 753a 35ce 803a 7104 81ba 0543 5cba
00000020: b14b 813a 1a7c a1bb 78ae 84ba 5002 37ba
00000030: 2d87 c13a d0a4 d1ba 9e60 70ba b562 813a
00000040: f52f 6eba 2b66 7bba 84b1 5d3a 2c52 663a
00000050: 9555 033a 1ccc 823a f291 80ba 800f 883a
00000060: 138b 5b3a 06ef 84bb 39ee 84ba e882 bdba
00000070: ce1e 693a de04 833a e9ac 5c3a eaf0 7f3a
00000080: 93ea 683a 936c 82ba d3e3 803a c3fa 803a
00000090: 3dc4 813a c5a4 813a 6db2 29bb 7e74 a63b
000000a0: d329 91bb 71e6 063b 39d3 7e3a 36ac 663a
000000b0: bb90 7fba c1d7 96ba 1041 9bba add2 51ba
000000c0: 590c e839 e321 50ba beaf 73ba 6f5d 803a
000000d0: 4977 6b3a bc56 803a 5e10 6a3b a8eb 813a
000000e0: 7af4 7d3a 0b7c 76ba 93a6 8e3a 28d1 81bb
000000f0: 603c 7d3a 3292 4dba 8011 82ba 13a0 823a
00000100: e742 833a ef44 7dba f72a 813a 81dd 783a
00000110: 369b 703b 5103 45bb 4f6d 7cba d06a 83ba
00000120: 4e84 9f3a 397d 803a e13d 773a 6b37 5ebb
00000130: 6915 7b3a de23 803a 3671 7d3a 9761 743a
00000140: 1117 773a 4037 9e3a bced 6bba e849 6f3b
00000150: 30f4 29ba 8f3c 833a c0e2 843a 94f3 103b
00000160: 77f3 8bba 51cb 813a f446 7aba 003d 823a
00000170: 1eff 7e3a 0aae 85ba 670d 75ba a877 803a
00000180: 0aba 763a 9ae3 91ba e2fc 8dba 2b37 803b
00000190: 2e39 7f3a 5b6f 50ba bfd3 7c3a 3271 94ba
000001a0: fdb0 89ba 4f85 823b 3c57 413b cfc9 5abb
000001b0: e027 803a 52f2 813a b621 7c3a ba03 663a
000001c0: 7ade 77ba 9a0f 71ba 522b 85ba a357 81bb
000001d0: 159f 7aba b272 093b fa68 6f3a 1dce 8d3a
000001e0: 4e93 823a 6d87 84ba cbc7 803a d3c2 7fba
000001f0: 9626 833a e337 813a b94d ffba 21f7 5fbb
-0.0020042523 0.00095972273 0.0009769186 0.001016296 0.00093770726 0.000982708 -0.0009843243 -0.00084023207
0.0009864477 -0.004928124 -0.0010122797 -0.00069812406 0.0014765017 -0.0015994553 -0.00091696705 0.0009871336
-0.00090861256 -0.00095901144 0.0008456933 0.0008786048 0.0005010006 0.0009979042 -0.000980912 0.0010380596
0.00083749107 -0.004056814 -0.0010141797 -0.0014458569 0.0008892835 0.0009995957 0.00084180996 0.0009763377
0.0008885052 -0.000995057 0.0009833522 0.0009840358 0.0009900403 0.0009891024 -0.0025893704 0.005079805
-0.0044300347 0.002058413 0.00097208057 0.0008799465 -0.00097490445 -0.0011508391 -0.0011844952 -0.00080041104
0.00044259688 -0.000793962 -0.0009295902 0.000979347 0.00089823134 0.0009791474 0.0035715322 0.000991215
0.0009687614 -0.0009402639 0.0010883383 -0.003961701 0.00096601807 -0.0007841914 -0.0009923428 0.0009965919
0.0010014445 -0.0009661456 0.0009854723 0.0009493456 0.0036713607 -0.0030061791 -0.00096293254 -0.001002634
0.0012170167 0.0009802944 0.0009431523 -0.0033907543 0.00095780805 0.0009776314 0.0009668054 0.00093224033
0.00094257394 0.0012070909 -0.0008999964 0.0036512557 -0.0006483225 0.0010012555 0.0010138378 0.002211784
-0.0010677417 0.0009902512 -0.0009547316 0.0009936392 0.00097273465 -0.0010198962 -0.00093480054 0.0009801285
0.0009411877 -0.0011130453 -0.0010832811 0.0039128265 0.00097359985 -0.00079511636 0.000964459 -0.0011325239
-0.0010505017 0.003983177 0.0029501459 -0.0033384447 0.0009777509 0.0009914136 0.00096180604 0.0008774359
-0.0009455454 -0.0009195745 -0.0010160005 -0.0039472147 -0.0009560448 0.0020972905 0.0009132769 0.0010818873
0.0009962113 -0.0010111161 0.0009825168 -0.0009756509 0.0010006006 0.0009858574 -0.0019478119 -0.00341744

action_model._discrete_distribution.branches.0.weight f4 [2, 128]
00000000: 1667 24bc 08dc cc3b 35c4 bdba 0be5 1a3c
00000010: 912d d2ba 7084 a33b 7fef cebb 4fbd 2ebb
00000020: 7bf4 de3b 0837 d939 96cd 84ba 1ad9 0e3c
00000030: 3770 4aba f357 3dba dc00 cf3b 2088 40bb
00000040: 156e f1ba 511c 97bc 7a6e 3aba f83c d63b
00000050: 51e2 cf3b 212b 203c e425 1dbb 6fad 46bc
00000060: 5b66 713b 6a71 843c 5dcf 4abc 1d51 973b
00000070: f58f 2e3c 0801 7b3b 686a fb3b 40ee 17bb
00000080: 91c3 32bc 0f33 35bc 4585 623c d01f 243b
00000090: 5228 4abb 5cdb 4e3c 2a61 a2bb 3fde 403b
000000a0: ec81 b8bb 46cf 4e3a c69a 84ba e50b 0a3b
000000b0: f0d4 f5b8 aa4b 59bb 5933 403b f01b fb3b
000000c0: 4d7d 333c 64df fcbb b115 c2ba 003f 643c
000000d0: 8696 473c bc40 f13a 03f6 4e3a 2a5e 973b
000000e0: 1710 c7bb 635c dfbb c033 6c3b cd0e 0e39
000000f0: d38a ae3c b34a 10bb 851a 8fbc a499 a1bb
00000100: 667f 3b3c 1d1b f33b 563b e13b 9776 193b
00000110: af84 8fba 720f a9bb 1b7c 68bc 8c6c 0bbc
00000120: d37c a13a c7ad be3c 54f5 4dbb a63b 1bbc
00000130: 775f 4a3c 4655 bb3a ff21 20bc f401 023c
00000140: aad0 913b 029b 86bb e46a a4bb d388 0b3c
00000150: deb5 303c 96ce 003c 6f55 763b abbe 0e3b
00000160: da57 7cbc 7d40 0bbb 32b8 49bb 0bb5 e53b
00000170: 1eeb a2bc 1b1d babc 77bc 573a c82f 5939
00000180: 7d39 333c 4a67 dfbb 167e 283c f5b7 3c3b
00000190: 7b59 80bb 7dd7 b63b ad5e 493c 328d f0bb
000001a0: ae6d 13bc 6f80 393c 9f2c 4a3b 5f45 fbbb
000001b0: 5944 bc3b e10f 6d3b 7298 073c acfe 983c
000001c0: 9ce1 953a 01f3 40bb a9c1 c2bb 460b 18bc
000001d0: 2bb0 03bc be2b b3bb a203 44bb 3601 583c
000001e0: 8801 043c 1596 4fbc 32fd a53c bcb5 6cbc
000001f0: b090 a2bb 8c44 ab3c 8ac3 c7bb af4a 0c3c
00000200: 115e 2fbc 4430 2cba 654c 30bc e8f5 3d3c
00000210: 7931 dabb 4ef2 50bc c1bf fe3b 1e17 f5b8
00000220: 1c2e 48bc 555e 91bb 2699 883c e6ad 2e3c
00000230: a7f7 0b3b 11e6 15bb 3c83 1c3c f917 4cbc
00000240: cb61 003c 6cf5 21bc 43b3 babb d9a0 3a3b
00000250: 83f6 073c b4b2 cdbb 0903 463c cac9 243c
00000260: f67d 723a 37f9 ce3c ba2c 1b3c 22c3 4c3b
00000270: 47c3 d03b bc7a 29bc eec7 983b 7fda 42bc
00000280: 666c 73bc f6ac 083c e2e1 9bbb c73d 60bc
00000290: 0413 90bc 2fd3 a3b7 f371 983b df7f fd3b
000002a0: d8c4 5cbb ac8a c43a 6b0e 0ebc bc40 c9ba
000002b0: b942 ab3b 744c 493c 0042 1d3c 5ca9 253c
000002c0: f368 513c 0f90 a6bb a69c 463b 6364 623b
000002d0: 891d 073c 0a8a cfbb 14e1 823a 1915 38bc
000002e0: 8fc9 8fbb a2ec 19b9 f354 93bb 7b63 553a
000002f0: 5897 283b 62bf fc38 4858 b8bb 443b 86bc
00000300: 7195 94bc 78aa 5a3c 326d e9bb d82d 51bb
00000310: 85df 38bb 5599 f8bb f3f9 28bb 9076 dbba
00000320: 9ef5 e0bb 14fc 1db9 8d6e 4fbc d9dc 02bc
00000330: 1096 c43b edc6 43bc e703 a3bc 42e5 97bb
00000340: 8fba 83ba 8d59 34bb 2463 edba 596e da3b
00000350: 2fbe 543c 8e66 36bc d7e4 a9bc d9ed 38ba
00000360: 9a8b 0b3c 8775 3dbc 205d 913b e320 f9bb
00000370: b775 103c 7858 05bc cf25 1e3c ca68 15bc
00000380: 0eb5 853b ffbf 873b 93e9 8d3c d9c3 af3b
00000390: b6ab 5cbc fab0 733b 4743 3c3b 5150 5bbb
000003a0: e8f9 853b 0207 463c 3195 6e3b 93c0 bbbb
000003b0: b8f6 d4ba cf58 9abc b143 ba3a e320 1dbc
000003c0: ae0b 213c dced 5339 0d13 d83b 3fc7 09bc
000003d0: 4b46 8b3b 8c34 95bb 08c2 fabb a2a1 03bc
000003e0: 5060 55bc 88fc 803c 88b5 5cbc 1abc ae3a
000003f0: e82b 9ebc 9a8b e93a ca3e efbb ad6c f93b
-0.010034343 0.0062518157 -0.001447803 0.009454022 -0.0016035308 0.004990153 -0.0063151713 -0.002666313
0.0068040467 0.00041430467 -0.001013207 0.008718753 -0.000772241 -0.0007222883 0.006317241 -0.0029378012
-0.0018419648 -0.01844612 -0.0007111799 0.0065380298 0.0063441177 0.009775908 -0.0023978883 -0.012126311
0.003683469 0.016167361 -0.012378541 0.0046178238 0.010654439 0.0038300175 0.0076725967 -0.002318278
-0.0109108845 -0.011059537 0.013825719 0.0025043376 -0.0030846787 0.012625542 -0.0049554305 0.0029429344
-0.0056307223 0.00078891625 -0.0010116927 0.0021064219 -0.00011722173 -0.0033156672 0.002932748 0.0076632425
0.010955167 -0.00771706 -0.001480749 0.013931036 0.012181884 0.0018406133 0.0007894935 0.0046193795
-0.006074916 -0.0068164333 0.0036041588 0.00013547689 0.02130643 -0.002201718 -0.0174687 -0.0049316455
0.011443948 0.0074190036 0.0068735285 0.0023416632 -0.0010949577 -0.005159312 -0.014189745 -0.008509766
0.0012320526 0.023276223 -0.0031426745 -0.0094746705 0.012351862 0.0014292381 -0.00977373 0.007935036
0.0044499235 -0.004107834 -0.005017625 0.008516508 0.010785548 0.007861754 0.0037587543 0.0021781127
-0.015401805 -0.0021248155 -0.0030779955 0.0070101074 -0.019887503 -0.022718957 0.00082296826 0.00020712533
0.010938999 -0.006817733 0.0102839675 0.002879617 -0.003916917 0.0055798874 0.012290639 -0.0073410505
-0.008998318 0.011322125 0.003084935 -0.007668182 0.0057454524 0.0036172795 0.008276092 0.018676125
0.0011435035 -0.0029441717 -0.0059434962 -0.009280032 -0.008037607 -0.005467861 -0.0029909392 0.013183882
0.008057006 -0.01267006 0.020262334 -0.014447626 -0.0049610958 0.02090671 -0.006096308 0.008562728
-0.0107035795 -0.00065684714 -0.010760401 0.011594273 -0.0066587296 -0.012753082 0.0077743237 -0.00011686816
-0.012218025 -0.004436294 0.01667459 0.010661578 0.002135733 -0.0022872726 0.009552773 -0.012456887
0.007835816 -0.009885173 -0.005697639 0.002847722 0.008298519 -0.0062774066 0.012085685 0.010057876
0.0009250337 0.02526532 0.009471113 0.0031244238 0.006370935 -0.010344204 0.0046625054 -0.011892914
-0.014857387 0.008342018 -0.004757152 -0.013686604 -0.017587192 -1.9529454e-05 0.0046522557 0.0077361907
-0.0033686664 0.0014994941 -0.00867043 -0.0015354375 0.00522646 0.012286294 0.009598255 0.010111179
0.0127813695 -0.005083091 0.0030305772 0.0034544698 0.008246788 -0.006333594 0.0009985291 -0.011235499
-0.0043880413 -0.0001467937 -0.0044962107 0.0008140129 0.0025724974 0.00012051944 -0.0056257583 -0.016385682
-0.018137665 0.013346307 -0.007123613 -0.0031918194 -0.00282094 -0.007586638 -0.0025783747 -0.0016743708
-0.0068652174 -0.00015066593 -0.012660635 -0.0079872245 0.005999334 -0.011949283 -0.019899322 -0.004635484
-0.0010050106 -0.0027519197 -0.0018111211 0.0066659865 0.012984796 -0.011132849 -0.020739002 -0.0007054485
0.00851717 -0.011563665 0.00443615 -0.0076027974 0.008817128 -0.008138768 0.009652569 -0.009119222
0.0040804213 0.0041427608 0.01732329 0.005363923 -0.013468673 0.0037184344 0.0028726624 -0.003346462
0.004088629 0.012086632 0.0036404843 -0.0057297437 -0.0016247844 -0.018841175 0.0014210847 -0.00959036
0.009829445 0.00020211138 0.006594068 -0.00840932 0.004250323 -0.004553383 -0.007652525 -0.008034142
-0.013023451 0.015745416 -0.013471015 0.0013331205 -0.019308046 0.0017818094 -0.007301186 0.007611832

action_model._discrete_distribution.branches.0.bias f4 [2]
00000000: 51ef 823a 5def 82ba
0.0009989535 -0.0009989549

exp_avg f4 [128, 114]
00000000: 0000 0000 369d 69b7 369d 69b7 0000 0000
00000010: 369d 69b7 369d 69b7 0000 0000 369d 69b7
00000020: 369d 69b7 0000 0000 369d 69b7 369d 69b7
00000030: 0000 0000 369d 69b7 369d 69b7 0000 0000
00000040: 369d 69b7 369d 69b7 0000 0000 369d 69b7
00000050: 369d 69b7 0000 0000 369d 69b7 369d 69b7
00000060: 0000 0000 369d 69b7 369d 69b7 0000 0000
00000070: 369d 69b7 369d 69b7 0000 0000 369d 69b7
00000080: 369d 69b7 0000 0000 369d 69b7 369d 69b7
00000090: 0000 0000 369d 69b7 369d 69b7 0000 0000
000000a0: 369d 69b7 369d 69b7 0000 0000 369d 69b7
000000b0: 369d 69b7 0000 0000 369d 69b7 369d 69b7
000000c0: 0000 0000 369d 69b7 369d 69b7 0000 0000
000000d0: 369d 69b7 369d 69b7 0000 0000 369d 69b7
000000e0: 369d 69b7 0000 0000 369d 69b7 369d 69b7
000000f0: 0000 0000 369d 69b7 369d 69b7 0000 0000
00000100: 369d 69b7 369d 69b7 0000 0000 369d 69b7
00000110: 369d 69b7 0000 0000 369d 69b7 369d 69b7
00000120: 0000 0000 369d 69b7 369d 69b7 0000 0000
00000130: 369d 69b7 369d 69b7 0000 0000 369d 69b7
00000140: 369d 69b7 0000 0000 369d 69b7 369d 69b7
00000150: 0000 0000 369d 69b7 369d 69b7 0000 0000
00000160: 369d 69b7 369d 69b7 0000 0000 369d 69b7
00000170: 369d 69b7 0000 0000 369d 69b7 369d 69b7
00000180: 0000 0000 369d 69b7 369d 69b7 0000 0000
00000190: 369d 69b7 369d 69b7 0000 0000 369d 69b7
000001a0: 369d 69b7 0000 0000 369d 69b7 369d 69b7
000001b0: 0000 0000 369d 69b7 369d 69b7 0000 0000
000001c0: 369d 69b7 369d 69b7 0000 0000 cef4 dcb6
000001d0: cef4 dcb6 0000 0000 cef4 dcb6 cef4 dcb6
000001e0: 0000 0000 cef4 dcb6 cef4 dcb6 0000 0000
000001f0: cef4 dcb6 cef4 dcb6 0000 0000 cef4 dcb6
00000200: cef4 dcb6 0000 0000 cef4 dcb6 cef4 dcb6
00000210: 0000 0000 cef4 dcb6 cef4 dcb6 0000 0000
00000220: cef4 dcb6 cef4 dcb6 0000 0000 cef4 dcb6
00000230: cef4 dcb6 0000 0000 cef4 dcb6 cef4 dcb6
00000240: 0000 0000 cef4 dcb6 cef4 dcb6 0000 0000
00000250: cef4 dcb6 cef4 dcb6 0000 0000 cef4 dcb6
00000260: cef4 dcb6 0000 0000 cef4 dcb6 cef4 dcb6
00000270: 0000 0000 cef4 dcb6 cef4 dcb6 0000 0000
00000280: cef4 dcb6 cef4 dcb6 0000 0000 cef4 dcb6
00000290: cef4 dcb6 0000 0000 cef4 dcb6 cef4 dcb6
000002a0: 0000 0000 cef4 dcb6 cef4 dcb6 0000 0000
000002b0: cef4 dcb6 cef4 dcb6 0000 0000 cef4 dcb6
000002c0: cef4 dcb6 0000 0000 cef4 dcb6 cef4 dcb6
000002d0: 0000 0000 cef4 dcb6 cef4 dcb6 0000 0000
000002e0: cef4 dcb6 cef4 dcb6 0000 0000 cef4 dcb6
000002f0: cef4 dcb6 0000 0000 cef4 dcb6 cef4 dcb6
00000300: 0000 0000 cef4 dcb6 cef4 dcb6 0000 0000
00000310: cef4 dcb6 cef4 dcb6 0000 0000 cef4 dcb6
00000320: cef4 dcb6 0000 0000 cef4 dcb6 cef4 dcb6
00000330: 0000 0000 cef4 dcb6 cef4 dcb6 0000 0000
00000340: cef4 dcb6 cef4 dcb6 0000 0000 cef4 dcb6
00000350: cef4 dcb6 0000 0000 cef4 dcb6 cef4 dcb6
00000360: 0000 0000 cef4 dcb6 cef4 dcb6 0000 0000
00000370: cef4 dcb6 cef4 dcb6 0000 0000 cef4 dcb6
00000380: cef4 dcb6 0000 0000 cef4 dcb6 cef4 dcb6
00000390: 0000 0000 8d17 fc37 8d17 fc37 0000 0000
000003a0: 8d17 fc37 8d17 fc37 0000 0000 8d17 fc37
000003b0: 8d17 fc37 0000 0000 8d17 fc37 8d17 fc37
000003c0: 0000 0000 8d17 fc37 8d17 fc37 0000 0000
000003d0: 8d17 fc37 8d17 fc37 0000 0000 8d17 fc37
000003e0: 8d17 fc37 0000 0000 8d17 fc37 8d17 fc37
000003f0: 0000 0000 8d17 fc37 8d17 fc37 0000 0000
0.0 -1.3924486e-05 -1.3924486e-05 0.0 -1.3924486e-05 -1.3924486e-05 0.0 -1.3924486e-05
-1.3924486e-05 0.0 -1.3924486e-05 -1.3924486e-05 0.0 -1.3924486e-05 -1.3924486e-05 0.0
-1.3924486e-05 -1.3924486e-05 0.0 -1.3924486e-05 -1.3924486e-05 0.0 -1.3924486e-05 -1.3924486e-05
0.0 -1.3924486e-05 -1.3924486e-05 0.0 -1.3924486e-05 -1.3924486e-05 0.0 -1.3924486e-05
-1.3924486e-05 0.0 -1.3924486e-05 -1.3924486e-05 0.0 -1.3924486e-05 -1.3924486e-05 0.0
-1.3924486e-05 -1.3924486e-05 0.0 -1.3924486e-05 -1.3924486e-05 0.0 -1.3924486e-05 -1.3924486e-05
0.0 -1.3924486e-05 -1.3924486e-05 0.0 -1.3924486e-05 -1.3924486e-05 0.0 -1.3924486e-05
-1.3924486e-05 0.0 -1.3924486e-05 -1.3924486e-05 0.0 -1.3924486e-05 -1.3924486e-05 0.0
-1.3924486e-05 -1.3924486e-05 0.0 -1.3924486e-05 -1.3924486e-05 0.0 -1.3924486e-05 -1.3924486e-05
0.0 -1.3924486e-05 -1.3924486e-05 0.0 -1.3924486e-05 -1.3924486e-05 0.0 -1.3924486e-05
-1.3924486e-05 0.0 -1.3924486e-05 -1.3924486e-05 0.0 -1.3924486e-05 -1.3924486e-05 0.0
-1.3924486e-05 -1.3924486e-05 0.0 -1.3924486e-05 -1.3924486e-05 0.0 -1.3924486e-05 -1.3924486e-05
0.0 -1.3924486e-05 -1.3924486e-05 0.0 -1.3924486e-05 -1.3924486e-05 0.0 -1.3924486e-05
-1.3924486e-05 0.0 -1.3924486e-05 -1.3924486e-05 0.0 -1.3924486e-05 -1.3924486e-05 0.0
-1.3924486e-05 -1.3924486e-05 0.0 -6.58501e-06 -6.58501e-06 0.0 -6.58501e-06 -6.58501e-06
0.0 -6.58501e-06 -6.58501e-06 0.0 -6.58501e-06 -6.58501e-06 0.0 -6.58501e-06
-6.58501e-06 0.0 -6.58501e-06 -6.58501e-06 0.0 -6.58501e-06 -6.58501e-06 0.0
-6.58501e-06 -6.58501e-06 0.0 -6.58501e-06 -6.58501e-06 0.0 -6.58501e-06 -6.58501e-06
0.0 -6.58501e-06 -6.58501e-06 0.0 -6.58501e-06 -6.58501e-06 0.0 -6.58501e-06
-6.58501e-06 0.0 -6.58501e-06 -6.58501e-06 0.0 -6.58501e-06 -6.58501e-06 0.0
-6.58501e-06 -6.58501e-06 0.0 -6.58501e-06 -6.58501e-06 0.0 -6.58501e-06 -6.58501e-06
0.0 -6.58501e-06 -6.58501e-06 0.0 -6.58501e-06 -6.58501e-06 0.0 -6.58501e-06
-6.58501e-06 0.0 -6.58501e-06 -6.58501e-06 0.0 -6.58501e-06 -6.58501e-06 0.0
-6.58501e-06 -6.58501e-06 0.0 -6.58501e-06 -6.58501e-06 0.0 -6.58501e-06 -6.58501e-06
0.0 -6.58501e-06 -6.58501e-06 0.0 -6.58501e-06 -6.58501e-06 0.0 -6.58501e-06
-6.58501e-06 0.0 -6.58501e-06 -6.58501e-06 0.0 -6.58501e-06 -6.58501e-06 0.0
-6.58501e-06 -6.58501e-06 0.0 -6.58501e-06 -6.58501e-06 0.0 -6.58501e-06 -6.58501e-06
0.0 -6.58501e-06 -6.58501e-06 0.0 -6.58501e-06 -6.58501e-06 0.0 -6.58501e-06
-6.58501e-06 0.0 -6.58501e-06 -6.58501e-06 0.0 3.0051708e-05 3.0051708e-05 0.0
3.0051708e-05 3.0051708e-05 0.0 3.0051708e-05 3.0051708e-05 0.0 3.0051708e-05 3.0051708e-05
0.0 3.0051708e-05 3.0051708e-05 0.0 3.0051708e-05 3.0051708e-05 0.0 3.0051708e-05
3.0051708e-05 0.0 3.0051708e-05 3.0051708e-05 0.0 3.0051708e-05 3.0051708e-05 0.0

exp_avg_sq f4 [128, 114]
00000000: 0000 0000 2519 bc30 2519 bc30 0000 0000
00000010: 2519 bc30 2519 bc30 0000 0000 2519 bc30
00000020: 2519 bc30 0000 0000 2519 bc30 2519 bc30
00000030: 0000 0000 2519 bc30 2519 bc30 0000 0000
00000040: 2519 bc30 2519 bc30 0000 0000 2519 bc30
00000050: 2519 bc30 0000 0000 2519 bc30 2519 bc30
00000060: 0000 0000 2519 bc30 2519 bc30 0000 0000
00000070: 2519 bc30 2519 bc30 0000 0000 2519 bc30
00000080: 2519 bc30 0000 0000 2519 bc30 2519 bc30
00000090: 0000 0000 2519 bc30 2519 bc30 0000 0000
000000a0: 2519 bc30 2519 bc30 0000 0000 2519 bc30
000000b0: 2519 bc30 0000 0000 2519 bc30 2519 bc30
000000c0: 0000 0000 2519 bc30 2519 bc30 0000 0000
000000d0: 2519 bc30 2519 bc30 0000 0000 2519 bc30
000000e0: 2519 bc30 0000 0000 2519 bc30 2519 bc30
000000f0: 0000 0000 2519 bc30 2519 bc30 0000 0000
00000100: 2519 bc30 2519 bc30 0000 0000 2519 bc30
00000110: 2519 bc30 0000 0000 2519 bc30 2519 bc30
00000120: 0000 0000 2519 bc30 2519 bc30 0000 0000
00000130: 2519 bc30 2519 bc30 0000 0000 2519 bc30
00000140: 2519 bc30 0000 0000 2519 bc30 2519 bc30
00000150: 0000 0000 2519 bc30 2519 bc30 0000 0000
00000160: 2519 bc30 2519 bc30 0000 0000 2519 bc30
00000170: 2519 bc30 0000 0000 2519 bc30 2519 bc30
00000180: 0000 0000 2519 bc30 2519 bc30 0000 0000
00000190: 2519 bc30 2519 bc30 0000 0000 2519 bc30
000001a0: 2519 bc30 0000 0000 2519 bc30 2519 bc30
000001b0: 0000 0000 2519 bc30 2519 bc30 0000 0000
000001c0: 2519 bc30 2519 bc30 0000 0000 6c69 3030
000001d0: 6c69 3030 0000 0000 6c69 3030 6c69 3030
000001e0: 0000 0000 6c69 3030 6c69 3030 0000 0000
000001f0: 6c69 3030 6c69 3030 0000 0000 6c69 3030
00000200: 6c69 3030 0000 0000 6c69 3030 6c69 3030
00000210: 0000 0000 6c69 3030 6c69 3030 0000 0000
00000220: 6c69 3030 6c69 3030 0000 0000 6c69 3030
00000230: 6c69 3030 0000 0000 6c69 3030 6c69 3030
00000240: 0000 0000 6c69 3030 6c69 3030 0000 0000
00000250: 6c69 3030 6c69 3030 0000 0000 6c69 3030
00000260: 6c69 3030 0000 0000 6c69 3030 6c69 3030
00000270: 0000 0000 6c69 3030 6c69 3030 0000 0000
00000280: 6c69 3030 6c69 3030 0000 0000 6c69 3030
00000290: 6c69 3030 0000 0000 6c69 3030 6c69 3030
000002a0: 0000 0000 6c69 3030 6c69 3030 0000 0000
000002b0: 6c69 3030 6c69 3030 0000 0000 6c69 3030
000002c0: 6c69 3030 0000 0000 6c69 3030 6c69 3030
000002d0: 0000 0000 6c69 3030 6c69 3030 0000 0000
000002e0: 6c69 3030 6c69 3030 0000 0000 6c69 3030
000002f0: 6c69 3030 0000 0000 6c69 3030 6c69 3030
00000300: 0000 0000 6c69 3030 6c69 3030 0000 0000
00000310: 6c69 3030 6c69 3030 0000 0000 6c69 3030
00000320: 6c69 3030 0000 0000 6c69 3030 6c69 3030
00000330: 0000 0000 6c69 3030 6c69 3030 0000 0000
00000340: 6c69 3030 6c69 3030 0000 0000 6c69 3030
00000350: 6c69 3030 0000 0000 6c69 3030 6c69 3030
00000360: 0000 0000 6c69 3030 6c69 3030 0000 0000
00000370: 6c69 3030 6c69 3030 0000 0000 6c69 3030
00000380: 6c69 3030 0000 0000 6c69 3030 6c69 3030
00000390: 0000 0000 4c01 1332 4c01 1332 0000 0000
000003a0: 4c01 1332 4c01 1332 0000 0000 4c01 1332
000003b0: 4c01 1332 0000 0000 4c01 1332 4c01 1332
000003c0: 0000 0000 4c01 1332 4c01 1332 0000 0000
000003d0: 4c01 1332 4c01 1332 0000 0000 4c01 1332
000003e0: 4c01 1332 0000 0000 4c01 1332 4c01 1332
000003f0: 0000 0000 4c01 1332 4c01 1332 0000 0000
0.0 1.3685947e-09 1.3685947e-09 0.0 1.3685947e-09 1.3685947e-09 0.0 1.3685947e-09
1.3685947e-09 0.0 1.3685947e-09 1.3685947e-09 0.0 1.3685947e-09 1.3685947e-09 0.0
1.3685947e-09 1.3685947e-09 0.0 1.3685947e-09 1.3685947e-09 0.0 1.3685947e-09 1.3685947e-09
0.0 1.3685947e-09 1.3685947e-09 0.0 1.3685947e-09 1.3685947e-09 0.0 1.3685947e-09
1.3685947e-09 0.0 1.3685947e-09 1.3685947e-09 0.0 1.3685947e-09 1.3685947e-09 0.0
1.3685947e-09 1.3685947e-09 0.0 1.3685947e-09 1.3685947e-09 0.0 1.3685947e-09 1.3685947e-09
0.0 1.3685947e-09 1.3685947e-09 0.0 1.3685947e-09 1.3685947e-09 0.0 1.3685947e-09
1.3685947e-09 0.0 1.3685947e-09 1.3685947e-09 0.0 1.3685947e-09 1.3685947e-09 0.0
1.3685947e-09 1.3685947e-09 0.0 1.3685947e-09 1.3685947e-09 0.0 1.3685947e-09 1.3685947e-09
0.0 1.3685947e-09 1.3685947e-09 0.0 1.3685947e-09 1.3685947e-09 0.0 1.3685947e-09
1.3685947e-09 0.0 1.3685947e-09 1.3685947e-09 0.0 1.3685947e-09 1.3685947e-09 0.0
1.3685947e-09 1.3685947e-09 0.0 1.3685947e-09 1.3685947e-09 0.0 1.3685947e-09 1.3685947e-09
0.0 1.3685947e-09 1.3685947e-09 0.0 1.3685947e-09 1.3685947e-09 0.0 1.3685947e-09
1.3685947e-09 0.0 1.3685947e-09 1.3685947e-09 0.0 1.3685947e-09 1.3685947e-09 0.0
1.3685947e-09 1.3685947e-09 0.0 6.417824e-10 6.417824e-10 0.0 6.417824e-10 6.417824e-10
0.0 6.417824e-10 6.417824e-10 0.0 6.417824e-10 6.417824e-10 0.0 6.417824e-10
6.417824e-10 0.0 6.417824e-10 6.417824e-10 0.0 6.417824e-10 6.417824e-10 0.0
6.417824e-10 6.417824e-10 0.0 6.417824e-10 6.417824e-10 0.0 6.417824e-10 6.417824e-10
0.0 6.417824e-10 6.417824e-10 0.0 6.417824e-10 6.417824e-10 0.0 6.417824e-10
6.417824e-10 0.0 6.417824e-10 6.417824e-10 0.0 6.417824e-10 6.417824e-10 0.0
6.417824e-10 6.417824e-10 0.0 6.417824e-10 6.417824e-10 0.0 6.417824e-10 6.417824e-10
0.0 6.417824e-10 6.417824e-10 0.0 6.417824e-10 6.417824e-10 0.0 6.417824e-10
6.417824e-10 0.0 6.417824e-10 6.417824e-10 0.0 6.417824e-10 6.417824e-10 0.0
6.417824e-10 6.417824e-10 0.0 6.417824e-10 6.417824e-10 0.0 6.417824e-10 6.417824e-10
0.0 6.417824e-10 6.417824e-10 0.0 6.417824e-10 6.417824e-10 0.0 6.417824e-10
6.417824e-10 0.0 6.417824e-10 6.417824e-10 0.0 6.417824e-10 6.417824e-10 0.0
6.417824e-10 6.417824e-10 0.0 6.417824e-10 6.417824e-10 0.0 6.417824e-10 6.417824e-10
0.0 6.417824e-10 6.417824e-10 0.0 6.417824e-10 6.417824e-10 0.0 6.417824e-10
6.417824e-10 0.0 6.417824e-10 6.417824e-10 0.0 8.556821e-09 8.556821e-09 0.0
8.556821e-09 8.556821e-09 0.0 8.556821e-09 8.556821e-09 0.0 8.556821e-09 8.556821e-09
0.0 8.556821e-09 8.556821e-09 0.0 8.556821e-09 8.556821e-09 0.0 8.556821e-09
8.556821e-09 0.0 8.556821e-09 8.556821e-09 0.0 8.556821e-09 8.556821e-09 0.0

exp_avg f4 [128]
00000000: 1792 69b7 2704 ddb6 67d7 fb37 6f59 b9b6
00000010: efed 8937 6447 9637 7e03 c4b7 95d1 6ab6
00000020: 1994 9237 2304 abb6 f90a 02b7 2538 e934
00000030: 6bb1 ceb5 88a0 1236 90e4 6b35 8f6f 90b5
00000040: b2eb 5037 fedf aa34 93fd 6fb6 2855 8037
00000050: 6f5b 9634 5322 8037 ed0a 7e37 283f 1d36
00000060: 4368 a9b6 1f65 e136 8a0b cbb5 e136 91b2
00000070: eb49 1eb7 d281 3738 c449 3838 7bbc 1634
00000080: e9de 89b7 f2b1 8bb6 9537 1337 1592 92b5
00000090: 8a82 1037 35ad 3e38 bae8 beb6 0175 2036
000000a0: 6a96 b337 2d4c ecb7 efba ff37 c2da a535
000000b0: 2bee 4536 8630 f6b5 f504 15b4 b2ea e437
000000c0: 48c9 e535 d3cc 9832 27ea 9137 7503 aab5
000000d0: 8b2e c535 7806 ee33 1e25 ebb7 2a84 4236
000000e0: 7dc8 8836 c216 5736 436d dd37 b1f9 e335
000000f0: 1433 8bb6 aed6 fdb3 2976 4a37 c36c dd37
00000100: 0858 b8b7 d209 39b7 e318 eb37 e35e 13b7
00000110: 429c f936 7b36 06b7 1a81 a7b5 4e67 50b7
00000120: a32a 4bb5 bef8 3237 33e4 9db7 1594 7836
00000130: 05b8 ad37 1c0b e3b7 b0b9 3337 df1b 1cb7
00000140: 5413 9636 00c8 7a37 c501 8737 459b 6d37
00000150: 3eca d6b5 e414 9a37 4fcd 5f36 0526 9735
00000160: 9a0e a635 e738 2237 24f5 9d36 83fc 7336
00000170: 3a2e 4f37 3a4c 1338 1ad2 2db7 8c25 6cb6
00000180: 22f1 0d37 50b9 49b6 0e45 e137 b06a e0b6
00000190: 719d 90b6 fa18 ee37 917c ae37 ff4e 2bb6
000001a0: 0a1d ee36 0c95 ca35 6a7f fab6 7cb2 3eb7
000001b0: 89ce 40b6 bda9 3731 8613 4bb7 b3c8 2938
000001c0: 6028 8d36 1a27 0038 18f7 ffb7 2752 4036
000001d0: d039 8234 2f25 fe37 6510 a4b6 8ae4 4ab6
000001e0: c8b1 94b6 44b0 fcb4 986b 9cb5 4505 34b8
000001f0: 34b6 2337 c608 9534 2b02 f937 1d24 2d38
-1.3921896e-05 -6.5867966e-06 3.0021836e-05 -5.523841e-06 1.644247e-05 1.7914637e-05 -2.3366647e-05 -3.499071e-06
1.747352e-05 -5.0966787e-06 -7.751159e-06 4.3440483e-07 -1.5399831e-06 2.1849137e-06 8.7876924e-07 -1.0761304e-06
1.2452643e-05 3.1827943e-07 -3.5761375e-06 1.5298443e-05 2.8006204e-07 1.5274773e-05 1.5142124e-05 2.3431585e-06
-5.04873e-06 6.7172946e-06 -1.5128037e-06 -1.6905178e-08 -9.434744e-06 4.3751505e-05 4.3937718e-05 1.4038407e-07
-1.6435473e-05 -4.1632384e-06 8.774824e-06 -1.0920363e-06 8.613462e-06 4.546084e-05 -5.689534e-06 2.3909963e-06
2.1408505e-05 -2.8168864e-05 3.0485417e-05 1.2357125e-06 2.949392e-06 -1.834255e-06 -1.387851e-07 2.7289007e-05
1.712041e-06 1.7788272e-08 1.7394383e-05 -1.2666993e-06 1.469119e-06 1.1083915e-07 -2.8031467e-05 2.8985182e-06
4.0764558e-06 3.2050743e-06 2.6396132e-05 1.6985488e-06 -4.148469e-06 -1.18202806e-07 1.206765e-05 2.63959e-05
-2.1975502e-05 -1.1029146e-05 2.8025772e-05 -8.783975e-06 7.438969e-06 -7.999707e-06 -1.2480043e-06 -1.2421819e-05
-7.568544e-07 1.0667542e-05 -1.8822122e-05 3.7041075e-06 2.0708898e-05 -2.7065682e-05 1.0712465e-05 -9.304814e-06
4.4725984e-06 1.4947727e-05 1.6094078e-05 1.4162452e-05 -1.6003103e-06 1.8367959e-05 3.3349095e-06 1.1261442e-06
1.2372213e-06 9.669201e-06 4.7075027e-06 3.6356803e-06 1.2348924e-05 3.5118523e-05 -1.0360522e-05 -3.5188596e-06
8.460398e-06 -3.00592e-06 2.6854246e-05 -6.6881403e-06 -4.309863e-06 2.8383442e-05 2.0800422e-05 -2.5526967e-06
7.0963333e-06 1.5093551e-06 -7.4654135e-06 -1.1366439e-05 -2.8730449e-06 2.672649e-09 -1.21042885e-05 4.0479656e-05
4.2068277e-06 3.0553994e-05 -3.051343e-05 2.8658048e-06 2.425645e-07 3.0296475e-05 -4.8894894e-06 -3.0233373e-06
-4.43144e-06 -4.7066908e-07 -1.165422e-06 -4.2920252e-05 9.75798e-06 2.7759796e-07 2.9684123e-05 4.1280047e-05

exp_avg_sq f4 [128]
00000000: c116 bc30 7867 3030 f904 1332 3288 8c2f
00000010: 28d7 6831 ba2a ab31 1dab 7931 8fae e02e
00000020: c544 6331 a94a 592f b6b9 1430 5f25 282b
00000030: e1a4 322e fac3 e72f cfc9 232c d6d3 fd2c
00000040: 9ec4 0b31 440d 522c 9b0b b62e 8297 4531
00000050: 8da6 0e2b 7602 0831 4119 0b31 ddc2 552d
00000060: ed0f 862e 2781 a82f 9f5a 832d 7d68 8d27
00000070: 604d 4d30 7c20 c532 4c2e c032 312a 552a
00000080: f41a c530 9744 022f 87ac 9330 655b a52c
00000090: ae69 ac30 c999 bc32 024d 812f 67f1 492e
000000a0: ed29 9a31 be59 ac31 be8e 2b32 844b 9a2e
000000b0: f8c4 762e 7cfe 792e 3c49 652a 3ae1 ef31
000000c0: e253 ef2d eb00 6c2c f89e 4b31 11b4 882d
000000d0: 2297 772e b27a ad2a ecdc a331 43d8 ed2f
000000e0: fab0 ff2f 032c b92e 784c 2e32 e5b3 6f2c
000000f0: 4d3c 2d2f 4452 bd2d f3dc 0631 fa46 de31
00000100: bbdb 7f31 f01c 0e30 ed92 e831 c995 2430
00000110: 0b1f 4730 9a13 0030 84be 0a2d 887a 6230
00000120: 37c6 d92b 888d 8e30 f81c 1631 1a14 752f
00000130: c54c f331 a8a8 c031 ea12 8d30 fb49 4330
00000140: f6cf c02f 6b0a 2531 fecb 8031 a427 d330
00000150: 0b52 f82d 12e3 1631 a452 8d2e dc86 e92e
00000160: 5c5f 032f 0f9c 1f30 e6ff 6c2f e98a b02e
00000170: 1de2 3331 8a09 4332 582a 3930 51a6 512f
00000180: 50a0 9f2f 9f82 0e2f a1e5 f531 22b7 a82f
00000190: 0e90 3b2f 96b7 1832 7e6a 0232 90c5 582e
000001a0: ca79 4a30 f6a8 6b2f b64d e52f b72c 5b30
000001b0: 6a54 b02e 1072 b526 284e 5a30 acb0 9432
000001c0: 16b4 852f aa7b 1732 5d84 d931 dae0 982f
000001d0: 21e2 602b 5f42 2232 f2bc 192f 6cf0 462e
000001e0: 4c68 f52e 735d fa2e 3bca 4a2c febc 3d32
000001f0: e4f0 7e30 f801 952b 74bf 2132 6142 9632
1.3685267e-09 6.4175465e-10 8.557657e-09 2.5562624e-10 3.3882745e-09 4.9816125e-09 3.6331536e-09 1.02173485e-10
3.3071939e-09 1.976256e-10 5.4106e-10 5.973745e-13 4.0618956e-11 4.2157905e-10 2.327572e-12 7.214211e-12
2.0338926e-09 2.9850159e-12 8.278463e-11 2.8753395e-09 5.067967e-13 1.9792004e-09 2.0241517e-09 1.21509166e-11
6.0964435e-11 3.065079e-10 1.493322e-11 3.924865e-15 7.468852e-10 2.294859e-08 2.2372795e-08 1.8932838e-13
1.4341297e-09 1.1847799e-10 1.0744693e-09 4.699729e-12 1.2544683e-09 2.1956014e-08 2.351968e-10 4.5916517e-11
4.4867563e-09 5.0160613e-09 9.985966e-09 7.0165235e-11 5.6108868e-11 5.6842073e-11 2.0364694e-13 6.9814208e-09
2.7208406e-11 3.3538127e-12 2.9630751e-09 1.5541375e-11 5.629553e-11 3.081611e-13 4.7690403e-09 4.3263712e-10
4.650998e-10 8.420644e-11 1.014552e-08 3.4063804e-12 1.5755681e-10 2.1523346e-11 1.9625161e-09 6.4691195e-09
3.7232286e-09 5.170042e-10 6.768792e-09 5.987571e-10 7.2439893e-10 4.6593984e-10 7.886695e-12 8.239245e-10
1.5473793e-12 1.0372085e-09 2.184434e-09 2.2289762e-10 7.0809585e-09 5.6071094e-09 1.0264476e-09 7.104572e-10
3.5072362e-10 2.4016582e-09 3.7484815e-09 1.5363537e-09 2.823077e-11 2.1956947e-09 6.4266176e-11 1.0619569e-10
1.1948259e-10 5.8065636e-10 2.1554988e-10 8.028229e-11 2.6176459e-09 1.1352663e-08 6.736278e-10 1.9067527e-10
2.903584e-10 1.2961231e-10 7.1565442e-09 3.0689146e-10 1.705873e-10 8.889307e-09 7.591209e-09 4.9288185e-11
7.3660245e-10 2.1433152e-10 4.1710074e-10 7.973528e-10 8.018548e-11 1.2590315e-15 7.9419005e-10 1.7309809e-08
2.4320518e-10 8.817475e-09 6.330579e-09 2.7808406e-10 7.9894603e-13 9.444732e-09 1.3982396e-10 4.5233525e-11
1.1159837e-10 1.1385284e-10 2.8818187e-12 1.104422e-08 9.274699e-10 1.0587633e-12 9.414965e-09 1.7492484e-08
