Results/test33/Doughnut/Doughnut-9452.pt (torch, 260103 bytes, 11 tensors)

network_body._body_endoder.seq_layers.0.weight f4 [128, 114]
-0.08089911 -0.062455006 0.024122424 -0.06585692 0.10658545 -0.11290943 0.020279845 0.0686946
-0.1164585 -0.011013728 0.064895615 0.0516351 0.12876114 0.17301504 0.016135423 -0.047218077
-0.0023540868 0.061061442 -0.090734065 0.012020818 0.019599643 0.10040096 0.25851923 -0.050512187
-0.12821265 -0.031116871 -0.012068379 0.11505281 -0.03591966 0.062449697 -0.025258865 0.052098975
-0.020564474 -0.01257261 0.1509222 0.08488124 -0.057600006 0.09529394 -0.11459277 0.027624723
-0.09419048 -0.031530175 -0.064024016 0.021915901 -0.07976723 0.06611413 0.06660824 0.08182163
0.045453705 -0.027965575 0.036565512 -0.19701116 -0.044149917 -0.12146103 -0.006993261 -0.20050335
0.18394205 -0.11176538 0.04773612 0.010242609 0.007985947 -0.14774491 -0.11980205 0.029554704
-0.099966936 0.09484072 0.03506491 0.1440323 -0.021446401 -0.088045105 -0.15989931 -0.029331414
-0.0021691076 -0.22574124 -0.10424704 -0.08432773 -0.045695644 -0.04313236 0.07396958 0.00993207
-0.010410972 -0.06577637 0.14174022 -0.001894396 -0.07267467 -0.050151918 0.08273011 0.068183765
-0.021447256 0.021595232 0.02966242 -0.06260549 0.0379669 0.06872781 0.024851684 0.030360725
-0.03890397 0.06975374 -0.0056534237 0.06370412 0.01593405 -0.06318482 0.13355978 0.0040173233
-0.023422003 0.011912278 -0.005153979 -0.04203842 0.039834354 -0.11725545 0.0042501087 -0.038074538
0.028498327 0.07138369 0.04274141 -0.052680552 0.053655226 -0.044178497 0.030449044 -0.15276295
-0.034186188 0.053977128 -0.042604636 -0.10160089 0.06262795 -0.008210353 0.0773466 0.099232785
-0.060710266 -0.024933757 0.014333448 -0.116713926 -0.12254358 0.045932014 0.0012885353 0.024165079
-0.0109005775 0.017413484 -0.05709097 -0.06596777 -0.11214003 0.011157231 0.12940687 -0.04200081
0.052267984 -0.032355722 -0.07671378 -0.08869004 0.09561897 0.032767065 0.02277717 0.03406138
-0.060408108 0.029709568 0.048337936 0.0013445242 -0.05632434 -0.044787258 0.16179067 0.058831323
0.04196962 0.10702556 -0.05182768 0.07593991 -0.14077242 0.22459432 0.08772251 0.08939791
-0.07199491 0.06290737 -0.018358598 -0.019286195 -0.07515513 -0.008032679 -0.06575936 0.17540377
-0.073703244 -0.051653754 0.19893278 0.07591902 0.028523214 -0.14998397 -0.11438428 0.08001734
0.09191097 -0.030995533 -0.1252807 -0.07328729 0.03369348 -0.075067766 0.029722342 -0.2353006
-0.10126204 0.06263816 -0.102403656 -0.006427003 -0.16949737 0.19032498 0.04755091 -0.08385066
0.04654964 0.1616758 -0.07662638 0.08129304 -0.0941475 -0.05664817 0.121665366 -0.1088473
-0.10397918 0.1095659 -0.023147019 -0.12112809 0.06747394 0.013326976 0.09233462 -0.08018243
0.05458577 0.0036478925 0.06568144 0.107222795 -0.037344143 -0.05084695 -0.114150725 -0.0798472
0.13498084 0.04083034 0.005965378 -0.0434175 -0.038520593 0.05848167 0.07669041 -0.15872274
-0.06945104 0.04043579 0.03266696 0.034787092 0.027606461 -0.02828596 0.10041748 0.108402975
-0.095682144 0.15074374 0.037537895 0.010130157 0.06954526 -0.26931697 -0.075440705 0.10469757
0.047636516 -0.03733643 0.005005691 0.011694338 -0.06087337 0.050716672 0.12621582 0.07937943
00000000: 6fae a5bd d2d0 7fbd 649c c53c fedf 86bd
00000010: 7949 da3d 0f3d e7bd eb21 a63c c1af 8c3d
00000020: cb81 eebd ec72 34bc fee7 843d 547f 533d
00000030: f6d9 033e db2a 313e 6f2e 843c be67 41bd
00000040: 0647 1abb 901b 7a3d c8d2 b9bd f7f2 443c
00000050: 6e8f a03c 059f cd3d a25c 843e dee5 4ebd
00000060: 2d4a 03be cfe8 febc 73ba 45bc cfa0 eb3d
00000070: 7e20 13bd 41cb 7f3d aeeb cebc bc65 553d
00000080: d476 a8bc 59fd 4dbc 598b 1a3e 37d6 ad3d
00000090: fced 6bbd 7829 c33d 9daf eabd 3e4d e23c
000000a0: f0e6 c0bd c925 01bd 061f 83bd fa88 b33c
000000b0: 005d a3bd d866 873d e769 883d 1992 a73d
000000c0: aa2d 3a3d 1018 e5bc b8c5 153d 4bbd 49be
000000d0: 8bd6 34bd 8fc0 f8bd ba27 e5bb c050 4dbe
000000e0: 4e5b 3c3e 3fe5 e4bd f386 433d 9ed0 273c
000000f0: 7dd7 023c 714a 17be c75a f5bd b51c f23c
00000100: 77bb ccbd da3b c23d 39a0 0f3d 347d 133e
00000110: 5db0 afbc fe50 b4bd a5bc 23be 6f48 f0bc
00000120: 9627 0ebb b628 67be 797f d5bd 04b4 acbd
00000130: 5b2b 3bbd 8fab 30bd 5d7d 973d 1fba 223c
00000140: c892 2abc c3b5 86bd 5924 113e 624d f8ba
00000150: 75d6 94bd 196c 4dbd 676e a93d eea3 8b3d
00000160: 28b2 afbc 7ce8 b03c 9afe f23c 4f37 80bd
00000170: 2e83 1b3d 2bc1 8c3d c295 cb3c 0eb7 f83c
00000180: c559 1fbd 0ddb 8e3d 5b40 b9bb 4e77 823d
00000190: 2088 823c 0b67 81bd e5c3 083e c0a3 833b
000001a0: 80df bfbc b72b 433c b6e2 a8bb 7a30 2cbd
000001b0: 5929 233d a023 f0bd 7f44 8b3b 0cf4 1bbd
000001c0: 5375 e93c 9d31 923d 9e11 2f3d 90c7 57bd
000001d0: 95c5 5b3d 83f4 34bd 4670 f93c e46d 1cbe
000001e0: d106 0cbd 1f17 5d3d 3382 2ebd 2114 d0bd
000001f0: 1543 803d b784 06bc e567 9e3d 8f3a cb3d
00000200: 54ab 78bd e141 ccbc d7d6 6a3c b607 efbd
00000210: 21f8 fabd 3523 3c3d 12e4 a83a d8f5 c53c
00000220: 5698 32bc b9a6 8e3c 39d8 69bd 1c1a 87bd
00000230: aca9 e5bd d2cc 363c 3c83 043e 0b09 2cbd
00000240: f416 563d 6f87 04bd 1d1c 9dbd 20a3 b5bd
00000250: e1d3 c33d c236 063d 3097 ba3c f283 0b3d
00000260: 7e6e 77bd 7b61 f33c 00fe 453d bf3a b03a
00000270: 5ab4 66bd d872 37bd 74ac 253e 1df9 703d
00000280: 56e8 2b3d 3830 db3d 4349 54bd 6286 9b3d
00000290: a526 10be 0efc 653e dca7 b33d 4016 b73d
000002a0: 1172 93bd 94d5 803d c564 96bc 15fe 9dbc
000002b0: efea 99bd 7f9b 03bc d8ac 86bd 0c9d 333e
000002c0: baf1 96bd e392 53bd 09b5 4b3e 6e7b 9b3d
000002d0: 84a9 e93c 6695 19be 4e42 eabd 22e0 a33d
000002e0: d23b bc3d 58ea fdbc 9549 00be a617 96bd
000002f0: 2d02 0a3d 21bd 99bd 457c f33c a4f2 70be
00000300: 7962 cfbd 7048 803d 02b9 d1bd 9c99 d2bb
00000310: b890 2dbe 8de4 423e bec4 423d e5b9 abbd
00000320: d6aa 3e3d 578e 253e 4bee 9cbd f77c a63d
00000330: 68d0 c0bd e907 68bd b12b f93d 55eb debd
00000340: 09f3 d4bd 1664 e03d d19e bdbc 0112 f8bd
00000350: c72f 8a3d 6459 5a3c ef19 bd3d b036 a4bd
00000360: 5495 5f3d 7b11 6f3b fe83 863d a097 db3d
00000370: 2cf6 18bd e444 50bd dbc7 e9bd ee86 a3bd
00000380: 6b38 0a3e b73d 273d 3879 c33b 8cd6 31bd
00000390: c5c7 1dbd 7a8a 6f3d dd0f 9d3d 3788 22be
000003a0: 593c 8ebd 00a0 253d cacd 053d e97c 0e3d
000003b0: f226 e23c f5b7 e7bc aea7 cd3d 6102 de3d
000003c0: 00f5 c3bd 915c 1a3e 56c1 193d f5f8 253c
000003d0: bf6d 8e3d eae3 89be a880 9abd ae6b d63d
000003e0: 821e 433d 16ee 18bd c806 a43b 9c99 3f3c
000003f0: 5b56 79bd 49bc 4f3d b83e 013e af91 a23d

network_body._body_endoder.seq_layers.0.bias f4 [128]
0.0 0.0 0.0 0.0 0.0 0.0 0.0 0.0
0.0 0.0 0.0 0.0 0.0 0.0 0.0 0.0
0.0 0.0 0.0 0.0 0.0 0.0 0.0 0.0
0.0 0.0 0.0 0.0 0.0 0.0 0.0 0.0
0.0 0.0 0.0 0.0 0.0 0.0 0.0 0.0
0.0 0.0 0.0 0.0 0.0 0.0 0.0 0.0
0.0 0.0 0.0 0.0 0.0 0.0 0.0 0.0
0.0 0.0 0.0 0.0 0.0 0.0 0.0 0.0
0.0 0.0 0.0 0.0 0.0 0.0 0.0 0.0
0.0 0.0 0.0 0.0 0.0 0.0 0.0 0.0
0.0 0.0 0.0 0.0 0.0 0.0 0.0 0.0
0.0 0.0 0.0 0.0 0.0 0.0 0.0 0.0
0.0 0.0 0.0 0.0 0.0 0.0 0.0 0.0
0.0 0.0 0.0 0.0 0.0 0.0 0.0 0.0
0.0 0.0 0.0 0.0 0.0 0.0 0.0 0.0
0.0 0.0 0.0 0.0 0.0 0.0 0.0 0.0
00000000: 0000 0000 0000 0000 0000 0000 0000 0000
00000010: 0000 0000 0000 0000 0000 0000 0000 0000
00000020: 0000 0000 0000 0000 0000 0000 0000 0000
00000030: 0000 0000 0000 0000 0000 0000 0000 0000
00000040: 0000 0000 0000 0000 0000 0000 0000 0000
00000050: 0000 0000 0000 0000 0000 0000 0000 0000
00000060: 0000 0000 0000 0000 0000 0000 0000 0000
00000070: 0000 0000 0000 0000 0000 0000 0000 0000
00000080: 0000 0000 0000 0000 0000 0000 0000 0000
00000090: 0000 0000 0000 0000 0000 0000 0000 0000
000000a0: 0000 0000 0000 0000 0000 0000 0000 0000
000000b0: 0000 0000 0000 0000 0000 0000 0000 0000
000000c0: 0000 0000 0000 0000 0000 0000 0000 0000
000000d0: 0000 0000 0000 0000 0000 0000 0000 0000
000000e0: 0000 0000 0000 0000 0000 0000 0000 0000
000000f0: 0000 0000 0000 0000 0000 0000 0000 0000
00000100: 0000 0000 0000 0000 0000 0000 0000 0000
00000110: 0000 0000 0000 0000 0000 0000 0000 0000
00000120: 0000 0000 0000 0000 0000 0000 0000 0000
00000130: 0000 0000 0000 0000 0000 0000 0000 0000
00000140: 0000 0000 0000 0000 0000 0000 0000 0000
00000150: 0000 0000 0000 0000 0000 0000 0000 0000
00000160: 0000 0000 0000 0000 0000 0000 0000 0000
00000170: 0000 0000 0000 0000 0000 0000 0000 0000
00000180: 0000 0000 0000 0000 0000 0000 0000 0000
00000190: 0000 0000 0000 0000 0000 0000 0000 0000
000001a0: 0000 0000 0000 0000 0000 0000 0000 0000
000001b0: 0000 0000 0000 0000 0000 0000 0000 0000
000001c0: 0000 0000 0000 0000 0000 0000 0000 0000
000001d0: 0000 0000 0000 0000 0000 0000 0000 0000
000001e0: 0000 0000 0000 0000 0000 0000 0000 0000
000001f0: 0000 0000 0000 0000 0000 0000 0000 0000

network_body._body_endoder.seq_layers.2.weight f4 [128, 128]
0.10349934 -0.056775454 0.012335961 0.015472136 -0.116787344 -0.058904618 0.10275645 0.012963029
-0.11575167 0.009675211 -0.12280319 -0.14175852 0.04181036 -0.0023839397 0.05882154 0.01636234
0.05356658 -0.108253494 0.035095003 -0.043208446 -0.010784865 0.062458374 -0.054925863 -0.025062932
0.0059820083 -0.10788289 0.048503093 0.030473348 0.050721917 -0.04125457 -0.071197614 0.0070388536
-0.13479519 -0.027063392 0.068427175 0.07093291 -0.023140756 0.03504513 -0.035516217 0.017199269
0.0068744584 -0.076343775 0.060517374 0.13867965 -0.03172511 0.1094646 0.03006632 0.06207793
0.07863697 -0.057025008 0.16288772 -0.14521018 0.025722822 -0.040100403 -0.11679423 0.05341281
0.046275686 0.01071182 0.07244501 -0.013194371 -0.03042065 0.107427545 -0.0100516835 -0.039546818
0.09749528 -0.2936385 0.0077052163 0.020519149 -0.008445371 0.024770418 0.15496072 -0.0077036917
-0.07223314 -0.15181068 0.11721744 -0.04753021 0.098999925 0.036246393 0.14117895 -0.04266727
0.057634376 -0.05191487 0.19821599 0.055537224 0.05828545 -0.04933811 -0.045389637 -0.14745346
-0.15920162 0.10403829 -0.0267378 -0.005517347 -0.039908044 0.09108558 0.052001502 0.0066119586
0.12389383 -0.13343385 -0.0514277 -0.04964344 -0.02285726 -0.01694336 -0.0071480027 -0.039594803
-0.09278088 -0.32883063 0.08401419 0.04265496 0.1294431 -0.033292983 -0.10643697 -0.08049523
0.14368469 0.07309513 0.06763021 -0.027808106 0.07284741 -0.03332487 0.02651632 0.0419351
0.085081376 -0.024310011 -0.20463772 -0.104903944 0.011841944 0.036390945 0.01754084 -0.12049857
0.127596 0.051891636 0.0043980707 0.11453101 0.06408533 -0.102779925 0.05415938 -0.1141777
-0.12861189 0.021539424 0.110753275 -0.20130414 -0.10847231 0.046073496 0.14537524 -0.10845109
0.1161445 0.04689154 0.06550082 0.03151953 0.05643806 -0.0625332 0.07437913 0.065639
-0.08485102 -0.09834634 -0.012083837 -0.0005333487 0.016375862 -0.08121206 -0.11900213 0.029845973
-0.04147803 0.04009537 -0.038667396 -0.057431053 -0.099861585 0.016934965 -0.08274074 -0.13018678
-0.058818296 0.010932473 0.0033392177 -0.116532855 0.13846181 0.0077420007 -0.021151114 -0.044938445
0.02081163 -0.22619586 0.10478827 0.053437676 0.01298999 -0.07423662 0.11362125 -0.039589025
0.013189104 -0.044283662 -0.085790925 -0.045801748 0.018402964 0.16513482 0.07013044 -0.05228496
-0.17856309 0.0068090623 0.013746099 0.10143442 -0.095424 -0.018833786 -0.0198657 0.11758017
0.00018276999 0.13739385 0.10069567 -0.1602316 -0.040525176 -0.024268763 -0.018952325 0.06825154
-0.010519914 0.22888744 -0.12382999 -0.033581644 0.012800415 -0.11985021 -0.16556504 -0.09122737
-0.06359064 -0.059931275 0.07690772 -0.044078507 0.14635916 -0.068570405 -0.034600604 -0.1744771
-0.02725222 0.053518336 -0.024670314 0.064519815 0.023050668 0.101505734 0.066151865 0.002687752
-0.15186308 -0.014580499 -0.042856894 -0.023400689 0.07713961 -0.119244486 -0.03642123 -0.038246557
0.16154882 -0.035241496 -0.11401357 -0.200982 -0.019745246 -0.010710885 0.1633697 0.0004904694
0.049351946 -0.012222618 0.09331123 -0.033533663 0.03864402 -0.14837247 0.14813472 0.087523006
00000000: 76f7 d33d 618d 68bd c51c 4a3c d87e 7d3c
00000010: 342e efbd f845 71bd f971 d23d e262 543c
00000020: 360f edbd c784 1e3c 3d80 fbbd 2529 11be
00000030: 5741 2b3d df3b 1cbb dbee 703d 500a 863c
00000040: a168 5b3d 02b4 ddbd c7bf 0f3d 57fb 30bd
00000050: 01b3 30bc 5ad4 7f3d f1f9 60bd c750 cdbc
00000060: b904 c43b b4f1 dcbd 2eab 463d 3ea3 f93c
00000070: c9c1 4f3d 8dfa 28bd 0ed0 91bd 2fa6 e63b
00000080: c007 0abe 0cb4 ddbc 8c23 8c3d 4645 913d
00000090: af91 bdbc 7b8b 0f3d 7479 11bd 7be5 8c3c
000000a0: 2343 e13b 205a 9cbd 11e1 773d 0a02 0e3e
000000b0: 30f2 01bd fa2e e03d a54d f63c 6d45 7e3d
000000c0: 6b0c a13d 0e93 69bd 0acc 263e fab1 14be
000000d0: abb8 d23c 5240 24bd d031 efbd 64c7 5a3d
000000e0: 938b 3d3d a180 2f3c 0d5e 943d 342d 58bc
000000f0: ba34 f9bc f902 dc3d d1af 24bc d8fb 21bd
00000100: 9bab c73d c957 96be 0a7c fc3b c617 a83c
00000110: 745e 0abc 55eb ca3c 06ae 1e3e 406f fcbb
00000120: f8ee 93bd 4274 1bbe b20f f03d 0aaf 42bd
00000130: 79c0 ca3d 1977 143d 3791 103e e0c3 2ebd
00000140: 0612 6c3d b0a4 54bd 22f9 4a3e 007b 633d
00000150: b9bc 6e3d c216 4abd 7cea 39bd 0afe 16be
00000160: c005 23be 0712 d53d 3b09 dbbc dcca b4bb
00000170: 9e76 23bd 148b ba3d 87ff 543d 21a9 d83b
00000180: 0cbc fd3d e2a2 08be daa5 52bd eb56 4bbd
00000190: 263f bbbc cdcc 8abc cb39 eabb 292e 22bd
000001a0: e703 bebd 7d5c a8be a20f ac3d f8b6 2e3d
000001b0: bb8c 043e 395e 08bd a0fb d9bd afda a4bd
000001c0: 1422 133e e6b2 953d b581 8a3d d3cd e3bc
000001d0: 0631 953d a97f 08bd c138 d93c 24c4 2b3d
000001e0: 253f ae3d ca25 c7bc 8d8c 51be e1d7 d6bd
000001f0: b704 423c ac0e 153d cfb1 8f3c f4c7 f6bd
00000200: 87a8 023e 538c 543d b11d 903b 3c8f ea3d
00000210: 2b3f 833d 487e d2bd 3ad6 5d3d ffd5 e9bd
00000220: d6b2 03be 7273 b03c 9dd2 e23d ac22 4ebe
00000230: bb26 debd 90b7 3c3d 3fdd 143e 9b1b debd
00000240: 2bdd ed3d 5811 403d 4b25 863d 9f1a 013d
00000250: 982b 673d 6811 80bd 1654 983d bd6d 863d
00000260: 5fc6 adbd ce69 c9bd 49fb 45bc 6dd0 0bba
00000270: ac26 863c 8252 a6bd 64b7 f3bd 8b7f f43c
00000280: dee4 29bd 0b3b 243d b461 1ebd d33c 6bbd
00000290: 3b84 ccbd 32bb 8a3c fa73 a9bd af4f 05be
000002a0: 74eb 70bd 1d1e 333c c7d6 5a3b c7a8 eebd
000002b0: efc8 0d3e 9cb0 fd3b 1a45 adbc 6011 38bd
000002c0: 277d aa3c e39f 67be 3c9b d63d 77e1 5a3d
000002d0: f8d3 543c 5e09 98bd 42b2 e83d 1a28 22bd
000002e0: 1d17 583c c962 35bd 27b3 afbd 9d9a 3bbd
000002f0: d0c1 963c 1a19 293e 8ca0 8f3d c128 56bd
00000300: 3ed9 36be 8e1e df3b 5137 613c d9bc cf3d
00000310: a86d c3bd 5049 9abc 64bd a2bc dfcd f03d
00000320: f2a5 3f39 f9b0 0c3e 8839 ce3d c113 24be
00000330: bafd 25bd 49cf c6bc e841 9bbc 77c7 8b3d
00000340: b85b 2cbc 7861 6a3e 949a fdbd e88c 09bd
00000350: d5b8 513c 0774 f5bd e289 29be 6ad5 babd
00000360: cf3b 82bd 7f7a 75bd cb81 9d3d aa8b 34bd
00000370: 2ddf 153e a46e 8cbd 5db9 0dbd 20aa 32be
00000380: 0c40 dfbc 0b36 5b3d 6619 cabc f722 843d
00000390: c1d4 bc3c 3de2 cf3d a17a 873d ff24 303b
000003a0: ff81 1bbe 0ce3 6ebc b68a 2fbd cdb2 bfbc
000003b0: 5ffb 9d3d 7436 f4bd 6d2e 15bd 6ca8 1cbd
000003c0: 0e6d 253e 6359 10bd f27f e9bd 3ace 4dbe
000003d0: c8c0 a1bc b57c 2fbc 634a 273e d892 003a
000003e0: 4425 4a3d 6041 48bc f519 bf3d 985a 09bd
000003f0: 3149 1e3d f4ee 17be a1b0 173e 433f b33d

network_body._body_endoder.seq_layers.2.bias f4 [128]
0.0 0.0 0.0 0.0 0.0 0.0 0.0 0.0
0.0 0.0 0.0 0.0 0.0 0.0 0.0 0.0
0.0 0.0 0.0 0.0 0.0 0.0 0.0 0.0
0.0 0.0 0.0 0.0 0.0 0.0 0.0 0.0
0.0 0.0 0.0 0.0 0.0 0.0 0.0 0.0
0.0 0.0 0.0 0.0 0.0 0.0 0.0 0.0
0.0 0.0 0.0 0.0 0.0 0.0 0.0 0.0
0.0 0.0 0.0 0.0 0.0 0.0 0.0 0.0
0.0 0.0 0.0 0.0 0.0 0.0 0.0 0.0
0.0 0.0 0.0 0.0 0.0 0.0 0.0 0.0
0.0 0.0 0.0 0.0 0.0 0.0 0.0 0.0
0.0 0.0 0.0 0.0 0.0 0.0 0.0 0.0
0.0 0.0 0.0 0.0 0.0 0.0 0.0 0.0
0.0 0.0 0.0 0.0 0.0 0.0 0.0 0.0
0.0 0.0 0.0 0.0 0.0 0.0 0.0 0.0
0.0 0.0 0.0 0.0 0.0 0.0 0.0 0.0
00000000: 0000 0000 0000 0000 0000 0000 0000 0000
00000010: 0000 0000 0000 0000 0000 0000 0000 0000
00000020: 0000 0000 0000 0000 0000 0000 0000 0000
00000030: 0000 0000 0000 0000 0000 0000 0000 0000
00000040: 0000 0000 0000 0000 0000 0000 0000 0000
00000050: 0000 0000 0000 0000 0000 0000 0000 0000
00000060: 0000 0000 0000 0000 0000 0000 0000 0000
00000070: 0000 0000 0000 0000 0000 0000 0000 0000
00000080: 0000 0000 0000 0000 0000 0000 0000 0000
00000090: 0000 0000 0000 0000 0000 0000 0000 0000
000000a0: 0000 0000 0000 0000 0000 0000 0000 0000
000000b0: 0000 0000 0000 0000 0000 0000 0000 0000
000000c0: 0000 0000 0000 0000 0000 0000 0000 0000
000000d0: 0000 0000 0000 0000 0000 0000 0000 0000
000000e0: 0000 0000 0000 0000 0000 0000 0000 0000
000000f0: 0000 0000 0000 0000 0000 0000 0000 0000
00000100: 0000 0000 0000 0000 0000 0000 0000 0000
00000110: 0000 0000 0000 0000 0000 0000 0000 0000
00000120: 0000 0000 0000 0000 0000 0000 0000 0000
00000130: 0000 0000 0000 0000 0000 0000 0000 0000
00000140: 0000 0000 0000 0000 0000 0000 0000 0000
00000150: 0000 0000 0000 0000 0000 0000 0000 0000
00000160: 0000 0000 0000 0000 0000 0000 0000 0000
00000170: 0000 0000 0000 0000 0000 0000 0000 0000
00000180: 0000 0000 0000 0000 0000 0000 0000 0000
00000190: 0000 0000 0000 0000 0000 0000 0000 0000
000001a0: 0000 0000 0000 0000 0000 0000 0000 0000
000001b0: 0000 0000 0000 0000 0000 0000 0000 0000
000001c0: 0000 0000 0000 0000 0000 0000 0000 0000
000001d0: 0000 0000 0000 0000 0000 0000 0000 0000
000001e0: 0000 0000 0000 0000 0000 0000 0000 0000
000001f0: 0000 0000 0000 0000 0000 0000 0000 0000

action_model._discrete_distribution.branches.0.weight f4 [2, 128]
-0.008911536 -0.00387288 0.007440649 0.00092441635 -0.02080224 0.00478593 0.014076567 -0.0065337443
0.0017704408 -0.0020583454 -0.0082919225 -0.0018767745 0.0032220893 0.005946086 0.004695532 -0.004254914
-0.010173014 -0.008821958 -0.0031930686 -0.015708575 0.010571226 -0.010110398 0.0029537117 0.01113151
0.00019433103 0.008439782 -0.0012351024 -0.0027689042 0.008072498 -0.009865563 -0.005041934 0.006600586
0.007290348 -0.0066575157 0.003072412 -0.0057311896 0.010276787 0.0020402647 -0.0090850815 0.0047528404
-0.0021134322 -0.013104396 0.0070921644 -0.01808982 -0.010029985 0.0051801866 0.0030215667 -0.0074749636
-0.022200277 -0.018384757 -0.011472454 -0.0019706816 -0.012912872 0.008276965 0.009637414 0.016939588
-0.009089891 0.013709736 0.017598288 -0.017914673 -0.013455561 0.014052293 -0.0029710992 -0.009945349
0.006418449 -0.011080049 0.001544746 0.0060411165 -0.016122995 -0.0053527835 -0.010866198 -0.009080677
-0.0046280576 0.0031953265 -0.002642202 0.011179873 -0.002591816 0.000941144 0.004274164 -0.011161591
0.006985636 -0.0075858333 0.016236668 0.003671712 0.0038238154 0.009919565 -0.0034018483 -0.0048118653
-0.00581035 0.0023068164 0.012014884 -0.007270673 -0.013515099 -0.0044772285 0.01592186 -0.0060545695
0.0021291708 0.002818855 0.0007308365 0.0032179968 -0.0026974091 -6.99062e-05 0.0056354064 0.016797235
-0.00088566024 -0.0012776724 -0.013294214 -0.014071996 0.015357119 0.009599288 -0.007303407 -0.010684888
0.007586808 -0.0103278 0.0032484238 0.002337394 -0.004176779 -0.013471534 0.0024798824 -0.012571461
-0.012669434 -0.020211807 0.010754739 0.00245551 -0.009642444 0.008681071 -0.0007849251 0.0036894735
0.00086376857 -0.01142647 -0.0020072043 -0.004581991 -0.005256163 -0.016698783 0.023571653 -0.010251399
-0.008306417 0.017886132 0.0053899116 -0.002389223 0.0052157217 0.016179575 -0.009428325 -0.011981412
0.016136093 0.0063269003 -0.014854579 0.00012749595 -0.01480754 -0.009275759 0.009562581 -0.026833726
0.004655758 -0.00925979 -0.00055987644 -0.0071761357 0.0066011287 0.011567255 0.014766439 0.0038351342
0.0048824996 -0.00020786584 0.006600824 -0.0071909884 -0.0015125459 -0.0019549872 0.0057613566 0.0057762875
-0.007312726 0.006410347 0.017677454 -0.001546551 -0.007660077 0.00059785636 -0.000121640194 -0.0032526236
0.0039796717 0.00080726604 0.016584035 0.0041122516 -0.010213762 -0.00801135 -0.0007730388 0.008354209
-0.008164947 -0.017360695 0.014686527 -0.0017108768 -0.013835425 -0.0070972643 0.0038517246 0.0029812034
0.0024888075 -0.0029761149 0.00033235186 0.003452591 0.00051159237 0.0018906695 0.001785426 0.0058744974
0.00429123 0.002954758 0.0020409 0.0017637414 0.0071523995 -0.014629445 -0.00883052 -0.026949976
0.006807892 0.0063819 -0.0022218404 0.0005259665 0.0035481171 0.0056611733 0.012152733 -0.012814062
0.0050393413 0.016145045 -0.0032769218 0.011317263 0.0052640224 0.0077855675 -0.0057065627 -0.005027815
0.005936873 -0.020218523 0.00073807396 0.009555596 -0.004884648 -0.003961867 0.02319034 -0.007459963
-0.012238337 -0.008798851 -0.008481812 -0.0025285145 -0.0028491607 0.013558479 0.003689625 -0.0062186616
-0.010937668 0.0027591933 -0.0070651756 -0.005343547 -0.0051923604 -0.0064852885 0.0033180793 0.011710699
-0.0046306327 -0.0029688627 -0.0038849616 0.0040022107 0.010999552 0.0003814357 0.004072511 0.0032794483
00000000: b101 12bc 25d0 7dbb b0d0 f33b 8854 723a
00000010: 7669 aabc 4ad3 9c3b 67a1 663c 0519 d6bb
00000020: 230e e83a 4ee5 06bb d8da 07bc 1afe f5ba
00000030: b029 533b 62d7 c23b fadc 993b ce6c 8bbb
00000040: b7ac 26bc f989 10bc cd42 51bb 45af 80bc
00000050: ef32 2d3c 15a6 25bc 0f93 413b f060 363c
00000060: 57c5 4b39 0347 0a3c 29e3 a1ba 8176 35bb
00000070: 8342 043c 2ca3 21bc cf36 a5bb bb49 d83b
00000080: dfe3 ee3b 4a27 dabb 855a 493b b4cc bbbb
00000090: f85f 283c f6b5 053b 98d9 14bc b7bd 9b3b
000000a0: 8281 0abb d2b3 56bc 6365 e83b 1a31 94bc
000000b0: ce54 24bc 8ebe a93b 7a05 463b 8af0 f4bb
000000c0: 5bdd b5bc a19b 96bc f6f6 3bbc 8d26 01bb
000000d0: 8390 53bc 1b9c 073c 3ee6 1d3c e4c4 8a3c
000000e0: c4ed 14bc cd9e 603c 492a 903c cbc1 92bc
000000f0: b774 5cbc 973b 663c c6b6 42bb d1f1 22bc
00000100: da51 d23b 1889 35bc 1379 ca3a 8ff4 c53b
00000110: 5f14 84bc 6766 afbb 2308 32bc 1fc7 14bc
00000120: f6a6 97bb af68 513b cb28 2dbb c92b 373c
00000130: 75db 29bb 1bb7 763a 490e 8c3b 1bdf 36bc
00000140: c3e7 e43b 9592 f8bb c302 853c 1ba1 703b
00000150: fa98 7a3b ac85 223c 8bf1 5ebb daac 9dbb
00000160: c064 bebb f52d 173b 13da 443c d33e eebb
00000170: 6f6e 5dbc b7b5 92bb 8f6e 823c 6965 c6bb
00000180: 8f89 0b3b 8abc 383b 9b95 3f3a 07e5 523b
00000190: 04c7 30bb 9b9a 92b8 37a9 b83b 5b9a 893c
000001a0: a72b 68ba 9277 a7ba facf 59bc 3b8e 66bc
000001b0: 6d9c 7b3c 5546 1d3c 6b51 efbb ab0f 2fbc
000001c0: c29a f83b ef35 29bc 82e3 543b f72e 193b
000001d0: 5ddd 88bb b5b7 5cbc 8685 223b 87f8 4dbc
000001e0: 7593 4fbc 3b93 a5bc a534 303c 9fec 203b
000001f0: 57fb 1dbc 0d3b 0e3c 6fc3 4dba 18cb 713b
00000200: 876e 623a 1736 3bbc 4d8b 03bb 8724 96bb
00000210: e43b acbb e3cb 88bc 5719 c13c 7cf5 27bc
00000220: a317 08bc f085 923c db9d b03b 8394 1cbb
00000230: a5e8 aa3b 078b 843c 4379 1abc af4d 44bc
00000240: d72f 843c e351 cf3b 9f60 73bc 6fb0 0539
00000250: 539b 72bc 5af9 17bc 5fac 1c3c 67d2 dbbc
00000260: 548f 983b 60b6 17bc acc4 12ba ca25 ebbb
00000270: 484e d83b 9584 3d3c efee 713c e056 7b3b
00000280: 60fd 9f3b 90f6 59b9 ba4b d83b 62a2 ebbb
00000290: 9e40 c6ba 3e1f 00bb c3c9 bc3b 0347 bd3b
000002a0: 989f efbb e30d d23b 4fd0 903c a4b5 caba
000002b0: 6201 fbbb 76b9 1c3a 1519 ffb8 f829 55bb
000002c0: e867 823b b59e 533a 3edb 873c 11c0 863b
000002d0: 9f57 27bc 0a42 03bc c1a5 4aba 18e0 083c
000002e0: 45c6 05bc 0438 8ebc c29f 703c 803f e0ba
000002f0: faad 62bc 2b90 e8bb 376d 7c3b 4b60 433b
00000300: 431b 233b ec0a 43bb 833f ae39 dd44 623b
00000310: 621c 063a 57d0 f73a f504 ea3a db7e c03b
00000320: 729d 8c3b 9da4 413b 9fc0 053b 572d e73a
00000330: ad5e ea3b 57b0 6fbc e3ad 10bc 32c6 dcbc
00000340: bd14 df3b 421f d13b 4c9c 11bb 04e1 093a
00000350: 8787 683b 5d81 b93b 421c 473c 12f2 51bc
00000360: 0f21 a53b 9d42 843c a0c1 56bb 0b6c 393c
00000370: d27d ac3b 131e ff3b 1efe babb 5ec0 a4bb
00000380: 1a8a c23b 51a1 a5bc 4e7b 413a 138f 1c3c
00000390: 660f a0bb 8dd2 81bb abf9 bd3c b572 f4bb
000003a0: 4e83 48bc 0e29 10bc 4cf7 0abc 6fb5 25bb
000003b0: fcb8 3abb 6224 5e3c a3cd 713b eac5 cbbb
000003c0: e833 33bc 95d3 343b fd82 e7bb ec18 afbb
000003d0: ad24 aabb 8b82 d4bb 2274 593b 3bde 3f3c
000003e0: 90bc 97bb 4091 42bb d79a 7ebb fa24 833b
000003f0: 7737 343c 6ffb c739 b372 853b 03ec 563b

action_model._discrete_distribution.branches.0.bias f4 [2]
0.0 0.0
00000000: 0000 0000 0000 0000

network_body._body_endoder.seq_layers.0.weight f4 [128, 114]
0.01817613 0.13286225 0.0037075924 0.20590144 0.018732766 -0.15285242 -0.013159887 -0.11588333
-0.0058802 -0.10559319 -0.14540035 0.049166646 0.077012554 -0.033995625 -0.084170535 -0.09528579
0.034602158 -0.032646317 0.017639844 0.07170109 0.037598602 0.085353464 -0.0025895205 0.06879644
-0.037339207 0.18017073 0.025258731 -0.07063212 0.19668107 0.06758843 0.0009462739 -0.18904151
-0.059288386 0.035431 -0.087297626 0.06370177 -0.026400642 0.14421733 -0.08088035 0.1568769
-0.11940911 0.060387917 0.03980029 -0.055245742 -0.020688329 0.028990455 -0.1879518 0.06523821
-0.006596309 -0.0905708 -0.061986294 -0.027158473 0.07718093 0.0008025966 0.14121917 -0.10945944
0.07244229 -0.019054271 0.1517081 -0.094186045 0.07455255 -0.0022879823 -0.045983657 -0.119920254
-0.036147546 0.10964842 0.006928943 0.1033631 -0.103323594 -0.0052347276 0.03276682 0.018206239
-0.082283854 0.12120841 -0.17176841 0.014516208 0.044729535 -0.11196309 0.10919948 0.023771327
0.075933106 0.18193147 0.09109906 0.016248835 0.08120537 -0.0042966143 -0.037469592 0.091969326
-0.08481462 -0.059533887 0.046469152 -0.07089921 -0.021203166 -0.044491272 0.064834185 -0.08788349
0.01220873 -0.05488819 0.10356434 0.20201172 -0.053569146 -0.0903006 -0.011794726 0.027830947
-0.014037061 0.16452985 0.08412868 -0.18550038 0.03449056 0.09666134 -0.06525294 -0.10624921
-0.08914467 0.029533498 0.004496186 0.06430988 -0.08104152 0.0439133 0.054086898 0.11760582
0.032383498 -0.011575729 0.053971905 -0.03677907 -0.080217704 0.083534695 0.027065737 -0.1285977
-0.027356299 0.03830384 -0.014450297 0.050273784 -0.07470338 0.04736375 0.21549885 -0.14044455
-0.0029275774 0.0023497103 0.018957518 0.03350406 0.11675106 -0.04787695 0.0013295531 -0.10001741
-0.15769418 -0.052681345 0.092151746 -0.019885266 0.047196284 -0.044284396 -0.07358407 -0.0729319
0.011763809 0.1423629 -0.097345725 -0.03304967 -0.018656366 -0.11765932 0.052368328 0.11503989
-0.25327605 0.01256242 0.05305895 0.058684427 -0.06942504 -0.14778556 -0.0057877176 0.21261287
-0.013092992 -0.078870684 0.103419706 -0.027323404 -0.031540167 -0.027853128 -0.01913196 -0.082326405
-0.013226816 0.0655935 0.04627431 0.013468159 0.2683648 0.029159047 0.032028943 0.007587938
0.03339145 -0.076813795 -0.029168319 -0.031780988 -1.8748557e-05 -0.102471896 -0.01075356 -0.072269924
0.063371405 0.07192962 0.0745821 -0.17794208 -0.08056107 -0.031997003 0.11555219 -0.091521256
-0.0494035 -0.09619314 -0.007994981 0.1008292 0.08464551 0.09619854 -0.04066457 -0.19844605
0.09692473 0.0057962984 0.17433994 0.023768095 -0.097563796 -0.067035645 -0.21903598 0.19822644
-0.038462102 -0.0015940567 -0.05737223 0.10071393 -0.025195632 -0.24448784 -0.057291653 -0.20780002
-0.014027932 0.05081924 0.1438311 0.21117006 0.0030861043 0.03835012 -0.023427624 -0.054584265
-0.11041995 -0.021017713 0.089835025 -0.05838439 0.076229565 0.02574882 0.03375154 0.0925584
0.104575515 -0.120277844 0.16262351 0.032440614 0.06574137 -0.014755798 0.015251483 0.09741268
0.09582385 -0.015035006 0.05963404 0.0036427863 -0.102657184 0.13027425 0.15931454 -0.022977214
00000000: 1be6 943c 0b0d 083e 14fb 723b d4d7 523e
00000010: 7575 993c 5885 1cbe 919c 57bc 3d54 edbd
00000020: b1ae c0bb 3e41 d8bd d4e3 14be f762 493d
00000030: c2b8 9d3d ff3e 0bbd 9a61 acbd 3225 c3bd
00000040: feba 0d3d 25b8 05bd 6f81 903c 05d8 923d
00000050: fe00 1a3d cccd ae3d f2b4 29bb 26e5 8c3d
00000060: fff0 18bd ad7e 383e 66eb ce3c 93a7 90bd
00000070: c366 493e ce6b 8a3d 5e0f 783a 1994 41be
00000080: 61d8 72bd 1920 113d 19c9 b2bd 1376 823d
00000090: 2946 d8bc b5ad 133e 99a4 a5bd 57a4 203e
000000a0: c38c f4bd 5259 773d a105 233d 5c49 62bd
000000b0: 927a a9bc 647d ed3c 7076 40be 9c9b 853d
000000c0: da25 d8bb 2f7d b9bd 57e5 7dbd 727b debc
000000d0: 0911 9e3d 5965 523a c29b 103e 452c e0bd
000000e0: a05c 943d b417 9cbc 5e59 1b3e 9de4 c0bd
000000f0: 02af 983d f9f1 15bb 5c59 3cbd c098 f5bd
00000100: 730f 14bd 5a8f e03d 300c e33b 08b0 d33d
00000110: 529b d3bd 1488 abbb 8036 063d 4025 953c
00000120: 7084 a8bd 1d3c f83d 0fe4 2fbe 64d5 6d3c
00000130: 5136 373d e84c e5bd faa3 df3d 16bc c23c
00000140: d182 9b3d 3e4c 3a3e 2592 ba3d 471c 853c
00000150: 004f a63d 9dca 8cbb b779 19bd 6a5a bc3d
00000160: 4ab3 adbd ced9 73bd 7056 3e3d 9b33 91bd
00000170: 43b2 adbc 7b3c 36bd c9c7 843d 42fc b3bd
00000180: 2007 483c 70d2 60bd 8a19 d43d 29dc 4e3e
00000190: 526b 5bbd 85ef b8bd ab3e 41bc bafd e33c
000001a0: b3fb 65bc 837a 283e a84b ac3d d0f3 3dbe
000001b0: f945 0d3d 61f6 c53d 55a3 85bd 3099 d9bd
000001c0: 7b91 b6bd 3cf0 f13c be54 933b e6b4 833d
000001d0: 19f9 a5bd 6fde 333d 398a 5d3d 52db f03d
000001e0: 8fa4 043d 20a8 3dbc a511 5d3d a6a5 16bd
000001f0: 2e49 a4bd 3d14 ab3d f7b8 dd3c 1eaf 03be
00000200: 511a e0bc 7de4 1c3d f0c0 6cbc e2eb 4d3d
00000210: 16fe 98bd 7e00 423d bbab 5c3e b2d0 0fbe
00000220: 99dc 3fbb 99fd 193b cc4c 9b3c 8e3b 093d
00000230: 2e1b ef3d 9f1a 44bd 6644 ae3a eed5 ccbd
00000240: 957a 21be 65c8 57bd 0eba bc3d 6de6 a2bc
00000250: e450 413d 8e63 35bd 3fb3 96bd 525d 95bd
00000260: febc 403c 94c7 113e 325d c7bd 175f 07bd
00000270: 3cd5 98bc 5ff7 f0bd 2c80 563d 099a eb3d
00000280: 66ad 81be 9cd2 4d3c 5754 593d 155f 703d
00000290: b72e 8ebd 1955 17be e5a6 bdbb 30b7 593e
000002a0: fd83 56bc f486 a1bd b6cd d33d 55d5 dfbc
000002b0: 4330 01bd 3e2c e4bc a1ba 9cbc bf9a a8bd
000002c0: 4ab5 58bc e355 863d 228a 3d3d 8ea9 5c3c
000002d0: 1c67 893e f4de ee3c c830 033d 3da4 f83b
000002e0: 79c5 083d 8d50 9dbd 66f2 eebc c82c 02bd
000002f0: 3846 9db7 c9dc d1bd b32f 30bc 4102 94bd
00000300: dec8 813d d64f 933d 80be 983d 7336 36be
00000310: 34fd a4bd 4a0f 03bd a0a6 ec3d 7f6f bbbd
00000320: 535b 4abd e900 c5bd 61fd 02bc 8a7f ce3d
00000330: a05a ad3d bd03 c53d e48f 26bd 7135 4bbe
00000340: 7980 c63d e0ee bd3b 2b86 323e 4fb5 c23c
00000350: 87cf c7bd fc49 89bd f84a 60be dffb 4a3e
00000360: 708a 1dbd abef d0ba 25ff 6abd 1b43 ce3d
00000370: 1267 cebc 055b 7abe a7aa 6abd 87c9 54be
00000380: 69d5 65bc d627 503d 7648 133e f73c 583e
00000390: 3d40 4a3b 0415 1d3d 4aeb bfbc c093 5fbd
000003a0: db23 e2bd 572d acbc 6dfb b73d 7824 6fbd
000003b0: 3f1e 9c3d 30ef d23c 0e3f 0a3d 428f bd3d
000003c0: b02b d63d 3b54 f6bd c786 263e 73e0 043d
000003d0: 69a3 863d 4dc2 71bc 5be1 793c 4d80 c73d
000003e0: 4b3f c43d 6355 76bc d342 743d d0bb 6e3b
000003f0: ee3d d2bd 9d66 053e 5a23 233e b63a bcbc

network_body._body_endoder.seq_layers.0.bias f4 [128]
0.0 0.0 0.0 0.0 0.0 0.0 0.0 0.0
0.0 0.0 0.0 0.0 0.0 0.0 0.0 0.0
0.0 0.0 0.0 0.0 0.0 0.0 0.0 0.0
0.0 0.0 0.0 0.0 0.0 0.0 0.0 0.0
0.0 0.0 0.0 0.0 0.0 0.0 0.0 0.0
0.0 0.0 0.0 0.0 0.0 0.0 0.0 0.0
0.0 0.0 0.0 0.0 0.0 0.0 0.0 0.0
0.0 0.0 0.0 0.0 0.0 0.0 0.0 0.0
0.0 0.0 0.0 0.0 0.0 0.0 0.0 0.0
0.0 0.0 0.0 0.0 0.0 0.0 0.0 0.0
0.0 0.0 0.0 0.0 0.0 0.0 0.0 0.0
0.0 0.0 0.0 0.0 0.0 0.0 0.0 0.0
0.0 0.0 0.0 0.0 0.0 0.0 0.0 0.0
0.0 0.0 0.0 0.0 0.0 0.0 0.0 0.0
0.0 0.0 0.0 0.0 0.0 0.0 0.0 0.0
0.0 0.0 0.0 0.0 0.0 0.0 0.0 0.0
00000000: 0000 0000 0000 0000 0000 0000 0000 0000
00000010: 0000 0000 0000 0000 0000 0000 0000 0000
00000020: 0000 0000 0000 0000 0000 0000 0000 0000
00000030: 0000 0000 0000 0000 0000 0000 0000 0000
00000040: 0000 0000 0000 0000 0000 0000 0000 0000
00000050: 0000 0000 0000 0000 0000 0000 0000 0000
00000060: 0000 0000 0000 0000 0000 0000 0000 0000
00000070: 0000 0000 0000 0000 0000 0000 0000 0000
00000080: 0000 0000 0000 0000 0000 0000 0000 0000
00000090: 0000 0000 0000 0000 0000 0000 0000 0000
000000a0: 0000 0000 0000 0000 0000 0000 0000 0000
000000b0: 0000 0000 0000 0000 0000 0000 0000 0000
000000c0: 0000 0000 0000 0000 0000 0000 0000 0000
000000d0: 0000 0000 0000 0000 0000 0000 0000 0000
000000e0: 0000 0000 0000 0000 0000 0000 0000 0000
000000f0: 0000 0000 0000 0000 0000 0000 0000 0000
00000100: 0000 0000 0000 0000 0000 0000 0000 0000
00000110: 0000 0000 0000 0000 0000 0000 0000 0000
00000120: 0000 0000 0000 0000 0000 0000 0000 0000
00000130: 0000 0000 0000 0000 0000 0000 0000 0000
00000140: 0000 0000 0000 0000 0000 0000 0000 0000
00000150: 0000 0000 0000 0000 0000 0000 0000 0000
00000160: 0000 0000 0000 0000 0000 0000 0000 0000
00000170: 0000 0000 0000 0000 0000 0000 0000 0000
00000180: 0000 0000 0000 0000 0000 0000 0000 0000
00000190: 0000 0000 0000 0000 0000 0000 0000 0000
000001a0: 0000 0000 0000 0000 0000 0000 0000 0000
000001b0: 0000 0000 0000 0000 0000 0000 0000 0000
000001c0: 0000 0000 0000 0000 0000 0000 0000 0000
000001d0: 0000 0000 0000 0000 0000 0000 0000 0000
000001e0: 0000 0000 0000 0000 0000 0000 0000 0000
000001f0: 0000 0000 0000 0000 0000 0000 0000 0000

network_body._body_endoder.seq_layers.2.weight f4 [128, 128]
-0.04315184 0.09406234 -0.15150265 -0.093790516 -0.07764291 -0.0018163695 0.047826283 0.10433998
-0.047009125 0.115414895 -0.0010478158 -0.044037182 0.025958633 0.05773875 -0.033320837 -0.108294405
-0.07516739 0.07198483 -0.03421316 -0.12408345 -0.0482037 -0.059972093 0.036736563 0.10520924
0.14566945 -0.010721176 -0.03154714 0.061811086 0.027809357 -0.003122147 0.19084898 0.075371765
0.08954641 -0.10254318 -0.129708 -0.056996025 0.07562758 -0.062737286 0.055407733 -0.021095047
-0.017783739 0.017691156 0.116889276 0.011122365 -0.039148085 -0.049992103 0.0018890443 0.11078167
-0.030767912 -0.017253771 0.056487355 -0.008624647 0.0488933 -0.0860835 0.0075167487 0.051634226
-0.12232227 -0.0024132265 0.042004853 -0.16373065 -0.028294263 0.03249645 0.10277815 0.010875099
0.03392327 -0.081485316 0.045607276 0.005634279 0.06682594 -0.046393987 -0.032283925 -0.063696064
-0.07196711 0.077358656 0.08031816 -0.035090897 0.18319955 -0.0022725994 -0.13689753 -0.111062884
0.08463255 0.052350394 0.05351475 0.037005916 -0.026628789 0.11129003 0.10767564 0.012966905
0.022051932 -0.053369105 -0.013169003 -0.034907833 0.1730733 0.027724477 0.022513356 0.14518853
0.081501596 0.04409507 0.046719477 -0.045269392 -0.09255473 -0.008800173 -0.01602722 0.004590565
-0.00958601 -0.021818673 -0.028750928 -0.16157372 0.1685358 0.126927 -0.071099915 0.0009992729
0.008960149 0.08609947 0.044892713 -0.16056424 0.11562656 -0.041251358 0.056313045 0.1725378
0.0008246695 -0.12672427 -0.0999654 0.047095843 0.0029815407 0.14608395 -0.07489418 -0.091792904
-0.14434767 0.09578186 0.1170549 -0.10292901 0.09136941 -0.044875853 -0.12471797 0.089990914
0.10398233 -0.07156732 -0.13517453 0.007822897 -0.006967948 0.020433828 0.16960104 0.12187667
0.045685023 -0.057994936 0.039111357 0.1104091 -0.01289595 0.06751858 0.020947518 -0.02287773
-0.04508419 0.08890198 -0.24128285 -0.18731469 0.027642723 -0.07160829 -0.12161112 -0.034332667
-0.000542762 0.16897547 0.096756294 0.1709944 -0.06743347 0.13304357 -0.051602114 -0.12692237
-0.016221855 0.08437642 0.07295405 -0.044651862 0.00030725473 0.037382934 -0.12307701 -0.032209992
0.07944114 0.079722926 -0.07044099 0.10464939 -0.15899105 0.15896073 -0.037937567 -0.022543097
0.11459332 0.027926607 -0.069329694 0.016075063 -0.07304232 0.042627424 -0.08804753 0.038597766
0.041936252 -0.012430989 0.10067692 -0.005080402 0.041390494 -0.055394646 0.0014720388 -0.021087784
0.026583865 0.14248459 0.063798994 -0.0027542012 0.117599346 0.14540628 0.012887387 -0.1511643
-0.07281553 0.026987456 -0.057147376 0.09220571 -0.14885907 -0.1550066 0.062218778 0.047102697
0.14560221 -0.062123936 -0.07573068 0.044311438 -0.11213368 -0.027947739 0.007433612 0.10359056
-0.01504743 -0.02195385 -0.07748237 -0.009556246 -0.025152141 -0.030247064 -0.01174045 0.10476219
0.028807191 0.005470157 -0.011400941 0.010428982 -0.09002136 -0.042866632 0.14459237 0.052882735
0.12280044 -0.0939674 0.02925124 -0.035202887 0.11239023 -0.008259214 0.022160025 -0.023448925
-0.119153954 -0.007867568 0.16163534 0.058002453 -0.0997165 0.044377748 -0.019969186 0.07300755
00000000: fcbf 30bd c2a3 c03d 8323 1bbe 3e15 c0bd
00000010: 3f03 9fbd 3f13 eeba 7ee5 433d 33b0 d53d
00000020: a48c 40bd a55e ec3d dd56 89ba 5560 34bd
00000030: 33a7 d43c 787f 6c3d 6e7b 08bd 75c9 ddbd
00000040: 5cf1 99bd c86c 933d 1923 0cbd 771f febd
00000050: 3e71 45bd 4ca5 75bd 1479 163d f177 d73d
00000060: 5f2a 153e dfa7 2fbc 9337 01bd 9f2d 7d3d
00000070: 73d0 e33c ef9c 4cbb ea6d 433e 835c 9a3d
00000080: 1c64 b73d 2902 d2bd 2dd2 04be aa74 69bd
00000090: a2e2 9a3d 687c 80bd 38f3 623d 85cf acbc
000000a0: 34af 91bc 0bed 903c a563 ef3d 943a 363c
000000b0: be59 20bd 85c4 4cbd cf99 f73a 80e1 e23d
000000c0: fd0c fcbc c857 8dbc 495f 673d 644e 0dbc
000000d0: 5744 483d 8c4c b0bd 0f4f f63b 697e 533d
000000e0: 1984 fabd 3927 1ebb 480d 2c3d 02a9 27be
000000f0: 5fc9 e7bc ff1a 053d 5a7d d23d 792d 323c
00000100: 20f3 0a3d c6e1 a6bd b2ce 3a3d c29f b83b
00000110: 0adc 883d 9f07 3ebd 263c 04bd 1573 82bd
00000120: 7e63 93bd 376e 9e3d d97d a43d 79bb 0fbd
00000130: aa98 3b3e e4ef 14bb de2e 0cbe f074 e3bd
00000140: d553 ad3d 5e6d 563d 4832 5b3d 8493 173d
00000150: 9e24 dabc 07ec e33d 0c85 dc3d 2473 543c
00000160: 41a6 b43c 9099 5abd cdc2 57bc 84fb 0ebd
00000170: 213a 313e 711e e33c ee6d b83c 4dac 143e
00000180: 4fea a63d 089d 343d ec5c 3f3d 666c 39bd
00000190: 568d bdbd 9a2e 10bc 844b 83bc 736c 963b
000001a0: a40e 1dbc 13bd b2bc 1187 ebbc 9573 25be
000001b0: a694 2c3e 27f9 013e d59c 91bd 09fa 823a
000001c0: 97cd 123c eb54 b03d 6ce1 373d f46a 24be
000001d0: 9ecd ec3d 2ff7 28bd 82a8 663d c0ad 303e
000001e0: a22e 583a 02c4 01be a9ba ccbd 92e7 403d
000001f0: f465 433b 0897 153e 1f62 99bd ebfd bbbd
00000200: e0cf 13be 4829 c43d 7bba ef3d 72cc d2bd
00000210: e31f bb3d becf 37bd 236c ffbd 284d b83d
00000220: b0f4 d43d e391 92bd 316b 0abe 9c2b 003c
00000230: 6253 e4bb d864 a73c e5ab 2d3e 7a9a f93d
00000240: 3820 3b3d 198c 6dbd 3b33 203d 2b1e e23d
00000250: 8949 53bc 2e47 8a3d 219a ab3c 146a bbbc
00000260: 33aa 38bd 3e12 b63d da12 77be 6ccf 3fbe
00000270: fe72 e23c 5ea7 92bd 400f f9bd 69a0 0cbd
00000280: 2448 0eba e807 2d3e 2a28 c63d 2819 2f3e
00000290: 8f1a 8abd 933c 083e bd5c 53bd f0f7 01be
000002a0: b2e3 84bc 8bcd ac3d ef68 953d dfe4 36bd
000002b0: 0817 a139 d91e 193d cd0f fcbd a0ee 03bd
000002c0: 09b2 a23d c645 a33d 5e43 90bd 6b52 d63d
000002d0: 8dce 22be 9ac6 223e 6c64 1bbd 4dac b8bc
000002e0: e7af ea3d 57c6 e43c bafc 8dbd daaf 833c
000002f0: 3697 95bd 189a 2e3d 4352 b4bd b118 1e3d
00000300: 59c5 2b3d 59ab 4bbc b32f ce3d 8079 a6bb
00000310: 1489 293d 7fe5 62bd 6df1 c03a 4ac0 acbc
00000320: 68c6 d93c 7be7 113e 0ca9 823d d47f 34bb
00000330: edd7 f03d 62e5 143e 9e25 533c d0ca 1abe
00000340: 4f20 95bd cc14 dd3c 5e13 6abd 59d6 bc3d
00000350: 836e 18be 0dba 1ebe 1ed9 7e3d c2ee 403d
00000360: bf18 153e ab75 7ebd b018 9bbd e97f 353d
00000370: 58a6 e5bd a8f2 e4bc a895 f33b 4a27 d43d
00000380: 7f89 76bc 8fd8 b3bc 14af 9ebd cd91 1cbc
00000390: dd0b cebc b1c8 f7bc 045b 40bc 8f8d d63d
000003a0: 0ffd eb3c 013f b33b 03cb 3abc 52de 2a3c
000003b0: 1e5d b8bd ec94 2fbd 0610 143e 919b 583d
000003c0: cc7e fb3d fb71 c0bd 4ca0 ef3c e730 10bd
000003d0: d92c e63d a851 07bc f188 b53c f617 c0bc
000003e0: fd06 f4bd f9e6 00bc bc83 253e fb93 6d3d
000003f0: 2a38 ccbd 71c5 353d 6b96 a3bc fb84 953d

network_body._body_endoder.seq_layers.2.bias f4 [128]
0.0 0.0 0.0 0.0 0.0 0.0 0.0 0.0
0.0 0.0 0.0 0.0 0.0 0.0 0.0 0.0
0.0 0.0 0.0 0.0 0.0 0.0 0.0 0.0
0.0 0.0 0.0 0.0 0.0 0.0 0.0 0.0
0.0 0.0 0.0 0.0 0.0 0.0 0.0 0.0
0.0 0.0 0.0 0.0 0.0 0.0 0.0 0.0
0.0 0.0 0.0 0.0 0.0 0.0 0.0 0.0
0.0 0.0 0.0 0.0 0.0 0.0 0.0 0.0
0.0 0.0 0.0 0.0 0.0 0.0 0.0 0.0
0.0 0.0 0.0 0.0 0.0 0.0 0.0 0.0
0.0 0.0 0.0 0.0 0.0 0.0 0.0 0.0
0.0 0.0 0.0 0.0 0.0 0.0 0.0 0.0
0.0 0.0 0.0 0.0 0.0 0.0 0.0 0.0
0.0 0.0 0.0 0.0 0.0 0.0 0.0 0.0
0.0 0.0 0.0 0.0 0.0 0.0 0.0 0.0
0.0 0.0 0.0 0.0 0.0 0.0 0.0 0.0
00000000: 0000 0000 0000 0000 0000 0000 0000 0000
00000010: 0000 0000 0000 0000 0000 0000 0000 0000
00000020: 0000 0000 0000 0000 0000 0000 0000 0000
00000030: 0000 0000 0000 0000 0000 0000 0000 0000
00000040: 0000 0000 0000 0000 0000 0000 0000 0000
00000050: 0000 0000 0000 0000 0000 0000 0000 0000
00000060: 0000 0000 0000 0000 0000 0000 0000 0000
00000070: 0000 0000 0000 0000 0000 0000 0000 0000
00000080: 0000 0000 0000 0000 0000 0000 0000 0000
00000090: 0000 0000 0000 0000 0000 0000 0000 0000
000000a0: 0000 0000 0000 0000 0000 0000 0000 0000
000000b0: 0000 0000 0000 0000 0000 0000 0000 0000
000000c0: 0000 0000 0000 0000 0000 0000 0000 0000
000000d0: 0000 0000 0000 0000 0000 0000 0000 0000
000000e0: 0000 0000 0000 0000 0000 0000 0000 0000
000000f0: 0000 0000 0000 0000 0000 0000 0000 0000
00000100: 0000 0000 0000 0000 0000 0000 0000 0000
00000110: 0000 0000 0000 0000 0000 0000 0000 0000
00000120: 0000 0000 0000 0000 0000 0000 0000 0000
00000130: 0000 0000 0000 0000 0000 0000 0000 0000
00000140: 0000 0000 0000 0000 0000 0000 0000 0000
00000150: 0000 0000 0000 0000 0000 0000 0000 0000
00000160: 0000 0000 0000 0000 0000 0000 0000 0000
00000170: 0000 0000 0000 0000 0000 0000 0000 0000
00000180: 0000 0000 0000 0000 0000 0000 0000 0000
00000190: 0000 0000 0000 0000 0000 0000 0000 0000
000001a0: 0000 0000 0000 0000 0000 0000 0000 0000
000001b0: 0000 0000 0000 0000 0000 0000 0000 0000
000001c0: 0000 0000 0000 0000 0000 0000 0000 0000
000001d0: 0000 0000 0000 0000 0000 0000 0000 0000
000001e0: 0000 0000 0000 0000 0000 0000 0000 0000
000001f0: 0000 0000 0000 0000 0000 0000 0000 0000

value_heads.value_heads.extrinsic.weight f4 [1, 128]
-0.019347792 -0.023677515 -0.17689078 -0.028637104 -0.2124152 0.16147777 0.11629367 -0.08159847
-0.07077543 -0.12226069 -0.18142425 0.06559848 -0.13908587 -0.15724625 -0.15300013 -0.14048555
0.031738047 -0.013237108 0.047698814 -0.02353592 -0.0011342188 -0.045469403 0.04659172 0.096080035
-0.062539145 -0.11845729 0.078360334 0.058521677 -0.16013879 -0.042957347 0.17031135 -0.17703998
-0.023156065 0.04839253 -0.12871721 0.1848537 0.19554856 0.06396578 -0.077463835 -0.053177036
-0.14603192 0.0026276484 -0.21497175 -0.068383545 0.18276586 -0.063159205 -0.08424106 -0.08713635
0.05248165 0.10303768 0.14012772 0.15062124 -0.021528201 -0.18716131 0.03998244 0.077201
0.1119537 0.17909016 -0.18864717 -0.18768004 0.0971055 0.004427765 0.11355171 -0.20405392
-0.1733159 -0.089722216 0.13412389 0.16046883 -0.20163609 0.06915914 -0.18382317 -0.16265891
0.10766464 -0.09739048 0.08720998 0.07281298 -0.013788483 0.07488538 0.13503857 0.17345071
0.11888589 0.08120662 0.0864451 0.21058224 -0.09496959 0.121891774 0.15508859 0.17635584
-0.046731308 0.07214153 -0.12913796 0.14262308 -0.04996165 -0.010956407 -0.11027637 -0.036612462
-0.18208422 -0.1737877 0.1929733 -0.03235444 0.09727287 0.14740372 -0.15995811 -0.20049475
-0.029156098 0.10988004 -0.08205928 -0.009345485 0.18615986 -0.05316227 -0.094272606 0.15269749
-0.13487616 -0.20357327 0.01535485 0.13823612 0.04918245 0.15147227 0.07030493 0.015348422
-0.056277636 0.090516634 -0.13639568 0.20131896 0.067783564 0.075294316 0.20089662 -0.041788947
00000000: 437f 9ebc 59f7 c1bc db22 35be 5c98 eabc
00000010: 5f83 59be 6e5a 253e 602b ee3d 191d a7bd
00000020: b5f2 90bd d063 fabd 47c7 39be 7f58 863d
00000030: 876c 0ebe 2905 21be 11ac 1cbe 72db 0fbe
00000040: c1ff 013d 74e0 58bc d55f 433d 67ce c0bc
00000050: 11aa 94ba 203e 3abd f6d6 3e3d 9cc5 c43d
00000060: 8614 80bd bc99 f2bd 627b a03d 6db4 6f3d
00000070: 6cfb 23be 0bf4 2fbd 1966 2e3e f849 35be
00000080: cab1 bdbc 3f37 463d 72ce 03be 4a4a 3d3e
00000090: e23d 483e 7e00 833d 5ca5 9ebd 2ad0 59bd
000000a0: 6489 15be a034 2c3b 8e21 5cbe ac0c 8cbd
000000b0: f926 3b3e 9d59 81bd 9486 acbd 8b74 b2bd
000000c0: 00f7 563d 6b05 d33d a47d 0f3e 743c 1a3e
000000d0: e95b b0bc 37a7 3fbe a1c4 233d 8f1b 9e3d
000000e0: fb47 e53d 6963 373e b92c 41be 322f 40be
000000f0: 40df c63d c916 913b cd8d e83d 83f3 50be
00000100: b979 31be 48c0 b7bd c657 093e f151 243e
00000110: b179 4ebe 4fa3 8d3d 243c 3cbe 0f90 26be
00000120: 477f dc3d a974 c7bd 259b b23d f91e 953d
00000130: 17e9 61bc 825d 993d 8d47 0a3e 109d 313e
00000140: 727a f33d a84f a63d 210a b13d dfa2 573e
00000150: 6b7f c2bd 65a2 f93d 8bcf 1e3e a096 343e
00000160: 5469 3fbd f0be 933d be3c 04be c90b 123e
00000170: 96a4 4cbd 8082 33bc 94d8 e1bd f3f6 15bd
00000180: 4974 3abe 67f5 31be cb9a 453e 1786 04bd
00000190: 0037 c73d 00f1 163e 0fcc 23be 7f4e 4dbe
000001a0: c5d8 eebc c908 e13d b20e a8bd ce1d 19bc
000001b0: b1a0 3e3e aec0 59bd ff11 c1bd bb5c 1c3e
000001c0: fa1c 0abe 8375 50be e992 7b3c c58d 0d3e
000001d0: 8973 493d 8c1b 1b3e 08fc 8f3d f377 7b3c
000001e0: 6183 66bd c960 b93d 4fab 0bbe 8f26 4e3e
000001f0: 1cd2 8a3d e833 9a3d d8b7 4d3e e32a 2bbd
