Results/test2/Doughnut/checkpoint.pt (torch, 770311 bytes, 33 tensors)

network_body._body_endoder.seq_layers.0.weight f4 [128, 114]
00000000: 3a0f 18be 15ae ce3d 8f8d 32bd 3735 76bd
00000010: 2d4a 833d a0a5 46be 7099 edbd 1e29 acbd
00000020: 170e 9f3c 93fd 1fbe b514 9a3c 2c19 e73c
00000030: 23dd 1abe dee7 51be ac7f 6e3d 3351 913c
00000040: 5bc9 4c3d af23 04be 7e29 ccbc 4fcd c93d
00000050: c015 22be 5bcf 50bd 2fc8 c73d 6e4e 1bbe
00000060: e0db cc3d eac0 d13d 9d1e 91bb 0354 9b3d
00000070: 5b41 afbc 9e8a 93bd 222d a6bd 888b fb3d
00000080: 55fc f0bd aa55 76bd 33b4 8b3d face 853e
00000090: 37de 7b3b 25f0 373d f12d 76bd 5b1b b0bc
000000a0: 2ffb ddbb b151 7cbd 03a0 d83d 2e98 4fbd
000000b0: f4cf 803a 05c0 ee3d 8ced 863d 6b9a c0bc
000000c0: 50d5 cb3c 95cc 52bd 5fd4 c73c 175c 03bd
000000d0: 8989 c83c 8737 10bd 4750 8f3b b0ed 92bd
000000e0: 3e57 90bd f496 d6bb ac13 cbbb 8835 883d
000000f0: b105 0b3d ecd1 943b fedd 173c 23c2 763a
00000100: 4f1e 343d 2fbb fbbc 578b 2ebd ebc5 24bd
00000110: 002a c8bc 8e12 1bbe 6cb4 a0bd 04ef b83c
00000120: 2f0c 0dbe 4deb 7cbd 836f 8c3d e0ea 8abc
00000130: 0711 23bc c132 81bd 408a 12bc 717f 93bc
00000140: ce08 da3d 074e c1bc 1f80 8f3c 223a 8e3d
00000150: 4d7b 933d 22a7 6bbd 72a1 8abd f1c8 1dbe
00000160: 07d2 f73d 896d a4bd a248 1c3e d5fa 9ebe
00000170: 657e 38be 6fdc c23d e690 053e 8f0a b2bc
00000180: cb87 1f3d 2e78 8e3d ece0 9b3d ea52 343d
00000190: 081b babc 573a 0fbd c868 7fbe a844 71bd
000001a0: 890d 923d e029 ddbc 9c7d c43c 8fbe b03c
000001b0: ea51 b23b 90bf 89bd b988 a6bc cafc 903d
000001c0: 18f9 b4bc 3c52 063d bd96 8a3d 2d8f 2d3d
000001d0: be1c b5bd a6be 25bc 0586 623d 3061 2dbe
000001e0: 2336 aebc 4aef df3c 80d3 eebc 99b4 12be
000001f0: b6d8 2ebd 337f 903d 5573 8d3d e0d9 80bd
00000200: 5cf5 bfbd 7cf7 a4bd 84d9 8abd a070 cebc
00000210: c57e f4bd 2611 433d 80f2 24be 8234 22be
00000220: f42a 633d 34f5 e63b 8d5e 99bd d0ee fd3c
00000230: 5a06 3c3d 1716 11bd 910d e7bd 2bc5 013e
00000240: a2f4 023d 4011 2e3d b5ea bb3d f6c3 8a3d
00000250: eeae ccbc caf8 c9bd 0fac 93bb 2326 16be
00000260: c40c c1bd 82bb 7b3d 0709 5abb 4a02 cd3d
00000270: 99da 233e 3dee a1bd b797 a3bd 6fdc 11bd
00000280: 451d 92bb 7070 0abe f7ab 9b3d 64aa 49bb
00000290: 7ef6 613d 1e5d 9d3d bd2e 17be acb2 77bd
000002a0: fa0d 0dbe 1c0d 113d 6ea7 1f3e 48e5 ac3c
000002b0: e2de 26be 9193 1b3c f98c 2c3d 20d5 0fbe
000002c0: d2bc f83b 772c 35bd 7958 b13d e256 10bd
000002d0: 95c3 293e 6bd6 8e3c 060f 23bd f3e3 bbbc
000002e0: c651 333c 3f06 2ebe 767c 173e 87bc 33be
000002f0: a71b ed3d b7a2 503d 04cb 36bd e537 80be
00000300: a1fe f0bd e5db 80bd 677e e73d 3892 123d
00000310: 36be 5dbc 5a2d 2c3e 4c2a 373d e75a 943d
00000320: b8ff 263d 74b4 55bd 7722 e6bc a215 3dbd
00000330: 73df efbd 7f1f 7a3d 3436 e5bd 2779 233d
00000340: 493b 01be 6049 c23c 765b a43c b1ae b23d
00000350: ca20 92bb 82e6 133e 2f01 223d 5502 41be
00000360: 2135 0dbd fab1 54bd 78d1 383d ba61 d63d
00000370: 8325 cebb f89e afbb e352 20b8 884b 23be
00000380: be82 1bbc 93f0 5abd 5955 7bbe cf07 afbd
00000390: 113a e43d 6bb5 4a3e ef0d 613d 31f3 96bb
000003a0: 7398 9fbc b509 fcbd 7cd5 3cba 4325 4c3d
000003b0: 311d 28bd 1b20 a1bd bbaa 41bd 427d 91bd
000003c0: 9f49 a33d c427 30bd 4119 343e 0b0d cabd
000003d0: 9b5d 62bc b232 043d 9519 e53d 31c5 15bd
000003e0: 25a7 09be c95b 5ebd 06a6 b23b ff02 373e
000003f0: 06dd 47bc b148 ccbd 61a7 5abc 56ad 94bd
-0.14849558 0.10091797 -0.043592032 -0.060109343 0.06410632 -0.19399118 -0.116015315 -0.0840628
0.019415898 -0.15624075 0.018808702 0.028210245 -0.1512342 -0.20498607 0.058227226 0.017738914
0.049996715 -0.12904237 -0.024922129 0.09853613 -0.1582861 -0.050979 0.09754979 -0.15166637
0.10002875 0.102418736 -0.004428698 0.07584383 -0.021393469 -0.072041735 -0.08114077 0.12282473
-0.117668785 -0.06014029 0.0682148 0.26134473 0.003843201 0.044906754 -0.060102407 -0.02149742
-0.006774328 -0.061601344 0.10577395 -0.05068224 0.00098276 0.116577186 0.06588277 -0.023511132
0.024881989 -0.051464636 0.024393259 -0.032070246 0.024479644 -0.035209205 0.0043735835 -0.071742415
-0.0704789 -0.0065487567 -0.0061974134 0.06650835 0.033940975 0.004541626 0.009269236 0.0009413084
0.043974217 -0.030728905 -0.042613354 -0.04022781 -0.02443409 -0.15143797 -0.07846913 0.022574909
-0.13774179 -0.061747838 0.06857207 -0.0169577 -0.00995279 -0.06308509 -0.008944094 -0.018005105
0.106462106 -0.023596777 0.017517148 0.06944682 0.07201252 -0.057532437 -0.067690745 -0.15408684
0.121006064 -0.08028705 0.15262082 -0.31050745 -0.18016966 0.095147006 0.13043556 -0.02173355
0.03894786 0.06956516 0.0761126 0.044024386 -0.022717968 -0.034967747 -0.24942315 -0.058903366
0.07131488 -0.026997507 0.023985676 0.02157524 0.005441894 -0.06725991 -0.020328866 0.07079466
-0.022091433 0.03279327 0.06767032 0.04237287 -0.08843373 -0.010116255 0.055303592 -0.16931605
-0.021266049 0.027335782 -0.029153585 -0.14326705 -0.04268714 0.07055511 0.069067635 -0.06291556
-0.093729705 -0.080550164 -0.06779769 -0.025200188 -0.11938242 0.047623776 -0.16108131 -0.15840343
0.055460885 0.0070482735 -0.07488737 0.030997664 0.045904495 -0.035421457 -0.112818845 0.1267287
0.03197158 0.04249692 0.09175626 0.06775658 -0.024985757 -0.09861906 -0.004506595 -0.14662986
-0.09426263 0.06145812 -0.003326954 0.10010202 0.16001357 -0.079067685 -0.07987922 -0.035610612
-0.0044590556 -0.13519454 0.07601159 -0.0030771727 0.055166714 0.07683776 -0.14763923 -0.06047313
-0.13774863 0.035412893 0.15591213 0.021105424 -0.1629596 0.009495632 0.04212663 -0.14046144
0.0075908685 -0.044231858 0.08659453 -0.035239108 0.16578515 0.017436227 -0.03980925 -0.022935843
0.010944789 -0.1699457 0.14793572 -0.17552386 0.1157754 0.050936427 -0.044627205 -0.25042644
-0.117673166 -0.062919416 0.11303406 0.035783976 -0.013534119 0.16814175 0.04471807 0.07243901
0.040771216 -0.052174047 -0.028092606 -0.04616321 -0.117125414 0.061065193 -0.11191979 0.03991046
-0.12620272 0.023716629 0.020063143 0.08724726 -0.004459475 0.144434 0.03955191 -0.18848546
-0.034474496 -0.051927544 0.04512164 0.104678586 -0.006291093 -0.0053595267 -3.8224167e-05 -0.15946782
-0.009491621 -0.053452086 -0.24544276 -0.08546411 0.11143888 0.19795768 0.05494493 -0.0046066274
-0.019481873 -0.12306539 -0.00072034425 0.049840223 -0.041043464 -0.07867452 -0.047281962 -0.07103969
0.079730265 -0.043006673 0.17587759 -0.09865769 -0.013816263 0.03227491 0.1118652 -0.03656501
-0.13442667 -0.054286752 0.0054519204 0.17872237 -0.012198692 -0.09974802 -0.01334557 -0.07259624

network_body._body_endoder.seq_layers.0.bias f4 [128]
00000000: 2b68 5dba 7da6 85bb e0e4 653b dd33 8c3b
00000010: 2823 a93b bb61 19bb de5b 8b3b a8fe 70ba
00000020: 43fd 363b 134d 8c3b 908b a8bb 1a7a 2ebb
00000030: ecb2 aebb 9c10 2d3b 146a ee3b 0731 3a3c
00000040: 0a25 953b 60ba e738 f1df 093c 8456 22bb
00000050: 1b65 a83b 2643 5e3a 006b af3a 8c59 1339
00000060: f1db 88ba 8339 a0bb 4b74 c9bb 13db 3dbb
00000070: 11d1 c5bb 3172 d83a 00bf 5dbc 8cb6 91bb
00000080: c333 b2bb f8bb 5abb 55f6 c0bb 4b18 613b
00000090: 1a5a e6b9 0450 80bb cd3b 48bb 2270 42bb
000000a0: 4840 103a b0f5 533b b44b 933b 29fb bfbb
000000b0: afe8 db3b 2120 c73a 1cca c2bb 72c4 d8ba
000000c0: 4389 9e3b 1148 4dbb 0ac3 973b 1639 9cbb
000000d0: da83 9a3b a56a b7bb 311c a9ba 7184 953b
000000e0: d748 a0ba 9e8d 7d3a f4a0 87bc 2b78 a93b
000000f0: 41e6 0c3b 362e 38bb 5e34 003c c09e 963b
00000100: 1429 a43b 8d64 223c 0f19 acbb a064 6c3b
00000110: 36ad bebb 9e68 5a37 3b4e 193b 9396 98bb
00000120: 8688 a73b 26bd a6bb ed7e 373b b7a7 913b
00000130: dbae b5bb c9ce 94bb 94c4 0f3b 41c0 c1bb
00000140: a41a 7e3b 41d2 86bb e841 99bb 5208 d63a
00000150: c4b3 df3b 539d d5bb 6847 8f3b 5548 7cbb
00000160: ef92 b7bb 567b 8539 6d92 66bb d59a 793b
00000170: 8c54 6d3b f7b4 d83b 0cd0 64bb fdab 753b
00000180: 5c12 b43a 7e7f 0d3b 6e32 b5bb f665 2b3b
00000190: 66f3 a1bb 1d80 7b3b 51d1 a43b 1e68 f0bb
000001a0: b48d 90bb 507c adbb 5b54 a73b 6845 ccbb
000001b0: 4f10 8f3b 1b44 c0ba 14f5 00bb 4464 9c3b
000001c0: 4ddd bd3b 1aed 9f3b b483 7939 01da 6b3b
000001d0: 9108 aabb f5e2 a43b d3fa 01bb 7f1e 51bb
000001e0: 2270 bd3b c318 033b c27b ff3b 2ddf eaba
000001f0: d6f0 813b 0dcb aa3b e9b4 a03b 2c99 e93b
-0.0008446003 -0.004078685 0.0035079047 0.0042786435 0.0051616617 -0.00234042 0.004252895 -0.000919322
0.0027921952 0.004281649 -0.0051435903 -0.0026623071 -0.0053313877 0.0026407605 0.007275829 0.011364228
0.0045515345 0.000110496534 0.008415208 -0.0024770806 0.005139006 0.0008478634 0.0013383329 0.00014052371
-0.0010441524 -0.0048896684 -0.0061478964 -0.002896969 -0.0060368855 0.0016513524 -0.0135343075 -0.00444681
-0.0054382994 -0.0033376198 -0.00588874 0.0034346755 -0.0004393615 -0.0039157886 -0.0030553222 -0.0029668887
0.0005502743 0.0032342486 0.0044951085 -0.005858798 0.0067110877 0.001519207 -0.0059445035 -0.0016538037
0.00483814 -0.0031323473 0.0046314048 -0.0047675474 0.004715425 -0.00559743 -0.0012902078 0.0045629074
-0.0012228739 0.00096722867 -0.01655624 0.005171796 0.0021499547 -0.0028103716 0.007824985 0.004596561
0.0050097797 0.0099116685 -0.0052520107 0.003607072 -0.005818988 1.3018171e-05 0.0023392576 -0.0046566217
0.0051127104 -0.005088466 0.0027999238 0.004445042 -0.005544526 -0.0045412523 0.0021937238 -0.005912811
0.0038773203 -0.0041144197 -0.004677046 0.0016329384 0.0068268497 -0.0065189986 0.004372526 -0.0038495262
-0.0056022326 0.0002545963 -0.0035182491 0.0038086672 0.0036213724 0.0066133696 -0.0034914045 0.0037486546
0.0013738382 0.0021590884 -0.0055296933 0.0026153303 -0.0049423454 0.0038375922 0.0050298353 -0.0073366305
-0.0044114236 -0.00529436 0.0051064915 -0.00623386 0.004365958 -0.0014668735 -0.0019677328 0.004772695
0.0057942034 0.0048805596 0.00023795554 0.0035988095 -0.0051890095 0.005031938 -0.001983334 -0.0031909046
0.0057811895 0.0020003773 0.0077967355 -0.0017919295 0.0039654775 0.005212194 0.0049043787 0.007128855

network_body._body_endoder.seq_layers.2.weight f4 [128, 128]
00000000: 744c 4a3c 7a96 20bd d1d4 de3d be4b 973d
00000010: 25e9 7d3e 8929 09bc c6be 10be 2acf 2ebd
00000020: e5a5 8b3d 7e13 f53d fcdb 40be 6bb2 c13d
00000030: 362c 703b 70e5 7f3d f135 e23c 6dba 3fbe
00000040: 349e a93d aded 273e f4eb fbbd 0bdc 3fbd
00000050: ad27 a9bc 16f6 d33d 7155 5c3d 47b9 67bb
00000060: 0ca8 fbbb 6db9 cdbc 7f36 b8bd f47a 293d
00000070: a1ab e0bb 9916 89bd bcfb 873e 2034 57be
00000080: fd86 5bbb b8ba f23d 285c 7c3c 199f 51bc
00000090: 2f89 2d3e 18c7 833e 0616 0c3e 5f20 abbc
000000a0: 769e 003e ce53 6b3e 78e1 ebbc 16ff 98bd
000000b0: f527 b8bd af27 86ba 94f5 233e a0e5 0b3d
000000c0: 2ff8 ae3a ca4f 42ba 9639 9c3c ab05 c53d
000000d0: eef4 973c 3124 113a f059 323d 549b 8fbd
000000e0: 0357 91bd c0b1 80bd 0ebe 49bd c72b dbbd
000000f0: 36e3 e3bd b029 553e d2bc c83d 8b5e 0dbd
00000100: dac1 78bd 7719 bf3d 8fde 66bc 269f 94bc
00000110: 3b1c f7bc 0661 c23b 4515 ebbd bb4c 27bb
00000120: cb26 eebc 1df9 62bd f109 14bd c822 253e
00000130: 18e9 9f3c e3e6 8bbc e935 94bd c4f7 a43d
00000140: 60bc b23d 6ab5 963c a410 293e 1d8b c03d
00000150: 3a47 5dbc 1186 0d3d 88ab 4d3d a469 6c3a
00000160: f705 14bc ee61 80bd dc99 1abd aab1 6ebd
00000170: e1d9 bc3c 1230 433c 17ad a53d c411 4ebd
00000180: c82c 03bd ec28 083d c8cb aabd f498 88be
00000190: 81dd 44bd 4a3c 0cbc 8dd1 b8bd d94e 7fbd
000001a0: 3aa5 d93d 26ff 153d eb02 88bd e30b f83b
000001b0: 802b d73d 31be 99bd 3cfe a53c e52f 73bc
000001c0: 96c0 efbd 9878 073e 1a79 9a3d 78af 783e
000001d0: 020a 223e 795c 033c 6e07 a13d 68e8 733c
000001e0: fe7e 153e 6845 963c 6872 8c3d 3928 113e
000001f0: 01f6 bb3d 9cbc dd3c e7d7 d73d b21c 25bc
00000200: ca69 043d fea8 183e 285a 9a3d d0a9 0f3d
00000210: 137f 133d aee2 243d 395a 1f3e 7341 85bd
00000220: dbd7 e83c b02e 43bd 6de4 2b3e 7823 aabc
00000230: 6543 813d dd13 873d 3193 b1bc 878a 4a3d
00000240: 9dca 4b3d 4a1f fa3c 3b79 303b 16d5 a63c
00000250: 1235 36be 4d49 2e3d 9f4d 0abc 0a10 adbd
00000260: fe05 a13c 93af 33bd 50a9 ce3c cb0c e8bb
00000270: 41e4 f53d 251f a4bc c1d3 863d 5fb6 f2bd
00000280: 72a1 e1bd c377 c2bd 1292 8eb9 bb20 f33d
00000290: 070b d9bd f13d fabb cf3f 8c3c d5d6 993d
000002a0: ed47 273e d161 3b3d 9886 243e 0923 f9bd
000002b0: fe2e 94bc 2eb3 163e 2ac3 253e 6520 a03d
000002c0: baad f33c 9153 c83d 17cb 0d3e e289 733d
000002d0: 3406 28bd 559b 583d 100d 9fbd 2fe9 c43b
000002e0: a1cc 5abe 6bab e53c 3948 b4bb 9185 c2bd
000002f0: 7350 81bb 98a7 153d d684 35bc 5b2a 01be
00000300: dcbd b83c 8b35 9ebd 43b7 ca3b 7f49 233e
00000310: d735 063d c2c7 50bc e13c 8a3d 86f5 01be
00000320: db86 a93d 3a96 823d d4b7 76bc a7d9 60bd
00000330: d244 9b3d c4d9 b7ba 94c0 36be d60b c43d
00000340: 69b5 233d f8af aebd f8a4 f3bd be90 6abc
00000350: b87b c33c 3fb9 ef3c d22f 673d a25c 0ebc
00000360: 3921 d6bd fd62 61bd 3eba 01bc c8fa e5bc
00000370: b18a 1f3c 8c2f 8b3d b5f6 bfbc ebce 21bd
00000380: 1870 563d 165d d3bd b7cb 783d 0be4 a6bd
00000390: e63e 0ebd 87b4 d63d 8b96 acbd c6f4 053d
000003a0: ef64 f83d 57f3 70bb f40c 2bbd 226e 09bd
000003b0: 3e68 7bbd 807b 7e3c 94f7 c93d 788e d3bd
000003c0: 543f d23d 7c6c 00bd 6c57 673e 74aa 6bbd
000003d0: cc41 b0bd 3c44 d9bd f173 883d 38ab 01bd
000003e0: 7458 cf3d bbd7 af3d 016f 88bb a562 2d3d
000003f0: a3a7 003e a5b2 29bd 8e4c 46be 6b97 9bbd
0.012347329 -0.039206006 0.10880435 0.073874936 0.24795969 -0.008371719 -0.14135274 -0.042678036
0.06818751 0.119666085 -0.18833917 0.09457859 0.0036647446 0.062474668 0.027613612 -0.1872346
0.08282128 0.1639926 -0.12300864 -0.04684071 -0.020648802 0.103496715 0.05379242 -0.0035358237
-0.007679945 -0.025112832 -0.08994769 0.041377023 -0.0068563973 -0.06693763 0.26559246 -0.21015978
-0.0033497207 0.1185202 0.015402831 -0.0127942795 0.16946863 0.25737834 0.13680276 -0.02088946
0.12560448 0.22981188 -0.028794035 -0.07470529 -0.08991996 -0.0010235215 0.1601165 0.034154534
0.0013349111 -0.0007412402 0.019070428 0.09620222 0.018549409 0.0005536704 0.043542802 -0.07012048
-0.07096674 -0.06283903 -0.049253516 -0.10701709 -0.111273214 0.20816684 0.098016396 -0.03451399
-0.060731746 0.09331029 -0.014091148 -0.018142294 -0.030164829 0.0059319763 -0.11478666 -0.0025527913
-0.029071232 -0.055413354 -0.036142293 0.16126549 0.019520327 -0.017077869 -0.07236845 0.0805507
0.08727336 0.018397052 0.16510254 0.09401534 -0.013505751 0.034551684 0.050212413 0.0009018427
-0.009034625 -0.062686786 -0.037744388 -0.058274902 0.023053112 0.011913316 0.08089655 -0.05030991
-0.03202513 0.03324215 -0.083396494 -0.26679194 -0.048062805 -0.008559296 -0.09024344 -0.062331054
0.106272176 0.03662028 -0.066411816 0.0075697764 0.10506344 -0.07506979 0.02026283 -0.014842962
-0.11706655 0.13229597 0.075426295 0.24285686 0.1582413 0.008017653 0.07862745 0.014886953
0.14599225 0.018343642 0.06857759 0.141755 0.09177781 0.027067475 0.10539227 -0.010077642
0.03232745 0.14908215 0.07536727 0.035074055 0.03600986 0.04025524 0.15561761 -0.06506624
0.02842324 -0.047651947 0.16786356 -0.020768866 0.063116826 0.065955855 -0.021676632 0.049448516
0.049753774 0.030532498 0.0026927728 0.02036528 -0.17793682 0.042550374 -0.008441358 -0.08450325
0.019656178 -0.043868612 0.025227219 -0.007081603 0.120064266 -0.020034382 0.065833576 -0.11851191
-0.110171214 -0.09495499 -0.0002719318 0.11871477 -0.105978064 -0.0076367785 0.01712027 0.07511679
0.16336031 0.045747582 0.16066968 -0.121648856 -0.018088814 0.14716789 0.1618773 0.07818679
0.029745925 0.09781564 0.13847004 0.059457667 -0.04102154 0.05288251 -0.07766163 0.006009243
-0.21367122 0.02803584 -0.0055017737 -0.09498132 -0.003946358 0.036536783 -0.011079034 -0.12613814
0.02255147 -0.07725056 0.0061863973 0.15946005 0.03276619 -0.0127429385 0.06749893 -0.12691316
0.08277675 0.0637631 -0.0150584765 -0.05489507 0.07581486 -0.0014026691 -0.178469 0.0957257
0.039967928 -0.08529657 -0.118967 -0.014316736 0.023862705 0.029263137 0.05644209 -0.008689078
-0.104555555 -0.055026043 -0.007917939 -0.028073683 0.009737656 0.06796178 -0.023433069 -0.039503973
0.052352995 -0.10320489 0.060741153 -0.081489645 -0.034727953 0.104836516 -0.08427151 0.032704137
0.121286266 -0.0036766136 -0.0417604 -0.033552296 -0.06137871 0.015532374 0.09861675 -0.10329908
0.10265985 -0.03135346 0.22591943 -0.057535604 -0.086063 -0.10608718 0.06662739 -0.031657428
0.10124293 0.08586069 -0.0041636233 0.042330403 0.12563948 -0.041430134 -0.19365141 -0.0759724

network_body._body_endoder.seq_layers.2.bias f4 [128]
00000000: 0d23 eebb 5295 dfbb 0faa b03b d042 b33b
00000010: 5b2f b9bb 43d1 9e3b d476 97bb 2209 ccbb
00000020: 2aeb d8bb dbc4 dbbb ebe1 a13b f692 14bc
00000030: 88d9 583b 3f24 eb3b 5ff6 ba3b 5fef 663b
00000040: 0fc3 d9bb c504 8b3b a61e f93b 8272 4abb
00000050: fde7 89bb ce12 973b 7e73 b93a 8d3a 703b
00000060: f1d4 b3bb 3e37 cc3b 7128 df3b 4c40 ddbb
00000070: 2e15 b13b 0ed4 92ba 5d78 cbbb 6a04 a7bb
00000080: 1019 f33b 2260 183c cee3 a0bb 1602 06bc
00000090: 6b53 fcbb a235 ab3b f9fc b73b bcd0 fdbb
000000a0: cb41 a53b 8cc8 f3bb 1f07 be3b 15db 05bc
000000b0: edfd 9f3b 94cf 36bb 30dd 2a3b dca0 dbbb
000000c0: c411 f6bb 21f8 8f3b 1a9b a53b 2bb4 04bc
000000d0: 6abd 4bba ddb4 d9bb 5acf c33b 862c b33b
000000e0: 4d3e 4a3b 1ac1 d3bb 8fa6 11bc bfd3 13bc
000000f0: ddab 9e3b 9af9 a13b f661 cabb dd88 20bc
00000100: 8bbd 763b 6922 17bc 641a 9bbb 55fa 0c3a
00000110: e75a 3c3b eb94 913b d1bd 6cbb 3c59 d7bb
00000120: 7dcd 8fbb aaf1 193b 6ae2 853b 889e a63b
00000130: 9b67 07bc b9df a3ba 61ce 89bb 75ae 1fbc
00000140: 7bfd ecbb bc19 b13b 1693 f0bb ee70 ab3b
00000150: f417 c2bb ff02 2a3b 69d0 afba 70d9 bcbb
00000160: dd94 81bb e944 debb cc52 efbb 475f a43b
00000170: 5395 b4ba 0187 b23b 2bd4 d7bb fd18 05bc
00000180: 7e4d ef3a c1a0 a03b a859 b13b 4d22 c03b
00000190: 63dc af3b 453f 5fbb 8f11 e4bb 0c81 dd3b
000001a0: 3a2d d73b a13e fbbb 93e2 a83b 4427 c63b
000001b0: 27f6 b13b 2f45 913b f2a0 3dbb 051f cfbb
000001c0: 0f67 e2bb ad3e 0abc 03b0 f9bb cb9c 59ba
000001d0: e64e a43b a6b9 cbbb f564 b23b 5730 b63b
000001e0: 0741 813b 7f32 56ba 752d a7bb 01f9 a73b
000001f0: a2c9 7b3b 03ab 07bc d2fb 52ba 48f1 7b3b
-0.007267362 -0.0068232203 0.0053913663 0.005470611 -0.005651397 0.0048467233 -0.0046223197 -0.0062266747
-0.0066198306 -0.0067068166 0.0049402616 -0.009068241 0.0033088643 0.0071759517 0.0057056393 0.003523789
-0.0066455672 0.004242512 0.0076025305 -0.0030891006 -0.0042085634 0.004610396 0.0014148799 0.0036655993
-0.005488031 0.0062321713 0.006810241 -0.0067520496 0.005404136 -0.0011202113 -0.006209417 -0.0050969617
0.007418759 0.009300264 -0.004909969 -0.008179208 -0.007700374 0.0052248994 0.0056148735 -0.0077458303
0.0050432435 -0.0074396785 0.0057991887 -0.008169909 0.0048825652 -0.0027894722 0.002607178 -0.0067025255
-0.007509442 0.004393593 0.00505389 -0.008099596 -0.00077720603 -0.006643875 0.005975646 0.005467954
0.0030859888 -0.0064622285 -0.008889808 -0.009022652 0.004842265 0.004943085 -0.0061762286 -0.009798256
0.0037649598 -0.009224513 -0.0047333706 0.00053778786 0.0028740705 0.0044428012 -0.0036123882 -0.006571917
-0.00438851 0.002348999 0.0040858286 0.0050848164 -0.008264448 -0.0012502588 -0.0042055105 -0.009746184
-0.0072323657 0.005404679 -0.0073417528 0.005231968 -0.0059232656 0.0025941727 -0.0013413551 -0.0057632253
-0.0039545135 -0.006783117 -0.0073035713 0.0050162408 -0.0013777412 0.0054482226 -0.0065865717 -0.008123633
0.0018257347 0.004901976 0.005412299 0.005863464 0.0053668483 -0.0034064811 -0.006960101 0.0067597684
0.0065666707 -0.007667378 0.005153963 0.0060471613 0.005430955 0.004433296 -0.0028935042 -0.0063208365
-0.006909258 -0.008437795 -0.007619859 -0.0008301257 0.0050142882 -0.0062171994 0.005444164 0.005559962
0.0039445194 -0.00081709767 -0.0051018544 0.005126119 0.0038419743 -0.008280518 -0.00080483884 0.0038443375

action_model._discrete_distribution.branches.0.weight f4 [2, 128]
00000000: 5705 4fbc 27bc a9bc 782a 603c d478 d53c
00000010: 55d7 22bc 25ab b1bb 2b53 533c 8b55 57bc
00000020: 77f4 b5bb d436 65bc 0903 703c 5b93 4bbc
00000030: b818 3d3c 6d32 52bb d426 bd3c 0129 c2bb
00000040: 77d9 833a f945 8e3c 2d08 55ba 7b75 e73a
00000050: ea97 293a dbd2 223c 6d71 603b 6ca4 4e3c
00000060: 13b0 823b 0850 fb3b 115f 10bb 0256 113c
00000070: dcb4 033c 1e60 a1bb 06e2 ffbb 4638 14bc
00000080: fdbf 16bb b81b 263c 7f8e 173b 5ef9 45bc
00000090: 8a1d ccbb 6b94 183c 1705 093c 55c7 85bb
000000a0: ce52 883c 1356 3cbb a255 923b 6e18 88bc
000000b0: 3842 b13c 98a4 2b3b f5c6 70bb 06c7 b73a
000000c0: db04 1dba 3e2e 203c b63a ab3b 149c 393b
000000d0: f857 13bb 9958 cabc 3c6c c53b 9d7e 8e3b
000000e0: 5392 203c 314b 1abc fc58 fabb fd15 8fbc
000000f0: d0d4 0c3b c617 77bb aed8 56bc 3786 55bc
00000100: a05b 2e3c bbaa 11bb 3380 453c b82c e83b
00000110: 2b5a 75ba 0dc5 073c ec7a e8ba 2863 16ba
00000120: 7abb 273c fd24 a3b8 4526 4fbb 77ff fc3a
00000130: 89b4 f8ba 8169 3ebc 162d 17bc 8448 1cbc
00000140: e86b d9bb 4a82 f13b 35b9 283b 1a95 253c
00000150: 7b95 40bc aa8d 4c39 081d 0abc bf7b 32bc
00000160: 3ff5 acba 08a6 5dbc 0b6f 31bc e2af 953b
00000170: b774 2e3b 0547 64ba a3d1 6dbc 68a8 963a
00000180: 0265 2cba 9de8 313a 6222 983b ce9f cc3c
00000190: c158 623c d295 6ebc 7a90 273a 6d17 89bb
000001a0: 44a2 403b 9d0f a5bb 2658 0c3b b9f3 923c
000001b0: 2989 823c d719 423c 178e 79bc 2876 93bc
000001c0: d6ef 13bc ad44 81bc c57f 88bc 4a7f 38bc
000001d0: 8d05 ff3b dae5 72ba 1cd3 b03b d8b2 853c
000001e0: 94b8 cbba 25be 363b 6601 7bb8 d12d 233c
000001f0: 2139 bf3a 937e 64bb 9cb4 a63b 0827 dbba
00000200: 1519 30bc 67a3 843c f73a 2bbc e9d3 3bbc
00000210: 1353 003b 790c 92bc 00f4 6e3c b6bd 0e3c
00000220: d774 7e3b 67bc 143c 6d3c adbb 9846 463b
00000230: fbe8 3f3b 0c56 97bb b888 233b e681 3dbc
00000240: 0dfb 9a3b a767 6f3b 805e 4ebb c99b 313c
00000250: 8eef 4b3c ef0d 593c 1acd 863a 432e 733b
00000260: fcd7 163b 1453 f73b eda0 03bc 8b83 d73b
00000270: 89e8 25bc d6c0 6b3b f472 723c d3d5 d93a
00000280: a609 2ebb db4b 413c be92 12bb 9283 353c
00000290: d530 8a3c ee63 95bc 54d0 5939 d7ac b93c
000002a0: 74aa 90bb 3d5c 593c 19aa 86bc 2aa7 80bb
000002b0: c6cf b43b 5e39 463b 2f00 f0bb 6d91 073b
000002c0: dd9d 863a 725f c7ba 6481 fdbb 5636 4f3a
000002d0: 1ee6 c6bb 3c02 653c 07fa f3bc 1f3d 14bc
000002e0: 9ab7 edba a25a 763c 418c eabb 0e9e 923a
000002f0: 3d98 6ebc c9d7 e0b9 e7ad b03c d67a cfbb
00000300: 8b9b 773a adbc 3b3c a4b7 133c 98b1 2fb9
00000310: e68f 89bb 3dfa 05bc 6302 f1ba 6458 863c
00000320: c1ca ce3b b6ac b0bb 6dd3 51bb 6914 36bc
00000330: abd5 fc3b 49d8 2cbc a9a2 1abc 690d ea3b
00000340: e3d6 02bc 8291 2abc b7ab 723c 2981 a2bc
00000350: 2c6c 57bb 4e53 683a 3859 0b3b c120 b33a
00000360: 8c72 0e3c c27a 853c 1d81 853c 3372 57bc
00000370: 22be 403c 9cac a6bc 4f28 823c 791b b23c
00000380: 8cf7 34bc deb4 66bc 5b7e bfbc 08f2 0ebc
00000390: f989 93bb ae65 a2bb e409 1abb 1957 41bb
000003a0: 29a0 f2ba dd34 683c 8739 62bc 7ad0 40bc
000003b0: 1e39 5fbb dc91 bbbb fdbf 4fbb edf9 663c
000003c0: b93b 06bc ce35 583c a8e4 10b8 2688 1dbb
000003d0: 6b6f 4abc 6c31 743b f122 02bc 17f9 49bb
000003e0: 8355 08bc 3db1 d13b fac4 fbba 0bd2 35bc
000003f0: c320 c13b e0bb c73c a4aa d0b7 c785 01bc
-0.01263555 -0.0207196 0.013682 0.026058592 -0.0099390345 -0.0054220133 0.012898247 -0.013142954
-0.005552824 -0.013990123 0.014649161 -0.012425269 0.011541538 -0.0032073513 0.023089804 -0.005925298
0.0010059316 0.01736735 -0.00081265235 0.0017658913 0.00064694753 0.009937967 0.0034247295 0.012612443
0.003988275 0.0076694526 -0.002202932 0.0088706035 0.008038726 -0.004924788 -0.0078089265 -0.00904662
-0.0023002618 0.010138445 0.0023125706 -0.01208338 -0.0062291073 0.009312729 0.00836303 -0.0040826
0.016641047 -0.0028737828 0.0044657746 -0.016613211 0.02163802 0.0026190635 -0.0036739681 0.0014021106
-0.0005989798 0.00977665 0.0052255047 0.002832179 -0.0022482853 -0.02470045 0.0060248654 0.0043485896
0.009800511 -0.009417341 -0.0076400023 -0.01746654 0.002148915 -0.003770338 -0.013113184 -0.013032488
0.010641962 -0.0022227007 0.012054491 0.007085409 -0.00093594444 0.008286727 -0.0017736829 -0.00057368213
0.010237569 -7.779335e-05 -0.0031608504 0.0019302209 -0.0018974702 -0.011621834 -0.009227058 -0.009538773
-0.006635178 0.007370268 0.0025745158 0.010106349 -0.011754389 0.0001950773 -0.008429773 -0.010893761
-0.0013195648 -0.0135283545 -0.010829697 0.004568086 0.002661986 -0.00087080925 -0.014515313 0.0011494281
-0.00065763306 0.0006786676 0.0046427706 0.024978545 0.013815106 -0.014562087 0.0006392073 -0.004183701
0.0029393593 -0.0050372616 0.0021414845 0.017938482 0.015934544 0.011846981 -0.015231631 -0.018000677
-0.009029349 -0.015779817 -0.016662488 -0.011260817 0.007782644 -0.0009265818 0.00539626 0.01632063
-0.001554268 0.002788433 -5.9844366e-05 0.009959654 0.0014589169 -0.0034865483 0.0050874483 -0.0016720006
-0.0107481675 0.016191198 -0.01045107 -0.011464098 0.0019580766 -0.017828213 0.014584541 0.008712223
0.0038826966 0.009078122 -0.0052867443 0.003025448 0.0029283154 -0.004618412 0.0024953317 -0.011566615
0.0047296346 0.0036530287 -0.0031489432 0.010840365 0.012447251 0.013247951 0.0010284514 0.0037106432
0.002301692 0.0075477455 -0.008033973 0.0065769604 -0.0101262415 0.0035973093 0.014797915 0.0016619511
-0.0026556044 0.0117978705 -0.0022365297 0.011078732 0.016868988 -0.018236127 0.00020772341 0.022665424
-0.004414851 0.01326662 -0.01643853 -0.0039261775 0.0055179326 0.0030246596 -0.0073242406 0.0020686046
0.0010270436 -0.001521094 -0.007736372 0.000790452 -0.0060699126 0.0139775835 -0.029782308 -0.0090477755
-0.0018136383 0.015036257 -0.007157833 0.001118602 -0.014562664 -0.00042885382 0.021567298 -0.006331782
0.000944548 0.011458558 0.009015951 -0.0001675546 -0.0041980622 -0.008177337 -0.0018387552 0.01639957
0.0063107912 -0.0053916825 -0.0032016889 -0.011113265 0.007715901 -0.010549613 -0.009438195 0.007142712
-0.007985803 -0.010410668 0.014811448 -0.019836979 -0.0032870872 0.0008862511 0.0021262895 0.0013666378
0.008694302 0.016293887 0.016296918 -0.013149786 0.011764081 -0.020345978 0.015888361 0.021741616
-0.011045348 -0.014081208 -0.02337568 -0.008724697 -0.0045025316 -0.004955969 -0.002350443 -0.0029501377
-0.0018510866 0.01417276 -0.013807661 -0.011768455 -0.0034061144 -0.005724175 -0.0031700127 0.014097673
-0.00819295 0.013196422 -3.4545228e-05 -0.002403745 -0.012355666 0.0037260903 -0.007942901 -0.0030818635
-0.008321169 0.0063993023 -0.0019208484 -0.011097441 0.005893798 0.024381578 -2.4874993e-05 -0.00790543

action_model._discrete_distribution.branches.0.bias f4 [2]
00000000: ffeb cf3b fceb cfbb
0.0063452716 -0.00634527

exp_avg f4 [128, 114]
00000000: 0000 0000 eea7 0cb7 eea7 0cb7 0000 0000
00000010: eea7 0cb7 eea7 0cb7 0000 0000 eea7 0cb7
00000020: eea7 0cb7 0000 0000 eea7 0cb7 eea7 0cb7
00000030: 0000 0000 eea7 0cb7 eea7 0cb7 0000 0000
00000040: eea7 0cb7 eea7 0cb7 0000 0000 eea7 0cb7
00000050: eea7 0cb7 0000 0000 eea7 0cb7 eea7 0cb7
00000060: 0000 0000 eea7 0cb7 eea7 0cb7 0000 0000
00000070: eea7 0cb7 eea7 0cb7 0000 0000 eea7 0cb7
00000080: eea7 0cb7 0000 0000 eea7 0cb7 eea7 0cb7
00000090: 0000 0000 eea7 0cb7 eea7 0cb7 0000 0000
000000a0: eea7 0cb7 eea7 0cb7 0000 0000 eea7 0cb7
000000b0: eea7 0cb7 0000 0000 eea7 0cb7 eea7 0cb7
000000c0: 0000 0000 eea7 0cb7 eea7 0cb7 0000 0000
000000d0: eea7 0cb7 eea7 0cb7 0000 0000 eea7 0cb7
000000e0: eea7 0cb7 0000 0000 eea7 0cb7 eea7 0cb7
000000f0: 0000 0000 eea7 0cb7 eea7 0cb7 0000 0000
00000100: eea7 0cb7 eea7 0cb7 0000 0000 eea7 0cb7
00000110: eea7 0cb7 0000 0000 eea7 0cb7 eea7 0cb7
00000120: 0000 0000 eea7 0cb7 eea7 0cb7 0000 0000
00000130: eea7 0cb7 eea7 0cb7 0000 0000 eea7 0cb7
00000140: eea7 0cb7 0000 0000 eea7 0cb7 eea7 0cb7
00000150: 0000 0000 eea7 0cb7 eea7 0cb7 0000 0000
00000160: eea7 0cb7 eea7 0cb7 0000 0000 eea7 0cb7
00000170: eea7 0cb7 0000 0000 eea7 0cb7 eea7 0cb7
00000180: 0000 0000 eea7 0cb7 eea7 0cb7 0000 0000
00000190: eea7 0cb7 eea7 0cb7 0000 0000 eea7 0cb7
000001a0: eea7 0cb7 0000 0000 eea7 0cb7 eea7 0cb7
000001b0: 0000 0000 eea7 0cb7 eea7 0cb7 0000 0000
000001c0: eea7 0cb7 eea7 0cb7 0000 0000 ae68 3536
000001d0: ae68 3536 0000 0000 ae68 3536 ae68 3536
000001e0: 0000 0000 ae68 3536 ae68 3536 0000 0000
000001f0: ae68 3536 ae68 3536 0000 0000 ae68 3536
00000200: ae68 3536 0000 0000 ae68 3536 ae68 3536
00000210: 0000 0000 ae68 3536 ae68 3536 0000 0000
00000220: ae68 3536 ae68 3536 0000 0000 ae68 3536
00000230: ae68 3536 0000 0000 ae68 3536 ae68 3536
00000240: 0000 0000 ae68 3536 ae68 3536 0000 0000
00000250: ae68 3536 ae68 3536 0000 0000 ae68 3536
00000260: ae68 3536 0000 0000 ae68 3536 ae68 3536
00000270: 0000 0000 ae68 3536 ae68 3536 0000 0000
00000280: ae68 3536 ae68 3536 0000 0000 ae68 3536
00000290: ae68 3536 0000 0000 ae68 3536 ae68 3536
000002a0: 0000 0000 ae68 3536 ae68 3536 0000 0000
000002b0: ae68 3536 ae68 3536 0000 0000 ae68 3536
000002c0: ae68 3536 0000 0000 ae68 3536 ae68 3536
000002d0: 0000 0000 ae68 3536 ae68 3536 0000 0000
000002e0: ae68 3536 ae68 3536 0000 0000 ae68 3536
000002f0: ae68 3536 0000 0000 ae68 3536 ae68 3536
00000300: 0000 0000 ae68 3536 ae68 3536 0000 0000
00000310: ae68 3536 ae68 3536 0000 0000 ae68 3536
00000320: ae68 3536 0000 0000 ae68 3536 ae68 3536
00000330: 0000 0000 ae68 3536 ae68 3536 0000 0000
00000340: ae68 3536 ae68 3536 0000 0000 ae68 3536
00000350: ae68 3536 0000 0000 ae68 3536 ae68 3536
00000360: 0000 0000 ae68 3536 ae68 3536 0000 0000
00000370: ae68 3536 ae68 3536 0000 0000 ae68 3536
00000380: ae68 3536 0000 0000 ae68 3536 ae68 3536
00000390: 0000 0000 0258 e9b5 0258 e9b5 0000 0000
000003a0: 0258 e9b5 0258 e9b5 0000 0000 0258 e9b5
000003b0: 0258 e9b5 0000 0000 0258 e9b5 0258 e9b5
000003c0: 0000 0000 0258 e9b5 0258 e9b5 0000 0000
000003d0: 0258 e9b5 0258 e9b5 0000 0000 0258 e9b5
000003e0: 0258 e9b5 0000 0000 0258 e9b5 0258 e9b5
000003f0: 0000 0000 0258 e9b5 0258 e9b5 0000 0000
0.0 -8.383749e-06 -8.383749e-06 0.0 -8.383749e-06 -8.383749e-06 0.0 -8.383749e-06
-8.383749e-06 0.0 -8.383749e-06 -8.383749e-06 0.0 -8.383749e-06 -8.383749e-06 0.0
-8.383749e-06 -8.383749e-06 0.0 -8.383749e-06 -8.383749e-06 0.0 -8.383749e-06 -8.383749e-06
0.0 -8.383749e-06 -8.383749e-06 0.0 -8.383749e-06 -8.383749e-06 0.0 -8.383749e-06
-8.383749e-06 0.0 -8.383749e-06 -8.383749e-06 0.0 -8.383749e-06 -8.383749e-06 0.0
-8.383749e-06 -8.383749e-06 0.0 -8.383749e-06 -8.383749e-06 0.0 -8.383749e-06 -8.383749e-06
0.0 -8.383749e-06 -8.383749e-06 0.0 -8.383749e-06 -8.383749e-06 0.0 -8.383749e-06
-8.383749e-06 0.0 -8.383749e-06 -8.383749e-06 0.0 -8.383749e-06 -8.383749e-06 0.0
-8.383749e-06 -8.383749e-06 0.0 -8.383749e-06 -8.383749e-06 0.0 -8.383749e-06 -8.383749e-06
0.0 -8.383749e-06 -8.383749e-06 0.0 -8.383749e-06 -8.383749e-06 0.0 -8.383749e-06
-8.383749e-06 0.0 -8.383749e-06 -8.383749e-06 0.0 -8.383749e-06 -8.383749e-06 0.0
-8.383749e-06 -8.383749e-06 0.0 -8.383749e-06 -8.383749e-06 0.0 -8.383749e-06 -8.383749e-06
0.0 -8.383749e-06 -8.383749e-06 0.0 -8.383749e-06 -8.383749e-06 0.0 -8.383749e-06
-8.383749e-06 0.0 -8.383749e-06 -8.383749e-06 0.0 -8.383749e-06 -8.383749e-06 0.0
-8.383749e-06 -8.383749e-06 0.0 2.7032033e-06 2.7032033e-06 0.0 2.7032033e-06 2.7032033e-06
0.0 2.7032033e-06 2.7032033e-06 0.0 2.7032033e-06 2.7032033e-06 0.0 2.7032033e-06
2.7032033e-06 0.0 2.7032033e-06 2.7032033e-06 0.0 2.7032033e-06 2.7032033e-06 0.0
2.7032033e-06 2.7032033e-06 0.0 2.7032033e-06 2.7032033e-06 0.0 2.7032033e-06 2.7032033e-06
0.0 2.7032033e-06 2.7032033e-06 0.0 2.7032033e-06 2.7032033e-06 0.0 2.7032033e-06
2.7032033e-06 0.0 2.7032033e-06 2.7032033e-06 0.0 2.7032033e-06 2.7032033e-06 0.0
2.7032033e-06 2.7032033e-06 0.0 2.7032033e-06 2.7032033e-06 0.0 2.7032033e-06 2.7032033e-06
0.0 2.7032033e-06 2.7032033e-06 0.0 2.7032033e-06 2.7032033e-06 0.0 2.7032033e-06
2.7032033e-06 0.0 2.7032033e-06 2.7032033e-06 0.0 2.7032033e-06 2.7032033e-06 0.0
2.7032033e-06 2.7032033e-06 0.0 2.7032033e-06 2.7032033e-06 0.0 2.7032033e-06 2.7032033e-06
0.0 2.7032033e-06 2.7032033e-06 0.0 2.7032033e-06 2.7032033e-06 0.0 2.7032033e-06
2.7032033e-06 0.0 2.7032033e-06 2.7032033e-06 0.0 2.7032033e-06 2.7032033e-06 0.0
2.7032033e-06 2.7032033e-06 0.0 2.7032033e-06 2.7032033e-06 0.0 2.7032033e-06 2.7032033e-06
0.0 2.7032033e-06 2.7032033e-06 0.0 2.7032033e-06 2.7032033e-06 0.0 2.7032033e-06
2.7032033e-06 0.0 2.7032033e-06 2.7032033e-06 0.0 -1.7385466e-06 -1.7385466e-06 0.0
-1.7385466e-06 -1.7385466e-06 0.0 -1.7385466e-06 -1.7385466e-06 0.0 -1.7385466e-06 -1.7385466e-06
0.0 -1.7385466e-06 -1.7385466e-06 0.0 -1.7385466e-06 -1.7385466e-06 0.0 -1.7385466e-06
-1.7385466e-06 0.0 -1.7385466e-06 -1.7385466e-06 0.0 -1.7385466e-06 -1.7385466e-06 0.0

exp_avg_sq f4 [128, 114]
00000000: 0000 0000 e6f6 2b2f e6f6 2b2f 0000 0000
00000010: e6f6 2b2f e6f6 2b2f 0000 0000 e6f6 2b2f
00000020: e6f6 2b2f 0000 0000 e6f6 2b2f e6f6 2b2f
00000030: 0000 0000 e6f6 2b2f e6f6 2b2f 0000 0000
00000040: e6f6 2b2f e6f6 2b2f 0000 0000 e6f6 2b2f
00000050: e6f6 2b2f 0000 0000 e6f6 2b2f e6f6 2b2f
00000060: 0000 0000 e6f6 2b2f e6f6 2b2f 0000 0000
00000070: e6f6 2b2f e6f6 2b2f 0000 0000 e6f6 2b2f
00000080: e6f6 2b2f 0000 0000 e6f6 2b2f e6f6 2b2f
00000090: 0000 0000 e6f6 2b2f e6f6 2b2f 0000 0000
000000a0: e6f6 2b2f e6f6 2b2f 0000 0000 e6f6 2b2f
000000b0: e6f6 2b2f 0000 0000 e6f6 2b2f e6f6 2b2f
000000c0: 0000 0000 e6f6 2b2f e6f6 2b2f 0000 0000
000000d0: e6f6 2b2f e6f6 2b2f 0000 0000 e6f6 2b2f
000000e0: e6f6 2b2f 0000 0000 e6f6 2b2f e6f6 2b2f
000000f0: 0000 0000 e6f6 2b2f e6f6 2b2f 0000 0000
00000100: e6f6 2b2f e6f6 2b2f 0000 0000 e6f6 2b2f
00000110: e6f6 2b2f 0000 0000 e6f6 2b2f e6f6 2b2f
00000120: 0000 0000 e6f6 2b2f e6f6 2b2f 0000 0000
00000130: e6f6 2b2f e6f6 2b2f 0000 0000 e6f6 2b2f
00000140: e6f6 2b2f 0000 0000 e6f6 2b2f e6f6 2b2f
00000150: 0000 0000 e6f6 2b2f e6f6 2b2f 0000 0000
00000160: e6f6 2b2f e6f6 2b2f 0000 0000 e6f6 2b2f
00000170: e6f6 2b2f 0000 0000 e6f6 2b2f e6f6 2b2f
00000180: 0000 0000 e6f6 2b2f e6f6 2b2f 0000 0000
00000190: e6f6 2b2f e6f6 2b2f 0000 0000 e6f6 2b2f
000001a0: e6f6 2b2f 0000 0000 e6f6 2b2f e6f6 2b2f
000001b0: 0000 0000 e6f6 2b2f e6f6 2b2f 0000 0000
000001c0: e6f6 2b2f e6f6 2b2f 0000 0000 ebf3 4d2d
000001d0: ebf3 4d2d 0000 0000 ebf3 4d2d ebf3 4d2d
000001e0: 0000 0000 ebf3 4d2d ebf3 4d2d 0000 0000
000001f0: ebf3 4d2d ebf3 4d2d 0000 0000 ebf3 4d2d
00000200: ebf3 4d2d 0000 0000 ebf3 4d2d ebf3 4d2d
00000210: 0000 0000 ebf3 4d2d ebf3 4d2d 0000 0000
00000220: ebf3 4d2d ebf3 4d2d 0000 0000 ebf3 4d2d
00000230: ebf3 4d2d 0000 0000 ebf3 4d2d ebf3 4d2d
00000240: 0000 0000 ebf3 4d2d ebf3 4d2d 0000 0000
00000250: ebf3 4d2d ebf3 4d2d 0000 0000 ebf3 4d2d
00000260: ebf3 4d2d 0000 0000 ebf3 4d2d ebf3 4d2d
00000270: 0000 0000 ebf3 4d2d ebf3 4d2d 0000 0000
00000280: ebf3 4d2d ebf3 4d2d 0000 0000 ebf3 4d2d
00000290: ebf3 4d2d 0000 0000 ebf3 4d2d ebf3 4d2d
000002a0: 0000 0000 ebf3 4d2d ebf3 4d2d 0000 0000
000002b0: ebf3 4d2d ebf3 4d2d 0000 0000 ebf3 4d2d
000002c0: ebf3 4d2d 0000 0000 ebf3 4d2d ebf3 4d2d
000002d0: 0000 0000 ebf3 4d2d ebf3 4d2d 0000 0000
000002e0: ebf3 4d2d ebf3 4d2d 0000 0000 ebf3 4d2d
000002f0: ebf3 4d2d 0000 0000 ebf3 4d2d ebf3 4d2d
00000300: 0000 0000 ebf3 4d2d ebf3 4d2d 0000 0000
00000310: ebf3 4d2d ebf3 4d2d 0000 0000 ebf3 4d2d
00000320: ebf3 4d2d 0000 0000 ebf3 4d2d ebf3 4d2d
00000330: 0000 0000 ebf3 4d2d ebf3 4d2d 0000 0000
00000340: ebf3 4d2d ebf3 4d2d 0000 0000 ebf3 4d2d
00000350: ebf3 4d2d 0000 0000 ebf3 4d2d ebf3 4d2d
00000360: 0000 0000 ebf3 4d2d ebf3 4d2d 0000 0000
00000370: ebf3 4d2d ebf3 4d2d 0000 0000 ebf3 4d2d
00000380: ebf3 4d2d 0000 0000 ebf3 4d2d ebf3 4d2d
00000390: 0000 0000 b94b 1b30 b94b 1b30 0000 0000
000003a0: b94b 1b30 b94b 1b30 0000 0000 b94b 1b30
000003b0: b94b 1b30 0000 0000 b94b 1b30 b94b 1b30
000003c0: 0000 0000 b94b 1b30 b94b 1b30 0000 0000
000003d0: b94b 1b30 b94b 1b30 0000 0000 b94b 1b30
000003e0: b94b 1b30 0000 0000 b94b 1b30 b94b 1b30
000003f0: 0000 0000 b94b 1b30 b94b 1b30 0000 0000
0.0 1.5640075e-10 1.5640075e-10 0.0 1.5640075e-10 1.5640075e-10 0.0 1.5640075e-10
1.5640075e-10 0.0 1.5640075e-10 1.5640075e-10 0.0 1.5640075e-10 1.5640075e-10 0.0
1.5640075e-10 1.5640075e-10 0.0 1.5640075e-10 1.5640075e-10 0.0 1.5640075e-10 1.5640075e-10
0.0 1.5640075e-10 1.5640075e-10 0.0 1.5640075e-10 1.5640075e-10 0.0 1.5640075e-10
1.5640075e-10 0.0 1.5640075e-10 1.5640075e-10 0.0 1.5640075e-10 1.5640075e-10 0.0
1.5640075e-10 1.5640075e-10 0.0 1.5640075e-10 1.5640075e-10 0.0 1.5640075e-10 1.5640075e-10
0.0 1.5640075e-10 1.5640075e-10 0.0 1.5640075e-10 1.5640075e-10 0.0 1.5640075e-10
1.5640075e-10 0.0 1.5640075e-10 1.5640075e-10 0.0 1.5640075e-10 1.5640075e-10 0.0
1.5640075e-10 1.5640075e-10 0.0 1.5640075e-10 1.5640075e-10 0.0 1.5640075e-10 1.5640075e-10
0.0 1.5640075e-10 1.5640075e-10 0.0 1.5640075e-10 1.5640075e-10 0.0 1.5640075e-10
1.5640075e-10 0.0 1.5640075e-10 1.5640075e-10 0.0 1.5640075e-10 1.5640075e-10 0.0
1.5640075e-10 1.5640075e-10 0.0 1.5640075e-10 1.5640075e-10 0.0 1.5640075e-10 1.5640075e-10
0.0 1.5640075e-10 1.5640075e-10 0.0 1.5640075e-10 1.5640075e-10 0.0 1.5640075e-10
1.5640075e-10 0.0 1.5640075e-10 1.5640075e-10 0.0 1.5640075e-10 1.5640075e-10 0.0
1.5640075e-10 1.5640075e-10 0.0 1.17070615e-11 1.17070615e-11 0.0 1.17070615e-11 1.17070615e-11
0.0 1.17070615e-11 1.17070615e-11 0.0 1.17070615e-11 1.17070615e-11 0.0 1.17070615e-11
1.17070615e-11 0.0 1.17070615e-11 1.17070615e-11 0.0 1.17070615e-11 1.17070615e-11 0.0
1.17070615e-11 1.17070615e-11 0.0 1.17070615e-11 1.17070615e-11 0.0 1.17070615e-11 1.17070615e-11
0.0 1.17070615e-11 1.17070615e-11 0.0 1.17070615e-11 1.17070615e-11 0.0 1.17070615e-11
1.17070615e-11 0.0 1.17070615e-11 1.17070615e-11 0.0 1.17070615e-11 1.17070615e-11 0.0
1.17070615e-11 1.17070615e-11 0.0 1.17070615e-11 1.17070615e-11 0.0 1.17070615e-11 1.17070615e-11
0.0 1.17070615e-11 1.17070615e-11 0.0 1.17070615e-11 1.17070615e-11 0.0 1.17070615e-11
1.17070615e-11 0.0 1.17070615e-11 1.17070615e-11 0.0 1.17070615e-11 1.17070615e-11 0.0
1.17070615e-11 1.17070615e-11 0.0 1.17070615e-11 1.17070615e-11 0.0 1.17070615e-11 1.17070615e-11
0.0 1.17070615e-11 1.17070615e-11 0.0 1.17070615e-11 1.17070615e-11 0.0 1.17070615e-11
1.17070615e-11 0.0 1.17070615e-11 1.17070615e-11 0.0 1.17070615e-11 1.17070615e-11 0.0
1.17070615e-11 1.17070615e-11 0.0 1.17070615e-11 1.17070615e-11 0.0 1.17070615e-11 1.17070615e-11
0.0 1.17070615e-11 1.17070615e-11 0.0 1.17070615e-11 1.17070615e-11 0.0 1.17070615e-11
1.17070615e-11 0.0 1.17070615e-11 1.17070615e-11 0.0 5.649628e-10 5.649628e-10 0.0
5.649628e-10 5.649628e-10 0.0 5.649628e-10 5.649628e-10 0.0 5.649628e-10 5.649628e-10
0.0 5.649628e-10 5.649628e-10 0.0 5.649628e-10 5.649628e-10 0.0 5.649628e-10
5.649628e-10 0.0 5.649628e-10 5.649628e-10 0.0 5.649628e-10 5.649628e-10 0.0

exp_avg f4 [128]
00000000: 139d 0cb7 9377 3536 9b5f e9b5 6eeb 8438
00000010: 7d9f 0e37 854f b635 8c35 21b2 ee7c 5cb3
00000020: 3815 2238 a812 0039 1182 a4b7 2c51 d1b5
00000030: cc9b 6d33 c9de 3037 dfff 8137 e945 1836
00000040: d570 7a38 eaa4 8db7 b86d 66b6 c8ca ceb5
00000050: f98a 8c39 e035 10b7 a237 20b6 0440 8437
00000060: bd7d feb1 0f48 ff36 b0bc 09b7 b059 54b2
00000070: 8a2f 8db7 8b7a c237 bee2 deb6 88c4 acb6
00000080: 23ec ebb7 801c e5b6 e45b 8db7 6c72 6037
00000090: b975 e3b6 50b8 0c38 949a c6b5 8254 1736
000000a0: acf5 2136 59d4 d235 aa74 2d38 9cd2 04b8
000000b0: 116d a935 41f3 9f37 5fc1 a5b7 e403 8a38
000000c0: 7bdc e938 f7d0 23b3 532e 1c39 6bab 7b36
000000d0: c1e5 e338 642f 0cb8 0015 8537 74cd e637
000000e0: 2ef1 eeb6 6008 cc36 22b0 1d35 10af 3f39
000000f0: c76b 0cb6 48f1 9d37 5c07 4a38 7568 2838
00000100: 904e 0639 8cb2 ef37 10d1 21b7 c58c 0db7
00000110: 6547 7bb7 d31a 0437 63a5 2638 cc4b c3b6
00000120: 3999 ab36 a72d dbb6 c12e cd38 996e a536
00000130: 5891 0fb7 c575 fdb7 1ff7 aa37 fdaf 95b3
00000140: 943e b338 6640 aa36 3b29 d7b3 7721 dab4
00000150: 0a93 8a36 8094 1636 6089 4837 0dd2 5238
00000160: d1ea 47b7 fc4a 95b7 7ce0 ffb6 c534 aa38
00000170: 26ae 8438 94cd 3035 df86 bb36 343c 9e38
00000180: 44a7 b038 2893 8738 2fef f2b6 4f5f 52b4
00000190: aba9 5cb6 b5f8 5938 150a a638 2ec6 7bb6
000001a0: 6883 42b7 da57 7eb7 0d41 fe38 cfd8 19b7
000001b0: 59b6 8b34 1f44 7db4 b826 1037 2794 9238
000001c0: 7042 0039 0b9e a937 25fe 91b3 d23b db36
000001d0: 7f74 ccb6 87d2 9038 850f 51af 3bf4 9fb6
000001e0: 5932 6137 acef 62b5 7265 d834 43ac d136
000001f0: 7001 8735 8141 a438 f73c a938 2cf0 4237
-8.381222e-06 2.7040703e-06 -1.7387678e-06 6.338103e-05 8.500993e-06 1.35832e-06 -9.383609e-09 -5.1336364e-08
3.864357e-05 0.00012213981 -1.961089e-05 -1.5595338e-06 5.532256e-08 1.0542289e-05 1.5497148e-05 2.2690458e-06
5.9709728e-05 -1.6885304e-05 -3.4336535e-06 -1.5407213e-06 0.00026806424 -8.595613e-06 -2.387424e-06 1.5765436e-05
-7.4066677e-09 7.607981e-06 -8.209769e-06 -1.2360417e-08 -1.6830647e-05 2.3183666e-05 -6.642512e-06 -5.1488787e-06
-2.8124143e-05 -6.8280497e-06 -1.68513e-05 1.3378081e-05 -6.778832e-06 3.3550255e-05 -1.4797138e-06 2.2549943e-06
2.413387e-06 1.570802e-06 4.1355066e-05 -3.1667398e-05 1.2623224e-06 1.9067551e-05 -1.9759578e-05 6.5810775e-05
0.000111513735 -3.8141447e-08 0.00014894576 3.7501693e-06 0.000108669985 -3.3422737e-05 1.5864614e-05 2.7513808e-05
-7.1210297e-06 6.0806487e-06 5.8743365e-07 0.00018280395 -2.092436e-06 1.8828214e-05 4.8167407e-05 4.0151604e-05
0.00012808503 2.8574163e-05 -9.645024e-06 -8.43703e-06 -1.4977389e-05 7.874059e-06 3.9731513e-05 -5.820277e-06
5.1140346e-06 -6.5320232e-06 9.78387e-05 4.9302585e-06 -8.557305e-06 -3.0214791e-05 2.0380654e-05 -6.970365e-08
8.547041e-05 5.0738918e-06 -1.00192175e-07 -4.0630013e-07 4.129838e-06 2.243818e-06 1.1952914e-05 5.0263527e-05
-1.1915997e-05 -1.7797101e-05 -7.6257256e-06 8.116061e-05 6.326688e-05 6.5864265e-07 5.5887353e-06 7.545241e-05
8.4234896e-05 6.4647116e-05 -7.2400067e-06 -1.9592447e-07 -3.2881314e-06 5.1968458e-05 7.917375e-05 -3.751727e-06
-1.15938965e-05 -1.5160034e-05 0.000121237805 -9.16999e-06 2.6023443e-07 -2.3587243e-07 8.592084e-06 6.989418e-05
0.00012231781 2.0219964e-05 -6.798317e-08 6.5336726e-06 -6.0932357e-06 6.905669e-05 -1.9013953e-10 -4.7670014e-06
1.3422768e-05 -8.454033e-07 4.0306946e-07 6.2487393e-06 1.0058702e-06 7.8323304e-05 8.0699036e-05 1.16192205e-05

exp_avg_sq f4 [128]
00000000: 0ffa 2b2f 5ff4 4d2d 4249 1b30 b8cf 7732
00000010: 66da 392f abc1 fa2d a006 402c a305 212c
00000020: 2bea 5c31 4f7a 1033 c02e f931 be7c 7e2e
00000030: bd31 b62c f009 9930 2b36 8730 e1af 422e
00000040: 167c 2b32 e7c5 0d30 2abc 9e2e fb00 d92f
00000050: 0458 1e34 384e 272f 2917 8130 3b6b 0231
00000060: 2285 642b 9a66 6c2f 9237 c62f 3717 b82a
00000070: 403a ab30 8314 f330 b2ce 6d2e 1643 912e
00000080: dde6 4b31 0cc4 f22f 6f9f 9e30 1223 4230
00000090: 8bd2 af2f 53d7 3531 3453 c12c 1df3 0c2d
000000a0: c0a0 5d2e 2630 8f30 b1cc 8631 9d00 6431
000000b0: f8dd 072e 1d6f d22f 7217 b230 4ec4 0532
000000c0: 1756 cf32 ccec da2b 43f6 4833 5a1c 1c2e
000000d0: c0cd 0333 0a7a 8331 586a bd2f 0b6a 8a31
000000e0: 57e7 db2e 9ac3 382f 709c c42c 14a9 a833
000000f0: 8181 3730 1295 a530 fd78 9431 3ad1 9f31
00000100: a4f9 0e33 a82e 0e31 b118 8c2f a86d 382f
00000110: 7212 a830 bece ea2e b3d0 9831 ec3f 462f
00000120: 130a 8330 6525 432f 9b1d b332 c2da ff2e
00000130: c5ff f12f c3d1 1531 c3d9 7930 5557 662e
00000140: 5454 9432 e14b 7e2f e751 df2c 0166 f82c
00000150: 64ed cf2e 9f09 6f2f 2b79 5330 0e94 b731
00000160: b14a 3830 14b7 5f30 db9e 4e2f 1170 4a32
00000170: a7c5 3532 63f5 3d2d c782 ea2e 9531 7f32
00000180: 4adc 5132 45b0 1e32 3407 0f2f d546 d52c
00000190: b54e 522f 8f97 0132 0703 8a32 81e6 fe2e
000001a0: 3ed0 4f30 213c 8030 7b94 0d33 88d6 a930
000001b0: 23ef 652c 8091 072c 3e6d 832f 0141 4e32
000001c0: 9e0e 0733 a268 8c30 34f2 b32b 446a 272f
000001d0: 94fc 402f ed0f 5e32 87e6 1228 1be4 0e2f
000001e0: 3817 be30 bbe5 ac2c e4a5 a12b 4579 e12f
000001f0: 2c14 222e 204a 9e32 f710 8232 3019 4e2f
1.5641198e-10 1.1707162e-11 5.6492777e-10 1.4424522e-08 1.6903243e-10 2.8507715e-11 2.7288519e-12 2.2882605e-12
3.2147323e-09 3.363885e-08 7.2521686e-09 5.7863707e-11 5.178273e-12 1.113504e-09 9.837938e-10 4.4266705e-11
9.981724e-09 5.157674e-10 7.218433e-11 3.9472767e-10 1.4746917e-07 1.521635e-10 9.392568e-10 1.8978443e-09
8.118663e-13 2.1500526e-10 3.6055475e-10 3.2701074e-13 1.2458443e-09 1.7686407e-09 5.4071143e-11 6.6057534e-11
2.9671618e-09 4.4158843e-10 1.1541327e-09 7.0626627e-10 3.1981914e-10 2.6461364e-09 5.4946273e-12 8.012061e-12
5.0392357e-11 1.0418304e-09 3.923184e-09 3.3178715e-09 3.0892594e-11 3.8277728e-10 1.2957868e-09 7.786253e-09
2.413712e-08 1.5555556e-12 4.6790102e-08 3.5495475e-11 3.0687943e-08 3.826476e-09 3.4454462e-10 4.0283843e-09
1.0000061e-10 1.6804194e-10 5.588023e-12 7.853865e-08 6.675905e-10 1.2047698e-09 4.3211217e-09 4.6512953e-09
3.3289e-08 2.069024e-09 2.5483396e-10 1.677366e-10 1.2228851e-09 1.0677813e-10 4.4475086e-09 1.8030705e-10
9.534368e-10 1.7748432e-10 2.0851806e-08 1.16349166e-10 4.401938e-10 2.180159e-09 9.089513e-10 5.2373512e-11
1.7267816e-08 2.3128123e-10 6.347134e-12 7.0599086e-12 9.455439e-11 2.1740341e-10 7.6933543e-10 5.342833e-09
6.7044953e-10 8.1387097e-10 1.8792028e-10 1.17834285e-08 1.0580528e-08 1.0797893e-11 1.0664319e-10 1.4854227e-08
1.2215489e-08 9.2368895e-09 1.3008333e-10 6.061688e-12 1.9127351e-10 7.543249e-09 1.6066691e-08 1.15915284e-10
7.560209e-10 9.330315e-10 3.2964163e-08 1.2357342e-09 3.2675605e-12 1.9265423e-12 2.3906382e-10 1.2005558e-08
3.144543e-08 1.0216079e-09 1.278594e-12 1.5226315e-10 1.7552032e-10 1.2925722e-08 8.154616e-15 1.2995864e-10
1.3830919e-09 4.9140392e-12 1.1485782e-12 4.101343e-10 3.685245e-11 1.8427329e-08 1.5141707e-08 1.8744539e-10
