Results/test2/Doughnut/checkpoint.pt (torch, 210951 bytes, 11 tensors)

network_body._body_endoder.seq_layers.0.weight f4 [128, 66]
0.08432397 -0.08810148 0.16206716 0.12889645 -0.09025551 -0.03978936 -0.0012068094 -0.26874635
0.053586163 0.15867902 0.009331379 0.13696909 -0.072643735 0.039305802 0.033550054 -0.01395311
-0.07962535 -0.18340406 0.07077754 0.17327744 -0.019178772 0.03235851 0.08724742 0.18734403
-0.043152817 -0.22268444 0.035845328 -0.12777455 -0.25830185 0.072765544 0.09526311 -0.020043429
0.121265545 -0.046593588 -0.08453268 0.0792743 0.08993973 0.061998367 0.2370148 0.072124004
-0.19763203 -0.12529887 -0.19043061 0.05524657 0.097648755 -0.1907355 -0.32694533 0.09158315
0.12356763 -0.115236506 -0.031041916 -0.1401376 -0.14558628 0.20856509 -0.09920327 0.08258649
-0.052422266 -0.05925928 -0.11317029 0.026427561 -0.13755447 0.046004474 0.026088508 0.11187295
-0.07318352 -0.037263744 -0.061408192 -0.22695492 -0.011636927 0.29394427 -0.015648667 0.115866676
-0.110683285 0.1788567 0.22269881 0.21873692 0.21887149 -0.058978636 -0.13472137 -0.066127956
0.02045519 -0.059877515 0.019589907 -0.06845147 0.10954311 0.085693225 0.031948533 -0.10346915
-0.048141588 -0.024295134 0.08961802 0.05990303 0.14701445 -0.049804773 -0.05581792 0.1293012
0.13902517 0.060138002 -0.12590523 0.07263381 0.062372297 -0.034257427 0.12960304 0.07928257
0.08754014 0.17057501 0.22820805 0.011159935 -0.13312088 -0.055894434 0.16088872 0.011167009
-0.053855866 -0.06353194 0.101913184 0.04894746 -0.1397699 0.13979378 0.10884173 0.09001642
0.074803315 0.25328168 0.15701428 -0.25391483 -0.0133442385 -0.079441264 0.06931972 -0.07004139
-0.0743396 -0.11779258 -0.09084549 -0.03592699 0.124894336 0.17809963 -0.13572228 0.16833568
-0.076683976 0.09285281 -0.28632316 -0.007367882 -0.30472955 -0.32126653 -0.13190469 -0.10584756
0.23665878 -0.013847067 -0.17076373 0.040237404 0.040644486 0.19322358 0.02345143 0.17930922
-0.08386974 0.21190819 0.18353267 -0.06975064 -0.2547425 -0.029829592 -0.39254865 0.09273812
0.13780984 0.19025034 0.13856384 0.0021547775 -0.096158855 0.018411234 -0.059530817 -0.20050584
-0.10310894 0.25359544 -0.07211572 -0.07592411 -0.08966314 -0.012067041 -0.059218783 -0.008496238
0.16570768 0.10426336 0.23182377 -0.12526958 0.09277964 -0.22335783 -0.13723123 -0.20739938
0.09835547 0.14624272 0.05042282 -0.11527607 0.09698735 0.13128759 0.051791463 -0.14930119
0.05873707 -0.065115295 -0.23073038 0.105064385 -0.09978562 0.055381145 0.26805758 0.017884664
-0.12591353 -0.21311675 -0.17643398 0.15529549 0.0740722 -0.07993292 0.26316878 -0.03371914
0.10839115 -0.18904555 0.081871144 0.09415006 -0.19382474 -0.053172268 0.027940208 -0.04468809
0.09101793 0.042234626 -0.0068922024 0.1576857 0.071357645 -0.16192819 -0.02292287 0.11424308
-0.020856626 0.10874833 -0.27226603 -0.1504032 0.22419 -0.1595909 0.15409045 -0.24083407
0.011498697 -0.21987355 0.08297539 -0.08829476 -0.02370419 -0.00042469153 0.1883175 -0.01304639
0.059957825 0.0563219 -0.04473242 0.09023995 0.0042470284 0.025620786 0.078803375 0.11080815
0.07995782 0.20257749 0.12411012 -0.16264687 0.076412305 -0.19403791 -0.07268286 -0.2330321
00000000: 0cb2 ac3d 8c6e b4bd eff4 253e 6efd 033e
00000010: e1d7 b8bd 2bfa 22bd ce2d 9eba 1f99 89be
00000020: 2a7d 5b3d c17c 223e a4e2 183c a041 0c3e
00000030: 3dc6 94bd 1fff 203d c86b 093d 969b 64bc
00000040: 9e12 a3bd 46ce 3bbe d1f3 903d a46f 313e
00000050: cd1c 9dbc 5b8a 043d c6ae b23d 1dd7 3f3e
00000060: 02c1 30bd 6407 64be 8dd2 123d 55d7 02be
00000070: 2440 84be 1a06 953d 4e19 c33d 1e32 a4bc
00000080: 125a f83d ebd8 3ebd 781f adbd 905a a23d
00000090: 5232 b83d 00f2 7d3d 02b4 723e c0b5 933d
000000a0: 0d60 4abe 594e 00be 3e00 43be 3a4a 623d
000000b0: 12fc c73d 2b50 43be 6165 a7be f28f bb3d
000000c0: 0711 fd3d 1e01 ecbd 9e4b febc 3b80 0fbe
000000d0: 9214 15be 1692 553e 162b cbbd 1b23 a93d
000000e0: bbb8 56bd dcb9 72bd d3c5 e7bd 9d7e d83c
000000f0: 14db 0cbe 306f 3c3d 91b7 d53c a51d e53d
00000100: 3ee1 95bd dea1 18bd 2887 7bbd df66 68be
00000110: cfa8 3ebc dd7f 963e a231 80bc 824b ed3d
00000120: ebad e2bd 3626 373e 280b 643e 92fc 5f3e
00000130: d91f 603e 9593 71bd 66f4 09be 186e 87bd
00000140: a591 a73c 2042 75bd 037b a03c 4930 8cbd
00000150: 2358 e03d ee7f af3d 77dc 023d a2e7 d3bd
00000160: 1d30 45bd 9706 c7bc a789 b73d e15c 753d
00000170: f58a 163e 1700 4cbd 55a1 64bd 8967 043e
00000180: 9d5c 0e3e 4453 763d 4ded 00be 09c1 943d
00000190: 187a 7f3d 8451 0cbd a9b6 043e e65e a23d
000001a0: 3f48 b33d 37ab 2e3e 5faf 693e 29d8 363c
000001b0: d750 08be 90f1 64bd 03c0 243e d5f5 363c
000001c0: f897 5cbd 091d 82bd dcb7 d03d 227d 483d
000001d0: d71f 0fbe 1a26 0f3e 6ae8 de3d 875a b83d
000001e0: 7b32 993d 23ae 813e 5ac8 203e 2001 82be
000001f0: cba1 5abc 1ab2 a2bd 7ff7 8d3d dc71 8fbd
00000200: 5c3f 98bd 3c3d f1bd 330d babd 2e28 13bd
00000210: 9ac8 ff3d c05f 363e c8fa 0abe 3060 2c3e
00000220: 7d0c 9dbd 9d29 be3d f398 92be 466e f1bb
00000230: 8305 9cbe 0c7d a4be 0612 07be 9bc6 d8bd
00000240: ae56 723e cfde 62bc b0dc 2ebe facf 243d
00000250: d57a 263d 67dc 453e 371d c03c d69c 373e
00000260: e6c3 abbd 76fe 583e fdef 3b3e 6cd9 8ebd
00000270: 9c6d 82be 305d f4bc 23fc c8be 7ced bd3d
00000280: 061e 0d3e fcd0 423e aee3 0d3e 2b37 0d3b
00000290: efee c4bd 28d3 963c 96d6 73bd 6751 4dbe
000002a0: c82a d3bd 43d7 813e 68b1 93bd 1a7e 9bbd
000002b0: 4fa1 b7bd d7b4 45bc 658f 72bd ce33 0bbc
000002c0: 46af 293e 0788 d53d 3663 6d3e ab46 00be
000002d0: 4003 be3d eab7 64be 5886 0cbe 8160 54be
000002e0: 986e c93d a7c0 153e 2988 4e3d dc15 ecbd
000002f0: 4ea1 c63d 4170 063e 4923 543d 69e2 18be
00000300: 4896 703d 2b5b 85bd 9644 6cbe ff2b d73d
00000310: 675c ccbd 57d7 623d d83e 893e dc82 923c
00000320: 7aef 00be 473b 5abe 1cab 34be c805 1f3e
00000330: 2ab3 973d dfb3 a3bd 0fbe 863e 151d 0abd
00000340: 2efc dd3d 2895 41be 0fac a73d bfd1 c03d
00000350: fe79 46be 2acb 59bd dde2 e43c dc0a 37bd
00000360: 9c67 ba3d 37fe 2c3d fcd7 e1bb 5c78 213e
00000370: f523 923d 81d0 25be bec8 bbbc 47f8 e93d
00000380: 84db aabc 72b7 de3d 7466 8bbe 4c03 1abe
00000390: 1092 653e cc6b 23be e3c9 1d3e 359d 76be
000003a0: 0865 3c3c 8826 61be 00ef a93d e2d3 b4bd
000003b0: 4a2f c2bc 22a9 deb9 4dd6 403e 87c0 55bc
000003c0: 5696 753d cbb1 663d 5839 37bd b9cf b83d
000003d0: a82a 8b3b afe2 d13c aa63 a13d 62ef e23d
000003e0: edc0 a33d 7970 4f3e 722d fe3d e78c 26be
000003f0: 0e7e 9c3d e0b1 46be c0da 94bd f89f 6ebe

network_body._body_endoder.seq_layers.0.bias f4 [128]
0.0 0.0 0.0 0.0 0.0 0.0 0.0 0.0
0.0 0.0 0.0 0.0 0.0 0.0 0.0 0.0
0.0 0.0 0.0 0.0 0.0 0.0 0.0 0.0
0.0 0.0 0.0 0.0 0.0 0.0 0.0 0.0
0.0 0.0 0.0 0.0 0.0 0.0 0.0 0.0
0.0 0.0 0.0 0.0 0.0 0.0 0.0 0.0
0.0 0.0 0.0 0.0 0.0 0.0 0.0 0.0
0.0 0.0 0.0 0.0 0.0 0.0 0.0 0.0
0.0 0.0 0.0 0.0 0.0 0.0 0.0 0.0
0.0 0.0 0.0 0.0 0.0 0.0 0.0 0.0
0.0 0.0 0.0 0.0 0.0 0.0 0.0 0.0
0.0 0.0 0.0 0.0 0.0 0.0 0.0 0.0
0.0 0.0 0.0 0.0 0.0 0.0 0.0 0.0
0.0 0.0 0.0 0.0 0.0 0.0 0.0 0.0
0.0 0.0 0.0 0.0 0.0 0.0 0.0 0.0
0.0 0.0 0.0 0.0 0.0 0.0 0.0 0.0
00000000: 0000 0000 0000 0000 0000 0000 0000 0000
00000010: 0000 0000 0000 0000 0000 0000 0000 0000
00000020: 0000 0000 0000 0000 0000 0000 0000 0000
00000030: 0000 0000 0000 0000 0000 0000 0000 0000
00000040: 0000 0000 0000 0000 0000 0000 0000 0000
00000050: 0000 0000 0000 0000 0000 0000 0000 0000
00000060: 0000 0000 0000 0000 0000 0000 0000 0000
00000070: 0000 0000 0000 0000 0000 0000 0000 0000
00000080: 0000 0000 0000 0000 0000 0000 0000 0000
00000090: 0000 0000 0000 0000 0000 0000 0000 0000
000000a0: 0000 0000 0000 0000 0000 0000 0000 0000
000000b0: 0000 0000 0000 0000 0000 0000 0000 0000
000000c0: 0000 0000 0000 0000 0000 0000 0000 0000
000000d0: 0000 0000 0000 0000 0000 0000 0000 0000
000000e0: 0000 0000 0000 0000 0000 0000 0000 0000
000000f0: 0000 0000 0000 0000 0000 0000 0000 0000
00000100: 0000 0000 0000 0000 0000 0000 0000 0000
00000110: 0000 0000 0000 0000 0000 0000 0000 0000
00000120: 0000 0000 0000 0000 0000 0000 0000 0000
00000130: 0000 0000 0000 0000 0000 0000 0000 0000
00000140: 0000 0000 0000 0000 0000 0000 0000 0000
00000150: 0000 0000 0000 0000 0000 0000 0000 0000
00000160: 0000 0000 0000 0000 0000 0000 0000 0000
00000170: 0000 0000 0000 0000 0000 0000 0000 0000
00000180: 0000 0000 0000 0000 0000 0000 0000 0000
00000190: 0000 0000 0000 0000 0000 0000 0000 0000
000001a0: 0000 0000 0000 0000 0000 0000 0000 0000
000001b0: 0000 0000 0000 0000 0000 0000 0000 0000
000001c0: 0000 0000 0000 0000 0000 0000 0000 0000
000001d0: 0000 0000 0000 0000 0000 0000 0000 0000
000001e0: 0000 0000 0000 0000 0000 0000 0000 0000
000001f0: 0000 0000 0000 0000 0000 0000 0000 0000

network_body._body_endoder.seq_layers.2.weight f4 [128, 128]
0.10882159 0.04248765 -0.07145234 -0.1486198 0.007879909 -0.081950456 0.040633257 0.06759677
0.066703364 0.032900747 -0.01680711 0.1175779 0.13241382 -0.10936814 0.11680627 -0.03349014
0.28666955 -0.0065684333 -0.08231091 0.039777905 -0.009217308 -0.095156446 0.059585318 -0.013450091
0.045268506 -0.0040576174 -0.047418013 -0.05126538 -0.09980179 0.10755978 -0.028692152 0.04663802
0.04653714 0.0005036357 0.014992727 0.17895396 0.15065378 -0.011213406 0.043838102 -0.0052268812
0.024617732 -0.09489128 -0.09264435 -0.14914909 -0.009775108 -0.022546042 0.09758373 -0.098684676
0.19202407 -0.06473669 -0.05480001 0.037486386 0.08110024 0.04803305 0.040267915 -0.11356711
0.13933292 -0.007109755 -0.09284284 -0.020929592 0.13769571 0.120861985 0.02598609 0.14177401
0.03858592 0.08032449 -0.10512488 -0.042946156 -0.053909305 -0.042348586 0.052617483 -0.11940444
0.03181267 -0.084128626 0.16043656 -0.09440908 0.015264017 0.0012104257 -0.04819326 -0.0045600715
0.030221937 -0.026995799 0.0389256 0.017001802 -0.001059397 -0.094918504 0.071433045 0.04817594
0.14197879 0.022250233 -0.09751565 0.0891207 0.04230144 0.08082694 -0.02674194 0.10311277
-0.0005011367 0.005858402 0.08840401 0.043709774 -0.019088337 -0.11557404 -0.09721488 -0.025963092
0.025294757 -0.131484 -0.08662807 0.17210358 -0.032448005 -0.019050254 0.021817204 0.019200392
-0.11510837 0.008001376 0.1413017 0.08170463 -0.113443755 0.10181275 0.034442134 -0.009937038
-0.041731857 -0.03570943 -0.17211916 0.09790137 0.08515834 0.06741566 0.035997186 -0.09963489
0.01091705 0.02096716 0.026284372 0.020974124 -0.014578726 0.0020383405 -0.12302448 0.019055996
0.10544533 -0.032774944 -0.18104531 0.06439308 0.07789993 0.054296978 0.21315566 0.039995357
0.08687337 0.22079434 -0.031317547 -0.091462746 -0.084355965 0.07053234 -0.080956206 -0.081849314
-0.2370438 0.03772144 0.070207536 -0.03125306 0.14436457 -0.071713574 0.09444257 -0.12851422
-0.05557592 -0.022112433 -0.16413756 0.0050047855 -0.046694566 -0.0008576322 -0.24347088 0.17475788
-0.06635301 0.023500483 -0.035135183 -0.09970431 -0.034961488 0.13843629 -0.005461038 -0.11577199
0.11077709 0.008387711 0.024840012 0.062905185 0.03430333 -0.066980615 0.07517124 0.05067259
0.010310428 0.016203584 -0.14130415 0.1403489 -0.13704781 0.12259263 -0.27260247 0.081608646
0.020082023 -0.02605346 -0.10351188 -0.087573335 0.014849859 -0.06498032 0.030907884 0.0077932295
0.05595944 0.10485263 -0.088701494 -0.15815471 0.09198231 0.17918693 0.056709357 0.072188325
0.053502396 -0.14797032 0.14290626 -0.16982582 0.15148063 -0.13281403 0.054291155 0.09736015
-0.0044854577 0.0007787853 0.04230712 0.025051467 0.24131319 0.023169963 0.041625876 -0.0323252
-0.050032943 0.1413698 0.15858524 -0.052437384 -0.014188426 0.17220631 0.067847066 0.14396141
-0.035896964 0.12902434 -0.11614665 0.020785064 0.0652684 -0.0492264 -0.046078216 -0.007747863
0.014637815 -0.041793734 0.05284681 -0.019701522 0.012590606 -0.15328115 -0.011186786 -0.0019213995
-0.041909408 -0.0055348603 -0.17954959 0.15139876 0.10104519 -0.08516434 0.00057304744 -0.06544453
00000000: dbdd de3d 8807 2e3d 9b55 92bd ca2f 18be
00000010: bc1a 013c a4d5 a7bd 0f6f 263d 2d70 8a3d
00000020: c69b 883d efc2 063d 10af 89bc afcc f03d
00000030: 7d97 073e 67fc dfbd 2038 ef3d f52c 09bd
00000040: 5ac6 923e 033c d7bb 9f92 a8bd 28ee 223d
00000050: 3104 17bc 62e1 c2bd bc0f 743d c55d 5cbc
00000060: 786b 393d c3f5 84bb 6439 42bd a6fb 51bd
00000070: e264 ccbd 4d48 dc3d ce0b ebbc 8207 3f3d
00000080: ba9d 3e3d 6b06 043a 0ea4 753c b53f 373e
00000090: fc44 1a3e 6fb8 37bc 958f 333d 4246 abbb
000000a0: 20ab c93c 5c56 c2bd 52bc bdbd 8aba 18be
000000b0: c627 20bc 7ab2 b8bc fbd9 c73d 311b cabd
000000c0: f5a1 443e ab94 84bd fa75 60bd 538b 193d
000000d0: e217 a63d 4ebe 443d f8ef 243d df95 e8bd
000000e0: 4aad 0e3e f3f8 e8bb 6324 bebd 8974 abbc
000000f0: 1b00 0d3e 7d86 f73d c8e0 d43c 352d 113e
00000100: 450c 1e3d 2b81 a43d b74b d7bd 4fe8 2fbd
00000110: 01d0 5cbd b675 2dbd 6e85 573d 518a f4bd
00000120: 014e 023d a14b acbd 7b49 243e 8c59 c1bd
00000130: ed15 7a3c 26a7 9e3a 4c66 45bd a76c 95bb
00000140: ff93 f73c 4b26 ddbc 7370 1f3d 5d47 8b3c
00000150: 77db 8aba a264 c2bd 7d4b 923d 2254 453d
00000160: e362 113e 1f46 b63c 49b6 c7bd ea84 b63d
00000170: 4644 2d3d 9888 a53d ea11 dbbc ca2c d33d
00000180: b75e 03ba d6f7 bf3b 290d b53d 0509 333d
00000190: 255f 9cbc 15b2 ecbd 9818 c7bd 8db0 d4bc
000001a0: f336 cf3c bea3 06be 0f6a b1bd ec3b 303e
000001b0: 33e8 04bd 470f 9cbc feb9 b23c 244a 9d3c
000001c0: f0bd ebbd 3418 033c 65b1 103e c254 a73d
000001d0: 3355 e8bd 3483 d03d 3213 0d3d f5ce 22bc
000001e0: 06ef 2abd 0d44 12bd 0140 30be 8380 c83d
000001f0: 7f67 ae3d 3911 8a3d c971 133d 610d ccbd
00000200: 6ddd 323c 52c3 ab3c 5352 d73c edd1 ab3c
00000210: 9cdb 6ebc ae95 053b 42f4 fbbd 521b 9c3c
00000220: b9f3 d73d 053f 06bd f163 39be 85e0 833d
00000230: 008a 9f3d 8266 5e3d 7a45 5a3e 2cd2 233d
00000240: aaea b13d e917 623e d446 00bd d250 bbbd
00000250: d2c2 acbd 4273 903d 5ecc a5bd 9da0 a7bd
00000260: 9cbb 72be cc81 1a3d f8c8 8f3d 3503 00bd
00000270: 4ed4 133e 91de 92bd 1b6b c13d 3b99 03be
00000280: 93a3 63bd 2225 b5bc ad13 28be 2fff a33b
00000290: cd42 3fbd b9d2 60ba 6e50 79be bbf3 323e
000002a0: 16e4 87bd 1684 c03c e9e9 0fbd c631 ccbd
000002b0: c733 0fbd 3ec2 0d3e 82f2 b2bb dd19 edbd
000002c0: 19df e23d 9c6c 093c 487d cb3c 6fd4 803d
000002d0: a681 0c3d 222d 89bd 61f3 993d 108e 4f3d
000002e0: 12ed 283c 61bd 843c 09b2 10be 9fb7 0f3e
000002f0: 4356 0cbe d811 fb3d 8d92 8bbe 6f22 a73d
00000300: 0e83 a43c 116e d5bc 09fe d3bd a659 b3bd
00000310: d34c 733c 6714 85bd 8832 fd3c 595e ff3b
00000320: ba35 653d fabc d63d 21a9 b5bd 4ff3 21be
00000330: 3961 bc3d c77c 373e 1248 683d 79d7 933d
00000340: 5425 5b3d 8885 17be 0556 123e d2e6 2dbe
00000350: bd1d 1b3e 6700 08be 6760 5e3d c264 c73d
00000360: bffa 92bb 6627 4c3a 3b4a 2d3d bc38 cd3c
00000370: ce1a 773e efce bd3c e57f 2a3d 6e67 04bd
00000380: 58ef 4cbd 3fc3 103e 2b64 223e 95c8 56bd
00000390: 9276 68bc da56 303e 67f3 8a3d 9f6a 133e
000003a0: b208 13bd f51e 043e 4bde edbd 7045 aa3c
000003b0: 70ab 853d 9fa1 49bd 83bc 3cbd c9e1 fdbb
000003c0: 72d3 6f3c e82f 2bbd e675 583d 1665 a1bc
000003d0: d448 4e3c bcf5 1cbe c848 37bc 78d7 fbba
000003e0: 33a9 2bbd c65d b5bb d9db 37be 4708 1b3e
000003f0: c8f0 ce3d a46a aebd 9038 163a c807 86bd

network_body._body_endoder.seq_layers.2.bias f4 [128]
0.0 0.0 0.0 0.0 0.0 0.0 0.0 0.0
0.0 0.0 0.0 0.0 0.0 0.0 0.0 0.0
0.0 0.0 0.0 0.0 0.0 0.0 0.0 0.0
0.0 0.0 0.0 0.0 0.0 0.0 0.0 0.0
0.0 0.0 0.0 0.0 0.0 0.0 0.0 0.0
0.0 0.0 0.0 0.0 0.0 0.0 0.0 0.0
0.0 0.0 0.0 0.0 0.0 0.0 0.0 0.0
0.0 0.0 0.0 0.0 0.0 0.0 0.0 0.0
0.0 0.0 0.0 0.0 0.0 0.0 0.0 0.0
0.0 0.0 0.0 0.0 0.0 0.0 0.0 0.0
0.0 0.0 0.0 0.0 0.0 0.0 0.0 0.0
0.0 0.0 0.0 0.0 0.0 0.0 0.0 0.0
0.0 0.0 0.0 0.0 0.0 0.0 0.0 0.0
0.0 0.0 0.0 0.0 0.0 0.0 0.0 0.0
0.0 0.0 0.0 0.0 0.0 0.0 0.0 0.0
0.0 0.0 0.0 0.0 0.0 0.0 0.0 0.0
00000000: 0000 0000 0000 0000 0000 0000 0000 0000
00000010: 0000 0000 0000 0000 0000 0000 0000 0000
00000020: 0000 0000 0000 0000 0000 0000 0000 0000
00000030: 0000 0000 0000 0000 0000 0000 0000 0000
00000040: 0000 0000 0000 0000 0000 0000 0000 0000
00000050: 0000 0000 0000 0000 0000 0000 0000 0000
00000060: 0000 0000 0000 0000 0000 0000 0000 0000
00000070: 0000 0000 0000 0000 0000 0000 0000 0000
00000080: 0000 0000 0000 0000 0000 0000 0000 0000
00000090: 0000 0000 0000 0000 0000 0000 0000 0000
000000a0: 0000 0000 0000 0000 0000 0000 0000 0000
000000b0: 0000 0000 0000 0000 0000 0000 0000 0000
000000c0: 0000 0000 0000 0000 0000 0000 0000 0000
000000d0: 0000 0000 0000 0000 0000 0000 0000 0000
000000e0: 0000 0000 0000 0000 0000 0000 0000 0000
000000f0: 0000 0000 0000 0000 0000 0000 0000 0000
00000100: 0000 0000 0000 0000 0000 0000 0000 0000
00000110: 0000 0000 0000 0000 0000 0000 0000 0000
00000120: 0000 0000 0000 0000 0000 0000 0000 0000
00000130: 0000 0000 0000 0000 0000 0000 0000 0000
00000140: 0000 0000 0000 0000 0000 0000 0000 0000
00000150: 0000 0000 0000 0000 0000 0000 0000 0000
00000160: 0000 0000 0000 0000 0000 0000 0000 0000
00000170: 0000 0000 0000 0000 0000 0000 0000 0000
00000180: 0000 0000 0000 0000 0000 0000 0000 0000
00000190: 0000 0000 0000 0000 0000 0000 0000 0000
000001a0: 0000 0000 0000 0000 0000 0000 0000 0000
000001b0: 0000 0000 0000 0000 0000 0000 0000 0000
000001c0: 0000 0000 0000 0000 0000 0000 0000 0000
000001d0: 0000 0000 0000 0000 0000 0000 0000 0000
000001e0: 0000 0000 0000 0000 0000 0000 0000 0000
000001f0: 0000 0000 0000 0000 0000 0000 0000 0000

action_model._discrete_distribution.branches.0.weight f4 [2, 128]
0.0069966274 -0.007612381 0.0006636433 -0.009511724 -0.015113624 0.0008441422 -0.017567929 -0.0033699311
-0.0013342367 -0.010310813 -0.0034891793 -0.009809025 0.005936517 0.013381339 -0.00047906092 -0.0129338
-0.015576619 0.013093104 0.009524897 0.0170041 -0.012063956 -0.004244945 0.0033740848 0.00067716924
0.0005826556 0.007173158 0.0011807836 -0.009519733 0.021101026 0.009286335 0.0092424825 -0.0038939042
-0.011621283 -2.5129284e-05 -0.0007536639 0.00090616365 0.019267006 0.011161677 0.0012653939 -0.00423845
-0.00029987743 0.0113432985 -0.0022802164 -0.008187844 0.0028517137 -0.003846616 -0.0035855758 -0.010590145
-0.0015014604 -0.006045859 -0.005852537 -0.0077242777 -0.002289161 -0.0023157534 -0.0035809677 -0.0065276953
-0.006148077 0.0005076706 0.0090560205 -0.008637554 -0.016109144 0.015177566 0.001068135 -0.0007908681
0.017306998 0.008260291 -0.008032295 -0.015726348 0.006522335 0.010567456 0.0071878205 -0.008885938
0.006383916 -0.012730733 0.0061622667 0.004649106 -0.0033833382 -0.0010910415 0.004069813 -0.00075259357
-0.007194036 0.0060902466 -0.008897177 0.012861689 0.00046866084 -0.016157163 -0.0076717646 0.009963067
-0.011431201 -0.008305757 -0.0005150667 0.001562191 0.016198337 0.014299954 0.007220509 -0.0043539307
0.019636879 -0.0008884727 0.0041589034 -0.004002088 -0.0030280475 -0.013283886 -0.002963807 -0.010738404
-0.00044354104 -0.009460622 -0.01774327 -0.008956709 -0.00871139 0.001675413 -0.007841094 -0.010611676
0.005659011 0.0015564292 0.001588148 0.003918608 0.0061041573 0.0060391915 -0.0033338857 -0.006317577
-0.009142888 0.015550847 -0.010448027 0.006418377 -0.0075094746 -0.0058573605 -0.00738828 0.012865126
0.013105421 -0.006843315 -0.009334884 -0.007883965 -0.0009779474 -0.00081250345 -0.013885646 -0.00029807579
-0.0061265687 0.014958176 0.0040516034 0.010176883 -0.012389432 -0.00762302 -0.02159748 -0.020566879
-0.0005608193 0.009901236 0.009588196 0.0027473585 0.012492301 0.00089596113 -0.004049092 0.0033132453
-0.005959384 0.0009114272 -0.008396446 0.0017836038 0.000759253 0.01071923 -0.0019198811 0.012434143
-0.0002371001 0.0034723287 -0.0045832205 -0.010424874 -0.0071469815 0.01156043 0.007725203 -0.0031441802
0.00033913198 -0.02290159 -0.013458498 0.004280753 0.001134643 -0.0011156093 -0.0022934866 0.0001342473
-0.010514099 -0.005504356 -0.008602682 -0.010002189 -0.00016354199 0.009062711 -0.0004147503 -0.012390459
0.00604696 -0.0066653625 0.0091000665 0.0029377246 -0.018060941 -0.006212846 0.009764474 0.0013223256
0.0020590925 0.008261729 -0.009394686 0.017054804 -0.0032794562 -0.0044755903 0.014432472 0.018296508
-0.008601815 -0.0073954137 0.009694302 -0.005106641 0.007827851 0.008964327 0.00092319073 -0.002158085
-0.013383794 -0.0044619306 0.010766257 0.005483377 0.015499859 0.004397623 -0.0023489918 0.0048766416
-0.009920733 -0.003958702 0.006606895 0.009422874 0.009746283 0.01290594 -3.4578967e-05 -0.0030817986
0.0035389399 0.0070305727 -0.00072023226 0.0022764213 -0.0012343297 0.003418166 0.0016131261 -0.0057182624
0.00883794 0.004656937 0.015004948 -0.0046481574 -0.009704036 -0.00979415 -0.0008195012 0.010844154
0.004773705 -0.010206043 -0.001665232 -0.013702342 -0.0025245477 -0.012392761 -0.003921509 -0.010848134
0.0032471304 -0.0005878819 0.014819867 -0.013417206 -0.0041133575 -0.009819002 0.0022599986 4.855382e-05
00000000: f743 e53b 4871 f9bb 59f8 2d3a 10d7 1bbc
00000010: 229f 77bc 6d49 5d3a 9eea 8fbc 10da 5cbb
00000020: 8ee1 aeba afee 28bc b7aa 64bb 08b6 20bc
00000030: 1d87 c23b 673d 5b3c 782a fbb9 4ae8 53bc
00000040: 1335 7fbc 7584 563c 500e 1c3c 2f4c 8b3c
00000050: e6a7 45bc 2e19 8bbb c01f 5d3b 0f84 313a
00000060: 5bbd 183a d00c eb3b 86c4 9a3a a7f8 1bbc
00000070: 0fdc ac3c b625 183c c86d 173c df30 7fbb
00000080: 3267 3ebc bacc d2b7 8791 45ba 9d8b 6d3a
00000090: d7d5 9d3c 77df 363c 93db a53a b2e2 8abb
000000a0: de38 9db9 3ed9 393c af6f 15bb 4f26 06bc
000000b0: d1e3 3a3b 8217 7cbb fbfb 6abb 4a82 2dbc
000000c0: a7cc c4ba 571c c6bb a4c6 bfbb f01b fdbb
000000d0: c005 16bb e5c3 17bb abae 6abb 47e6 d5bb
000000e0: cf75 c9bb 3215 053a b45f 143c 8784 0dbc
000000f0: 53f7 83bc 53ab 783c aa00 8c3a 4252 4fba
00000100: 68c7 8d3c 2c56 073c e399 03bc 8bd4 80bc
00000110: 50b9 d53b 1f23 2d3c cf87 eb3b 5396 11bc
00000120: 2b30 d13b 9094 50bc d7ec c93b 8757 983b
00000130: ffba 5dbb 4701 8fba 115c 853b b349 45ba
00000140: f3bb ebbb b190 c73b 77c5 11bc d5b9 523c
00000150: 98b6 f539 075c 84bc 6d63 fbbb 223c 233c
00000160: ef49 3bbc df14 08bc 8b05 07ba 6fc2 cc3a
00000170: 60b2 843c 5b4a 6a3c 059a ec3b 6bab 8ebb
00000180: 85dd a03c 65e8 68ba 6947 883b f323 83bb
00000190: 3572 46bb a8a4 59bc 6e3c 42bb 21f0 2fbc
000001a0: 128b e8b9 ba00 1bbc 565a 91bc 29bf 12bc
000001b0: 38ba 0ebc 8899 db3a ef77 00bc 98dc 2dbc
000001c0: 3a6f b93b 1901 cc3a 6729 d03a ab67 803b
000001d0: 6205 c83b 69e4 c53b 527d 5abb ad03 cfbb
000001e0: 0dcc 15bc fbc8 7e3c 342e 2bbc 4051 d23b
000001f0: 0a12 f6bb 1aef bfbb 6219 f2bb 40c8 523c
00000200: 1fb8 563c e33d e0bb 57f1 18bc bf2b 01bc
00000210: 782e 80ba 2ffe 54ba 9f80 63bc 0e47 9cb9
00000220: 62c1 c8bb 2313 753c 50c3 843b f1bc 263c
00000230: 0bfd 4abc 87ca f9bb 33ed b0bc df7b a8bc
00000240: f203 13ba cb38 223c cf17 1d3c 070d 343b
00000250: 82ac 4c3c efde 6a3a 3fae 84bb 0823 593b
00000260: f046 c3bb d8ec 6e3a 3f91 09bc d0c7 e93a
00000270: 9b08 473a b69f 2f3c 85a4 fbba 93b8 4b3c
00000280: 139e 78b9 0290 633b d72e 96bb 17cd 2abc
00000290: 3a31 eabb f567 3d3c b323 fd3b 970e 4ebb
000002a0: 86cd b139 1e9c bbbc 0881 5cbc 8f45 8c3b
000002b0: 4db8 943a a339 92ba 524e 16bb bcc4 0c39
000002c0: 5443 2cbc e35d b4bb 43f2 0cbc 39e0 23bc
000002d0: 787c 2bb9 c47b 143c d872 d9b9 5a01 4bbc
000002e0: 9425 c63b 1d69 dabb 7218 153c d786 403b
000002f0: 8af4 93bc 2195 cbbb 2cfb 1f3c e251 ad3a
00000300: d7f1 063b 345c 073c 2bec 19bc 84b6 8b3c
00000310: 25ec 56bb f9a7 92bb 2d76 6c3c 8fe2 953c
00000320: a1ee 0cbc 3a55 f2bb dad4 1e3c 9c55 a7bb
00000330: 6340 003c 1ddf 123c 4802 723a a86e 0dbb
00000340: b347 5bbc 6335 92bb f464 303c e6ad b33b
00000350: 1ff3 7d3c ef19 903b 8bf1 19bb 3ccc 9f3b
00000360: 928a 22bc 00b8 81bb a77e d83b 6662 1a3c
00000370: e0ae 1f3c 7073 533c e208 11b8 00f8 49bb
00000380: 8fed 673b b860 e63b f8cd 3cba 0330 153b
00000390: 3bc9 a1ba 4f03 603b 886f d33a 4360 bbbb
000003a0: 02cd 103c 3899 983b 50d7 753c 924f 98bb
000003b0: adfd 1ebc a477 20bc cbd3 56ba aeab 313c
000003c0: bd6c 9c3b 3f37 27bc ea43 daba ca7f 60bc
000003d0: e272 25bb 020b 4bbc 0080 80bb 5fbc 31bc
000003e0: cfcd 543b 161c 1aba 07cf 723c d7d3 5bbc
000003f0: 58c9 86bb e1df 20bc 7c1c 143b 44a6 4b38

action_model._discrete_distribution.branches.0.bias f4 [2]
0.0 0.0
00000000: 0000 0000 0000 0000

network_body._body_endoder.seq_layers.0.weight f4 [128, 66]
0.05188032 -0.090439335 -0.075907744 0.09289052 -0.15502515 -0.12660149 -0.14352089 0.005169654
-0.090063184 -0.08818413 -0.10519931 0.07580378 -0.059356906 -0.14247894 0.1455984 0.18888274
-0.15267123 0.017767144 -0.18710107 0.12074635 0.16973081 0.024124807 -0.10503083 0.16120587
0.15105641 0.23242936 0.14104114 0.07963437 0.0667014 4.1505074e-05 -0.17021134 0.15280041
0.023366058 0.025683053 -0.07634364 0.020821236 0.15163991 0.06490924 0.08044935 0.1254723
-0.05728553 0.10967594 0.047158718 -0.024725182 -0.08758166 -0.07822109 -0.05977101 -0.04597214
0.09187496 0.13331324 0.09252269 0.14335771 0.099387035 -0.018654518 0.15955213 -0.1296128
-0.14248832 0.027752569 0.22466974 -0.12029908 -0.36077207 0.07977404 -0.22665976 0.009986554
-0.10417518 -0.027119251 -0.03752372 -0.013383545 0.16725251 -0.0804463 -0.021746067 -0.16386096
0.0042202827 -0.05976203 -0.06604105 0.067228295 -0.058594678 0.0716007 -0.17788336 0.055399604
0.28085405 -0.07574347 -0.07925852 -0.2870609 -0.14285403 0.1632866 -0.06760272 0.05735561
0.14842106 -0.15225032 -0.10760617 -0.1456922 -0.23952967 -0.1860975 0.11231495 0.25792587
-0.06602127 -0.036745865 -0.044923503 0.18102457 -0.064009674 -0.07065245 -0.038653143 -0.1274141
0.10928706 0.17181806 -0.012479414 -0.32337973 -0.035914935 -0.12861161 -0.043738812 -0.21539989
-0.25005686 -0.18784466 0.05619654 0.10793283 0.028403563 0.19060731 -0.21112095 0.19086576
-0.076544754 0.07801334 -0.10656343 -0.09609659 0.035639703 0.024069179 0.04226787 -0.0037722196
0.12225819 -0.011488917 0.0601974 0.21214749 0.037361532 0.17905253 -0.039336093 0.14159006
-0.057913363 -0.092697084 -0.04382078 -0.043046497 0.020791229 0.13388266 -0.013603234 0.008552815
0.057234123 0.06847315 -0.071122974 0.105798975 -0.23028249 0.016174002 -0.20709231 0.10688806
0.021516813 -0.07685765 0.13882567 -0.052567642 -0.035848886 -0.035228994 -0.0075987545 -0.31570137
-0.022911612 0.10266559 -0.0020442228 -0.10355979 0.0022605816 -0.0021795153 0.16478203 0.096018575
0.21066052 0.27150756 -0.084796496 -0.024581863 -0.054540128 -0.066672325 0.02496578 0.17536922
0.021919211 0.12587291 0.02803831 -0.09693319 -0.02640577 -0.0097660115 0.07987236 0.21194503
-0.0020818405 -0.14377102 -0.044287894 0.13135953 0.033608783 0.07094717 0.107796825 -0.029931474
-0.15554892 0.051298853 -0.029952101 0.05508095 -0.17352512 0.20638865 -0.19883162 0.23630619
0.041599635 0.20263219 -0.066982284 0.038468763 0.09581762 0.010668929 0.13900986 0.0009980121
0.09179122 -0.080842234 -0.10935791 -0.028545432 0.10909957 -0.07165437 0.06182893 -0.01785771
-0.026516132 -0.07779543 -0.022548942 -0.04919228 -0.16213112 0.089434534 0.07767222 -0.024768973
-0.12254123 0.07117868 0.06186103 0.19560741 -0.08076774 0.123695 0.004437748 0.046852507
0.21095444 0.029274113 -0.14387551 -0.13478766 -0.091764726 0.18803121 0.055061217 -0.012679009
-0.1606308 -0.08488316 -0.018731307 -0.010537908 -0.1406751 0.062140774 -0.03477123 -0.0668796
-0.033783503 -0.008780721 -0.10361515 -0.010957079 0.012105107 -0.12307072 0.049176127 -0.24489398
00000000: 7580 543d 4238 b9bd 8575 9bbd 633d be3d
00000010: eabe 1ebe d2a3 01be 24f7 12be 3366 a93b
00000020: 0c73 b8bd e299 b4bd bc72 d7bd 033f 9b3d
00000030: 3a20 73bd 00e6 11be bf17 153e 7a6a 413e
00000040: d955 1cbe 678c 913c 6c97 3fbe dd49 f73d
00000050: eacd 2d3e 63a1 c53c 671a d7bd 2713 253e
00000060: 88ae 1a3e f601 6e3e 176d 103e 5817 a33d
00000070: be9a 883d bc15 2e38 e24b 2ebe b677 1c3e
00000080: 2d6a bf3c 4465 d23c 0e5a 9cbd 4c91 aa3c
00000090: 7e47 1b3e 23ef 843d a1c2 a43d d07b 003e
000000a0: 3ba4 6abd c79d e03d 8029 413d 778c cabc
000000b0: 035e b3bd 6132 a0bd 72d2 74bd 484d 3cbd
000000c0: f028 bc3d 4483 083e 897c bd3d 5dcc 123e
000000d0: 6e8b cb3d 5cd1 98bc a261 233e 38b9 04be
000000e0: 75e8 11be 5b59 e33c d30f 663e 5d5f f6bd
000000f0: 1eb7 b8be 9260 a33d 7f19 68be a59e 233c
00000100: cc59 d5bd 3129 debc 79b2 19bd a846 5bbc
00000110: 3e44 2b3e 08c1 a4bd cf24 b2bc 2bcb 27be
00000120: 4c4a 8a3b 08c9 74bd 8840 87bd fdae 893d
00000130: f900 70bd 63a3 923d 0e27 36be b2ea 623d
00000140: 1acc 8f3e 641f 9bbd 4a52 a2bd a5f9 92be
00000150: 5448 12be 9a34 273e 4b73 8abd b7ed 6a3d
00000160: b1fb 173e 82e7 1bbe a060 dcbd 5630 15be
00000170: 4447 75be 5890 3ebe 6105 e63d dc0e 843e
00000180: 2936 87bd d582 16bd b501 38bd 815e 393e
00000190: 8117 83bd 3bb2 90bd c252 1ebd d878 02be
000001a0: e5d1 df3d 13f1 2f3e 7576 4cbc 0792 a5be
000001b0: 8a1b 13bd c3b2 03be 7827 33bd ca91 5cbe
000001c0: 7407 80be 5a5a 40be 582e 663d e30b dd3d
000001d0: 97ae e83c 902e 433e 1730 58be 5072 433e
000001e0: 7fc3 9cbd 75c5 9f3d ed3d dabd 4ace c4bd
000001f0: f0fa 113d ba2c c53c 1321 2d3d 5837 77bb
00000200: 8062 fa3d 033c 3cbc 8d91 763d 313d 593e
00000210: 6808 193d 8c59 373e e21e 21bd fcfc 103e
00000220: 9036 6dbd f8d7 bdbd 6b7d 33bd 8651 30bd
00000230: 5e52 aa3c 8918 093e 19e0 5ebc 1b21 0c3c
00000240: 546e 6a3d a73b 8c3d eca8 91bd 22ad d83d
00000250: 2ccf 6bbe 577f 843c 0210 54be 21e8 da3d
00000260: 0744 b03c 8b67 9dbd 5128 0e3e 2b51 57bd
00000270: 48d6 12bd 474c 10bd f9fe f8bb 9ca3 a1be
00000280: 22b1 bbbc 5642 d23d 5ef8 05bb 2817 d4bd
00000290: 4426 143b 33d6 0ebb 9fbc 283e 63a5 c43d
000002a0: 64b7 573e 0a03 8b3e c9a9 adbd e75f c9bc
000002b0: 7865 5fbd 808b 88bd 0985 cc3c fd93 333e
000002c0: eb8f b33c d4e4 003e 99b0 e53c e984 c6bd
000002d0: ea50 d8bc 9f01 20bc 1f94 a33d 1e08 593e
000002e0: 7d6f 08bb b638 13be 3967 35bd 1d83 063e
000002f0: 5da9 093d c04c 913d 95c4 dc3d da32 f5bc
00000300: 3748 1fbe bf1e 523d 1c5e f5bc 909c 613d
00000310: 92b0 31be 8c57 533e 849a 4bbe 40fa 713e
00000320: 6164 2a3d d07e 4f3e 022e 89bd 6c91 1d3d
00000330: 073c c43d bbcc 2e3c 9a58 0e3e bbcf 823a
00000340: 09fd bb3d 9d90 a5bd 0af7 dfbd 1cd8 e9bc
00000350: 986f df3d 87bf 92bd 5540 7d3d 554a 92bc
00000360: 5c38 d9bc 3653 9fbd 8fb8 b8bc d87d 49bd
00000370: b305 26be 7429 b73d 9d12 9f3d 4de8 cabc
00000380: e5f6 fabd 21c6 913d fe61 7d3d 4f4d 483e
00000390: 8f69 a5bd ce53 fd3d 876a 913b 6ae8 3f3d
000003a0: 7104 583e 44d0 ef3c 1a54 13be c705 0abe
000003b0: 25ef bbbd 418b 403e df87 613d 9ebb 4fbc
000003c0: 677c 24be 39d7 adbd 6672 99bc 31a7 2cbc
000003d0: 220d 10be 5387 7e3d 476c 0ebd 2cf8 88bd
000003e0: 9260 0abd 03dd 0fbc 2e34 d4bd 5285 33bc
000003f0: 8054 463c 800c fcbd e86c 493d 7dc5 7abe

network_body._body_endoder.seq_layers.0.bias f4 [128]
0.0 0.0 0.0 0.0 0.0 0.0 0.0 0.0
0.0 0.0 0.0 0.0 0.0 0.0 0.0 0.0
0.0 0.0 0.0 0.0 0.0 0.0 0.0 0.0
0.0 0.0 0.0 0.0 0.0 0.0 0.0 0.0
0.0 0.0 0.0 0.0 0.0 0.0 0.0 0.0
0.0 0.0 0.0 0.0 0.0 0.0 0.0 0.0
0.0 0.0 0.0 0.0 0.0 0.0 0.0 0.0
0.0 0.0 0.0 0.0 0.0 0.0 0.0 0.0
0.0 0.0 0.0 0.0 0.0 0.0 0.0 0.0
0.0 0.0 0.0 0.0 0.0 0.0 0.0 0.0
0.0 0.0 0.0 0.0 0.0 0.0 0.0 0.0
0.0 0.0 0.0 0.0 0.0 0.0 0.0 0.0
0.0 0.0 0.0 0.0 0.0 0.0 0.0 0.0
0.0 0.0 0.0 0.0 0.0 0.0 0.0 0.0
0.0 0.0 0.0 0.0 0.0 0.0 0.0 0.0
0.0 0.0 0.0 0.0 0.0 0.0 0.0 0.0
00000000: 0000 0000 0000 0000 0000 0000 0000 0000
00000010: 0000 0000 0000 0000 0000 0000 0000 0000
00000020: 0000 0000 0000 0000 0000 0000 0000 0000
00000030: 0000 0000 0000 0000 0000 0000 0000 0000
00000040: 0000 0000 0000 0000 0000 0000 0000 0000
00000050: 0000 0000 0000 0000 0000 0000 0000 0000
00000060: 0000 0000 0000 0000 0000 0000 0000 0000
00000070: 0000 0000 0000 0000 0000 0000 0000 0000
00000080: 0000 0000 0000 0000 0000 0000 0000 0000
00000090: 0000 0000 0000 0000 0000 0000 0000 0000
000000a0: 0000 0000 0000 0000 0000 0000 0000 0000
000000b0: 0000 0000 0000 0000 0000 0000 0000 0000
000000c0: 0000 0000 0000 0000 0000 0000 0000 0000
000000d0: 0000 0000 0000 0000 0000 0000 0000 0000
000000e0: 0000 0000 0000 0000 0000 0000 0000 0000
000000f0: 0000 0000 0000 0000 0000 0000 0000 0000
00000100: 0000 0000 0000 0000 0000 0000 0000 0000
00000110: 0000 0000 0000 0000 0000 0000 0000 0000
00000120: 0000 0000 0000 0000 0000 0000 0000 0000
00000130: 0000 0000 0000 0000 0000 0000 0000 0000
00000140: 0000 0000 0000 0000 0000 0000 0000 0000
00000150: 0000 0000 0000 0000 0000 0000 0000 0000
00000160: 0000 0000 0000 0000 0000 0000 0000 0000
00000170: 0000 0000 0000 0000 0000 0000 0000 0000
00000180: 0000 0000 0000 0000 0000 0000 0000 0000
00000190: 0000 0000 0000 0000 0000 0000 0000 0000
000001a0: 0000 0000 0000 0000 0000 0000 0000 0000
000001b0: 0000 0000 0000 0000 0000 0000 0000 0000
000001c0: 0000 0000 0000 0000 0000 0000 0000 0000
000001d0: 0000 0000 0000 0000 0000 0000 0000 0000
000001e0: 0000 0000 0000 0000 0000 0000 0000 0000
000001f0: 0000 0000 0000 0000 0000 0000 0000 0000

network_body._body_endoder.seq_layers.2.weight f4 [128, 128]
-0.056071196 0.1024575 0.02183278 0.07127688 -0.027785502 -0.14909059 0.033317126 0.22125328
-0.0074876337 -0.04478236 0.0020103606 -0.10241159 -0.12647384 0.03190129 -0.007285801 0.1978005
0.056396708 -0.12357208 -0.009845072 -0.17037794 0.066746786 0.14064462 -0.005033674 0.11862823
0.16740634 0.023471242 0.004682883 0.06169033 -0.013749041 0.033495635 -0.010577724 -0.06459706
0.14661312 0.0003948293 -0.12706536 0.058517653 0.10932805 -0.04774988 0.13994536 -0.15000062
0.06633748 -0.011653071 -0.10663456 -0.04707588 0.0094068935 -0.004730139 -0.028829722 0.09040631
-0.09880478 0.10916331 0.026601493 -0.114949346 -0.156086 -0.030913398 -0.12215524 0.017979084
-0.04923806 -0.036024224 0.057466473 0.079623036 0.0120513495 0.00391796 -0.009453157 0.30694303
0.14214826 0.0013392487 -0.08562389 -0.12256904 -0.08541272 -0.15317221 0.038032655 -0.034352403
-0.14630286 -0.1317698 0.0133878505 -0.038405806 -0.09209197 -0.13382767 -0.044137724 -0.017324759
0.15176053 0.08047242 0.05743012 -0.03419891 0.06725169 -0.0060656797 0.062695086 -0.1684265
-0.064476125 -0.018986987 0.07372941 0.07592218 0.07522164 -0.13453831 -0.011053356 -0.27598393
0.087612495 0.16144094 -0.061073713 -0.0056883954 0.014686432 0.083066724 0.049117327 0.104790784
0.1332738 0.040631693 -0.11019871 -0.007969712 0.10774304 -0.09918158 -0.08257767 -0.13541305
-0.15036193 -0.11899143 0.016454902 -0.09141079 0.13177197 0.109620325 -0.07642453 0.18031506
-0.09270783 0.06548342 0.08069141 0.057372425 -0.06430754 -0.034918033 -0.0643828 0.12142291
-0.051290702 0.07880289 -0.021039207 -0.0034208647 -0.005081703 -0.043160286 0.16538222 0.016797654
0.051034875 0.019381665 0.08421256 0.0907736 -0.059816375 0.11905122 0.01605284 -0.10733265
-0.017929727 -0.03268678 -0.029500833 -0.15419988 0.022656007 -0.0643158 0.08036143 0.1058322
-0.01752518 0.15697971 0.2405534 0.10104569 0.04606828 -0.024745556 0.07966088 0.030682413
0.067422055 -0.17527989 0.10618511 -0.06857963 -0.07039226 0.1717134 0.10793305 0.11327678
0.14070165 -0.06222327 -0.016830068 -0.07089314 0.05656455 0.090365894 -0.042184245 -0.0051078103
-0.03073889 -0.107606985 0.091964886 0.0675023 -0.024962114 -0.17486185 0.1116919 0.045344677
0.067559876 0.0014948385 0.09246859 0.036830347 -0.005205656 0.043486282 -0.08054019 0.2190642
0.04341008 -0.07219524 -0.15459056 0.26781332 -0.001159228 0.037584882 -0.08818269 0.104109794
0.16021936 0.043969225 0.09177626 0.05334878 -0.14851764 0.0389568 0.10512781 0.0039819293
-0.122954875 -0.053572964 -0.008892883 0.019692898 -0.060912922 -0.06342914 -0.123987816 -0.008485416
0.044527665 0.13175131 -0.11064463 -0.0038115166 0.033286087 0.17130564 -0.08824479 0.19537011
-0.016519342 0.05775325 0.0034371705 -0.045952354 0.06084573 -0.020804968 -0.120505214 -0.09018392
0.033862766 -0.062208705 -0.04755346 0.0857959 0.018137654 0.15533714 -0.021506943 0.10541359
-0.23207808 -0.058717556 0.09697602 -0.065301284 0.096180655 0.013258483 -0.13890684 0.0874137
0.062864535 0.07252605 0.15121566 0.026893526 0.1610802 0.10382133 -0.10520174 -0.019611474
00000000: e9aa 65bd 3dd5 d13d a9da b23c 9df9 913d
00000010: 6c9e e3bc 34ab 18be 8a77 083d 3890 623e
00000020: d35a f5bb b56d 37bd 41c0 033b 2bbd d1bd
00000030: 5c82 01be edaa 023d bbbd eebb 378c 4a3e
00000040: 3c00 673d 5c13 fdbd 3a4d 21bc 8e77 2ebe
00000050: 8ab2 883d 2505 103e 85f1 a4bb 5cf3 f23d
00000060: 916c 2b3e c346 c03c df72 993b 00af 7c3d
00000070: a843 61bc b832 093d 314e 2dbc 774b 84bd
00000080: c021 163e 1701 cf39 6c1d 02be 35b0 6f3d
00000090: 62e7 df3d 6195 43bd d64d 0f3e c399 19be
000000a0: f2db 873d 86ec 3ebc 3863 dabd a3d2 40bd
000000b0: 5f1f 1a3c 48ff 9abb 4f2c ecbc f226 b93d
000000c0: 295a cabd 0391 df3d 60eb d93c 906a ebbd
000000d0: 02d5 1fbe 183e fdbc 872c fabd df48 933c
000000e0: d9ad 49bd 238e 13bd f761 6b3d 6711 a33d
000000f0: 0673 453c 3b62 803b 6ae1 1abc a327 9d3e
00000100: 508f 113e bb89 af3a 945b afbd 7a05 fbbd
00000110: ddec aebd 2dd9 1cbe 21c8 1b3d 1bb5 0cbd
00000120: 6bd0 15be aaee 06be b758 5b3c 684f 1dbd
00000130: b79a bcbd 1f0a 09be c2c9 34bd a7ec 8dbc
00000140: 1d67 1b3e b9ce a43d d83b 6b3d 2814 0cbd
00000150: 41bb 893d 9cc2 c6bb 4866 803d ff77 2cbe
00000160: 0f0c 84bd 998a 9bbc 72ff 963d 177d 9b3d
00000170: ce0d 9a3d 69c4 09be 2319 35bc c44d 8dbe
00000180: 2e6e b33d c650 253e 6e28 7abd b865 babb
00000190: 5c9f 703c e31e aa3d 402f 493d 8d9c d63d
000001a0: ed78 083e 6b6d 263d dcaf e1bd 6593 02bc
000001b0: 62a8 dc3d b61f cbbd 7b1e a9bd b8a9 0abe
000001c0: 7af8 19be c7b1 f3bd 6ecc 863c 9535 bbbd
000001d0: 3bef 063e 9f80 e03d 7784 9cbd 83a4 383e
000001e0: 9add bdbd 2c1c 863d 8a41 a53d 59ff 6a3d
000001f0: acb3 83bd 3606 0fbd 21db 83bd 93ac f83d
00000200: 3316 52bd 6963 a13d 6a5a acbc 9630 60bb
00000210: 6a84 a6bb d7c8 30bd f559 293e 3c9b 893c
00000220: f209 513d 4cc6 9e3c a277 ac3d 82e7 b93d
00000230: 0402 75bd 20d1 f33d 3f81 833c 38d1 dbbd
00000240: 5de1 92bc 93e2 05bd bbab f1bc 93e6 1dbe
00000250: 1799 b93c 01b8 83bd 8994 a43d 8dbe d83d
00000260: f790 8fbc 4abf 203e a153 763e 0bf1 ce3d
00000270: 18b2 3c3d 31b7 cabc 3e25 a33d af59 fb3c
00000280: 9314 8a3d 927c 33be 9477 d93d 7a73 8cbd
00000290: d129 90bd a3d5 2f3e 010c dd3d a8fd e73d
000002a0: 1814 103e d4dd 7ebd 36df 89bc 6c30 91bd
000002b0: 3bb0 673d c111 b93d 63c9 2cbd 6b5f a7bb
000002c0: 20d0 fbbc 0d61 dcbd 1658 bc3d a53e 8a3d
000002d0: 597d ccbc fc0e 33be b9be e43d 57bb 393d
000002e0: d55c 8a3d 75ee c33a 2c60 bd3d 6bdb 163d
000002f0: 3594 aabb ac1e 323d 41f2 a4bd 5e52 603e
00000300: c5ce 313d 19db 93bd fd4c 1ebe d41e 893e
00000310: 3df1 97ba 9bf2 193d 2099 b4bd 8437 d53d
00000320: 8b10 243e 1319 343d 31f5 bb3d 4084 5a3d
00000330: 0215 18be 2a91 1f3d 404d d73d d87a 823b
00000340: c4cf fbbd 536f 5bbd 74b3 11bc 0053 a13c
00000350: d47f 79bd 23e7 81bd 53ed fdbd 6a06 0bbc
00000360: a462 363d d1e9 063e a799 e2bd a3ca 79bb
00000370: fe56 083d bf6a 2f3e afb9 b4bd 1a0f 483e
00000380: 9253 87bc ac8e 6c3d 2742 613b 8938 3cbd
00000390: 5f39 793d 2e6f aabc 70cb f6bd 59b2 b8bd
000003a0: afb3 0a3d 8ece 7ebd 6bc7 42bd c3b5 af3d
000003b0: 6b95 943c b310 1f3e 542f b0bc 15e3 d73d
000003c0: e0a5 6dbe d281 70bd 5d9b c63d aebc 85bd
000003d0: 5dfa c43d 1c3a 593c 983d 0ebe f405 b33d
000003e0: 1fbf 803d 8a88 943d 47d8 1a3e d04f dc3c
000003f0: 35f2 243e 47a0 d43d 0374 d7bd 3ea8 a0bc

network_body._body_endoder.seq_layers.2.bias f4 [128]
0.0 0.0 0.0 0.0 0.0 0.0 0.0 0.0
0.0 0.0 0.0 0.0 0.0 0.0 0.0 0.0
0.0 0.0 0.0 0.0 0.0 0.0 0.0 0.0
0.0 0.0 0.0 0.0 0.0 0.0 0.0 0.0
0.0 0.0 0.0 0.0 0.0 0.0 0.0 0.0
0.0 0.0 0.0 0.0 0.0 0.0 0.0 0.0
0.0 0.0 0.0 0.0 0.0 0.0 0.0 0.0
0.0 0.0 0.0 0.0 0.0 0.0 0.0 0.0
0.0 0.0 0.0 0.0 0.0 0.0 0.0 0.0
0.0 0.0 0.0 0.0 0.0 0.0 0.0 0.0
0.0 0.0 0.0 0.0 0.0 0.0 0.0 0.0
0.0 0.0 0.0 0.0 0.0 0.0 0.0 0.0
0.0 0.0 0.0 0.0 0.0 0.0 0.0 0.0
0.0 0.0 0.0 0.0 0.0 0.0 0.0 0.0
0.0 0.0 0.0 0.0 0.0 0.0 0.0 0.0
0.0 0.0 0.0 0.0 0.0 0.0 0.0 0.0
00000000: 0000 0000 0000 0000 0000 0000 0000 0000
00000010: 0000 0000 0000 0000 0000 0000 0000 0000
00000020: 0000 0000 0000 0000 0000 0000 0000 0000
00000030: 0000 0000 0000 0000 0000 0000 0000 0000
00000040: 0000 0000 0000 0000 0000 0000 0000 0000
00000050: 0000 0000 0000 0000 0000 0000 0000 0000
00000060: 0000 0000 0000 0000 0000 0000 0000 0000
00000070: 0000 0000 0000 0000 0000 0000 0000 0000
00000080: 0000 0000 0000 0000 0000 0000 0000 0000
00000090: 0000 0000 0000 0000 0000 0000 0000 0000
000000a0: 0000 0000 0000 0000 0000 0000 0000 0000
000000b0: 0000 0000 0000 0000 0000 0000 0000 0000
000000c0: 0000 0000 0000 0000 0000 0000 0000 0000
000000d0: 0000 0000 0000 0000 0000 0000 0000 0000
000000e0: 0000 0000 0000 0000 0000 0000 0000 0000
000000f0: 0000 0000 0000 0000 0000 0000 0000 0000
00000100: 0000 0000 0000 0000 0000 0000 0000 0000
00000110: 0000 0000 0000 0000 0000 0000 0000 0000
00000120: 0000 0000 0000 0000 0000 0000 0000 0000
00000130: 0000 0000 0000 0000 0000 0000 0000 0000
00000140: 0000 0000 0000 0000 0000 0000 0000 0000
00000150: 0000 0000 0000 0000 0000 0000 0000 0000
00000160: 0000 0000 0000 0000 0000 0000 0000 0000
00000170: 0000 0000 0000 0000 0000 0000 0000 0000
00000180: 0000 0000 0000 0000 0000 0000 0000 0000
00000190: 0000 0000 0000 0000 0000 0000 0000 0000
000001a0: 0000 0000 0000 0000 0000 0000 0000 0000
000001b0: 0000 0000 0000 0000 0000 0000 0000 0000
000001c0: 0000 0000 0000 0000 0000 0000 0000 0000
000001d0: 0000 0000 0000 0000 0000 0000 0000 0000
000001e0: 0000 0000 0000 0000 0000 0000 0000 0000
000001f0: 0000 0000 0000 0000 0000 0000 0000 0000

value_heads.value_heads.extrinsic.weight f4 [1, 128]
-0.15461439 -0.1857377 -0.010178519 -0.19656903 -0.05695748 -0.12526482 0.19234478 -0.21016312
0.006173969 0.18134429 -0.09600055 -0.008955256 0.06867352 0.06910433 -0.15505634 -0.12032187
0.12467414 0.20718892 -0.015653117 -0.08549979 -0.19915612 0.15894237 0.18696861 0.21322043
0.13430686 0.18170133 0.099546194 0.12944536 -0.13579935 -0.006370902 0.055496227 0.041767262
0.18348569 0.012731263 0.21492782 0.19603336 0.16920957 0.16037486 -0.06493893 0.12395024
-0.16689287 -0.06815716 -0.06829301 -0.0870537 0.030348714 0.059557736 -0.017880162 -0.13576335
-0.10563231 -0.17595215 0.08754284 -0.07209986 0.055639196 -0.08027778 0.06285316 -0.052325584
0.07393 -0.19222832 -0.06614555 -0.16389814 -0.022294212 -0.12967655 -0.008916293 0.060614314
0.022325603 -0.10485503 0.18242428 -0.16477177 -0.12425785 0.14067957 -0.15331045 -0.021297794
0.08912317 -0.16966274 -0.17000845 0.022091186 0.18333557 -0.04985903 -0.12667039 -0.050390378
-0.1039238 0.013984954 0.09534084 -0.06562789 0.14706443 0.11073644 0.15621096 0.17651033
-0.16709071 -0.100911565 0.033598043 0.15909235 -0.1793738 -0.11263418 -0.019824687 -0.01963516
0.16274352 0.12457559 0.19548324 -0.028314734 0.11186549 -0.066720925 -0.0029849182 0.09755408
-0.19556166 -0.013830119 0.066915184 0.01991687 0.024840593 -0.12189122 -0.18641299 0.13496391
-0.059004266 0.018030446 -0.17282689 -0.20462617 -0.020862125 0.18580353 0.042846616 0.13703707
0.11683161 0.18505538 -0.055525597 0.19639751 0.16027041 -0.09361097 0.11097633 -0.01254284
00000000: 3c53 1ebe 0632 3ebe cec3 26bc 6449 49be
00000010: 3f4c 69bd 6c45 00be 08f6 443e 0035 57be
00000020: 014f ca3b 51b2 393e f09b c4bd 11b9 12bc
00000030: b4a4 8c3d 9286 8d3d 17c7 1ebe 506b f6bd
00000040: 2855 ff3d 5529 543e f73a 80bc 841a afbd
00000050: 95ef 4bbe cac1 223e b374 3f3e 7556 5a3e
00000060: bd87 093e ea0f 3a3e e0de cb3d 538d 043e
00000070: fc0e 0bbe 00c3 d0bb 0350 633d 2614 2b3d
00000080: ace3 3b3e ca96 503c 0a16 5c3e f8bc 483e
00000090: 4645 2d3e 4f39 243e b4fe 84bd a0d9 fd3d
000000a0: f7e5 2abe fb95 8bbd 35dd 8bbd 3649 b2bd
000000b0: de9d f83c d0f2 733d 6b79 92bc 8c05 0bbe
000000c0: c155 d8bd cd2c 34be a949 b33d 17a9 93bd
000000d0: ede5 633d ad68 a4bd 28b9 803d 5a53 56bd
000000e0: 9d68 973d 80d7 44be 5177 87bd ead4 27be
000000f0: 5aa2 b6bc eec9 04be a515 12bc b746 783d
00000100: 2fe4 b63c 3cbe d6bd 6ecd 3a3e eeb9 28be
00000110: e67a febd 4e0e 103e 6afd 1cbe b678 aebc
00000120: 3586 b63d 12bc 2dbe b216 2ebe 93f8 b43c
00000130: 52bc 3b3e fb38 4cbd e2b5 01be 2466 4ebd
00000140: 00d6 d4bd 2621 653c 0f42 c33d ea67 86bd
00000150: 0f98 163e c9c9 e23d c4f5 1f3e 20bf 343e
00000160: d419 2bbe b9aa cebd 1a9e 093d 1be9 223e
00000170: c4ad 37be c0ac e6bd 6267 a2bc ead9 a0bc
00000180: 3da6 263e 7d21 ff3d c22c 483e 4df4 e7bc
00000190: bc19 e53d fba4 88bd 9e9e 43bb 6fca c73d
000001a0: 5141 48be b997 62bc d40a 893d b428 a33c
000001b0: 807e cb3c 1ba2 f9bd 0ce3 3ebe fb33 0a3e
000001c0: 75ae 71bd 96b4 933c 88f9 30be 8689 51be
000001d0: 0ce7 aabc 4843 3e3e ef7f 2f3d 7253 0c3e
000001e0: 6945 ef3d 287f 3d3e cf6e 63bd 6e1c 493e
000001f0: ed1d 243e 1cb7 bfbd 8f47 e33d 7c80 4dbc
