Results/test32/Doughnut/Doughnut-115329.pt (torch, 770311 bytes, 33 tensors)

network_body._body_endoder.seq_layers.0.weight f4 [128, 114]
0.07171318 -0.051049374 -0.017788706 0.073389046 0.035327308 0.06659164 0.06346486 0.051376708
0.015712002 -0.058327243 0.04165729 0.07607012 0.04646605 -0.14540908 0.07635495 0.10267359
-0.019903626 0.018860565 -0.05842432 -0.040926687 -0.06007856 -0.23518513 0.02138242 -0.033689495
-0.10106812 0.12495576 0.027130721 -0.07467168 0.070369154 0.008416891 0.061114818 0.01577472
-0.09641291 0.26368934 -0.2827791 0.19924234 0.15447801 0.03557033 0.09817105 -0.11550721
-0.26436168 -0.08600482 -0.041258287 -0.014916949 0.051585246 -0.011414217 0.0058698948 0.06654237
0.113837704 0.16242574 0.068401486 0.17754713 -0.035925917 -0.024039164 -0.065775014 0.1043172
0.025485143 0.082907274 0.02303462 -0.13774332 0.021163626 0.12752597 0.1462788 0.005839155
-0.05175782 0.15740982 -0.12126362 -0.07515636 0.042306717 -0.025670245 0.10271912 0.1009824
0.13416028 -0.060558986 0.34917524 -0.04761686 0.065348566 -0.0011413045 0.020548536 0.07698848
0.08154577 0.0012001062 0.09494768 -0.08461206 0.16588116 -0.062469196 0.038048424 0.05264143
-0.04587448 -0.036781713 -0.08958756 0.037348025 -0.032370526 0.083205104 0.01771734 -0.0015730883
-0.06699269 0.09707998 0.11920861 -0.0045584897 -0.0044242917 -0.004017458 -0.11197802 0.19748175
0.010138596 0.07514416 0.081100255 0.12386607 0.012521456 0.13667163 -0.12898366 -0.02217539
-0.0014740285 0.04958327 -0.17465709 0.072445385 -0.23614073 -0.087274164 0.0037243962 -0.18615085
-0.22098228 -0.07362422 0.063906915 -0.165458 -0.054628547 -0.05015652 0.04587869 -0.031828504
-0.06532224 -0.08593924 -0.03161853 0.046003465 0.054089777 0.10843936 0.0644334 0.006816572
0.096822634 0.03426747 -0.0118579995 -0.09601486 -0.1209472 0.040987726 -0.0807448 0.039013445
-0.011012211 0.11624926 -0.063726075 0.058098834 -0.1182668 -0.033469874 -0.05460103 0.08496979
0.12766694 -0.0544647 0.16946341 0.047739487 0.029704439 0.0025291129 0.059659 0.07510022
-0.042572983 -0.056498956 -0.022531152 -0.05773719 0.14565472 -0.08941629 0.02679906 0.11089008
0.12235084 -0.023798378 0.029392313 -0.06384332 0.15578507 0.04362507 0.0004761895 0.05291781
-0.03932375 -0.018829089 -0.03925547 -0.16218929 0.08869972 -0.23426995 -0.086023994 0.06020675
0.11341207 0.015694652 -0.07549057 0.014423747 0.16473602 -0.09002711 -0.13026492 0.13484588
0.017372085 0.09838935 0.030632462 -0.1492073 -0.11728368 0.060003757 0.08282269 0.120625794
0.10626412 -0.05889795 0.043870434 -0.021677256 -0.043924205 -0.05053803 -0.112707734 -0.102961116
-0.17148414 -0.0831118 0.107620925 -0.044688486 -0.0813374 -0.17253463 0.057983182 0.20035549
0.09726279 0.03785505 -0.011711658 0.1722302 -0.011912514 0.0819492 0.01977453 -0.031205224
-0.060159802 0.22377165 0.028913794 0.036199782 0.012524287 0.066646345 -0.083377175 0.05486959
-0.022938667 -0.0012656169 0.13851699 0.078855954 0.042420138 -0.17878994 0.056670506 0.10374266
0.060412105 0.036349166 0.084745646 -0.035151422 -0.04789622 -0.11422117 0.061105344 -0.15292196
-0.08089188 -0.063946635 -0.030609168 -0.021714494 0.0006268986 0.008744531 -0.03777539 -0.16670963
00000000: 5cde 923d 2619 51bd 9fb9 91bc ff4c 963d
00000010: 5eb3 103d 3361 883d ddf9 813d 6270 523d
00000020: 75b6 803c 8ce8 6ebd d6a0 2a3d a7ca 9b3d
00000030: 2f53 3e3d 1ee6 14be fc5f 9c3d 8846 d23d
00000040: ee0c a3bc 7981 9a3c 574e 6fbd bea2 27bd
00000050: f014 76bd 5fd4 70be 2f2a af3c fffd 09bd
00000060: cdfc cebd cee8 ff3d 3f41 de3c 77ed 98bd
00000070: b41d 903d 00e7 093c 8853 7a3d fc39 813c
00000080: 2274 c5bd 4a02 873e 6cc8 90be 2f06 4c3e
00000090: 7c2f 1e3e 32b2 113d e70d c93d 0b8f ecbd
000000a0: 6a5a 87be 4c23 b0bd 73fe 28bd 3866 74bc
000000b0: 0d4b 533d b202 3bbc 3f58 c03b 5e47 883d
000000c0: be23 e93d ef52 263e 1416 8c3d eace 353e
000000d0: 0e27 13bd c8ed c4bc 0db5 86bd 42a4 d53d
000000e0: 38c6 d03c 4acb a93d 19b3 bc3c 960c 0dbe
000000f0: 575f ad3c 2b96 023e 1cca 153e 6256 bf3b
00000100: 0200 54bd 0a30 213e 1059 f8bd 94eb 99bd
00000110: cf49 2d3d 684a d2bc 675e d23d dccf ce3d
00000120: 5061 093e b30c 78bd 19c7 b23e e609 43bd
00000130: 78d5 853d d397 95ba 6755 a83c 23ac 9d3d
00000140: 7801 a73d e24c 9d3a ee73 c23d 1649 adbd
00000150: c0dc 293e b3df 7fbd aad8 1b3d 8a9e 573d
00000160: e1e6 3bbd 6ca8 16bd af79 b7bd 3efa 183d
00000170: f596 04bd 7067 aa3d f423 913c 1630 ceba
00000180: 7733 89bd ded1 c63d a523 f43d 625f 95bb
00000190: a6f9 90bb e1a4 83bb bb54 e5bd a838 4a3e
000001a0: 5b1c 263c 2ee5 993d e417 a63d 7ead fd3d
000001b0: cb26 4d3c a6f3 0b3e 4b14 04be 2aa9 b5bc
000001c0: 3034 c1ba d417 4b3d 4fd9 32be 3f5e 943d
000001d0: e0ce 71be ccbc b2bd 0015 743b 549e 3ebe
000001e0: 2e49 62be 4cc8 96bd a1e1 823d d26d 29be
000001f0: 2fc2 5fbd ec70 4dbd 4beb 3b3d 9b5e 02bd
00000200: abc7 85bd ea00 b0bd 6f82 01bd 216e 3c3d
00000210: 3e8d 5d3d 7515 de3d a9f5 833d 8d5d df3b
00000220: f24a c63d 0c5c 0c3d 0e48 42bc 70a3 c4bd
00000230: 2ab3 f7bd bfe2 273d 885d a5bd 90cc 1f3d
00000240: 906c 34bc 1814 ee3d d182 82bd 0bf9 6d3d
00000250: dd35 f2bd b517 09bd 54a5 5fbd a404 ae3d
00000260: 1fbb 023e 6116 5fbd d187 2d3e 7b8a 433d
00000270: b956 f33c 79bf 253b ff5c 743d 25ce 993d
00000280: 0261 2ebd 736b 67bd 4093 b8bc d57d 6cbd
00000290: 8326 153e e31f b7bd b489 db3c 571a e33d
000002a0: 1493 fa3d d1f4 c2bc 26c8 f03c 49c0 82bd
000002b0: 1f86 1f3e 34b0 323d 13a9 f939 58c0 583d
000002c0: f111 21bd 763f 9abc 58ca 20bd f314 26be
000002d0: 33a8 b53d 76e4 6fbe 592d b0bd 5a9b 763d
000002e0: 9644 e83d 1292 803c cd9a 9abd 9451 6c3c
000002f0: 8fb0 283e 2260 b8bd 2b64 05be 0a15 0a3e
00000300: e74f 8e3c 5b80 c93d eef0 fa3c ccc9 18be
00000310: 6d32 f0bd 80c6 753d f19e a93d a80a f73d
00000320: 01a1 d93d fa3e 71bd 7cb1 333d 8094 b1bc
00000330: dee9 33bd f700 4fbd 50d3 e6bd 47dd d2bd
00000340: 8a99 2fbe 8536 aabd 5c68 dc3d 460b 37bd
00000350: 3994 a6bd ebac 30be c67f 6d3d fd29 4d3e
00000360: b731 c73d e60d 1b3d 41e2 3fbc 1d5d 303e
00000370: b52c 43bc fbd4 a73d 32fe a13c 19a2 ffbc
00000380: 206a 76bd 6524 653e 9fdc ec3c 3946 143d
00000390: ab32 4d3c e17d 883d a7c1 aabd efbe 603d
000003a0: dfe9 bbbc 0ee3 a5ba 66d7 0d3e 3b7f a13d
000003b0: bdc0 2d3d b614 37be 551f 683d 0877 d43d
000003c0: af72 773d dde2 143d 208f ad3d f0fa 0fbd
000003d0: d42e 44bd caec e9bd 9949 7a3d 9397 1cbe
000003e0: a4aa a5bd 74f6 82bd 14c0 fabc 98e2 b1bc
000003f0: 7456 243a 3945 0f3c 5eba 1abd eeb5 2abe

network_body._body_endoder.seq_layers.0.bias f4 [128]
0.010459335 -0.007663496 0.0008859497 0.004694115 0.013025643 0.009488371 -0.004672932 -0.011089419
0.0015444106 -0.010316294 -0.0076649897 0.011185647 0.011836439 -0.009294476 0.013676893 -0.008327752
-0.011203877 -0.002154342 0.0059069553 0.013276305 -0.013766009 0.012434871 0.0061355787 -0.009275554
-0.0122223515 0.011633316 0.013171339 -0.012277079 0.010687131 0.013128259 0.0029121463 -0.011395393
-0.012227803 0.0035337028 0.011862089 -0.012157466 -0.011970577 -0.0060595986 -0.011335556 -0.009374897
0.012367597 -0.004241757 0.012208842 0.012311132 0.012983293 -0.0024318234 0.012377826 -0.011613219
0.012351165 0.012689393 -0.01052483 0.013302531 0.012637918 -0.011758636 0.0024937766 -0.012178267
-0.007863004 -0.01188918 -0.004812004 -0.009425171 0.0131347235 0.0055955313 0.012805183 0.010812275
0.013752685 0.0022474218 -0.0037891841 0.012318045 -0.008798436 0.012743072 0.009081658 -0.005950344
0.009342755 0.006820683 -0.0109244175 0.012221801 0.01089235 -0.003719368 0.0022681179 0.011583285
-0.012454974 0.0122959 0.012477386 -0.008435418 -0.0016031575 0.0004905863 0.012432499 0.011473246
-0.009262186 -0.006218787 -0.0066100988 -0.0010021852 -0.00969098 0.011526444 -0.0028046966 0.007907204
0.011817108 0.0116898045 -0.011990716 -0.0036285867 0.0018916904 -0.00028064146 0.004151702 0.0015287147
-0.0119694965 -0.011509736 0.012706643 -0.013204821 0.012308878 0.00040895518 -0.0040180995 -0.011048431
-0.01146998 0.012410941 0.011796791 -0.011210481 0.0062239417 -0.004457029 -0.010998742 -0.0072647803
0.0085883 0.012770775 -0.0120255975 -0.0002711356 -0.012308254 0.0049046706 0.012709086 0.007997749
00000000: a15d 2b3c 101e fbbb 143f 683a 17d1 993b
00000010: 8269 553c 1d75 1b3c 651f 99bb 65b0 35bc
00000020: d26d ca3a ac05 29bc 982a fbbb 0144 373c
00000030: a0ed 413c dc47 18bc 0c15 603c 2071 08bc
00000040: 7790 37bc dc2f 0dbb 228f c13b dc84 593c
00000050: d48a 61bc a1bb 4b3c f70c c93b 7ef8 17bc
00000060: 4240 48bc aa99 3e3c 9acc 573c cd25 49bc
00000070: 1419 2f3c e917 573c b5d9 3e3b beb3 3abc
00000080: 1f57 48bc b295 673b 3559 423c 1c30 47bc
00000090: 3d20 44bc 998f c6bb c5b8 39bc 2b99 19bc
000000a0: 76a1 4a3c 70fe 8abb 9807 483c a1b4 493c
000000b0: e1b7 543c 3a5f 1fbb 5dcc 4a3c 5f45 3ebc
000000c0: 8a5c 4a3c 2ce7 4f3c 5670 2cbc dcf2 593c
000000d0: 450f 4f3c 4ba7 40bc a16e 233b 5b87 47bc
000000e0: d4d3 00bc d6ca 42bc 04ae 9dbb 086c 1abc
000000f0: 0633 573c b85a b73b d5cc 513c f825 313c
00000100: f152 613c 7b49 133b f653 78bb a0d1 493c
00000110: 5127 10bc 51c8 503c 3ccb 143c 1afb c2bb
00000120: 5b12 193c 0980 df3b 54fc 32bc f33d 483c
00000130: d475 323c a4c0 73bb b4a4 143b d2c7 3d3c
00000140: f30f 4cbc be74 493c f36d 4c3c b534 0abc
00000150: 0a21 d2ba b09a 003a aeb1 4b3c 48fa 3b3c
00000160: 6cc0 17bc f7c6 cbbb 8799 d8bb c15b 83ba
00000170: ebc6 1ebc 69d9 3c3c 00cf 37bb 388d 013c
00000180: 8b9c 413c 9886 3f3c b574 44bc 95cd 6dbb
00000190: 99f2 f73a 0f23 93b9 000b 883b 275f c83a
000001a0: b51b 44bc 5593 3cbc 862f 503c 0959 58bc
000001b0: 2dab 493c 0969 d639 43aa 83bb 7a04 35bc
000001c0: 95ec 3bbc 4257 4b3c 5447 413c 2aac 37bc
000001d0: 35f2 cb3b 450c 92bb 1134 34bc 650d eebb
000001e0: f1b5 0c3c 833c 513c 0307 45bc 3427 8eb9
000001f0: 8fa8 49bc 5cb7 a03b c539 503c fe08 033c

network_body._body_endoder.seq_layers.2.weight f4 [128, 128]
-0.1885915 -0.006693756 -0.097245 -0.02493295 0.11654529 0.056386236 0.044989236 0.027528679
0.05606332 -0.09212248 0.021711856 0.21079752 0.04487655 -0.007895632 0.16156256 0.022842249
0.009774933 -0.015340993 0.091042735 0.12286552 0.031315234 -0.023240361 -0.035822812 -0.025333496
-0.0391947 0.1032326 0.09763995 0.09523536 0.08352764 -0.014263251 0.009855182 0.045917507
-0.055278752 -0.062058426 0.021283511 -0.11120221 -0.036321465 -0.07077037 0.029662587 -0.0026265036
0.06652424 -0.20677666 -0.097045444 -0.08768826 -0.081942216 0.0558516 -0.10587582 -0.043064922
0.097116604 -0.046758372 0.0367015 0.0103542 -0.07088466 -0.122573644 -0.060621012 -0.056968175
0.166984 0.051395457 -0.09480857 -0.01848091 0.0032814392 -0.0542055 0.022045435 0.09499986
0.098422885 0.0120840045 0.032234814 0.025552114 0.108261965 -0.07767299 0.045109823 0.11003128
0.047921594 -0.09209702 -0.12643488 0.06507051 0.17231016 0.11884399 0.03817662 -0.076985
0.039393708 -0.09252045 0.047588624 -0.05120305 0.13152564 0.0009844333 -0.06812312 0.051688902
-0.17716558 -0.12948458 -0.04023328 -0.10941739 0.052418616 -0.065200046 -0.09833282 0.11411344
0.15633035 0.16977116 -0.08803109 -0.08771085 0.05224601 0.07729716 -0.028511317 -0.03682526
-0.09842458 -0.012110496 0.062025007 0.11448579 0.1172403 -0.103663735 0.16241139 0.15086259
-0.02165767 -0.0023848696 -0.04447976 -0.12898457 -0.053248953 -0.09132901 0.13797167 -0.02322453
-0.18100551 -0.04003024 -0.008731408 -0.08780325 0.034659285 -0.13267317 0.11836846 0.092670895
0.078717634 -0.080055885 0.10498234 0.11976322 0.08768325 -0.03072158 0.049796354 -0.074639104
-0.054595783 -0.17796907 -0.08048739 0.10923681 0.00018259406 0.111430585 0.09168187 -0.0716386
0.0599493 0.0570187 0.026566504 0.09699025 0.11937396 0.10656926 -0.061424058 0.014050594
0.12616402 0.067772195 0.039613392 -0.14125979 -0.07465631 -0.028717212 0.01822495 -0.02219937
0.09345131 -0.018791635 0.077886485 -0.052642547 -0.101385 0.08111122 0.06603946 0.0021787612
0.09372251 0.13910143 -0.024249356 0.0028138075 -0.05846688 -0.10248949 0.0386253 -0.025757417
0.004547522 0.1276316 -0.046485707 0.0023333228 0.080664665 0.048142917 -0.020777337 0.10975071
-0.15016674 -0.15870169 -0.050899543 0.10303145 -0.1348893 -0.035386413 0.11660411 -0.021047765
-0.107264295 0.03846514 0.0015523233 0.12191171 -0.049792193 -0.041453525 -0.159967 -0.06089465
0.0085221585 -0.05447473 0.02040331 -0.11103913 0.038506873 -0.15612504 0.0036323024 -0.082937166
0.17037925 -0.10207724 -0.19379012 0.0067822305 0.07270358 -0.00698825 0.033100065 0.09350336
0.017274937 -0.11882023 0.13279784 -0.07455679 -0.05326014 -0.02901822 0.066576 -0.16431029
-0.04733124 0.07301757 0.034860283 0.03348921 0.17652439 0.004280426 -0.06089539 0.020997763
-0.015652366 -0.07593765 0.1149095 -0.14157772 -0.15373942 0.1657839 -0.14657092 -0.05014628
0.05128623 0.045681383 -0.011272843 0.062447753 -0.04298207 0.10370631 -0.071454585 0.031422872
0.033854757 -0.013495896 -0.094804905 0.017888455 0.07569898 -0.02214123 -0.049712814 0.08712251
00000000: 211e 41be 4c57 dbbb 6328 c7bd 3040 ccbc
00000010: 4caf ee3d 41f5 663d a246 383d d383 e13c
00000020: a7a2 653d b6aa bcbd 10dd b13c 4edb 573e
00000030: 79d0 373d ae5c 01bc a870 253e ab1f bb3c
00000040: 0a27 203c ca58 7bbc 9d74 ba3d eba0 fb3d
00000050: 6744 003d 9262 bebc f1ba 12bd 3188 cfbc
00000060: 9f8a 20bd 9d6b d33d 74f7 c73d c20a c33d
00000070: 8a10 ab3d 69b0 69bc a177 213c ff13 3c3d
00000080: f96b 62bd fa30 7ebd c25a ae3c fcbd e3bd
00000090: d1c5 14bd 0ef0 90bd f4fe f23c 6b21 2cbb
000000a0: dc3d 883d 43bd 53be c3bf c6bd e795 b3bd
000000b0: 52d1 a7bd a6c4 643d 6cd5 d8bd d864 30bd
000000c0: 12e5 c63d b585 3fbd 5054 163d aaa4 293c
000000d0: fa2b 91bd e407 fbbd bd4d 78bd 7657 69bd
000000e0: dbfd 2a3e 0b84 523d ff2a c2bd 4765 97bc
000000f0: 6a0d 573b 9606 5ebd a198 b43c 498f c23d
00000100: f091 c93d fdfb 453c a708 043d ab52 d13c
00000110: 73b8 dd3d 0413 9fbd 14c5 383d 1458 e13d
00000120: 6f49 443d 5d9d bcbd 2578 01be b043 853d
00000130: 1372 303e 7a64 f33d 165f 1c3d 50aa 9dbd
00000140: 4c5b 213d 5d7b bdbd 4aec 423d 4aba 51bd
00000150: a8ae 063e 1a08 813a 2284 8bbd beb7 533d
00000160: e56a 35be 9b97 04be a7cb 24bd 3916 e0bd
00000170: e7b4 563d 9a87 85bd b862 c9bd 4fb4 e93d
00000180: 1015 203e 7ed8 2d3e a549 b4bd bfa1 b3bd
00000190: eaff 553d f94d 9e3d 9190 e9bc 15d6 16bd
000001a0: d492 c9bd 1a6b 46bc ef0d 7e3d 8777 ea3d
000001b0: af1b f03d a74d d4bd 2c4f 263e b97b 1a3e
000001c0: 6d6b b1bc 794b 1cbb 6930 36bd 8814 04be
000001d0: 931b 5abd b40a bbbd 7248 0d3e 5f41 bebc
000001e0: 8259 39be c0f6 23bd 2e0e 0fbc 31d2 b3bd
000001f0: e5f6 0d3d 7adb 07be 2a6b f23d 3dca bd3d
00000200: b636 a13d 57f4 a3bd fb00 d73d 6b46 f53d
00000210: 4793 b33d d3ab fbbc 43f7 4b3d 63dc 98bd
00000220: d49f 5fbd 863d 36be 93d6 a4bd 8cb7 df3d
00000230: b876 3f39 b835 e43d b4c3 bb3d 42b7 92bd
00000240: 668d 753d 718c 693d ffa1 d93c d3a2 c63d
00000250: 567a f43d fc40 da3d cb97 7bbd 7634 663c
00000260: 2431 013e 26cc 8a3d a741 223d 68a6 10be
00000270: 68e5 98bd 5c40 ebbc 7e4c 953c 74db b5bc
00000280: 6763 bf3d eaf0 99bc f382 9f3d b69f 57bd
00000290: f0a2 cfbd a41d a63d b23f 873d 8cc9 0e3b
000002a0: 96f1 bf3d 9b70 0e3e 96a6 c6bc db67 383b
000002b0: f87a 6fbd 02e6 d1bd 9035 1e3d 3801 d3bc
000002c0: 6103 953b dcb1 023e cc67 3ebd a9ea 183b
000002d0: 8433 a53d 8231 453d 3c35 aabc fbc4 e03d
000002e0: 4fc5 19be b282 22be 0a7c 50bd 2702 d33d
000002f0: 6c20 0abe 58f1 10bd 23ce ee3d 5d6c acbc
00000300: 62ad dbbd 9f8d 1d3d 5477 cb3a d9ac f93d
00000310: e6f2 4bbd 2ccb 29bd 64ce 23be ab6c 79bd
00000320: 86a0 0b3c e520 5fbd d824 a73c 7c68 e3bd
00000330: 62b9 1d3d 3edf 1fbe ec0b 6e3b f6da a9bd
00000340: e677 2e3e df0d d1bd eb70 46be 793d de3b
00000350: 9de5 943d b1fd e4bb ef93 073d b17e bf3d
00000360: 2b84 8d3c 0558 f3bd 28fc 073e 3bb1 98bd
00000370: 4e27 5abd 9eb7 edbc ff58 883d f540 28be
00000380: 67de 41bd 3c8a 953d a8c9 0e3d fb2b 093d
00000390: cfc2 343e d142 8c3b 726d 79bd 8003 ac3c
000003a0: 6439 80bc 3385 9bbd ac55 eb3d c0f9 10be
000003b0: de6d 1dbe 41c3 293e b016 16be 3066 4dbd
000003c0: 8311 523d 671c 3b3d bbb1 38bc 37c9 7f3d
000003d0: f80d 30bd f963 d43d c856 92bd 45b5 003d
000003e0: 49ab 0a3d e41d 5dbc 1329 c2bd cf8a 923c
000003f0: 1108 9b3d 8661 b5bc aa9f 4bbd 496d b23d

network_body._body_endoder.seq_layers.2.bias f4 [128]
0.013317115 0.008609036 0.013202209 0.013257245 -0.012790816 -0.009841489 -0.008731645 0.008107835
0.012816243 -0.009416418 -0.004498176 0.012933975 0.013064307 -0.0073458743 0.013347055 -0.0025910193
-0.011758168 0.013224829 0.0073420163 0.006078927 -0.010306974 0.010720979 -0.0033390333 0.013338142
0.01342524 0.013412311 0.01319515 0.0040773577 -0.0064244526 0.013359655 0.0130074285 -0.0062530916
-0.0052537685 -0.0069598146 0.003982382 0.012406791 0.00059623685 -0.010235039 -0.0047520148 0.012892562
-0.0070629795 -0.012653775 -0.011304637 0.013309823 -0.01301647 0.012752247 0.0039053382 -0.003695297
-0.012428197 -0.009272911 -0.012124897 -0.009968414 0.0040901517 0.0063603814 0.012683497 0.013029736
-0.002429338 0.0118756 -0.0016056257 -0.0057056174 -0.009922049 0.0045901015 0.0130488165 -0.0061496818
0.008586166 -0.007447251 -0.0019436571 -0.002794154 -0.0075002434 0.012750003 0.0009934624 -0.01117059
0.008146078 -0.0071875914 0.006466148 -0.0056738677 -0.009086682 0.012612918 -0.001625691 0.0111171985
0.012829605 0.013306074 0.012837439 -0.0071314657 -0.011202968 0.004734481 -0.008363843 -0.007560104
0.010393337 -0.008583397 -0.00989827 -0.0051462892 -0.009398149 0.01282725 0.013015802 -0.003207136
-0.011103907 0.011102383 0.013323365 0.013211473 0.012809535 -8.829518e-05 -0.001455877 0.0049147974
0.010135938 -0.005715133 -0.008180206 -0.0044008037 0.012919914 0.0029036019 0.01309441 0.007350841
-0.0028791013 0.005527112 0.011844286 -0.010021436 -0.007982897 0.0117142815 -0.00208145 0.012517486
-0.0031922676 0.013274294 0.003004387 0.0029844674 0.0027149017 -0.00613614 0.013355515 -0.008362636
00000000: 0730 5a3c ea0c 0d3c 144e 583c ea34 593c
00000010: 9290 51bc 323e 21bc 2c0f 0fbc bad6 043c
00000020: 38fb 513c 5247 1abc 6f65 93bb 06e9 533c
00000030: ad0b 563c a9b5 f0bb 9bad 5a3c 17ce 29bb
00000040: 55a5 40bc f4ac 583c 4c95 f03b bc31 c73b
00000050: 95de 28bc 0ca7 2f3c afd3 5abb 3988 5a3c
00000060: 8af5 5b3c 4fbf 5b3c 7830 583c 5b9b 853b
00000070: 3784 d2bb 74e2 5a3c 1c1d 553c bce6 ccbb
00000080: ce27 acbb 280f e4bb a47e 823b da45 4b3c
00000090: c74c 1c3a ddb0 27bc cab6 9bbb 533b 533c
000000a0: 9170 e7bb c751 4fbc 1637 39bc 7211 5a3c
000000b0: 0843 55bc cdee 503c b4f0 7f3b cc2c 72bb
000000c0: a39f 4bbc 68ed 17bc 81a7 46bc 8f52 23bc
000000d0: ae06 863b bf6a d03b 71ce 4f3c ac7a 553c
000000e0: 8735 1fbb e091 423c dc73 d2ba 30f6 babb
000000f0: 1790 22bc 9068 963b b4ca 553c 4583 c9bb
00000100: feac 0c3c 1208 f4bb 4fc2 feba 201e 37bb
00000110: 9ac4 f5bb 63e5 503c 1137 823a da04 37bc
00000120: 2177 053c e385 ebbb fbe1 d33b daeb b9bb
00000130: 4fe0 14bc 6aa6 4e3c 2315 d5ba e924 363c
00000140: 4333 523c b801 5a3c 1f54 523c 12af e9bb
00000150: a78c 37bc b523 9b3b 8008 09bc c0ba f7bb
00000160: d148 2a3c 60a1 0cbc 5a2c 22bc 34a2 a8bb
00000170: b2fa 19bc 6329 523c 3b40 553c d02e 52bb
00000180: 29ed 35bc c5e6 353c 3e4a 5a3c ef74 583c
00000190: 15df 513c 1d2b b9b8 20d3 beba 4f0c a13b
000001a0: 3511 263c 0346 bbbb 4506 06bc 9e34 90bb
000001b0: 0cae 533c 5b4a 3e3b f089 563c 53df f03b
000001c0: 4eaf 3cbb c71c b53b 890e 423c f330 24bc
000001d0: b2ca 02bc 42ed 3f3c f068 08bb 2416 4d3c
000001e0: 5d35 51bb 6d7c 593c 40e5 443b 0e97 433b
000001f0: 7eec 313b ac11 c9bb 17d1 5a3c 7003 09bc

action_model._discrete_distribution.branches.0.weight f4 [2, 128]
-0.026040645 0.002841916 -0.014045987 -0.026967505 0.026729338 0.017564444 0.0011579123 -0.009872782
-0.034476742 0.019055022 0.021461604 -0.022770593 -0.0052936394 -0.0059220735 -0.027740793 -0.011910898
0.02475571 -0.025212293 0.0017058922 -0.026022209 0.025785835 -0.030169874 0.0042559723 -0.02407769
-0.018328698 -0.019256178 -0.024585538 0.019239252 0.01470053 -0.027511807 -0.0055000857 0.015701378
0.008550911 0.01523128 -0.008721848 -0.00857448 0.008661119 0.014999047 0.0008951185 -0.018742682
0.017902166 0.020412952 0.014185054 -0.01678029 0.016622072 -0.012383245 -0.0005468707 0.022025824
0.012714635 0.026750315 0.016945934 0.009097886 -0.011518473 -0.003648413 -0.02086478 -0.015953228
0.021445604 -0.019825364 -0.0068030437 0.0081582265 0.013154091 0.0005970752 -0.020534948 0.0018594188
-0.005251083 0.015090293 -0.0007333687 0.024939837 0.027130254 -0.010829457 -0.01577739 -0.0031540315
-0.0019391072 0.015222872 0.025644697 0.0036402338 0.01438194 -0.014163803 0.002931786 -0.011309357
-0.016007474 -0.019502819 -0.010241343 0.005865037 0.010391502 -0.00977749 0.005891648 0.015891105
-0.0098345075 -0.0049556512 0.017648675 0.0041219653 0.009289805 -0.022524966 -0.015526403 0.023273015
0.01738628 0.009577982 -0.029497074 -0.014759982 -0.025473658 0.008358776 -0.009771566 0.021255853
-0.0111533385 0.012679303 0.010162129 0.011393573 -0.023401955 -0.013334213 -0.016317787 -0.0050923494
0.021326832 0.0006077489 -0.024503922 0.021050384 0.03599421 0.020550614 0.00196726 -0.004190578
-0.00017115589 -0.0060640387 0.00075794343 -0.011079834 0.028078666 0.016950982 -0.020506533 0.010606219
0.009892598 0.015276363 0.019278284 0.020025989 -0.0111740455 -0.007164766 -0.0009786595 0.009412671
0.011042145 -0.003917486 -0.023806637 0.022752954 0.036317647 -0.0018605952 0.015811328 -0.022117862
-0.01574554 0.016448677 0.005493981 -0.0058083404 -0.009159953 -0.0069032717 0.008456074 0.015193577
0.017932009 0.022990376 0.026851846 -0.005339818 -0.00927741 0.01203755 0.021302689 -0.01026811
-0.010398094 -0.0045425673 0.008092438 0.003187289 -0.014952469 -0.011026448 -0.023037788 0.016890425
-0.009051051 -0.008921695 -0.023535652 0.019049704 -0.011108178 0.013705812 0.017143432 -0.016689977
-0.014306239 -0.01745662 -0.016870309 -0.021148607 0.0057494114 -0.0007534696 0.018084917 0.019706715
-0.0013198426 0.006542416 -0.0009304568 -0.0017415714 -0.024228815 0.0011296639 0.013491547 0.0037232086
0.0166406 -0.012237658 -0.01773176 -0.021611588 -0.0020628346 0.016690545 -0.016677 -0.034762323
0.017651314 -0.026634013 -0.0113856075 0.0032425148 0.0067288717 0.015191073 0.002866631 0.0123671815
0.017802516 0.014550491 0.027421659 -0.027798068 -0.020616276 0.009012449 -0.0331562 -0.016023815
0.012856785 -0.030275738 -0.0132722305 -0.01596037 -0.016058503 0.015838364 0.02746975 -0.009031687
-0.023839429 0.014028743 0.01592181 0.017863335 0.0069028228 0.007786759 0.001230067 0.01009497
0.01204935 -0.008613963 -0.015114247 -0.0026914442 0.015589808 0.0025994815 0.029148646 0.01600358
-0.028256059 0.015235797 -0.0025898996 -0.017018015 0.00076855975 -0.032110028 -0.0111074755 0.023024444
0.0002155222 0.02155845 0.0013896066 0.0041259592 -0.023663761 -0.014369976 0.008590143 -0.0031011822
00000000: 3153 d5bc 703f 3a3b 2421 66bc f5ea dcbc
00000010: 7cf7 da3c 4fe3 8f3c 17c5 973a 73c1 21bc
00000020: 7c37 0dbd 4719 9c3c 3fd0 af3c 6589 babc
00000030: 4476 adbb f40d c2bb a940 e3bc ed25 43bc
00000040: 7dcc ca3c 038a cebc 3e98 df3a 872c d5bc
00000050: d13c d33c d026 f7bc af75 8b3b 933e c5bc
00000060: 1126 96bc 22bf 9dbc 9c67 c9bc a39b 9d3c
00000070: 7eda 703c 7160 e1bc 103a b4bb 2da0 803c
00000080: 1f19 0c3c 9e8c 793c 15e6 0ebc fa7b 0cbc
00000090: 5ee7 0d3c 90be 753c 63a6 6a3a 418a 99bc
000000a0: 90a7 923c 1039 a73c 6e68 683c d276 89bc
000000b0: 032b 883c 18e3 4abc df5b 0fba 806f b43c
000000c0: 0b51 503c 7a23 db3c 33d2 8a3c 4d0f 153c
000000d0: fab7 3cbc 371a 6fbb 9dec aabc 58b0 82bc
000000e0: b1ae af3c cd68 a2bc 11ec debb 15aa 053c
000000f0: 4284 573c 0a85 1c3a e838 a8bc beb7 f33a
00000100: 4711 acbb 473d 773c 8a3f 40ba a14e cc3c
00000110: 4440 de3c 096e 31bc 963f 81bc deb3 4ebb
00000120: a429 feba 5a69 793c d414 d23c fd90 6e3b
00000130: 3aa2 6b3c 4c0f 68bc 3523 403b e24a 39bc
00000140: 1b22 83bc 60c4 9fbc 4ecb 27bc 7f2f c03b
00000150: 1e41 2a3c c431 20bc ba0e c13b 102e 823c
00000160: ea20 21bc 0463 a2bb f493 903c 8d11 873b
00000170: 4434 183c 4786 b8bc 7462 7ebc 0da7 be3c
00000180: ac6d 8e3c f8ec 1c3c d9a3 f1bc dad3 71bc
00000190: 22ae d0bc 3ff3 083c eb18 20bc c120 ae3c
000001a0: 7ebc 36bc dabc 4f3c 0f7f 263c 1cac 3a3c
000001b0: 75b5 bfbc be77 5abc e1ac 85bc b9dd a6bb
000001c0: 9cb5 ae3c 5751 1f3a 73bc c8bc db71 ac3c
000001d0: aa6e 133d c359 a83c 25ed 003b 1e51 89bb
000001e0: 4f78 33b9 d8b4 c6bb b9b0 463a 3188 35bc
000001f0: 3b05 e63c c9dc 8a3c 51fd a7bc b5c5 2d3c
00000200: 9014 223c b649 7a3c 7eed 9d3c 8b0d a43c
00000210: 5813 37bc 6ac6 eabb 5d46 80ba 9b37 1a3c
00000220: 1dea 343c 415e 80bb 2306 c3bc 6764 ba3c
00000230: d0c1 143d 37df f3ba c286 813c 8530 b5bc
00000240: cafc 80bc 60bf 863c da06 b43b e453 bebb
00000250: a113 16bc d734 e2bb 588b 0a3c 7bee 783c
00000260: 26e6 923c 5056 bc3c 67f8 db3c a4f9 aebb
00000270: 4700 18bc 2539 453c fa82 ae3c 933b 28bc
00000280: c45c 2abc d1d9 94bb 2596 043c d6e1 503b
00000290: 33fb 74bc 46a8 34bc beb9 bcbc ca5d 8a3c
000002a0: dc4a 14bc 4d2c 12bc d7cd c0bc 200e 9c3c
000002b0: 13ff 35bc 588e 603c 6270 8c3c 6bb9 88bc
000002c0: b764 6abc 2f01 8fbc 9a33 8abc d83f adbc
000002d0: 8f65 bc3b 7d84 45ba d226 943c fa6f a13c
000002e0: 92fe acba c361 d63b e6e9 73ba 7045 e4ba
000002f0: 827b c6bc 3b11 943a a60b 5d3c 1301 743b
00000300: de51 883c 7580 48bc 3242 91bc c90a b1bc
00000310: 9f30 07bb 9cba 883c 349e 88bc f062 0ebd
00000320: 7d99 903c 932f dabc b38a 3abc 5f80 543b
00000330: de7d dc3b fae3 783c 16de 3b3b b89f 4a3c
00000340: 95d6 913c 2f65 6e3c 63a3 e03c c6b8 e3bc
00000350: 77e3 a8bc f3a8 133c ccce 07bd 6044 83bc
00000360: 44a5 523c d304 f8bc c573 59bc 52bf 82bc
00000370: 1f8d 83bc 75bf 813c 3e08 e13c a4f9 13bc
00000380: e84a c3bc d0d8 653c 756e 823c 2156 923c
00000390: 1331 e23b 1228 ff3b 333a a13a 6065 253c
000003a0: a36a 453c 9421 0dbc bfa1 77bc f162 30bb
000003b0: 656c 7f3c 105c 2a3b 24c9 ee3c f119 833c
000003c0: 4079 e7bc 909f 793c 4ebb 29bb 5d69 8bbc
000003d0: 2c79 493a ce85 03bd 21fc 35bc c29d bc3c
000003e0: cdfd 6139 599b b03c 7623 b63a 0e33 873b
000003f0: 81da c1bc 0c70 6bbc acbd 0c3c 343d 4bbb

action_model._discrete_distribution.branches.0.bias f4 [2]
-0.012556262 0.012556263
00000000: c8b8 4dbc c9b8 4d3c

exp_avg f4 [128, 114]
0.0 -0.000248456 -0.000248456 0.0 -0.000248456 -0.000248456 0.0 -0.000248456
-0.000248456 0.0 -0.000248456 -0.000248456 0.0 -0.000248456 -0.000248456 0.0
-0.000248456 -0.000248456 0.0 -0.000248456 -0.000248456 0.0 -0.000248456 -0.000248456
0.0 -0.000248456 -0.000248456 0.0 -0.000248456 -0.000248456 0.0 -0.000248456
-0.000248456 0.0 -0.000248456 -0.000248456 0.0 -0.000248456 -0.000248456 0.0
-0.000248456 -0.000248456 0.0 -0.000248456 -0.000248456 0.0 -0.000248456 -0.000248456
0.0 -0.000248456 -0.000248456 0.0 -0.000248456 -0.000248456 0.0 -0.000248456
-0.000248456 0.0 -0.000248456 -0.000248456 0.0 -0.000248456 -0.000248456 0.0
-0.000248456 -0.000248456 0.0 -0.000248456 -0.000248456 0.0 -0.000248456 -0.000248456
0.0 -0.000248456 -0.000248456 0.0 -0.000248456 -0.000248456 0.0 -0.000248456
-0.000248456 0.0 -0.000248456 -0.000248456 0.0 -0.000248456 -0.000248456 0.0
-0.000248456 -0.000248456 0.0 -0.000248456 -0.000248456 0.0 -0.000248456 -0.000248456
0.0 -0.000248456 -0.000248456 0.0 -0.000248456 -0.000248456 0.0 -0.000248456
-0.000248456 0.0 -0.000248456 -0.000248456 0.0 -0.000248456 -0.000248456 0.0
-0.000248456 -0.000248456 0.0 -9.258078e-06 -9.258078e-06 0.0 -9.258078e-06 -9.258078e-06
0.0 -9.258078e-06 -9.258078e-06 0.0 -9.258078e-06 -9.258078e-06 0.0 -9.258078e-06
-9.258078e-06 0.0 -9.258078e-06 -9.258078e-06 0.0 -9.258078e-06 -9.258078e-06 0.0
-9.258078e-06 -9.258078e-06 0.0 -9.258078e-06 -9.258078e-06 0.0 -9.258078e-06 -9.258078e-06
0.0 -9.258078e-06 -9.258078e-06 0.0 -9.258078e-06 -9.258078e-06 0.0 -9.258078e-06
-9.258078e-06 0.0 -9.258078e-06 -9.258078e-06 0.0 -9.258078e-06 -9.258078e-06 0.0
-9.258078e-06 -9.258078e-06 0.0 -9.258078e-06 -9.258078e-06 0.0 -9.258078e-06 -9.258078e-06
0.0 -9.258078e-06 -9.258078e-06 0.0 -9.258078e-06 -9.258078e-06 0.0 -9.258078e-06
-9.258078e-06 0.0 -9.258078e-06 -9.258078e-06 0.0 -9.258078e-06 -9.258078e-06 0.0
-9.258078e-06 -9.258078e-06 0.0 -9.258078e-06 -9.258078e-06 0.0 -9.258078e-06 -9.258078e-06
0.0 -9.258078e-06 -9.258078e-06 0.0 -9.258078e-06 -9.258078e-06 0.0 -9.258078e-06
-9.258078e-06 0.0 -9.258078e-06 -9.258078e-06 0.0 -9.258078e-06 -9.258078e-06 0.0
-9.258078e-06 -9.258078e-06 0.0 -9.258078e-06 -9.258078e-06 0.0 -9.258078e-06 -9.258078e-06
0.0 -9.258078e-06 -9.258078e-06 0.0 -9.258078e-06 -9.258078e-06 0.0 -9.258078e-06
-9.258078e-06 0.0 -9.258078e-06 -9.258078e-06 0.0 -5.9841656e-09 -5.9841656e-09 0.0
-5.9841656e-09 -5.9841656e-09 0.0 -5.9841656e-09 -5.9841656e-09 0.0 -5.9841656e-09 -5.9841656e-09
0.0 -5.9841656e-09 -5.9841656e-09 0.0 -5.9841656e-09 -5.9841656e-09 0.0 -5.9841656e-09
-5.9841656e-09 0.0 -5.9841656e-09 -5.9841656e-09 0.0 -5.9841656e-09 -5.9841656e-09 0.0
00000000: 0000 0000 3343 82b9 3343 82b9 0000 0000
00000010: 3343 82b9 3343 82b9 0000 0000 3343 82b9
00000020: 3343 82b9 0000 0000 3343 82b9 3343 82b9
00000030: 0000 0000 3343 82b9 3343 82b9 0000 0000
00000040: 3343 82b9 3343 82b9 0000 0000 3343 82b9
00000050: 3343 82b9 0000 0000 3343 82b9 3343 82b9
00000060: 0000 0000 3343 82b9 3343 82b9 0000 0000
00000070: 3343 82b9 3343 82b9 0000 0000 3343 82b9
00000080: 3343 82b9 0000 0000 3343 82b9 3343 82b9
00000090: 0000 0000 3343 82b9 3343 82b9 0000 0000
000000a0: 3343 82b9 3343 82b9 0000 0000 3343 82b9
000000b0: 3343 82b9 0000 0000 3343 82b9 3343 82b9
000000c0: 0000 0000 3343 82b9 3343 82b9 0000 0000
000000d0: 3343 82b9 3343 82b9 0000 0000 3343 82b9
000000e0: 3343 82b9 0000 0000 3343 82b9 3343 82b9
000000f0: 0000 0000 3343 82b9 3343 82b9 0000 0000
00000100: 3343 82b9 3343 82b9 0000 0000 3343 82b9
00000110: 3343 82b9 0000 0000 3343 82b9 3343 82b9
00000120: 0000 0000 3343 82b9 3343 82b9 0000 0000
00000130: 3343 82b9 3343 82b9 0000 0000 3343 82b9
00000140: 3343 82b9 0000 0000 3343 82b9 3343 82b9
00000150: 0000 0000 3343 82b9 3343 82b9 0000 0000
00000160: 3343 82b9 3343 82b9 0000 0000 3343 82b9
00000170: 3343 82b9 0000 0000 3343 82b9 3343 82b9
00000180: 0000 0000 3343 82b9 3343 82b9 0000 0000
00000190: 3343 82b9 3343 82b9 0000 0000 3343 82b9
000001a0: 3343 82b9 0000 0000 3343 82b9 3343 82b9
000001b0: 0000 0000 3343 82b9 3343 82b9 0000 0000
000001c0: 3343 82b9 3343 82b9 0000 0000 2453 1bb7
000001d0: 2453 1bb7 0000 0000 2453 1bb7 2453 1bb7
000001e0: 0000 0000 2453 1bb7 2453 1bb7 0000 0000
000001f0: 2453 1bb7 2453 1bb7 0000 0000 2453 1bb7
00000200: 2453 1bb7 0000 0000 2453 1bb7 2453 1bb7
00000210: 0000 0000 2453 1bb7 2453 1bb7 0000 0000
00000220: 2453 1bb7 2453 1bb7 0000 0000 2453 1bb7
00000230: 2453 1bb7 0000 0000 2453 1bb7 2453 1bb7
00000240: 0000 0000 2453 1bb7 2453 1bb7 0000 0000
00000250: 2453 1bb7 2453 1bb7 0000 0000 2453 1bb7
00000260: 2453 1bb7 0000 0000 2453 1bb7 2453 1bb7
00000270: 0000 0000 2453 1bb7 2453 1bb7 0000 0000
00000280: 2453 1bb7 2453 1bb7 0000 0000 2453 1bb7
00000290: 2453 1bb7 0000 0000 2453 1bb7 2453 1bb7
000002a0: 0000 0000 2453 1bb7 2453 1bb7 0000 0000
000002b0: 2453 1bb7 2453 1bb7 0000 0000 2453 1bb7
000002c0: 2453 1bb7 0000 0000 2453 1bb7 2453 1bb7
000002d0: 0000 0000 2453 1bb7 2453 1bb7 0000 0000
000002e0: 2453 1bb7 2453 1bb7 0000 0000 2453 1bb7
000002f0: 2453 1bb7 0000 0000 2453 1bb7 2453 1bb7
00000300: 0000 0000 2453 1bb7 2453 1bb7 0000 0000
00000310: 2453 1bb7 2453 1bb7 0000 0000 2453 1bb7
00000320: 2453 1bb7 0000 0000 2453 1bb7 2453 1bb7
00000330: 0000 0000 2453 1bb7 2453 1bb7 0000 0000
00000340: 2453 1bb7 2453 1bb7 0000 0000 2453 1bb7
00000350: 2453 1bb7 0000 0000 2453 1bb7 2453 1bb7
00000360: 0000 0000 2453 1bb7 2453 1bb7 0000 0000
00000370: 2453 1bb7 2453 1bb7 0000 0000 2453 1bb7
00000380: 2453 1bb7 0000 0000 2453 1bb7 2453 1bb7
00000390: 0000 0000 479d cdb1 479d cdb1 0000 0000
000003a0: 479d cdb1 479d cdb1 0000 0000 479d cdb1
000003b0: 479d cdb1 0000 0000 479d cdb1 479d cdb1
000003c0: 0000 0000 479d cdb1 479d cdb1 0000 0000
000003d0: 479d cdb1 479d cdb1 0000 0000 479d cdb1
000003e0: 479d cdb1 0000 0000 479d cdb1 479d cdb1
000003f0: 0000 0000 479d cdb1 479d cdb1 0000 0000

exp_avg_sq f4 [128, 114]
0.0 3.2674893e-07 3.2674893e-07 0.0 3.2674893e-07 3.2674893e-07 0.0 3.2674893e-07
3.2674893e-07 0.0 3.2674893e-07 3.2674893e-07 0.0 3.2674893e-07 3.2674893e-07 0.0
3.2674893e-07 3.2674893e-07 0.0 3.2674893e-07 3.2674893e-07 0.0 3.2674893e-07 3.2674893e-07
0.0 3.2674893e-07 3.2674893e-07 0.0 3.2674893e-07 3.2674893e-07 0.0 3.2674893e-07
3.2674893e-07 0.0 3.2674893e-07 3.2674893e-07 0.0 3.2674893e-07 3.2674893e-07 0.0
3.2674893e-07 3.2674893e-07 0.0 3.2674893e-07 3.2674893e-07 0.0 3.2674893e-07 3.2674893e-07
0.0 3.2674893e-07 3.2674893e-07 0.0 3.2674893e-07 3.2674893e-07 0.0 3.2674893e-07
3.2674893e-07 0.0 3.2674893e-07 3.2674893e-07 0.0 3.2674893e-07 3.2674893e-07 0.0
3.2674893e-07 3.2674893e-07 0.0 3.2674893e-07 3.2674893e-07 0.0 3.2674893e-07 3.2674893e-07
0.0 3.2674893e-07 3.2674893e-07 0.0 3.2674893e-07 3.2674893e-07 0.0 3.2674893e-07
3.2674893e-07 0.0 3.2674893e-07 3.2674893e-07 0.0 3.2674893e-07 3.2674893e-07 0.0
3.2674893e-07 3.2674893e-07 0.0 3.2674893e-07 3.2674893e-07 0.0 3.2674893e-07 3.2674893e-07
0.0 3.2674893e-07 3.2674893e-07 0.0 3.2674893e-07 3.2674893e-07 0.0 3.2674893e-07
3.2674893e-07 0.0 3.2674893e-07 3.2674893e-07 0.0 3.2674893e-07 3.2674893e-07 0.0
3.2674893e-07 3.2674893e-07 0.0 1.2484845e-09 1.2484845e-09 0.0 1.2484845e-09 1.2484845e-09
0.0 1.2484845e-09 1.2484845e-09 0.0 1.2484845e-09 1.2484845e-09 0.0 1.2484845e-09
1.2484845e-09 0.0 1.2484845e-09 1.2484845e-09 0.0 1.2484845e-09 1.2484845e-09 0.0
1.2484845e-09 1.2484845e-09 0.0 1.2484845e-09 1.2484845e-09 0.0 1.2484845e-09 1.2484845e-09
0.0 1.2484845e-09 1.2484845e-09 0.0 1.2484845e-09 1.2484845e-09 0.0 1.2484845e-09
1.2484845e-09 0.0 1.2484845e-09 1.2484845e-09 0.0 1.2484845e-09 1.2484845e-09 0.0
1.2484845e-09 1.2484845e-09 0.0 1.2484845e-09 1.2484845e-09 0.0 1.2484845e-09 1.2484845e-09
0.0 1.2484845e-09 1.2484845e-09 0.0 1.2484845e-09 1.2484845e-09 0.0 1.2484845e-09
1.2484845e-09 0.0 1.2484845e-09 1.2484845e-09 0.0 1.2484845e-09 1.2484845e-09 0.0
1.2484845e-09 1.2484845e-09 0.0 1.2484845e-09 1.2484845e-09 0.0 1.2484845e-09 1.2484845e-09
0.0 1.2484845e-09 1.2484845e-09 0.0 1.2484845e-09 1.2484845e-09 0.0 1.2484845e-09
1.2484845e-09 0.0 1.2484845e-09 1.2484845e-09 0.0 1.2484845e-09 1.2484845e-09 0.0
1.2484845e-09 1.2484845e-09 0.0 1.2484845e-09 1.2484845e-09 0.0 1.2484845e-09 1.2484845e-09
0.0 1.2484845e-09 1.2484845e-09 0.0 1.2484845e-09 1.2484845e-09 0.0 1.2484845e-09
1.2484845e-09 0.0 1.2484845e-09 1.2484845e-09 0.0 1.1600022e-10 1.1600022e-10 0.0
1.1600022e-10 1.1600022e-10 0.0 1.1600022e-10 1.1600022e-10 0.0 1.1600022e-10 1.1600022e-10
0.0 1.1600022e-10 1.1600022e-10 0.0 1.1600022e-10 1.1600022e-10 0.0 1.1600022e-10
1.1600022e-10 0.0 1.1600022e-10 1.1600022e-10 0.0 1.1600022e-10 1.1600022e-10 0.0
00000000: 0000 0000 086c af34 086c af34 0000 0000
00000010: 086c af34 086c af34 0000 0000 086c af34
00000020: 086c af34 0000 0000 086c af34 086c af34
00000030: 0000 0000 086c af34 086c af34 0000 0000
00000040: 086c af34 086c af34 0000 0000 086c af34
00000050: 086c af34 0000 0000 086c af34 086c af34
00000060: 0000 0000 086c af34 086c af34 0000 0000
00000070: 086c af34 086c af34 0000 0000 086c af34
00000080: 086c af34 0000 0000 086c af34 086c af34
00000090: 0000 0000 086c af34 086c af34 0000 0000
000000a0: 086c af34 086c af34 0000 0000 086c af34
000000b0: 086c af34 0000 0000 086c af34 086c af34
000000c0: 0000 0000 086c af34 086c af34 0000 0000
000000d0: 086c af34 086c af34 0000 0000 086c af34
000000e0: 086c af34 0000 0000 086c af34 086c af34
000000f0: 0000 0000 086c af34 086c af34 0000 0000
00000100: 086c af34 086c af34 0000 0000 086c af34
00000110: 086c af34 0000 0000 086c af34 086c af34
00000120: 0000 0000 086c af34 086c af34 0000 0000
00000130: 086c af34 086c af34 0000 0000 086c af34
00000140: 086c af34 0000 0000 086c af34 086c af34
00000150: 0000 0000 086c af34 086c af34 0000 0000
00000160: 086c af34 086c af34 0000 0000 086c af34
00000170: 086c af34 0000 0000 086c af34 086c af34
00000180: 0000 0000 086c af34 086c af34 0000 0000
00000190: 086c af34 086c af34 0000 0000 086c af34
000001a0: 086c af34 0000 0000 086c af34 086c af34
000001b0: 0000 0000 086c af34 086c af34 0000 0000
000001c0: 086c af34 086c af34 0000 0000 2597 ab30
000001d0: 2597 ab30 0000 0000 2597 ab30 2597 ab30
000001e0: 0000 0000 2597 ab30 2597 ab30 0000 0000
000001f0: 2597 ab30 2597 ab30 0000 0000 2597 ab30
00000200: 2597 ab30 0000 0000 2597 ab30 2597 ab30
00000210: 0000 0000 2597 ab30 2597 ab30 0000 0000
00000220: 2597 ab30 2597 ab30 0000 0000 2597 ab30
00000230: 2597 ab30 0000 0000 2597 ab30 2597 ab30
00000240: 0000 0000 2597 ab30 2597 ab30 0000 0000
00000250: 2597 ab30 2597 ab30 0000 0000 2597 ab30
00000260: 2597 ab30 0000 0000 2597 ab30 2597 ab30
00000270: 0000 0000 2597 ab30 2597 ab30 0000 0000
00000280: 2597 ab30 2597 ab30 0000 0000 2597 ab30
00000290: 2597 ab30 0000 0000 2597 ab30 2597 ab30
000002a0: 0000 0000 2597 ab30 2597 ab30 0000 0000
000002b0: 2597 ab30 2597 ab30 0000 0000 2597 ab30
000002c0: 2597 ab30 0000 0000 2597 ab30 2597 ab30
000002d0: 0000 0000 2597 ab30 2597 ab30 0000 0000
000002e0: 2597 ab30 2597 ab30 0000 0000 2597 ab30
000002f0: 2597 ab30 0000 0000 2597 ab30 2597 ab30
00000300: 0000 0000 2597 ab30 2597 ab30 0000 0000
00000310: 2597 ab30 2597 ab30 0000 0000 2597 ab30
00000320: 2597 ab30 0000 0000 2597 ab30 2597 ab30
00000330: 0000 0000 2597 ab30 2597 ab30 0000 0000
00000340: 2597 ab30 2597 ab30 0000 0000 2597 ab30
00000350: 2597 ab30 0000 0000 2597 ab30 2597 ab30
00000360: 0000 0000 2597 ab30 2597 ab30 0000 0000
00000370: 2597 ab30 2597 ab30 0000 0000 2597 ab30
00000380: 2597 ab30 0000 0000 2597 ab30 2597 ab30
00000390: 0000 0000 5216 ff2e 5216 ff2e 0000 0000
000003a0: 5216 ff2e 5216 ff2e 0000 0000 5216 ff2e
000003b0: 5216 ff2e 0000 0000 5216 ff2e 5216 ff2e
000003c0: 0000 0000 5216 ff2e 5216 ff2e 0000 0000
000003d0: 5216 ff2e 5216 ff2e 0000 0000 5216 ff2e
000003e0: 5216 ff2e 0000 0000 5216 ff2e 5216 ff2e
000003f0: 0000 0000 5216 ff2e 5216 ff2e 0000 0000

exp_avg f4 [128]
-0.00024850294 -9.255462e-06 -5.9841887e-09 -0.0001120775 -0.0003910211 -1.2358778e-05 -2.2071365e-08 1.3813687e-05
1.738148e-05 9.3730426e-07 8.789517e-06 -0.00017734639 -0.00018785817 5.1923865e-07 -4.9496855e-05 1.3351464e-05
3.0768647e-06 -1.9675669e-07 -3.2810814e-05 -0.00019761753 -1.1986044e-06 -0.00020534813 -4.56807e-06 1.1409081e-05
2.3007005e-05 -0.00010398654 -0.00023711918 1.0124874e-05 -0.00012491674 -0.00016263298 -2.4935161e-07 3.984685e-05
2.2088223e-05 -6.1789025e-05 -0.00020584953 2.6010668e-05 2.335519e-05 4.0762818e-10 1.2469372e-05 2.1587743e-05
-0.000196071 1.4503071e-10 -0.00020355686 -4.6206737e-06 -0.00016291761 -7.6836326e-10 -0.00012225303 1.2182726e-05
-0.0001455696 -0.00027394417 2.9294317e-06 -6.574174e-05 -4.208878e-06 1.1340272e-05 -9.844833e-10 4.7502945e-05
6.1982373e-06 1.7457296e-05 -2.8274435e-06 6.0454036e-06 -0.0003051678 9.2940944e-08 -0.000372926 -0.00011248394
-0.0001284817 7.121746e-08 4.7656727e-09 -0.0002458931 2.0872592e-05 -0.00032560484 -1.4595262e-05 2.2249256e-09
-1.7860117e-05 -1.0658033e-05 2.2636483e-05 -0.00019182905 -5.9150203e-05 3.8515856e-07 -1.9500796e-05 -0.000118712866
7.8202334e-05 -0.000109678746 -0.00027764554 1.0240421e-06 2.783658e-07 -4.2732922e-06 -9.192454e-05 -8.539594e-05
1.1606035e-07 3.3824957e-10 1.089415e-08 5.1348834e-06 4.5460197e-08 -0.000114731396 -5.412634e-08 -2.558441e-05
-8.347975e-05 -8.9399226e-05 9.624218e-06 1.850886e-08 9.309579e-10 -8.9463036e-05 -3.6802436e-10 3.1153073e-09
2.4496247e-05 5.559683e-06 -0.00033673536 5.7548427e-06 -0.00026272013 -1.4389511e-07 -4.683552e-05 1.1609135e-05
3.969041e-05 -0.00019060128 -6.85331e-07 5.3384497e-06 -1.2982201e-05 2.8468296e-06 8.936415e-06 3.9848255e-06
-1.8194853e-05 -0.00021688169 4.319185e-05 -9.3452465e-05 2.4772798e-05 -1.0798582e-05 -0.00015750295 -0.00023326871
00000000: 8049 82b9 e847 1bb7 7b9d cdb1 260b ebb8
00000010: f701 cdb9 8c58 4fb7 7297 bdb2 55c1 6737
00000020: 72ce 9137 0f9b 7b35 b076 1337 0ff6 39b9
00000030: cbfb 44b9 cf61 0b35 d89a 4fb8 1a00 6037
00000040: 227c 4e36 1144 53b4 589e 09b8 8d37 4fb9
00000050: bcdf a0b5 b852 57b9 6c47 99b6 a169 3f37
00000060: 2bff c037 5913 dab8 32a3 78b9 01de 2937
00000070: 15fc 02b9 7588 2ab9 a0de 85b4 3b21 2738
00000080: 194a b937 bb94 81b8 50d9 57b9 7c31 da37
00000090: e3ea c337 9118 e02f 8c33 5137 5317 b537
000000a0: 6998 4db9 8476 1f2f e171 55b9 490b 9bb6
000000b0: ddd4 2ab9 c234 53b0 0c31 00b9 6964 4c37
000000c0: 0ba4 18b9 2aa0 8fb9 4197 4436 d4de 89b8
000000d0: fd39 8db6 1942 3e37 6d4e 87b0 e63d 4738
000000e0: 74fa cf36 4271 9237 1cbf 3db6 9fd9 ca36
000000f0: eefe 9fb9 d396 c733 4885 c3b9 5be5 ebb8
00000100: 0bb9 06b9 36f0 9833 4dbf a331 37eb 80b9
00000110: 8d17 af37 f1b5 aab9 2cde 74b7 4ee5 1831
00000120: 4fd2 95b7 e7cf 32b7 7ae3 bd37 b825 49b9
00000130: 0c18 78b8 cac7 ce34 a495 a3b7 7cf5 f8b8
00000140: 8f00 a438 5403 e6b8 f490 91b9 d271 8935
00000150: 4e72 9534 4d63 8fb6 9dc7 c0b8 9916 b3b8
00000160: da3c f933 65f4 b92f fa28 3b32 504c ac36
00000170: 0440 4333 f39b f0b8 8a78 68b3 1a9e d6b7
00000180: d911 afb8 d87b bbb8 b477 2137 6afd 9e32
00000190: 57e6 7f30 1a9e bbb8 d352 caaf 1115 5631
000001a0: 4a7d cd37 508d ba36 db8b b0b9 b919 c136
000001b0: b3bd 89b9 9681 1ab4 4271 44b8 dbc4 4237
000001c0: 4179 2638 24dc 47b9 96f7 37b5 ef20 b336
000001d0: 21ce 59b7 290c 3f36 9ced 1537 64b5 8536
000001e0: 26a1 98b7 bc6a 63b9 e528 3538 e9fb c3b8
000001f0: 2ecf cf37 8e2b 35b7 6027 25b9 9899 74b9

exp_avg_sq f4 [128]
3.2676346e-07 1.2481343e-09 1.16004616e-10 4.843543e-08 1.0307751e-06 2.2137052e-09 4.1711516e-11 6.6447954e-09
1.3529865e-09 2.9366876e-09 5.569418e-10 1.3019549e-07 1.5530118e-07 8.048453e-10 2.5202592e-08 3.5030832e-09
9.505516e-10 3.4731672e-11 5.8874763e-09 2.6628464e-07 5.2555394e-11 2.2565644e-07 9.623514e-10 3.871998e-09
9.272271e-09 6.3756126e-08 3.061686e-07 2.2706008e-09 1.09415716e-07 1.5803904e-07 1.0637931e-10 5.4749997e-08
9.462699e-09 1.2918137e-08 1.884967e-07 1.14024665e-08 1.7456959e-08 1.6368884e-11 8.310458e-09 7.723755e-09
2.216212e-07 2.8704708e-10 1.9626337e-07 6.4924277e-10 1.4736196e-07 1.5740008e-11 7.621173e-08 4.8530184e-09
1.2424881e-07 4.935697e-07 2.8594256e-09 1.8683787e-08 4.84067e-10 4.6502473e-09 8.362005e-11 3.161057e-08
2.1870143e-10 5.4767417e-09 2.2547195e-11 7.224325e-09 5.492044e-07 4.9225676e-11 8.322719e-07 4.939729e-08
1.0327439e-07 1.2031733e-10 1.3230576e-10 3.1019582e-07 3.4403154e-09 7.178994e-07 9.734201e-10 6.02464e-11
5.826605e-09 1.7481196e-09 4.354172e-09 2.4430568e-07 2.0196048e-08 2.357874e-10 1.149018e-09 6.067269e-08
7.523977e-08 8.127796e-08 3.7750317e-07 1.1733427e-11 4.6036078e-11 1.3230488e-10 3.9266865e-08 2.918853e-08
4.831637e-10 3.675286e-11 3.596477e-11 1.8307061e-10 2.978109e-11 5.9575353e-08 1.4944485e-11 5.036644e-09
3.3157956e-08 4.5526154e-08 1.8749726e-09 2.5797907e-11 7.2128296e-11 2.6821203e-08 5.760326e-11 6.161926e-11
1.0870905e-08 1.7994274e-09 6.609527e-07 9.52761e-10 3.25753e-07 4.6031005e-11 8.205026e-09 6.186318e-09
1.8977424e-08 2.0473254e-07 2.0768594e-10 3.1005727e-09 2.1703377e-09 2.0499112e-10 5.6071507e-09 1.0752416e-09
4.6787854e-09 2.5642902e-07 2.6189237e-08 2.9779953e-08 1.0843192e-08 9.983071e-10 1.03343154e-07 2.3826546e-07
00000000: 076e af34 d28a ab30 cb18 ff2e 5207 5033
00000010: 2a59 8a35 ea1f 1831 fe72 372e 3d50 e431
00000020: fbf3 b930 c1ce 4931 4c17 1930 ddcb 0b34
00000030: ddc0 2634 f43b 5d30 167d d832 e4ba 7031
00000040: 90a4 8230 63c0 182e ca4a ca31 e2f5 8e34
00000050: 1d24 672e f84b 7234 bb43 8430 740a 8531
00000060: e14b 1f32 4dea 8833 7e5f a434 d508 1c31
00000070: edf7 ea33 71b1 2934 3aee e92e 4226 6b33
00000080: 6491 2232 91ee 5d32 9465 4a34 94e4 4332
00000090: 42f4 9532 73fb 8f2d c8c5 0e32 6fb1 0432
000000a0: c6f6 6d34 49ce 9d2f 77bc 5234 6676 3230
000000b0: 8c3a 1e34 5973 8a2d d7a9 a333 9abf a631
000000c0: 4169 0534 da7d 0435 8c7f 4431 157e a032
000000d0: 300f 0530 02c8 9f31 e7e1 b72e 30c4 0733
000000e0: fb76 702f ee2d bc31 c553 c62d d639 f831
000000f0: 0a6d 1335 2f7f 582e 4a69 5f35 e528 5433
00000100: b2c7 dd33 514a 042f c378 112f fd88 a634
00000110: ab6a 6c31 acb5 4035 2dc9 8530 b57b 842e
00000120: 5c33 c831 7e42 f030 b49b 9531 1e29 8334
00000130: 947b ad32 20a0 812f 7aeb 9d30 2a4b 8233
00000140: 8093 a133 088b ae33 a4ab ca34 a86a 4e2d
00000150: 0478 4a2e 8378 112f 60a6 2833 42ba fa32
00000160: 9fcf 0430 0ba4 212e bb2c 1e2e cc49 492f
00000170: 87fa 022e cbdf 7f33 fd73 832d ca0e ad31
00000180: 8f69 0e33 8988 4333 ded8 0031 b9eb e22d
00000190: 9f9c 9e2e 7364 e632 8157 7d2e 8f80 872e
000001a0: bfc2 3a32 b94f f730 536c 3135 4cf2 8230
000001b0: 27e3 ae34 4e72 4a2e 16f6 0c32 6e8f d431
000001c0: cc03 a332 74d4 5b34 655a 642f da11 5531
000001d0: fc24 1531 df63 612f 05a9 c031 b3c7 9330
000001e0: 08c3 a031 56ab 8934 bef6 e032 cfce ff32
000001f0: dd48 3a32 cf34 8930 80ed dd33 e9d5 7f34
