Results/test3/Doughnut.onnx (onnx, 128129 bytes, 6 tensors)

action_model._discrete_distribution.branches.0.bias f4 [2]
00000000: 0000 0000 0000 0000
0.0 0.0

action_model._discrete_distribution.branches.0.weight f4 [2, 128]
00000000: 637a bcbb 41a1 893b 6265 87bb 636a 9f3c
00000010: 3931 abbb 734b 253b d100 a5bb 6df4 f73a
00000020: 2823 abba 00f1 2dbb 5e11 04bc 9948 b23b
00000030: cbd0 5dbc 3603 c73b 438d d9ba f54b 7e3c
00000040: 233e 983b 6a7f 6c3a 9756 343a bfad 1d3b
00000050: cf71 0fbc 1d80 30bc 0e8e 3bbc 5a63 c23b
00000060: b098 6c3b 320c 98bc 7461 20bb 1bf6 813c
00000070: f9a0 94bc cfff 80bb a97f 183a 9360 97bc
00000080: 17a9 8b38 a7e1 d23b 9337 a13c ff92 073c
00000090: c35a 753c 4a6d 2fbc ab5a 8a3b db77 da3b
000000a0: 06a2 373c 9f87 d2bb 51b1 1ebc 7b49 fb3a
000000b0: 83dd 2dbb 17e6 d338 501c 163c c3b0 afbc
000000c0: df1b 9039 3beb b4bb c228 563b 4610 0cbc
000000d0: 4322 a5bc 75ab 71bc 42aa d03b ca0a 0e3c
000000e0: eb9d 163c f329 e53b 2897 a53b b603 9f3b
000000f0: f5e8 6dbc c2ba 3f3a 57c7 68bc ed2e 4f3c
00000100: 4175 c6bb 3601 37bb 0354 b539 815d 1fbb
00000110: 9fc5 4a3c 0fb0 b1bb 4f34 eeb9 f36e 113c
00000120: 87b3 813b fa76 7eba 33c7 1fbb cbe2 6b3b
00000130: 2b53 013c d3da 8d3b f76c 703a a15c 1d3b
00000140: e3f6 41bb 6832 1d3b 1227 14bc 61f4 a23b
00000150: 02f4 18bc e3b1 8bbb ca1b 893b 63c1 cabb
00000160: 15fd 2f3c 7d9f 493b a3ae 95bb 25cc febb
00000170: 41ae 9b39 b7c3 a83b 9b7d 4c3c 3bdb 85bc
00000180: cb30 193c 9f2f 48bc 4d6c 043c 2bd6 193c
00000190: 2e95 833b 9fc3 113c fd8d be3a 38fb 8b3b
000001a0: ab8f 813c 9aad a7bb ca67 8b3b 506c 433b
000001b0: 83fe 353c 6103 89bc 6b6b 1dbc 33f2 05bc
000001c0: 97fc bc3b 6471 8a3b 5a87 e23b 32b6 f73b
000001d0: 5e06 37bb 4017 1e3b 655f 623c 53f3 9ebb
000001e0: ee73 ac3b 53eb 5d3b 537e a03b 8f40 e139
000001f0: 7f32 233c 3059 b9ba 6a2b adbc afa6 1e3c
00000200: a825 b6bb 722a b13b bf2d 483c 9bff 9cbc
00000210: fbad 05bc 97b9 de3a 3062 0f3b 7dfb db39
00000220: 234a d73b 923c 553b 10ff 06bb 784c 433b
00000230: 7be2 943c 43fd 4dbc c0d0 1b3b 6889 8d3c
00000240: 86a1 89bb 0f5e 793a 866c 4abb 5430 02bb
00000250: f041 a6bb e6f3 333c f39d 39bc 8f53 7fbb
00000260: bb84 7dbb af1b 0c3c bf95 d4bb 01de 023c
00000270: a2ca 5abc 13f7 153b 9f37 f03b b9fd 88ba
00000280: fb46 13bc 4922 bbbc a453 a639 e5c8 ff3b
00000290: 980f 59bc f5e9 0abc 1302 a0bb f5d7 82ba
000002a0: 0799 57ba 7534 64ba 2549 3c3c 790e 4cbc
000002b0: eb50 9dbc 8f92 b5bb fe9d 08bb 8595 f3bb
000002c0: 531f 073c 02f9 d037 e7d1 8b3c 5b97 39bc
000002d0: c0de f8bb bf39 203c 2336 27ba 4019 ce3b
000002e0: 6412 07bb 6beb c73a 0bd7 29bc 3588 21bc
000002f0: cf1e 123b a86f c6b9 6ffe b43c f0d4 393c
00000300: 5d59 f3ba 3be5 603b f25b a7ba 1f70 4c3b
00000310: 0ede 39bb 69ab 133c 5cb6 053c 9b77 5f3c
00000320: 624f fdba a375 c0ba d24c 7ebc 138c 04bb
00000330: 5b0a 2bbc 0bee ce3b cdaa 463b a748 683b
00000340: 8ba5 0d3c 2d7f 5938 b33c 4bbc e770 ff3a
00000350: af0d f93b fdf0 1d3c f9b0 063c 6f48 933b
00000360: 928c df3a c9ce afba 5282 803b db4f 8f3b
00000370: f770 69ba 8d45 d73b 6714 bfbb c28e 71bb
00000380: 1b75 2e39 c756 813c eb2b 46bc f3b0 453c
00000390: bafd 313b 2e63 01bc 27aa 82ba c626 a93b
000003a0: c1d1 08bc bdda 36bb e25e 70bc ea77 f13b
000003b0: 9468 8fbb b40d b53b a320 c639 1af8 23bc
000003c0: 20cb febb 779c 4a3c 369d 0fbc 548c 303c
000003d0: a225 7d3c cfca 02bb f88d 573c afb7 4c3b
000003e0: 5769 133a 4317 e3bb e279 fdb9 759b 89bc
000003f0: 2e6c 1abc 3f25 bf3b d94f 083c 28e2 0a3b
-0.0057518943 0.004200131 -0.004131959 0.019459909 -0.0052243737 0.0025221973 -0.0050354977 0.0018917449
-0.0013056742 -0.0026541352 -0.008060781 0.005440783 -0.01353855 0.006073381 -0.0016597885 0.015521039
0.004646079 0.0009021672 0.0006879358 0.002405986 -0.008755161 -0.010772732 -0.011447443 0.005932254
0.003610175 -0.018560503 -0.002447215 0.015864423 -0.018143164 -0.0039367448 0.00058173627 -0.018478667
6.659532e-05 0.0064355913 0.01967982 0.008274793 0.014975253 -0.010707209 0.0042222342 0.00666712
0.011208063 -0.0064248587 -0.00968583 0.0019171679 -0.0026529736 0.000101041216 0.009162024 -0.021446591
0.00027486586 -0.0055212057 0.0032678102 -0.008548802 -0.020157939 -0.014750351 0.0063679526 0.0086695645
0.009192924 0.006993526 0.0050534196 0.0048527373 -0.014520873 0.0007313901 -0.014207683 0.012645465
-0.006056458 -0.0027924306 0.00034585604 -0.0024317207 0.012376218 -0.005422599 -0.0004543387 0.00887655
0.003958169 -0.000970706 -0.0024380207 0.0035993333 0.007893364 0.0043290644 0.00091715105 0.002401151
-0.002959662 0.0023986343 -0.009042518 0.00497298 -0.00933552 -0.004263149 0.004184221 -0.0061876043
0.010741492 0.0030765228 -0.0045679375 -0.007775801 0.00029693733 0.005150284 0.012481119 -0.016339889
0.009350012 -0.012218385 0.008082462 0.0093894405 0.0040155863 0.008896737 0.0014538165 0.004271891
0.015815577 -0.0051171305 0.004254316 0.0029819198 0.011108044 -0.016725244 -0.00960813 -0.008175421
0.0057674157 0.004224943 0.006913108 0.007559561 -0.002792738 0.0024122745 0.013816689 -0.004850784
0.0052628433 0.0033862188 0.0048978715 0.00042963444 0.00996077 -0.001414096 -0.021138866 0.009683295
-0.005558688 0.005406671 0.012217938 -0.019164851 -0.008159156 0.0016992566 0.0021878593 0.00041958308
0.006570117 0.0032537323 -0.0020598806 0.0029800218 0.0181744 -0.012572589 0.0023775548 0.017277434
-0.0042001633 0.0009512612 -0.003088744 -0.0019865232 -0.0050737783 0.010983443 -0.011329162 -0.0038959717
-0.003868385 0.008551522 -0.0064875777 0.0079875 -0.0133539755 0.0022882863 0.0073308493 -0.0010451592
-0.008989091 -0.022843497 0.00031724304 0.007805931 -0.013248347 -0.008478631 -0.0048830598 -0.0009982573
-0.0008224402 -0.00087053265 0.011492048 -0.012454622 -0.019203624 -0.005541153 -0.0020846124 -0.0074335956
0.008247214 2.4911486e-05 0.017067863 -0.01132759 -0.0075949132 0.009779393 -0.00063786114 0.006289631
-0.0020610327 0.0015252655 -0.010366212 -0.009859134 0.0022296195 -0.00037848693 0.02209398 0.011342272
-0.0018566061 0.003431632 -0.0012768491 0.003119476 -0.0028361115 0.009013035 0.008161154 0.013639356
-0.0019326026 -0.0014683496 -0.015521245 -0.0020225092 -0.010439481 0.006314998 0.0030314208 0.0035443695
0.008645426 5.1855273e-05 -0.012404609 0.0019488604 0.007600508 0.009639976 0.0082209045 0.0044947187
0.0017055443 -0.0013413067 0.0039217854 0.004373533 -0.00089050777 0.0065695704 -0.0058312896 -0.0036858772
0.00016637558 0.015788449 -0.012095432 0.012066114 0.002715929 -0.007897181 -0.0009968922 0.005162093
-0.0083507905 -0.0027901374 -0.014671059 0.007369031 -0.0043764804 0.005525315 0.0003778982 -0.0100078825
-0.007775679 0.012366406 -0.008765509 0.010775644 0.015450867 -0.001995731 0.013156407 0.0031237414
0.0005623302 -0.0069302632 -0.0004834673 -0.01679776 -0.009425206 0.0058332975 0.008319818 0.0021191929

network_body._body_endoder.seq_layers.0.bias f4 [128]
00000000: 0000 0000 0000 0000 0000 0000 0000 0000
00000010: 0000 0000 0000 0000 0000 0000 0000 0000
00000020: 0000 0000 0000 0000 0000 0000 0000 0000
00000030: 0000 0000 0000 0000 0000 0000 0000 0000
00000040: 0000 0000 0000 0000 0000 0000 0000 0000
00000050: 0000 0000 0000 0000 0000 0000 0000 0000
00000060: 0000 0000 0000 0000 0000 0000 0000 0000
00000070: 0000 0000 0000 0000 0000 0000 0000 0000
00000080: 0000 0000 0000 0000 0000 0000 0000 0000
00000090: 0000 0000 0000 0000 0000 0000 0000 0000
000000a0: 0000 0000 0000 0000 0000 0000 0000 0000
000000b0: 0000 0000 0000 0000 0000 0000 0000 0000
000000c0: 0000 0000 0000 0000 0000 0000 0000 0000
000000d0: 0000 0000 0000 0000 0000 0000 0000 0000
000000e0: 0000 0000 0000 0000 0000 0000 0000 0000
000000f0: 0000 0000 0000 0000 0000 0000 0000 0000
00000100: 0000 0000 0000 0000 0000 0000 0000 0000
00000110: 0000 0000 0000 0000 0000 0000 0000 0000
00000120: 0000 0000 0000 0000 0000 0000 0000 0000
00000130: 0000 0000 0000 0000 0000 0000 0000 0000
00000140: 0000 0000 0000 0000 0000 0000 0000 0000
00000150: 0000 0000 0000 0000 0000 0000 0000 0000
00000160: 0000 0000 0000 0000 0000 0000 0000 0000
00000170: 0000 0000 0000 0000 0000 0000 0000 0000
00000180: 0000 0000 0000 0000 0000 0000 0000 0000
00000190: 0000 0000 0000 0000 0000 0000 0000 0000
000001a0: 0000 0000 0000 0000 0000 0000 0000 0000
000001b0: 0000 0000 0000 0000 0000 0000 0000 0000
000001c0: 0000 0000 0000 0000 0000 0000 0000 0000
000001d0: 0000 0000 0000 0000 0000 0000 0000 0000
000001e0: 0000 0000 0000 0000 0000 0000 0000 0000
000001f0: 0000 0000 0000 0000 0000 0000 0000 0000
0.0 0.0 0.0 0.0 0.0 0.0 0.0 0.0
0.0 0.0 0.0 0.0 0.0 0.0 0.0 0.0
0.0 0.0 0.0 0.0 0.0 0.0 0.0 0.0
0.0 0.0 0.0 0.0 0.0 0.0 0.0 0.0
0.0 0.0 0.0 0.0 0.0 0.0 0.0 0.0
0.0 0.0 0.0 0.0 0.0 0.0 0.0 0.0
0.0 0.0 0.0 0.0 0.0 0.0 0.0 0.0
0.0 0.0 0.0 0.0 0.0 0.0 0.0 0.0
0.0 0.0 0.0 0.0 0.0 0.0 0.0 0.0
0.0 0.0 0.0 0.0 0.0 0.0 0.0 0.0
0.0 0.0 0.0 0.0 0.0 0.0 0.0 0.0
0.0 0.0 0.0 0.0 0.0 0.0 0.0 0.0
0.0 0.0 0.0 0.0 0.0 0.0 0.0 0.0
0.0 0.0 0.0 0.0 0.0 0.0 0.0 0.0
0.0 0.0 0.0 0.0 0.0 0.0 0.0 0.0
0.0 0.0 0.0 0.0 0.0 0.0 0.0 0.0

network_body._body_endoder.seq_layers.0.weight f4 [128, 114]
00000000: 2c61 ad3d 158b 433d d6cb 29bd 5780 f03d
00000010: c780 013e 32da 39bc b79c 083e 0a22 91bd
00000020: a848 623d 1117 f4bd 1f94 443d 3905 2c3d
00000030: 7aac c8bd b65e 163b de49 69bd e5e1 c8bc
00000040: a73d 1b3c 747f 503e 1171 b63d 51ac 723d
00000050: 1d44 20bc 6695 693d ab87 2dbd d0bf 993d
00000060: f077 0e3e 9ab1 2ebd 114f df3d 44b1 eebd
00000070: cc29 66bd 7462 7cba 8d99 ef3c 4e16 003e
00000080: e333 eebd 7bb4 4cbe 082f 223e 4a58 ad3d
00000090: a145 c73c 52df 253d d8f4 8cbd 0ff2 2a3e
000000a0: 60d5 823c 041a a03d e43b 763d 7ce0 f3bc
000000b0: e3d2 013d f890 233e 8e47 1a39 e426 0dbe
000000c0: 5d37 543d 8d36 14be e9b2 093d adcc a1bd
000000d0: b988 afbb a58e a1bc 7948 413e 2e6a d33c
000000e0: d7af ccbd 9a8a 363c 7076 5cbd 538d f03d
000000f0: 73f0 db3c 3243 26be 8e3b 983d 6cc4 e93c
00000100: 039d 5bbe b46f c53c 5013 073e e67f 06be
00000110: c1db f6bc 0910 0e3c f392 cabd 60a1 9abd
00000120: 226d 72bd 5ceb 023c 2755 33be 380d d8bc
00000130: e0c7 1b3e 3a53 2bbc 6e0c 01be 3ad5 083e
00000140: 6a8b 783b cb13 8f3d 1ec9 c7bc 553b f73c
00000150: cadf 043d b6f0 31be 0168 ffbd 74ee 843b
00000160: 6004 013e ab41 3b3d b293 b5bd cddd d43c
00000170: de1e 2ebd 7014 063e e4cd d03c 8936 e13d
00000180: c693 f8bc 7bfb 083d 3c26 103e 6357 82bd
00000190: 9fbb 67bd 574a 1b3e c59e 9cbc 929b 7abe
000001a0: abd2 313c 6e1e fbbd d539 1abc a72c 00be
000001b0: f9b9 1e3e 085e 35ba d9bc 5ebe eaab 2bbd
000001c0: b58e 023e 68d4 383d 256d 07be 23b6 1d3c
000001d0: ded6 e43d 4817 843d 30ac c33d d2b2 1c3e
000001e0: 9433 c23d 24c1 8e3c 4887 c83d f830 efbd
000001f0: 885c 83bc 469e 913d 196f 9bbd 4b60 8b3c
00000200: dc63 08bc 43ea 27bc 45d8 84bd 44f6 08bc
00000210: de79 1abe 624e 78bd 7a63 49be 8db1 ecbd
00000220: da26 4abd f080 19bd 8acf 20be 3357 b43d
00000230: a1c2 8abd 385d be3c 8ae5 743c 556a 9cbd
00000240: 0481 81bd 3bca 2abd a5fa dcbd f387 07be
00000250: 0f2b 203d fa23 c43c c93e 81bc 6c8a dc3b
00000260: d909 793d fda9 82bc 04c1 e43c ffc0 c03d
00000270: 026f c03b e20a 653d 3a81 32bd 6d34 b4bd
00000280: 58d3 4f3e d035 a63d 2782 263e afff 08be
00000290: a979 be3c 4b50 5e3d f2d2 ae3d c3f6 9d3c
000002a0: 6e66 96bd 8900 1abd da35 8bbd d07a c43d
000002b0: edc3 34bd ec38 c63d cc63 973d 770a 41be
000002c0: ad5e 12be b134 dbba c56f 213e 132e 43be
000002d0: 41b5 3b3c 455c f43d 8fe3 52be d08e 5fbd
000002e0: 8191 b63d d55f 633d ec53 82bd 9cfa 863d
000002f0: 48b7 c2bd a924 9dbd 1fe7 35bb 79c1 453d
00000300: 43e9 2ebe 3c9c ef3d 0b12 dcbd 0eb9 09bd
00000310: 2681 74bd 1ff4 5fbd 43a7 093e 0b5b dfbd
00000320: df7c 2fbd d8be 14bd 5b30 57be 5d7d 533d
00000330: 25d1 90be 54cd 93bd ecf9 53bd bdea 7f3d
00000340: d0d7 ce3c 8a75 f13d df32 e93d a2f6 a43d
00000350: 18fd 4ebd ea81 8f3d 3604 a2bb 006f ffbc
00000360: 4df2 17bd 5371 f8bd 39f1 9f3d fe39 cdbc
00000370: e671 0ebe 1aaa 9cbd 60c1 693c ff89 353d
00000380: a0d9 84bd 058f 28bd a9b0 a83d a2ad 233e
00000390: d83e 40bd 2dc2 1c3c 63db 05be a759 4bbd
000003a0: 5377 573d 47d1 143d 1945 263c d5f5 ddbd
000003b0: 072e e93d ea9f ddbd 5a76 52bd 73eb d73c
000003c0: ec91 2d3e 4857 0abd ab16 e1bd 5aac f5bd
000003d0: d771 1ebc 8cc3 0ebd bcbc 393e cd9d 58bd
000003e0: e6b8 1d3d 70f7 683d 1749 85bd 10d0 1e3e
000003f0: 8f97 8cbd 1d40 35be 15c2 5e3e 6b2a 0cbd
0.084658 0.04774006 -0.04145416 0.11743229 0.12646781 -0.011343526 0.13341032 -0.070865706
0.05524507 -0.11918462 0.04799282 0.04199717 -0.09798522 0.0022944636 -0.05695521 -0.024521777
0.009475148 0.2036112 0.089082845 0.059246365 -0.0097818645 0.057027243 -0.04236571 0.075072885
0.1391294 -0.042649843 0.109037526 -0.116549045 -0.056192204 -0.0009627708 0.029248023 0.12508509
-0.1163099 -0.19990723 0.15838253 0.084641054 0.024325194 0.040496178 -0.06882638 0.166939
0.015970886 0.07817462 0.06011571 -0.029770128 0.031695258 0.1597327 0.0001471324 -0.13784367
0.05181061 -0.14473934 0.033617888 -0.07900367 -0.005356875 -0.019721339 0.18875302 0.025807466
-0.09994476 0.011141444 -0.05382389 0.117457055 0.026848054 -0.1623657 0.07433234 0.028536044
-0.21446614 0.024101116 0.13190961 -0.13134727 -0.030134084 0.008670815 -0.098913096 -0.07550311
-0.05918611 0.007990684 -0.17512952 -0.02637349 0.15212965 -0.0104568545 -0.12602398 0.1336259
0.0037924894 0.06986197 -0.024387892 0.030179659 0.032439984 -0.1737698 -0.12471009 0.004056746
0.12599325 0.045716923 -0.08866061 0.02598467 -0.042509906 0.13093734 0.025488801 0.1099673
-0.030343901 0.033442955 0.14077085 -0.06364324 -0.056575414 0.15165077 -0.019118676 -0.24473408
0.01085345 -0.122616634 -0.009413202 -0.12517034 0.1550063 -0.0006918614 -0.21751727 -0.041911997
0.12749751 0.04512444 -0.13225229 0.009625944 0.11173795 0.06449753 0.095543265 0.1530259
0.09482494 0.017426081 0.09791428 -0.11679262 -0.016035333 0.071102664 -0.075895496 0.01701369
-0.00832459 -0.010248723 -0.06486563 -0.008359496 -0.15085551 -0.060621627 -0.19666854 -0.115573026
-0.049353458 -0.03747648 -0.1570417 0.088056944 -0.06775404 0.02323781 0.0149473045 -0.07637469
-0.06323436 -0.04169677 -0.10789994 -0.13235454 0.039103564 0.023942936 -0.015777009 0.0067303684
0.060800407 -0.015950197 0.027924068 0.09411811 0.005872608 0.05591858 -0.04358027 -0.08799062
0.20295465 0.08115733 0.16260587 -0.13378786 0.023251371 0.054275792 0.085363284 0.019282704
-0.07343756 -0.037598167 -0.06797381 0.09593737 -0.044132162 0.09678826 0.073920816 -0.18851648
-0.14293928 -0.0016724077 0.15765293 -0.19060545 0.0114567885 0.119316615 -0.20594619 -0.054579556
0.089144714 0.055511314 -0.06363663 0.06590769 -0.095076144 -0.07673008 -0.0027756167 0.048280213
-0.1708117 0.11699721 -0.10745629 -0.033623748 -0.059693478 -0.05467617 0.13442712 -0.10906037
-0.042843696 -0.036314815 -0.2101454 0.051633228 -0.28284565 -0.072168976 -0.051752016 0.062479723
0.025249392 0.11789997 0.11386656 0.08054854 -0.050534338 0.07007201 -0.0049443496 -0.031180859
-0.03709631 -0.1213099 0.078096814 -0.025052067 -0.13910636 -0.07649632 0.014267296 0.044321056
-0.06486821 -0.04115202 0.0823682 0.15984204 -0.046934932 0.0095677795 -0.1307197 -0.049646046
0.05260403 0.036332395 0.01014831 -0.10837904 0.11385732 -0.10821517 -0.0513824 0.026357388
0.16950196 -0.033774644 -0.10990652 -0.11995764 -0.009670696 -0.034854457 0.18138403 -0.052884866
0.03850641 0.0568766 -0.065080814 0.15509057 -0.06864845 -0.17700239 0.21753724 -0.03422014

network_body._body_endoder.seq_layers.2.bias f4 [128]
00000000: 0000 0000 0000 0000 0000 0000 0000 0000
00000010: 0000 0000 0000 0000 0000 0000 0000 0000
00000020: 0000 0000 0000 0000 0000 0000 0000 0000
00000030: 0000 0000 0000 0000 0000 0000 0000 0000
00000040: 0000 0000 0000 0000 0000 0000 0000 0000
00000050: 0000 0000 0000 0000 0000 0000 0000 0000
00000060: 0000 0000 0000 0000 0000 0000 0000 0000
00000070: 0000 0000 0000 0000 0000 0000 0000 0000
00000080: 0000 0000 0000 0000 0000 0000 0000 0000
00000090: 0000 0000 0000 0000 0000 0000 0000 0000
000000a0: 0000 0000 0000 0000 0000 0000 0000 0000
000000b0: 0000 0000 0000 0000 0000 0000 0000 0000
000000c0: 0000 0000 0000 0000 0000 0000 0000 0000
000000d0: 0000 0000 0000 0000 0000 0000 0000 0000
000000e0: 0000 0000 0000 0000 0000 0000 0000 0000
000000f0: 0000 0000 0000 0000 0000 0000 0000 0000
00000100: 0000 0000 0000 0000 0000 0000 0000 0000
00000110: 0000 0000 0000 0000 0000 0000 0000 0000
00000120: 0000 0000 0000 0000 0000 0000 0000 0000
00000130: 0000 0000 0000 0000 0000 0000 0000 0000
00000140: 0000 0000 0000 0000 0000 0000 0000 0000
00000150: 0000 0000 0000 0000 0000 0000 0000 0000
00000160: 0000 0000 0000 0000 0000 0000 0000 0000
00000170: 0000 0000 0000 0000 0000 0000 0000 0000
00000180: 0000 0000 0000 0000 0000 0000 0000 0000
00000190: 0000 0000 0000 0000 0000 0000 0000 0000
000001a0: 0000 0000 0000 0000 0000 0000 0000 0000
000001b0: 0000 0000 0000 0000 0000 0000 0000 0000
000001c0: 0000 0000 0000 0000 0000 0000 0000 0000
000001d0: 0000 0000 0000 0000 0000 0000 0000 0000
000001e0: 0000 0000 0000 0000 0000 0000 0000 0000
000001f0: 0000 0000 0000 0000 0000 0000 0000 0000
0.0 0.0 0.0 0.0 0.0 0.0 0.0 0.0
0.0 0.0 0.0 0.0 0.0 0.0 0.0 0.0
0.0 0.0 0.0 0.0 0.0 0.0 0.0 0.0
0.0 0.0 0.0 0.0 0.0 0.0 0.0 0.0
0.0 0.0 0.0 0.0 0.0 0.0 0.0 0.0
0.0 0.0 0.0 0.0 0.0 0.0 0.0 0.0
0.0 0.0 0.0 0.0 0.0 0.0 0.0 0.0
0.0 0.0 0.0 0.0 0.0 0.0 0.0 0.0
0.0 0.0 0.0 0.0 0.0 0.0 0.0 0.0
0.0 0.0 0.0 0.0 0.0 0.0 0.0 0.0
0.0 0.0 0.0 0.0 0.0 0.0 0.0 0.0
0.0 0.0 0.0 0.0 0.0 0.0 0.0 0.0
0.0 0.0 0.0 0.0 0.0 0.0 0.0 0.0
0.0 0.0 0.0 0.0 0.0 0.0 0.0 0.0
0.0 0.0 0.0 0.0 0.0 0.0 0.0 0.0
0.0 0.0 0.0 0.0 0.0 0.0 0.0 0.0

network_body._body_endoder.seq_layers.2.weight f4 [128, 128]
00000000: fa6f 273d 0158 123e 7fca 48bd 0d31 a93d
00000010: 2945 423d c21c e0bd 3c60 823d 5cbd 20bd
00000020: eba6 3cbe 41ab 2dbe 9608 73bd 2072 dbbc
00000030: db18 ad3d beac 6fbd 8b73 fa3d c93b c3bc
00000040: b176 143d 036f 2439 0106 59bd 73ce bd3d
00000050: 393b 133e ef70 cebc c133 d4bc ecde 983d
00000060: b2d5 01be 06b8 a63c 2fac 58be 013c 483e
00000070: 67be 5abd c003 15be 92fd a83d a214 9ebc
00000080: ed45 b8bc e21a ec3d a921 73bc cbf1 37be
00000090: 99af 8c3d 30f8 40bd a04f 17bd dc5e 093c
000000a0: c9e1 86bc baa8 99bc 3975 96bd 7894 c4bb
000000b0: ef12 ce3d 449a 92bd 6bc4 ea3c b57c d23d
000000c0: 0e7f 9d3c 8ab0 80bd fdf8 22bc 3b4e 1abe
000000d0: 2154 cf3d 7115 fe3d 0d5d 913d 3c87 463d
000000e0: 6c92 a2bd 69d0 4ebe f841 583d f98f 85bc
000000f0: a3f2 efbd 54f1 f6bd e75a e03d 4130 b8bc
00000100: eb75 31be 1632 86be 17bd f9bd c059 9c3d
00000110: e5b0 18b9 30de bd3d 1ec7 32bd 7a1b 073e
00000120: 982e 303e 427f bfbb 7869 593c 3fcc 033e
00000130: f352 793d fd90 c73b 2dd9 173c b80c eb3d
00000140: 0255 0b3e 56b2 03be 04ea 9fbd 2c3c 7abe
00000150: ae23 da3d cb54 1e3d 8676 3b3d b50c 203d
00000160: 255b 573d 4e9e a2bd 06e1 b03d 497e 123d
00000170: e78f b2bc cd6e 633c dc11 b5bd 0e22 a43d
00000180: a26c f3bb 0905 d03d b896 88bc d7e3 13be
00000190: 2abc 96bd 22dc 233d e875 383d c0b2 cc3d
000001a0: 396d 633d 48e3 19be 2e20 0a3e 7407 19be
000001b0: 8d3c d7bc 7833 16bc f40c 033d 7626 33bd
000001c0: dcea 043d 2d48 5d3c 50f0 293d 95a1 3cbe
000001d0: b928 1cbc 75ea d43d d41f 40bd 8f9c d4bd
000001e0: def0 333e c9cb 943d 7889 093e ea40 09bd
000001f0: bd62 80bd 280c 0abe 5797 88bd 1d97 06bd
00000200: f723 e3bc 4c18 953d 4eb7 153d d1a3 2fbd
00000210: c159 03bd 5995 a3bc 22f0 043d e4d0 25be
00000220: 406b bf3d 00e6 55bc b141 953d b7d3 09be
00000230: 9c2a 923d 31ac 933d 0986 ddbd bdf4 d33d
00000240: d1e3 4f3d bdee b8bd 32b4 eabd 9cd3 c13b
00000250: 6a26 ccbd 76f6 6abd 83cf 88bd a5a4 4dbe
00000260: 5af1 d03a b063 e33b 06af 72bd c571 cebd
00000270: b4ac cabc 53ce 4bbd 02b3 983d d62f 3f3e
00000280: c115 9ebd 1ac3 413d 8262 60bd 31f1 523d
00000290: 6fab ad3d 0701 183d 032c 6ebd d26d 563d
000002a0: 4244 90bd 523d 353e 0f98 40be 9223 433c
000002b0: 07d5 7b3d b4a8 27bd 8da3 cfbb 1a00 cebc
000002c0: ea73 12be 26af 5e3b b7cd 83bd 84ae 02bd
000002d0: 367b dbbd 8a2f 46be f773 6cbd 8cd0 633d
000002e0: 2661 2ebc cd1b 86bd f9ff 0f3d d668 ffbc
000002f0: 14a5 bcbd 61de 4abd 083e ddbd e3c5 8a3d
00000300: c1b2 edbd a0a1 843d f378 1bbd fea7 173e
00000310: 41b1 a5bd 7c88 ba3d ca9e 4fbb 8fd7 743d
00000320: a7aa 44bd 0e48 22bd 7c41 f23a 5f75 143d
00000330: a451 d9bd 28eb 0e3e 56bd 14bd 99ea f23d
00000340: d084 423d 67ff a23c 740b 23be 8c6f 2fbb
00000350: 0b05 b23d fa04 b2bd 3d40 2f3d d32d 353d
00000360: 13dd 82bc 071d e8bd 0ca7 123c 3b03 cc3b
00000370: afda b73c cdda a83d 6099 05bd 65a6 333e
00000380: 2db2 cf3a 4d3a 98bc 2282 bc3c d2c7 40bd
00000390: 6e37 c8bd 62af c43d b874 c0bd ef50 00bd
000003a0: dcd6 5fbb 02cc 553d db84 bdbc 993b 2fbd
000003b0: 1be6 a9bd f44c 263d 5b7c 4cbd ad0c ea3b
000003c0: 4d3c 6a3d 63db 173d 3050 98bd 9b17 523d
000003d0: 6dfc 3dbe 6cba 923c 0155 3ebd 787f 123a
000003e0: 1d28 733d 3c13 033e 5676 403b 5490 f6bc
000003f0: 54f2 b43c b098 f73b 25a5 68bc 81d0 913d
0.040878274 0.14291383 -0.04902124 0.08261309 0.047429238 -0.10942985 0.063660115 -0.039243087
-0.18423049 -0.1695986 -0.05933436 -0.026787817 0.084520064 -0.05851435 0.12229069 -0.023832219
0.036246005 0.00015681614 -0.05298424 0.09267893 0.1437806 -0.025200335 -0.025903584 0.07464394
-0.12679175 0.020351421 -0.21159433 0.1955414 -0.053404238 -0.14552212 0.0825149 -0.019296948
-0.02249428 0.11528565 -0.014839568 -0.1796333 0.0686943 -0.04711169 -0.03694117 0.008384433
-0.016465085 -0.018757213 -0.07346577 -0.005999144 0.10062205 -0.0715833 0.028658113 0.10277692
0.019225623 -0.06283672 -0.009947059 -0.15068905 0.10123468 0.124064334 0.07097826 0.048468813
-0.07938084 -0.2019669 0.052797288 -0.016304003 -0.11716201 -0.120577484 0.10954838 -0.022483947
-0.17330138 -0.26210088 -0.12194269 0.07634306 -0.00014561748 0.092708945 -0.043646924 0.13194075
0.17205274 -0.0058440277 0.013269775 0.12870882 0.060870122 0.006090282 0.009268087 0.11477035
0.13606647 -0.12860999 -0.07808307 -0.24437016 0.106513366 0.038655084 0.04576733 0.03907462
0.052577157 -0.079403505 0.0863667 0.035764966 -0.021797134 0.013881397 -0.08841297 0.08014308
-0.0074287215 0.101572104 -0.01667343 -0.14442383 -0.07360108 0.040004857 0.04503432 0.09995031
0.055524085 -0.15028107 0.13488838 -0.1494425 -0.02627399 -0.009167545 0.031994775 -0.04373785
0.03245054 0.013505978 0.041488945 -0.18421014 -0.009531193 0.10396282 -0.046905354 -0.10381424
0.17572352 0.072654314 0.13431346 -0.033509172 -0.06268833 -0.134812 -0.06669491 -0.032858957
-0.02772711 0.07280025 0.036551766 -0.042880837 -0.032068018 -0.019968675 0.03245557 -0.16192967
0.09346628 -0.013055325 0.0728792 -0.13459669 0.07137033 0.07210577 -0.10816581 0.103494145
0.050754372 -0.09029911 -0.11460151 0.0059151184 -0.099682644 -0.05736395 -0.06680205 -0.20082338
0.0015941069 0.006939374 -0.059248947 -0.100802936 -0.024740554 -0.049757313 0.07456018 0.18670592
-0.07718993 0.047305204 -0.054781444 0.05149955 0.08479964 0.037110355 -0.05814744 0.052350827
-0.07044269 0.17699173 -0.18808006 0.011910336 0.061482456 -0.040932372 -0.0063366354 -0.025146533
-0.1430203 0.0033978908 -0.06435721 -0.031904712 -0.1071686 -0.19354072 -0.05772778 0.055618808
-0.010643279 -0.06548271 0.035156224 -0.03117792 -0.09211174 -0.049528483 -0.10802847 0.06776025
-0.1160636 0.0647614 -0.037957143 0.14810178 -0.08090449 0.091080636 -0.003168034 0.059775885
-0.04801431 -0.039619498 0.0018482651 0.036244746 -0.10611275 0.13956892 -0.036313377 0.11861152
0.04748994 0.019897176 -0.15922338 -0.0026769368 0.08692368 -0.086923555 0.04278587 0.044233155
-0.015974557 -0.113336615 0.00895096 0.006225971 0.022443144 0.08244858 -0.032616973 0.17543943
0.0015845947 -0.018582487 0.02301127 -0.047065563 -0.097761974 0.09603764 -0.09397262 -0.031327184
-0.0034155166 0.05219651 -0.02313464 -0.042781446 -0.08295842 0.040600732 -0.049923282 0.0071426244
0.057186414 0.037074458 -0.074371696 0.051292043 -0.18553324 0.017911159 -0.046467785 0.00055884523
0.059364427 0.12800306 0.0029367409 -0.030098118 0.022088207 0.0075560436 -0.01419953 0.07119847
