Results/test8/Doughnut/Doughnut-0.onnx (onnx, 109697 bytes, 6 tensors)

action_model._discrete_distribution.branches.0.bias f4 [2]
000000 00 00 00 00 00 00 00 00
       0.0 0.0

action_model._discrete_distribution.branches.0.weight f4 [2, 128]
000000 95 af d8 bc 7d 97 5d 3c 07 7f e5 bb 3b 23 26 3c
       -0.026450912 0.013524887 -0.007003668 0.010140236
000010 b5 62 cf 3a df 7c 6b bc 6c 59 ba bc 83 7d 23 3b
       0.0015822264 -0.014373033 -0.022747718 0.0024946637
000020 3e e9 87 39 52 f5 6f bb eb 55 f6 bb 2d 48 89 bc
       0.00025922986 -0.0036614728 -0.0075175664 -0.016758049
000030 57 09 64 bb f8 30 f6 3b 9b 8b 71 3b 07 d4 47 bc
       -0.0034795606 0.0075131617 0.0036856893 -0.012196547
000040 40 bd 94 3c 41 d5 10 3c 75 cc 24 bb eb b9 df bb
       0.018156648 0.008839906 -0.002514628 -0.006827583
000050 6d cc a9 bc 1c 74 2b 3c e2 f7 e1 3b 27 e2 83 bb
       -0.02072736 0.010464694 0.006896005 -0.004024762
000060 c9 87 c1 ba dd d6 ab 39 8d 33 f0 bb cf 05 6e 3c
       -0.0014765199 0.00032775747 -0.007330364 0.014527752
000070 47 8f 84 bb 8d 18 3b bc f3 51 80 3a 33 7c d0 3b
       -0.0040454003 -0.011419428 0.0009790048 0.006362462
000080 bb df 58 bc 4a 67 ef ba 83 c4 f3 bc 9f ec 3c 3c
       -0.013236935 -0.0018265035 -0.02975679 0.011531024
000090 c8 8a e2 3b a7 a5 1e 3c f2 05 6d bc e3 b8 01 bc
       0.0069135167 0.009683049 -0.0144667495 -0.007917616
0000a0 f5 46 27 bc 3e 31 07 bb f7 50 cc 3b 7d 0a 54 3a
       -0.010209789 -0.0020628716 0.0062352377 0.0008088721
0000b0 f2 75 80 3c 8f 1a b7 3a 3f 6f 6e 3c 10 a8 1a 3b
       0.01568124 0.0013969707 0.01455289 0.0023598708
0000c0 64 c2 04 3c 20 eb 3b 3c bf ad 1c 3c 36 00 c8 bc
       0.008102987 0.011469632 0.009562909 -0.024414163
0000d0 33 e5 ae ba 42 df 66 bb 11 d8 0b 3c 0d 63 6e 3c
       -0.0013343453 -0.0035228287 0.008535401 0.014549983
0000e0 2a 09 a7 bc 0f cd 00 bc 3b 20 46 3b 0c ce 19 3c
       -0.020390112 -0.00786139 0.0030231613 0.009387504
0000f0 d8 60 d6 ba 42 71 e6 bc 18 e8 68 ba 0b a7 10 3c
       -0.0016355766 -0.028130177 -0.00088846823 0.008828889
000100 55 35 9d 3b 72 ab 90 3c dd 6b 51 bb 7b 10 87 bb
       0.0047976174 0.017659876 -0.003195516 -0.0041218377
000110 90 29 08 3b f3 f5 7c bc 4c 4e 22 3c f7 ba 37 3c
       0.0020776726 -0.015439498 0.009906363 0.0112140095
000120 25 03 5b 3b f3 c6 fc bb e3 dc 19 bc ee f7 1c 3c
       0.0033418622 -0.0077141463 -0.009391042 0.009580595
000130 42 e9 d7 bb bc 73 b6 bb 38 ac 97 bb 7b e1 68 bb
       -0.006589086 -0.005567996 -0.0046286844 -0.0035534787
000140 33 ed 6d 39 ad ba 7c 3c 97 68 08 3c f6 ac 18 bc
       0.00022690445 0.015425366 0.008325717 -0.009318581
000150 a5 f6 90 3b 87 c7 86 3b 39 eb bc ba 9a b6 05 3c
       0.0044239336 0.004113141 -0.0014413364 0.008161211
000160 de 7c aa 3b e9 b1 0b 3b 8f c3 55 bc 87 a7 3a bc
       0.0052028736 0.002131576 -0.013047113 -0.011392481
000170 5b 56 38 bb 9f be 33 3c ed 40 df bb 87 10 9c 3b
       -0.0028127644 0.010970741 -0.0068131597 0.0047627124
000180 3f 6f f0 bb 54 c6 b0 3b 16 7c 3e 3a da e7 78 ba
       -0.0073374803 0.0053947363 0.0007266415 -0.0009494998
000190 93 29 9b 3a 03 67 c6 ba d7 97 56 3b 15 15 0a bc
       0.0011837952 -0.0015136901 0.0032744312 -0.008427878
0001a0 65 c8 51 3b 67 3e 40 bc cf f6 4e 3c 8a 05 64 3c
       0.0032010314 -0.011733628 0.012632086 0.013917336
0001b0 0b 22 bb 3a ba 3b 0f 3c 03 8f 5c 3a ae 90 89 bb
       0.0014277113 0.008742267 0.00084136444 -0.0041981554
0001c0 cb 15 8d 3c fe 1b 1b bc d5 02 9d bb 80 8b 75 bb
       0.017222306 -0.009467123 -0.0047915974 -0.0037467182
0001d0 d7 8f e8 3b 9b db f4 3b 68 31 d7 3b c5 7b 6d 3c
       0.007097225 0.007472468 0.006567169 0.014494841
0001e0 ef 0d 8e 3b a3 49 38 3c 8a 27 e5 3b 6a 4f 7b 3b
       0.004335157 0.011248025 0.006993239 0.0038346895
0001f0 f0 ce e6 bb b3 9e 2c 3c c6 3d 08 3a 17 13 39 3b
       -0.007043712 0.010535884 0.0005197193 0.0028240138
000200 4f 4f 22 bb 1a 8c 73 3c 18 38 36 3c 92 8b 35 3c
       -0.002476651 0.014864946 0.011121772 0.011080639
000210 db 4e 1b 3c 63 d7 ef 3a 33 e0 4d 3c b3 ad 00 3b
       0.00947925 0.0018298443 0.01256566 0.0019634783
000220 95 27 2d 3c 67 c4 be bb 0a 6c d8 bb 77 33 0c bc
       0.010568519 -0.005821753 -0.006604676 -0.008557192
000230 27 d2 97 3c bf 8c 18 3c 1a c9 d7 39 5b 69 26 3c
       0.018532826 0.0093109 0.00041157828 0.010156955
000240 04 8f 8f bc f3 63 8e bc a6 4b b3 bb 04 cf 37 ba
       -0.01752425 -0.017381644 -0.0054716645 -0.0007011744
000250 3f 65 9a bb de 66 9c 3b 38 cb 95 3a 33 96 7b bc
       -0.0047117765 0.004773005 0.0011428362 -0.0153556345
000260 44 e9 2a bc 19 2b 80 3c 90 32 96 bb a1 76 bd 3b
       -0.010431591 0.01564555 -0.0045836642 0.005781964
000270 53 8b ff 39 5f 5c 28 bc 58 c9 39 3c 4b ff 91 bb
       0.00048741195 -0.010275929 0.011339508 -0.004455482
000280 35 b4 b6 3a aa 4e f3 3a 06 a7 09 bc ef cd a9 3c
       0.0013939204 0.0018562872 -0.008401638 0.02072808
000290 3d 53 e4 ba 0a 6e 81 bb 2d 39 0f 3c a5 50 5f 3b
       -0.0017419826 -0.0039498853 0.008741659 0.0034075167
0002a0 cf c3 1d 3b 0f bf cc 3b 5e de 38 b9 09 8a 2b 3c
       0.002407301 0.006248362 -0.00017630446 0.010469922
0002b0 87 eb 48 3b 14 8e 93 3c 12 5c c2 3b 02 ba 93 bb
       0.0030657963 0.018012084 0.005931386 -0.004508258
0002c0 89 ca b3 ba 60 9a 50 3c ac cd 39 3c 83 67 4a 3c
       -0.0013716976 0.012732118 0.01134054 0.012353781
0002d0 cf e6 f3 3a 84 b4 1f 3b 28 4f 06 bb 2b 66 85 3b
       0.0018608215 0.002436907 -0.0020493958 0.0040710173
0002e0 27 de 3f ba 57 09 2d bc ae fd 30 bc f3 5d 41 bc
       -0.0007319175 -0.010561309 -0.010802669 -0.011802184
0002f0 98 ea e5 3b cd 15 ea 3b c3 32 1e bc 5f 29 ac bb
       0.007016491 0.007143712 -0.009655657 -0.0052539553
000300 ba 5e 66 bc b3 48 b0 bb d9 b6 c6 bb be 31 03 3c
       -0.0140606705 -0.00537976 -0.0060642776 0.008007465
000310 fd 09 aa 3b 13 dc 2e 3a fb f2 65 ba d0 10 27 3b
       0.005189179 0.0006670367 -0.00087718636 0.0025492199
000320 50 f2 95 3c ac f6 b1 3b af 15 84 3b 9b 5a d6 3b
       0.01830402 0.005431017 0.004030905 0.0065415627
000330 e2 05 5c 3b f8 98 f9 3b ef 04 56 bc 77 11 73 3c
       0.0033572842 0.0076171122 -0.0130627 0.014835707
000340 40 aa ce 3a ac 44 91 bb 6d eb 74 bb 82 dd 9d bb
       0.0015767291 -0.004433235 -0.003737177 -0.0048176656
000350 09 d1 85 bc b2 6d 73 bb 92 3b b4 bb e8 db e1 3a
       -0.016335027 -0.003714424 -0.0055002654 0.0017231675
000360 a7 89 eb 3b cf 1c 04 bc 94 e1 20 bc 07 21 18 bc
       0.0071880403 -0.008063509 -0.009819407 -0.009285218
000370 d5 b4 06 3b a3 48 4a 39 8f dd 77 3c ad ac 6a bb
       0.0020554562 0.0001929128 0.015128507 -0.003580849
000380 d0 2e 1b 3b 8b 8f 02 bc 8f 85 a7 3b ba 04 86 bb
       0.0023679025 -0.007968794 0.005112357 -0.004089919
000390 0d 92 36 bb 33 0a dc 3a 96 65 20 bc 7b 81 46 3b
       -0.002785805 0.0016787708 -0.009789845 0.0030289579
0003a0 9b ca 16 bc 7b b9 54 3b 64 e4 09 3c ba 77 6f bc
       -0.009203578 0.0032459188 0.008416269 -0.014615947
0003b0 20 0b bc bc bb 82 c9 3b d1 18 84 3b 11 12 c7 bb
       -0.022954524 0.0061496175 0.0040312787 -0.0060751517
0003c0 ae bd 18 3b 30 51 dc 3b 1a 07 32 ba 02 b8 bc ba
       0.0023306417 0.0067235455 -0.00067912193 -0.00143981
0003d0 cc fa 14 bb bf b7 66 3c cd 39 46 bb 0f 47 25 bc
       -0.0022732494 0.014081894 -0.0030246854 -0.0100877425
0003e0 51 4d 10 3b 3d e0 88 3c ec bd 2d bb d3 56 fb bb
       0.002201874 0.016708488 -0.0026510907 -0.0076702624
0003f0 07 a4 37 bb 13 a5 19 3c 5f 34 49 3c ab 58 82 bc
       -0.0028021352 0.009377736 0.012280553 -0.01591142

network_body._body_endoder.seq_layers.0.bias f4 [128]
000000 00 00 00 00 00 00 00 00 00 00 00 00 00 00 00 00
       0.0 0.0 0.0 0.0
000010 00 00 00 00 00 00 00 00 00 00 00 00 00 00 00 00
       0.0 0.0 0.0 0.0
000020 00 00 00 00 00 00 00 00 00 00 00 00 00 00 00 00
       0.0 0.0 0.0 0.0
000030 00 00 00 00 00 00 00 00 00 00 00 00 00 00 00 00
       0.0 0.0 0.0 0.0
000040 00 00 00 00 00 00 00 00 00 00 00 00 00 00 00 00
       0.0 0.0 0.0 0.0
000050 00 00 00 00 00 00 00 00 00 00 00 00 00 00 00 00
       0.0 0.0 0.0 0.0
000060 00 00 00 00 00 00 00 00 00 00 00 00 00 00 00 00
       0.0 0.0 0.0 0.0
000070 00 00 00 00 00 00 00 00 00 00 00 00 00 00 00 00
       0.0 0.0 0.0 0.0
000080 00 00 00 00 00 00 00 00 00 00 00 00 00 00 00 00
       0.0 0.0 0.0 0.0
000090 00 00 00 00 00 00 00 00 00 00 00 00 00 00 00 00
       0.0 0.0 0.0 0.0
0000a0 00 00 00 00 00 00 00 00 00 00 00 00 00 00 00 00
       0.0 0.0 0.0 0.0
0000b0 00 00 00 00 00 00 00 00 00 00 00 00 00 00 00 00
       0.0 0.0 0.0 0.0
0000c0 00 00 00 00 00 00 00 00 00 00 00 00 00 00 00 00
       0.0 0.0 0.0 0.0
0000d0 00 00 00 00 00 00 00 00 00 00 00 00 00 00 00 00
       0.0 0.0 0.0 0.0
0000e0 00 00 00 00 00 00 00 00 00 00 00 00 00 00 00 00
       0.0 0.0 0.0 0.0
0000f0 00 00 00 00 00 00 00 00 00 00 00 00 00 00 00 00
       0.0 0.0 0.0 0.0
000100 00 00 00 00 00 00 00 00 00 00 00 00 00 00 00 00
       0.0 0.0 0.0 0.0
000110 00 00 00 00 00 00 00 00 00 00 00 00 00 00 00 00
       0.0 0.0 0.0 0.0
000120 00 00 00 00 00 00 00 00 00 00 00 00 00 00 00 00
       0.0 0.0 0.0 0.0
000130 00 00 00 00 00 00 00 00 00 00 00 00 00 00 00 00
       0.0 0.0 0.0 0.0
000140 00 00 00 00 00 00 00 00 00 00 00 00 00 00 00 00
       0.0 0.0 0.0 0.0
000150 00 00 00 00 00 00 00 00 00 00 00 00 00 00 00 00
       0.0 0.0 0.0 0.0
000160 00 00 00 00 00 00 00 00 00 00 00 00 00 00 00 00
       0.0 0.0 0.0 0.0
000170 00 00 00 00 00 00 00 00 00 00 00 00 00 00 00 00
       0.0 0.0 0.0 0.0
000180 00 00 00 00 00 00 00 00 00 00 00 00 00 00 00 00
       0.0 0.0 0.0 0.0
000190 00 00 00 00 00 00 00 00 00 00 00 00 00 00 00 00
       0.0 0.0 0.0 0.0
0001a0 00 00 00 00 00 00 00 00 00 00 00 00 00 00 00 00
       0.0 0.0 0.0 0.0
0001b0 00 00 00 00 00 00 00 00 00 00 00 00 00 00 00 00
       0.0 0.0 0.0 0.0
0001c0 00 00 00 00 00 00 00 00 00 00 00 00 00 00 00 00
       0.0 0.0 0.0 0.0
0001d0 00 00 00 00 00 00 00 00 00 00 00 00 00 00 00 00
       0.0 0.0 0.0 0.0
0001e0 00 00 00 00 00 00 00 00 00 00 00 00 00 00 00 00
       0.0 0.0 0.0 0.0
0001f0 00 00 00 00 00 00 00 00 00 00 00 00 00 00 00 00
       0.0 0.0 0.0 0.0

network_body._body_endoder.seq_layers.0.weight f4 [128, 78]
000000 d2 6e 70 3e 61 53 0b bc b5 84 fa bd b8 67 96 3d
       0.23479775 -0.008503766 -0.12232343 0.073440015
000010 0f 15 fa bd d6 fc b3 3d 7e 0d 63 be 6e 0b 72 3e
       -0.12211048 0.08788459 -0.22173116 0.23637173
000020 35 3f 8c be 17 7a 14 be d8 b0 02 3d 3b b3 97 3d
       -0.27391973 -0.14499699 0.031906933 0.074072324
000030 81 12 27 be 90 44 0a 3a ea ad 9c bd 92 92 ef 3c
       -0.16315652 0.0005274499 -0.07650359 0.029244695
000040 13 c0 30 3e 1d b4 8f 3e c3 ca 23 be d3 49 20 be
       0.1726077 0.28067103 -0.15995316 -0.15653162
000050 7a 12 7d bd a0 7f f8 b7 6c d9 9d bc b3 c6 e8 3d
       -0.0617852 -2.9623334e-05 -0.019268714 0.11366024
000060 f8 89 2b bc 86 ad 17 3e 7d 6f 17 3e 0c 61 e6 3c
       -0.010469906 0.14812288 0.14788623 0.028122447
000070 7b 23 00 be 18 d9 81 bd 5e 8b 09 3c d7 10 43 3d
       -0.12513535 -0.063402355 0.008395044 0.04762348
000080 30 10 f8 3b 2f 49 51 bd e7 b6 50 bd f2 91 4c bb
       0.007570289 -0.051095184 -0.05095568 -0.003121492
000090 e1 63 95 bc 58 24 63 3d 8f 00 0c 3e c4 cb 7a 3e
       -0.018236103 0.055454582 0.13672088 0.24491793
0000a0 7f 62 8a 3d 4a 42 60 3d be 0c ab bd 59 d8 2e 3e
       0.06757068 0.05475072 -0.0835204 0.17074718
0000b0 a1 58 54 3e 30 da 22 3d de 89 25 bd 15 68 6d bd
       0.20736934 0.03975886 -0.040414684 -0.05796059
0000c0 7e 8d 99 bc 07 b7 44 bd 78 08 fa 3d cb f2 ab 3d
       -0.018744227 -0.04802611 0.122086465 0.083959185
0000d0 e5 f2 0f be 33 61 c8 bd 64 c0 e1 3d f7 e2 f4 3d
       -0.140575 -0.09784164 0.11023024 0.119573526
0000e0 0d 35 09 3d 80 a2 09 be 3e 27 b4 3d ea 84 bf 3d
       0.03349786 -0.13440895 0.08796547 0.09351523
0000f0 75 64 75 bc 60 41 60 3b e8 ac 25 be 47 c0 4a 3d
       -0.014977564 0.0034218654 -0.1617924 0.049499776
000100 c1 bc 01 be 00 35 94 bc 81 5c 2d bd 47 11 d4 bd
       -0.1266966 -0.018091679 -0.042324547 -0.10354858
000110 92 9f cf bd af 5f 05 3e ad bb d7 bd da 57 13 be
       -0.101378575 0.13024782 -0.10533843 -0.14388981
000120 0b a2 16 bd c6 94 55 3d 97 a8 aa bd 6d d7 00 3e
       -0.03677563 0.052143835 -0.08332937 0.12582178
000130 76 be e8 bd ca 15 5f 3d e1 e2 0b 3c bc d9 5a 3e
       -0.113644525 0.05446414 0.008537979 0.21372122
000140 19 a3 17 3e c1 08 fd 3c 30 90 06 3d fb 15 05 be
       0.1480831 0.030887963 0.03285235 -0.12996666
000150 67 d5 55 3d b7 85 9e bd 07 25 b3 bd 34 ac f1 3b
       0.05220547 -0.07740348 -0.08747297 0.0073752645
000160 fc 1b b1 bc 00 ab b7 3d 12 ad 66 bc 72 95 35 bc
       -0.02161979 0.089681625 -0.014079349 -0.011082994
000170 fd e8 08 be d6 5a 84 3d 71 99 56 3c 01 48 af 3c
       -0.13370128 0.06462638 0.013098107 0.021396639
000180 c0 a2 de bd 58 26 8f 3c 12 29 b9 3d b8 0a ac 3e
       -0.10870886 0.017474338 0.09041037 0.33601928
000190 c2 f6 30 3d 3c 93 6e 3e ae 9e 05 bc 26 9d ff 3d
       0.043204077 0.23298353 -0.008155508 0.124811456
0001a0 bc a3 88 3c c1 ae 93 3d 9a 08 26 3e f2 b4 bc bd
       0.016679637 0.07211066 0.16214219 -0.092142
0001b0 21 5e 0f 3d 08 72 70 bd 05 bf d7 bd b6 6b ae bd
       0.035001878 -0.0587025 -0.10534481 -0.08516638
0001c0 ba bb ae bc 5a fb 0b 3e 27 81 12 bd a9 48 90 3d
       -0.02132975 0.13670102 -0.0357677 0.07045109
0001d0 77 36 03 be d3 98 1a 3e fe 16 87 bd 2c 77 aa bd
       -0.12813745 0.1509736 -0.06596182 -0.083235115
0001e0 3c b6 26 bc fc 87 e1 bc be 42 0a 3e 4e 59 9e 3b
       -0.010175284 -0.027530663 0.13502023 0.0048324233
0001f0 74 2e 33 bd b8 29 9e bd 32 7d 2b be 1f 8c 37 3e
       -0.043745473 -0.07722801 -0.16746977 0.17924546
000200 28 e7 95 3e fa d8 a5 bd c3 72 60 3d 59 e4 7d 3e
       0.2927792 -0.080980256 0.054796945 0.24794139
000210 cc a9 3e bd ce e8 bf bd 73 cb 55 3d 0e 7f 3b be
       -0.04654865 -0.09370576 0.052195977 -0.18310186
000220 08 d2 8e bd 54 15 f8 3d 3e f8 df 3d 7c 45 30 3e
       -0.06973654 0.12113443 0.1093602 0.17214006
000230 d3 b6 15 3e b4 49 1b be 79 f4 5e 3c dc fe 81 bd
       0.14620523 -0.15164834 0.0136080915 -0.06347439
000240 da b2 e4 bd 86 20 8f bd e9 51 8a 3d 05 d4 b1 bd
       -0.11166926 -0.06988625 0.06753904 -0.08683018
000250 3d c7 48 be f9 87 53 3d 63 0c 05 3e fb 9b eb 3d
       -0.19607253 0.051643346 0.12993006 0.1150436
000260 56 21 1d 3e 37 2b 24 b9 b3 68 ca 3d ed 27 9f bc
       0.15344748 -0.00015656358 0.09883251 -0.019428218
000270 bd 5a ba 3d 59 c4 d4 3d f0 ea 28 be ef cd 2f 3e
       0.09099338 0.10389013 -0.16495872 0.17168401
000280 b6 48 21 bd c6 b2 09 be a1 ad 98 bb 9c cc a4 3d
       -0.039375983 -0.13447103 -0.00465937 0.08046839
000290 75 53 74 3d 70 7a ca 3c 81 f5 90 3d 9f b8 33 be
       0.059649903 0.024716586 0.07078076 -0.17550896
0002a0 df e2 d6 3d 3a b6 d2 3d 42 46 92 3d 4b 8b 1e bd
       0.10492491 0.10288663 0.07142307 -0.03870706
0002b0 5a 62 29 3e d6 0f 90 3d e3 0a b8 bd c0 ac e3 bd
       0.16541424 0.070342705 -0.089864515 -0.11116934
0002c0 83 42 d4 bb 28 36 23 bd 02 31 c4 3d 52 8d 02 be
       -0.0064776554 -0.03984657 0.0957966 -0.12749222
0002d0 62 f8 f8 bd 40 f9 31 3e cf 65 95 be 78 82 c8 bd
       -0.1215675 0.17380238 -0.29179236 -0.0979051
0002e0 9f 9b f5 3c 31 ff ae be 1d 63 59 3c 80 d2 f6 bb
       0.029981432 -0.3417907 0.013268259 -0.007532418
0002f0 ed 27 dc bd 77 fb 0a 3e 31 a0 2c be ad d1 d5 bd
       -0.10749803 0.13572489 -0.16857983 -0.10440383
000300 61 ff f5 bd b5 a2 ae bd d7 31 f9 bd 9a 08 eb 3b
       -0.120116 -0.08527128 -0.12167709 0.0071726562
000310 6b ea 86 be 41 a1 76 3e c0 b6 86 3a 20 cf 0e 3e
       -0.26350722 0.24084951 0.0010277852 0.139462
000320 66 2e ce bc 36 1e c5 3d a3 6d 12 3e f4 14 0a bd
       -0.025168609 0.09624903 0.14299636 -0.03371139
000330 41 41 bc 3d 63 bb 21 3e 99 f2 cd 3d 08 c0 5f bc
       0.09192134 0.15794139 0.100560375 -0.013656624
000340 ee 74 48 bd 3f 12 b2 bb 1a 64 3d bd 14 7a 90 be
       -0.048939638 -0.005434304 -0.046238042 -0.28218138
000350 82 f3 b0 bd 89 25 85 bd f8 cd 9b 3d 28 54 48 3b
       -0.086401954 -0.065013 0.07607645 0.003056774
000360 9b f2 e6 3c 27 65 71 be 58 f7 df 3c e8 52 19 be
       0.028191855 -0.23573743 0.027339622 -0.14973032
000370 ad ec 84 bd 65 ec 1b be 5b d4 59 3d d1 c5 42 be
       -0.06490455 -0.15226896 0.053181034 -0.19020773
000380 01 4f 5f bd 81 4d d0 bd 26 44 db bd c1 e6 30 be
       -0.054518703 -0.10171033 -0.10706358 -0.17275526
000390 3b 5b d6 bb b7 d9 13 3b 2b 6f 4c bd 8a b6 31 bd
       -0.0065416372 0.0022560188 -0.049910706 -0.043386973
0003a0 60 1b 39 3e 8f c3 be bc 5c 20 a2 bd 7a cc 3c ba
       0.18076849 -0.023286609 -0.07916328 -0.00072021
0003b0 d3 16 4f be b2 8a 0f be 5e 35 aa bd 0b 63 ed 3d
       -0.2022355 -0.14017752 -0.0831096 0.115911566
0003c0 a3 74 18 3e 2b f8 25 3d 12 14 88 bc 93 d5 91 3d
       0.14888243 0.040519875 -0.016611133 0.07120814
0003d0 4f ff 4b be 57 66 17 3b bf 41 d4 bc 0a d5 80 bd
       -0.19921611 0.002310177 -0.025910256 -0.06290634
0003e0 47 2e 42 bb 43 3d 48 3e e1 13 41 3d 83 5f 83 3c
       -0.0029629634 0.1955462 0.0471381 0.016036754
0003f0 38 1c 26 be 31 23 b1 bc e9 7f 4a be a0 0d 15 3e
       -0.16221702 -0.021623226 -0.19775356 0.14555979

network_body._body_endoder.seq_layers.2.bias f4 [128]
000000 00 00 00 00 00 00 00 00 00 00 00 00 00 00 00 00
       0.0 0.0 0.0 0.0
000010 00 00 00 00 00 00 00 00 00 00 00 00 00 00 00 00
       0.0 0.0 0.0 0.0
000020 00 00 00 00 00 00 00 00 00 00 00 00 00 00 00 00
       0.0 0.0 0.0 0.0
000030 00 00 00 00 00 00 00 00 00 00 00 00 00 00 00 00
       0.0 0.0 0.0 0.0
000040 00 00 00 00 00 00 00 00 00 00 00 00 00 00 00 00
       0.0 0.0 0.0 0.0
000050 00 00 00 00 00 00 00 00 00 00 00 00 00 00 00 00
       0.0 0.0 0.0 0.0
000060 00 00 00 00 00 00 00 00 00 00 00 00 00 00 00 00
       0.0 0.0 0.0 0.0
000070 00 00 00 00 00 00 00 00 00 00 00 00 00 00 00 00
       0.0 0.0 0.0 0.0
000080 00 00 00 00 00 00 00 00 00 00 00 00 00 00 00 00
       0.0 0.0 0.0 0.0
000090 00 00 00 00 00 00 00 00 00 00 00 00 00 00 00 00
       0.0 0.0 0.0 0.0
0000a0 00 00 00 00 00 00 00 00 00 00 00 00 00 00 00 00
       0.0 0.0 0.0 0.0
0000b0 00 00 00 00 00 00 00 00 00 00 00 00 00 00 00 00
       0.0 0.0 0.0 0.0
0000c0 00 00 00 00 00 00 00 00 00 00 00 00 00 00 00 00
       0.0 0.0 0.0 0.0
0000d0 00 00 00 00 00 00 00 00 00 00 00 00 00 00 00 00
       0.0 0.0 0.0 0.0
0000e0 00 00 00 00 00 00 00 00 00 00 00 00 00 00 00 00
       0.0 0.0 0.0 0.0
0000f0 00 00 00 00 00 00 00 00 00 00 00 00 00 00 00 00
       0.0 0.0 0.0 0.0
000100 00 00 00 00 00 00 00 00 00 00 00 00 00 00 00 00
       0.0 0.0 0.0 0.0
000110 00 00 00 00 00 00 00 00 00 00 00 00 00 00 00 00
       0.0 0.0 0.0 0.0
000120 00 00 00 00 00 00 00 00 00 00 00 00 00 00 00 00
       0.0 0.0 0.0 0.0
000130 00 00 00 00 00 00 00 00 00 00 00 00 00 00 00 00
       0.0 0.0 0.0 0.0
000140 00 00 00 00 00 00 00 00 00 00 00 00 00 00 00 00
       0.0 0.0 0.0 0.0
000150 00 00 00 00 00 00 00 00 00 00 00 00 00 00 00 00
       0.0 0.0 0.0 0.0
000160 00 00 00 00 00 00 00 00 00 00 00 00 00 00 00 00
       0.0 0.0 0.0 0.0
000170 00 00 00 00 00 00 00 00 00 00 00 00 00 00 00 00
       0.0 0.0 0.0 0.0
000180 00 00 00 00 00 00 00 00 00 00 00 00 00 00 00 00
       0.0 0.0 0.0 0.0
000190 00 00 00 00 00 00 00 00 00 00 00 00 00 00 00 00
       0.0 0.0 0.0 0.0
0001a0 00 00 00 00 00 00 00 00 00 00 00 00 00 00 00 00
       0.0 0.0 0.0 0.0
0001b0 00 00 00 00 00 00 00 00 00 00 00 00 00 00 00 00
       0.0 0.0 0.0 0.0
0001c0 00 00 00 00 00 00 00 00 00 00 00 00 00 00 00 00
       0.0 0.0 0.0 0.0
0001d0 00 00 00 00 00 00 00 00 00 00 00 00 00 00 00 00
       0.0 0.0 0.0 0.0
0001e0 00 00 00 00 00 00 00 00 00 00 00 00 00 00 00 00
       0.0 0.0 0.0 0.0
0001f0 00 00 00 00 00 00 00 00 00 00 00 00 00 00 00 00
       0.0 0.0 0.0 0.0

network_body._body_endoder.seq_layers.2.weight f4 [128, 128]
000000 4b 96 1c be 7d 03 fd 3c 77 d1 de bd 90 49 f9 bc
       -0.15291707 0.030885452 -0.10879796 -0.030430585
000010 4f 7e cf 3c 7d c2 fa bc bb a6 53 bd 37 b6 09 bd
       0.025328783 -0.030610317 -0.05167268 -0.03362104
000020 1c f5 d4 bc 56 97 c4 bc 99 12 8a bd 33 0c 4b be
       -0.025995784 -0.023997944 -0.067418285 -0.19828872
000030 89 31 58 bd 7f 46 81 bd 67 30 07 be 9d ed c2 3d
       -0.052781615 -0.06312274 -0.13202058 0.095179774
000040 19 b0 13 3d b6 f7 6f 3d 87 2c cb bd 28 cd 27 bc
       0.03605661 0.058585845 -0.09920602 -0.010241784
000050 ac 8f 18 be e1 11 41 bc a2 b0 1f 3d 84 a4 68 3d
       -0.14898556 -0.011784048 0.03898681 0.05679752
000060 e2 2b e8 bd da 8d b7 3d 50 75 c1 3c ac 9c 1c 3e
       -0.11336495 0.08962603 0.02361551 0.1529414
000070 e5 df af 3d 1b dd 45 3d f1 d7 ed 3d 93 19 fc 3b
       0.08587626 0.048306566 0.11613453 0.0076934784
000080 fe af 8d bd 7a f8 15 bc 69 47 c8 3d de 2e c6 3c
       -0.069183335 -0.00915348 0.097792454 0.02419227
000090 26 7f fb bd 2d f4 00 3e 23 3c 99 bd 6a 4f 0a 3e
       -0.12280111 0.12593146 -0.07482173 0.13506857
0000a0 5c 3e 19 3d 11 0d 18 3d d9 8f 6a ba 7e f6 2d 3d
       0.037412986 0.037121836 -0.00089478266 0.0424714
0000b0 f7 28 d4 ba 87 c9 67 3d 67 f6 a1 3d dc 16 e5 3c
       -0.0016186525 0.056588676 0.07908326 0.027965002
0000c0 cd 2e c8 3d e4 85 ea 3c 8c 05 39 bd 46 a7 cb bd
       0.097745515 0.028628297 -0.045171306 -0.09944014
0000d0 1d 91 06 3e 67 65 f0 bc 85 bd e9 bd de 20 5a bd
       0.13141294 -0.029345227 -0.11413101 -0.053254
0000e0 2d 93 17 3d d3 eb 15 be 5f e7 5b bd d2 5c ff 3c
       0.037005592 -0.14640741 -0.05368745 0.03117219
0000f0 41 14 e1 3c 44 72 10 be 20 e9 21 bc 25 f8 de bc
       0.027475478 -0.14106089 -0.0098822415 -0.027217934
000100 dd 28 8a 3d 8b df ec bd 3e 73 3b bd a2 ac a7 bd
       0.06746075 -0.11566075 -0.0457642 -0.08187224
000110 a9 57 21 bd 89 97 34 be 93 15 c1 3d 72 3b 84 bd
       -0.03939024 -0.17635931 0.09427943 -0.06456651
000120 bd c9 d4 bd ad cd ce bc a5 2f ef 3d f4 ec 32 3d
       -0.10390041 -0.025244558 0.11679009 0.043683007
000130 60 b0 6c be 6f 70 22 bd 39 27 7b bd 73 4c 32 bd
       -0.23114157 -0.039658006 -0.061316703 -0.04352994
000140 0c 36 93 bc 6f 6a c4 3d 7c ee a3 3d 6f cc b9 bd
       -0.017970107 0.09590613 0.08004472 -0.09072196
000150 03 72 e3 bd 1d 41 e9 3d ae 04 d1 bd 6e 1a a3 bc
       -0.111057304 0.113893725 -0.10205971 -0.019910064
000160 d4 16 31 3d 2b 44 b6 3c 2a 3a a2 bc 2d c1 1e bd
       0.04323466 0.022249302 -0.019803125 -0.038758446
000170 d0 f7 07 be ec 61 4d 3d eb 50 d9 3d 11 74 bd 3c
       -0.13278127 0.050142214 0.10611137 0.023126634
000180 7c 61 6b bd a7 17 41 bd 8d 58 d1 3b 9f e6 6e bd
       -0.057466015 -0.047141697 0.00638873 -0.058325406
000190 bb be 12 3d 5c aa 27 be c4 8e 06 3d 53 7f 06 3d
       0.035826426 -0.1637358 0.032850996 0.03283627
0001a0 d6 74 86 bd 63 0a 2c 3d 49 83 55 3d f3 26 e9 3d
       -0.065652534 0.042002093 0.052127156 0.11384382
0001b0 99 18 58 bc 82 6c 39 3d fc 03 61 3d 80 93 2f be
       -0.013189458 0.045269497 0.05493544 -0.1714611
0001c0 80 90 d2 bd 69 83 92 3c 8f 84 5a 3d f0 5a b4 3d
       -0.102814674 0.017884927 0.053349074 0.088064075
0001d0 af 87 9c 3d f8 48 85 bd 02 1f f7 3c a9 f7 29 3d
       0.07643067 -0.06508058 0.030166153 0.041495953
0001e0 4c e7 3a be d0 1c 16 bb 3b 1b 21 bc a1 2e d6 3d
       -0.18252295 -0.0022905357 -0.009833152 0.104581125
0001f0 0b 74 f1 bd 2a b8 90 3d 2c 25 55 bd 84 59 02 be
       -0.117897116 0.070663765 -0.052037403 -0.1272946
000200 14 c5 71 3e 55 07 a1 3d b0 85 34 3e 06 e6 85 3d
       0.23610336 0.078627266 0.17629123 0.06538014
000210 d8 36 93 bd 48 db 97 3d b9 90 a4 3d 3b 41 39 3d
       -0.07188195 0.074148715 0.08035416 0.045228224
000220 59 ba e5 bd d5 94 82 be 62 16 d5 bd b9 17 12 3e
       -0.112171836 -0.25504175 -0.1040466 0.14266862
000230 7a 2d 14 be 86 2c e5 bd a8 d5 89 3e 5e 82 59 bd
       -0.14470473 -0.11190133 0.2692082 -0.053102843
000240 be 26 ef bb cb 69 c1 bd 5f 20 ea bc 22 01 9b 3d
       -0.0072983196 -0.094440065 -0.028579889 0.075685754
000250 5e e1 99 3c 21 7c 0f 3e 08 a1 cd 3a 5a 37 cb bd
       0.018784221 0.14012195 0.001568825 -0.09922667
000260 63 dc f5 3c 2b 67 7b bd 8c c2 18 3e b0 5a 69 ba
       0.030012315 -0.061377686 0.14917964 -0.0008901758
000270 04 50 5a 3d 02 2d f4 bd b8 f8 b5 bd 7a e8 ad 3d
       0.053298965 -0.11922647 -0.0888533 0.08491607
000280 95 8d 34 bd ac 4d 13 bd 5a 4a 12 3e 9c 54 13 3d
       -0.044080336 -0.035962746 0.14286175 0.03596936
000290 54 04 09 be 42 79 33 3d 64 06 1a 3d 55 7e 86 3d
       -0.13380557 0.043816812 0.03760375 0.06567065
0002a0 87 2a b2 bd f1 90 e6 bb c4 74 f7 bd 39 d1 92 ba
       -0.08699518 -0.0070363213 -0.12082818 -0.0011201269
0002b0 68 1a 94 3c 73 5c f9 3d 69 5d e4 bc 58 5a 89 bc
       0.018078998 0.121758364 -0.027876573 -0.016766712
0002c0 cd 31 e3 bd c7 a9 2d bd 31 28 15 bd 59 ba 25 3d
       -0.11093483 -0.04239824 -0.036415283 0.040460918
0002d0 15 47 df 3d 72 1f f4 bd 48 69 37 3d 06 9f fa 3d
       0.1090223 -0.1192006 0.04477814 0.122373626
0002e0 f9 db d7 bd ea 58 fa bd c6 b1 f7 3d d7 81 29 bc
       -0.10540003 -0.1222399 0.120944545 -0.010345898
0002f0 bb 13 6e 3d a2 1d b2 bc b3 e0 23 bd bd 92 3e 3d
       0.058124285 -0.021742646 -0.04000921 0.04652666
000300 0f 96 71 3d 21 ab 0c 3e 84 ec 19 3d 8b 50 35 bd
       0.058980998 0.13737155 0.037579075 -0.044266265
000310 b7 f9 94 bd ed 7d 1d 3e 8d fb d4 3d 91 62 1a 3d
       -0.07274192 0.15380068 0.10399542 0.037691657
000320 72 d0 d3 bc 07 10 7c 3b 4b 59 f2 3d 24 be d1 3d
       -0.02585623 0.0038461701 0.118334375 0.102413446
000330 e7 3b 47 3e d0 77 ed 3c cd e7 68 3c 83 88 9a 3d
       0.19456445 0.028987795 0.014215422 0.07545569
000340 2f fb f9 3c f4 34 27 3c 49 b8 48 3d 07 41 ab bd
       0.030515281 0.010205496 0.049003873 -0.08362012
000350 9a 7d f4 bc ad 40 28 bb 18 eb 96 3c 39 bf 49 bc
       -0.029845048 -0.0025673315 0.018422648 -0.012313657
000360 44 fe c4 3c 43 84 43 ba c9 e3 d7 3c a2 a7 c3 3d
       0.024047025 -0.0007458368 0.026353734 0.09553458
000370 66 93 6e bc 60 4e 0f bb 35 3e 14 bd 98 64 d0 3c
       -0.01456151 -0.0021866783 -0.036192138 0.025438592
000380 bb 69 fe bc af 1c fd bd 2a df 1f 3e 23 db 22 3e
       -0.031056276 -0.123589866 0.15612474 0.15903907
000390 fa 6a 42 bd 5a a7 32 3d 8a ae 43 bd 28 85 18 3b
       -0.047465302 0.04361663 -0.047773875 0.0023272727
0003a0 62 14 f2 3c 51 6d 33 bd df 7a b7 3d 01 56 44 3e
       0.029550735 -0.043805424 0.08958983 0.19173433
0003b0 2a 95 c4 bd 09 fe 4c bd 59 dd 1e 3e 43 6b f8 3b
       -0.09598763 -0.050046954 0.15514125 0.007581146
0003c0 4e fa 74 3c ac 5b 17 bd 55 69 b4 3b 20 d5 58 3b
       0.014952255 -0.03695266 0.0055057206 0.0033086017
0003d0 a6 98 2a bd 8d 0c b8 39 fc e2 16 3e 85 5a 71 bb
       -0.041649483 0.00035104566 0.14735025 -0.0036827635
0003e0 2a a2 ac 3d da ec 5b bc ef 0a 2c ba 68 8b 3b 3d
       0.08429368 -0.013423169 -0.00065629085 0.045787245
0003f0 22 a8 84 3d 22 dd 0d 3d e9 a4 00 bd 4e c3 93 bd
       0.06477381 0.034634717 -0.03140727 -0.07214986
