Results/test8/Doughnut/Doughnut-0.pt (torch, 223239 bytes, 11 tensors)

network_body._body_endoder.seq_layers.0.weight f4 [128, 78]
0.23479775 -0.008503766 -0.12232343 0.073440015 -0.12211048 0.08788459 -0.22173116 0.23637173
-0.27391973 -0.14499699 0.031906933 0.074072324 -0.16315652 0.0005274499 -0.07650359 0.029244695
0.1726077 0.28067103 -0.15995316 -0.15653162 -0.0617852 -2.9623334e-05 -0.019268714 0.11366024
-0.010469906 0.14812288 0.14788623 0.028122447 -0.12513535 -0.063402355 0.008395044 0.04762348
0.007570289 -0.051095184 -0.05095568 -0.003121492 -0.018236103 0.055454582 0.13672088 0.24491793
0.06757068 0.05475072 -0.0835204 0.17074718 0.20736934 0.03975886 -0.040414684 -0.05796059
-0.018744227 -0.04802611 0.122086465 0.083959185 -0.140575 -0.09784164 0.11023024 0.119573526
0.03349786 -0.13440895 0.08796547 0.09351523 -0.014977564 0.0034218654 -0.1617924 0.049499776
-0.1266966 -0.018091679 -0.042324547 -0.10354858 -0.101378575 0.13024782 -0.10533843 -0.14388981
-0.03677563 0.052143835 -0.08332937 0.12582178 -0.113644525 0.05446414 0.008537979 0.21372122
0.1480831 0.030887963 0.03285235 -0.12996666 0.05220547 -0.07740348 -0.08747297 0.0073752645
-0.02161979 0.089681625 -0.014079349 -0.011082994 -0.13370128 0.06462638 0.013098107 0.021396639
-0.10870886 0.017474338 0.09041037 0.33601928 0.043204077 0.23298353 -0.008155508 0.124811456
0.016679637 0.07211066 0.16214219 -0.092142 0.035001878 -0.0587025 -0.10534481 -0.08516638
-0.02132975 0.13670102 -0.0357677 0.07045109 -0.12813745 0.1509736 -0.06596182 -0.083235115
-0.010175284 -0.027530663 0.13502023 0.0048324233 -0.043745473 -0.07722801 -0.16746977 0.17924546
0.2927792 -0.080980256 0.054796945 0.24794139 -0.04654865 -0.09370576 0.052195977 -0.18310186
-0.06973654 0.12113443 0.1093602 0.17214006 0.14620523 -0.15164834 0.0136080915 -0.06347439
-0.11166926 -0.06988625 0.06753904 -0.08683018 -0.19607253 0.051643346 0.12993006 0.1150436
0.15344748 -0.00015656358 0.09883251 -0.019428218 0.09099338 0.10389013 -0.16495872 0.17168401
-0.039375983 -0.13447103 -0.00465937 0.08046839 0.059649903 0.024716586 0.07078076 -0.17550896
0.10492491 0.10288663 0.07142307 -0.03870706 0.16541424 0.070342705 -0.089864515 -0.11116934
-0.0064776554 -0.03984657 0.0957966 -0.12749222 -0.1215675 0.17380238 -0.29179236 -0.0979051
0.029981432 -0.3417907 0.013268259 -0.007532418 -0.10749803 0.13572489 -0.16857983 -0.10440383
-0.120116 -0.08527128 -0.12167709 0.0071726562 -0.26350722 0.24084951 0.0010277852 0.139462
-0.025168609 0.09624903 0.14299636 -0.03371139 0.09192134 0.15794139 0.100560375 -0.013656624
-0.048939638 -0.005434304 -0.046238042 -0.28218138 -0.086401954 -0.065013 0.07607645 0.003056774
0.028191855 -0.23573743 0.027339622 -0.14973032 -0.06490455 -0.15226896 0.053181034 -0.19020773
-0.054518703 -0.10171033 -0.10706358 -0.17275526 -0.0065416372 0.0022560188 -0.049910706 -0.043386973
0.18076849 -0.023286609 -0.07916328 -0.00072021 -0.2022355 -0.14017752 -0.0831096 0.115911566
0.14888243 0.040519875 -0.016611133 0.07120814 -0.19921611 0.002310177 -0.025910256 -0.06290634
-0.0029629634 0.1955462 0.0471381 0.016036754 -0.16221702 -0.021623226 -0.19775356 0.14555979
00000000: d26e 703e 6153 0bbc b584 fabd b867 963d
00000010: 0f15 fabd d6fc b33d 7e0d 63be 6e0b 723e
00000020: 353f 8cbe 177a 14be d8b0 023d 3bb3 973d
00000030: 8112 27be 9044 0a3a eaad 9cbd 9292 ef3c
00000040: 13c0 303e 1db4 8f3e c3ca 23be d349 20be
00000050: 7a12 7dbd a07f f8b7 6cd9 9dbc b3c6 e83d
00000060: f889 2bbc 86ad 173e 7d6f 173e 0c61 e63c
00000070: 7b23 00be 18d9 81bd 5e8b 093c d710 433d
00000080: 3010 f83b 2f49 51bd e7b6 50bd f291 4cbb
00000090: e163 95bc 5824 633d 8f00 0c3e c4cb 7a3e
000000a0: 7f62 8a3d 4a42 603d be0c abbd 59d8 2e3e
000000b0: a158 543e 30da 223d de89 25bd 1568 6dbd
000000c0: 7e8d 99bc 07b7 44bd 7808 fa3d cbf2 ab3d
000000d0: e5f2 0fbe 3361 c8bd 64c0 e13d f7e2 f43d
000000e0: 0d35 093d 80a2 09be 3e27 b43d ea84 bf3d
000000f0: 7564 75bc 6041 603b e8ac 25be 47c0 4a3d
00000100: c1bc 01be 0035 94bc 815c 2dbd 4711 d4bd
00000110: 929f cfbd af5f 053e adbb d7bd da57 13be
00000120: 0ba2 16bd c694 553d 97a8 aabd 6dd7 003e
00000130: 76be e8bd ca15 5f3d e1e2 0b3c bcd9 5a3e
00000140: 19a3 173e c108 fd3c 3090 063d fb15 05be
00000150: 67d5 553d b785 9ebd 0725 b3bd 34ac f13b
00000160: fc1b b1bc 00ab b73d 12ad 66bc 7295 35bc
00000170: fde8 08be d65a 843d 7199 563c 0148 af3c
00000180: c0a2 debd 5826 8f3c 1229 b93d b80a ac3e
00000190: c2f6 303d 3c93 6e3e ae9e 05bc 269d ff3d
000001a0: bca3 883c c1ae 933d 9a08 263e f2b4 bcbd
000001b0: 215e 0f3d 0872 70bd 05bf d7bd b66b aebd
000001c0: babb aebc 5afb 0b3e 2781 12bd a948 903d
000001d0: 7736 03be d398 1a3e fe16 87bd 2c77 aabd
000001e0: 3cb6 26bc fc87 e1bc be42 0a3e 4e59 9e3b
000001f0: 742e 33bd b829 9ebd 327d 2bbe 1f8c 373e
00000200: 28e7 953e fad8 a5bd c372 603d 59e4 7d3e
00000210: cca9 3ebd cee8 bfbd 73cb 553d 0e7f 3bbe
00000220: 08d2 8ebd 5415 f83d 3ef8 df3d 7c45 303e
00000230: d3b6 153e b449 1bbe 79f4 5e3c dcfe 81bd
00000240: dab2 e4bd 8620 8fbd e951 8a3d 05d4 b1bd
00000250: 3dc7 48be f987 533d 630c 053e fb9b eb3d
00000260: 5621 1d3e 372b 24b9 b368 ca3d ed27 9fbc
00000270: bd5a ba3d 59c4 d43d f0ea 28be efcd 2f3e
00000280: b648 21bd c6b2 09be a1ad 98bb 9ccc a43d
00000290: 7553 743d 707a ca3c 81f5 903d 9fb8 33be
000002a0: dfe2 d63d 3ab6 d23d 4246 923d 4b8b 1ebd
000002b0: 5a62 293e d60f 903d e30a b8bd c0ac e3bd
000002c0: 8342 d4bb 2836 23bd 0231 c43d 528d 02be
000002d0: 62f8 f8bd 40f9 313e cf65 95be 7882 c8bd
000002e0: 9f9b f53c 31ff aebe 1d63 593c 80d2 f6bb
000002f0: ed27 dcbd 77fb 0a3e 31a0 2cbe add1 d5bd
00000300: 61ff f5bd b5a2 aebd d731 f9bd 9a08 eb3b
00000310: 6bea 86be 41a1 763e c0b6 863a 20cf 0e3e
00000320: 662e cebc 361e c53d a36d 123e f414 0abd
00000330: 4141 bc3d 63bb 213e 99f2 cd3d 08c0 5fbc
00000340: ee74 48bd 3f12 b2bb 1a64 3dbd 147a 90be
00000350: 82f3 b0bd 8925 85bd f8cd 9b3d 2854 483b
00000360: 9bf2 e63c 2765 71be 58f7 df3c e852 19be
00000370: adec 84bd 65ec 1bbe 5bd4 593d d1c5 42be
00000380: 014f 5fbd 814d d0bd 2644 dbbd c1e6 30be
00000390: 3b5b d6bb b7d9 133b 2b6f 4cbd 8ab6 31bd
000003a0: 601b 393e 8fc3 bebc 5c20 a2bd 7acc 3cba
000003b0: d316 4fbe b28a 0fbe 5e35 aabd 0b63 ed3d
000003c0: a374 183e 2bf8 253d 1214 88bc 93d5 913d
000003d0: 4fff 4bbe 5766 173b bf41 d4bc 0ad5 80bd
000003e0: 472e 42bb 433d 483e e113 413d 835f 833c
000003f0: 381c 26be 3123 b1bc e97f 4abe a00d 153e

network_body._body_endoder.seq_layers.0.bias f4 [128]
0.0 0.0 0.0 0.0 0.0 0.0 0.0 0.0
0.0 0.0 0.0 0.0 0.0 0.0 0.0 0.0
0.0 0.0 0.0 0.0 0.0 0.0 0.0 0.0
0.0 0.0 0.0 0.0 0.0 0.0 0.0 0.0
0.0 0.0 0.0 0.0 0.0 0.0 0.0 0.0
0.0 0.0 0.0 0.0 0.0 0.0 0.0 0.0
0.0 0.0 0.0 0.0 0.0 0.0 0.0 0.0
0.0 0.0 0.0 0.0 0.0 0.0 0.0 0.0
0.0 0.0 0.0 0.0 0.0 0.0 0.0 0.0
0.0 0.0 0.0 0.0 0.0 0.0 0.0 0.0
0.0 0.0 0.0 0.0 0.0 0.0 0.0 0.0
0.0 0.0 0.0 0.0 0.0 0.0 0.0 0.0
0.0 0.0 0.0 0.0 0.0 0.0 0.0 0.0
0.0 0.0 0.0 0.0 0.0 0.0 0.0 0.0
0.0 0.0 0.0 0.0 0.0 0.0 0.0 0.0
0.0 0.0 0.0 0.0 0.0 0.0 0.0 0.0
00000000: 0000 0000 0000 0000 0000 0000 0000 0000
00000010: 0000 0000 0000 0000 0000 0000 0000 0000
00000020: 0000 0000 0000 0000 0000 0000 0000 0000
00000030: 0000 0000 0000 0000 0000 0000 0000 0000
00000040: 0000 0000 0000 0000 0000 0000 0000 0000
00000050: 0000 0000 0000 0000 0000 0000 0000 0000
00000060: 0000 0000 0000 0000 0000 0000 0000 0000
00000070: 0000 0000 0000 0000 0000 0000 0000 0000
00000080: 0000 0000 0000 0000 0000 0000 0000 0000
00000090: 0000 0000 0000 0000 0000 0000 0000 0000
000000a0: 0000 0000 0000 0000 0000 0000 0000 0000
000000b0: 0000 0000 0000 0000 0000 0000 0000 0000
000000c0: 0000 0000 0000 0000 0000 0000 0000 0000
000000d0: 0000 0000 0000 0000 0000 0000 0000 0000
000000e0: 0000 0000 0000 0000 0000 0000 0000 0000
000000f0: 0000 0000 0000 0000 0000 0000 0000 0000
00000100: 0000 0000 0000 0000 0000 0000 0000 0000
00000110: 0000 0000 0000 0000 0000 0000 0000 0000
00000120: 0000 0000 0000 0000 0000 0000 0000 0000
00000130: 0000 0000 0000 0000 0000 0000 0000 0000
00000140: 0000 0000 0000 0000 0000 0000 0000 0000
00000150: 0000 0000 0000 0000 0000 0000 0000 0000
00000160: 0000 0000 0000 0000 0000 0000 0000 0000
00000170: 0000 0000 0000 0000 0000 0000 0000 0000
00000180: 0000 0000 0000 0000 0000 0000 0000 0000
00000190: 0000 0000 0000 0000 0000 0000 0000 0000
000001a0: 0000 0000 0000 0000 0000 0000 0000 0000
000001b0: 0000 0000 0000 0000 0000 0000 0000 0000
000001c0: 0000 0000 0000 0000 0000 0000 0000 0000
000001d0: 0000 0000 0000 0000 0000 0000 0000 0000
000001e0: 0000 0000 0000 0000 0000 0000 0000 0000
000001f0: 0000 0000 0000 0000 0000 0000 0000 0000

network_body._body_endoder.seq_layers.2.weight f4 [128, 128]
-0.15291707 0.030885452 -0.10879796 -0.030430585 0.025328783 -0.030610317 -0.05167268 -0.03362104
-0.025995784 -0.023997944 -0.067418285 -0.19828872 -0.052781615 -0.06312274 -0.13202058 0.095179774
0.03605661 0.058585845 -0.09920602 -0.010241784 -0.14898556 -0.011784048 0.03898681 0.05679752
-0.11336495 0.08962603 0.02361551 0.1529414 0.08587626 0.048306566 0.11613453 0.0076934784
-0.069183335 -0.00915348 0.097792454 0.02419227 -0.12280111 0.12593146 -0.07482173 0.13506857
0.037412986 0.037121836 -0.00089478266 0.0424714 -0.0016186525 0.056588676 0.07908326 0.027965002
0.097745515 0.028628297 -0.045171306 -0.09944014 0.13141294 -0.029345227 -0.11413101 -0.053254
0.037005592 -0.14640741 -0.05368745 0.03117219 0.027475478 -0.14106089 -0.0098822415 -0.027217934
0.06746075 -0.11566075 -0.0457642 -0.08187224 -0.03939024 -0.17635931 0.09427943 -0.06456651
-0.10390041 -0.025244558 0.11679009 0.043683007 -0.23114157 -0.039658006 -0.061316703 -0.04352994
-0.017970107 0.09590613 0.08004472 -0.09072196 -0.111057304 0.113893725 -0.10205971 -0.019910064
0.04323466 0.022249302 -0.019803125 -0.038758446 -0.13278127 0.050142214 0.10611137 0.023126634
-0.057466015 -0.047141697 0.00638873 -0.058325406 0.035826426 -0.1637358 0.032850996 0.03283627
-0.065652534 0.042002093 0.052127156 0.11384382 -0.013189458 0.045269497 0.05493544 -0.1714611
-0.102814674 0.017884927 0.053349074 0.088064075 0.07643067 -0.06508058 0.030166153 0.041495953
-0.18252295 -0.0022905357 -0.009833152 0.104581125 -0.117897116 0.070663765 -0.052037403 -0.1272946
0.23610336 0.078627266 0.17629123 0.06538014 -0.07188195 0.074148715 0.08035416 0.045228224
-0.112171836 -0.25504175 -0.1040466 0.14266862 -0.14470473 -0.11190133 0.2692082 -0.053102843
-0.0072983196 -0.094440065 -0.028579889 0.075685754 0.018784221 0.14012195 0.001568825 -0.09922667
0.030012315 -0.061377686 0.14917964 -0.0008901758 0.053298965 -0.11922647 -0.0888533 0.08491607
-0.044080336 -0.035962746 0.14286175 0.03596936 -0.13380557 0.043816812 0.03760375 0.06567065
-0.08699518 -0.0070363213 -0.12082818 -0.0011201269 0.018078998 0.121758364 -0.027876573 -0.016766712
-0.11093483 -0.04239824 -0.036415283 0.040460918 0.1090223 -0.1192006 0.04477814 0.122373626
-0.10540003 -0.1222399 0.120944545 -0.010345898 0.058124285 -0.021742646 -0.04000921 0.04652666
0.058980998 0.13737155 0.037579075 -0.044266265 -0.07274192 0.15380068 0.10399542 0.037691657
-0.02585623 0.0038461701 0.118334375 0.102413446 0.19456445 0.028987795 0.014215422 0.07545569
0.030515281 0.010205496 0.049003873 -0.08362012 -0.029845048 -0.0025673315 0.018422648 -0.012313657
0.024047025 -0.0007458368 0.026353734 0.09553458 -0.01456151 -0.0021866783 -0.036192138 0.025438592
-0.031056276 -0.123589866 0.15612474 0.15903907 -0.047465302 0.04361663 -0.047773875 0.0023272727
0.029550735 -0.043805424 0.08958983 0.19173433 -0.09598763 -0.050046954 0.15514125 0.007581146
0.014952255 -0.03695266 0.0055057206 0.0033086017 -0.041649483 0.00035104566 0.14735025 -0.0036827635
0.08429368 -0.013423169 -0.00065629085 0.045787245 0.06477381 0.034634717 -0.03140727 -0.07214986
00000000: 4b96 1cbe 7d03 fd3c 77d1 debd 9049 f9bc
00000010: 4f7e cf3c 7dc2 fabc bba6 53bd 37b6 09bd
00000020: 1cf5 d4bc 5697 c4bc 9912 8abd 330c 4bbe
00000030: 8931 58bd 7f46 81bd 6730 07be 9ded c23d
00000040: 19b0 133d b6f7 6f3d 872c cbbd 28cd 27bc
00000050: ac8f 18be e111 41bc a2b0 1f3d 84a4 683d
00000060: e22b e8bd da8d b73d 5075 c13c ac9c 1c3e
00000070: e5df af3d 1bdd 453d f1d7 ed3d 9319 fc3b
00000080: feaf 8dbd 7af8 15bc 6947 c83d de2e c63c
00000090: 267f fbbd 2df4 003e 233c 99bd 6a4f 0a3e
000000a0: 5c3e 193d 110d 183d d98f 6aba 7ef6 2d3d
000000b0: f728 d4ba 87c9 673d 67f6 a13d dc16 e53c
000000c0: cd2e c83d e485 ea3c 8c05 39bd 46a7 cbbd
000000d0: 1d91 063e 6765 f0bc 85bd e9bd de20 5abd
000000e0: 2d93 173d d3eb 15be 5fe7 5bbd d25c ff3c
000000f0: 4114 e13c 4472 10be 20e9 21bc 25f8 debc
00000100: dd28 8a3d 8bdf ecbd 3e73 3bbd a2ac a7bd
00000110: a957 21bd 8997 34be 9315 c13d 723b 84bd
00000120: bdc9 d4bd adcd cebc a52f ef3d f4ec 323d
00000130: 60b0 6cbe 6f70 22bd 3927 7bbd 734c 32bd
00000140: 0c36 93bc 6f6a c43d 7cee a33d 6fcc b9bd
00000150: 0372 e3bd 1d41 e93d ae04 d1bd 6e1a a3bc
00000160: d416 313d 2b44 b63c 2a3a a2bc 2dc1 1ebd
00000170: d0f7 07be ec61 4d3d eb50 d93d 1174 bd3c
00000180: 7c61 6bbd a717 41bd 8d58 d13b 9fe6 6ebd
00000190: bbbe 123d 5caa 27be c48e 063d 537f 063d
000001a0: d674 86bd 630a 2c3d 4983 553d f326 e93d
000001b0: 9918 58bc 826c 393d fc03 613d 8093 2fbe
000001c0: 8090 d2bd 6983 923c 8f84 5a3d f05a b43d
000001d0: af87 9c3d f848 85bd 021f f73c a9f7 293d
000001e0: 4ce7 3abe d01c 16bb 3b1b 21bc a12e d63d
000001f0: 0b74 f1bd 2ab8 903d 2c25 55bd 8459 02be
00000200: 14c5 713e 5507 a13d b085 343e 06e6 853d
00000210: d836 93bd 48db 973d b990 a43d 3b41 393d
00000220: 59ba e5bd d594 82be 6216 d5bd b917 123e
00000230: 7a2d 14be 862c e5bd a8d5 893e 5e82 59bd
00000240: be26 efbb cb69 c1bd 5f20 eabc 2201 9b3d
00000250: 5ee1 993c 217c 0f3e 08a1 cd3a 5a37 cbbd
00000260: 63dc f53c 2b67 7bbd 8cc2 183e b05a 69ba
00000270: 0450 5a3d 022d f4bd b8f8 b5bd 7ae8 ad3d
00000280: 958d 34bd ac4d 13bd 5a4a 123e 9c54 133d
00000290: 5404 09be 4279 333d 6406 1a3d 557e 863d
000002a0: 872a b2bd f190 e6bb c474 f7bd 39d1 92ba
000002b0: 681a 943c 735c f93d 695d e4bc 585a 89bc
000002c0: cd31 e3bd c7a9 2dbd 3128 15bd 59ba 253d
000002d0: 1547 df3d 721f f4bd 4869 373d 069f fa3d
000002e0: f9db d7bd ea58 fabd c6b1 f73d d781 29bc
000002f0: bb13 6e3d a21d b2bc b3e0 23bd bd92 3e3d
00000300: 0f96 713d 21ab 0c3e 84ec 193d 8b50 35bd
00000310: b7f9 94bd ed7d 1d3e 8dfb d43d 9162 1a3d
00000320: 72d0 d3bc 0710 7c3b 4b59 f23d 24be d13d
00000330: e73b 473e d077 ed3c cde7 683c 8388 9a3d
00000340: 2ffb f93c f434 273c 49b8 483d 0741 abbd
00000350: 9a7d f4bc ad40 28bb 18eb 963c 39bf 49bc
00000360: 44fe c43c 4384 43ba c9e3 d73c a2a7 c33d
00000370: 6693 6ebc 604e 0fbb 353e 14bd 9864 d03c
00000380: bb69 febc af1c fdbd 2adf 1f3e 23db 223e
00000390: fa6a 42bd 5aa7 323d 8aae 43bd 2885 183b
000003a0: 6214 f23c 516d 33bd df7a b73d 0156 443e
000003b0: 2a95 c4bd 09fe 4cbd 59dd 1e3e 436b f83b
000003c0: 4efa 743c ac5b 17bd 5569 b43b 20d5 583b
000003d0: a698 2abd 8d0c b839 fce2 163e 855a 71bb
000003e0: 2aa2 ac3d daec 5bbc ef0a 2cba 688b 3b3d
000003f0: 22a8 843d 22dd 0d3d e9a4 00bd 4ec3 93bd

network_body._body_endoder.seq_layers.2.bias f4 [128]
0.0 0.0 0.0 0.0 0.0 0.0 0.0 0.0
0.0 0.0 0.0 0.0 0.0 0.0 0.0 0.0
0.0 0.0 0.0 0.0 0.0 0.0 0.0 0.0
0.0 0.0 0.0 0.0 0.0 0.0 0.0 0.0
0.0 0.0 0.0 0.0 0.0 0.0 0.0 0.0
0.0 0.0 0.0 0.0 0.0 0.0 0.0 0.0
0.0 0.0 0.0 0.0 0.0 0.0 0.0 0.0
0.0 0.0 0.0 0.0 0.0 0.0 0.0 0.0
0.0 0.0 0.0 0.0 0.0 0.0 0.0 0.0
0.0 0.0 0.0 0.0 0.0 0.0 0.0 0.0
0.0 0.0 0.0 0.0 0.0 0.0 0.0 0.0
0.0 0.0 0.0 0.0 0.0 0.0 0.0 0.0
0.0 0.0 0.0 0.0 0.0 0.0 0.0 0.0
0.0 0.0 0.0 0.0 0.0 0.0 0.0 0.0
0.0 0.0 0.0 0.0 0.0 0.0 0.0 0.0
0.0 0.0 0.0 0.0 0.0 0.0 0.0 0.0
00000000: 0000 0000 0000 0000 0000 0000 0000 0000
00000010: 0000 0000 0000 0000 0000 0000 0000 0000
00000020: 0000 0000 0000 0000 0000 0000 0000 0000
00000030: 0000 0000 0000 0000 0000 0000 0000 0000
00000040: 0000 0000 0000 0000 0000 0000 0000 0000
00000050: 0000 0000 0000 0000 0000 0000 0000 0000
00000060: 0000 0000 0000 0000 0000 0000 0000 0000
00000070: 0000 0000 0000 0000 0000 0000 0000 0000
00000080: 0000 0000 0000 0000 0000 0000 0000 0000
00000090: 0000 0000 0000 0000 0000 0000 0000 0000
000000a0: 0000 0000 0000 0000 0000 0000 0000 0000
000000b0: 0000 0000 0000 0000 0000 0000 0000 0000
000000c0: 0000 0000 0000 0000 0000 0000 0000 0000
000000d0: 0000 0000 0000 0000 0000 0000 0000 0000
000000e0: 0000 0000 0000 0000 0000 0000 0000 0000
000000f0: 0000 0000 0000 0000 0000 0000 0000 0000
00000100: 0000 0000 0000 0000 0000 0000 0000 0000
00000110: 0000 0000 0000 0000 0000 0000 0000 0000
00000120: 0000 0000 0000 0000 0000 0000 0000 0000
00000130: 0000 0000 0000 0000 0000 0000 0000 0000
00000140: 0000 0000 0000 0000 0000 0000 0000 0000
00000150: 0000 0000 0000 0000 0000 0000 0000 0000
00000160: 0000 0000 0000 0000 0000 0000 0000 0000
00000170: 0000 0000 0000 0000 0000 0000 0000 0000
00000180: 0000 0000 0000 0000 0000 0000 0000 0000
00000190: 0000 0000 0000 0000 0000 0000 0000 0000
000001a0: 0000 0000 0000 0000 0000 0000 0000 0000
000001b0: 0000 0000 0000 0000 0000 0000 0000 0000
000001c0: 0000 0000 0000 0000 0000 0000 0000 0000
000001d0: 0000 0000 0000 0000 0000 0000 0000 0000
000001e0: 0000 0000 0000 0000 0000 0000 0000 0000
000001f0: 0000 0000 0000 0000 0000 0000 0000 0000

action_model._discrete_distribution.branches.0.weight f4 [2, 128]
-0.026450912 0.013524887 -0.007003668 0.010140236 0.0015822264 -0.014373033 -0.022747718 0.0024946637
0.00025922986 -0.0036614728 -0.0075175664 -0.016758049 -0.0034795606 0.0075131617 0.0036856893 -0.012196547
0.018156648 0.008839906 -0.002514628 -0.006827583 -0.02072736 0.010464694 0.006896005 -0.004024762
-0.0014765199 0.00032775747 -0.007330364 0.014527752 -0.0040454003 -0.011419428 0.0009790048 0.006362462
-0.013236935 -0.0018265035 -0.02975679 0.011531024 0.0069135167 0.009683049 -0.0144667495 -0.007917616
-0.010209789 -0.0020628716 0.0062352377 0.0008088721 0.01568124 0.0013969707 0.01455289 0.0023598708
0.008102987 0.011469632 0.009562909 -0.024414163 -0.0013343453 -0.0035228287 0.008535401 0.014549983
-0.020390112 -0.00786139 0.0030231613 0.009387504 -0.0016355766 -0.028130177 -0.00088846823 0.008828889
0.0047976174 0.017659876 -0.003195516 -0.0041218377 0.0020776726 -0.015439498 0.009906363 0.0112140095
0.0033418622 -0.0077141463 -0.009391042 0.009580595 -0.006589086 -0.005567996 -0.0046286844 -0.0035534787
0.00022690445 0.015425366 0.008325717 -0.009318581 0.0044239336 0.004113141 -0.0014413364 0.008161211
0.0052028736 0.002131576 -0.013047113 -0.011392481 -0.0028127644 0.010970741 -0.0068131597 0.0047627124
-0.0073374803 0.0053947363 0.0007266415 -0.0009494998 0.0011837952 -0.0015136901 0.0032744312 -0.008427878
0.0032010314 -0.011733628 0.012632086 0.013917336 0.0014277113 0.008742267 0.00084136444 -0.0041981554
0.017222306 -0.009467123 -0.0047915974 -0.0037467182 0.007097225 0.007472468 0.006567169 0.014494841
0.004335157 0.011248025 0.006993239 0.0038346895 -0.007043712 0.010535884 0.0005197193 0.0028240138
-0.002476651 0.014864946 0.011121772 0.011080639 0.00947925 0.0018298443 0.01256566 0.0019634783
0.010568519 -0.005821753 -0.006604676 -0.008557192 0.018532826 0.0093109 0.00041157828 0.010156955
-0.01752425 -0.017381644 -0.0054716645 -0.0007011744 -0.0047117765 0.004773005 0.0011428362 -0.0153556345
-0.010431591 0.01564555 -0.0045836642 0.005781964 0.00048741195 -0.010275929 0.011339508 -0.004455482
0.0013939204 0.0018562872 -0.008401638 0.02072808 -0.0017419826 -0.0039498853 0.008741659 0.0034075167
0.002407301 0.006248362 -0.00017630446 0.010469922 0.0030657963 0.018012084 0.005931386 -0.004508258
-0.0013716976 0.012732118 0.01134054 0.012353781 0.0018608215 0.002436907 -0.0020493958 0.0040710173
-0.0007319175 -0.010561309 -0.010802669 -0.011802184 0.007016491 0.007143712 -0.009655657 -0.0052539553
-0.0140606705 -0.00537976 -0.0060642776 0.008007465 0.005189179 0.0006670367 -0.00087718636 0.0025492199
0.01830402 0.005431017 0.004030905 0.0065415627 0.0033572842 0.0076171122 -0.0130627 0.014835707
0.0015767291 -0.004433235 -0.003737177 -0.0048176656 -0.016335027 -0.003714424 -0.0055002654 0.0017231675
0.0071880403 -0.008063509 -0.009819407 -0.009285218 0.0020554562 0.0001929128 0.015128507 -0.003580849
0.0023679025 -0.007968794 0.005112357 -0.004089919 -0.002785805 0.0016787708 -0.009789845 0.0030289579
-0.009203578 0.0032459188 0.008416269 -0.014615947 -0.022954524 0.0061496175 0.0040312787 -0.0060751517
0.0023306417 0.0067235455 -0.00067912193 -0.00143981 -0.0022732494 0.014081894 -0.0030246854 -0.0100877425
0.002201874 0.016708488 -0.0026510907 -0.0076702624 -0.0028021352 0.009377736 0.012280553 -0.01591142
00000000: 95af d8bc 7d97 5d3c 077f e5bb 3b23 263c
00000010: b562 cf3a df7c 6bbc 6c59 babc 837d 233b
00000020: 3ee9 8739 52f5 6fbb eb55 f6bb 2d48 89bc
00000030: 5709 64bb f830 f63b 9b8b 713b 07d4 47bc
00000040: 40bd 943c 41d5 103c 75cc 24bb ebb9 dfbb
00000050: 6dcc a9bc 1c74 2b3c e2f7 e13b 27e2 83bb
00000060: c987 c1ba ddd6 ab39 8d33 f0bb cf05 6e3c
00000070: 478f 84bb 8d18 3bbc f351 803a 337c d03b
00000080: bbdf 58bc 4a67 efba 83c4 f3bc 9fec 3c3c
00000090: c88a e23b a7a5 1e3c f205 6dbc e3b8 01bc
000000a0: f546 27bc 3e31 07bb f750 cc3b 7d0a 543a
000000b0: f275 803c 8f1a b73a 3f6f 6e3c 10a8 1a3b
000000c0: 64c2 043c 20eb 3b3c bfad 1c3c 3600 c8bc
000000d0: 33e5 aeba 42df 66bb 11d8 0b3c 0d63 6e3c
000000e0: 2a09 a7bc 0fcd 00bc 3b20 463b 0cce 193c
000000f0: d860 d6ba 4271 e6bc 18e8 68ba 0ba7 103c
00000100: 5535 9d3b 72ab 903c dd6b 51bb 7b10 87bb
00000110: 9029 083b f3f5 7cbc 4c4e 223c f7ba 373c
00000120: 2503 5b3b f3c6 fcbb e3dc 19bc eef7 1c3c
00000130: 42e9 d7bb bc73 b6bb 38ac 97bb 7be1 68bb
00000140: 33ed 6d39 adba 7c3c 9768 083c f6ac 18bc
00000150: a5f6 903b 87c7 863b 39eb bcba 9ab6 053c
00000160: de7c aa3b e9b1 0b3b 8fc3 55bc 87a7 3abc
00000170: 5b56 38bb 9fbe 333c ed40 dfbb 8710 9c3b
00000180: 3f6f f0bb 54c6 b03b 167c 3e3a dae7 78ba
00000190: 9329 9b3a 0367 c6ba d797 563b 1515 0abc
000001a0: 65c8 513b 673e 40bc cff6 4e3c 8a05 643c
000001b0: 0b22 bb3a ba3b 0f3c 038f 5c3a ae90 89bb
000001c0: cb15 8d3c fe1b 1bbc d502 9dbb 808b 75bb
000001d0: d78f e83b 9bdb f43b 6831 d73b c57b 6d3c
000001e0: ef0d 8e3b a349 383c 8a27 e53b 6a4f 7b3b
000001f0: f0ce e6bb b39e 2c3c c63d 083a 1713 393b
00000200: 4f4f 22bb 1a8c 733c 1838 363c 928b 353c
00000210: db4e 1b3c 63d7 ef3a 33e0 4d3c b3ad 003b
00000220: 9527 2d3c 67c4 bebb 0a6c d8bb 7733 0cbc
00000230: 27d2 973c bf8c 183c 1ac9 d739 5b69 263c
00000240: 048f 8fbc f363 8ebc a64b b3bb 04cf 37ba
00000250: 3f65 9abb de66 9c3b 38cb 953a 3396 7bbc
00000260: 44e9 2abc 192b 803c 9032 96bb a176 bd3b
00000270: 538b ff39 5f5c 28bc 58c9 393c 4bff 91bb
00000280: 35b4 b63a aa4e f33a 06a7 09bc efcd a93c
00000290: 3d53 e4ba 0a6e 81bb 2d39 0f3c a550 5f3b
000002a0: cfc3 1d3b 0fbf cc3b 5ede 38b9 098a 2b3c
000002b0: 87eb 483b 148e 933c 125c c23b 02ba 93bb
000002c0: 89ca b3ba 609a 503c accd 393c 8367 4a3c
000002d0: cfe6 f33a 84b4 1f3b 284f 06bb 2b66 853b
000002e0: 27de 3fba 5709 2dbc aefd 30bc f35d 41bc
000002f0: 98ea e53b cd15 ea3b c332 1ebc 5f29 acbb
00000300: ba5e 66bc b348 b0bb d9b6 c6bb be31 033c
00000310: fd09 aa3b 13dc 2e3a fbf2 65ba d010 273b
00000320: 50f2 953c acf6 b13b af15 843b 9b5a d63b
00000330: e205 5c3b f898 f93b ef04 56bc 7711 733c
00000340: 40aa ce3a ac44 91bb 6deb 74bb 82dd 9dbb
00000350: 09d1 85bc b26d 73bb 923b b4bb e8db e13a
00000360: a789 eb3b cf1c 04bc 94e1 20bc 0721 18bc
00000370: d5b4 063b a348 4a39 8fdd 773c adac 6abb
00000380: d02e 1b3b 8b8f 02bc 8f85 a73b ba04 86bb
00000390: 0d92 36bb 330a dc3a 9665 20bc 7b81 463b
000003a0: 9bca 16bc 7bb9 543b 64e4 093c ba77 6fbc
000003b0: 200b bcbc bb82 c93b d118 843b 1112 c7bb
000003c0: aebd 183b 3051 dc3b 1a07 32ba 02b8 bcba
000003d0: ccfa 14bb bfb7 663c cd39 46bb 0f47 25bc
000003e0: 514d 103b 3de0 883c ecbd 2dbb d356 fbbb
000003f0: 07a4 37bb 13a5 193c 5f34 493c ab58 82bc

action_model._discrete_distribution.branches.0.bias f4 [2]
0.0 0.0
00000000: 0000 0000 0000 0000

network_body._body_endoder.seq_layers.0.weight f4 [128, 78]
-0.029430043 0.1665985 -0.07768258 -0.015836997 0.019241806 0.05798616 -0.017272139 -0.10205091
0.2142507 0.13976406 0.106763914 0.09331666 0.14646761 0.06866696 -0.0011638551 -0.121534444
0.084120154 0.009474881 0.052142706 0.051543735 -0.00893525 -0.24171707 -0.12695955 0.16181745
0.007931958 -0.026212411 -0.024799308 -0.08567799 -0.11614876 -0.16619362 0.015055874 -0.10830813
0.003851415 -0.0506395 -0.116096914 -0.14290716 0.10837465 -0.19865754 -0.16879807 0.0058692982
0.07829825 -0.041015703 -0.30377552 0.10610817 -0.0506265 0.12634139 -0.07699864 -0.11199174
0.06187603 0.31942934 -0.036440685 0.052708533 0.06482804 0.014358985 0.0058495165 -0.11217729
-0.111045286 -0.104969464 -0.09142742 0.068514004 0.030933592 0.0049441266 0.10012635 0.0865472
-0.09695833 0.028576426 0.015917651 0.10710508 0.04086461 -0.11149806 0.20676656 -0.061774556
-0.1319802 0.115678795 0.1167359 -0.1484975 0.037541367 -0.06691765 0.2853805 0.15977411
-0.15526348 0.09661957 0.001705207 -0.1994427 -0.060922008 0.26282728 -0.04197958 0.048974946
0.1779042 -0.0006020145 0.10305458 -0.14296807 -0.022263838 -0.17038274 -0.009083906 -0.07363822
0.01191527 -0.016685102 0.014837145 -0.019969745 0.12835988 -0.083516836 -0.08202796 -0.16445284
0.060991105 -0.13590942 0.089938074 -0.15501146 -0.08449175 0.0021058205 -0.037643794 0.008073829
-0.0845394 0.032804184 -0.1545423 0.026748559 -0.01895277 -0.099135146 -0.022434311 -0.054499682
0.059937023 -0.00936894 -0.015262284 0.159469 0.019018585 -0.033537883 0.106321976 0.017015997
-0.051786907 -0.02021464 -0.04478894 0.19553669 0.07727038 0.08720118 -0.09136862 -0.21257944
0.076819524 0.21339627 0.054516315 0.052002344 0.093820035 -0.08066314 -0.026393872 -0.091729276
-0.036908757 0.07270378 -0.052559104 -0.048892673 0.08371672 0.0574203 -0.1545254 0.13647576
-0.08414404 -0.060082987 0.06283552 -0.13596632 0.107518636 -0.02054031 0.002152298 0.13941787
-0.06331068 0.023059495 -0.09917473 0.16145168 0.03021004 -0.11364572 -0.15526971 0.014156093
0.060954493 -0.010219555 0.09643602 -0.0045337216 -0.04258312 -0.031940892 0.051609363 -0.14300826
-0.13723609 0.009557363 -0.013981483 -0.037208736 0.018393643 -0.11244315 -0.08654954 -0.10452848
0.10164346 0.043019224 -0.20462693 0.058011588 -0.05495177 0.036145173 -0.16756958 -0.17561576
0.0030477298 0.094977885 0.36071607 0.066095345 0.07559578 -0.02352273 -0.012137371 0.043804757
0.15554614 -0.020744948 -0.035592448 -0.024886305 0.037635908 -0.03348701 -0.042000808 0.108646475
-0.026612282 0.084827654 -0.18038715 0.12525102 -0.01539365 0.030869631 0.021874368 0.028076725
-0.060780708 0.23342429 0.1113917 0.06586111 -0.10017412 0.053604513 -0.11385847 0.062980145
-0.029601289 0.1375158 -0.16725616 -0.029133214 0.007386687 -0.11737544 -0.027996518 0.029052686
-0.039887954 -0.0092065 -0.18467431 0.050868485 -0.10576556 0.16084783 -0.032496125 0.08964898
-0.04653184 0.13857666 -0.16026695 -0.034882035 0.21682987 0.0735155 0.14561188 -0.039400376
-0.1653939 0.13263161 -0.13302223 -0.06513589 0.06548431 -0.16666196 0.055972256 -0.1306607
00000000: 4617 f1bc cc98 2a3e 0b18 9fbd 97bc 81bc
00000010: fea0 9d3c e582 6d3d 4d7e 8dbc 1100 d1bd
00000020: 8964 5b3e 4f1e 0f3e 0aa7 da3d ce1c bf3d
00000030: 9bfb 153e 43a1 8c3d 7f8c 98ba 0de7 f8bd
00000040: 3047 ac3d 883c 1b3c 9793 553d 861f 533d
00000050: 2865 12bc ae84 77be af01 02be 79b3 253e
00000060: 0bf5 013c 69bb d6bc eb27 cbbc f177 afbd
00000070: 67df edbd a92e 2abe eaac 763c a7d0 ddbd
00000080: 0568 7c3b 5d6b 4fbd 38c4 edbd 4156 12be
00000090: 87f3 dd3d e26c 4bbe 67d9 2cbe 3e53 c03b
000000a0: d55a a03d 1500 28bd 7788 9bbe 3d4f d93d
000000b0: bc5d 4fbd a35f 013e 77b1 9dbd ed5b e5bd
000000c0: b871 7d3d 3e8c a33e d442 15bd e7e4 573d
000000d0: 90c4 843d f341 6b3c 4dad bf3b 35bd e5bd
000000e0: b66b e3bd 3bfa d6bd 4d3e bbbd 1251 8c3d
000000f0: 7268 fd3c 5702 a23b 0b0f cd3d a93f b13d
00000100: 1792 c6bd 1c19 ea3c bc65 823c e859 db3d
00000110: a661 273d 1859 e4bd 9dba 533e 5107 7dbd
00000120: d125 07be 01e9 ec3d 3b13 ef3d bb0f 18be
00000130: fac4 193d 1f0c 89bd 651d 923e d39b 233e
00000140: 64fd 1ebe 7be0 c53d 4181 df3a b53a 4cbe
00000150: 5b89 79bd 4c91 863e c8f2 2bbd f499 483d
00000160: 852c 363e 82d0 1dba 480e d33d 3966 12be
00000170: a762 b6bc d078 2ebe aad4 14bc a3cf 96bd
00000180: 4438 433c 32af 88bc 7f17 733c 9797 a3bc
00000190: c670 033e e00a abbd 46fe a7bd 5366 28be
000001a0: cfd1 793d d72b 0bbe 7431 b83d 53bb 1ebe
000001b0: 030a adbd ce01 0a3b 6130 1abd 1848 043c
000001c0: fe22 adbd ae5d 063d 5640 1ebe cb1f db3c
000001d0: d742 9bbc 5e07 cbbd 29c8 b7bc 0f3b 5fbd
000001e0: 8680 753d 2f80 19bc a90e 7abc d74b 233e
000001f0: ddcc 9b3c 055f 09bd 56bf d93d 2265 8b3c
00000200: 821e 54bd 2c99 a5bc 9c74 37bd c53a 483e
00000210: ef3f 9e3d 8896 b23d 791f bbbd 6dae 59be
00000220: 8e53 9d3d 8d84 5a3e 804c 5f3d 6900 553d
00000230: b824 c03d b732 a5bd f637 d8bc 8fdc bbbd
00000240: a32d 17bd b8e5 943d 3748 57bd af43 48bd
00000250: ac73 ab3d 8c31 6b3d e83b 1ebe 4dc0 0b3e
00000260: b653 acbd 9419 76bd e9af 803d c13a 0bbe
00000270: bb32 dc3d 2744 a8bc 920d 0d3b 8fc3 0e3e
00000280: 08a9 81bd 44e7 bc3c 1f1c cbbd 9753 253e
00000290: 0c7b f73c 16bf e8bd 06ff 1ebe f5ee 673c
000002a0: 6bab 793d ec6f 27bc 4080 c53d 9d8f 94bb
000002b0: a36b 2ebd 74d4 02bd 5764 533d c270 12be
000002c0: 9e87 0cbe 7c96 1c3c 9712 65bc 3068 18bd
000002d0: 44ae 963c 9848 e6bd e340 b1bd 0713 d6bd
000002e0: 722a d03d ed34 303d b989 51be 8f9d 6d3d
000002f0: 1b15 61bd f60c 143d 5c97 2bbe 9ed4 33be
00000300: 6cbc 473b c483 c23d c7af b83e ff5c 873d
00000310: f6d1 9a3d beb2 c0bc d3db 46bc 9e6c 333d
00000320: 7d47 1f3e 4ff1 a9bc 63c9 11bd 5dde cbbc
00000330: 1c28 1a3d ad29 09bd 0a09 2cbd 0b82 de3d
00000340: 0002 dabc 1fba ad3d 69b7 38be ce41 003e
00000350: a635 7cbc 4fe2 fc3c e031 b33c 2901 e63c
00000360: 31f5 78bd c706 6f3e 5521 e43d 31e2 863d
00000370: 1728 cdbd 6890 5b3d a12e e9bd bcfb 803d
00000380: 677e f2bc f1d0 0c3e 3345 2bbe c7a8 eebc
00000390: 060c f23b 8962 f0bd f458 e5bc e6ff ed3c
000003a0: 8d61 23bd dcd6 16bc 431b 3dbe 795b 503d
000003b0: 9d9b d8bd 4bb5 243e a81a 05bd e299 b73d
000003c0: 2c98 3ebd 0ae7 0d3e 051d 24be 77e0 0ebd
000003d0: a608 5e3e 4b8f 963d 481b 153e 4a62 21bd
000003e0: 055d 29be 95d0 073e fb36 08be f765 85bd
000003f0: a31c 863d 6fa9 2abe 2a43 653d ebcb 05be

network_body._body_endoder.seq_layers.0.bias f4 [128]
0.0 0.0 0.0 0.0 0.0 0.0 0.0 0.0
0.0 0.0 0.0 0.0 0.0 0.0 0.0 0.0
0.0 0.0 0.0 0.0 0.0 0.0 0.0 0.0
0.0 0.0 0.0 0.0 0.0 0.0 0.0 0.0
0.0 0.0 0.0 0.0 0.0 0.0 0.0 0.0
0.0 0.0 0.0 0.0 0.0 0.0 0.0 0.0
0.0 0.0 0.0 0.0 0.0 0.0 0.0 0.0
0.0 0.0 0.0 0.0 0.0 0.0 0.0 0.0
0.0 0.0 0.0 0.0 0.0 0.0 0.0 0.0
0.0 0.0 0.0 0.0 0.0 0.0 0.0 0.0
0.0 0.0 0.0 0.0 0.0 0.0 0.0 0.0
0.0 0.0 0.0 0.0 0.0 0.0 0.0 0.0
0.0 0.0 0.0 0.0 0.0 0.0 0.0 0.0
0.0 0.0 0.0 0.0 0.0 0.0 0.0 0.0
0.0 0.0 0.0 0.0 0.0 0.0 0.0 0.0
0.0 0.0 0.0 0.0 0.0 0.0 0.0 0.0
00000000: 0000 0000 0000 0000 0000 0000 0000 0000
00000010: 0000 0000 0000 0000 0000 0000 0000 0000
00000020: 0000 0000 0000 0000 0000 0000 0000 0000
00000030: 0000 0000 0000 0000 0000 0000 0000 0000
00000040: 0000 0000 0000 0000 0000 0000 0000 0000
00000050: 0000 0000 0000 0000 0000 0000 0000 0000
00000060: 0000 0000 0000 0000 0000 0000 0000 0000
00000070: 0000 0000 0000 0000 0000 0000 0000 0000
00000080: 0000 0000 0000 0000 0000 0000 0000 0000
00000090: 0000 0000 0000 0000 0000 0000 0000 0000
000000a0: 0000 0000 0000 0000 0000 0000 0000 0000
000000b0: 0000 0000 0000 0000 0000 0000 0000 0000
000000c0: 0000 0000 0000 0000 0000 0000 0000 0000
000000d0: 0000 0000 0000 0000 0000 0000 0000 0000
000000e0: 0000 0000 0000 0000 0000 0000 0000 0000
000000f0: 0000 0000 0000 0000 0000 0000 0000 0000
00000100: 0000 0000 0000 0000 0000 0000 0000 0000
00000110: 0000 0000 0000 0000 0000 0000 0000 0000
00000120: 0000 0000 0000 0000 0000 0000 0000 0000
00000130: 0000 0000 0000 0000 0000 0000 0000 0000
00000140: 0000 0000 0000 0000 0000 0000 0000 0000
00000150: 0000 0000 0000 0000 0000 0000 0000 0000
00000160: 0000 0000 0000 0000 0000 0000 0000 0000
00000170: 0000 0000 0000 0000 0000 0000 0000 0000
00000180: 0000 0000 0000 0000 0000 0000 0000 0000
00000190: 0000 0000 0000 0000 0000 0000 0000 0000
000001a0: 0000 0000 0000 0000 0000 0000 0000 0000
000001b0: 0000 0000 0000 0000 0000 0000 0000 0000
000001c0: 0000 0000 0000 0000 0000 0000 0000 0000
000001d0: 0000 0000 0000 0000 0000 0000 0000 0000
000001e0: 0000 0000 0000 0000 0000 0000 0000 0000
000001f0: 0000 0000 0000 0000 0000 0000 0000 0000

network_body._body_endoder.seq_layers.2.weight f4 [128, 128]
-0.06210772 -0.064538576 -0.057676077 0.019838367 0.029746572 -0.054398384 0.13769151 -0.03970427
0.034121264 -0.12635921 0.19683096 0.020951672 -0.0031519993 -0.08865142 -0.02453172 -0.22486293
-0.019095741 0.1328881 0.11232514 0.097805224 -0.10084075 0.06351362 0.089338064 -0.102240846
0.093789205 0.15218234 0.049591325 -0.06581639 -0.02147848 0.055663764 -0.033802632 0.028084602
-0.043461725 0.0125947725 0.033501636 -0.007045353 0.03980333 0.04032592 -0.08695925 -0.097293
0.10494639 0.05543245 0.19808449 0.16658166 -0.03102479 0.040902436 -0.1417222 -0.08002353
0.06263399 0.039554633 0.088845864 0.1450652 -0.002646008 0.10489544 0.09693417 0.04227758
0.051137056 -0.010092243 0.031470202 0.03705225 -0.09105502 -0.07691574 -0.031910755 -0.005493018
0.004826772 -0.0076645333 -0.04314276 -0.049962364 -0.11891636 -0.21057437 -0.045239884 0.08355083
-0.19727682 0.012444828 0.048553396 -0.076483004 0.092241295 0.09851216 0.0010030736 0.09304976
0.046481866 0.059220605 0.14450508 -0.045112725 0.0014534463 0.032116085 0.1184044 -0.05392973
0.053165525 0.068702206 0.09486959 0.016776836 0.0085259145 -0.07484975 -0.10544221 0.09198335
-0.0139713045 0.050652098 -0.11690552 0.022641992 -0.007910445 -0.015148353 -0.027041962 -0.099219814
-0.14446808 0.024068126 -0.1359915 0.018253429 -0.07727585 -0.07816568 -0.09246753 0.060817566
0.05122768 -0.036293034 0.0054341485 0.13253243 -0.06289281 -0.06570524 0.013697339 -0.17536193
-0.14486831 0.105117485 -0.05398511 -0.08738306 -0.13091855 -0.13264935 -0.044100948 0.12038477
0.11776803 0.023105506 -0.11257251 -0.0012784222 -0.026068162 -0.023129165 -0.023624178 -0.19226527
-0.06950085 0.093801044 0.015469992 0.038227335 -0.09022773 -0.005139335 0.0061672777 -0.13953058
-0.033002257 -0.045998268 0.10745947 0.2571945 -0.07485959 -0.0016195652 0.008169984 -0.0066297376
-0.08216282 0.0116773285 0.17843255 0.07271486 -0.01820261 0.086748205 0.1167476 0.09978922
0.02805353 0.10485248 0.13651586 -0.0032381199 0.062296856 -0.038018044 -0.116234735 0.004283919
0.15400138 -0.06492726 -0.14831398 0.11423055 -0.070361465 0.008082389 -0.11755485 0.022531483
-0.078607224 0.091090314 0.06348121 0.0556481 -0.0038124253 0.17385942 -0.038122285 -0.09891258
0.1453213 -0.04657643 0.009373098 -0.007760634 -0.20799033 -0.022050353 0.024126181 -0.01798461
-0.016434168 0.0047047203 -0.041452844 -0.10122829 -0.0368539 -0.15244232 0.0009935816 0.0077586626
0.026077393 0.0018090934 0.14744066 -0.057442125 0.03502531 0.057223957 -0.1191278 -0.056808267
-0.121021114 -0.20941365 0.07068247 -0.006023053 -0.10244808 -0.16512689 -0.12329174 -0.09387045
-0.053080652 0.05339467 -0.0016638708 0.0044245934 0.14413589 -0.0060157627 0.15496823 -0.052722998
-0.08007857 0.098325394 -0.0388629 0.17879733 0.045186304 -0.016171705 0.11735333 -0.07748475
-0.021376079 -0.029864645 -0.12115932 0.09917224 -0.16174795 -0.04866433 0.033291053 0.019154642
0.13432436 -0.060852956 -0.114201814 0.009750022 -0.15031488 -0.03829565 0.11172216 -0.084798105
-0.110013485 -0.025210377 0.18787718 0.07644068 -0.06581979 0.11041935 0.07232744 0.07019921
00000000: aa64 7ebd cd2c 84bd c03d 6cbd 1284 a23c
00000010: 15af f33c d7d0 5ebd 01ff 0c3e f2a0 22bd
00000020: bdc2 0b3d 4f64 01be 0e8e 493e d7a2 ab3c
00000030: c691 4ebb e08e b5bd bff6 c8bc 7842 66be
00000040: ac6e 9cbc d113 083e b90a e63d 1b4e c83d
00000050: 9885 cebd 6e13 823d e0f6 b63d a663 d1bd
00000060: 8e14 c03d b0d5 1b3e 4620 4b3d beca 86bd
00000070: a3f3 afbc b0ff 633d a174 0abd ae11 e63c
00000080: ec04 32bd 4e5a 4e3c 0339 093d b4dc e6bb
00000090: d108 233d cb2c 253d b117 b2bd 8d41 c7bd
000000a0: 22ee d63d 230d 633d a9d6 4a3e 6294 2a3e
000000b0: b327 febc 5089 273d a01f 11be 60e3 a3bd
000000c0: 4046 803d 0a04 223d d2f4 b53d f98b 143e
000000d0: a668 2dbb 6cd3 d63d 6c85 c63d 412b 2d3d
000000e0: 1775 513d ef59 25bc e6e6 003d 1ac4 173d
000000f0: 0e7b babd 0086 9dbd dab4 02bd c6fe b3bb
00000100: e629 9e3b c426 fbbb 76b6 30bd 56a5 4cbd
00000110: 6c8a f3bd cfa0 57be 754d 39bd b31c ab3d
00000120: ef02 4abe 64e5 4b3c eddf 463d 1fa3 9cbd
00000130: 01e9 bc3d bec0 c93d 9179 833a df90 be3d
00000140: c563 3e3d 4e91 723d 24f9 133e 1fc8 38bd
00000150: 9181 be3a 288c 033d 027e f23d 6ce5 5cbd
00000160: 18c4 593d beb3 8c3d fd4a c23d 936f 893c
00000170: 47b0 0b3c d34a 99bd 16f2 d7bd c461 bc3d
00000180: e6e7 64bc 9378 4f3d 296c efbd b37b b93c
00000190: d09a 01bc cc30 78bc 1b87 ddbc c233 cbbd
000001a0: 71ef 13be 852a c53c 5b41 0bbe 3788 953c
000001b0: cd42 9ebd 5415 a0bd 9e5f bdbd d71b 793d
000001c0: 1ed4 513d 01a8 14bd f110 b23b 95b6 073e
000001d0: f2cd 80bd 7890 86bd ce6a 603c 1492 33be
000001e0: 5c58 14be d647 d73d 7e1f 5dbd e4f5 b2bd
000001f0: 830f 06be 3bd5 07be 32a3 34bd 4a8c f63d
00000200: 5d30 f13d c247 bd3c 6b8c e6bd bb90 a7ba
00000210: e68c d5bc 6079 bdbc 7e87 c1bc 30e1 44be
00000220: 7656 8ebd c31a c03d d975 7d3c 4494 1c3d
00000230: 51c9 b8bd de67 a8bb e016 ca3b 1be1 0ebe
00000240: 602d 07bd ae68 3cbd b613 dc3d ffae 833e
00000250: fc4f 99bd 9747 d4ba 66db 053c 453e d9bb
00000260: fb44 a8bd 4452 3f3c 06b7 363e 87eb 943d
00000270: a41d 95bc 0ba9 b13d 5e19 ef3d 4a5e cc3d
00000280: 84d0 e53c e6bc d63d d0ca 0b3e a336 54bb
00000290: fd2a 7f3d cfb8 1bbd 7a0c eebd 1e60 8c3b
000002a0: 8ab2 1d3e 95f8 84bd 9fdf 17be b5f1 e93d
000002b0: ac19 90bd ff6b 043c 99c0 f0bd f293 b83c
000002c0: d3fc a0bd 8f8d ba3d 7002 823d 43ef 633d
000002d0: e2d9 79bb 3408 323e 1d26 1cbd ae92 cabd
000002e0: 1bcf 143e edc6 3ebd 9f91 193c eb4c febb
000002f0: 6bfb 54be f1a2 b4bc 45a4 c53c 7654 93bc
00000300: f3a0 86bc 0e2a 9a3b 75ca 29bd c750 cfbd
00000310: 1df4 16bd d719 1cbe 113b 823a 613c fe3b
00000320: 42a0 d53c 1a1f ed3a affa 163e 6f48 6bbd
00000330: b376 0f3d ab63 6a3d 47f9 f3bd c9af 68bd
00000340: ebd9 f7bd 8870 56be f9c1 903d 085d c5bb
00000350: 4dd0 d1bd 0617 29be 6180 fcbd 273f c0bd
00000360: 196b 59bd 5fb4 5a3d 3d16 daba 2efc 903b
00000370: 5c98 133e e01f c5bb feaf 1e3e 12f4 57bd
00000380: 3c00 a4bd d35e c93d b42e 1fbd a616 373e
00000390: 4615 393d 867a 84bc f156 f03d 53b0 9ebd
000003a0: e31c afbc b3a6 f4bc 6122 f8bd d11a cb3d
000003b0: 41a1 25be 4054 47bd 335c 083d 32ea 9c3c
000003c0: 538c 093e f340 79bd a4e2 e9bd 8ebe 1f3c
000003d0: 25ec 19be e6db 1cbd 96ce e43d a1aa adbd
000003e0: c04e e1bd fe85 cebc e062 403e ee8c 9c3d
000003f0: 87cc 86bd 8a23 e23d 6920 943d 9ac4 8f3d

network_body._body_endoder.seq_layers.2.bias f4 [128]
0.0 0.0 0.0 0.0 0.0 0.0 0.0 0.0
0.0 0.0 0.0 0.0 0.0 0.0 0.0 0.0
0.0 0.0 0.0 0.0 0.0 0.0 0.0 0.0
0.0 0.0 0.0 0.0 0.0 0.0 0.0 0.0
0.0 0.0 0.0 0.0 0.0 0.0 0.0 0.0
0.0 0.0 0.0 0.0 0.0 0.0 0.0 0.0
0.0 0.0 0.0 0.0 0.0 0.0 0.0 0.0
0.0 0.0 0.0 0.0 0.0 0.0 0.0 0.0
0.0 0.0 0.0 0.0 0.0 0.0 0.0 0.0
0.0 0.0 0.0 0.0 0.0 0.0 0.0 0.0
0.0 0.0 0.0 0.0 0.0 0.0 0.0 0.0
0.0 0.0 0.0 0.0 0.0 0.0 0.0 0.0
0.0 0.0 0.0 0.0 0.0 0.0 0.0 0.0
0.0 0.0 0.0 0.0 0.0 0.0 0.0 0.0
0.0 0.0 0.0 0.0 0.0 0.0 0.0 0.0
0.0 0.0 0.0 0.0 0.0 0.0 0.0 0.0
00000000: 0000 0000 0000 0000 0000 0000 0000 0000
00000010: 0000 0000 0000 0000 0000 0000 0000 0000
00000020: 0000 0000 0000 0000 0000 0000 0000 0000
00000030: 0000 0000 0000 0000 0000 0000 0000 0000
00000040: 0000 0000 0000 0000 0000 0000 0000 0000
00000050: 0000 0000 0000 0000 0000 0000 0000 0000
00000060: 0000 0000 0000 0000 0000 0000 0000 0000
00000070: 0000 0000 0000 0000 0000 0000 0000 0000
00000080: 0000 0000 0000 0000 0000 0000 0000 0000
00000090: 0000 0000 0000 0000 0000 0000 0000 0000
000000a0: 0000 0000 0000 0000 0000 0000 0000 0000
000000b0: 0000 0000 0000 0000 0000 0000 0000 0000
000000c0: 0000 0000 0000 0000 0000 0000 0000 0000
000000d0: 0000 0000 0000 0000 0000 0000 0000 0000
000000e0: 0000 0000 0000 0000 0000 0000 0000 0000
000000f0: 0000 0000 0000 0000 0000 0000 0000 0000
00000100: 0000 0000 0000 0000 0000 0000 0000 0000
00000110: 0000 0000 0000 0000 0000 0000 0000 0000
00000120: 0000 0000 0000 0000 0000 0000 0000 0000
00000130: 0000 0000 0000 0000 0000 0000 0000 0000
00000140: 0000 0000 0000 0000 0000 0000 0000 0000
00000150: 0000 0000 0000 0000 0000 0000 0000 0000
00000160: 0000 0000 0000 0000 0000 0000 0000 0000
00000170: 0000 0000 0000 0000 0000 0000 0000 0000
00000180: 0000 0000 0000 0000 0000 0000 0000 0000
00000190: 0000 0000 0000 0000 0000 0000 0000 0000
000001a0: 0000 0000 0000 0000 0000 0000 0000 0000
000001b0: 0000 0000 0000 0000 0000 0000 0000 0000
000001c0: 0000 0000 0000 0000 0000 0000 0000 0000
000001d0: 0000 0000 0000 0000 0000 0000 0000 0000
000001e0: 0000 0000 0000 0000 0000 0000 0000 0000
000001f0: 0000 0000 0000 0000 0000 0000 0000 0000

value_heads.value_heads.extrinsic.weight f4 [1, 128]
0.035206288 0.19992118 -0.04454576 0.20124842 0.07237628 0.15376331 0.12980226 0.12251959
0.008266401 0.017757002 -0.15190575 -0.025879802 0.16540876 0.056939393 0.10728663 -0.0037094073
-0.02237499 0.0464134 -0.15346695 -0.17551212 0.050550006 0.13460538 -0.03361934 0.20637116
0.04583391 0.0014783897 0.059255086 -0.010270032 0.21079743 0.09421083 0.15318552 -0.18776436
0.02730982 -0.017972061 -0.16006412 -0.19841588 0.08302681 -0.05094849 0.06172434 0.16517702
0.16790336 -0.13344596 0.14075702 -0.1595638 -0.1726517 0.05784115 0.1759541 0.21349432
-0.07021498 0.1738643 -0.039652023 0.114529386 0.08077236 0.094272 0.0044762013 -0.21535014
-0.10143364 -0.15039879 -0.011141836 0.16285428 0.057818037 0.19863968 -0.01406365 -0.15711309
0.03612897 0.02486728 0.20946606 0.21115173 -0.11580673 0.10175056 0.13528675 0.19408712
0.20311181 0.057573386 0.04911707 0.18825045 -0.20753354 -0.033672392 0.14183211 -0.13110259
0.081428565 -0.14101228 -0.058165718 0.19125813 0.083062395 0.10763998 -0.01783521 0.15288684
0.17859857 -0.1877402 0.03708757 -0.12657467 0.21004723 0.21019794 0.10400041 0.12240053
0.13335094 -0.017116299 0.117841035 0.15397671 0.20176288 0.09325602 -0.08603167 0.15804799
-0.036352206 -0.08814121 0.14285822 0.1980732 0.05630206 0.15313572 -0.20606291 0.05190538
-0.16217567 0.13824055 0.07335213 0.19210853 0.18919061 0.021995572 0.08967247 0.05319488
0.12812394 -0.07638789 -0.20290451 0.10030863 -0.10793974 -0.16032237 -0.07479508 0.20845498
00000000: 7834 103d 23b8 4c3e 9d75 36bd 1114 4e3e
00000010: 043a 943d 2174 1d3e e2ea 043e 8deb fa3d
00000020: cc6f 073c 2277 913c 2e8d 1bbe e101 d4bc
00000030: ea60 293e 4839 693d 18b9 db3d 8719 73bb
00000040: c14b b7bc fa1b 3e3d 7126 1dbe 73b9 33be
00000050: 860d 4f3d fed5 093e 6fb4 09bd f652 533e
00000060: 57bc 3b3d 87c6 c13a 76b5 723d a343 28bc
00000070: 48db 573e 9cf1 c03d aadc 1c3e 4d45 40be
00000080: d8b8 df3c 253a 93bc d9e7 23be 882d 4bbe
00000090: f609 aa3d 5daf 50bd a9d2 7c3d 2a24 293e
000000a0: dcee 2b3e 0fa6 08be 9c22 103e b164 23be
000000b0: 9bcb 30be d7ea 6c3d 502d 343e 419e 5a3e
000000c0: dfcc 8fbd 7c09 323e 296a 22bd 628e ea3d
000000d0: fb6b a53d ae11 c13d 19ad 923b bf84 5cbe
000000e0: 71bc cfbd 2402 1abe 3f8c 36bc 46c3 263e
000000f0: 9bd2 6c3d 3368 4b3e 396b 66bc 41e2 20be
00000100: f9fb 133d 77b6 cb3c 457e 563e 2938 583e
00000110: 142c edbd 9962 d03d 9c88 0a3e c6be 463e
00000120: 8bfc 4f3e 12d2 6b3d fb2e 493d bac4 403e
00000130: ac83 54be 10ec 09bd 703c 113e c23f 06be
00000140: 05c4 a63d 8665 10be 2d3f 6ebd 2cd9 433e
00000150: 9e1c aa3d 5a72 dc3d 251b 92bc 5e8e 1c3e
00000160: 8be2 363e f83e 40be 23e9 173d ca9c 01be
00000170: 9f16 573e 213e 573e 2bfe d43d 21ad fa3d
00000180: 268d 083e 7b37 8cbc a456 f13d 12ac 1d3e
00000190: ee9a 4e3e 03fd be3d 5f31 b0bd 55d7 213e
000001a0: 0de6 14bd 6183 b4bd 6d49 123e b3d3 4a3e
000001b0: fd9c 663d 9ccf 1c3e 2802 53be bc9a 543d
000001c0: 6111 26be ee8e 0d3e a439 963d 19b8 443e
000001d0: 2fbb 413e 0f30 b43c 33a6 b73d e0e2 593d
000001e0: ec32 033e 4171 9cbd 33c6 4fbe 9c6e cd3d
000001f0: 830f ddbd 8c2b 24be 2a2e 99bd 3975 553e
