Results/test13/Doughnut/Doughnut-10257.pt (torch, 659719 bytes, 33 tensors)

network_body._body_endoder.seq_layers.0.weight f4 [128, 78]
0	0xbdb24a7c	-0.08705613
1	0x3d4a9956	0.04946264
2	0xbcd34ed9	-0.025794433
3	0xbdf67986	-0.120348975
4	0x3df2c588	0.11854082
5	0xbd1021e6	-0.035188578
6	0x3df78f0e	0.120878324
7	0x3ded95ad	0.11600814
8	0xbd268772	-0.040656514
9	0x3d9679d7	0.07347458
10	0xbdf00523	-0.1171973
11	0x3e34493d	0.17606063
12	0x3e16b9e8	0.14719355
13	0x3d2b36e4	0.041800395
14	0xbe035d21	-0.12828495
15	0x3d7247ac	0.059150383
16	0x3d8d0ad9	0.06886835
17	0xbe1e243f	-0.15443514
18	0xbdae5c89	-0.085137434
19	0xbe426bdc	-0.18986458
20	0x3d7d4f22	0.061843045
21	0x3e223668	0.15841067
22	0x3e48f657	0.19625221
23	0x3d61e1ee	0.055147104
24	0xbd22a5fe	-0.039709084
25	0xbe507f47	-0.20361052
26	0x3d58f3a3	0.052966725
27	0x3daa0dcc	0.08303413
28	0x3d8dc766	0.06922798
29	0x3d8e3cd3	0.06945195
30	0xbd9a5392	-0.07535471
31	0x3d144c10	0.03620535
32	0x3b5a0f82	0.0033273404
33	0xbd65f8ea	-0.056145586
34	0x3cc5c655	0.024142424
35	0xbd6720da	-0.056427814
36	0x3d1e3c69	0.03863183
37	0xbe061e70	-0.13097548
38	0xbae2f989	-0.0017316799
39	0x3d920b91	0.07131112
40	0x3d94142a	0.072304085
41	0xbc6dda4b	-0.014517377
42	0xbd8fc8d2	-0.07020725
43	0xbe779c02	-0.24180606
44	0xbd77ef64	-0.060531035
45	0x3decae52	0.115566865
46	0x3e75c936	0.24002537
47	0xbdc4b169	-0.09604151
48	0x3dcf4e88	0.101224005
49	0x3e47d0d7	0.1951326
50	0x3e200fe9	0.15631069
51	0x3d883e51	0.06652511
52	0xbd6cd74d	-0.057822514
53	0xbd8f608d	-0.070008375
54	0xbe059257	-0.13044105
55	0xbd493281	-0.04912043
56	0x3dd6199d	0.10454104
57	0xbd67401b	-0.05645762
58	0xbd8027bf	-0.06257581
59	0x3df23db8	0.11828178
60	0xbecbf8bc	-0.39838207
61	0xbd3b54e0	-0.04573524
62	0x3d913d0e	0.070917234
63	0xbdd9cd29	-0.10634834
64	0xbe62d2c3	-0.22150712
65	0x3da5f5f6	0.08103554
66	0xbda39af0	-0.07988536
67	0xbb7c9f34	-0.003854704
68	0xbd78280f	-0.060585078
69	0xbe15c75f	-0.14626835
70	0xbd11e192	-0.03561551
71	0xbdf5d67c	-0.120038
72	0x3cd46865	0.025928685
73	0xbbd65c33	-0.0065417527
74	0x3e545ef1	0.20739342
75	0x3e3e8a5b	0.18607466
76	0xbcadd0c3	-0.02121771
77	0x3bb0e550	0.00539843
78	0xbd90ae4a	-0.07064493
79	0x3daf4512	0.08558096
80	0x3e92e46c	0.28689897
81	0xbcab7f95	-0.02093486
82	0x3bdf506a	0.006815006
83	0xbaa17828	-0.0012319135
84	0x3e3f8930	0.18704677
85	0xbdf03273	-0.117283724
86	0xbe03c2b7	-0.12867247
87	0xbdac6540	-0.084177494
88	0x3be9cced	0.0071350248
89	0x3dba10ed	0.090852596
90	0xbe2041d8	-0.15650117
91	0xbe1002c0	-0.14063549
92	0x3d223790	0.03960377
93	0xbdf6164a	-0.1201597
94	0xbc9b4d7e	-0.01895785
95	0xbe23b0b4	-0.15985376
96	0x3c553ef8	0.013015501
97	0xbdac227e	-0.08405016
98	0x3db5d284	0.08878043
99	0xbdecfe9e	-0.11572002
100	0x3e1dc680	0.15407753
101	0x3d6f3994	0.05840452
102	0xbdf321d6	-0.11871688
103	0xbc35f031	-0.011104629
104	0xbc949a1d	-0.018139893
105	0xbe6e60cb	-0.23279111
106	0x3e28ce09	0.16484846
107	0xbdc5cfa7	-0.09658747
108	0xbd745288	-0.05964902
109	0xbced0908	-0.02893497
110	0x3dd45016	0.10366838
111	0x3deeacf7	0.11654084
112	0x3d284d9b	0.041089635
113	0x3db14e93	0.08657565
114	0xbcd6ec85	-0.026235828
115	0x3d84542a	0.064613655
116	0x3d25fdff	0.040525433
117	0xbdcd5e92	-0.100278035
118	0xbdb0b546	-0.08628325
119	0xbcdb5376	-0.026773196
120	0xbe541585	-0.20711334
121	0xbe7d00bb	-0.2470731
122	0x3de8f741	0.11375285
123	0xbce71480	-0.028208017
124	0xbdb8e5a8	-0.090281785
125	0xbd5fc4b5	-0.054630954
126	0xbe3594ee	-0.17732593
127	0x3e4ff6ab	0.2030894
128	0x3c13c27f	0.009018539
129	0x3e16cd8a	0.14726844
130	0x3d4e53b1	0.050372783
131	0x3d1b35b6	0.03789302
132	0x3ccf30f1	0.025291892
133	0x3dfafbe3	0.12255075
134	0x3d27840b	0.04089741
135	0x3cf38741	0.02972758
136	0xbdb09468	-0.08622056
137	0xbe18fa80	-0.14939308
138	0xbd19bff6	-0.037536584
139	0xbdcc5d95	-0.09978787
140	0xbd989cde	-0.07451795
141	0x3d3c1bdd	0.04592501
142	0x3d9ab357	0.075537376
143	0xbc19e1b9	-0.009392195
144	0x3c5cb430	0.013470694
145	0x3dfd6f8c	0.123747915
146	0xbdc76982	-0.09736921
147	0x3d447d09	0.047970805
148	0xbd6f47fe	-0.058418266
149	0xbd52b695	-0.051443655
150	0xbd33508f	-0.043778
151	0xbd87d454	-0.06632295
152	0x3d3de0d1	0.04635698
153	0xbc9844fd	-0.018587584
154	0xbdcc6b32	-0.099813834
155	0xbdd92af4	-0.10603896
156	0x3dde837c	0.108649224
157	0x3e428663	0.18996577
158	0xbdeecbb8	-0.1165995
159	0x3d78d1dd	0.060747016
160	0x3d8185fa	0.06324382
161	0x3da5d6e9	0.080976315
162	0xbd00275c	-0.031287536
163	0xbe4481aa	-0.19190088
164	0xbdc9d86a	-0.09855731
165	0x3d7db22b	0.061937492
166	0xbde36919	-0.1110403
167	0x3e4a8e2d	0.19780798
168	0xbd41b5e8	-0.04729262
169	0x3e2fc596	0.17165217
170	0xbd9c5bb4	-0.076346785
171	0xbde13970	-0.109972835
172	0x3d84df5a	0.064879134
173	0xbdbe2930	-0.092852
174	0xbdeeb235	-0.11655084
175	0xbde8002d	-0.113281585
176	0xbdfd57d9	-0.12370271
177	0xbde2e8c9	-0.110795565
178	0xbd0debd4	-0.03464873
179	0xbe0687b6	-0.13137707
180	0xbd572ac1	-0.052531008
181	0xbe2e96e1	-0.17049743
182	0xbe5d6f66	-0.21624526
183	0xbe0323d7	-0.1280664
184	0x3e20b510	0.1569407
185	0x3c5ab065	0.01334772
186	0xbd8c8f4d	-0.0686327
187	0x3d30af4f	0.043135937
188	0xbc464859	-0.01210221
189	0xbc684b51	-0.014178113
190	0x3d5045fd	0.050847996
191	0xbe8f03da	-0.27932626
192	0x3ca3df9c	0.020004086
193	0xbd96b214	-0.073581845
194	0xbdad6fde	-0.084686026
195	0xbdc7f412	-0.097633496
196	0xbbd1b021	-0.00639917
197	0x3e30118b	0.17194192
198	0xbd1fceaf	-0.03901547
199	0x3d47b094	0.048752382
200	0xbe15332f	-0.14570306
201	0xbe6e85a6	-0.2329317
202	0x3e75766f	0.2397096
203	0x3df9b96f	0.12193572
204	0x3dc584a4	0.0964444
205	0xbde0a61b	-0.10969182
206	0xbe2b04fa	-0.16701117
207	0xbd9bab9b	-0.076010905
208	0x3e95eb6b	0.29281172
209	0xbd94b485	-0.07260994
210	0x3e668557	0.22511803
211	0x3df3b996	0.11900632
212	0x3e2ac0c1	0.16675092
213	0xbde9e163	-0.11419942
214	0x3dcc54aa	0.09977086
215	0xbe163732	-0.14669493
216	0x3cca00e2	0.024658624
217	0x3df43659	0.119244285
218	0x3d5eabfe	0.054363243
219	0xbdf61aea	-0.12016852
220	0x3db074a8	0.086160004
221	0xbe2476bf	-0.16060923
222	0x3d22944f	0.03969222
223	0xbc367e7e	-0.0111385565
224	0xbd256f2b	-0.04038922
225	0x3d0b5aa5	0.034021992
226	0x3e0b2f26	0.13592204
227	0x3a810484	0.0009843265
228	0xbdb80153	-0.089846276
229	0x3dd2f34f	0.10300314
230	0xbd57a4b0	-0.052647293
231	0xbe02493d	-0.1272325
232	0xbcb0db85	-0.02158905
233	0xbe1f2064	-0.155397
234	0xbd9a7d05	-0.07543377
235	0x3de4af2e	0.111662254
236	0xbceee84a	-0.029163498
237	0x3e27c70b	0.16384523
238	0x3e3b059e	0.18263862
239	0xbe187086	-0.14886674
240	0x3e005845	0.12533672
241	0x3e542ba7	0.20719777
242	0x3dd1183b	0.102097
243	0xbcb18056	-0.02166764
244	0xbe990b8b	-0.2989162
245	0xbd0dab0f	-0.034586962
246	0x3d239682	0.039938457
247	0xbe1717ad	-0.14755125
248	0xba209c6c	-0.00061268243
249	0xbd843942	-0.064562336
250	0xbc4de5e5	-0.012567018
251	0xbe351dd1	-0.17687155
252	0x3de0204a	0.10943659
253	0xbe15d576	-0.1463221
254	0xbdac908d	-0.084260084
255	0x3dd32829	0.10310394

network_body._body_endoder.seq_layers.0.bias f4 [128]
0	0xbb66f237	-0.0035239586
1	0xbb4ce69c	-0.0031265384
2	0x39f990cf	0.00047600872
3	0x3aeffb10	0.0018309075
4	0xbab1e5b0	-0.001357248
5	0xba4b93f5	-0.0007765883
6	0xba4a935a	-0.00077276456
7	0xba65cee4	-0.0008766486
8	0x3a8a399e	0.0010545736
9	0xbad8cbc1	-0.0016540216
10	0x3b27e7a0	0.0025620237
11	0x3b113cec	0.0022161556
12	0x3ab636e5	0.0013901858
13	0x3a91b59a	0.0011116744
14	0xbb2f274f	-0.002672631
15	0x3b095735	0.002095652
16	0xbaf6ddec	-0.0018834448
17	0x3b220248	0.0024720598
18	0x3a3b42d7	0.0007143444
19	0x39926ae0	0.00027926918
20	0x3b0072d4	0.0019599693
21	0x3b7052b3	0.0036670386
22	0xbad756d1	-0.0016429072
23	0xbb24650c	-0.0025084643
24	0xbb1eab10	-0.0024210848
25	0x3b29dd56	0.002591928
26	0x3b783131	0.0037871117
27	0x3aad0f82	0.0013203474
28	0x3b3064f6	0.0026915646
29	0x3b00ade4	0.0019634897
30	0x3b538507	0.0032275335
31	0xbacfdcfc	-0.0015858705
32	0x3b115202	0.0022174125
33	0x3b1d11aa	0.0023966827
34	0x3a937615	0.0011250401
35	0x36845422	3.943701e-06
36	0x3b53373f	0.0032228974
37	0x3b82bc50	0.0039897338
38	0xba96a30b	-0.0011492682
39	0xba8926b0	-0.00104638
40	0x3b89d9e4	0.004206883
41	0xbb941cf6	-0.004520054
42	0xb993748e	-0.00028124865
43	0x3b6cfee5	0.0036162671
44	0x3aebe64b	0.001799771
45	0x3b0f164e	0.0021833363
46	0x3a6c2efc	0.0009009687
47	0xbb718973	-0.0036855608
48	0x3b93e503	0.0045133843
49	0xba44868e	-0.0007496857
50	0xbb59c6d5	-0.0033230085
51	0xbb5dc6aa	-0.0033840337
52	0xbabf1711	-0.0014579018
53	0x3aa12ce4	0.0012296704
54	0x3a101342	0.00054960337
55	0x3adb10a7	0.0016713337
56	0x3b88ccd7	0.0041748094
57	0xb99d002f	-0.0002994551
58	0xbb726710	-0.00369877
59	0xba868f86	-0.0010266162
60	0xbae509fb	-0.0017474288
61	0x3b3cc9bb	0.0028806764
62	0xbab99048	-0.0014157379
63	0xbb43f820	-0.0029902533
64	0x3a458f38	0.0007536295
65	0xbb485a28	-0.0030571315
66	0x3a871e01	0.0010308624
67	0x3b363cfd	0.0027807348
68	0xb9d0f7b7	-0.00039857414
69	0xbb653507	-0.0034974234
70	0x3b7c29bc	0.0038477024
71	0x3a021479	0.0004962157
72	0xbb73623f	-0.0037137417
73	0xbb8b865f	-0.0042579616
74	0x3a826a6f	0.0009949933
75	0xbb30e274	-0.0026990445
76	0x3a93c5bd	0.001127414
77	0x38fa4937	0.00011934566
78	0x3aa5c252	0.0012646413
79	0x3b43d8b0	0.0029883794
80	0xbb663ce4	-0.0035131508
81	0xbb787b37	-0.0037915239
82	0x3b5efdf2	0.0034025875
83	0x39eacd3d	0.00044784872
84	0x3b27dade	0.0025612633
85	0x3b63badd	0.003474883
86	0x3b04e62b	0.0020278792
87	0x3ac88e16	0.0015301134
88	0x3ab4f358	0.0013805432
89	0xba5fb25b	-0.0008533352
90	0x3aaac3e7	0.0013028354
91	0x3b979819	0.0046262858
92	0xbaece46a	-0.0018073444
93	0xba7a00d3	-0.0009536866
94	0xbb42a8b3	-0.0029702603
95	0xbaba5c77	-0.001421823
96	0x3ad48a4c	0.0016215532
97	0xbb49984e	-0.0030760947
98	0x3933946d	0.00017126063
99	0x3adfe31f	0.0017081237
100	0x3aff4357	0.0019475025
101	0xba405ec8	-0.0007338342
102	0xbae39ab4	-0.0017364831
103	0x3b64e052	0.0034923744
104	0xbb967f34	-0.0045928005
105	0x3a80b90d	0.0009820774
106	0x3b2272f2	0.002478775
107	0xb95faaab	-0.00021330516
108	0x3a254bb7	0.0006305533
109	0x3a0faa66	0.00054804084
110	0xba11c8d9	-0.00055612397
111	0x3a614586	0.00085934286
112	0xbb33326a	-0.0027343282
113	0x3b8045c8	0.0039145686
114	0xb951519c	-0.00019962195
115	0x3b51c2a6	0.0032006889
116	0x3b2498c2	0.0025115465
117	0xbb796213	-0.0038052842
118	0x39d7aaf1	0.00041135357
119	0x39255431	0.0001576699
120	0xb98b4380	-0.00026562437
121	0x3acf3b5d	0.0015810538
122	0x3b65b655	0.0035051305
123	0xbb58435c	-0.0032999134
124	0xbaec7c43	-0.0018042404
125	0xbb57e32a	-0.0032941797
126	0x3b0f99e7	0.0021911801
127	0x3af3517b	0.0018563712

network_body._body_endoder.seq_layers.2.weight f4 [128, 128]
0	0xbd488279	-0.048952553
1	0xbd39386e	-0.04521983
2	0xbd12c895	-0.03583582
3	0x3e2475b9	0.16060533
4	0x3c0dced2	0.008655267
5	0xbe0132e5	-0.12617071
6	0xbccee6a7	-0.025256468
7	0xbd805461	-0.06266094
8	0xbdb9c523	-0.09070804
9	0xbdbf6ab1	-0.09346522
10	0xbd28fb19	-0.04125509
11	0xbd1b951c	-0.037984
12	0xbce7ab29	-0.028279858
13	0xbd801a59	-0.062550254
14	0xbd5bb2ca	-0.053637303
15	0x3de37251	0.111057885
16	0x3d460649	0.048345838
17	0xbdc44000	-0.095825195
18	0xbde82f9a	-0.11337204
19	0x3caa35d8	0.020777628
20	0x3be7bcf3	0.007072085
21	0x3e0e3ff7	0.13891588
22	0x3db163cf	0.08661615
23	0xbe0402d1	-0.128917
24	0x3db9de48	0.090756
25	0xbde38608	-0.11109549
26	0xbd6f0975	-0.05835863
27	0xbce81e87	-0.02833487
28	0xbc9890d5	-0.018623749
29	0x3d26f2b1	0.040758792
30	0xbd8c2086	-0.06842141
31	0xbc977b0f	-0.018491296
32	0x3de6c9c5	0.11268953
33	0x3dcbe852	0.09956421
34	0x3d684e69	0.056715403
35	0x3e085bed	0.13316317
36	0x3d98eccd	0.07467041
37	0xbd9ea672	-0.07746591
38	0x3c9a2767	0.018817617
39	0xbcc28548	-0.023745194
40	0x3e0f9cc5	0.14024647
41	0x3d6e54f3	0.058186483
42	0x3e4e8d9c	0.20171207
43	0x3dc10bae	0.09426056
44	0x3e6ae64d	0.22939415
45	0xbbfe9db7	-0.007770266
46	0x3e0c0121	0.13672306
47	0x3d982f68	0.07430917
48	0xbb5b537b	-0.0033466506
49	0x3de36890	0.11103928
50	0x3e5d899f	0.2163453
51	0x3de896c4	0.11356881
52	0xbe080333	-0.1328247
53	0x3c48ed2d	0.012263578
54	0xbd02e8c5	-0.031960268
55	0x3aa0d7ed	0.0012271382
56	0xbd8fcaec	-0.07021126
57	0xbbb29cef	-0.005450837
58	0xbdc0fbd1	-0.0942303
59	0x3d29ec1a	0.04148493
60	0x3df4b92b	0.119493805
61	0xbcaec406	-0.021333706
62	0xbddc03a1	-0.1074288
63	0x3d9e092a	0.07716592
64	0xbdc4e7e6	-0.096145436
65	0xbd06d4ed	-0.032917906
66	0x3e28caed	0.1648366
67	0xbd3f6d8f	-0.046735343
68	0x39da5e37	0.00041650396
69	0x3d783a89	0.0606027
70	0x3dab05f0	0.08350742
71	0xbc59a195	-0.013283153
72	0xbe64c5bb	-0.22341053
73	0xbe52bb72	-0.20579317
74	0xbd8ce1f4	-0.06879035
75	0x3d49ad35	0.04923745
76	0x3d34a2f3	0.044100713
77	0x3d7f0615	0.06226166
78	0x3dea4393	0.1143867
79	0x3df1889f	0.117936365
80	0x3dd9c84c	0.10633907
81	0x3e446a8b	0.19181268
82	0xbe2e1b0a	-0.17002502
83	0xbd272701	-0.04080868
84	0xbe1674ee	-0.14693043
85	0xbc857ff5	-0.016296366
86	0x3a75e01f	0.0009379405
87	0x3dbbd2fe	0.09171103
88	0xbb90e9a5	-0.004422384
89	0x3e0f301d	0.13983198
90	0xbbc41a0b	-0.00598455
91	0x3e10d40b	0.14143388
92	0xbdf3df39	-0.11907811
93	0x3e275308	0.16340268
94	0xbc8d2a19	-0.017231988
95	0xbcb55d61	-0.022139253
96	0x3c110afc	0.008852717
97	0x3df2b619	0.118511386
98	0x3dc100be	0.0942397
99	0x3c56b1f3	0.01310395
100	0x3af8d9ec	0.0018985844
101	0x3ba4c028	0.0050277896
102	0xbe0dc36d	-0.1384408
103	0x3d8da471	0.0691613
104	0xbd9f6095	-0.077820934
105	0x3c89b0cb	0.016807934
106	0x3d814eef	0.063138835
107	0x3e6b967d	0.23006625
108	0xbd518702	-0.051154144
109	0xbd8dddb5	-0.06927053
110	0x3c2da52d	0.010598463
111	0xbd8490ab	-0.06472906
112	0xbcef13ae	-0.029184189
113	0xbd3f7592	-0.046742983
114	0xbdab4a55	-0.08363787
115	0x3b6f7b05	0.0036541831
116	0x3da99720	0.08280778
117	0x3d2bc865	0.041939158
118	0xbd51ae0b	-0.05119137
119	0xbc3406f3	-0.010987985
120	0x3a13fb87	0.00056450855
121	0xbe3e3b60	-0.18577337
122	0x3d73b9db	0.059503417
123	0xbde48ee9	-0.111600704
124	0xbdf0ee4c	-0.117642015
125	0xbd0a1d93	-0.03371961
126	0xbd9d9f8e	-0.07696448
127	0xbd81c389	-0.063361235
128	0xbde1db82	-0.11028196
129	0xbdc33b9c	-0.09532854
130	0xbde16af4	-0.11006728
131	0xbd549b28	-0.05190578
132	0x3e30fcab	0.17283885
133	0xbd0db79d	-0.034598935
134	0xbd15ca40	-0.036569834
135	0xbdba3f4e	-0.09094106
136	0x3de34d01	0.11098672
137	0xbc780f98	-0.015140437
138	0x3c91bfec	0.01779171
139	0xbb30a4d7	-0.002695372
140	0xbc713ce8	-0.014723994
141	0x3c80d2b9	0.01572548
142	0x3cd4dd4e	0.025984433
143	0x3e2d7f6b	0.16943137
144	0xbcfeb8c3	-0.03109396
145	0x3dfb58ae	0.12272774
146	0x3dba564a	0.090984896
147	0xbe032891	-0.12808444
148	0xbb73222e	-0.003709923
149	0xbdb9519d	-0.090487696
150	0xbe1e91e6	-0.15485343
151	0x3d85496c	0.06508145
152	0xbe3d8672	-0.18508318
153	0xbb1f895d	-0.002434335
154	0xbd5458f3	-0.05184264
155	0x3cc138ac	0.023586594
156	0xbbe91218	-0.0071127526
157	0x3e2daff9	0.1696166
158	0xbd8d32e2	-0.06894471
159	0xbdd49b51	-0.10381187
160	0x3e2c1b2c	0.1680724
161	0xbd8f423c	-0.06995055
162	0xbc9e5a71	-0.019330235
163	0x3da3052e	0.07959972
164	0xbdccfb61	-0.10008884
165	0xbd95f9da	-0.07323046
166	0x3c26fa5b	0.010191525
167	0xbd7db8d9	-0.061943863
168	0x3e31d311	0.17365672
169	0x3cf6a55b	0.030108145
170	0x3e980290	0.29689455
171	0xbd344360	-0.044009566
172	0x3d1484f2	0.0362596
173	0x3cd86802	0.026416782
174	0xbe296c88	-0.16545308
175	0x3e1f90e5	0.15582617
176	0xbd2104e2	-0.039311297
177	0xbcc6e7ad	-0.024280393
178	0x3d4c9abd	0.049952257
179	0xbc5f62d1	-0.0136343995
180	0xbdf2635f	-0.1183536
181	0x3c7e4414	0.015519161
182	0xbd743956	-0.059624992
183	0xbc1617ae	-0.009160919
184	0x3e2bf406	0.16792306
185	0x3e02cdf6	0.1277388
186	0x3cc9de75	0.024642209
187	0xbd789c84	-0.06069614
188	0x3d0eac4f	0.034832295
189	0x3dc7256f	0.09723937
190	0x3e181187	0.14850436
191	0x3dfa40c7	0.122193865
192	0xbdac3571	-0.08408631
193	0xbda2f44c	-0.07956752
194	0xbdfdfed4	-0.1240212
195	0x3c1f137d	0.009709236
196	0xbcac9c93	-0.021070754
197	0x3ccabef8	0.024749264
198	0xbd956934	-0.072954565
199	0x3d840346	0.06445937
200	0x3aad9b94	0.0013245218
201	0x3c793615	0.015210648
202	0xbdb7f981	-0.08983136
203	0x3db42fe2	0.087981954
204	0xba876e67	-0.0010332585
205	0xbcc508cc	-0.024052046
206	0xbd9a894e	-0.0754572
207	0x3c5862a1	0.013207109
208	0xbd9d9ae6	-0.0769556
209	0xbd7b5a10	-0.061365187
210	0x3da8dd7c	0.0824537
211	0xbd1518a2	-0.036400445
212	0xbdf019ea	-0.11723693
213	0x3b0b77af	0.0021281054
214	0x3e45f4d5	0.19331677
215	0x3e30cf4b	0.17266576
216	0x3c86fb3e	0.016477223
217	0xbc23ecd2	-0.010005193
218	0xbd75626a	-0.059908308
219	0xbe0c1c1e	-0.13682601
220	0xb91845a7	-0.00014521797
221	0x3cf36e59	0.029715704
222	0x3c3f32ef	0.011669858
223	0x3cdfcfb4	0.02732072
224	0xbd0dcc55	-0.034618694
225	0x3df3b968	0.11900598
226	0x3e260d9c	0.16216129
227	0xbcd47168	-0.025932983
228	0x3caeb4d9	0.02132647
229	0xbd22ad77	-0.03971621
230	0x3dd1a483	0.10236456
231	0x3be0e32b	0.006863018
232	0xbe2ecde7	-0.17070733
233	0xbde4aba0	-0.11165547
234	0x3c95c56b	0.018282613
235	0xbc10e5a9	-0.008843818
236	0xbdd3a279	-0.103337236
237	0xbe65bcf4	-0.22435361
238	0x3d2a2e67	0.04154816
239	0x3d92e456	0.07172458
240	0x3c1603b0	0.009156153
241	0x3d9643ac	0.07337126
242	0x3d45d0c6	0.048294805
243	0x3da0ffc8	0.078612864
244	0x3b1cf68a	0.002395066
245	0x3d8b029d	0.06787608
246	0x3e2fba11	0.17160822
247	0x3d2d2913	0.0422755
248	0x3b2dff7f	0.0026549993
249	0x3dcd1cd5	0.10015265
250	0x3cf8c9d0	0.03036967
251	0xbcb284b1	-0.021791788
252	0xbd89f44b	-0.06736048
253	0x3dab4537	0.08362811
254	0x3da1f3cc	0.07907829
255	0x3ce0326f	0.027367799

network_body._body_endoder.seq_layers.2.bias f4 [128]
0	0xb93690f6	-0.00017410875
1	0xbab8e347	-0.001410582
2	0x3aa5d394	0.0012651556
3	0xbaf2b5b3	-0.0018517285
4	0xb9c7fade	-0.00038143148
5	0xba89de12	-0.0010518453
6	0xbb425083	-0.002965004
7	0x3b4172f6	0.0029517985
8	0xbb0fe59a	-0.0021956922
9	0xbaf79eb2	-0.0018891899
10	0xba6294e6	-0.00086434034
11	0x3ab2f9f1	0.0013654811
12	0xba9b9718	-0.0011870591
13	0x3b1e31aa	0.0024138489
14	0x3b4c7f01	0.003120363
15	0x3a9c1048	0.0011906708
16	0x3b0ffccf	0.0021970754
17	0xbb431dc0	-0.002977237
18	0x3af2fa86	0.0018537797
19	0xbb5d52ef	-0.0033771356
20	0x3aa2fb36	0.0012434486
21	0xbb311f06	-0.0027026548
22	0xbb0f101f	-0.0021829677
23	0xbab8a7fc	-0.0014088149
24	0x3a4fe3e9	0.00079303846
25	0xbafd501c	-0.0019326243
26	0xbb16f9d6	-0.0023037097
27	0xbb2624ab	-0.0025351446
28	0xbb145f1c	-0.0022639697
29	0xbb17e521	-0.0023177343
30	0x3aefe746	0.0018303178
31	0xb8ed9fd2	-0.000113308095
32	0xba851a46	-0.0010154925
33	0x3ae63366	0.0017562925
34	0xba978706	-0.0011560626
35	0x3b2a11b1	0.0025950486
36	0xba77ed71	-0.0009457684
37	0xbaf80711	-0.0018923004
38	0x3b329181	0.0027247372
39	0xb9f8b60e	-0.00047437887
40	0x3b34fb46	0.002761559
41	0x3b5ebabf	0.003398582
42	0xbafed2a9	-0.0019441444
43	0xba7a54b3	-0.00095493643
44	0x392a41da	0.00016236995
45	0x3b20e231	0.0024548883
46	0x3b4d6da7	0.0031345875
47	0x3b6ee3cc	0.0036451695
48	0xba6df214	-0.0009076905
49	0x3b3702a7	0.0027925165
50	0x3947f93b	0.00019070964
51	0x3b6eeb17	0.0036456042
52	0x3b309cae	0.0026948857
53	0xbb2877ca	-0.0025706165
54	0x3b1ce0b2	0.002393764
55	0xb8dcc093	-0.00010526287
56	0xbb2c8586	-0.0026324703
57	0x3b3c4692	0.0028728587
58	0xbb13a3c1	-0.0022528025
59	0x3b54832b	0.0032426815
60	0xbacfbfae	-0.0015849972
61	0xbb10b5e6	-0.0022081076
62	0xba5f310d	-0.0008514084
63	0x3b29d4e7	0.0025914253
64	0xb9cdc9e6	-0.00039251073
65	0xbaad53d7	-0.0013223839
66	0x3ace66fc	0.0015747244
67	0x3b1c5c7c	0.0023858836
68	0x3b3d79e5	0.0028911766
69	0x3b2e4904	0.0026593814
70	0x3b1e8f35	0.0024194245
71	0x3b3450c7	0.0027513967
72	0x39e04b3d	0.00042780666
73	0x3b49f965	0.0030818817
74	0xbb39e5e7	-0.0028365792
75	0x3b366c39	0.0027835502
76	0x3a604a29	0.00085559726
77	0xba1202c1	-0.00055698684
78	0x397093f4	0.000229433
79	0x3a290e7b	0.0006448996
80	0xba8f6020	-0.0010938682
81	0x3b4f1aff	0.0031601784
82	0xbb340ae0	-0.0027472302
83	0xbaea79cd	-0.0017889083
84	0x39c09b84	0.00036736962
85	0xbb16c210	-0.0023003854
86	0xbb5bbbd6	-0.0033528707
87	0x3a9e46de	0.0012075563
88	0xbac7e462	-0.0015250558
89	0x3af693b6	0.0018812332
90	0xbaf98e1c	-0.0019039544
91	0xb83ea46b	-4.5452656e-05
92	0x3a0ec803	0.0005446674
93	0x3b5be69f	0.003355421
94	0xbb142a8e	-0.0022608372
95	0x3b123273	0.0022307902
96	0x3a4ae5ad	0.0007739913
97	0x3b3c609f	0.0028744114
98	0xbad3234a	-0.001610854
99	0x3b2f5799	0.0026755093
100	0x3b19ab84	0.0023448179
101	0xbae1c7df	-0.0017225704
102	0x3ac32637	0.0014888708
103	0xb9edba0d	-0.0004534278
104	0xbab8b137	-0.00140909
105	0x3b32bb70	0.0027272366
106	0xbb1f1e2a	-0.0024279454
107	0x3a2b215d	0.0006528104
108	0xbb68b534	-0.0035508396
109	0x3a452c01	0.00075215107
110	0x3b085122	0.0020800312
111	0x39397ac7	0.00017688713
112	0xbb35a41d	-0.0027716227
113	0xba0992ff	-0.00052480394
114	0xbb025c9b	-0.0019891623
115	0x3aad87d7	0.0013239336
116	0xba8d7bfc	-0.0010794397
117	0x3b43d2d0	0.0029880293
118	0x3b2f2aea	0.002672846
119	0x3b401101	0.002930701
120	0x3b2bc2f8	0.002620874
121	0xbb400289	-0.0029298386
122	0x3b656482	0.0035002534
123	0xbb340734	-0.0027470114
124	0x3b5334c6	0.00322275
125	0xb9c93cd2	-0.00038383022
126	0x3a25937b	0.0006316227
127	0x3a9bd54b	0.0011889128

action_model._discrete_distribution.branches.0.weight f4 [2, 128]
0	0xb97bea14	-0.00024024426
1	0xbb3d5843	-0.002889172
2	0xbbfa24b8	-0.0076337717
3	0x3c147841	0.009061874
4	0x3ba1e707	0.0049408707
5	0x3a90875e	0.0011026671
6	0x3c09ba24	0.008406196
7	0xbc882e7d	-0.01662373
8	0xbb005b3d	-0.0019585632
9	0x3c2a3475	0.010388483
10	0xbaf14e3f	-0.001841016
11	0x3b14a534	0.0022681477
12	0x3c3f3bfc	0.011672016
13	0xbbea0299	-0.007141423
14	0xbc548ab8	-0.012972526
15	0x3b2a1761	0.0025953876
16	0xbbdc37f2	-0.0067205364
17	0xbb33d09a	-0.0027437569
18	0xbb9a6231	-0.0047114124
19	0xbbbf04e9	-0.0058294428
20	0xbc314f89	-0.010822185
21	0x3a5ec62e	0.0008498159
22	0x3b6b2d61	0.0035885202
23	0x3cafff5c	0.02148407
24	0x3c52a1d3	0.012855965
25	0x3c7a7d0d	0.0152886035
26	0x3bf04656	0.0073326034
27	0x3b4363f4	0.0029814215
28	0x3a63fa25	0.0008696637
29	0xbc33872e	-0.010957522
30	0xbb81ec42	-0.0039649317
31	0x3c053588	0.008130439
32	0x3c77a7a9	0.015115657
33	0x3b9af4b5	0.0047288784
34	0x3c9c38ed	0.019070113
35	0xbc167096	-0.009182116
36	0x3c12a44a	0.008950302
37	0x3ca518ab	0.020153364
38	0x3acb79b6	0.0015523944
39	0x3c5c3ce9	0.0134422565
40	0x3b27441f	0.002552278
41	0xbbc29b36	-0.0059389127
42	0xb91f3569	-0.00015183318
43	0x3bd156e0	0.00638853
44	0xbbecb6ab	-0.007223924
45	0xbc2671d6	-0.010158977
46	0xbbf1bba5	-0.0073771053
47	0xbbbbe340	-0.0057338774
48	0x3ba17fc9	0.0049285633
49	0xbc784fa1	-0.015155704
50	0x3aeb8134	0.0017967583
51	0xbabb7908	-0.0014303038
52	0xbc9c9a5b	-0.019116571
53	0x3b9df3cb	0.004820322
54	0x3bba3d94	0.00568361
55	0xbbbaefb4	-0.0057048444
56	0x3bde492b	0.0067836246
57	0xbc352346	-0.011055773
58	0x3c57c271	0.013168917
59	0xbbb3ed03	-0.0054909005
60	0xbc32acc0	-0.010905445
61	0x3b83ca26	0.0040219007
62	0xbae021aa	-0.0017099876
63	0xbbbb1c19	-0.0057101366
64	0x3bf2f359	0.007414263
65	0xbbf70ac5	-0.0075391256
66	0x3ba6db27	0.005092043
67	0xbca7627b	-0.020432701
68	0xbc363adb	-0.011122431
69	0xbc0a3af8	-0.008436911
70	0xbc697c2c	-0.014250796
71	0xbc218a42	-0.009859623
72	0x3aaeba3a	0.0013330646
73	0xbcb65126	-0.022255491
74	0x3c00e4b3	0.007867026
75	0xbbf1dd6d	-0.0073811323
76	0xbb07e033	-0.0020732998
77	0xbb8bc3da	-0.0042652907
78	0x3bfde5f1	0.0077483584
79	0x3b350aed	0.002762492
80	0x3b5a0ff1	0.0033273662
81	0xbb9475eb	-0.0045306585
82	0x3c83155a	0.016001392
83	0x3b766338	0.003759576
84	0x3cbae92d	0.022816265
85	0x3c098c29	0.008395233
86	0x3c05583f	0.008138715
87	0xbb69114d	-0.003556329
88	0xbaba364f	-0.0014206859
89	0xbbac82ef	-0.005264632
90	0x3be326dd	0.006932123
91	0x3bb11cdc	0.0054050516
92	0xbbff4508	-0.0077902116
93	0xbc6b6397	-0.014367006
94	0x3bed7c6c	0.0072474983
95	0xbcd4fc45	-0.025999198
96	0xbc60f36c	-0.013729911
97	0xbc68d111	-0.014210002
98	0x3bd69cc1	0.0065494482
99	0xbc7d7f60	-0.015472263
100	0xbbcb340b	-0.0062012724
101	0x3c8d8d38	0.017279252
102	0x3c4c2c94	0.0124618
103	0x3c408386	0.011750108
104	0xbb611ff1	-0.0034351314
105	0xb9b1b64c	-0.00033895893
106	0x3bc8cfd5	0.006128291
107	0x3b8c0748	0.004273329
108	0x3c7ac3d1	0.015305475
109	0xba857653	-0.0010182358
110	0xbc3150e5	-0.010822509
111	0xbacd1029	-0.0015645075
112	0xbba7a2ee	-0.0051158583
113	0x3cb0cfa7	0.021583391
114	0xbbcce709	-0.0062531275
115	0xbba3bb64	-0.004996704
116	0x3c3aefba	0.011409694
117	0xbb729ee1	-0.0037020969
118	0xba8940db	-0.0010471599
119	0xbc479db9	-0.0121836
120	0xbb0d7b36	-0.0021588332
121	0x3c0ce4e1	0.008599491
122	0xbbdfa5ef	-0.0068252007
123	0xbb1f4f3f	-0.002430871
124	0xbc470369	-0.012146809
125	0xbc69fa72	-0.014280902
126	0x3bfa9405	0.00764704
127	0x3b4e0800	0.0031437874
128	0xbb9b66f7	-0.004742499
129	0xbc9c5164	-0.019081779
130	0xbc0b8b80	-0.008517146
131	0xbc2ecb26	-0.010668552
132	0xbb8aab13	-0.0042318194
133	0xbc69f79a	-0.014280224
134	0xbbe06053	-0.0068474202
135	0x3b2d1a5d	0.0026413419
136	0xbc2312df	-0.00995323
137	0xbc593745	-0.013257806
138	0x3b90c2f3	0.004417771
139	0xbc8a3a74	-0.016873576
140	0xbbc4c0de	-0.006004437
141	0x3c402227	0.011726893
142	0x3b48fd56	0.0030668578
143	0x3c35a977	0.011087767
144	0x3c21b00c	0.009868633
145	0xbc8014e4	-0.015634961
146	0xba069d38	-0.0005135122
147	0xbc2e6fb1	-0.0106467465
148	0xba817fde	-0.0009880026
149	0xbb8df1b2	-0.004331791
150	0x3a7189b2	0.00092139386
151	0xb895e8a2	-7.148205e-05
152	0x3b10c297	0.002208864
153	0xbb408d25	-0.0029381004
154	0xbba7899d	-0.0051128403
155	0xbc62115b	-0.013798083
156	0xbc27138b	-0.0101975305
157	0xbc5c2e80	-0.013438821
158	0x3c0c7ea0	0.008575112
159	0xbc1d930b	-0.009617577
160	0xbb8a65f2	-0.0042235786
161	0x3c42fcc2	0.0119010825
162	0x3b05b8cb	0.0020404335
163	0x3c3170d2	0.010830121
164	0xbc27627a	-0.01021635
165	0x39fa3d53	0.00047729406
166	0x3c0f1637	0.008733324
167	0xbc14b04e	-0.009075237
168	0x3c681e58	0.014167391
169	0x3c2087a0	0.0097979605
170	0xbae227f0	-0.0017254334
171	0xbc653efb	-0.0139920665
172	0xbb69f1c9	-0.0035697094
173	0x3bb7890e	0.005601055
174	0x3c5fe78e	0.013666047
175	0x3c40c82d	0.011766476
176	0xbcb6fbb7	-0.022336824
177	0x3c87e374	0.01658795
178	0xbbe9f8ee	-0.0071402704
179	0x3bc68eff	0.006059527
180	0x3beda970	0.0072528645
181	0xbad6ecab	-0.0016397437
182	0xbc263b5c	-0.010145988
183	0xba11137e	-0.00055342156
184	0x3a1d57ce	0.00060021586
185	0x3ca8401c	0.020538382
186	0x3be115fd	0.0068690763
187	0x3c89adf6	0.016806584
188	0xbc1f9110	-0.009739175
189	0xbc3bc744	-0.011461083
190	0x3b575497	0.0032856816
191	0x3bdc6751	0.0067261835
192	0x39c51936	0.00037593552
193	0xbbb416da	-0.005495888
194	0x3bf872ec	0.007582059
195	0xbbca5dc4	-0.0061757285
196	0x3ca0af91	0.019614967
197	0x3b01aeca	0.001978802
198	0x3b8e9aa3	0.00435193
199	0x3c1aaeab	0.009441058
200	0x3bf53976	0.0074836565
201	0x3c87e03c	0.016586415
202	0x3b01abc7	0.0019786225
203	0xbb0f3b96	-0.0021855584
204	0x3c05ca77	0.008165947
205	0xbc5b979b	-0.013402845
206	0x3be484a9	0.006973822
207	0xbb63c4b5	-0.0034754698
208	0xbcb14d64	-0.021643348
209	0x3c681659	0.014165484
210	0xbc7365c7	-0.014855809
211	0xbb1723dd	-0.0023062148
212	0xbcbe6d72	-0.023245547
213	0x3a2b396d	0.00065316894
214	0x3b5319d3	0.0032211437
215	0x3ba30651	0.004975118
216	0x3bca5028	0.006174106
217	0xb8c5b886	-9.428062e-05
218	0xb98226be	-0.00024824397
219	0x3c095e59	0.008384311
220	0x3b0a2723	0.0021080456
221	0x3bf37b51	0.007430472
222	0xbc193e27	-0.009353197
223	0xbc941fef	-0.018081633
224	0xb988d9da	-0.00026102253
225	0x3b8e11ad	0.004335603
226	0xbc1fca89	-0.009752878
227	0x3ba6a8f4	0.0050860588
228	0x3a28b984	0.00064363354
229	0x3bcacaec	0.006188741
230	0xb9bd08a9	-0.00036055341
231	0x39423c35	0.0001852371
232	0x39d5883c	0.00040728028
233	0x3c5540b6	0.013015917
234	0x3bf0e000	0.0073509216
235	0x3c10f38b	0.008847128
236	0xba39df5c	-0.0007090473
237	0x3bdb6683	0.00669557
238	0x3aaa5e80	0.0012998134
239	0xbb5fed3c	-0.0034168502
240	0xbbf363d7	-0.0074276733
241	0xbc9c9863	-0.019115632
242	0xbc53adbf	-0.012919842
243	0xbb23cd51	-0.0024994204
244	0xbb9dad47	-0.004811916
245	0x3c067c6a	0.008208374
246	0x3c103987	0.008802778
247	0x3b2addc2	0.002607212
248	0x3bef4482	0.007301868
249	0xbbdfd905	-0.0068312907
250	0x3c5922dc	0.01325294
251	0xbba2d0c3	-0.004968734
252	0x3c34b149	0.011028596
253	0xbc07d4cd	-0.008290482
254	0xbc43ff33	-0.0119627
255	0x3b872f38	0.004125502

action_model._discrete_distribution.branches.0.bias f4 [2]
0	0xbb0d759b	-0.002158499
1	0x3b0d759a	0.0021584989

exp_avg f4 [128, 78]
0	0x3794eadb	1.7752338e-05
1	0x382456aa	3.918136e-05
2	0x38666454	5.492971e-05
3	0x3794eadb	1.7752338e-05
4	0x382456aa	3.918136e-05
5	0x38667e68	5.4954e-05
6	0x3794eadb	1.7752338e-05
7	0x382456aa	3.918136e-05
8	0x3868ba4f	5.5486624e-05
9	0x3794eadb	1.7752338e-05
10	0x382456aa	3.918136e-05
11	0x38682c8a	5.535459e-05
12	0x36a8716f	5.0199956e-06
13	0x3859bdeb	5.1913707e-05
14	0x3871e401	5.7671223e-05
15	0x3794eadb	1.7752338e-05
16	0x382456aa	3.918136e-05
17	0x386b6c20	5.6129065e-05
18	0xb68c2320	-4.176414e-06
19	0x3880283e	6.111011e-05
20	0x387ced5a	6.0302533e-05
21	0x3796667e	1.792912e-05
22	0x382398d7	3.900457e-05
23	0x386f8536	5.7106103e-05
24	0xb68c2320	-4.176414e-06
25	0x3880283e	6.111011e-05
26	0x387e7c83	6.067428e-05
27	0x37997cea	1.8297189e-05
28	0x38220da2	3.8636506e-05
29	0x38736f7b	5.803954e-05
30	0xb7734ee0	-1.4502293e-05
31	0x3895cfe9	7.1436e-05
32	0x3884b3c3	6.327734e-05
33	0x3753aa00	1.2616161e-05
34	0x3839e198	4.4317538e-05
35	0x38789ac9	5.9271963e-05
36	0xb7734ee0	-1.4502293e-05
37	0x3895cfe9	7.1436e-05
38	0x3883f9be	6.293085e-05
39	0x36d8cbf5	6.4610454e-06
40	0x3853b29a	5.0472656e-05
41	0x3860fdf9	5.3642292e-05
42	0x366633ed	3.4302896e-06
43	0x386068da	5.3503412e-05
44	0x3865c7bd	5.4783875e-05
45	0x37809c30	1.533152e-05
46	0x382e7e00	4.160218e-05
47	0x38534326	5.0368857e-05
48	0xb6f98c70	-7.4371274e-06
49	0x3886fed4	6.437083e-05
50	0x38809be9	6.132556e-05
51	0x37518ca4	1.2490116e-05
52	0x383a68ef	4.4443583e-05
53	0x3852a1c0	5.0218543e-05
54	0xb6dad880	-6.52211e-06
55	0x38851395	6.345582e-05
56	0x388099a5	6.132134e-05
57	0x37967a47	1.7938333e-05
58	0x38238ef6	3.899537e-05
59	0x3843a6ad	4.6646852e-05
60	0xb6dc3d66	-6.5636586e-06
61	0x388529e2	6.3497355e-05
62	0x3880d038	6.1422994e-05
63	0x381b5670	3.703538e-05
64	0x37a6eb50	1.9898318e-05
65	0x3839eb33	4.4326483e-05
66	0xb6d62d73	-6.382988e-06
67	0x3884c8e4	6.331669e-05
68	0x3880fe68	6.1509025e-05
69	0x381a0c07	3.6727663e-05
70	0x37a98025	2.0206042e-05
71	0x3836fc8e	4.362739e-05
72	0xb6c77cf4	-5.9452086e-06
73	0x3883dddc	6.287891e-05
74	0x38812535	6.15813e-05
75	0x38478c90	4.7576206e-05
76	0x371cfe20	9.357493e-06
77	0x3820bf97	3.8325405e-05
78	0x366c6433	3.5225064e-06
79	0x35ba7359	1.389165e-06
80	0x36877d6b	4.037914e-06
81	0x366c6433	3.5225064e-06
82	0x35ba7359	1.389165e-06
83	0x3688000f	4.0531227e-06
84	0x366c6433	3.5225064e-06
85	0x35ba7359	1.389165e-06
86	0x3689e958	4.110083e-06
87	0x366c6433	3.5225064e-06
88	0x35ba7359	1.389165e-06
89	0x368a7fa8	4.1275816e-06
90	0x35e4c6a1	1.7045132e-06
91	0x36573a8b	3.2071573e-06
92	0x36946ad4	4.42318e-06
93	0x366c6433	3.5225064e-06
94	0x35ba7359	1.389165e-06
95	0x368efd2b	4.2614024e-06
96	0x33925162	6.813458e-08
97	0x36a285a7	4.8435354e-06
98	0x36a3b84f	4.879235e-06
99	0x366d1eec	3.533375e-06
100	0x35b8fde4	1.378296e-06
101	0x3694b464	4.431744e-06
102	0x33925162	6.813458e-08
103	0x36a285a7	4.8435354e-06
104	0x36a55a65	4.9279065e-06
105	0x367a1575	3.7265393e-06
106	0x359f10d3	1.185132e-06
107	0x369a686a	4.601713e-06
108	0xb5af74ae	-1.3072474e-06
109	0x36d0ac1a	6.2189183e-06
110	0x36b0fd1e	5.2746755e-06
111	0x36438668	2.91355e-06
112	0x36061774	1.9981208e-06
113	0x36a1f744	4.8269594e-06
114	0xb5af74ae	-1.3072474e-06
115	0x36d0ac1a	6.2189183e-06
116	0x36af7fab	5.230269e-06
117	0x35edb3d0	1.7710208e-06
118	0x3652c3f3	3.1406496e-06
119	0x36865f57	4.00461e-06
120	0x359e352b	1.1787391e-06
121	0x367a8346	3.7329314e-06
122	0x368dacd9	4.2222496e-06
123	0x36303282	2.6255443e-06
124	0x36196b5a	2.2861263e-06
125	0x366cc984	3.5284038e-06
126	0xb4677396	-2.1555601e-07
127	0x36ac0a8b	5.127227e-06
128	0x36a9d9a6	5.06193e-06
129	0x362f654f	2.6136001e-06
130	0x361a3891	2.2980714e-06
131	0x3669da40	3.4846744e-06
132	0xb46b7cc1	-2.1931466e-07
133	0x36ac2ad4	5.1309853e-06
134	0x36a9b219	5.057326e-06
135	0x36634202	3.3864058e-06
136	0x35ccb7b5	1.525265e-06
137	0x364d87ca	3.062642e-06
138	0xb487dac1	-2.5304874e-07
139	0x36ad4c98	5.1647185e-06
140	0x36a9ef91	5.0644817e-06
141	0x368655a4	4.003481e-06
142	0x3573ca5c	9.0819026e-07
143	0x36483647	2.9833916e-06
144	0xb48651c9	-2.5018952e-07
145	0x36ad340d	5.1618613e-06
146	0x36aa32cc	5.0723083e-06
147	0x3685ce23	3.9877064e-06
148	0x3578066a	9.2396533e-07
149	0x36493e42	2.9987573e-06
150	0xb49689c8	-2.8039926e-07
151	0x36ae378a	5.1920697e-06
152	0x36aa3a71	5.0731983e-06
153	0x369246de	4.359389e-06
154	0x3514408b	5.522822e-07
155	0x36473352	2.9683183e-06
156	0x35e32da3	1.69261e-06
157	0xb30f9ed7	-3.3439246e-08
158	0xb479ba6e	-2.3257755e-07
159	0x35e32da3	1.69261e-06
160	0xb30f9ed7	-3.3439246e-08
161	0xb4849b61	-2.469997e-07
162	0x35e32da3	1.69261e-06
163	0xb30f9ed7	-3.3439246e-08
164	0xb46413b6	-2.1241325e-07
165	0x35e32da3	1.69261e-06
166	0xb30f9ed7	-3.3439246e-08
167	0xb48cc2ca	-2.621876e-07
168	0x35c640c5	1.4771e-06
169	0x34437f16	1.8207024e-07
170	0xb433799d	-1.6714917e-07
171	0x35e32da3	1.69261e-06
172	0xb30f9ed7	-3.3439246e-08
173	0xb492b00e	-2.7322716e-07
174	0x35bbbb43	1.3987086e-06
175	0x348bd5a1	2.6046203e-07
176	0xb4115b05	-1.353729e-07
177	0x35e34269	1.6932146e-06
178	0xb31237e7	-3.4044117e-08
179	0xb4996392	-2.8570918e-07
180	0x35bbbb43	1.3987086e-06
181	0x348bd5a1	2.6046203e-07
182	0xb407f439	-1.2661702e-07
183	0x35f78973	1.8442937e-06
184	0xb446c64a	-1.8512324e-07
185	0xb4a05b2f	-2.9868667e-07
186	0x35861deb	9.992485e-07
187	0x3531257b	6.599218e-07
188	0xb31e458a	-3.6850487e-08
189	0x35e6d86f	1.7199326e-06
190	0xb3827c4c	-6.076206e-08
191	0xb4a29aa7	-3.0287376e-07
192	0x35861deb	9.992485e-07
193	0x3531257b	6.599218e-07
194	0xb3960548	-6.98588e-08
195	0x35dd0f4e	1.6470237e-06
196	0x3250acfb	1.2146525e-08
197	0x362743b0	2.4924339e-06
198	0x35f44e7a	1.8202256e-06
199	0xb42cee49	-1.6105436e-07
200	0x36090225	2.041584e-06
201	0xb6234a79	-2.4332242e-06
202	0x36895166	4.092394e-06
203	0x3620d7a2	2.3967373e-06
204	0x35ae8c76	1.300489e-06
205	0x34c090db	3.5868183e-07
206	0x360802fc	2.0267316e-06
207	0xb4fd330f	-4.7162072e-07
208	0x360efeb4	2.1307906e-06
209	0x3607ca64	2.0234374e-06
210	0x35ab767c	1.2774976e-06
211	0x34cce8af	3.816726e-07
212	0x35f4c296	1.8236049e-06
213	0xb4ceac58	-3.8495887e-07
214	0x36092ddf	2.0441291e-06
215	0x3602f9ed	1.9516986e-06
216	0x35bdad0e	1.4131963e-06
217	0x34840e79	2.4597446e-07
218	0x35de759f	1.6574521e-06
219	0xb4d3c813	-3.9447386e-07
220	0x3609d154	2.0536436e-06
221	0x35ffc660	1.9056715e-06
222	0x35b3a6d9	1.3385098e-06
223	0x34ac274f	3.2066097e-07
224	0x35ca5327	1.5074373e-06
225	0xb4d38118	-3.939574e-07
226	0x3609c876	2.0531274e-06
227	0x35f1f95b	1.8028471e-06
228	0x35cd5220	1.5297592e-06
229	0x340af481	1.2941202e-07
230	0x35b90ae3	1.3786743e-06
231	0x352de722	6.4783865e-07
232	0x3587bd16	1.0113315e-06
233	0x35aae750	1.2733308e-06
234	0xb49a39db	-2.872683e-07
235	0xb77e39a6	-1.5153002e-05
236	0xb7918572	-1.7347487e-05
237	0xb49a39db	-2.872683e-07
238	0xb77e39a6	-1.5153002e-05
239	0xb7908b22	-1.7230926e-05
240	0xb49a39db	-2.872683e-07
241	0xb77e39a6	-1.5153002e-05
242	0xb793e33b	-1.7629578e-05
243	0xb49a39db	-2.872683e-07
244	0xb77e39a6	-1.5153002e-05
245	0xb7906a60	-1.7215672e-05
246	0x368938ef	4.089546e-06
247	0xb7a3d3f6	-1.9529816e-05
248	0xb79a0379	-1.8359848e-05
249	0xb49a39db	-2.872683e-07
250	0xb77e39a6	-1.5153002e-05
251	0xb7911ccf	-1.7298762e-05
252	0x36db5b6a	6.5373506e-06
253	0xb7b85c94	-2.197762e-05
254	0xb7a00459	-1.907551e-05
255	0xb4ac031b	-3.2039756e-07

exp_avg_sq f4 [128, 78]
0	0x2f6f69c6	2.1774502e-10
1	0x2f9571d3	2.718382e-10
2	0x2ff72715	4.4956808e-10
3	0x2f6f69c6	2.1774502e-10
4	0x2f9571d3	2.718382e-10
5	0x2ff98fd3	4.539503e-10
6	0x2f6f69c6	2.1774502e-10
7	0x2f9571d3	2.718382e-10
8	0x2ff90e2f	4.5302914e-10
9	0x2f6f69c6	2.1774502e-10
10	0x2f9571d3	2.718382e-10
11	0x2ffefc77	4.6381718e-10
12	0x2f1607e7	1.3645228e-10
13	0x2fdb1276	3.9848985e-10
14	0x300448b8	4.812466e-10
15	0x2f6f69c6	2.1774502e-10
16	0x2f9571d3	2.718382e-10
17	0x3003fa4d	4.801322e-10
18	0x2ee3551c	1.0337883e-10
19	0x2ffe8f2c	4.630406e-10
20	0x300b1371	5.0595533e-10
21	0x2f6fee9a	2.1821692e-10
22	0x2f951269	2.7116023e-10
23	0x3009d786	5.0146587e-10
24	0x2ee3551c	1.0337883e-10
25	0x2ffe8f2c	4.630406e-10
26	0x300bd010	5.086358e-10
27	0x2f08e412	1.2450155e-10
28	0x2fc7f62e	3.637281e-10
29	0x300f5f34	5.215839e-10
30	0x2e906381	6.566037e-11
31	0x301110d3	5.27746e-10
32	0x3012a93e	5.3355e-10
33	0x2ec809a1	9.0966575e-11
34	0x2ff05fbe	4.3723775e-10
35	0x30140aa6	5.385722e-10
36	0x2e906381	6.566037e-11
37	0x301110d3	5.27746e-10
38	0x30131d7a	5.3520177e-10
39	0x2f21d013	1.4716788e-10
40	0x2fcfde3e	3.7810993e-10
41	0x2fe45637	4.1534218e-10
42	0x2e843774	6.0125155e-11
43	0x30064868	4.885181e-10
44	0x300a974e	5.0419124e-10
45	0x2f33a828	1.6339696e-10
46	0x2fa2db02	2.9623243e-10
47	0x2fc8e985	3.6545714e-10
48	0x2db59adc	2.0646089e-11
49	0x301d4487	5.721365e-10
50	0x301813f7	5.532565e-10
51	0x2f2e752f	1.586684e-10
52	0x2fa39fe1	2.9763128e-10
53	0x2fc74b7c	3.6251524e-10
54	0x2dac8f60	1.9617807e-11
55	0x301b698b	5.6538657e-10
56	0x3017e7bd	5.52628e-10
57	0x2f5bd731	1.9994385e-10
58	0x2f8eaf6e	2.59543e-10
59	0x2fb50dc5	3.2933492e-10
60	0x2d9eef90	1.8068907e-11
61	0x301c161b	5.6783883e-10
62	0x3018257a	5.5350535e-10
63	0x2f84b16d	2.413673e-10
64	0x2f2af939	1.5549952e-10
65	0x2facf281	3.1458927e-10
66	0x2d9a87d4	1.7568093e-11
67	0x301bd458	5.669043e-10
68	0x30185d0e	5.5429517e-10
69	0x2f83d854	2.3982472e-10
70	0x2f2c0ede	1.5648591e-10
71	0x2faa8eff	3.1024425e-10
72	0x2d992b2b	1.7413257e-11
73	0x301a3126	5.609472e-10
74	0x30185ac6	5.5426275e-10
75	0x2f9c70dd	2.845643e-10
76	0x2f182709	1.3838188e-10
77	0x2f9c61db	2.8445765e-10
78	0x2d524057	1.1951404e-11
79	0x2d1059a3	8.205356e-12
80	0x2d8a5583	1.5726758e-11
81	0x2d524057	1.1951404e-11
82	0x2d1059a3	8.205356e-12
83	0x2d8c4241	1.594558e-11
84	0x2d524057	1.1951404e-11
85	0x2d1059a3	8.205356e-12
86	0x2d8bde1e	1.590111e-11
87	0x2d524057	1.1951404e-11
88	0x2d1059a3	8.205356e-12
89	0x2d90a253	1.6442991e-11
90	0x2cfac702	7.1275217e-12
91	0x2d67ca77	1.3175786e-11
92	0x2d9712e4	1.7175102e-11
93	0x2d524057	1.1951404e-11
94	0x2d1059a3	8.205356e-12
95	0x2d97e6e0	1.7269242e-11
96	0x2c52452b	2.988119e-12
97	0x2d8cd7aa	1.6011931e-11
98	0x2da47ab7	1.8699138e-11
99	0x2d5255cc	1.1956169e-11
100	0x2d100f71	8.188881e-12
101	0x2da183b1	1.8362064e-11
102	0x2c52452b	2.988119e-12
103	0x2d8cd7aa	1.6011931e-11
104	0x2da5afa1	1.8836323e-11
105	0x2ce6902f	6.5530008e-12
106	0x2d50854b	1.1853028e-11
107	0x2daa6865	1.9373123e-11
108	0x2bdf8baf	1.5883873e-12
109	0x2dac4708	1.958568e-11
110	0x2db09169	2.0073459e-11
111	0x2cc5e8c4	5.624919e-12
112	0x2d80c3b7	1.463883e-11
113	0x2db1f49b	2.0231197e-11
114	0x2bdf8baf	1.5883873e-12
115	0x2dac4708	1.958568e-11
116	0x2db13bf4	2.0149195e-11
117	0x2d06c010	7.659665e-12
118	0x2d5ae37c	1.2442377e-11
119	0x2d788f60	1.41290035e-11
120	0x2bd7a9c9	1.5323794e-12
121	0x2d96bf15	1.7137883e-11
122	0x2da1f7e7	1.8413672e-11
123	0x2d1859c6	8.660133e-12
124	0x2d2b9d4a	9.75515e-12
125	0x2d5750c9	1.2239273e-11
126	0x298816fe	6.043602e-14
127	0x2dbb2eea	2.1280273e-11
128	0x2db84c49	2.0952256e-11
129	0x2d1886c0	8.67012e-12
130	0x2d27c4ae	9.536523e-12
131	0x2d54d801	1.2098767e-11
132	0x299547fd	6.629417e-14
133	0x2db9f441	2.1140536e-11
134	0x2db7f64f	2.0914074e-11
135	0x2d555f78	1.21288465e-11
136	0x2d132d40	8.36603e-12
137	0x2d37fff3	1.0459178e-11
138	0x299b8f2b	6.9082184e-14
139	0x2dbabf32	2.123066e-11
140	0x2db84549	2.0949147e-11
141	0x2d6b5bd0	1.337859e-11
142	0x2cc3183f	5.544925e-12
143	0x2d2f67e5	9.9706675e-12
144	0x29ab4d6e	7.6073574e-14
145	0x2dbd8dbc	2.1549755e-11
146	0x2db8eab3	2.1022606e-11
147	0x2d6a9f74	1.3336766e-11
148	0x2cc41773	5.5732584e-12
149	0x2d2dd4c5	9.881156e-12
150	0x296a8a5f	5.2078455e-14
151	0x2dba10ae	2.1153159e-11
152	0x2db8cb5d	2.100869e-11
153	0x2d75c562	1.3970465e-11
154	0x2c86ca40	3.8309633e-12
155	0x2d1b0fbc	8.814224e-12
156	0x2d1358ca	8.375698e-12
157	0x2c5a7c31	3.1048603e-12
158	0x2c6c3911	3.3569295e-12
159	0x2d1358ca	8.375698e-12
160	0x2c5a7c31	3.1048603e-12
161	0x2c6d6d40	3.3740372e-12
162	0x2d1358ca	8.375698e-12
163	0x2c5a7c31	3.1048603e-12
164	0x2c6bece8	3.3527018e-12
165	0x2d1358ca	8.375698e-12
166	0x2c5a7c31	3.1048603e-12
167	0x2c6f583a	3.4012918e-12
168	0x2d14cce6	8.458323e-12
169	0x2c63a44b	3.2349841e-12
170	0x2c6c1977	3.3551753e-12
171	0x2d1358ca	8.375698e-12
172	0x2c5a7c31	3.1048603e-12
173	0x2c72066d	3.4393835e-12
174	0x2d0cf570	8.012577e-12
175	0x2c5ef2a5	3.1682792e-12
176	0x2c6c78a3	3.3604584e-12
177	0x2d135ac9	8.376141e-12
178	0x2c5a979b	3.1063821e-12
179	0x2c7599e6	3.4902025e-12
180	0x2d0cf570	8.012577e-12
181	0x2c5ef2a5	3.1682792e-12
182	0x2c6d070b	3.3683635e-12
183	0x2d15eb61	8.521934e-12
184	0x2c64f44c	3.253636e-12
185	0x2c790f32	3.5393463e-12
186	0x2d0b9a41	7.9354865e-12
187	0x2c6a3262	3.3281368e-12
188	0x2c716e07	3.4309237e-12
189	0x2d193d84	8.710702e-12
190	0x2c63025b	3.2259948e-12
191	0x2c7d4b74	3.5995347e-12
192	0x2d0b9a41	7.9354865e-12
193	0x2c6a3262	3.3281368e-12
194	0x2c7257ba	3.4438966e-12
195	0x2d144b43	8.4295375e-12
196	0x2c63740e	3.2323063e-12
197	0x2d0bd181	7.9477544e-12
198	0x2d11f628	8.296953e-12
199	0x2c59a18a	3.0927227e-12
200	0x2ce1a7fe	6.4135355e-12
201	0x2bec86e0	1.6806244e-12
202	0x2d118e44	8.273885e-12
203	0x2d1de1e5	8.974575e-12
204	0x2d0f7555	8.154662e-12
205	0x2c8153ce	3.6757047e-12
206	0x2cc4fa91	5.5984735e-12
207	0x2ac17884	3.4367312e-13
208	0x2d2706a4	9.4943255e-12
209	0x2d253711	9.391391e-12
210	0x2d0e3a09	8.084652e-12
211	0x2c804e31	3.64666e-12
212	0x2cafc39d	4.9955166e-12
213	0x2acd732a	3.6495226e-13
214	0x2d22cd44	9.254212e-12
215	0x2d236216	9.287257e-12
216	0x2d0c5e42	7.979008e-12
217	0x2c78c353	3.5351346e-12
218	0x2ca116aa	4.5784114e-12
219	0x2b2ea433	6.204509e-13
220	0x2d1aff2c	8.810546e-12
221	0x2d224d04	9.225735e-12
222	0x2d0f896d	8.1591236e-12
223	0x2c7384d5	3.4606114e-12
224	0x2c96a0bc	4.2811015e-12
225	0x2b2f3304	6.224329e-13
226	0x2d1af57f	8.808398e-12
227	0x2d21d268	9.19851e-12
228	0x2d1096dc	8.21895e-12
229	0x2c68817c	3.3041061e-12
230	0x2c8f93ed	4.0807275e-12
231	0x2b911cdd	1.0310881e-12
232	0x2d29e29b	9.656854e-12
233	0x2d22de17	9.257948e-12
234	0x2de67020	2.6197766e-11
235	0x2e1a8439	3.5132983e-11
236	0x2e40fb28	4.3878817e-11
237	0x2de67020	2.6197766e-11
238	0x2e1a8439	3.5132983e-11
239	0x2e40e75f	4.3861244e-11
240	0x2de67020	2.6197766e-11
241	0x2e1a8439	3.5132983e-11
242	0x2e4370a6	4.443792e-11
243	0x2de67020	2.6197766e-11
244	0x2e1a8439	3.5132983e-11
245	0x2e42570b	4.4187803e-11
246	0x2ddb9c9d	2.4966968e-11
247	0x2e535559	4.805165e-11
248	0x2e4d5900	4.669065e-11
249	0x2de67020	2.6197766e-11
250	0x2e1a8439	3.5132983e-11
251	0x2e4592f1	4.4923124e-11
252	0x2dea227a	2.661803e-11
253	0x2e6c33af	5.370609e-11
254	0x2e542bda	4.8242167e-11
255	0x2de6982a	2.6215547e-11

exp_avg f4 [128]
0	0x386ed850	5.694508e-05
1	0x36a4cff3	4.9117893e-06
2	0x35de8265	1.6578239e-06
3	0xb7817a60	-1.5434984e-05
4	0x3730feeb	1.054977e-05
5	0xb7505471	-1.2417427e-05
6	0xb6041b13	-1.9685292e-06
7	0x3743b8b9	1.1665915e-05
8	0xb6d7d254	-6.4319847e-06
9	0x3765a63f	1.3688171e-05
10	0xb5868c6e	-1.0024648e-06
11	0xb7c63db2	-2.3632168e-05
12	0xb89b6dbd	-7.411416e-05
13	0xb845f78f	-4.7199017e-05
14	0x37595227	1.29533355e-05
15	0xb8c8aa1b	-9.568428e-05
16	0xb7b2a60e	-2.1296579e-05
17	0xb850fcef	-4.9826627e-05
18	0xb572387d	-9.0234226e-07
19	0xb8948b24	-7.083107e-05
20	0xb65f16e0	-3.3242904e-06
21	0xb7fafee3	-2.9921013e-05
22	0xb4891276	-2.553167e-07
23	0x37136416	8.785186e-06
24	0x36f18125	7.197394e-06
25	0xb83ce3eb	-4.5034958e-05
26	0xb84d2728	-4.8912276e-05
27	0xb6f7db49	-7.386702e-06
28	0xb8536c67	-5.0407278e-05
29	0xb71440be	-8.836561e-06
30	0xb71613ad	-8.945278e-06
31	0x37411564	1.1508677e-05
32	0xb738a9dc	-1.1006803e-05
33	0xb7cb3f48	-2.4228953e-05
34	0xb824189d	-3.912357e-05
35	0x3708d5c6	8.156005e-06
36	0xb915db12	-0.00014291357
37	0xb847e69a	-4.766006e-05
38	0x36704f7a	3.5809048e-06
39	0x37a08083	1.913333e-05
40	0xb7df11ff	-2.6592052e-05
41	0x37914504	1.7317485e-05
42	0xb592bdbc	-1.0933068e-06
43	0xb779fa05	-1.4899769e-05
44	0xb7a46dce	-1.9601455e-05
45	0xb74322a5	-1.1630972e-05
46	0xb7411be0	-1.1510187e-05
47	0x38001e5c	3.0545852e-05
48	0xb82e2065	-4.1515003e-05
49	0x36737fff	3.6284325e-06
50	0x38000ca0	3.0529336e-05
51	0x37af4afc	2.0896543e-05
52	0x35100f69	5.3666605e-07
53	0xb7d5cd48	-2.548717e-05
54	0x35927bfd	1.0913933e-06
55	0xb687409c	-4.030835e-06
56	0xb8a6fb09	-7.962256e-05
57	0xb5ce7a9f	-1.5383883e-06
58	0x37c2abec	2.320666e-05
59	0xb69e2ed1	-4.714217e-06
60	0x349bf966	2.905246e-07
61	0xb75b77bf	-1.3081298e-05
62	0x35be473b	1.4176834e-06
63	0x37bd454a	2.2562821e-05
64	0x3527b0f3	6.2469843e-07
65	0x37222523	9.664599e-06
66	0xb6b8c0f5	-5.5060905e-06
67	0xb8b442d9	-8.59552e-05
68	0xb5170eea	-5.6273586e-07
69	0x368f4336	4.2695565e-06
70	0xb817d56f	-3.619998e-05
71	0xb70e3d6e	-8.478162e-06
72	0x3757cd69	1.2862824e-05
73	0x38868d5c	6.415948e-05
74	0xb71d6fce	-9.383961e-06
75	0x368fe0c5	4.2878987e-06
76	0xb6a7002f	-4.977009e-06
77	0xb7a2a89d	-1.9390422e-05
78	0xb7870c9a	-1.6099122e-05
79	0xb838fd1c	-4.4104745e-05
80	0x380267e2	3.1091164e-05
81	0x378975c4	1.6386512e-05
82	0xb8c49080	-9.3729235e-05
83	0x36647c66	3.4047057e-06
84	0xb85068a8	-4.9688533e-05
85	0xb7cf52af	-2.4714825e-05
86	0xb6bf4504	-5.700278e-06
87	0x371d3e1e	9.372392e-06
88	0xb732d32a	-1.0658792e-05
89	0x3738811c	1.0997315e-05
90	0xb8278353	-3.9938208e-05
91	0xb7bda506	-2.26074e-05
92	0x375540e9	1.2710902e-05
93	0x378599b2	1.5926405e-05
94	0x363b7a95	2.7936524e-06
95	0x3713e9b9	8.816301e-06
96	0xb5fa2a9e	-1.8638855e-06
97	0x37e4cdae	2.7275495e-05
98	0x35c8af73	1.4952224e-06
99	0xb78a8d95	-1.6516811e-05
100	0xb6d632cf	-6.383612e-06
101	0xb658268d	-3.2208948e-06
102	0xb7d69999	-2.5582312e-05
103	0xb61bcfac	-2.321768e-06
104	0x378af9a4	1.656713e-05
105	0xb7bd3153	-2.2553524e-05
106	0xb78df9d5	-1.6924847e-05
107	0xb5af9aeb	-1.3083603e-06
108	0xb7cbd879	-2.4300289e-05
109	0x36557e4f	3.1812995e-06
110	0x365bed49	3.2771661e-06
111	0x3772c6d1	1.4470615e-05
112	0x36031310	1.9531617e-06
113	0xb82fa68d	-4.1878364e-05
114	0xb695b4d8	-4.461599e-06
115	0xb8ab5380	-8.1694685e-05
116	0xb75fa737	-1.33307685e-05
117	0x374a10f4	1.2044085e-05
118	0xb6859c7d	-3.9819265e-06
119	0x35aef087	1.3034013e-06
120	0xb6ced51c	-6.1640876e-06
121	0xb7f34859	-2.9001547e-05
122	0xb7934978	-1.7557977e-05
123	0x37a79205	1.9975947e-05
124	0x375975df	1.2961652e-05
125	0x37ded7e0	2.6564987e-05
126	0xb7cb9f2d	-2.4273608e-05
127	0xb7518d73	-1.24903045e-05

exp_avg_sq f4 [128]
0	0x30149fb0	5.4069016e-10
1	0x2db37262	2.040074e-11
2	0x2d2442a1	9.337115e-12
3	0x2e6a5ae9	5.3286184e-11
4	0x2e96f282	6.864288e-11
5	0x2dbde860	2.1590008e-11
6	0x2b0b17ed	4.9415924e-13
7	0x2ef27fbe	1.10275775e-10
8	0x2ee646c4	1.04717596e-10
9	0x2e25df6f	3.7715105e-11
10	0x2b7d556c	9.0002203e-13
11	0x2f266989	1.5135106e-10
12	0x30025793	4.7418175e-10
13	0x2f662769	2.093238e-10
14	0x2ddb0d83	2.4903418e-11
15	0x307dbc89	9.230879e-10
16	0x2f90f4cd	2.636739e-10
17	0x3000b744	4.6826565e-10
18	0x2dea4ef3	2.663778e-11
19	0x301dac7a	5.736137e-10
20	0x2c8fe233	4.0894176e-12
21	0x2ef0754a	1.0934771e-10
22	0x2e033e35	2.9841202e-11
23	0x2d998d7d	1.745692e-11
24	0x2da61e46	1.888546e-11
25	0x2fbb1a7e	3.4033926e-10
26	0x2f81d50f	2.361635e-10
27	0x2db6c01f	2.0776323e-11
28	0x300a3745	5.028265e-10
29	0x2d8dd7b4	1.6125636e-11
30	0x2e00656d	2.9193915e-11
31	0x2e106176	3.2828372e-11
32	0x2f493dfe	1.8302868e-10
33	0x2f156fb5	1.3591157e-10
34	0x2fae1bde	3.1670216e-10
35	0x2db63da7	2.0718384e-11
36	0x311888fe	2.2196782e-09
37	0x2f6bd419	2.1448478e-10
38	0x2da61a62	1.8883731e-11
39	0x2ff85025	4.5167883e-10
40	0x2e934d7c	6.69855e-11
41	0x2e4c88b4	4.6505647e-11
42	0x2da0d525	1.828455e-11
43	0x2e1fe1a8	3.6352837e-11
44	0x2eaead17	7.943351e-11
45	0x2d9033a7	1.6393843e-11
46	0x2fa9f28c	3.091326e-10
47	0x2f5f79d9	2.0325021e-10
48	0x2f1f1471	1.4468228e-10
49	0x2d5b35f3	1.2460688e-11
50	0x2ea49e4e	7.485977e-11
51	0x2e4f1583	4.7085457e-11
52	0x2b825362	9.260199e-13
53	0x2ee4d98c	1.0406884e-10
54	0x2d595fee	1.23563226e-11
55	0x2d942bd5	1.6845117e-11
56	0x301198e3	5.296796e-10
57	0x2af8dd3e	4.4207167e-13
58	0x2ed57d5d	9.7083876e-11
59	0x2f45b647	1.7981804e-10
60	0x2a3a52ad	1.6548803e-13
61	0x2e2984e3	3.854418e-11
62	0x2c7186d0	3.4322996e-12
63	0x2eaa6ff0	7.750589e-11
64	0x2ea03c26	7.286642e-11
65	0x2dbf17fb	2.1724835e-11
66	0x2ef64d6b	1.1200537e-10
67	0x30a26f36	1.1818659e-09
68	0x2bcfc348	1.4762436e-12
69	0x2c81a35f	3.6845384e-12
70	0x2f05e173	1.2176375e-10
71	0x2f0fce6b	1.3079109e-10
72	0x2d650554	1.3018326e-11
73	0x3015bb36	5.4471927e-10
74	0x2eabafd6	7.8074144e-11
75	0x2dc2eb24	2.215967e-11
76	0x2db4005a	2.0463787e-11
77	0x2e1d5ed2	3.5781884e-11
78	0x2eeedfa3	1.0862713e-10
79	0x2fa0d6e7	2.9256528e-10
80	0x2f4df94e	1.8733212e-10
81	0x2e0f03cf	3.251782e-11
82	0x308841c3	9.913993e-10
83	0x2bbba4ec	1.3332924e-12
84	0x2f8e41a3	2.5876287e-10
85	0x2ea8b0f0	7.671186e-11
86	0x2dd2f1ed	2.3981673e-11
87	0x2e9d42e7	7.1514177e-11
88	0x2e382ea7	4.1878192e-11
89	0x2e634a65	5.16799e-11
90	0x2f267506	1.5139187e-10
91	0x2e6035e9	5.0979585e-11
92	0x2e93f0e1	6.727575e-11
93	0x2ea402e7	7.458372e-11
94	0x2daf8a97	1.9956743e-11
95	0x2f81fbd6	2.3643904e-10
96	0x2c4f5642	2.9464352e-12
97	0x2ee4295c	1.03755865e-10
98	0x2d1adfb7	8.803561e-12
99	0x2f906df1	2.6271565e-10
100	0x2db46343	2.0507712e-11
101	0x2d983688	1.7304616e-11
102	0x2f43dcec	1.7813634e-10
103	0x2b31a0b1	6.3106036e-13
104	0x2dc0c910	2.1917163e-11
105	0x2f6f5205	2.1766063e-10
106	0x2e5f4f9e	5.0775044e-11
107	0x2ce57509	6.521565e-12
108	0x2e9784e0	6.890288e-11
109	0x2f59cc51	1.9808623e-10
110	0x2e10213e	3.2771334e-11
111	0x2e4b3994	4.6207996e-11
112	0x2b9d7a04	1.1189387e-12
113	0x2f3633b6	1.6571175e-10
114	0x2d6dd1ec	1.3518502e-11
115	0x3067352e	8.4112883e-10
116	0x2e8c6fd9	6.386331e-11
117	0x2dacdc48	1.965196e-11
118	0x2e883678	6.1942396e-11
119	0x2f3e24b8	1.7293444e-10
120	0x2f08fc28	1.2458712e-10
121	0x2fe2e54f	4.1272094e-10
122	0x2db7c818	2.089355e-11
123	0x2ef590b0	1.1167012e-10
124	0x2e41a256	4.4027303e-11
125	0x2ec8adb9	9.1258064e-11
126	0x2ef93fce	1.1334543e-10
127	0x2d6877a2	1.3214237e-11
