Results/test16/Doughnut/Doughnut-42628.onnx (onnx, 109697 bytes, 6 tensors)

action_model._discrete_distribution.branches.0.bias f4 [2]
00000000: 0b1f 293c 091f 29bc
0.010322343 -0.010322341

action_model._discrete_distribution.branches.0.weight f4 [2, 128]
00000000: 7c88 a1bc b654 a73b ffcc 453c 8f85 3ebc
00000010: d268 983c c5ca 3b3a 1c86 6bbc 37df 0a3d
00000020: 53f6 0abd ad1c afbb 8728 a63c 65ab 03bd
00000030: 322f cabc 8f43 bbbc 74da 91bc 117c 4abb
00000040: 56e3 8f3c 489e 8cbc 6df0 50bc a0da 02bd
00000050: f6b2 b73c da0d 043d 2354 74bc 0e4b 23bb
00000060: cd13 3d3c 52dd 5ebb 5600 023c 0796 283c
00000070: d530 db3c d2e0 b5bc 9164 a33b 15f4 cd3c
00000080: d499 c13a 9584 15bb 1146 04bd b425 b33c
00000090: 4039 5abc bd2b 6eb8 e132 923c 69a7 c23c
000000a0: 0386 cd3c 0365 babc ee1e 91bc 10cf d73c
000000b0: b771 dfbc a30e 4b3c ea85 cd3c b640 c2bc
000000c0: 06f7 553c febd 7a3c 5751 d2bb a52d ce3c
000000d0: dabf dc3c 914c e33c 43b3 7a3b 83e2 14bc
000000e0: 4ec0 8f3c f8b9 b5bc b740 053d 27e4 c73c
000000f0: ea1c 8cbc f941 cd3c eec6 2ebc 6540 6d39
00000100: 2542 ad3c 1def 01bd 9977 11bd db78 9f3c
00000110: 56ac 9e3c 1c22 8a3c 92fc 38bc 6b8d c8bc
00000120: 030f 7d3c 4edc 3fbc 1be8 aabc 2f4b ccbc
00000130: 2517 cbbb 5828 423c 0f68 7abc 81d5 6abc
00000140: d47d 12bc 775c ba3c 3e8f ff3c 2dec 73bb
00000150: b986 613c cc0f 13bd e415 f7bb cddd 553b
00000160: 5fb1 88bc 88a7 083c faf4 a0bc ed28 ba3a
00000170: 6031 babc f2f4 b53c c8a2 803c e68f 5fbc
00000180: b8bc c0bc 6f05 99bc 8f8e bbbc c9dd 06bd
00000190: acf6 90bc a8ae f5bc d396 79bc a70f eabc
000001a0: 0658 f83a 36fb 9e3c a158 d7bc a7d5 9bbb
000001b0: 9d9c 82bc befd b8bc b1b2 fdbc d861 97bc
000001c0: 04da c23c 5e6f 44bc e48d b6bc 0e12 59bc
000001d0: d61e 56bb 2c44 413b 0812 a9bc b619 083d
000001e0: 4e9b a93c 41b3 b13c 7816 cd3c 84ae 62bc
000001f0: 47e9 43bc cb66 d5bc 57de b33c 58ed 853c
00000200: 90ee 073d a88c d73c 2313 723a 2212 9d3c
00000210: 0e83 bdbc b0b6 a33a f807 9b3c 54c9 91bc
00000220: 2bc7 fd3c 488c b63b c50c 12bd 9751 073c
00000230: 525a f53b 2ce4 e83c bd75 f83c 5132 f53b
00000240: 43f7 b7bc c280 543c ed4b f9bb 29e0 a63c
00000250: 8f9b c7bc 161c b9bc ccfc 4e3c 4bcb 8d3b
00000260: 0d29 33bc 136d ab3c 16b8 61bc 1081 84bc
00000270: a1b6 85bc 0705 113c 81d2 fa3b 5681 fdbc
00000280: efeb a43b bedd e0bc b60e af3c e60c 16bd
00000290: 9f5f a73c f2e4 d93c 7c85 8fbc fee2 96bc
000002a0: 34e1 11bd 5e7a 713c 37c3 f13b 1b93 08bd
000002b0: f4bb c03c 3943 89bc 958b d3bc 44a6 233d
000002c0: 2003 cebc 2b0b e0bc 5614 493b 50ba a8bc
000002d0: a79a 95bc f900 01bd 11c4 a2bc ce13 d23c
000002e0: f9c3 1dbc dcdc 113d 6c0a 03bd 9442 aebc
000002f0: f740 b83b 52a0 aebc 5216 343c 9e26 19bc
00000300: 3718 7cbc c56f fd3c e98f d13c a512 eabc
00000310: 5f56 a9bc c597 c7bc e18e f33c 22cf 8f3b
00000320: 3db2 6fbc 9716 803c 9df7 963c 3e2e 943b
00000330: cad9 8c3c a26f 01bd 4b94 f03c d364 0a3d
00000340: e9c2 ad3c 1f1e ecbc 534e ebbc 107e c0bb
00000350: 74c3 8bbc 89e3 b03c 697e c23c 55ca bebc
00000360: 7dac df3b a232 d6bb 8450 a03b 24b3 38bc
00000370: e94a af3c ab2e 21bc e091 f2bc 486d 60bb
00000380: e270 c03c 5288 f93c a92c ef3c 2669 393c
00000390: ae00 4f3c 63d3 d43c c2fe a63c a2ff f1bb
000003a0: 7556 47bc c2b0 07bc b504 7c3c 789d 6abc
000003b0: 6ba5 f93c 75a6 113c a09c 903c e3ab 8b3c
000003c0: 0a2e e9bb c352 213c f6ca 033d 503b 8b3c
000003d0: 49b5 0dbc 8e06 69bb 884a 2f3c ef9d 4dbc
000003e0: c9c6 6cbc 732b c8bc d2f0 fabc 786f 9fba
000003f0: 7711 753c 09a5 36bb f309 79bc 5fae edbc
-0.019718401 0.005106534 0.012072801 -0.011628523 0.01860467 0.0007163699 -0.014375236 0.03390428
-0.03392632 -0.0053439946 0.020282997 -0.032145876 -0.024680708 -0.022859363 -0.017804362 -0.0030896703
0.017564457 -0.017165318 -0.0127526345 -0.03194678 0.022424202 0.032239772 -0.014912638 -0.0024916562
0.011540365 -0.003400643 0.00793465 0.010289676 0.026756683 -0.02220193 0.0049863537 0.025140801
0.0014770576 -0.002281462 -0.032293383 0.021868564 -0.0133193135 -5.6784356e-05 0.017846527 0.023761468
0.025088316 -0.022753244 -0.017714944 0.026343852 -0.027275903 0.012393626 0.02508827 -0.023712497
0.013059383 0.015304087 -0.006418388 0.02516825 0.02694695 0.02774647 0.003825382 -0.009087208
0.017547753 -0.022183403 0.03253242 0.024400784 -0.017103631 0.025055872 -0.010667546 0.0002262607
0.021149704 -0.031722177 -0.035514448 0.019466808 0.019369286 0.016861968 -0.011290686 -0.024481496
0.015445474 -0.01171024 -0.02086263 -0.024938194 -0.0061978274 0.011850439 -0.015283599 -0.01433313
-0.008941133 0.022749169 0.031196233 -0.003721963 0.013765031 -0.035903737 -0.0075404514 0.0032633424
-0.01668614 0.008340724 -0.019648064 0.0014202871 -0.022728622 0.022211526 0.01570262 -0.013645148
-0.023527488 -0.018679349 -0.022895126 -0.032926355 -0.017695747 -0.02999051 -0.015233713 -0.028571917
0.0018947131 0.019406896 -0.026287379 -0.004755694 -0.01594382 -0.022581931 -0.030968996 -0.018479273
0.023785599 -0.011989443 -0.022284456 -0.0132489335 -0.0032672188 0.0029490096 -0.02063848 0.033227645
0.020703938 0.02169192 0.025035128 -0.013835553 -0.011957473 -0.026049992 0.021956606 0.016348526
0.033186495 0.026312187 0.0009234419 0.019173685 -0.02313378 0.0012490358 0.018924698 -0.017796196
0.03097876 0.005570922 -0.03565671 0.008259199 0.0074875737 0.028429113 0.03032958 0.007482805
-0.02245677 0.012970151 -0.007607928 0.02037056 -0.024366168 -0.0225964 0.012633514 0.004327213
-0.01093508 0.020926034 -0.0137768 -0.016174823 -0.016322436 0.008851296 0.0076544886 -0.030945461
0.0050330083 -0.027449485 0.02136932 -0.036633395 0.020431338 0.026598427 -0.017519705 -0.018418785
-0.03561516 0.014738647 0.0073780078 -0.033343416 0.023527123 -0.016755687 -0.025823394 0.039953485
-0.025147974 -0.027349075 0.0030682287 -0.020596653 -0.01826222 -0.03149507 -0.019868882 0.02564421
-0.009629243 0.03561102 -0.03199236 -0.021271981 0.005622979 -0.021316681 0.01099165 -0.009347586
-0.015386633 0.030937085 0.025581317 -0.028573344 -0.020671068 -0.024364362 0.029731216 0.004388706
-0.014629898 0.015635772 0.018428618 0.004522114 0.017193694 -0.031600602 0.029367587 0.03378756
0.021211104 -0.028822957 -0.028723871 -0.005874403 -0.017060973 0.021592872 0.023741918 -0.023289839
0.006825982 -0.0065367976 0.0048924107 -0.011273179 0.021398025 -0.009837787 -0.029610574 -0.0034244824
0.023491327 0.03046051 0.0291961 0.011316573 0.012634439 0.025979703 0.02038515 -0.00738521
-0.012166609 -0.008281888 0.015381982 -0.01431977 0.030474385 0.008889784 0.01765281 0.017049735
-0.007116084 0.009846392 0.03217598 0.016996056 -0.008649179 -0.0035556885 0.010698922 -0.012549861
-0.014451691 -0.02443478 -0.03063241 -0.0012163958 0.014957777 -0.0027869365 -0.015200126 -0.02901381

network_body._body_endoder.seq_layers.0.bias f4 [128]
00000000: 793b 40bc 6882 a0bb 9b63 7d3c 939e 983c
00000010: f469 dd3b c6d2 8a3c 2f62 d83b 362e c5bb
00000020: af76 583c 1b4f af3c 3a7c 433c 832a 97ba
00000030: 49ff 103c e575 503c edd6 d63b 5087 313c
00000040: ed4e 5f3c d652 953b 4d82 793c b56a e83b
00000050: 9a4c 8b3c 9d6d 24bc c693 2f3a bca6 75ba
00000060: 034a 78bb 5008 28bc a824 1b3c adff a53b
00000070: b189 8abc 455b b2bb d6aa 8339 f053 e83a
00000080: b666 063c e454 6b3c c0c4 0cbc de63 3cbc
00000090: b86c 6f3c d739 f53b c1b8 51bc 3ab0 273c
000000a0: 5b2d 183b 9a71 6abc d84d ad3c 71e6 ac3b
000000b0: 3120 a73c 7783 51bc d91e 60bb ccd2 90bb
000000c0: e50b 3d3a c27d 283c 266a 80bc 17db 603c
000000d0: d7b8 c73b 87d3 03bb 59c1 173c 6510 803c
000000e0: a728 873b 6d4e ab3b b92a eebc 34d5 65bc
000000f0: 8cdf ecbb 0991 1d3b f4b3 a23b cd13 41bc
00000100: 1f67 5d39 54a9 463c 6d6a 95bc 0bb4 03bc
00000110: 33cb 153c db94 6f3b 53c3 bfbc 5b78 edbb
00000120: b80c 133c 70a9 f4b9 5f53 413c 2fdc c3bb
00000130: 1af4 523c 4048 0abc 29a1 993a c6ec 1cba
00000140: 8d02 8f3c d2da 673b 54b1 b93c 3a9c 0a3d
00000150: b3b3 dd3a e5d6 643c cec8 9d3c 917b 8eba
00000160: 6a4d a6bc 4fc7 333c df59 5b3c 2582 bbba
00000170: 67f9 773c 4369 923c efa8 003b 44aa 39bc
00000180: 8cc4 da3c b212 51bc b947 403c db0b 2b3b
00000190: df24 59bc de65 993c ea0c fe3c e146 0bbc
000001a0: 8a9d 583c fc0c 323c fc04 ddbb e88c 753c
000001b0: 40e0 743c 123c edbb 809b 4a3c a23e acbb
000001c0: 724f 92bc 200d 06ba 01ee 813c d8b1 353b
000001d0: f14a 433c db7d 6b3c 51fa 6cbc 5502 7d3c
000001e0: 30cc 443c bca7 f2ba e3fe 41bb 6124 123b
000001f0: 023a 223c 8c4e 843c b73b 39bc e0d9 14bc
-0.011732929 -0.004898358 0.015465642 0.018630302 0.0067570154 0.016946208 0.0066035013 -0.0060174717
0.01321189 0.021400025 0.011931473 -0.0011533055 0.008849927 0.012723421 0.006556383 0.010835484
0.013629657 0.004556994 0.01522882 0.0070927986 0.0170043 -0.0100358995 0.000669774 -0.00093708537
-0.0037885911 -0.010255888 0.009469189 0.0050658793 -0.01691136 -0.005443009 0.0002511355 0.0017725211
0.008203199 0.014363501 -0.008591831 -0.01149842 0.014613323 0.0074837017 -0.012800396 0.010234887
0.0023220393 -0.014309311 0.021155283 0.005276494 0.020401092 -0.012787691 -0.0034198074 -0.00441966
0.000721155 0.010283889 -0.015675616 0.01372411 0.0060950327 -0.0020115094 0.009262406 0.015632818
0.004124719 0.005227855 -0.029073106 -0.014027882 -0.0072287973 0.0024042747 0.0049652997 -0.011784506
0.00021114618 0.012125332 -0.018239224 -0.008038531 0.009142685 0.003655723 -0.023408568 -0.0072470135
0.0089752 -0.00046665547 0.011799662 -0.0059771757 0.012875581 -0.008440077 0.0011721003 -0.000598621
0.017457271 0.003537823 0.022667564 0.033840396 0.0016914516 0.0139672505 0.01926079 -0.0010870566
-0.020300586 0.010972812 0.013388126 -0.0014305754 0.015135146 0.017872458 0.0019631942 -0.011332098
0.026705049 -0.012760805 0.01173585 0.0026099596 -0.01325342 0.018725332 0.031012017 -0.008500786
0.013221154 0.0108673535 -0.006744979 0.014987208 0.0149460435 -0.007239827 0.012366176 -0.00525649
-0.017860148 -0.000511365 0.01586056 0.0027724411 0.011919723 0.014373268 -0.014463977 0.0154424505
0.012011573 -0.0018513124 -0.0029601387 0.0022299516 0.009901525 0.016150735 -0.011305741 -0.009085149

network_body._body_endoder.seq_layers.0.weight f4 [128, 78]
00000000: 7bd8 b0bd 4b33 a2bd 6746 0c3d 83f1 44bd
00000010: 8323 b53d e536 103e 99c0 2abd 738b c93d
00000020: ce48 8abc f041 0f3e 9e05 b63b ab2d 40bd
00000030: 3554 553d 9714 4b3d b350 533d 1f87 8ebd
00000040: 6e5b d43d 6ba4 0b3c e2ba 333d 3102 313e
00000050: 647f 15be 9b22 12be a552 613e 1a86 20be
00000060: 7e72 c13d 784d fb3c c8c6 cf3d 1e18 3fbd
00000070: 4bf9 1dbe b248 233e 802d 9cbc c515 b73d
00000080: 0bfa 0cbe 5aa9 31bd 7a11 b7bd 2ddc 94bd
00000090: 424d 56be a8b7 19be beaf acbd aa7c 58be
000000a0: 66dd ec3c aa3b 82bd 6b1d febd bde6 88be
000000b0: 177a 143d 5d46 933d b9de 2d3d c49a 9e3d
000000c0: 1359 f33d 27a0 d03c 3545 55bd e7fa abbd
000000d0: 1d12 813d 42eb debd 9fc6 05be 3d89 29be
000000e0: e1b6 8b3d f51f 0cbc 43c0 a43c 2855 fdbc
000000f0: 4a95 643e 2c52 a8bc 9f49 5bbd 1a10 28be
00000100: deab 15bc f667 ebbd d2cc a53d 56d0 553d
00000110: 0ee8 30bd 7a05 b2bc afc6 01be d199 903c
00000120: 076f 073e 282a 97ba 4565 87bc 0239 443e
00000130: 09ac dbbd 989e 4fbd d491 65be c9c3 5cbd
00000140: a683 b63d 183d c2bc acfc 153e 848c 183d
00000150: 97f5 67be 26fe 193e 13c1 e5bd e725 36bc
00000160: 9896 4f3e bc63 b03d 012e 3ebd 4b10 db3d
00000170: 70e1 aebd 6d11 c7bc 0444 aabc 4675 28be
00000180: 7e02 74bd 3202 303e d2e8 47bd 61ba be3d
00000190: 59a9 cd3d dab0 213d c096 6c3e 854c dc3d
000001a0: d3cc 443e 14e6 3d3d c1d6 d8bd a9b3 69be
000001b0: b8b6 4c3d 7fff f93d 60a5 53bd 0b88 173e
000001c0: 27ae eb3d 49f6 9cbc 365c 5cbd 7a99 17be
000001d0: 23c4 843d c21b c7bd 5e2b 3fbe cf73 47bd
000001e0: 48b7 333d bd4c e23d dc6d 52bb 0fa5 c8bc
000001f0: aa4e fd3c 0d9b 4a3d 3544 04be 81f8 ab3d
00000200: c15e b03c 425e dabb c455 46be d43f abbc
00000210: 844e e9bd 3f8c 4bbe 9aee 03be 2794 26bd
00000220: 80d7 01bd 2623 13be bce6 2bbe 9fb1 35bd
00000230: ed02 3f3e f46b a9bd e573 b03d ace8 fcbd
00000240: aa3e 633d 15ec db3c 93b4 1e3c d83f f1bd
00000250: f39f e33d d473 093d 093d 16be 9200 17bd
00000260: f213 c53d 0ba9 20be 40a1 05bd 1219 debc
00000270: 697e 953d 4928 ff3d dcd7 273d e205 cc3c
00000280: 8eaa 6c3d c180 34bd 213b bdbd 10b7 223e
00000290: 61e6 a4bd c26f f5bc 072d febc 195d c33d
000002a0: 983e babd 82ca 90be e042 6c3c cc42 de3b
000002b0: 9e97 993d 08fb fcbd 2898 d33d 4ce2 953d
000002c0: f67a 46be 867b 08be 3126 663d aafa 63be
000002d0: 5ecf b7bd cee4 7cbe c04f 1c3e e936 1ebd
000002e0: fe2e 71bd b15d 75bd eb94 13bd 51b8 f83c
000002f0: 0e41 46be 0464 6b3b 15df 4bbe 77f5 3c3e
00000300: 60ff 21be aa9c 123e 2279 0c3e 1a5c df3d
00000310: 3ec2 a9bd 84f8 3a3c e76b ab3c 1715 7f3d
00000320: ef3f 3e3d daf4 e7bd 23da 8e3d 329d 043d
00000330: 499f 5cbc f67c 873c 4daa 09be c094 a73d
00000340: e35e d23d 8df0 debd 3951 083e b865 b33d
00000350: 8ff8 2d3c dc02 8d3d dc05 75be d532 0bbe
00000360: 40fb 3f3e edc3 b03d d583 683c ea35 c13d
00000370: 3c1a c93d e3f0 613e 3618 86bd a604 8f3e
00000380: 582e b93d 0b99 11bd 68ae bf3d 1670 283e
00000390: f252 82bd 0927 4b3e 63f0 8b3c 74c6 a0be
000003a0: 79be b93d 6186 ef3c 7f3d 5a3e 27a7 1b3e
000003b0: 88c6 e2bd ae55 2fbe e035 7c3e b919 50be
000003c0: f73e 8cbb b47b 923e c7e8 8a3d c614 b83d
000003d0: e654 833c 7c04 9ebd 9908 b43b 9116 97be
000003e0: e328 0dbd 5690 a03d a362 ecbd 1c4a 8cbd
000003f0: 25d7 97bc bf25 a3bc 482f 5dbc 3538 97bd
-0.086350404 -0.079199396 0.03424683 -0.048081886 0.08844664 0.1408344 -0.04168758 0.09841051
-0.01688042 0.13989997 0.005554869 -0.046918552 0.05208226 0.049580183 0.051590633 -0.06959366
0.10369001 0.008523087 0.043879397 0.17285992 -0.14599377 -0.14271013 0.22004183 -0.15676156
0.09445666 0.030676588 0.101453364 -0.04665386 -0.15427129 0.159457 -0.019064665 0.08939699
-0.13767259 -0.043374397 -0.0893888 -0.07268558 -0.20927909 -0.15011466 -0.08431958 -0.21141306
0.028914165 -0.06359036 -0.12407955 -0.2673854 0.036249246 0.07191155 0.042448733 0.07744363
0.11882224 0.025466992 -0.052067954 -0.08397465 0.06302283 -0.108847156 -0.13064049 -0.16556258
0.06821991 -0.008552541 0.020111209 -0.030924395 0.22322574 -0.020546995 -0.053537007 -0.16412392
-0.009135215 -0.11494438 0.08095707 0.052200638 -0.043190055 -0.021731127 -0.12673448 0.01765147
0.13225947 -0.0011532949 -0.016527781 0.19162372 -0.107261725 -0.050688356 -0.2241891 -0.053897653
0.08911829 -0.023710772 0.14647168 0.03724338 -0.22652279 0.15038356 -0.112184666 -0.011117435
0.2027229 0.08612773 -0.04643059 0.10696467 -0.085390925 -0.024300301 -0.020784386 -0.16450986
-0.05957269 0.17188337 -0.04880602 0.09312893 0.10042066 0.0394753 0.23104382 0.107567824
0.19218759 0.046361998 -0.10587836 -0.22822441 0.04997894 0.12206935 -0.051671386 0.1479799
0.11507826 -0.019160407 -0.053798877 -0.1480464 0.064827226 -0.09722091 -0.18668887 -0.048694428
0.043875962 0.11049793 -0.0032108938 -0.024492769 0.030921299 0.049464274 -0.12916644 0.08397008
0.021529557 -0.0066640684 -0.19368654 -0.020904459 -0.11391929 -0.19877718 -0.12883988 -0.040668633
-0.031699657 -0.14368877 -0.16787237 -0.044358846 0.1865346 -0.082725435 0.08615855 -0.12349066
0.055479683 0.026845971 0.009686607 -0.11779755 0.11114492 0.033557728 -0.1467172 -0.03686578
0.09622945 -0.15689485 -0.032624483 -0.027111564 0.072995014 0.12458856 0.040977344 0.024905149
0.05777984 -0.0440681 -0.092397936 0.15890145 -0.08051754 -0.029960517 -0.03102733 0.09539241
-0.0909397 -0.282795 0.014420241 0.006782865 0.07499622 -0.12352568 0.10331756 0.07318553
-0.19382843 -0.1332837 0.056188766 -0.2226359 -0.08975099 -0.24696657 0.15264797 -0.038626585
-0.058882706 -0.059903804 -0.03603069 0.030361326 -0.19360754 0.0035917768 -0.19909318 0.18453012
-0.15820074 0.14317575 0.13718084 0.10906239 -0.08289002 0.01141179 0.020925475 0.062275972
0.04644769 -0.113259986 0.069752 0.032376476 -0.013465711 0.016539078 -0.13443871 0.08182669
0.102720045 -0.10885725 0.13312234 0.08759636 0.010618343 0.06885311 -0.23928016 -0.1359361
0.18748188 0.0863112 0.014191587 0.094341114 0.09819457 0.22064547 -0.065475866 0.27933234
0.090420425 -0.035546344 0.09359437 0.16449007 -0.06363477 0.1983911 0.017082399 -0.31401408
0.09069533 0.029238882 0.21312521 0.15200482 -0.11073023 -0.17122528 0.24629927 -0.20322312
-0.004279967 0.28610003 0.0678268 0.08988337 0.016031694 -0.07715699 0.005494189 -0.29509404
-0.03446282 0.0784003 -0.11542251 -0.06850073 -0.018535206 -0.01991546 -0.013500042 -0.073837675

network_body._body_endoder.seq_layers.2.bias f4 [128]
00000000: d181 c23b bb90 07bb 294d b4bb 0885 1bbc
00000010: 9e5b 813c 1213 50bb 2aad 493a 8b86 663c
00000020: c471 923b db6f 75ba 5642 493c a49e 97bb
00000030: aa3c 1abb 5593 a7bb 4838 c8bb a60b 83bb
00000040: 0673 5f3c 0259 08bc d193 0cbc 4892 aebb
00000050: 358a 563c 959c 683c f4ba 00bc f1e1 e23b
00000060: d019 8c3b 2b95 fcbb c349 f63a b13c b13a
00000070: 532e 4d3c a5ca 07bc 7d06 dbbb 59f3 9d3c
00000080: 056e aebb a843 5bba a996 05ba c7d3 663c
00000090: c7a0 d0bb 9841 763c dbc2 173c 2dee 603c
000000a0: 1b23 4e3c 407f c23a d20d 753c 0206 6e3c
000000b0: 1524 233c be90 233c 0551 453c 311f 84bb
000000c0: 00be 6a3c ea37 5c3c 0ff9 bf3b 731c 383c
000000d0: 3868 703c 26ae 583c d021 8b3b a798 2cbc
000000e0: 5dc7 1c3c c077 c8ba 8806 583c 03a3 513c
000000f0: a29a 21bc 1134 763c 7a01 1fbc 5e3b 92bb
00000100: c2b2 393c 7bd9 f03b 41d1 4a3b 8dd6 433c
00000110: 0ba3 6f3c 605f 7d3c 1ae4 0eba 5861 d4bb
00000120: 5eb7 be3b b7eb d8bb 39e3 403b 43b4 7cbb
00000130: 11b7 5d3c e973 3f3c bdb0 973b 43b2 0bbb
00000140: 8da9 b53c f683 593c 7862 593c ec58 ca3b
00000150: 3971 2c3c c794 d4bb 875c c2bb 99b6 313c
00000160: 4284 acbb be24 ffbb 366a 13bc 9132 19ba
00000170: 092f dcbb c1f6 4c3c 32cd 933c 49f7 023c
00000180: 7bef c13a ca55 5fbb 61c4 9c39 7ef3 b23c
00000190: 7786 0ebc 1f37 90bb fb3c 2e3c 1603 4bba
000001a0: e021 363c 3fed 7a3b a838 933a f216 dfbb
000001b0: 606c a1bb b3b6 c33b bed3 64b9 a34a a73c
000001c0: b9f3 183c 72eb 43bc a5ec 0cbb 5e0f 30bc
000001d0: dc22 123c 0768 f1bb ac96 35bc bda9 693c
000001e0: 0655 5a3c f1c1 633c 61bd 8a3c ad59 28ba
000001f0: e8c9 eb3a 0736 d43b 99da 563c 2f99 5e3c
0.0059358855 -0.0020685631 -0.0055023623 -0.009492166 0.015790757 -0.0031749648 0.0007693345 0.0140701635
0.0044691283 -0.0009362676 0.012283882 -0.0046270657 -0.0023534694 -0.005113999 -0.006110225 -0.0039991913
0.013638264 -0.008322002 -0.008580164 -0.0053274967 0.013094475 0.014197488 -0.007857073 0.006923907
0.004275538 -0.007708212 0.0018790293 0.0013522116 0.012523252 -0.00828806 -0.006684123 0.019281076
-0.005323174 -0.00083642686 -0.00050959975 0.014088578 -0.0063668224 0.015030287 0.009262766 0.0137286605
0.012581612 0.0014838949 0.014956908 0.0145278 0.009957333 0.00998324 0.012043242 -0.0040320386
0.014327526 0.013441065 0.0058585475 0.011237252 0.014673285 0.013225114 0.004245974 -0.010534442
0.009569016 -0.0015294477 0.013185151 0.012795213 -0.0098635275 0.015027062 -0.009704942 -0.0044626435
0.011334123 0.0073501444 0.003094748 0.011953008 0.014626275 0.015464634 -0.000545086 -0.006481331
0.005820199 -0.0066198963 0.002943231 -0.0038559593 0.013532416 0.01168535 0.004629223 -0.002131597
0.022175575 0.013276091 0.013268106 0.006175151 0.010525041 -0.006487462 -0.0059314403 0.010846757
-0.00526479 -0.0077863624 -0.008997491 -0.0005844022 -0.006719474 0.012510003 0.01804218 0.007993528
0.0014796102 -0.0034078234 0.00029900952 0.021844622 -0.008699051 -0.004401102 0.010634656 -0.0007744295
0.011116475 0.0038288382 0.0011232095 -0.006808155 -0.0049262494 0.005972707 -0.00021822655 0.020421332
0.009335452 -0.01195799 -0.0021503356 -0.010745851 0.008919444 -0.0073671374 -0.011083286 0.01426166
0.013325935 0.01390122 0.016936006 -0.0006422054 0.001798925 0.006476167 0.013113641 0.0135863265

network_body._body_endoder.seq_layers.2.weight f4 [128, 128]
00000000: 717e f0bd afca f8bd 1252 2abd 25b6 4dbd
00000010: 924e afbc 0994 2fbd 4bca 7bbc b7a6 393d
00000020: 0c35 86bc b611 1b3e 33f6 edbd efc1 c2bd
00000030: f7c1 85bd f7d9 0f3d ce86 48be b2ad 6abd
00000040: f9ad da3c b383 773d 9ae6 713e 5f6b b0bd
00000050: 229e 8ebc df39 f9bc dcbb 9a3d f037 aebd
00000060: 5bdf 9abd c8f3 0cbc 4bd3 44bd 12e3 b03d
00000070: ac6d 27bd 31d7 86bd ce33 37be ff04 843e
00000080: 29df aa3d dde1 74bc f238 49bc 028a 213e
00000090: 570a a5bd 5ef2 2b3a 4699 ef3d e9ff 76bd
000000a0: 7dce 8a3d 4e23 9abd d47a 8abd ae90 39bc
000000b0: 903f cebd 6a07 51bd d06a 72bc 8b6b 103d
000000c0: 7c49 213e 0642 bf3d eee7 8fbd cba5 333d
000000d0: 825b e73d 9959 9cbb fe98 debc f26a e13c
000000e0: a1ca 373e 5747 763d 340c 8b3b 75a0 0b3e
000000f0: e311 79bc d0bf b1bc a9f0 853e 308f ff3d
00000100: 16c6 5dbc 518e d33d d332 eebd 2bb9 333d
00000110: 6935 1cba c0d2 113e 3e92 32bd 7bc4 c93d
00000120: aa26 733d 79a2 cdbd 649c 913d c9b5 663b
00000130: 1edd 1a3e 0ac2 51bd 3dfa b0bc 3916 913d
00000140: bdb2 1c3e 3f4c 9ebd dc88 ae3d d2ee ebbd
00000150: 46f3 223e 25d4 58bd 253d 893d 1481 86bd
00000160: 7369 0bbe bdf5 913d adfb 13bd 56eb 573d
00000170: 95a5 bcbd be75 e53d de47 f139 6815 203d
00000180: 0c2d 5bbb 1055 51ba 7ecc db3c 7849 f9bd
00000190: 6d3c 48bc 91f1 e63d b045 1cbd 0cf6 713d
000001a0: 4d5b 383d 3239 623d bd6d 13bb 7db3 80bd
000001b0: 4386 46be 155e 08bd d99c ae3d e0b0 8cbd
000001c0: 7d78 b6bd 5ec4 3e3e cb90 62bd 0d22 883c
000001d0: 2fa2 e63d 8932 ccbd 1b46 5b3d e266 2e3d
000001e0: 1a65 553d e4b2 3ebd 70a2 b63d 0404 a5bc
000001f0: 7573 403e 5fe5 11bd b191 143e 494e 153d
00000200: dc34 f33c e203 fc3d 77c7 833d 87ba f7bb
00000210: f874 ccbc ddea ed3d da4e 93bd 40bf 64bd
00000220: 6623 19bd 97b4 b73c 6ffd 9a3d 0442 ce3d
00000230: fb5e b03b 8ada 0a3e 45d9 763b 8747 a6bc
00000240: c8ca 2c3d 504a 733d d960 1dbc 5c58 f8bb
00000250: cb16 373d c8a0 c7bc 1c76 0b3d 2ece b43b
00000260: a7f4 6fbd 2aca 11be 3ade 583c e0b6 083e
00000270: 4881 b13c 40d1 3bbd 1d00 f73c f835 a43c
00000280: 203b a73c 4bcc b9bc c600 033d 9d08 a43d
00000290: 32a1 d0ba dc92 1c3e a952 4dbd 8743 1f3e
000002a0: c429 663d d7b9 f2bd b1d8 6e3b 4c6d b43c
000002b0: 36f8 88bd c8d9 a23d 7dde 34bd d7ff a83c
000002c0: 634d 9a3d 41b0 7cbd d9d2 2b3c 587a a13a
000002d0: 756c 20bc 4f44 5c3d 9932 2c3d bb69 debd
000002e0: 3c6a 123e c95b 013e cbd9 3cbe cdce 3d3b
000002f0: 73a0 94bd 73e5 a2ba 47ef a63d 6e61 ef3d
00000300: 67bd 2cbe 4e5e e7bc b404 55bd 3a28 51be
00000310: b5bb e2bb 75ee e33d 7fd1 87bd 5f65 1dbd
00000320: c0e3 883c 5cd4 3d3d 258a c83d 8bd1 00be
00000330: d2ab 5abe 3a2a ab3c d140 b43d e84b 753c
00000340: a1bc 843c 100e c5bd 0570 ee3d 9543 c83d
00000350: de97 c0bb c773 c6bd 1cde 613d f6e2 203e
00000360: 83ac 43bd 585e febd aa78 623d d077 a73d
00000370: 16d8 92bd 652a 083d cba9 0bbe 0e9d 33bb
00000380: ae8d a53d bb52 cebd 4019 b5bd ae39 4cbc
00000390: 3d96 f03d 38e0 623e b379 0a3e 0649 ce3d
000003a0: 1e17 9abc 58fd 5f3d 7094 f8bd 62cd 24be
000003b0: 3900 8cbd c5b9 dc3c 7a5f 493d a20f 9cba
000003c0: 8f36 0439 b2b8 2e3d 8b34 923d 2d13 e9bd
000003d0: e052 9bbd 4e44 113d 1d13 c4bd 1ab1 e7bd
000003e0: aa0a 15bd 2d0e 5bbd 107d eb3d 84e9 ce3c
000003f0: 734f 553e ddca 08bd 351b c6bd fcf9 f4bb
-0.11742867 -0.12148034 -0.041582175 -0.050222535 -0.02139977 -0.042865787 -0.015368055 0.045325007
-0.016382717 0.15143475 -0.116192244 -0.09509646 -0.065311365 0.035119977 -0.19582674 -0.057294555
0.026694285 0.060428333 0.23623124 -0.086142294 -0.017409388 -0.030423103 0.075553626 -0.08506763
-0.07562133 -0.008603044 -0.048053067 0.0863706 -0.040876076 -0.06584013 -0.17890856 0.25785062
0.08343346 -0.014946428 -0.012281643 0.15775302 -0.08058613 0.0006559248 0.116991565 -0.06030265
0.06777666 -0.07526265 -0.06761709 -0.011325998 -0.10070717 -0.05103246 -0.014795974 0.03525881
0.15750688 0.09338765 -0.07026659 0.043859284 0.112967506 -0.004771423 -0.027172562 0.027516816
0.1794839 0.06012663 0.004243398 0.13635428 -0.015202018 -0.021697909 0.26160172 0.12478483
-0.013535997 0.10329879 -0.11630788 0.04387776 -0.00059588865 0.14240551 -0.0435965 0.09851929
0.059363045 -0.10040755 0.07109907 0.0035203567 0.15123412 -0.05121044 -0.021603698 0.07084317
0.15302558 -0.077293865 0.085221976 -0.11520161 0.15913114 -0.05293669 0.067011155 -0.065675884
-0.13614444 0.07126949 -0.03612869 0.05271467 -0.0921127 0.11204098 0.00046020647 0.039082915
-0.0033443598 -0.00079853926 0.026830908 -0.12172216 -0.012221438 0.11276544 -0.038152397 0.05907254
0.045008946 0.055230327 -0.002249583 -0.06284235 -0.19387154 -0.03329285 0.0852601 -0.06869674
-0.089097 0.18629596 -0.055313867 0.0166178 0.11261403 -0.09970576 0.053533655 0.042578585
0.05209837 -0.046557322 0.08917701 -0.020143516 0.18794043 -0.035619136 0.14508702 0.03645161
0.029688291 0.12305428 0.06434529 -0.0075600776 -0.024958119 0.11617062 -0.07192774 -0.055846453
-0.037387274 0.02242498 0.0756787 0.10071185 0.0053824163 0.13559929 0.0037666124 -0.020297779
0.042185575 0.05939704 -0.00960561 -0.0075788926 0.04469947 -0.024368659 0.034048185 0.0055177426
-0.058582928 -0.14237276 0.013236577 0.13351011 0.021668091 -0.045853853 0.030151421 0.020045266
0.020413935 -0.022680422 0.03198316 0.08009455 -0.001591718 0.15290397 -0.05012766 0.15553103
0.056192175 -0.118518524 0.0036445076 0.022024773 -0.066879675 0.07951695 -0.044157494 0.020629806
0.075342916 -0.061691526 0.010487282 0.0012319786 -0.009791483 0.05377608 0.04204044 -0.1086001
0.14298338 0.1263267 -0.18442456 0.0028962374 -0.07257166 -0.0012428 0.08151107 0.11688505
-0.16869126 -0.02824321 -0.05200644 -0.20425501 -0.006919349 0.111294664 -0.06631755 -0.038426753
0.016710162 0.0463451 0.09791974 -0.12579934 -0.21354607 0.020894159 0.08801425 0.014971711
0.016203227 -0.09621823 0.1164246 0.09778515 -0.005877479 -0.096900515 0.05514346 0.15711579
-0.047771942 -0.124203384 0.055290855 0.08177149 -0.07170121 0.033243556 -0.1363899 -0.0027406844
0.08083664 -0.10074373 -0.08842707 -0.012464924 0.11747406 0.22155845 0.13522987 0.10072522
-0.018809851 0.054684967 -0.12137687 -0.16093972 -0.0683598 0.02694405 0.04916332 -0.0011906514
0.00012608826 0.042656608 0.07138928 -0.113806106 -0.075841665 0.03546553 -0.09573958 -0.11313076
-0.036387123 -0.053480316 0.11498463 0.025257833 0.20831089 -0.03339659 -0.09673158 -0.0074760895
