Results/test3/Doughnut/checkpoint.pt (torch, 260103 bytes, 11 tensors)

network_body._body_endoder.seq_layers.0.weight f4 [128, 114]
0	0x3dad612c	0.084658
1	0x3d438b15	0.04774006
2	0xbd29cbd6	-0.04145416
3	0x3df08057	0.11743229
4	0x3e0180c7	0.12646781
5	0xbc39da32	-0.011343526
6	0x3e089cb7	0.13341032
7	0xbd91220a	-0.070865706
8	0x3d6248a8	0.05524507
9	0xbdf41711	-0.11918462
10	0x3d44941f	0.04799282
11	0x3d2c0539	0.04199717
12	0xbdc8ac7a	-0.09798522
13	0x3b165eb6	0.0022944636
14	0xbd6949de	-0.05695521
15	0xbcc8e1e5	-0.024521777
16	0x3c1b3da7	0.009475148
17	0x3e507f74	0.2036112
18	0x3db67111	0.089082845
19	0x3d72ac51	0.059246365
20	0xbc20441d	-0.0097818645
21	0x3d699566	0.057027243
22	0xbd2d87ab	-0.04236571
23	0x3d99bfd0	0.075072885
24	0x3e0e77f0	0.1391294
25	0xbd2eb19a	-0.042649843
26	0x3ddf4f11	0.109037526
27	0xbdeeb144	-0.116549045
28	0xbd6629cc	-0.056192204
29	0xba7c6274	-0.0009627708
30	0x3cef998d	0.029248023
31	0x3e00164e	0.12508509
32	0xbdee33e3	-0.1163099
33	0xbe4cb47b	-0.19990723
34	0x3e222f08	0.15838253
35	0x3dad584a	0.084641054
36	0x3cc745a1	0.024325194
37	0x3d25df52	0.040496178
38	0xbd8cf4d8	-0.06882638
39	0x3e2af20f	0.166939
40	0x3c82d560	0.015970886
41	0x3da01a04	0.07817462
42	0x3d763be4	0.06011571
43	0xbcf3e07c	-0.029770128
44	0x3d01d2e3	0.031695258
45	0x3e2390f8	0.1597327
46	0x391a478e	0.0001471324
47	0xbe0d26e4	-0.13784367
48	0x3d54375d	0.05181061
49	0xbe14368d	-0.14473934
50	0x3d09b2e9	0.033617888
51	0xbda1ccad	-0.07900367
52	0xbbaf88b9	-0.005356875
53	0xbca18ea5	-0.019721339
54	0x3e414879	0.18875302
55	0x3cd36a2e	0.025807466
56	0xbdccafd7	-0.09994476
57	0x3c368a9a	0.011141444
58	0xbd5c7670	-0.05382389
59	0x3df08d53	0.117457055
60	0x3cdbf073	0.026848054
61	0xbe264332	-0.1623657
62	0x3d983b8e	0.07433234
63	0x3ce9c46c	0.028536044
64	0xbe5b9d03	-0.21446614
65	0x3cc56fb4	0.024101116
66	0x3e071350	0.13190961
67	0xbe067fe6	-0.13134727
68	0xbcf6dbc1	-0.030134084
69	0x3c0e1009	0.008670815
70	0xbdca92f3	-0.098913096
71	0xbd9aa160	-0.07550311
72	0xbd726d22	-0.05918611
73	0x3c02eb5c	0.007990684
74	0xbe335527	-0.17512952
75	0xbcd80d38	-0.02637349
76	0x3e1bc7e0	0.15212965
77	0xbc2b533a	-0.0104568545
78	0xbe010c6e	-0.12602398
79	0x3e08d53a	0.1336259
80	0x3b788b6a	0.0037924894
81	0x3d8f13cb	0.06986197
82	0xbcc7c91e	-0.024387892
83	0x3cf73b55	0.030179659
84	0x3d04dfca	0.032439984
85	0xbe31f0b6	-0.1737698
86	0xbdff6801	-0.12471009
87	0x3b84ee74	0.004056746
88	0x3e010460	0.12599325
89	0x3d3b41ab	0.045716923
90	0xbdb593b2	-0.08866061
91	0x3cd4ddcd	0.02598467
92	0xbd2e1ede	-0.042509906
93	0x3e061470	0.13093734
94	0x3cd0cde4	0.025488801
95	0x3de13689	0.1099673
96	0xbcf893c6	-0.030343901
97	0x3d08fb7b	0.033442955
98	0x3e10263c	0.14077085
99	0xbd825763	-0.06364324
100	0xbd67bb9f	-0.056575414
101	0x3e1b4a57	0.15165077
102	0xbc9c9ec5	-0.019118676
103	0xbe7a9b92	-0.24473408
104	0x3c31d2ab	0.01085345
105	0xbdfb1e6e	-0.122616634
106	0xbc1a39d5	-0.009413202
107	0xbe002ca7	-0.12517034
108	0x3e1eb9f9	0.1550063
109	0xba355e08	-0.0006918614
110	0xbe5ebcd9	-0.21751727
111	0xbd2babea	-0.041911997
112	0x3e028eb5	0.12749751
113	0x3d38d468	0.04512444
114	0xbe076d25	-0.13225229
115	0x3c1db623	0.009625944
116	0x3de4d6de	0.11173795
117	0x3d841748	0.06449753
118	0x3dc3ac30	0.095543265
119	0x3e1cb2d2	0.1530259
120	0x3dc23394	0.09482494
121	0x3c8ec124	0.017426081
122	0x3dc88748	0.09791428
123	0xbdef30f8	-0.11679262
124	0xbc835c88	-0.016035333
125	0x3d919e46	0.071102664
126	0xbd9b6f19	-0.075895496
127	0x3c8b604b	0.01701369
128	0xbc0863dc	-0.00832459
129	0xbc27ea43	-0.010248723
130	0xbd84d845	-0.06486563
131	0xbc08f644	-0.008359496
132	0xbe1a79de	-0.15085551
133	0xbd784e62	-0.060621627
134	0xbe49637a	-0.19666854
135	0xbdecb18d	-0.115573026
136	0xbd4a26da	-0.049353458
137	0xbd1980f0	-0.03747648
138	0xbe20cf8a	-0.1570417
139	0x3db45733	0.088056944
140	0xbd8ac2a1	-0.06775404
141	0x3cbe5d38	0.02323781
142	0x3c74e58a	0.0149473045
143	0xbd9c6a55	-0.07637469
144	0xbd818104	-0.06323436
145	0xbd2aca3b	-0.04169677
146	0xbddcfaa5	-0.10789994
147	0xbe0787f3	-0.13235454
148	0x3d202b0f	0.039103564
149	0x3cc423fa	0.023942936
150	0xbc813ec9	-0.015777009
151	0x3bdc8a6c	0.0067303684
152	0x3d7909d9	0.060800407
153	0xbc82a9fd	-0.015950197
154	0x3ce4c104	0.027924068
155	0x3dc0c0ff	0.09411811
156	0x3bc06f02	0.005872608
157	0x3d650ae2	0.05591858
158	0xbd32813a	-0.04358027
159	0xbdb4346d	-0.08799062
160	0x3e4fd358	0.20295465
161	0x3da635d0	0.08115733
162	0x3e268227	0.16260587
163	0xbe08ffaf	-0.13378786
164	0x3cbe79a9	0.023251371
165	0x3d5e504b	0.054275792
166	0x3daed2f2	0.085363284
167	0x3c9df6c3	0.019282704
168	0xbd96666e	-0.07343756
169	0xbd1a0089	-0.037598167
170	0xbd8b35da	-0.06797381
171	0x3dc47ad0	0.09593737
172	0xbd34c3ed	-0.044132162
173	0x3dc638ec	0.09678826
174	0x3d9763cc	0.073920816
175	0xbe410a77	-0.18851648
176	0xbe125ead	-0.14293928
177	0xbadb34b1	-0.0016724077
178	0x3e216fc5	0.15765293
179	0xbe432e13	-0.19060545
180	0x3c3bb541	0.0114567885
181	0x3df45c45	0.119316615
182	0xbe52e38f	-0.20594619
183	0xbd5f8ed0	-0.054579556
184	0x3db69181	0.089144714
185	0x3d635fd5	0.055511314
186	0xbd8253ec	-0.06363663
187	0x3d86fa9c	0.06590769
188	0xbdc2b748	-0.095076144
189	0xbd9d24a9	-0.07673008
190	0xbb35e71f	-0.0027756167
191	0x3d45c179	0.048280213
192	0xbe2ee943	-0.1708117
193	0x3def9c3c	0.11699721
194	0xbddc120b	-0.10745629
195	0xbd09b90e	-0.033623748
196	0xbd748126	-0.059693478
197	0xbd5ff41f	-0.05467617
198	0x3e09a743	0.13442712
199	0xbddf5b0b	-0.10906037
200	0xbd2f7cdf	-0.042843696
201	0xbd14bed8	-0.036314815
202	0xbe57305b	-0.2101454
203	0x3d537d5d	0.051633228
204	0xbe90d125	-0.28284565
205	0xbd93cd54	-0.072168976
206	0xbd53f9ec	-0.051752016
207	0x3d7feabd	0.062479723
208	0x3cced7d0	0.025249392
209	0x3df1758a	0.11789997
210	0x3de932df	0.11386656
211	0x3da4f6a2	0.08054854
212	0xbd4efd18	-0.050534338
213	0x3d8f81ea	0.07007201
214	0xbba20436	-0.0049443496
215	0xbcff6f00	-0.031180859
216	0xbd17f24d	-0.03709631
217	0xbdf87153	-0.1213099
218	0x3d9ff139	0.078096814
219	0xbccd39fe	-0.025052067
220	0xbe0e71e6	-0.13910636
221	0xbd9caa1a	-0.07649632
222	0x3c69c160	0.014267296
223	0x3d3589ff	0.044321056
224	0xbd84d9a0	-0.06486821
225	0xbd288f05	-0.04115202
226	0x3da8b0a9	0.0823682
227	0x3e23ada2	0.15984204
228	0xbd403ed8	-0.046934932
229	0x3c1cc22d	0.0095677795
230	0xbe05db63	-0.1307197
231	0xbd4b59a7	-0.049646046
232	0x3d577753	0.05260403
233	0x3d14d147	0.036332395
234	0x3c264519	0.01014831
235	0xbdddf5d5	-0.10837904
236	0x3de92e07	0.11385732
237	0xbddd9fea	-0.10821517
238	0xbd52765a	-0.0513824
239	0x3cd7eb73	0.026357388
240	0x3e2d91ec	0.16950196
241	0xbd0a5748	-0.033774644
242	0xbde116ab	-0.10990652
243	0xbdf5ac5a	-0.11995764
244	0xbc1e71d7	-0.009670696
245	0xbd0ec38c	-0.034854457
246	0x3e39bcbc	0.18138403
247	0xbd589dcd	-0.052884866
248	0x3d1db8e6	0.03850641
249	0x3d68f770	0.0568766
250	0xbd854917	-0.065080814
251	0x3e1ed010	0.15509057
252	0xbd8c978f	-0.06864845
253	0xbe35401d	-0.17700239
254	0x3e5ec215	0.21753724
255	0xbd0c2a6b	-0.03422014

network_body._body_endoder.seq_layers.0.bias f4 [128]
0	0x00000000	0.0
1	0x00000000	0.0
2	0x00000000	0.0
3	0x00000000	0.0
4	0x00000000	0.0
5	0x00000000	0.0
6	0x00000000	0.0
7	0x00000000	0.0
8	0x00000000	0.0
9	0x00000000	0.0
10	0x00000000	0.0
11	0x00000000	0.0
12	0x00000000	0.0
13	0x00000000	0.0
14	0x00000000	0.0
15	0x00000000	0.0
16	0x00000000	0.0
17	0x00000000	0.0
18	0x00000000	0.0
19	0x00000000	0.0
20	0x00000000	0.0
21	0x00000000	0.0
22	0x00000000	0.0
23	0x00000000	0.0
24	0x00000000	0.0
25	0x00000000	0.0
26	0x00000000	0.0
27	0x00000000	0.0
28	0x00000000	0.0
29	0x00000000	0.0
30	0x00000000	0.0
31	0x00000000	0.0
32	0x00000000	0.0
33	0x00000000	0.0
34	0x00000000	0.0
35	0x00000000	0.0
36	0x00000000	0.0
37	0x00000000	0.0
38	0x00000000	0.0
39	0x00000000	0.0
40	0x00000000	0.0
41	0x00000000	0.0
42	0x00000000	0.0
43	0x00000000	0.0
44	0x00000000	0.0
45	0x00000000	0.0
46	0x00000000	0.0
47	0x00000000	0.0
48	0x00000000	0.0
49	0x00000000	0.0
50	0x00000000	0.0
51	0x00000000	0.0
52	0x00000000	0.0
53	0x00000000	0.0
54	0x00000000	0.0
55	0x00000000	0.0
56	0x00000000	0.0
57	0x00000000	0.0
58	0x00000000	0.0
59	0x00000000	0.0
60	0x00000000	0.0
61	0x00000000	0.0
62	0x00000000	0.0
63	0x00000000	0.0
64	0x00000000	0.0
65	0x00000000	0.0
66	0x00000000	0.0
67	0x00000000	0.0
68	0x00000000	0.0
69	0x00000000	0.0
70	0x00000000	0.0
71	0x00000000	0.0
72	0x00000000	0.0
73	0x00000000	0.0
74	0x00000000	0.0
75	0x00000000	0.0
76	0x00000000	0.0
77	0x00000000	0.0
78	0x00000000	0.0
79	0x00000000	0.0
80	0x00000000	0.0
81	0x00000000	0.0
82	0x00000000	0.0
83	0x00000000	0.0
84	0x00000000	0.0
85	0x00000000	0.0
86	0x00000000	0.0
87	0x00000000	0.0
88	0x00000000	0.0
89	0x00000000	0.0
90	0x00000000	0.0
91	0x00000000	0.0
92	0x00000000	0.0
93	0x00000000	0.0
94	0x00000000	0.0
95	0x00000000	0.0
96	0x00000000	0.0
97	0x00000000	0.0
98	0x00000000	0.0
99	0x00000000	0.0
100	0x00000000	0.0
101	0x00000000	0.0
102	0x00000000	0.0
103	0x00000000	0.0
104	0x00000000	0.0
105	0x00000000	0.0
106	0x00000000	0.0
107	0x00000000	0.0
108	0x00000000	0.0
109	0x00000000	0.0
110	0x00000000	0.0
111	0x00000000	0.0
112	0x00000000	0.0
113	0x00000000	0.0
114	0x00000000	0.0
115	0x00000000	0.0
116	0x00000000	0.0
117	0x00000000	0.0
118	0x00000000	0.0
119	0x00000000	0.0
120	0x00000000	0.0
121	0x00000000	0.0
122	0x00000000	0.0
123	0x00000000	0.0
124	0x00000000	0.0
125	0x00000000	0.0
126	0x00000000	0.0
127	0x00000000	0.0

network_body._body_endoder.seq_layers.2.weight f4 [128, 128]
0	0x3d276ffa	0.040878274
1	0x3e125801	0.14291383
2	0xbd48ca7f	-0.04902124
3	0x3da9310d	0.08261309
4	0x3d424529	0.047429238
5	0xbde01cc2	-0.10942985
6	0x3d82603c	0.063660115
7	0xbd20bd5c	-0.039243087
8	0xbe3ca6eb	-0.18423049
9	0xbe2dab41	-0.1695986
10	0xbd730896	-0.05933436
11	0xbcdb7220	-0.026787817
12	0x3dad18db	0.084520064
13	0xbd6facbe	-0.05851435
14	0x3dfa738b	0.12229069
15	0xbcc33bc9	-0.023832219
16	0x3d1476b1	0.036246005
17	0x39246f03	0.00015681614
18	0xbd590601	-0.05298424
19	0x3dbdce73	0.09267893
20	0x3e133b39	0.1437806
21	0xbcce70ef	-0.025200335
22	0xbcd433c1	-0.025903584
23	0x3d98deec	0.07464394
24	0xbe01d5b2	-0.12679175
25	0x3ca6b806	0.020351421
26	0xbe58ac2f	-0.21159433
27	0x3e483c01	0.1955414
28	0xbd5abe67	-0.053404238
29	0xbe1503c0	-0.14552212
30	0x3da8fd92	0.0825149
31	0xbc9e14a2	-0.019296948
32	0xbcb845ed	-0.02249428
33	0x3dec1ae2	0.11528565
34	0xbc7321a9	-0.014839568
35	0xbe37f1cb	-0.1796333
36	0x3d8caf99	0.0686943
37	0xbd40f830	-0.04711169
38	0xbd174fa0	-0.03694117
39	0x3c095edc	0.008384433
40	0xbc86e1c9	-0.016465085
41	0xbc99a8ba	-0.018757213
42	0xbd967539	-0.07346577
43	0xbbc49478	-0.005999144
44	0x3dce12ef	0.10062205
45	0xbd929a44	-0.0715833
46	0x3ceac46b	0.028658113
47	0x3dd27cb5	0.10277692
48	0x3c9d7f0e	0.019225623
49	0xbd80b08a	-0.06283672
50	0xbc22f8fd	-0.009947059
51	0xbe1a4e3b	-0.15068905
52	0x3dcf5421	0.10123468
53	0x3dfe1571	0.124064334
54	0x3d915d0d	0.07097826
55	0x3d46873c	0.048468813
56	0xbda2926c	-0.07938084
57	0xbe4ed069	-0.2019669
58	0x3d5841f8	0.052797288
59	0xbc858ff9	-0.016304003
60	0xbdeff2a3	-0.11716201
61	0xbdf6f154	-0.120577484
62	0x3de05ae7	0.10954838
63	0xbcb83041	-0.022483947
64	0xbe3175eb	-0.17330138
65	0xbe863216	-0.26210088
66	0xbdf9bd17	-0.12194269
67	0x3d9c59c0	0.07634306
68	0xb918b0e5	-0.00014561748
69	0x3dbdde30	0.092708945
70	0xbd32c71e	-0.043646924
71	0x3e071b7a	0.13194075
72	0x3e302e98	0.17205274
73	0xbbbf7f42	-0.0058440277
74	0x3c596978	0.013269775
75	0x3e03cc3f	0.12870882
76	0x3d7952f3	0.060870122
77	0x3bc790fd	0.006090282
78	0x3c17d92d	0.009268087
79	0x3deb0cb8	0.11477035
80	0x3e0b5502	0.13606647
81	0xbe03b256	-0.12860999
82	0xbd9fea04	-0.07808307
83	0xbe7a3c2c	-0.24437016
84	0x3dda23ae	0.106513366
85	0x3d1e54cb	0.038655084
86	0x3d3b7686	0.04576733
87	0x3d200cb5	0.03907462
88	0x3d575b25	0.052577157
89	0xbda29e4e	-0.079403505
90	0x3db0e106	0.0863667
91	0x3d127e49	0.035764966
92	0xbcb28fe7	-0.021797134
93	0x3c636ecd	0.013881397
94	0xbdb511dc	-0.08841297
95	0x3da4220e	0.08014308
96	0xbbf36ca2	-0.0074287215
97	0x3dd00509	0.101572104
98	0xbc8896b8	-0.01667343
99	0xbe13e3d7	-0.14442383
100	0xbd96bc2a	-0.07360108
101	0x3d23dc22	0.040004857
102	0x3d3875e8	0.04503432
103	0x3dccb2c0	0.09995031
104	0x3d636d39	0.055524085
105	0xbe19e348	-0.15028107
106	0x3e0a202e	0.13488838
107	0xbe190774	-0.1494425
108	0xbcd73c8d	-0.02627399
109	0xbc163378	-0.009167545
110	0x3d030cf4	0.031994775
111	0xbd332676	-0.04373785
112	0x3d04eadc	0.03245054
113	0x3c5d482d	0.013505978
114	0x3d29f050	0.041488945
115	0xbe3ca195	-0.18421014
116	0xbc1c28b9	-0.009531193
117	0x3dd4ea75	0.10396282
118	0xbd401fd4	-0.046905354
119	0xbdd49c8f	-0.10381424
120	0x3e33f0de	0.17572352
121	0x3d94cbc9	0.072654314
122	0x3e098978	0.13431346
123	0xbd0940ea	-0.033509172
124	0xbd8062bd	-0.06268833
125	0xbe0a0c28	-0.134812
126	0xbd889757	-0.06669491
127	0xbd06971d	-0.032858957
128	0xbce323f7	-0.02772711
129	0x3d95184c	0.07280025
130	0x3d15b74e	0.036551766
131	0xbd2fa3d1	-0.042880837
132	0xbd0359c1	-0.032068018
133	0xbca39559	-0.019968675
134	0x3d04f022	0.03245557
135	0xbe25d0e4	-0.16192967
136	0x3dbf6b40	0.09346628
137	0xbc55e600	-0.013055325
138	0x3d9541b1	0.0728792
139	0xbe09d3b7	-0.13459669
140	0x3d922a9c	0.07137033
141	0x3d93ac31	0.07210577
142	0xbddd8609	-0.10816581
143	0x3dd3f4bd	0.103494145
144	0x3d4fe3d1	0.050754372
145	0xbdb8eebd	-0.09029911
146	0xbdeab432	-0.11460151
147	0x3bc1d39c	0.0059151184
148	0xbdcc266a	-0.099682644
149	0xbd6af676	-0.05736395
150	0xbd88cf83	-0.06680205
151	0xbe4da4a5	-0.20082338
152	0x3ad0f15a	0.0015941069
153	0x3be363b0	0.006939374
154	0xbd72af06	-0.059248947
155	0xbdce71c5	-0.100802936
156	0xbccaacb4	-0.024740554
157	0xbd4bce53	-0.049757313
158	0x3d98b302	0.07456018
159	0x3e3f2fd6	0.18670592
160	0xbd9e15c1	-0.07718993
161	0x3d41c31a	0.047305204
162	0xbd606282	-0.054781444
163	0x3d52f131	0.05149955
164	0x3dadab6f	0.08479964
165	0x3d180107	0.037110355
166	0xbd6e2c03	-0.05814744
167	0x3d566dd2	0.052350827
168	0xbd904442	-0.07044269
169	0x3e353d52	0.17699173
170	0xbe40980f	-0.18808006
171	0x3c432392	0.011910336
172	0x3d7bd507	0.061482456
173	0xbd27a8b4	-0.040932372
174	0xbbcfa38d	-0.0063366354
175	0xbcce001a	-0.025146533
176	0xbe1273ea	-0.1430203
177	0x3b5eaf26	0.0033978908
178	0xbd83cdb7	-0.06435721
179	0xbd02ae84	-0.031904712
180	0xbddb7b36	-0.1071686
181	0xbe462f8a	-0.19354072
182	0xbd6c73f7	-0.05772778
183	0x3d63d08c	0.055618808
184	0xbc2e6126	-0.010643279
185	0xbd861bcd	-0.06548271
186	0x3d0ffff9	0.035156224
187	0xbcff68d6	-0.03117792
188	0xbdbca514	-0.09211174
189	0xbd4ade61	-0.049528483
190	0xbddd3e08	-0.10802847
191	0x3d8ac5e3	0.06776025
192	0xbdedb2c1	-0.1160636
193	0x3d84a1a0	0.0647614
194	0xbd1b78f3	-0.037957143
195	0x3e17a7fe	0.14810178
196	0xbda5b141	-0.08090449
197	0x3dba887c	0.091080636
198	0xbb4f9eca	-0.003168034
199	0x3d74d78f	0.059775885
200	0xbd44aaa7	-0.04801431
201	0xbd22480e	-0.039619498
202	0x3af2417c	0.0018482651
203	0x3d14755f	0.036244746
204	0xbdd951a4	-0.10611275
205	0x3e0eeb28	0.13956892
206	0xbd14bd56	-0.036313377
207	0x3df2ea99	0.11861152
208	0x3d4284d0	0.04748994
209	0x3ca2ff67	0.019897176
210	0xbe230b74	-0.15922338
211	0xbb2f6f8c	-0.0026769368
212	0x3db2050b	0.08692368
213	0xbdb204fa	-0.086923555
214	0x3d2f403d	0.04278587
215	0x3d352dd3	0.044233155
216	0xbc82dd13	-0.015974557
217	0xbde81d07	-0.113336615
218	0x3c12a70c	0.00895096
219	0x3bcc033b	0.006225971
220	0x3cb7daaf	0.022443144
221	0x3da8dacd	0.08244858
222	0xbd059960	-0.032616973
223	0x3e33a665	0.17543943
224	0x3acfb22d	0.0015845947
225	0xbc983a4d	-0.018582487
226	0x3cbc8222	0.02301127
227	0xbd40c7d2	-0.047065563
228	0xbdc8376e	-0.097761974
229	0x3dc4af62	0.09603764
230	0xbdc074b8	-0.09397262
231	0xbd0050ef	-0.031327184
232	0xbb5fd6dc	-0.0034155166
233	0x3d55cc02	0.05219651
234	0xbcbd84db	-0.02313464
235	0xbd2f3b99	-0.042781446
236	0xbda9e61b	-0.08295842
237	0x3d264cf4	0.040600732
238	0xbd4c7c5b	-0.049923282
239	0x3bea0cad	0.0071426244
240	0x3d6a3c4d	0.057186414
241	0x3d17db63	0.037074458
242	0xbd985030	-0.074371696
243	0x3d52179b	0.051292043
244	0xbe3dfc6d	-0.18553324
245	0x3c92ba6c	0.017911159
246	0xbd3e5501	-0.046467785
247	0x3a127f78	0.00055884523
248	0x3d73281d	0.059364427
249	0x3e03133c	0.12800306
250	0x3b407656	0.0029367409
251	0xbcf69054	-0.030098118
252	0x3cb4f254	0.022088207
253	0x3bf798b0	0.0075560436
254	0xbc68a525	-0.01419953
255	0x3d91d081	0.07119847

network_body._body_endoder.seq_layers.2.bias f4 [128]
0	0x00000000	0.0
1	0x00000000	0.0
2	0x00000000	0.0
3	0x00000000	0.0
4	0x00000000	0.0
5	0x00000000	0.0
6	0x00000000	0.0
7	0x00000000	0.0
8	0x00000000	0.0
9	0x00000000	0.0
10	0x00000000	0.0
11	0x00000000	0.0
12	0x00000000	0.0
13	0x00000000	0.0
14	0x00000000	0.0
15	0x00000000	0.0
16	0x00000000	0.0
17	0x00000000	0.0
18	0x00000000	0.0
19	0x00000000	0.0
20	0x00000000	0.0
21	0x00000000	0.0
22	0x00000000	0.0
23	0x00000000	0.0
24	0x00000000	0.0
25	0x00000000	0.0
26	0x00000000	0.0
27	0x00000000	0.0
28	0x00000000	0.0
29	0x00000000	0.0
30	0x00000000	0.0
31	0x00000000	0.0
32	0x00000000	0.0
33	0x00000000	0.0
34	0x00000000	0.0
35	0x00000000	0.0
36	0x00000000	0.0
37	0x00000000	0.0
38	0x00000000	0.0
39	0x00000000	0.0
40	0x00000000	0.0
41	0x00000000	0.0
42	0x00000000	0.0
43	0x00000000	0.0
44	0x00000000	0.0
45	0x00000000	0.0
46	0x00000000	0.0
47	0x00000000	0.0
48	0x00000000	0.0
49	0x00000000	0.0
50	0x00000000	0.0
51	0x00000000	0.0
52	0x00000000	0.0
53	0x00000000	0.0
54	0x00000000	0.0
55	0x00000000	0.0
56	0x00000000	0.0
57	0x00000000	0.0
58	0x00000000	0.0
59	0x00000000	0.0
60	0x00000000	0.0
61	0x00000000	0.0
62	0x00000000	0.0
63	0x00000000	0.0
64	0x00000000	0.0
65	0x00000000	0.0
66	0x00000000	0.0
67	0x00000000	0.0
68	0x00000000	0.0
69	0x00000000	0.0
70	0x00000000	0.0
71	0x00000000	0.0
72	0x00000000	0.0
73	0x00000000	0.0
74	0x00000000	0.0
75	0x00000000	0.0
76	0x00000000	0.0
77	0x00000000	0.0
78	0x00000000	0.0
79	0x00000000	0.0
80	0x00000000	0.0
81	0x00000000	0.0
82	0x00000000	0.0
83	0x00000000	0.0
84	0x00000000	0.0
85	0x00000000	0.0
86	0x00000000	0.0
87	0x00000000	0.0
88	0x00000000	0.0
89	0x00000000	0.0
90	0x00000000	0.0
91	0x00000000	0.0
92	0x00000000	0.0
93	0x00000000	0.0
94	0x00000000	0.0
95	0x00000000	0.0
96	0x00000000	0.0
97	0x00000000	0.0
98	0x00000000	0.0
99	0x00000000	0.0
100	0x00000000	0.0
101	0x00000000	0.0
102	0x00000000	0.0
103	0x00000000	0.0
104	0x00000000	0.0
105	0x00000000	0.0
106	0x00000000	0.0
107	0x00000000	0.0
108	0x00000000	0.0
109	0x00000000	0.0
110	0x00000000	0.0
111	0x00000000	0.0
112	0x00000000	0.0
113	0x00000000	0.0
114	0x00000000	0.0
115	0x00000000	0.0
116	0x00000000	0.0
117	0x00000000	0.0
118	0x00000000	0.0
119	0x00000000	0.0
120	0x00000000	0.0
121	0x00000000	0.0
122	0x00000000	0.0
123	0x00000000	0.0
124	0x00000000	0.0
125	0x00000000	0.0
126	0x00000000	0.0
127	0x00000000	0.0

action_model._discrete_distribution.branches.0.weight f4 [2, 128]
0	0xbbbc7a63	-0.0057518943
1	0x3b89a141	0.004200131
2	0xbb876562	-0.004131959
3	0x3c9f6a63	0.019459909
4	0xbbab3139	-0.0052243737
5	0x3b254b73	0.0025221973
6	0xbba500d1	-0.0050354977
7	0x3af7f46d	0.0018917449
8	0xbaab2328	-0.0013056742
9	0xbb2df100	-0.0026541352
10	0xbc04115e	-0.008060781
11	0x3bb24899	0.005440783
12	0xbc5dd0cb	-0.01353855
13	0x3bc70336	0.006073381
14	0xbad98d43	-0.0016597885
15	0x3c7e4bf5	0.015521039
16	0x3b983e23	0.004646079
17	0x3a6c7f6a	0.0009021672
18	0x3a345697	0.0006879358
19	0x3b1dadbf	0.002405986
20	0xbc0f71cf	-0.008755161
21	0xbc30801d	-0.010772732
22	0xbc3b8e0e	-0.011447443
23	0x3bc2635a	0.005932254
24	0x3b6c98b0	0.003610175
25	0xbc980c32	-0.018560503
26	0xbb206174	-0.002447215
27	0x3c81f61b	0.015864423
28	0xbc94a0f9	-0.018143164
29	0xbb80ffcf	-0.0039367448
30	0x3a187fa9	0.00058173627
31	0xbc976093	-0.018478667
32	0x388ba917	6.659532e-05
33	0x3bd2e1a7	0.0064355913
34	0x3ca13793	0.01967982
35	0x3c0792ff	0.008274793
36	0x3c755ac3	0.014975253
37	0xbc2f6d4a	-0.010707209
38	0x3b8a5aab	0.0042222342
39	0x3bda77db	0.00666712
40	0x3c37a206	0.011208063
41	0xbbd2879f	-0.0064248587
42	0xbc1eb151	-0.00968583
43	0x3afb497b	0.0019171679
44	0xbb2ddd83	-0.0026529736
45	0x38d3e617	0.000101041216
46	0x3c161c50	0.009162024
47	0xbcafb0c3	-0.021446591
48	0x39901bdf	0.00027486586
49	0xbbb4eb3b	-0.0055212057
50	0x3b5628c2	0.0032678102
51	0xbc0c1046	-0.008548802
52	0xbca52243	-0.020157939
53	0xbc71ab75	-0.014750351
54	0x3bd0aa42	0.0063679526
55	0x3c0e0aca	0.0086695645
56	0x3c169deb	0.009192924
57	0x3be529f3	0.006993526
58	0x3ba59728	0.0050534196
59	0x3b9f03b6	0.0048527373
60	0xbc6de8f5	-0.014520873
61	0x3a3fbac2	0.0007313901
62	0xbc68c757	-0.014207683
63	0x3c4f2eed	0.012645465
64	0xbbc67541	-0.006056458
65	0xbb370136	-0.0027924306
66	0x39b55403	0.00034585604
67	0xbb1f5d81	-0.0024317207
68	0x3c4ac59f	0.012376218
69	0xbbb1b00f	-0.005422599
70	0xb9ee344f	-0.0004543387
71	0x3c116ef3	0.00887655
72	0x3b81b387	0.003958169
73	0xba7e76fa	-0.000970706
74	0xbb1fc733	-0.0024380207
75	0x3b6be2cb	0.0035993333
76	0x3c01532b	0.007893364
77	0x3b8ddad3	0.0043290644
78	0x3a706cf7	0.00091715105
79	0x3b1d5ca1	0.002401151
80	0xbb41f6e3	-0.002959662
81	0x3b1d3268	0.0023986343
82	0xbc142712	-0.009042518
83	0x3ba2f461	0.00497298
84	0xbc18f402	-0.00933552
85	0xbb8bb1e3	-0.004263149
86	0x3b891bca	0.004184221
87	0xbbcac163	-0.0061876043
88	0x3c2ffd15	0.010741492
89	0x3b499f7d	0.0030765228
90	0xbb95aea3	-0.0045679375
91	0xbbfecc25	-0.007775801
92	0x399bae41	0.00029693733
93	0x3ba8c3b7	0.005150284
94	0x3c4c7d9b	0.012481119
95	0xbc85db3b	-0.016339889
96	0x3c1930cb	0.009350012
97	0xbc482f9f	-0.012218385
98	0x3c046c4d	0.008082462
99	0x3c19d62b	0.0093894405
100	0x3b83952e	0.0040155863
101	0x3c11c39f	0.008896737
102	0x3abe8dfd	0.0014538165
103	0x3b8bfb38	0.004271891
104	0x3c818fab	0.015815577
105	0xbba7ad9a	-0.0051171305
106	0x3b8b67ca	0.004254316
107	0x3b436c50	0.0029819198
108	0x3c35fe83	0.011108044
109	0xbc890361	-0.016725244
110	0xbc1d6b6b	-0.00960813
111	0xbc05f233	-0.008175421
112	0x3bbcfc97	0.0057674157
113	0x3b8a7164	0.004224943
114	0x3be2875a	0.006913108
115	0x3bf7b632	0.007559561
116	0xbb37065e	-0.002792738
117	0x3b1e1740	0.0024122745
118	0x3c625f65	0.013816689
119	0xbb9ef353	-0.004850784
120	0x3bac73ee	0.0052628433
121	0x3b5deb53	0.0033862188
122	0x3ba07e53	0.0048978715
123	0x39e1408f	0.00042963444
124	0x3c23327f	0.00996077
125	0xbab95930	-0.001414096
126	0xbcad2b6a	-0.021138866
127	0x3c1ea6af	0.009683295
128	0xbbb625a8	-0.005558688
129	0x3bb12a72	0.005406671
130	0x3c482dbf	0.012217938
131	0xbc9cff9b	-0.019164851
132	0xbc05adfb	-0.008159156
133	0x3adeb997	0.0016992566
134	0x3b0f6230	0.0021878593
135	0x39dbfb7d	0.00041958308
136	0x3bd74a23	0.006570117
137	0x3b553c92	0.0032537323
138	0xbb06ff10	-0.0020598806
139	0x3b434c78	0.0029800218
140	0x3c94e27b	0.0181744
141	0xbc4dfd43	-0.012572589
142	0x3b1bd0c0	0.0023775548
143	0x3c8d8968	0.017277434
144	0xbb89a186	-0.0042001633
145	0x3a795e0f	0.0009512612
146	0xbb4a6c86	-0.003088744
147	0xbb023054	-0.0019865232
148	0xbba641f0	-0.0050737783
149	0x3c33f3e6	0.010983443
150	0xbc399df3	-0.011329162
151	0xbb7f538f	-0.0038959717
152	0xbb7d84bb	-0.003868385
153	0x3c0c1baf	0.008551522
154	0xbbd495bf	-0.0064875777
155	0x3c02de01	0.0079875
156	0xbc5acaa2	-0.0133539755
157	0x3b15f713	0.0022882863
158	0x3bf0379f	0.0073308493
159	0xba88fdb9	-0.0010451592
160	0xbc1346fb	-0.008989091
161	0xbcbb2249	-0.022843497
162	0x39a653a4	0.00031724304
163	0x3bffc8e5	0.007805931
164	0xbc590f98	-0.013248347
165	0xbc0ae9f5	-0.008478631
166	0xbba00213	-0.0048830598
167	0xba82d7f5	-0.0009982573
168	0xba579907	-0.0008224402
169	0xba643475	-0.00087053265
170	0x3c3c4925	0.011492048
171	0xbc4c0e79	-0.012454622
172	0xbc9d50eb	-0.019203624
173	0xbbb5928f	-0.005541153
174	0xbb089dfe	-0.0020846124
175	0xbbf39585	-0.0074335956
176	0x3c071f53	0.008247214
177	0x37d0f902	2.4911486e-05
178	0x3c8bd1e7	0.017067863
179	0xbc39975b	-0.01132759
180	0xbbf8dec0	-0.0075949132
181	0x3c2039bf	0.009779393
182	0xba273623	-0.00063786114
183	0x3bce1940	0.006289631
184	0xbb071264	-0.0020610327
185	0x3ac7eb6b	0.0015252655
186	0xbc29d70b	-0.010366212
187	0xbc218835	-0.009859134
188	0x3b121ecf	0.0022296195
189	0xb9c66fa8	-0.00037848693
190	0x3cb4fe6f	0.02209398
191	0x3c39d4f0	0.011342272
192	0xbaf3595d	-0.0018566061
193	0x3b60e53b	0.003431632
194	0xbaa75bf2	-0.0012768491
195	0x3b4c701f	0.003119476
196	0xbb39de0e	-0.0028361115
197	0x3c13ab69	0.009013035
198	0x3c05b65c	0.008161154
199	0x3c5f779b	0.013639356
200	0xbafd4f62	-0.0019326026
201	0xbac075a3	-0.0014683496
202	0xbc7e4cd2	-0.015521245
203	0xbb048c13	-0.0020225092
204	0xbc2b0a5b	-0.010439481
205	0x3bceee0b	0.006314998
206	0x3b46aacd	0.0030314208
207	0x3b6848a7	0.0035443695
208	0x3c0da58b	0.008645426
209	0x38597f2d	5.1855273e-05
210	0xbc4b3cb3	-0.012404609
211	0x3aff70e7	0.0019488604
212	0x3bf90daf	0.007600508
213	0x3c1df0fd	0.009639976
214	0x3c06b0f9	0.0082209045
215	0x3b93486f	0.0044947187
216	0x3adf8c92	0.0017055443
217	0xbaafcec9	-0.0013413067
218	0x3b808252	0.0039217854
219	0x3b8f4fdb	0.004373533
220	0xba6970f7	-0.00089050777
221	0x3bd7458d	0.0065695704
222	0xbbbf1467	-0.0058312896
223	0xbb718ec2	-0.0036858772
224	0x392e751b	0.00016637558
225	0x3c8156c7	0.015788449
226	0xbc462beb	-0.012095432
227	0x3c45b0f3	0.012066114
228	0x3b31fdba	0.002715929
229	0xbc01632e	-0.007897181
230	0xba82aa27	-0.0009968922
231	0x3ba926c6	0.005162093
232	0xbc08d1c1	-0.0083507905
233	0xbb36dabd	-0.0027901374
234	0xbc705ee2	-0.014671059
235	0x3bf177ea	0.007369031
236	0xbb8f6894	-0.0043764804
237	0x3bb50db4	0.005525315
238	0x39c620a3	0.0003778982
239	0xbc23f81a	-0.0100078825
240	0xbbfecb20	-0.007775679
241	0x3c4a9c77	0.012366406
242	0xbc0f9d36	-0.008765509
243	0x3c308c54	0.010775644
244	0x3c7d25a2	0.015450867
245	0xbb02cacf	-0.001995731
246	0x3c578df8	0.013156407
247	0x3b4cb7af	0.0031237414
248	0x3a136957	0.0005623302
249	0xbbe31743	-0.0069302632
250	0xb9fd79e2	-0.0004834673
251	0xbc899b75	-0.01679776
252	0xbc1a6c2e	-0.009425206
253	0x3bbf253f	0.0058332975
254	0x3c084fd9	0.008319818
255	0x3b0ae228	0.0021191929

action_model._discrete_distribution.branches.0.bias f4 [2]
0	0x00000000	0.0
1	0x00000000	0.0

network_body._body_endoder.seq_layers.0.weight f4 [128, 114]
0	0x3caefda5	0.021361182
1	0xbe21de36	-0.15807423
2	0xbe10da6a	-0.14145818
3	0x3c9ef416	0.019403499
4	0x3deffd02	0.11718179
5	0xbdafcb6e	-0.08583723
6	0x3e020bfb	0.12699883
7	0xbe079741	-0.13241293
8	0x3d64d5c6	0.055867933
9	0xbde3d0ef	-0.11123835
10	0xbd8b8a6b	-0.068135105
11	0x3be2d012	0.0069217766
12	0x3c720b2a	0.0147731695
13	0x3e3def5a	0.18548337
14	0x3a9f5998	0.0012157438
15	0xbc55b167	-0.013042784
16	0x3d3531e3	0.04423703
17	0xbe2e6e60	-0.17034292
18	0x3dbcb8a6	0.092149064
19	0xbc4361dd	-0.011925188
20	0xbdc93fd1	-0.09826625
21	0x3df0cf2b	0.11758264
22	0xbdd040ce	-0.101686105
23	0xbde118b2	-0.109910384
24	0x3c4d5e5b	0.012534703
25	0xbd6693f5	-0.056293447
26	0xbd8d906d	-0.06912313
27	0xbdccc4dc	-0.099984854
28	0xbca0f8b7	-0.019649846
29	0x3db2be9a	0.087277606
30	0xbe77a6b8	-0.24184692
31	0x3d7c911a	0.061661817
32	0xbcd95e3c	-0.026534192
33	0x3e0c0483	0.13673596
34	0xbd018373	-0.0316195
35	0x3de9e424	0.114204675
36	0x3ca6c4f1	0.02035758
37	0xbdb83e1f	-0.08996224
38	0xbe2e5d2a	-0.17027727
39	0x3e036a32	0.12833479
40	0x3c9500ae	0.0181888
41	0xbd1c0693	-0.038092207
42	0x3d7dcd54	0.061963394
43	0x3dcdb3be	0.10044049
44	0x3d652a8e	0.055948786
45	0xbddf53c6	-0.109046504
46	0x3df6baa7	0.1204732
47	0x3e7b61fe	0.245491
48	0xbc9cd6ae	-0.019145336
49	0x3b5285a6	0.0032123118
50	0x3d475c36	0.048671924
51	0x3ddb5512	0.10709585
52	0x3d120690	0.03565079
53	0x3cc8e390	0.024522573
54	0xbd4b89bc	-0.0496919
55	0x3c181bd9	0.009283983
56	0x3d65f81b	0.056144815
57	0x3cdb8e44	0.026801236
58	0x3d675b49	0.05648354
59	0x3da05e3c	0.07830474
60	0xbd7b70dd	-0.06138693
61	0xbcb8060e	-0.022463825
62	0xbcdb119c	-0.026741795
63	0xbc5b4403	-0.0133829145
64	0x3df2b2f7	0.11850541
65	0x3d7b9145	0.061417837
66	0xbcdbade1	-0.02681631
67	0x3d1deffc	0.038558945
68	0x3d146dd7	0.036237564
69	0x3d1af6ec	0.03783314
70	0xbe63aa4d	-0.22232933
71	0x3d85d9aa	0.06535657
72	0xbe0589cb	-0.13040845
73	0xbe248ff9	-0.16070546
74	0xbde9ef73	-0.114226244
75	0x3da2bd2e	0.079462394
76	0x3de6b2c6	0.11264567
77	0x3c6ef5a6	0.014584934
78	0x3cb68e15	0.022284547
79	0x3e0434bd	0.12910743
80	0xbc8ceb7f	-0.017202137
81	0xbdacec83	-0.084435485
82	0xbdb85662	-0.09000851
83	0xbe4a294c	-0.19742316
84	0xba15e2c3	-0.0005717689
85	0x3e05eab2	0.1307781
86	0x3d87e42f	0.066353194
87	0xbd8db2d9	-0.06918878
88	0xbd3227a8	-0.04349485
89	0x3e6bfd3d	0.23045821
90	0xbb9c3907	-0.0047675404
91	0xbd01747f	-0.03160524
92	0x3d9d9bba	0.07695718
93	0x3df938fe	0.121690735
94	0xbd02f0eb	-0.03196804
95	0x3e2c99b6	0.16855511
96	0xbbf9a8a7	-0.007618982
97	0x3d1fba5a	0.038996078
98	0x3d155b45	0.036463995
99	0x3e22cd97	0.15898739
100	0xbdcbf24f	-0.09958326
101	0x3e17fde5	0.14842947
102	0xbd5ad5b1	-0.05342645
103	0x3d8c6ace	0.06856309
104	0xbd5bd629	-0.053671036
105	0x3c7335fa	0.014844412
106	0x3e62e4ce	0.22157595
107	0xbccfbce2	-0.025358621
108	0x3e38996c	0.18027276
109	0xbdc911f7	-0.0981788
110	0x3c8038dd	0.015652115
111	0xbc9b5d99	-0.01896553
112	0x3c1e0e6a	0.009646991
113	0xbe02439e	-0.12721106
114	0x3d6cf737	0.05785295
115	0xbceebd09	-0.029142873
116	0x3e6b4a87	0.22977649
117	0x3e0717e6	0.1319271
118	0xbe03873d	-0.12844558
119	0x3ca3176a	0.019908626
120	0xbd62c7e6	-0.05536642
121	0x3c89d0b1	0.016823145
122	0x3cd5b277	0.026086075
123	0x3dd8ce72	0.10586251
124	0xbe13a6a6	-0.1441904
125	0x3d0baf84	0.03410293
126	0xbd8e2678	-0.06940931
127	0x3d9c8b94	0.0764381
128	0xbd9ad8d2	-0.075608864
129	0xbcf13864	-0.029445834
130	0xbc8c0ca6	-0.017095875
131	0xbdda4581	-0.10657788
132	0x3d4a648e	0.049412303
133	0xbce26602	-0.027636532
134	0x3d95b496	0.07309835
135	0x3cb28d6b	0.021795949
136	0x3d77ab24	0.060465947
137	0xbe629e33	-0.2213066
138	0x3cddc9e0	0.0270738
139	0xbe071f1f	-0.13195466
140	0x3dca8f19	0.09890575
141	0xbd91c8b1	-0.07118357
142	0xbd3496b9	-0.044089053
143	0xbe289b6f	-0.16465543
144	0x3d2ee196	0.042695604
145	0xbd04cd25	-0.032422204
146	0x3e2e7912	0.17038372
147	0xbd0e2490	-0.034702837
148	0x3e37b2e2	0.17939332
149	0x3cbaf899	0.022823619
150	0xbe28c29b	-0.16480486
151	0xbce2b63d	-0.027674789
152	0x3da47dad	0.08031783
153	0xbd590599	-0.052983854
154	0xbd469c72	-0.04848904
155	0x3ce4aa1e	0.02791315
156	0x3d69d6e5	0.057089705
157	0x3d6bc1d7	0.057557907
158	0x393665c4	0.00017394783
159	0xbd2f3f69	-0.042785082
160	0xbdc6266e	-0.09675299
161	0x3de2d0cf	0.11074983
162	0xbc8dee0e	-0.017325427
163	0x3dc0bb0c	0.09410676
164	0xbb16db4b	-0.0023018892
165	0xbd9aa217	-0.075504474
166	0x3ce77613	0.028254544
167	0x3c19b523	0.009381565
168	0x3cfced28	0.030874804
169	0xbd99c489	-0.07508189
170	0x3d7db9eb	0.061944883
171	0xbd1d4788	-0.038398296
172	0xbd7f9b5c	-0.06240402
173	0x3e1b9887	0.15194903
174	0x3d894e1c	0.06704351
175	0xbcfaf3c3	-0.030633813
176	0x3b8c2ebe	0.004278033
177	0x3d9812ff	0.07425498
178	0xbc3948f3	-0.011308896
179	0x3c76f5f0	0.0150732845
180	0xbcaed27a	-0.021340597
181	0xbc7fce9b	-0.015613223
182	0xbd9885ed	-0.07447419
183	0x3d26abb3	0.04069109
184	0xbb87ca8f	-0.00414402
185	0xbca42b91	-0.020040305
186	0xbc4d19ad	-0.012518329
187	0xbca3e610	-0.020007163
188	0x3cc78c42	0.024358872
189	0xbc91141a	-0.01770978
190	0xbd6a4b67	-0.057200816
191	0xbe8f0f07	-0.27941152
192	0xbd42dbe8	-0.047573
193	0xbd0b3c78	-0.033993214
194	0xbe3ae8fc	-0.18252939
195	0x3e203eab	0.15648906
196	0xbc300b04	-0.010744814
197	0xbb95b2c0	-0.004568428
198	0xbd61ed96	-0.05515822
199	0x3d27ec5b	0.04099689
200	0x3c697fa1	0.0142516205
201	0x3d7cf6f9	0.06175897
202	0xbde0ffe6	-0.10986309
203	0x3d80d840	0.062912464
204	0xbdc7fc0d	-0.09764872
205	0x3c46dcf3	0.012137639
206	0x3e641d19	0.22276725
207	0x3e145701	0.14486314
208	0x3cf74ab9	0.030186998
209	0xbd6dacc1	-0.05802608
210	0xba07d35f	-0.0005181338
211	0xbe793d92	-0.24339893
212	0xbd03ea24	-0.032205716
213	0x3cc84166	0.024445247
214	0xbe9c8cad	-0.30576077
215	0xbdb2066c	-0.08692631
216	0x3d5655da	0.05232797
217	0xbda8a1c3	-0.082339786
218	0x3e1c5549	0.15266909
219	0x3d8c6fa3	0.068572305
220	0xbcad1031	-0.021125885
221	0xbda605f3	-0.081066035
222	0xbdd4465c	-0.103649825
223	0x3e2bb29d	0.16767354
224	0x3e34d397	0.1765884
225	0xbaeae524	-0.0017921072
226	0x3cc906fe	0.024539467
227	0x3cdbc804	0.026828773
228	0x3d344c4f	0.044018086
229	0xbddea5c6	-0.108714625
230	0xbd7b5808	-0.06136325
231	0xbc727a60	-0.014799684
232	0x3d95578a	0.072920874
233	0xbd04a5fe	-0.032384865
234	0xbd63e870	-0.05564159
235	0x3c874904	0.016514309
236	0x3d0bd185	0.03413536
237	0xbbb8e031	-0.00564196
238	0x3e2d13fa	0.16902152
239	0x3db9e69d	0.09077189
240	0x3d8fbca6	0.07018404
241	0x3e0622cf	0.13099216
242	0x3cc153e5	0.023599574
243	0x3d5ab20a	0.053392448
244	0xbda6c815	-0.08143631
245	0x3e709754	0.23495227
246	0xbc3a368c	-0.011365544
247	0xbd184c23	-0.037181985
248	0x3d821894	0.06352344
249	0xbccefec6	-0.02526797
250	0x3d6625fb	0.056188565
251	0xbd5488bf	-0.051888224
252	0x3d76c4fa	0.060246445
253	0x3dafd06d	0.08584676
254	0x3d8b4e56	0.06802051
255	0xbd6c021f	-0.05761921

network_body._body_endoder.seq_layers.0.bias f4 [128]
0	0x00000000	0.0
1	0x00000000	0.0
2	0x00000000	0.0
3	0x00000000	0.0
4	0x00000000	0.0
5	0x00000000	0.0
6	0x00000000	0.0
7	0x00000000	0.0
8	0x00000000	0.0
9	0x00000000	0.0
10	0x00000000	0.0
11	0x00000000	0.0
12	0x00000000	0.0
13	0x00000000	0.0
14	0x00000000	0.0
15	0x00000000	0.0
16	0x00000000	0.0
17	0x00000000	0.0
18	0x00000000	0.0
19	0x00000000	0.0
20	0x00000000	0.0
21	0x00000000	0.0
22	0x00000000	0.0
23	0x00000000	0.0
24	0x00000000	0.0
25	0x00000000	0.0
26	0x00000000	0.0
27	0x00000000	0.0
28	0x00000000	0.0
29	0x00000000	0.0
30	0x00000000	0.0
31	0x00000000	0.0
32	0x00000000	0.0
33	0x00000000	0.0
34	0x00000000	0.0
35	0x00000000	0.0
36	0x00000000	0.0
37	0x00000000	0.0
38	0x00000000	0.0
39	0x00000000	0.0
40	0x00000000	0.0
41	0x00000000	0.0
42	0x00000000	0.0
43	0x00000000	0.0
44	0x00000000	0.0
45	0x00000000	0.0
46	0x00000000	0.0
47	0x00000000	0.0
48	0x00000000	0.0
49	0x00000000	0.0
50	0x00000000	0.0
51	0x00000000	0.0
52	0x00000000	0.0
53	0x00000000	0.0
54	0x00000000	0.0
55	0x00000000	0.0
56	0x00000000	0.0
57	0x00000000	0.0
58	0x00000000	0.0
59	0x00000000	0.0
60	0x00000000	0.0
61	0x00000000	0.0
62	0x00000000	0.0
63	0x00000000	0.0
64	0x00000000	0.0
65	0x00000000	0.0
66	0x00000000	0.0
67	0x00000000	0.0
68	0x00000000	0.0
69	0x00000000	0.0
70	0x00000000	0.0
71	0x00000000	0.0
72	0x00000000	0.0
73	0x00000000	0.0
74	0x00000000	0.0
75	0x00000000	0.0
76	0x00000000	0.0
77	0x00000000	0.0
78	0x00000000	0.0
79	0x00000000	0.0
80	0x00000000	0.0
81	0x00000000	0.0
82	0x00000000	0.0
83	0x00000000	0.0
84	0x00000000	0.0
85	0x00000000	0.0
86	0x00000000	0.0
87	0x00000000	0.0
88	0x00000000	0.0
89	0x00000000	0.0
90	0x00000000	0.0
91	0x00000000	0.0
92	0x00000000	0.0
93	0x00000000	0.0
94	0x00000000	0.0
95	0x00000000	0.0
96	0x00000000	0.0
97	0x00000000	0.0
98	0x00000000	0.0
99	0x00000000	0.0
100	0x00000000	0.0
101	0x00000000	0.0
102	0x00000000	0.0
103	0x00000000	0.0
104	0x00000000	0.0
105	0x00000000	0.0
106	0x00000000	0.0
107	0x00000000	0.0
108	0x00000000	0.0
109	0x00000000	0.0
110	0x00000000	0.0
111	0x00000000	0.0
112	0x00000000	0.0
113	0x00000000	0.0
114	0x00000000	0.0
115	0x00000000	0.0
116	0x00000000	0.0
117	0x00000000	0.0
118	0x00000000	0.0
119	0x00000000	0.0
120	0x00000000	0.0
121	0x00000000	0.0
122	0x00000000	0.0
123	0x00000000	0.0
124	0x00000000	0.0
125	0x00000000	0.0
126	0x00000000	0.0
127	0x00000000	0.0

network_body._body_endoder.seq_layers.2.weight f4 [128, 128]
0	0x3cdf52c2	0.027261142
1	0x3ca37978	0.019955382
2	0x3bad206a	0.005283405
3	0xbd8efde7	-0.06982022
4	0x3db6b2b1	0.089208014
5	0x3dbe64df	0.092965834
6	0xbc9a48e1	-0.01883358
7	0x3de1ff56	0.110350296
8	0xbe00411f	-0.12524842
9	0x3d20d2c6	0.03926351
10	0xbb9e9df9	-0.004840609
11	0xbda1dab4	-0.079030424
12	0xbcb3a800	-0.021930695
13	0x3e3aa64f	0.18227504
14	0xbdff50d3	-0.12466588
15	0x3b013d81	0.0019720497
16	0xbcf0c5ca	-0.029391188
17	0x3d9ed7a1	0.07755972
18	0x3e0108d9	0.12601031
19	0x3e01d79a	0.12679902
20	0xbd20f21e	-0.0392934
21	0xbdbc4119	-0.09192104
22	0x3cebdaeb	0.028790912
23	0xbd92e5c6	-0.07172732
24	0xbe12f161	-0.14349891
25	0x3dd357e3	0.103194974
26	0xbdc165ce	-0.09443246
27	0xbd4ced45	-0.050030965
28	0x3da418d4	0.08012548
29	0xbd861dec	-0.06548676
30	0x3d86e5fb	0.06586834
31	0xbb8d0e7e	-0.004304706
32	0xbc9481c2	-0.01812828
33	0xbdc33ebe	-0.095334515
34	0x3d96d9e7	0.0736578
35	0xbd22af2d	-0.039717842
36	0x3e372b40	0.17887592
37	0x3dcbac3b	0.0994496
38	0xbd4043be	-0.046939604
39	0xbd7b2512	-0.06131465
40	0xbcdeb805	-0.027187357
41	0xbd52ab56	-0.05143293
42	0x3d4a5a87	0.04940274
43	0xbd366b8c	-0.04453616
44	0x3d83422d	0.064091064
45	0xbd89b34c	-0.06723651
46	0xbc68c2f4	-0.014206637
47	0x3e0dddd4	0.13854152
48	0xbb9f0580	-0.0048529506
49	0xbca8ee86	-0.02062155
50	0x3e76549e	0.24055716
51	0x3dbd36da	0.09238978
52	0xbdd418df	-0.10356306
53	0xbda41242	-0.08011295
54	0xbd2df9b9	-0.042474482
55	0xbdc8b3d7	-0.09799927
56	0xbd907ed9	-0.07055444
57	0xbd8452bb	-0.06461092
58	0xbd062b6a	-0.032756247
59	0xbcbe1bd0	-0.023206621
60	0xbd00f3b6	-0.03148242
61	0xbe182118	-0.14856374
62	0xbd20c2d1	-0.03924829
63	0xbdef406b	-0.116822086
64	0x3dc0f285	0.09421257
65	0x3caa6232	0.020798776
66	0xbda41ba1	-0.08013082
67	0x3cf29819	0.029613541
68	0x39270778	0.00015929143
69	0xbdee3f88	-0.116332114
70	0x3e02eebe	0.12786385
71	0x3e0a7ea3	0.1352487
72	0xbe1f946b	-0.1558396
73	0xbc5f66a5	-0.013635312
74	0xbd57edb8	-0.05271694
75	0x3dcf0629	0.10108597
76	0x3dce5e69	0.10076601
77	0xbd6220bd	-0.055207003
78	0xbd39cbab	-0.04536025
79	0x3bbb222f	0.005710862
80	0x3d154f20	0.036452413
81	0xbdd1b945	-0.102404155
82	0x3d8bcbf0	0.06826007
83	0x3c8b6839	0.01701747
84	0xbdb2ef84	-0.0873709
85	0x3c96496e	0.01834556
86	0xbc20ad4c	-0.009806942
87	0x3ddd903d	0.10818527
88	0x3dc0ae4b	0.09408244
89	0xbe048f78	-0.12945354
90	0x3cfe16f8	0.031016812
91	0x3cfd2035	0.030899147
92	0xb941b855	-0.00018474583
93	0xbc070177	-0.008240095
94	0x3d89a154	0.06720224
95	0x3e38bcf9	0.18040837
96	0xbd989d0b	-0.074518286
97	0xbbf80707	-0.007569197
98	0xbc2d1417	-0.010563872
99	0x3e0315f0	0.12801337
100	0xbdc0a970	-0.09407318
101	0xbdbd1006	-0.09231572
102	0x3ce376e8	0.02776666
103	0x3d68eec4	0.05686833
104	0xbe3bc9c6	-0.18338689
105	0x3d04f3df	0.032459136
106	0xbd333f5d	-0.0437616
107	0xbbc2380d	-0.005927092
108	0x3d4ebe7d	0.050474633
109	0xbd1e00fe	-0.038575165
110	0xbdaea246	-0.08527045
111	0x3e40c4d9	0.18825091
112	0xbdb72d2d	-0.089441635
113	0xbccd1bb0	-0.025037616
114	0x3ce06a07	0.027394308
115	0x3ca0cc12	0.019628558
116	0xbe0ec9b2	-0.13944128
117	0x3d40ff5b	0.047118526
118	0xbd447b76	-0.047969304
119	0xbdb2ccda	-0.087304786
120	0xbb91054c	-0.0044256803
121	0xbd7a6703	-0.061133396
122	0xbc91002f	-0.017700283
123	0xbd015d0c	-0.031582877
124	0xbe209efd	-0.15685649
125	0xbe8e81b6	-0.27833337
126	0x3c47971c	0.012182023
127	0x3c92d1ac	0.017922245
128	0xbd9bcf81	-0.076079376
129	0x3e00c0ce	0.12573549
130	0x3bc3cb1c	0.0059751403
131	0x3e38f743	0.18063073
132	0xbd30525b	-0.04304729
133	0x3ce50537	0.027956588
134	0xbd0d2dfa	-0.034467675
135	0xbaffc1c0	-0.0019512698
136	0x3bfcb97f	0.0077125425
137	0x3d7758c9	0.060387406
138	0xbb9b3b1d	-0.0047372715
139	0xba523205	-0.0008018318
140	0x3b879f6f	0.004138879
141	0x3cc97291	0.024590762
142	0xbd4e6fe5	-0.05039968
143	0x3db7dcef	0.089776866
144	0x3d94a936	0.07258837
145	0x3c581eae	0.013190908
146	0x3d37e5e7	0.044896986
147	0xbd762b32	-0.060099788
148	0xbd463027	-0.048385765
149	0xbdced501	-0.10099221
150	0xbd2deee1	-0.04246414
151	0x3c995700	0.018718243
152	0x3d3654bb	0.0445144
153	0x3d4f92f8	0.05067727
154	0xbc38c452	-0.011277275
155	0xbd049be7	-0.032375243
156	0x3cbee6de	0.023303445
157	0xbb809096	-0.003923486
158	0x3cd55942	0.026043538
159	0xbceab3de	-0.02865022
160	0xbd882936	-0.06648485
161	0xbd88332b	-0.066503845
162	0xbda14065	-0.078736104
163	0x3da5d12b	0.08096536
164	0x3d8351b6	0.064120695
165	0x3d525b73	0.051356744
166	0xbdb14b9f	-0.08657002
167	0xbda0cab1	-0.0785116
168	0xbdb514f3	-0.08841886
169	0x3e0b3429	0.13594116
170	0x3c30ce21	0.010791332
171	0xbc9b208f	-0.018936424
172	0x3dc46d17	0.0959112
173	0x3d2e1249	0.042497907
174	0xbe1c2294	-0.15247566
175	0xbe0017eb	-0.12509124
176	0x3cdf6a4e	0.02727237
177	0xbde2bc28	-0.11071044
178	0xbd092016	-0.033477865
179	0x3d78e194	0.060762003
180	0xbcd90986	-0.026493799
181	0xbd020976	-0.031747304
182	0x3e02e037	0.12780844
183	0x3cb1342a	0.02163132
184	0x3d360296	0.04443606
185	0xbd41b40e	-0.047290854
186	0x3cb82a59	0.02248113
187	0x3de48d08	0.11159712
188	0x3b2eb148	0.002665596
189	0x3dabfc1a	0.08397694
190	0x3ccdb2a9	0.025109606
191	0xbd92e973	-0.07173433
192	0x3ccd8db7	0.025091989
193	0x3dae6441	0.08515216
194	0xbd4a5479	-0.049396966
195	0x3caebb08	0.021329418
196	0x3d821cf7	0.06353181
197	0x3d121ecd	0.035673905
198	0xbd13189d	-0.035912145
199	0x3d215735	0.039389808
200	0x3c18c54a	0.009324381
201	0xbd272195	-0.04080351
202	0xbd27e68e	-0.04099136
203	0xbd86a59e	-0.06574558
204	0xbe19330d	-0.1496088
205	0x3c478a32	0.012178944
206	0xbd9439c3	-0.0723758
207	0xbc5d418a	-0.013504395
208	0xbda46a53	-0.08028092
209	0xbcd34439	-0.025789367
210	0x3dcb8801	0.0993805
211	0xbcab9607	-0.020945562
212	0x3dba1f8d	0.09088049
213	0x3b815f02	0.0039480934
214	0x3d242030	0.04006976
215	0xbde38e64	-0.11111143
216	0xbda79c63	-0.08184125
217	0x3d84ec2c	0.06490359
218	0x3d8d6334	0.06903687
219	0xbd9d7b92	-0.07689585
220	0x3e50ddd5	0.20397122
221	0x3e551126	0.20807323
222	0xbc5b6d56	-0.013392767
223	0xbc0e0aed	-0.008669597
224	0xbd6dc468	-0.058048636
225	0xbc768dd7	-0.015048466
226	0x3dbd8213	0.09253325
227	0xbc35dd7b	-0.011100168
228	0xbcbf2fb7	-0.023338182
229	0x3e178c8b	0.14799707
230	0x3d341643	0.043966543
231	0x3d047202	0.03233529
232	0x3d6adc66	0.057339095
233	0x3ba6f721	0.005095378
234	0xbd0a2b4c	-0.033732697
235	0x3e03b709	0.12862791
236	0x3df7c661	0.12098385
237	0xbdc7f265	-0.0976303
238	0xbe5f6d99	-0.21819152
239	0xbd712e18	-0.05888185
240	0x3e511890	0.20419526
241	0x3c608135	0.01370268
242	0x3cb67b86	0.022275697
243	0x3dfb9839	0.122848935
244	0x3b2af73e	0.002608731
245	0x3e10841d	0.14112897
246	0x3dc6b3fc	0.09702298
247	0xbd89a087	-0.06720071
248	0xbdf25796	-0.11833112
249	0x3d9c31fd	0.07626722
250	0x3c658e47	0.014010972
251	0xbd0df71f	-0.0346595
252	0xbd87cdbc	-0.066310376
253	0x3e05d75e	0.13070437
254	0x3da36f81	0.07980252
255	0x3e0be658	0.13662088

network_body._body_endoder.seq_layers.2.bias f4 [128]
0	0x00000000	0.0
1	0x00000000	0.0
2	0x00000000	0.0
3	0x00000000	0.0
4	0x00000000	0.0
5	0x00000000	0.0
6	0x00000000	0.0
7	0x00000000	0.0
8	0x00000000	0.0
9	0x00000000	0.0
10	0x00000000	0.0
11	0x00000000	0.0
12	0x00000000	0.0
13	0x00000000	0.0
14	0x00000000	0.0
15	0x00000000	0.0
16	0x00000000	0.0
17	0x00000000	0.0
18	0x00000000	0.0
19	0x00000000	0.0
20	0x00000000	0.0
21	0x00000000	0.0
22	0x00000000	0.0
23	0x00000000	0.0
24	0x00000000	0.0
25	0x00000000	0.0
26	0x00000000	0.0
27	0x00000000	0.0
28	0x00000000	0.0
29	0x00000000	0.0
30	0x00000000	0.0
31	0x00000000	0.0
32	0x00000000	0.0
33	0x00000000	0.0
34	0x00000000	0.0
35	0x00000000	0.0
36	0x00000000	0.0
37	0x00000000	0.0
38	0x00000000	0.0
39	0x00000000	0.0
40	0x00000000	0.0
41	0x00000000	0.0
42	0x00000000	0.0
43	0x00000000	0.0
44	0x00000000	0.0
45	0x00000000	0.0
46	0x00000000	0.0
47	0x00000000	0.0
48	0x00000000	0.0
49	0x00000000	0.0
50	0x00000000	0.0
51	0x00000000	0.0
52	0x00000000	0.0
53	0x00000000	0.0
54	0x00000000	0.0
55	0x00000000	0.0
56	0x00000000	0.0
57	0x00000000	0.0
58	0x00000000	0.0
59	0x00000000	0.0
60	0x00000000	0.0
61	0x00000000	0.0
62	0x00000000	0.0
63	0x00000000	0.0
64	0x00000000	0.0
65	0x00000000	0.0
66	0x00000000	0.0
67	0x00000000	0.0
68	0x00000000	0.0
69	0x00000000	0.0
70	0x00000000	0.0
71	0x00000000	0.0
72	0x00000000	0.0
73	0x00000000	0.0
74	0x00000000	0.0
75	0x00000000	0.0
76	0x00000000	0.0
77	0x00000000	0.0
78	0x00000000	0.0
79	0x00000000	0.0
80	0x00000000	0.0
81	0x00000000	0.0
82	0x00000000	0.0
83	0x00000000	0.0
84	0x00000000	0.0
85	0x00000000	0.0
86	0x00000000	0.0
87	0x00000000	0.0
88	0x00000000	0.0
89	0x00000000	0.0
90	0x00000000	0.0
91	0x00000000	0.0
92	0x00000000	0.0
93	0x00000000	0.0
94	0x00000000	0.0
95	0x00000000	0.0
96	0x00000000	0.0
97	0x00000000	0.0
98	0x00000000	0.0
99	0x00000000	0.0
100	0x00000000	0.0
101	0x00000000	0.0
102	0x00000000	0.0
103	0x00000000	0.0
104	0x00000000	0.0
105	0x00000000	0.0
106	0x00000000	0.0
107	0x00000000	0.0
108	0x00000000	0.0
109	0x00000000	0.0
110	0x00000000	0.0
111	0x00000000	0.0
112	0x00000000	0.0
113	0x00000000	0.0
114	0x00000000	0.0
115	0x00000000	0.0
116	0x00000000	0.0
117	0x00000000	0.0
118	0x00000000	0.0
119	0x00000000	0.0
120	0x00000000	0.0
121	0x00000000	0.0
122	0x00000000	0.0
123	0x00000000	0.0
124	0x00000000	0.0
125	0x00000000	0.0
126	0x00000000	0.0
127	0x00000000	0.0

value_heads.value_heads.extrinsic.weight f4 [1, 128]
0	0xbe0c0539	-0.13673867
1	0x3e5466ea	0.20742384
2	0xbdf30aaa	-0.118672684
3	0x3e24b37f	0.16084097
4	0x3ddb0b60	0.10695529
5	0x3e31b317	0.17353474
6	0x3ccb916c	0.024849616
7	0x3e3d0f01	0.18462755
8	0x3e417a8d	0.18894406
9	0x3c308cd0	0.01077576
10	0xbd66f6b1	-0.056387607
11	0xbde23a8f	-0.110463254
12	0x3e5293db	0.20564215
13	0xbe06fdda	-0.13182774
14	0x3e166edc	0.14690727
15	0x3bfc69ed	0.007703057
16	0xbe52c983	-0.20584683
17	0x3e575eed	0.21032305
18	0x3e05da47	0.13071547
19	0x3c8c1ee5	0.017104575
20	0xba21cb00	-0.0006171912
21	0xbe59f613	-0.21285276
22	0xbddfebfa	-0.10933681
23	0xbe06a54a	-0.1314899
24	0x3e34f583	0.1767178
25	0xbd20acaa	-0.039227165
26	0x3e05b841	0.13058569
27	0xbe18a829	-0.14907898
28	0x3e258e5f	0.16167592
29	0xbd03d148	-0.032182008
30	0xbcbd0ac2	-0.023076419
31	0xbd97ec2e	-0.074180946
32	0x3e1b9451	0.15193297
33	0xbd232f4b	-0.039840024
34	0xbe26ee70	-0.16301894
35	0xbd5fc717	-0.054633226
36	0xbe06d381	-0.1316662
37	0x3e5cc4e2	0.2155948
38	0x3e058399	0.13038482
39	0x3d9ecacd	0.07753525
40	0x3db3cee6	0.08779697
41	0x3e2e9d83	0.17052273
42	0xbe2aa712	-0.16665295
43	0xbda31f81	-0.07964993
44	0x3de29dd5	0.1106526
45	0xbdeda15d	-0.11603043
46	0x3e211657	0.15731178
47	0xbe569de1	-0.20958664
48	0x3c250537	0.010072044
49	0x3de8fd95	0.11376492
50	0xbccb2a11	-0.024800332
51	0xbdaf2be9	-0.08553297
52	0xbde859fe	-0.1134529
53	0xbe532a72	-0.2062166
54	0xbd4e1cae	-0.05032032
55	0x3e50276a	0.20327535
56	0x3e05be12	0.13060787
57	0xbd2d8adc	-0.042368755
58	0x3da62345	0.08112196
59	0x3dd5a78c	0.10432348
60	0xbdf1ab2b	-0.11800226
61	0x3d8b3279	0.06796736
62	0xbe4cd222	-0.20002034
63	0x3e1c2c75	0.15251334
64	0xbe506048	-0.20349228
65	0xbd8cbf79	-0.06872458
66	0x3db8cfd5	0.09024016
67	0x3dff3dcc	0.12462959
68	0x3c87ec05	0.016592035
69	0x3d9d1d35	0.076715864
70	0x3be137d0	0.0068731084
71	0xbdc2a283	-0.09503653
72	0xbe23b5f7	-0.15987383
73	0x3e4559f1	0.19272591
74	0xbdc95b84	-0.09831908
75	0x3e1a765f	0.15084217
76	0xbe3b9142	-0.1831713
77	0x3db142f5	0.08655349
78	0xbe04631a	-0.12928429
79	0xbdebee4d	-0.11520062
80	0xbe3c0304	-0.18360525
81	0x3dc86552	0.0978495
82	0x3e22af21	0.15887119
83	0x3d8596a7	0.06522875
84	0xbe408ced	-0.18803759
85	0x3d9be501	0.076120384
86	0x3e2e5566	0.17024764
87	0x3e4345bb	0.19069569
88	0x3d846fcc	0.06466636
89	0x3dc2cc36	0.095116064
90	0x3e24e652	0.16103485
91	0xbe0858e1	-0.13315155
92	0x3dc01266	0.09378509
93	0xbd121e01	-0.035673145
94	0x3db435e1	0.08799339
95	0xbda59dc5	-0.08086733
96	0x3e0bdf45	0.1365939
97	0xbe5345d1	-0.20632102
98	0x3e255393	0.16145162
99	0x3e4f0774	0.20217687
100	0xbc0005e2	-0.007813903
101	0x3db05fc8	0.08612019
102	0xbc0a7181	-0.008449913
103	0xbd0b53e3	-0.034015547
104	0x3e2b0b72	0.16703585
105	0xbe0c6ff0	-0.13714576
106	0x3d966374	0.07343188
107	0xbe46e3e3	-0.1942287
108	0x3c878014	0.016540565
109	0x3d050696	0.032476984
110	0x3e1bf097	0.15228496
111	0xbe3e6929	-0.18594803
112	0xbda4c073	-0.08044519
113	0x3dd182b3	0.10230007
114	0x3cef085a	0.029178787
115	0xbe2aae4b	-0.1666805
116	0x3e092f1d	0.13396879
117	0xbddbfe58	-0.107418716
118	0xbe4a6e9c	-0.19768757
119	0x3dcd0ec3	0.10012581
120	0xbe41d6e9	-0.18929638
121	0xbd78ae01	-0.060712818
122	0xbe3dcb1c	-0.18534511
123	0xbdc1b46d	-0.094582416
124	0x3d850f7f	0.06497096
125	0xbd234c42	-0.039867647
126	0x3cae2ae9	0.021260696
127	0xbe11620b	-0.14197557
