Results/test6/Doughnut/checkpoint.pt (torch, 223239 bytes, 11 tensors)

network_body._body_endoder.seq_layers.0.weight f4 [128, 78]
00000000: 1f66 7abd 12bd f23d 7b89 d3bd 847d 63be
00000010: 06e4 2b3d 53fe 72bc 7f04 c23d 2885 aabc
00000020: 2d0f 0dbd f690 72bc da25 a53d 847b c1bd
00000030: 85ab a6bc 289f 873a c45c 3b3e 47be 6e3e
00000040: 3f59 8d3c 4ee3 753e f923 b1bb 47ba 853e
00000050: 34dd 70bc 47de 033e 3b7c 313e e7cb 38be
00000060: 56e8 61bc 52f4 edbd 738b 89bc 2ba9 083e
00000070: 6e56 92be c34b 073e 6b43 af3d 4468 3dbe
00000080: 0100 a03d 1c34 c43b 066b 6ebb 97c5 87bd
00000090: 38b8 ed3d 17e2 48bb 8905 6d3d 264b 013e
000000a0: ff4b b93d 5e28 86bd 18c5 36bd 3da8 acbc
000000b0: 0914 a0bd 2f61 e03d 60f7 0c3e 06b0 633e
000000c0: aed7 36bd a606 913d 83a3 bdbd e337 50bd
000000d0: 10ae c2bd f36b 64be 0dc4 183d d129 48bd
000000e0: 9919 023e d980 6c3d cc2f 873d d8d7 b7bd
000000f0: 17ee 42be cef8 f33d fb47 c73c af42 213e
00000100: 96f9 5f3e 7610 82bd d8ad da3c cbd2 58bd
00000110: ead3 183e aea2 bcbb 5887 83bc b9ac 0ebe
00000120: ea81 35be 27d8 f2bd 5399 493c 07e0 f33d
00000130: 9f29 8fbd 7774 0a3e d657 9fbe f883 fd3d
00000140: ba1c fd3d 50eb e0bb 450c b13d eb4c 583d
00000150: 7cbd 1ebe 4927 adbd 5d88 583e 3d41 b8bc
00000160: 4e7b 38bc ed5d 00bd df68 55bd 163a 0b3e
00000170: d8f8 86bd f327 bbbd 74ed ddbd b0cd 06be
00000180: 3efb 2dbe f2b8 57bc 2131 4d3c 39c9 143d
00000190: 53a3 1bbe 04db e8bc b3cb 283d 3edd 943d
000001a0: 9c1d 06be 415f c33c fee6 4d3e ca3a ef3d
000001b0: 1968 e03d 1405 b1bd b815 99bd a731 163e
000001c0: 2dde 4a3d 50ba 423c c39c 063e b28a b0bd
000001d0: 6ab7 1fbe a4c4 aa3d 408e b7bd dfc1 16bd
000001e0: f81a 66be e6d9 963d 4e9c 68be 4e56 a13d
000001f0: 6eb6 613d 0044 0c3d 1005 5ebe 76cb babc
00000200: 8d11 1bbe 7c52 3ebe cb44 a83d 8be4 b13d
00000210: db17 0dbe df95 4bbe 07a1 f93d ba52 09bd
00000220: e39f 21bd 2001 7ebd 25f8 dd3d 9164 543e
00000230: 6cdb 4ebc ba7b b9bd efda 743d de77 87be
00000240: 58af 9e3d 61cd 0d3d a7a0 2e3e 81f3 63be
00000250: b24f 063c f166 873e fb8b 1dbd c08b 693d
00000260: 53b5 39be 4fd8 133e c464 813b bea7 5cbd
00000270: e528 87bd ad86 283e 26ae 32bc c03d c4bd
00000280: 2336 3c3e f926 723c 174e a53d ee6e b03c
00000290: 526a 92bd 1549 71bd 788b 053e b45e b53b
000002a0: e5d2 863d 3a08 58bc 3bc5 14be 3858 63be
000002b0: 32df 123d 521d 6b39 daed e5bc 51ef 183e
000002c0: eb6b 813e 527e febb 2d6c 00be 3f47 893d
000002d0: 57f8 ae3d a7b8 073e ccd8 37bd 83d1 a73c
000002e0: d9e1 22bd acf2 6d3d 62e1 4c3e 7ff1 a3bc
000002f0: 00b0 0abc 39ce a1bd fcb7 babd abc7 4d3d
00000300: dedf 8a3c 6b0b 8fbd 6333 b9ba 6664 3dbd
00000310: 7029 c0bd 10a6 0cbe 1301 2fbd 21dc 98bd
00000320: de3f a4bc 464f 723d c67b 3fbd 6acc 6fbd
00000330: b5f3 383e 1370 ba3d d6cf 083e 0f41 d63d
00000340: 44c1 1b3e 3480 a73d 61aa 823d 43f2 863d
00000350: 3d4c 013e 3137 4d3d 78a1 1bbd bd44 f7bd
00000360: ae52 9dbd 0354 d2bd a1c8 ffbc 9ade 1a3d
00000370: 75f8 323e 628e e9bd 2afc e4bd 230f 963d
00000380: e6ac b33d 834c 55bc 7590 b1be 199c df3d
00000390: 7cbc af3d 644b d7bc 4e7e 3cbd c336 a1bd
000003a0: 71be fb3d 0a1f 75bd 7a34 1ebe 87ce 633d
000003b0: 9e2d fe3c 3c47 413d f109 d2bd 97fb 373d
000003c0: d4b8 f1bd dbbe b7bd 8a26 08be a5c5 9cbc
000003d0: a18a b9bb e32f b33d c585 78bd ec2d b03c
000003e0: 0284 0bbb a137 2cbd 6303 2b3e 67e5 4bbc
000003f0: 77f9 f73d e4ea 133e 449f a43d 25e3 d3bc
-0.061132547 0.118524686 -0.10328957 -0.22215849 0.041965507 -0.014831143 0.09473514 -0.020815447
-0.0344383 -0.014805069 0.0806386 -0.09447387 -0.020345459 0.0010347115 0.18297106 0.23314773
0.01725447 0.24012491 -0.0054058996 0.2611868 -0.014701176 0.12877761 0.17332546 -0.18046533
-0.013788303 -0.11618866 -0.016790127 0.13345782 -0.28581566 0.13212495 0.08557781 -0.18496805
0.07812501 0.0059876572 -0.003637971 -0.06629484 0.116074026 -0.0030652338 0.057866607 0.12626323
0.09047698 -0.06550668 -0.044621557 -0.021076316 -0.078163214 0.10956036 0.13766241 0.22235116
-0.044639282 0.07081346 -0.09259703 -0.050834548 -0.09505856 -0.22306804 0.037296344 -0.048868004
0.12705077 0.057740066 0.066009134 -0.08976716 -0.19036137 0.1191269 0.024326315 0.15748094
0.21872553 -0.06350796 0.026694223 -0.052935403 0.14924589 -0.0057566976 -0.016055748 -0.13933076
-0.1772534 -0.11857634 0.012304622 0.11907964 -0.069903605 0.1352099 -0.311217 0.12378687
0.12358995 -0.006863989 0.08644918 0.05280773 -0.1550197 -0.08454759 0.21145768 -0.022492046
-0.011259867 -0.031339575 -0.052101966 0.13596377 -0.06590432 -0.09138479 -0.10836306 -0.13164401
-0.16990373 -0.013166653 0.01252392 0.036324713 -0.15199022 -0.028424747 0.041209888 0.07268761
-0.13097233 0.023849132 0.20107648 0.11681135 0.10957355 -0.08643547 -0.07474846 0.14667378
0.04952829 0.011885241 0.13145737 -0.08620204 -0.1559731 0.083382875 -0.08962679 -0.036805984
-0.22471225 0.073657796 -0.22715876 0.078777894 0.05510562 0.034244537 -0.21681619 -0.022802096
-0.15143414 -0.18586153 0.08216246 0.08686169 -0.13778631 -0.1988139 0.12188917 -0.03352616
-0.03945912 -0.06201279 0.108383454 0.20741488 -0.012625556 -0.09056802 0.059779104 -0.2645864
0.07748288 0.034619693 0.17053472 -0.22260858 0.008197712 0.26445726 -0.038463574 0.05701804
-0.18135576 0.14437984 0.00394878 -0.05387091 -0.06599597 0.16457625 -0.010905778 -0.095820904
0.18380027 0.0147798 0.08071535 0.02153727 -0.07149185 -0.058907587 0.13041484 0.005534971
0.06583194 -0.013185555 -0.14528362 -0.22201622 0.035857387 0.00022422269 -0.028067518 0.14935042
0.25277647 -0.0077665234 -0.12541266 0.06703042 0.08543461 0.13254033 -0.044884488 0.020485645
-0.039766166 0.058092758 0.20007852 -0.020012615 -0.008464813 -0.07900662 -0.091171235 0.050239246
0.016952451 -0.069846 -0.0014129694 -0.046238326 -0.093829036 -0.13735223 -0.042725634 -0.07463861
-0.020049985 0.059157632 -0.0467489 -0.058544554 0.18061717 0.09103408 0.13360533 0.10461628
0.15210444 0.0817875 0.063801534 0.065891765 0.12626739 0.050101463 -0.037995785 -0.12073658
-0.076817855 -0.1026993 -0.031223597 0.037809946 0.17477591 -0.114041105 -0.11180909 0.07327106
0.08773212 -0.01301873 -0.34680524 0.10918445 0.085808724 -0.026281066 -0.04601889 -0.07871773
0.12292183 -0.059844054 -0.15449706 0.05561688 0.031027611 0.047187075 -0.102558024 0.04491767
-0.11802831 -0.0897195 -0.13295951 -0.019137213 -0.005662278 0.08749368 -0.060674448 0.021506272
-0.00212884 -0.04204524 0.1670051 -0.0124448305 0.121081285 0.14445072 0.0803819 -0.025865147

network_body._body_endoder.seq_layers.0.bias f4 [128]
00000000: 0000 0000 0000 0000 0000 0000 0000 0000
00000010: 0000 0000 0000 0000 0000 0000 0000 0000
00000020: 0000 0000 0000 0000 0000 0000 0000 0000
00000030: 0000 0000 0000 0000 0000 0000 0000 0000
00000040: 0000 0000 0000 0000 0000 0000 0000 0000
00000050: 0000 0000 0000 0000 0000 0000 0000 0000
00000060: 0000 0000 0000 0000 0000 0000 0000 0000
00000070: 0000 0000 0000 0000 0000 0000 0000 0000
00000080: 0000 0000 0000 0000 0000 0000 0000 0000
00000090: 0000 0000 0000 0000 0000 0000 0000 0000
000000a0: 0000 0000 0000 0000 0000 0000 0000 0000
000000b0: 0000 0000 0000 0000 0000 0000 0000 0000
000000c0: 0000 0000 0000 0000 0000 0000 0000 0000
000000d0: 0000 0000 0000 0000 0000 0000 0000 0000
000000e0: 0000 0000 0000 0000 0000 0000 0000 0000
000000f0: 0000 0000 0000 0000 0000 0000 0000 0000
00000100: 0000 0000 0000 0000 0000 0000 0000 0000
00000110: 0000 0000 0000 0000 0000 0000 0000 0000
00000120: 0000 0000 0000 0000 0000 0000 0000 0000
00000130: 0000 0000 0000 0000 0000 0000 0000 0000
00000140: 0000 0000 0000 0000 0000 0000 0000 0000
00000150: 0000 0000 0000 0000 0000 0000 0000 0000
00000160: 0000 0000 0000 0000 0000 0000 0000 0000
00000170: 0000 0000 0000 0000 0000 0000 0000 0000
00000180: 0000 0000 0000 0000 0000 0000 0000 0000
00000190: 0000 0000 0000 0000 0000 0000 0000 0000
000001a0: 0000 0000 0000 0000 0000 0000 0000 0000
000001b0: 0000 0000 0000 0000 0000 0000 0000 0000
000001c0: 0000 0000 0000 0000 0000 0000 0000 0000
000001d0: 0000 0000 0000 0000 0000 0000 0000 0000
000001e0: 0000 0000 0000 0000 0000 0000 0000 0000
000001f0: 0000 0000 0000 0000 0000 0000 0000 0000
0.0 0.0 0.0 0.0 0.0 0.0 0.0 0.0
0.0 0.0 0.0 0.0 0.0 0.0 0.0 0.0
0.0 0.0 0.0 0.0 0.0 0.0 0.0 0.0
0.0 0.0 0.0 0.0 0.0 0.0 0.0 0.0
0.0 0.0 0.0 0.0 0.0 0.0 0.0 0.0
0.0 0.0 0.0 0.0 0.0 0.0 0.0 0.0
0.0 0.0 0.0 0.0 0.0 0.0 0.0 0.0
0.0 0.0 0.0 0.0 0.0 0.0 0.0 0.0
0.0 0.0 0.0 0.0 0.0 0.0 0.0 0.0
0.0 0.0 0.0 0.0 0.0 0.0 0.0 0.0
0.0 0.0 0.0 0.0 0.0 0.0 0.0 0.0
0.0 0.0 0.0 0.0 0.0 0.0 0.0 0.0
0.0 0.0 0.0 0.0 0.0 0.0 0.0 0.0
0.0 0.0 0.0 0.0 0.0 0.0 0.0 0.0
0.0 0.0 0.0 0.0 0.0 0.0 0.0 0.0
0.0 0.0 0.0 0.0 0.0 0.0 0.0 0.0

network_body._body_endoder.seq_layers.2.weight f4 [128, 128]
00000000: 86eb 2d3e bd0e b9bd ba08 df3d cf5e f3bc
00000010: bef6 dfbd 6a7a e4bd 34be 2abd b258 acbc
00000020: e9b0 b73b b18f 5abc 2e03 46bc 7a10 02be
00000030: c6e0 1abd 751c 813d d7f4 7dbd f4b5 963d
00000040: d095 fabd e567 c33c a273 33be 7424 703d
00000050: a8e6 633d 0de4 b63c 0aa5 cebd a5d2 043d
00000060: ceb4 a9bd 9286 073e 8aff ae3b 702e adbc
00000070: bc56 66bd b145 eabc 7599 983d 4fc4 953e
00000080: a0e5 d1bc e2d1 4cbe ae93 873d 995d 77bc
00000090: 647c 29be 4bf7 073d 59e5 c2bd 3573 b2bd
000000a0: 59f3 ecbd 6036 09be 6599 783d 7858 9fbd
000000b0: 6d91 b1bd ba77 43bc 6ca8 8e3b 00e5 7f3d
000000c0: 351e fc3c 4cc0 d13d e572 14bd 5032 06be
000000d0: c70d e63d c60e 7abd 4bd1 20bd ad0f 94bd
000000e0: 6a9e 723d 526d 213d 72fe a13d 188a 2c3d
000000f0: 3fb1 aebd 811e 8ebd a2fe 6cbd 96b4 48bd
00000100: 5f46 3bbd 3fde d9bd 31ce d2bc 9def 8d3d
00000110: 5e4d 46bd 98ea 953d 147f 31be 11d6 bbba
00000120: aff7 903d e084 4dbc e350 32be 0038 5f3d
00000130: adce 1ebd 9fea 3cbd b739 433d fe6e 9ebc
00000140: 9ec0 2f3e 8a6e c9bd 0636 a23d cdb7 b2bc
00000150: 7ba4 b4bd aab8 713d f810 04be 21b1 f03d
00000160: b186 9dbc c7f7 6a3d e686 e4bd 7590 59be
00000170: 83d0 8fbc b0f4 07be 362b 483d d8c3 9e3d
00000180: 0f45 433c 6871 a93d 6c50 b83d f829 703d
00000190: 970f efbc 8a6b 2abe f6c1 10bd df55 343d
000001a0: 01f4 063d 979d df3c 3fe1 35bd cce7 0dbe
000001b0: 2e2a 1a3e cc2a be3d e537 783b c229 b6bd
000001c0: d9ac 433d 9cde bc3c 756f 4b3c ec57 02bd
000001d0: 6365 b5bc 9158 f8bc 9b43 2c3e 562e ac3d
000001e0: 3c0b 0ebe 62a2 39be 26b8 883c 94ba ab3d
000001f0: dda5 01be 6013 823d 0e72 153d 4b64 00be
00000200: ca2e 12bc 895f 9cbd 2ed0 02bd ac3c 54bd
00000210: 1d95 40bd 33ff aebd a12c 0c3c 5abd d53d
00000220: 0e6e 0b3c 9ced 1d3e 8c39 353d 4602 6c3d
00000230: ba6a 153d 01db 833d 6d9b aebc dbac 373d
00000240: e7b4 1abd ffde 95bc 1acd 2f3d e12c 353d
00000250: 9f28 383d 2131 783d c51f c73d 0127 d0b9
00000260: b3b3 f23d 8f11 b9bd 0325 d7bd 605e c93d
00000270: f266 953d 888e bbbc 3626 babd 8755 9c3c
00000280: d808 c63d b895 ce3c 8a88 40bc 1e9f 0fbd
00000290: 7da4 82bd 0a3f 253c 59e8 083c ed41 0fbe
000002a0: b2bf 533d 5550 40bd f6c3 efba 90ae 633e
000002b0: f10a 6bbc a44a e33c 0e84 a53d 4a06 6ebc
000002c0: 1b66 fabd 09ed 083c 10f0 f8bb 6552 b4bd
000002d0: 8d02 d5bc 01fb 56bd 7a49 203e 9986 b8bd
000002e0: 45ce 103e 3f33 1fbe 23a3 ba3d bb51 19bd
000002f0: e754 f33c 9ac3 293d 6b8c eb3c cb67 293d
00000300: f14d 9fbc ebab a0bd 593f f53b 2807 ac3b
00000310: 47af 13bd ac73 26bd fc4a 9a3d ce5a ec3c
00000320: caeb c23d ea5f 0cbe 0f5d c3bd 86c2 d13d
00000330: d89f 09bd a1ce 39bd 0d70 d83d c601 4abc
00000340: 3322 c1bd 5da0 2f3d 5249 bebd ffd4 46be
00000350: f386 efbd 3bd6 943d 257b c43a 7b9c 953d
00000360: 6be9 cb3c 08ec a13d a08a aebd e6de ed3d
00000370: c105 02be 9446 90bd de68 b0bb 1c65 863d
00000380: a7f8 d03d 9c67 4bbd 6c52 f83d e5b0 623d
00000390: 4e28 643b 5ed9 233e 5eb8 a939 daaa 793d
000003a0: c122 34bd 1f09 70be 2053 1fbd c7c5 d1bd
000003b0: e48e 00bd 4835 093e 4635 3cbd 3c7c 61ba
000003c0: b69f 6cbd 5a84 403b bed4 fabb b204 cf3d
000003d0: 462e 9abc 0bbe 273d 381f f9bb 4d48 c7bb
000003e0: d4b0 8fbc e8d0 17bd 26b0 86bc a57e ac3d
000003f0: bf2f c53d 0ebc 423d da3e c4bc 08b7 ce3d
0.16984376 -0.09036014 0.10890336 -0.029708294 -0.10935734 -0.11156161 -0.041685298 -0.021038387
0.005605806 -0.013339923 -0.012085719 -0.12701598 -0.037812017 0.06304256 -0.062001076 0.073589236
-0.12235606 0.023853252 -0.17524579 0.058628514 0.055639893 0.02232554 -0.100900725 0.03242745
-0.08286439 0.13234928 0.005340521 -0.021140307 -0.05623506 -0.028597685 0.074511446 0.29251334
-0.025622189 -0.20001939 0.066199645 -0.015097999 -0.16551358 0.03319482 -0.09516401 -0.0871338
-0.115698524 -0.13399649 0.060693163 -0.07780546 -0.08670316 -0.0119304005 0.0043535735 0.06247425
0.030776123 0.10241756 -0.036242384 -0.1310513 0.112330966 -0.061049245 -0.039262097 -0.072295524
0.059233107 0.039410897 0.0790986 0.042123884 -0.08529901 -0.06939412 -0.057860024 -0.049000345
-0.045721408 -0.10638093 -0.025733085 0.06930468 -0.048413627 0.07320136 -0.17333633 -0.0014330765
0.07078492 -0.012543887 -0.17413668 0.054496765 -0.03877132 -0.04612219 0.047662463 -0.019340035
0.17163321 -0.09835537 0.079204604 -0.021816159 -0.08820435 0.059014 -0.12897098 0.11752535
-0.019229265 0.057365205 -0.11158542 -0.21246512 -0.01755548 -0.13276935 0.048869334 0.07752198
0.01191832 0.08273584 0.08999714 0.058633775 -0.029182239 -0.16642585 -0.035341226 0.044027206
0.032947544 0.027296824 -0.044404265 -0.13857955 0.15055153 0.092855066 0.0037875113 -0.088946834
0.047772262 0.023055367 0.01241671 -0.03182213 -0.022143072 -0.03031567 0.16822664 0.084072754
-0.13871473 -0.1812835 0.016689371 0.08385196 -0.12660928 0.06351352 0.036485724 -0.12538259
-0.008922288 -0.076354094 -0.031936817 -0.051815674 -0.047017206 -0.08544769 0.008555562 0.104365066
0.008510126 0.15422672 0.044244334 0.057619356 0.036478736 0.06438256 -0.021314347 0.044842582
-0.03777018 -0.01829481 0.04292021 0.044232253 0.044960614 0.060593728 0.097228564 -0.00039701912
0.11850681 -0.09036552 -0.10505106 0.09832454 0.07295026 -0.022895113 -0.090893194 0.019083751
0.096696556 0.025217876 -0.011751303 -0.035063855 -0.0637903 0.01008583 0.008356177 -0.13989992
0.051696487 -0.04695161 -0.0018292654 0.22234559 -0.01434587 0.027745552 0.08081828 -0.014527867
-0.12226506 0.008357295 -0.007596977 -0.08804778 -0.026002193 -0.05248547 0.15653029 -0.090100475
0.14141186 -0.15546893 0.09113147 -0.03743146 0.02970357 0.041446306 0.02875348 0.04135875
-0.019446345 -0.07845291 0.0074843583 0.0052498765 -0.03605583 -0.040637657 0.075338334 0.028851893
0.095176294 -0.13708463 -0.09539234 0.102421805 -0.033599705 -0.045363072 0.10568247 -0.012329524
-0.09430351 0.042877544 -0.092913285 -0.19417189 -0.116956614 0.07267424 0.0014990313 0.07305237
0.024891576 0.079063475 -0.08522534 0.1161478 -0.12697507 -0.07044712 -0.005383595 0.06562254
0.10203677 -0.049659356 0.12125096 0.05534448 0.0034814063 0.16000888 0.00032371556 0.060953952
-0.043978456 -0.2344098 -0.038897634 -0.10242801 -0.03138627 0.13399231 -0.045949243 -0.0008601581
-0.0577695 0.0029375763 -0.0076547554 0.101083174 -0.018820893 0.040952723 -0.0076025985 -0.006081617
-0.017540373 -0.037064463 -0.016441416 0.08422593 0.096282475 0.047542624 -0.023955751 0.10093504

network_body._body_endoder.seq_layers.2.bias f4 [128]
00000000: 0000 0000 0000 0000 0000 0000 0000 0000
00000010: 0000 0000 0000 0000 0000 0000 0000 0000
00000020: 0000 0000 0000 0000 0000 0000 0000 0000
00000030: 0000 0000 0000 0000 0000 0000 0000 0000
00000040: 0000 0000 0000 0000 0000 0000 0000 0000
00000050: 0000 0000 0000 0000 0000 0000 0000 0000
00000060: 0000 0000 0000 0000 0000 0000 0000 0000
00000070: 0000 0000 0000 0000 0000 0000 0000 0000
00000080: 0000 0000 0000 0000 0000 0000 0000 0000
00000090: 0000 0000 0000 0000 0000 0000 0000 0000
000000a0: 0000 0000 0000 0000 0000 0000 0000 0000
000000b0: 0000 0000 0000 0000 0000 0000 0000 0000
000000c0: 0000 0000 0000 0000 0000 0000 0000 0000
000000d0: 0000 0000 0000 0000 0000 0000 0000 0000
000000e0: 0000 0000 0000 0000 0000 0000 0000 0000
000000f0: 0000 0000 0000 0000 0000 0000 0000 0000
00000100: 0000 0000 0000 0000 0000 0000 0000 0000
00000110: 0000 0000 0000 0000 0000 0000 0000 0000
00000120: 0000 0000 0000 0000 0000 0000 0000 0000
00000130: 0000 0000 0000 0000 0000 0000 0000 0000
00000140: 0000 0000 0000 0000 0000 0000 0000 0000
00000150: 0000 0000 0000 0000 0000 0000 0000 0000
00000160: 0000 0000 0000 0000 0000 0000 0000 0000
00000170: 0000 0000 0000 0000 0000 0000 0000 0000
00000180: 0000 0000 0000 0000 0000 0000 0000 0000
00000190: 0000 0000 0000 0000 0000 0000 0000 0000
000001a0: 0000 0000 0000 0000 0000 0000 0000 0000
000001b0: 0000 0000 0000 0000 0000 0000 0000 0000
000001c0: 0000 0000 0000 0000 0000 0000 0000 0000
000001d0: 0000 0000 0000 0000 0000 0000 0000 0000
000001e0: 0000 0000 0000 0000 0000 0000 0000 0000
000001f0: 0000 0000 0000 0000 0000 0000 0000 0000
0.0 0.0 0.0 0.0 0.0 0.0 0.0 0.0
0.0 0.0 0.0 0.0 0.0 0.0 0.0 0.0
0.0 0.0 0.0 0.0 0.0 0.0 0.0 0.0
0.0 0.0 0.0 0.0 0.0 0.0 0.0 0.0
0.0 0.0 0.0 0.0 0.0 0.0 0.0 0.0
0.0 0.0 0.0 0.0 0.0 0.0 0.0 0.0
0.0 0.0 0.0 0.0 0.0 0.0 0.0 0.0
0.0 0.0 0.0 0.0 0.0 0.0 0.0 0.0
0.0 0.0 0.0 0.0 0.0 0.0 0.0 0.0
0.0 0.0 0.0 0.0 0.0 0.0 0.0 0.0
0.0 0.0 0.0 0.0 0.0 0.0 0.0 0.0
0.0 0.0 0.0 0.0 0.0 0.0 0.0 0.0
0.0 0.0 0.0 0.0 0.0 0.0 0.0 0.0
0.0 0.0 0.0 0.0 0.0 0.0 0.0 0.0
0.0 0.0 0.0 0.0 0.0 0.0 0.0 0.0
0.0 0.0 0.0 0.0 0.0 0.0 0.0 0.0

action_model._discrete_distribution.branches.0.weight f4 [2, 128]
00000000: 444a 80bb 2618 4abc 4351 85ba 8ab6 7a3b
00000010: ed99 e83b 8482 2d3c 8664 a8bb 736d 56bb
00000020: 1829 d8bb f4ec 083c 8041 563b ca72 98bb
00000030: 9759 483b 0a9c 28bb 5f40 35bc d3fb 0cbc
00000040: a897 b6bc 90e5 69bc f76f fabb 1210 723b
00000050: b68a 873b a459 8c3b e378 f4bb 078c a6bb
00000060: 0bc4 143c 471f 413b af98 363b fd2a 4abb
00000070: 57d1 2a3b 06fb c53a b6b3 bdbc 6fc3 0cbc
00000080: 1c60 09bc e26f a43c 10c4 4dbc afda c13b
00000090: 539e c83b 0012 4d3c 4cca 20bc 6fda 80bc
000000a0: 479d 623b afe1 28bc 4b26 85bb af19 89bb
000000b0: 5078 4dbc 4b6b 793a a7b5 433c 33b1 52bb
000000c0: 0ff0 edba 68e4 773b 92e6 8a39 d6d7 05bc
000000d0: df44 e73a 0d1e 3cbb 17b0 1aba c256 823c
000000e0: 934c 4bbb 5023 eabb 276c b13b cfcd 6e39
000000f0: effb 01bc 19b1 803c 7342 0039 afef 2dbc
00000100: d440 a33c b5dd 6e3b 2f29 ba3a 435b adba
00000110: eb6d 6cbc fab9 7b3b 4937 4cbb 83e6 14bb
00000120: 134f 99bb dfc2 d43b db02 c93a 2d95 093c
00000130: 8690 c83b fab2 d6ba 6fed 33bc cbe9 efbb
00000140: dade 763b 7709 b53b ca14 c53a 8d3d bf3a
00000150: 0879 b43b 24cd 8f3c 7c0d 9dbb 212d 0cbc
00000160: 2765 ffbb 1031 53bc 8aed ea3b af00 b0bb
00000170: d3c6 a7bc 7b51 9a3b 3964 b73a 3bdd 9a3c
00000180: 77d3 c93b 177e a93b 8db1 45bc 4ef0 313b
00000190: 9b65 19bc e235 1abb 5273 d3bb 60e3 86bb
000001a0: e873 f4bb 1b12 293c 9343 c73c 0f1e eebb
000001b0: f565 8cbb 3b91 633c 2828 0fbc e158 a0bc
000001c0: 0a0c 4e3c 9207 dabc 9921 90ba 55c4 f8bb
000001d0: 7d71 eebb 8f90 35bb af80 b13c 0f04 b1bb
000001e0: 3bf0 0bbc 77f9 dc3b f2bd 6fbc 1852 d3bb
000001f0: 5148 15bc 9d88 5c3b 427d 173b 66b4 233c
00000200: ae70 49bb ff75 cfbb f2a1 e13a e709 d0bb
00000210: 1af8 88ba e07a 75bc a329 813b 0d72 8137
00000220: 8c48 13bb 3f30 faba 090a 9cbc 6cc9 40bc
00000230: dc18 bbbb 1aab 513b c5c3 65bb bf0d 043b
00000240: ab34 0c3c 6c87 23bb 8b8f 35bb 5cf6 0c3c
00000250: cfc6 0c3b cbff 273c 883a ec3b baa1 bdbb
00000260: 91fa 02bc 9280 8a3b 98db dd3b cb9b 163b
00000270: 3f49 38bb bc1d 98bb 9c73 113c b689 0bbc
00000280: e13b 4b3b 36e1 00bc a670 a3bb d9e8 ac3a
00000290: d857 da3b e389 52bb 8635 82bb b98a c239
000002a0: 8000 99ba f962 c03b e6fe 8c3b 6e9a 1d3c
000002b0: 3fb3 633c f42e a3bc c5d2 20bb 612e 94bc
000002c0: 4bc8 98bc 3168 0abc ef5b c33a d00a 0db9
000002d0: 2b63 e139 1300 06bc 3581 b83c 5acf 30bc
000002e0: 6624 423c aa27 3dbc f859 ca3b 3c06 11bc
000002f0: 231c b4bc 4d71 3ebc fd4f 933b 079f 76bb
00000300: 5472 20bc e2d2 6e3b 1d9a 2fbb 4847 a0bb
00000310: e8ba 18bb a2ab 4e3b 7bc2 433b 4805 203c
00000320: c30a eebb 121e 0c3c e6f3 96bb 041f 193b
00000330: 7757 ce3b 5953 813b 9858 2bbb bfd8 953b
00000340: f7da 633c b3fe a43b 64f7 42bc 66d0 863a
00000350: 9706 0a3c 95f3 0c3c 8f36 1d3c 2d3e 153c
00000360: 25eb a33b cdb4 5038 6316 9dbb 5008 f1bb
00000370: ecc3 243b ad2a 8cbb d53c 4dbc d888 a43c
00000380: 0e71 393c adb3 d23a b402 98b9 3b67 21bc
00000390: 4b51 04bc a3af 7b3b 7fdc 0dbc 472c 18bc
000003a0: 65b0 48bb 9748 ab3b b926 25bb 8679 47ba
000003b0: cb92 dd3b 679a 543b b2fb 69bb e0b8 df3c
000003c0: 8e6b 8bb9 1385 17bc c82e 9e3b 7088 1a3c
000003d0: bfe9 193b eaf5 e63a 2707 bbb8 2788 a9bb
000003e0: ce7b c1ba abf5 36bc 975e 07bb 92ee c5ba
000003f0: d17e 99bc c798 613b 3a3b 6fbb 0791 22bb
-0.003915103 -0.012334859 -0.0010171313 0.0038255774 0.0070984275 0.010590199 -0.0051389365 -0.0032719045
-0.0065966956 0.008357275 0.003269285 -0.004652356 0.0030570978 -0.0025727772 -0.011062711 -0.008604961
-0.022289112 -0.014275923 -0.007642742 0.0036935848 0.0041364087 0.004283147 -0.0074607 -0.0050826105
0.009079943 0.0029468106 0.0027862003 -0.0030848377 0.0026064718 0.0015104718 -0.023156982 -0.008591517
-0.008384731 0.020072881 -0.012558952 0.0059159617 0.0061223893 0.012516499 -0.009813856 -0.015729157
0.0034578608 -0.010307713 -0.004063403 -0.00418397 -0.012540892 0.0009514584 0.011945165 -0.0032149076
-0.0018153208 0.003782535 0.000264932 -0.008169135 0.0017644427 -0.0028704435 -0.0005900873 0.01591051
-0.0031020984 -0.007145323 0.005414504 0.00022774118 -0.007933601 0.015709447 0.00012231786 -0.010616227
0.019928373 0.0036448066 0.0014202947 -0.0013226051 -0.014430503 0.0038410411 -0.0031160882 -0.0022720404
-0.004678616 0.006492957 0.0015335934 0.008397383 0.006120744 -0.0016380243 -0.010981902 -0.0073215715
0.003766945 0.00552481 0.0015036103 0.0014590487 0.005507592 0.017553873 -0.004792867 -0.008555681
-0.0077940407 -0.012890115 0.00716943 -0.0053711752 -0.020480549 0.0047094203 0.0013991661 0.018904319
0.006159242 0.005172502 -0.012066257 0.002715129 -0.009362604 -0.0023530652 -0.0064529562 -0.0041164607
-0.007460106 0.010319258 0.024324214 -0.007266767 -0.004284615 0.013889606 -0.008737601 -0.01957363
0.0125761125 -0.026614938 -0.0010996341 -0.007591764 -0.0072767125 -0.0027704572 0.021667806 -0.005402095
-0.008541162 0.0067436057 -0.014632689 -0.0064489953 -0.00911148 0.0033650764 0.002311543 0.009991741
-0.0030737328 -0.006331205 0.0017214401 -0.0063488367 -0.0010449917 -0.014982909 0.003941731 1.5431107e-05
-0.0022473661 -0.0019087865 -0.019047754 -0.011766773 -0.0057097506 0.0031992854 -0.0035059315 0.0020149795
0.008557479 -0.0024952544 -0.0027703966 0.0086036585 0.0021480804 0.010253857 0.007209126 -0.0057871016
-0.00799431 0.0042267526 0.0067705624 0.0022981043 -0.002811983 -0.0046422165 0.008877661 -0.00851672
0.0031011032 -0.0078661945 -0.004987794 0.0013191953 0.006663304 -0.0032125644 -0.0039736656 0.0003710592
-0.0011673123 0.0058711735 0.004302847 0.009619338 0.013897716 -0.01991985 -0.002453969 -0.018088521
-0.018650195 -0.008447693 0.0014904718 -0.00013450836 0.0004298923 -0.008178729 0.022522548 -0.010791624
0.011849498 -0.011545101 0.006175276 -0.008851584 -0.021986073 -0.011623693 0.0044956193 -0.0037631409
-0.009792883 0.0036441614 -0.002679474 -0.00489131 -0.0023304764 0.0031535407 0.0029870558 0.009766884
-0.0072644665 0.008552091 -0.0046067117 0.0023364434 0.0062970477 0.0039467034 -0.0026145335 0.0045729573
0.013907186 0.0050352453 -0.011899803 0.0010285496 0.008424423 0.008602996 0.009595527 0.009109062
0.0050023966 4.975945e-05 -0.0047939285 -0.0073557273 0.0025141193 -0.0042775483 -0.0125267105 0.020084783
0.011318458 0.0016075276 -0.00028993713 -0.009851272 -0.008076022 0.0038404248 -0.008658527 -0.0092879
-0.0030622717 0.0052271592 -0.0025200082 -0.0007609356 0.006761884 0.0032440664 -0.0035703 0.027309835
-0.0002659228 -0.009248036 0.004827354 0.009431943 0.002348527 0.0017620896 -8.918187e-05 -0.0051737013
-0.0014761628 -0.01116697 -0.0020655745 -0.0015101007 -0.018737229 0.0034423338 -0.0036503808 -0.0024805681

action_model._discrete_distribution.branches.0.bias f4 [2]
00000000: 0000 0000 0000 0000
0.0 0.0

network_body._body_endoder.seq_layers.0.weight f4 [128, 78]
00000000: 70bc 39bd f91a 113e ff7c 65be e89c 253e
00000010: 8945 073e d91c ac3d e335 3abd 9e4b c13c
00000020: 4734 3ebd 8147 b93c fa94 03be f449 603e
00000030: 0346 8a3d d85f 9ebd ad01 fabc c4ab 8e3e
00000040: d3ee c0bb 139c 04be 72eb 3abe ada4 0cbe
00000050: 37cc 73be 7ef0 bd3d 2f67 07be d75f 673e
00000060: f507 8c3c 3752 ca3d d3ca 0fbc d373 e6bd
00000070: d519 1a3d a88c 4c3e 2355 773e 06e7 0ebe
00000080: 8e59 8e3b a00a a03c abae 0f3d 9ae0 5fbc
00000090: 5096 67be c582 f9bd bc92 693b 46a5 1bbe
000000a0: 761f a0bc a213 25be c423 5f3c df3e b3bc
000000b0: 3bb4 e53d 750d 4fbe 5b0b a4bb 151a 00bd
000000c0: 9beb df3d 858d 5ebc 53aa 18be 4141 93bd
000000d0: b16d 2bbb ff94 61bc 0051 fb3d a12d 4d3c
000000e0: 8abc fdbd b27a f93d 780f e83d a3ca 90bd
000000f0: 1230 c03d ed8b 70bd f351 04be e3f7 6cbd
00000100: 9d84 973c 1aeb 85bd 9c69 b8bd 2ac3 07be
00000110: 16f3 32bb ab14 d33c f922 f9bc ccbf f8bc
00000120: 43f3 49be 49a0 a5bd 558d 943e 5e60 a03d
00000130: 5ccc 803d 0754 0c3e d736 67be bc78 003e
00000140: edb1 10be 48e9 a1bb abfa 0abe 74ec 83be
00000150: 0fce 603d 74cb 3fbe d8ac 113d b539 8bbd
00000160: a0fa 0a3e d310 4d3b 978b edbd 6c39 d63d
00000170: a20b 03be 0989 39bc 4e16 b53d 3a8e 10be
00000180: be97 0fbc 4697 553d 0072 9c3d c4dc 45bc
00000190: 9047 093e a246 a0bd bee8 50bd 3b0c c53d
000001a0: 4a6c 153e 2c49 e2bc 4a50 3ebe 4f69 c9bc
000001b0: 7f81 82bd b4b6 053e f42f 99be b20f 1cbe
000001c0: ec99 413d 9c88 083d 2a37 4bbc 389c 3d3e
000001d0: ed9f c2bd 3208 7ebd 771f b63b 0e90 9c3c
000001e0: df90 8b3d cf63 8dbd d13a fdbc 75c6 34bd
000001f0: ec8a f83d 9bd8 a93d 9ae1 02be 8862 7e3e
00000200: 7bbf 0dbd 2bbf 2a3e 2c03 3a3e a2ee a8bc
00000210: c738 fc3d d1f5 a2bd 5ae5 fdbd bc86 813d
00000220: 5aaf 26bc 756c 1dbe 4d5b f83d 1cec cc3c
00000230: dd18 aabd e32d 8b3e d0f9 96bd bbf1 ccbd
00000240: 65dd 2ebc d84a d4bc cf80 183c eada 623c
00000250: f732 0f3e e4b6 01bd c23a 2a3e cc9f c63c
00000260: 55c2 c73c a074 ab3c 3805 8a3d 43bf 223e
00000270: ac64 a33c 1f5c 473d 1d0b ed3d dbf9 633d
00000280: cf55 193e 1791 453e 35cc 8e3d 7726 a93d
00000290: c7fa 863d 356f febc 1cc2 7e3d 1fd6 4ebe
000002a0: 41a0 35bd f135 883e 62b6 313e 2ff8 febb
000002b0: a2be f13c 3e6a 433e 5ee6 843d 6cb7 123d
000002c0: a1ea 14bc a740 1e3c 5fe7 5bbe 06d0 053d
000002d0: 2c33 853e 482a 0f3c 53cf cc3c 68b7 4abd
000002e0: 4ca8 383e cbab 7a3d ecbf 0c3e 808d cdbc
000002f0: a0fb 903d b60a 4e3d 6888 9abd 0162 df3d
00000300: dd27 26bd d5a7 d63c 5051 8c3c f1d4 b13d
00000310: 25a0 9f3e 0961 363e b2bc d73d 9628 5bbe
00000320: 3dd1 a9bc 820e 863d 3202 e4bd 1113 733d
00000330: d64f 88bd 8838 3c3e d206 16be 1b67 a4bd
00000340: 63cb f53d 4020 073d 139d a2bd b02f 60bd
00000350: b4ee b9bd b756 85be c17f 91bd 3beb 953d
00000360: 22b3 b43d bfce a6bd 2425 333e 7579 293d
00000370: ff3a 34bd 2d46 d53d 619b 003e b2a9 ecbd
00000380: eade 1b3b bb87 bb3c 7839 bdbd 834b 20bd
00000390: 6d97 66bd 64e7 0f3e f01d 593e bca7 42bd
000003a0: abeb 733b 6ee9 cb3a c6be 57bd 08e1 debd
000003b0: 9ef9 3d3e 1b59 60bd d788 40be bdad d23d
000003c0: 70b7 cb3d de9b 14bd 5491 c73c e8c2 bd3d
000003d0: 20c8 9b3d e0f2 57bd 9694 b03d 055f e03c
000003e0: 592b 413e 0dcd 4c3e 38b9 0b3d 4b30 1c3d
000003f0: d8eb 5d3d e6dd d83d 4464 febc 275d 7d3d
-0.045345724 0.14170446 -0.22410963 0.16173136 0.1321012 0.0840394 -0.045461547 0.023595627
-0.046436574 0.022617104 -0.12849799 0.21903211 0.06751635 -0.077331245 -0.030518377 0.27865422
-0.005887845 -0.12950163 -0.18253878 -0.13734694 -0.2380837 0.09274386 -0.13222955 0.22595154
0.017093638 0.098789625 -0.008776384 -0.112525605 0.03762229 0.19975531 0.24153571 -0.13955316
0.004344172 0.019536316 0.035078686 -0.013664389 -0.22615933 -0.121831454 0.003564044 -0.15199766
-0.019546252 -0.1612077 0.013619367 -0.021880565 0.11216017 -0.20219977 -0.0050062365 -0.031274874
0.1093361 -0.013583546 -0.14908724 -0.071901806 -0.002615791 -0.013768434 0.12271309 0.012523086
-0.123894766 0.121816054 0.113310754 -0.070699 0.09384169 -0.058727194 -0.12921886 -0.05785359
0.018495852 -0.06538983 -0.090045184 -0.13258043 -0.0027305535 0.025766691 -0.030412184 -0.030364893
-0.19721703 -0.080872126 0.29014078 0.078308806 0.062889785 0.13703929 -0.22579513 0.12546057
-0.14130373 -0.0049411394 -0.13572185 -0.25766337 0.054884013 -0.18729955 0.035565227 -0.06798116
0.13572168 0.0031290546 -0.1159889 0.10460171 -0.12797406 -0.011324176 0.08842145 -0.14116755
-0.0087642055 0.05214622 0.07638931 -0.01207656 0.13406205 -0.07825972 -0.05100321 0.096214734
0.1459209 -0.027622782 -0.18585315 -0.024586348 -0.06372356 0.13057977 -0.29919398 -0.15240362
0.047265932 0.033333406 -0.012403289 0.18516624 -0.0950316 -0.062019534 0.00555795 0.01911166
0.06814741 -0.069038026 -0.030911835 -0.044134576 0.12135872 0.08293267 -0.12781373 0.24842274
-0.034606438 0.16674487 0.18165272 -0.020621601 0.12315517 -0.07957042 -0.12397261 0.06324527
-0.010173643 -0.15373404 0.12126789 0.02501493 -0.083055235 0.27183446 -0.07371867 -0.10007044
-0.010672902 -0.025914595 0.009308054 0.0138461385 0.13984285 -0.03166856 0.16623977 0.024246119
0.024384657 0.020929635 0.06739277 0.15893273 0.019945465 0.048671838 0.11574385 0.055658203
0.1497414 0.19293629 0.06972543 0.0825929 0.06590801 -0.031058887 0.062196836 -0.20198868
-0.044342283 0.26603654 0.1735473 -0.0077810506 0.029509846 0.19083497 0.064892516 0.035819456
-0.009089143 0.009658969 -0.2147498 0.03266909 0.26015604 0.008738108 0.025001204 -0.049491316
0.1803295 0.06119899 0.13745087 -0.025091887 0.07079244 0.050303183 -0.07545549 0.10907365
-0.04056536 0.026203075 0.017128617 0.086831935 0.31176868 0.17810453 0.10534038 -0.21402201
-0.020729655 0.06545736 -0.11133231 0.059344355 -0.066558525 0.1838094 -0.14651039 -0.08027478
0.120016836 0.03298974 -0.07940116 -0.05473298 -0.09078732 -0.2604272 -0.07104445 0.07320257
0.08823229 -0.081449024 0.17494637 0.041375596 -0.044001576 0.104137756 0.12559272 -0.11555804
0.002378399 0.02289187 -0.09239477 -0.039134514 -0.056296755 0.14053112 0.21202826 -0.047523245
0.0037219326 0.0015557238 -0.05267217 -0.10882765 0.18552253 -0.054772478 -0.188022 0.10287044
0.09947097 -0.03628146 0.02436129 0.09265691 0.0760653 -0.052721858 0.086220905 0.027389059
0.18864192 0.20000096 0.034112185 0.038131993 0.054179996 0.10589199 -0.03105367 0.061856415

network_body._body_endoder.seq_layers.0.bias f4 [128]
00000000: 0000 0000 0000 0000 0000 0000 0000 0000
00000010: 0000 0000 0000 0000 0000 0000 0000 0000
00000020: 0000 0000 0000 0000 0000 0000 0000 0000
00000030: 0000 0000 0000 0000 0000 0000 0000 0000
00000040: 0000 0000 0000 0000 0000 0000 0000 0000
00000050: 0000 0000 0000 0000 0000 0000 0000 0000
00000060: 0000 0000 0000 0000 0000 0000 0000 0000
00000070: 0000 0000 0000 0000 0000 0000 0000 0000
00000080: 0000 0000 0000 0000 0000 0000 0000 0000
00000090: 0000 0000 0000 0000 0000 0000 0000 0000
000000a0: 0000 0000 0000 0000 0000 0000 0000 0000
000000b0: 0000 0000 0000 0000 0000 0000 0000 0000
000000c0: 0000 0000 0000 0000 0000 0000 0000 0000
000000d0: 0000 0000 0000 0000 0000 0000 0000 0000
000000e0: 0000 0000 0000 0000 0000 0000 0000 0000
000000f0: 0000 0000 0000 0000 0000 0000 0000 0000
00000100: 0000 0000 0000 0000 0000 0000 0000 0000
00000110: 0000 0000 0000 0000 0000 0000 0000 0000
00000120: 0000 0000 0000 0000 0000 0000 0000 0000
00000130: 0000 0000 0000 0000 0000 0000 0000 0000
00000140: 0000 0000 0000 0000 0000 0000 0000 0000
00000150: 0000 0000 0000 0000 0000 0000 0000 0000
00000160: 0000 0000 0000 0000 0000 0000 0000 0000
00000170: 0000 0000 0000 0000 0000 0000 0000 0000
00000180: 0000 0000 0000 0000 0000 0000 0000 0000
00000190: 0000 0000 0000 0000 0000 0000 0000 0000
000001a0: 0000 0000 0000 0000 0000 0000 0000 0000
000001b0: 0000 0000 0000 0000 0000 0000 0000 0000
000001c0: 0000 0000 0000 0000 0000 0000 0000 0000
000001d0: 0000 0000 0000 0000 0000 0000 0000 0000
000001e0: 0000 0000 0000 0000 0000 0000 0000 0000
000001f0: 0000 0000 0000 0000 0000 0000 0000 0000
0.0 0.0 0.0 0.0 0.0 0.0 0.0 0.0
0.0 0.0 0.0 0.0 0.0 0.0 0.0 0.0
0.0 0.0 0.0 0.0 0.0 0.0 0.0 0.0
0.0 0.0 0.0 0.0 0.0 0.0 0.0 0.0
0.0 0.0 0.0 0.0 0.0 0.0 0.0 0.0
0.0 0.0 0.0 0.0 0.0 0.0 0.0 0.0
0.0 0.0 0.0 0.0 0.0 0.0 0.0 0.0
0.0 0.0 0.0 0.0 0.0 0.0 0.0 0.0
0.0 0.0 0.0 0.0 0.0 0.0 0.0 0.0
0.0 0.0 0.0 0.0 0.0 0.0 0.0 0.0
0.0 0.0 0.0 0.0 0.0 0.0 0.0 0.0
0.0 0.0 0.0 0.0 0.0 0.0 0.0 0.0
0.0 0.0 0.0 0.0 0.0 0.0 0.0 0.0
0.0 0.0 0.0 0.0 0.0 0.0 0.0 0.0
0.0 0.0 0.0 0.0 0.0 0.0 0.0 0.0
0.0 0.0 0.0 0.0 0.0 0.0 0.0 0.0

network_body._body_endoder.seq_layers.2.weight f4 [128, 128]
00000000: 8d67 ad3d 3765 073e f2a1 263b 9b0e 033d
00000010: 4247 8a3d 58e1 033e 095b a13d 7b78 2cbe
00000020: 1ec1 8cbd 71dc 4c3d 2b1e 8f3d 5d87 41bd
00000030: 2f82 05be 5277 4dbd 287a acbd 4c07 31bd
00000040: 6f31 b03c d8bd e3bd 6e8a 8d3d 9b2c 0cbe
00000050: 85a4 a8bc 7591 a63d a8ba 95bd b47f 923d
00000060: 92ee 82bc 86cf adbd fd2d a33d 0651 8ebd
00000070: d9b1 8fbb 9343 27bd 3e71 5bbd ce3b 9bbd
00000080: ba23 2b3e a011 033d 7f9d 433c 68ab eebd
00000090: d797 29be d2a9 d7bd 07c1 c13c ecb1 99bc
000000a0: 97cb 293e 480d 5f3c a771 a9bd d35a 29bd
000000b0: b208 dfbd 5a73 883d 559d f73d ec42 b9bd
000000c0: 7152 55bc c733 ccbd da61 b5bc cafa 033d
000000d0: 4da5 99bd 67b5 e4bc 2132 603c 40a3 1abc
000000e0: 193f 053e cd3f b6bd 6efe 36bd 982e babd
000000f0: 107a 153d 8b2c 1d3c eaa4 c13d 8ed4 90bd
00000100: dd52 f6bc 5fce 513e b4a6 f7bc b4d5 1d3d
00000110: 9f16 0b3e 2d54 523d 8e28 b4bd ceaa c53c
00000120: edf2 73be 0359 f7bc 57f8 233e 1caf d43c
00000130: 6494 c93c d33c bdbd cabf 9e3d 5a01 8abe
00000140: ea43 393e abe8 05be ef03 32bd 26a5 293d
00000150: a765 93bd df85 67be e619 bebd 4464 e73d
00000160: a4d8 543d 3791 6abd b067 3abd efdf 303e
00000170: fbdc eebc d19b 053d c9ff 2dbc 99a3 333c
00000180: c44b fbbc 667c 003d 77a1 3f3c c520 8f3b
00000190: c0fe 40bc 6ead 673d 8911 a73d 7bb9 65bd
000001a0: 352d fe3c fc7c bfbb ed03 dbbd a191 6f3c
000001b0: 3038 24bc 2cc5 c93d 951b c63d 182c 053d
000001c0: 9a8c d4bd 8f32 cf3d e395 d2bd 4fcf 85bc
000001d0: c68b 2f3b b751 8bbd 7b1d 5abe 4bc1 98bc
000001e0: ef6e e83d fe51 823b 9474 06bd 93ad 1c3e
000001f0: c3d1 70bd c858 c03d becf 073e 4671 d4bd
00000200: acba b83c 4151 203e 6b27 68bd c17f d93d
00000210: a9d5 b33d 253b f8bd d595 7e3c d348 cabc
00000220: b149 f23b 9428 3a3e d76e 953c cf0a 85bd
00000230: 9094 0e3d d671 0f3e f59d bf3d cb9d 683d
00000240: dbe2 3b3d 95f0 703e 9fca 613e bcb9 92ba
00000250: eeb3 dc3d 1fdb cebd 10d1 adbd 8512 2abd
00000260: 0091 b23d 5955 5ebd 7321 473e df39 09be
00000270: 9465 b3bc 33fa 843e dbbf bbbd f70e cbbd
00000280: 06f7 1d3e e1a2 d13d bbef 95bd eb23 bb3c
00000290: 63f7 21bd 85fa 853b 591a 0c3e ee69 fcbd
000002a0: 7b55 a9bc 146f bdbc 986b 41bd 227a 6d3d
000002b0: f1c5 0abe 57c5 563e d7cc a13d d6d6 2e3d
000002c0: 1f2e cdbd b969 42bd 0266 edbd 5606 4e3d
000002d0: c6b5 d5bd f140 9f3d e365 6cbd 32b0 6f3d
000002e0: 3468 a93d a8d9 f33d 7a46 8abd 1e4c d6bc
000002f0: 1b3a bbbc 592b 9b3c fdcf 613d 2376 e33d
00000300: fc04 90bc 5df3 943d bacc 923d ed40 9d3e
00000310: 84a6 51bd 135b d63c 6508 143e 5d36 1bbe
00000320: bfb0 50be b073 543a 6a84 c13d 4697 08bd
00000330: 5cdb 13bd fe1c 733d 3517 873d a1fb 8a3c
00000340: a4c5 d8bb 8ae4 e03d 2d87 93bd 3809 053d
00000350: 9277 71bc fdb5 b9bd 3bdf cb3d 27ad 2dbd
00000360: 978c a5bd 2a84 d43d 3237 113d 58a9 f03c
00000370: f2b6 683d 187f 083c 6d11 e8bd 6a21 8dbc
00000380: 03c6 9c3d 8a04 8f3d f87c 25be 4432 d03d
00000390: 5043 adbd f421 f43d 8a5a e5bc b165 753d
000003a0: bb2a 49bd d2c2 9c3d 00ff 113d 7712 3a3c
000003b0: 8c89 1b3d 1024 9ebd d0a0 ce3c 2bf5 e13d
000003c0: c4d1 8dbd 3ba0 98bd 4a7c 68bd 973d c43d
000003d0: e8f4 72bd 2a57 7d3c e162 c9bd bc76 99bd
000003e0: 78d0 ccbc 1e7b 20be 67dd c7bd a00b 9fbd
000003f0: 0c84 4bbd 7f94 3e3d 20b4 0d3d 2819 41bd
0.08467016 0.13222204 0.0025426117 0.03199635 0.067518726 0.1287893 0.07878692 -0.16842835
-0.06872772 0.050014917 0.06988176 -0.047248233 -0.13037942 -0.05016262 -0.08421737 -0.04321985
0.021507947 -0.11120194 0.06911169 -0.1368889 -0.020586262 0.081332125 -0.073109925 0.07153264
-0.0159829 -0.084868476 0.07967756 -0.06949048 -0.0043852148 -0.04083593 -0.053574793 -0.07579766
0.16712847 0.03199923 0.011939405 -0.11653787 -0.16561829 -0.105304375 0.023651613 -0.018761598
0.1658157 0.013614006 -0.082736306 -0.041346382 -0.108903304 0.066626266 0.120905556 -0.090459675
-0.013020144 -0.09970813 -0.022141386 0.032221593 -0.07502232 -0.02791853 0.013683827 -0.009438336
0.13012351 -0.08898888 -0.044676237 -0.09090918 0.03649336 0.009593139 0.09455283 -0.070717916
-0.03006881 0.2048888 -0.030230857 0.03853388 0.13582848 0.051349808 -0.08796798 0.024129298
-0.23823138 -0.030193811 0.16012703 0.025962405 0.024606891 -0.09240117 0.077514246 -0.26954156
0.18092313 -0.13077037 -0.043460783 0.041417263 -0.07197123 -0.22609662 -0.092822835 0.11298421
0.051964417 -0.057267394 -0.04550904 0.17272924 -0.029158106 0.0326193 -0.010620066 0.010964298
-0.030675776 0.031368636 0.011696211 0.00436792 -0.011779487 0.05656188 0.081576414 -0.05608509
0.031027416 -0.0058437567 -0.10694108 0.014622123 -0.010023162 0.09852061 0.096732296 0.032512754
-0.1037838 0.10117065 -0.10282495 -0.016334204 0.0026786192 -0.06802695 -0.21300308 -0.018646857
0.11349284 0.0039770594 -0.03282602 0.15300588 -0.058793794 0.09391934 0.13262841 -0.10373168
0.02254995 0.15655996 -0.056678217 0.1062007 0.08780987 -0.12120656 0.015538652 -0.024692928
0.0073940386 0.18179542 0.01824133 -0.06496202 0.03480965 0.14008269 0.093563 0.056791108
0.045870643 0.23529275 0.2204995 -0.0011194269 0.10776506 -0.10100388 -0.08487141 -0.041521568
0.08719063 -0.054280613 0.19446354 -0.13400982 -0.021899022 0.25972137 -0.09167453 -0.09914964
0.15426263 0.10236145 -0.073211156 0.022844275 -0.039542567 0.004088702 0.13681926 -0.12324892
-0.020670643 -0.023124255 -0.04722175 0.057977803 -0.13552071 0.20973717 0.07900398 0.042685352
-0.100185625 -0.047464106 -0.11591722 0.05029901 -0.10435061 0.077760585 -0.057714354 0.058517642
0.08271828 0.11906749 -0.067517236 -0.026159342 -0.022854855 0.018941568 0.055129994 0.11106517
-0.017580502 0.0727298 0.07167955 0.30713597 -0.051184192 0.026166474 0.14456327 -0.15157457
-0.20379923 0.0008104397 0.09449084 -0.03334739 -0.03609787 0.05935382 0.06596223 0.01696569
-0.0066153575 0.1098109 -0.07203517 0.032479495 -0.01473798 -0.09067915 0.09954687 -0.04240146
-0.08083456 0.10376771 0.03545303 0.029377624 0.056815095 0.008331083 -0.11331449 -0.017227847
0.07654955 0.06983288 -0.16160953 0.101658374 -0.084601045 0.119205385 -0.027997274 0.059911434
-0.049113017 0.076543465 0.035643578 0.011356941 0.03797297 -0.07721722 0.025223166 0.1103309
-0.06924775 -0.074524365 -0.056759156 0.0958206 -0.059315592 0.015462676 -0.09833313 -0.0749335
-0.02500175 -0.15671965 -0.09759026 -0.07765889 -0.049686477 0.046528336 0.03459561 -0.04714313

network_body._body_endoder.seq_layers.2.bias f4 [128]
00000000: 0000 0000 0000 0000 0000 0000 0000 0000
00000010: 0000 0000 0000 0000 0000 0000 0000 0000
00000020: 0000 0000 0000 0000 0000 0000 0000 0000
00000030: 0000 0000 0000 0000 0000 0000 0000 0000
00000040: 0000 0000 0000 0000 0000 0000 0000 0000
00000050: 0000 0000 0000 0000 0000 0000 0000 0000
00000060: 0000 0000 0000 0000 0000 0000 0000 0000
00000070: 0000 0000 0000 0000 0000 0000 0000 0000
00000080: 0000 0000 0000 0000 0000 0000 0000 0000
00000090: 0000 0000 0000 0000 0000 0000 0000 0000
000000a0: 0000 0000 0000 0000 0000 0000 0000 0000
000000b0: 0000 0000 0000 0000 0000 0000 0000 0000
000000c0: 0000 0000 0000 0000 0000 0000 0000 0000
000000d0: 0000 0000 0000 0000 0000 0000 0000 0000
000000e0: 0000 0000 0000 0000 0000 0000 0000 0000
000000f0: 0000 0000 0000 0000 0000 0000 0000 0000
00000100: 0000 0000 0000 0000 0000 0000 0000 0000
00000110: 0000 0000 0000 0000 0000 0000 0000 0000
00000120: 0000 0000 0000 0000 0000 0000 0000 0000
00000130: 0000 0000 0000 0000 0000 0000 0000 0000
00000140: 0000 0000 0000 0000 0000 0000 0000 0000
00000150: 0000 0000 0000 0000 0000 0000 0000 0000
00000160: 0000 0000 0000 0000 0000 0000 0000 0000
00000170: 0000 0000 0000 0000 0000 0000 0000 0000
00000180: 0000 0000 0000 0000 0000 0000 0000 0000
00000190: 0000 0000 0000 0000 0000 0000 0000 0000
000001a0: 0000 0000 0000 0000 0000 0000 0000 0000
000001b0: 0000 0000 0000 0000 0000 0000 0000 0000
000001c0: 0000 0000 0000 0000 0000 0000 0000 0000
000001d0: 0000 0000 0000 0000 0000 0000 0000 0000
000001e0: 0000 0000 0000 0000 0000 0000 0000 0000
000001f0: 0000 0000 0000 0000 0000 0000 0000 0000
0.0 0.0 0.0 0.0 0.0 0.0 0.0 0.0
0.0 0.0 0.0 0.0 0.0 0.0 0.0 0.0
0.0 0.0 0.0 0.0 0.0 0.0 0.0 0.0
0.0 0.0 0.0 0.0 0.0 0.0 0.0 0.0
0.0 0.0 0.0 0.0 0.0 0.0 0.0 0.0
0.0 0.0 0.0 0.0 0.0 0.0 0.0 0.0
0.0 0.0 0.0 0.0 0.0 0.0 0.0 0.0
0.0 0.0 0.0 0.0 0.0 0.0 0.0 0.0
0.0 0.0 0.0 0.0 0.0 0.0 0.0 0.0
0.0 0.0 0.0 0.0 0.0 0.0 0.0 0.0
0.0 0.0 0.0 0.0 0.0 0.0 0.0 0.0
0.0 0.0 0.0 0.0 0.0 0.0 0.0 0.0
0.0 0.0 0.0 0.0 0.0 0.0 0.0 0.0
0.0 0.0 0.0 0.0 0.0 0.0 0.0 0.0
0.0 0.0 0.0 0.0 0.0 0.0 0.0 0.0
0.0 0.0 0.0 0.0 0.0 0.0 0.0 0.0

value_heads.value_heads.extrinsic.weight f4 [1, 128]
00000000: a723 0b3e 0333 46be eeee 193e 96be 863d
00000010: 3315 33be 48b1 e23d b216 693d 9d1f cc3d
00000020: 189c 9e3d 3170 f5bd 3782 363e d916 34be
00000030: 1b8a 283d 9d8f 163d dd12 0ebd 5fdf 58be
00000040: e7dc 4c3c 974f a03c fdde 45be 09b8 2d3e
00000050: 7fdb 56be b46e dbbc b9fc 1d3e c74d 423e
00000060: eb33 8cbd 72f5 f53d a00b 193e e26c 073c
00000070: d65d 48be ce0e 49be fe9b 37be abba 1dbe
00000080: f5fa af3d 5f96 0dbe 0f6a bc3d 34e4 283e
00000090: 67b2 64bc e26a b63d 8c79 03be 696e c23d
000000a0: 6e43 2b3e e3a1 173d 9b20 99bd b1ad 4ebe
000000b0: 0a21 59be e666 1bbe 3fb7 45be 6f52 48be
000000c0: 91c0 33be 160f 0bbe d04f 193d 61a4 d23d
000000d0: 4200 cabd 4719 7a3d f70c 9a3d 2c83 08be
000000e0: e6d7 3cbe 3ff2 b53d 288b 013e 198b 45be
000000f0: 3849 f9bd 0aa8 22be f2f2 1a3e 762f 14be
00000100: 75c6 a43a e9fc 4e3e 798c bebc f157 50be
00000110: 75eb 213c bb08 bfbd d36f 32be 27f9 863d
00000120: 765c a3bc a0c6 8dbc be3f 453d af7d c0bd
00000130: 8314 49be 18c1 2cbe 5034 d1bd 01bf 5a3e
00000140: 37b5 2abd 0f56 1fbe a6cc 103e bb3a 753d
00000150: 55b5 55be 2bea 13bd 1819 5a3e 4717 9a3c
00000160: 049d 0a3d dd56 013e a911 2f3e c248 c33d
00000170: 7870 c53d 4ebe 7fbd 3aea 8abc f0f7 573e
00000180: cfe3 d3bd 223b 583e f523 33bd 9693 cf3d
00000190: 0fab 3b3e e65e 163d 6893 b1bd 7146 51be
000001a0: 2d3a 003e 9c81 56be b999 353e fc67 2ebd
000001b0: aedc d5bd 6488 b7bd 30c6 cc3d c5c9 1c3e
000001c0: b3f9 83bd 88ac c53d 291d 12be e1e2 17be
000001d0: 0ec1 dcbc 4b40 2cbe 08d2 b23a e2ba 413d
000001e0: 17b1 bd3d 7f3e d9bd 3f19 083e ea7c 53be
000001f0: 2e4a 6a3d e4b4 3d3d 3b8b 83bc eabe c33d
0.13587819 -0.19355397 0.1503255 0.0657932 -0.17488556 0.1106897 0.05690641 0.09966967
0.07744616 -0.119842894 0.1782311 -0.1758684 0.041147333 0.036758054 -0.03468596 -0.2117896
0.012503839 0.019569201 -0.19323345 0.16964735 -0.20982169 -0.026786186 0.15428437 0.18974982
-0.0684584 0.120097056 0.14945841 0.008265706 -0.19567046 -0.19634554 -0.179306 -0.1540324
0.08592788 -0.13826893 0.091999166 0.16493303 -0.01395855 0.08907105 -0.12839335 0.09493715
0.16724941 0.03701962 -0.07476922 -0.20183446 -0.2120401 -0.15175971 -0.19308184 -0.19562696
-0.17553927 -0.13579974 0.03742963 0.10285259 -0.098633304 0.061059263 0.07522004 -0.13331288
-0.18441734 0.088840954 0.1265074 -0.19291343 -0.121721685 -0.15884414 0.15131739 -0.1447123
0.0012571352 0.20213665 -0.023260342 -0.20346047 0.0098827975 -0.09327837 -0.1742547 0.06590491
-0.01994155 -0.017306626 0.048156492 -0.09398972 -0.19636731 -0.16870534 -0.10215056 0.21361925
-0.041676726 -0.15560172 0.14140567 0.059870463 -0.20869954 -0.03611199 0.21298635 0.018809928
0.033841148 0.12630792 0.1709658 0.09535362 0.09640592 -0.062437348 -0.016957391 0.21090674
-0.103461854 0.21116307 -0.043735463 0.10135572 0.18326972 0.036711596 -0.08670694 -0.20437028
0.12522192 -0.2094788 0.17734422 -0.042579636 -0.10442482 -0.08961561 0.09998739 0.15311344
-0.06444111 0.09652048 -0.14268936 -0.14832641 -0.026947524 -0.16821401 0.0013642916 0.047297366
0.09262293 -0.10607623 0.1329088 -0.2065312 0.05719965 0.04631509 -0.016057601 0.09557898
