Results/test6/Doughnut/Doughnut-0.onnx (onnx, 109697 bytes, 6 tensors)

action_model._discrete_distribution.branches.0.bias f4 [2]
000000 00 00 00 00 00 00 00 00
       0.0 0.0

action_model._discrete_distribution.branches.0.weight f4 [2, 128]
000000 44 4a 80 bb 26 18 4a bc 43 51 85 ba 8a b6 7a 3b
       -0.003915103 -0.012334859 -0.0010171313 0.0038255774
000010 ed 99 e8 3b 84 82 2d 3c 86 64 a8 bb 73 6d 56 bb
       0.0070984275 0.010590199 -0.0051389365 -0.0032719045
000020 18 29 d8 bb f4 ec 08 3c 80 41 56 3b ca 72 98 bb
       -0.0065966956 0.008357275 0.003269285 -0.004652356
000030 97 59 48 3b 0a 9c 28 bb 5f 40 35 bc d3 fb 0c bc
       0.0030570978 -0.0025727772 -0.011062711 -0.008604961
000040 a8 97 b6 bc 90 e5 69 bc f7 6f fa bb 12 10 72 3b
       -0.022289112 -0.014275923 -0.007642742 0.0036935848
000050 b6 8a 87 3b a4 59 8c 3b e3 78 f4 bb 07 8c a6 bb
       0.0041364087 0.004283147 -0.0074607 -0.0050826105
000060 0b c4 14 3c 47 1f 41 3b af 98 36 3b fd 2a 4a bb
       0.009079943 0.0029468106 0.0027862003 -0.0030848377
000070 57 d1 2a 3b 06 fb c5 3a b6 b3 bd bc 6f c3 0c bc
       0.0026064718 0.0015104718 -0.023156982 -0.008591517
000080 1c 60 09 bc e2 6f a4 3c 10 c4 4d bc af da c1 3b
       -0.008384731 0.020072881 -0.012558952 0.0059159617
000090 53 9e c8 3b 00 12 4d 3c 4c ca 20 bc 6f da 80 bc
       0.0061223893 0.012516499 -0.009813856 -0.015729157
0000a0 47 9d 62 3b af e1 28 bc 4b 26 85 bb af 19 89 bb
       0.0034578608 -0.010307713 -0.004063403 -0.00418397
0000b0 50 78 4d bc 4b 6b 79 3a a7 b5 43 3c 33 b1 52 bb
       -0.012540892 0.0009514584 0.011945165 -0.0032149076
0000c0 0f f0 ed ba 68 e4 77 3b 92 e6 8a 39 d6 d7 05 bc
       -0.0018153208 0.003782535 0.000264932 -0.008169135
0000d0 df 44 e7 3a 0d 1e 3c bb 17 b0 1a ba c2 56 82 3c
       0.0017644427 -0.0028704435 -0.0005900873 0.01591051
0000e0 93 4c 4b bb 50 23 ea bb 27 6c b1 3b cf cd 6e 39
       -0.0031020984 -0.007145323 0.005414504 0.00022774118
0000f0 ef fb 01 bc 19 b1 80 3c 73 42 00 39 af ef 2d bc
       -0.007933601 0.015709447 0.00012231786 -0.010616227
000100 d4 40 a3 3c b5 dd 6e 3b 2f 29 ba 3a 43 5b ad ba
       0.019928373 0.0036448066 0.0014202947 -0.0013226051
000110 eb 6d 6c bc fa b9 7b 3b 49 37 4c bb 83 e6 14 bb
       -0.014430503 0.0038410411 -0.0031160882 -0.0022720404
000120 13 4f 99 bb df c2 d4 3b db 02 c9 3a 2d 95 09 3c
       -0.004678616 0.006492957 0.0015335934 0.008397383
000130 86 90 c8 3b fa b2 d6 ba 6f ed 33 bc cb e9 ef bb
       0.006120744 -0.0016380243 -0.010981902 -0.0073215715
000140 da de 76 3b 77 09 b5 3b ca 14 c5 3a 8d 3d bf 3a
       0.003766945 0.00552481 0.0015036103 0.0014590487
000150 08 79 b4 3b 24 cd 8f 3c 7c 0d 9d bb 21 2d 0c bc
       0.005507592 0.017553873 -0.004792867 -0.008555681
000160 27 65 ff bb 10 31 53 bc 8a ed ea 3b af 00 b0 bb
       -0.0077940407 -0.012890115 0.00716943 -0.0053711752
000170 d3 c6 a7 bc 7b 51 9a 3b 39 64 b7 3a 3b dd 9a 3c
       -0.020480549 0.0047094203 0.0013991661 0.018904319
000180 77 d3 c9 3b 17 7e a9 3b 8d b1 45 bc 4e f0 31 3b
       0.006159242 0.005172502 -0.012066257 0.002715129
000190 9b 65 19 bc e2 35 1a bb 52 73 d3 bb 60 e3 86 bb
       -0.009362604 -0.0023530652 -0.0064529562 -0.0041164607
0001a0 e8 73 f4 bb 1b 12 29 3c 93 43 c7 3c 0f 1e ee bb
       -0.007460106 0.010319258 0.024324214 -0.007266767
0001b0 f5 65 8c bb 3b 91 63 3c 28 28 0f bc e1 58 a0 bc
       -0.004284615 0.013889606 -0.008737601 -0.01957363
0001c0 0a 0c 4e 3c 92 07 da bc 99 21 90 ba 55 c4 f8 bb
       0.0125761125 -0.026614938 -0.0010996341 -0.007591764
0001d0 7d 71 ee bb 8f 90 35 bb af 80 b1 3c 0f 04 b1 bb
       -0.0072767125 -0.0027704572 0.021667806 -0.005402095
0001e0 3b f0 0b bc 77 f9 dc 3b f2 bd 6f bc 18 52 d3 bb
       -0.008541162 0.0067436057 -0.014632689 -0.0064489953
0001f0 51 48 15 bc 9d 88 5c 3b 42 7d 17 3b 66 b4 23 3c
       -0.00911148 0.0033650764 0.002311543 0.009991741
000200 ae 70 49 bb ff 75 cf bb f2 a1 e1 3a e7 09 d0 bb
       -0.0030737328 -0.006331205 0.0017214401 -0.0063488367
000210 1a f8 88 ba e0 7a 75 bc a3 29 81 3b 0d 72 81 37
       -0.0010449917 -0.014982909 0.003941731 1.5431107e-05
000220 8c 48 13 bb 3f 30 fa ba 09 0a 9c bc 6c c9 40 bc
       -0.0022473661 -0.0019087865 -0.019047754 -0.011766773
000230 dc 18 bb bb 1a ab 51 3b c5 c3 65 bb bf 0d 04 3b
       -0.0057097506 0.0031992854 -0.0035059315 0.0020149795
000240 ab 34 0c 3c 6c 87 23 bb 8b 8f 35 bb 5c f6 0c 3c
       0.008557479 -0.0024952544 -0.0027703966 0.0086036585
000250 cf c6 0c 3b cb ff 27 3c 88 3a ec 3b ba a1 bd bb
       0.0021480804 0.010253857 0.007209126 -0.0057871016
000260 91 fa 02 bc 92 80 8a 3b 98 db dd 3b cb 9b 16 3b
       -0.00799431 0.0042267526 0.0067705624 0.0022981043
000270 3f 49 38 bb bc 1d 98 bb 9c 73 11 3c b6 89 0b bc
       -0.002811983 -0.0046422165 0.008877661 -0.00851672
000280 e1 3b 4b 3b 36 e1 00 bc a6 70 a3 bb d9 e8 ac 3a
       0.0031011032 -0.0078661945 -0.004987794 0.0013191953
000290 d8 57 da 3b e3 89 52 bb 86 35 82 bb b9 8a c2 39
       0.006663304 -0.0032125644 -0.0039736656 0.0003710592
0002a0 80 00 99 ba f9 62 c0 3b e6 fe 8c 3b 6e 9a 1d 3c
       -0.0011673123 0.0058711735 0.004302847 0.009619338
0002b0 3f b3 63 3c f4 2e a3 bc c5 d2 20 bb 61 2e 94 bc
       0.013897716 -0.01991985 -0.002453969 -0.018088521
0002c0 4b c8 98 bc 31 68 0a bc ef 5b c3 3a d0 0a 0d b9
       -0.018650195 -0.008447693 0.0014904718 -0.00013450836
0002d0 2b 63 e1 39 13 00 06 bc 35 81 b8 3c 5a cf 30 bc
       0.0004298923 -0.008178729 0.022522548 -0.010791624
0002e0 66 24 42 3c aa 27 3d bc f8 59 ca 3b 3c 06 11 bc
       0.011849498 -0.011545101 0.006175276 -0.008851584
0002f0 23 1c b4 bc 4d 71 3e bc fd 4f 93 3b 07 9f 76 bb
       -0.021986073 -0.011623693 0.0044956193 -0.0037631409
000300 54 72 20 bc e2 d2 6e 3b 1d 9a 2f bb 48 47 a0 bb
       -0.009792883 0.0036441614 -0.002679474 -0.00489131
000310 e8 ba 18 bb a2 ab 4e 3b 7b c2 43 3b 48 05 20 3c
       -0.0023304764 0.0031535407 0.0029870558 0.009766884
000320 c3 0a ee bb 12 1e 0c 3c e6 f3 96 bb 04 1f 19 3b
       -0.0072644665 0.008552091 -0.0046067117 0.0023364434
000330 77 57 ce 3b 59 53 81 3b 98 58 2b bb bf d8 95 3b
       0.0062970477 0.0039467034 -0.0026145335 0.0045729573
000340 f7 da 63 3c b3 fe a4 3b 64 f7 42 bc 66 d0 86 3a
       0.013907186 0.0050352453 -0.011899803 0.0010285496
000350 97 06 0a 3c 95 f3 0c 3c 8f 36 1d 3c 2d 3e 15 3c
       0.008424423 0.008602996 0.009595527 0.009109062
000360 25 eb a3 3b cd b4 50 38 63 16 9d bb 50 08 f1 bb
       0.0050023966 4.975945e-05 -0.0047939285 -0.0073557273
000370 ec c3 24 3b ad 2a 8c bb d5 3c 4d bc d8 88 a4 3c
       0.0025141193 -0.0042775483 -0.0125267105 0.020084783
000380 0e 71 39 3c ad b3 d2 3a b4 02 98 b9 3b 67 21 bc
       0.011318458 0.0016075276 -0.00028993713 -0.009851272
000390 4b 51 04 bc a3 af 7b 3b 7f dc 0d bc 47 2c 18 bc
       -0.008076022 0.0038404248 -0.008658527 -0.0092879
0003a0 65 b0 48 bb 97 48 ab 3b b9 26 25 bb 86 79 47 ba
       -0.0030622717 0.0052271592 -0.0025200082 -0.0007609356
0003b0 cb 92 dd 3b 67 9a 54 3b b2 fb 69 bb e0 b8 df 3c
       0.006761884 0.0032440664 -0.0035703 0.027309835
0003c0 8e 6b 8b b9 13 85 17 bc c8 2e 9e 3b 70 88 1a 3c
       -0.0002659228 -0.009248036 0.004827354 0.009431943
0003d0 bf e9 19 3b ea f5 e6 3a 27 07 bb b8 27 88 a9 bb
       0.002348527 0.0017620896 -8.918187e-05 -0.0051737013
0003e0 ce 7b c1 ba ab f5 36 bc 97 5e 07 bb 92 ee c5 ba
       -0.0014761628 -0.01116697 -0.0020655745 -0.0015101007
0003f0 d1 7e 99 bc c7 98 61 3b 3a 3b 6f bb 07 91 22 bb
       -0.018737229 0.0034423338 -0.0036503808 -0.0024805681

network_body._body_endoder.seq_layers.0.bias f4 [128]
000000 00 00 00 00 00 00 00 00 00 00 00 00 00 00 00 00
       0.0 0.0 0.0 0.0
000010 00 00 00 00 00 00 00 00 00 00 00 00 00 00 00 00
       0.0 0.0 0.0 0.0
000020 00 00 00 00 00 00 00 00 00 00 00 00 00 00 00 00
       0.0 0.0 0.0 0.0
000030 00 00 00 00 00 00 00 00 00 00 00 00 00 00 00 00
       0.0 0.0 0.0 0.0
000040 00 00 00 00 00 00 00 00 00 00 00 00 00 00 00 00
       0.0 0.0 0.0 0.0
000050 00 00 00 00 00 00 00 00 00 00 00 00 00 00 00 00
       0.0 0.0 0.0 0.0
000060 00 00 00 00 00 00 00 00 00 00 00 00 00 00 00 00
       0.0 0.0 0.0 0.0
000070 00 00 00 00 00 00 00 00 00 00 00 00 00 00 00 00
       0.0 0.0 0.0 0.0
000080 00 00 00 00 00 00 00 00 00 00 00 00 00 00 00 00
       0.0 0.0 0.0 0.0
000090 00 00 00 00 00 00 00 00 00 00 00 00 00 00 00 00
       0.0 0.0 0.0 0.0
0000a0 00 00 00 00 00 00 00 00 00 00 00 00 00 00 00 00
       0.0 0.0 0.0 0.0
0000b0 00 00 00 00 00 00 00 00 00 00 00 00 00 00 00 00
       0.0 0.0 0.0 0.0
0000c0 00 00 00 00 00 00 00 00 00 00 00 00 00 00 00 00
       0.0 0.0 0.0 0.0
0000d0 00 00 00 00 00 00 00 00 00 00 00 00 00 00 00 00
       0.0 0.0 0.0 0.0
0000e0 00 00 00 00 00 00 00 00 00 00 00 00 00 00 00 00
       0.0 0.0 0.0 0.0
0000f0 00 00 00 00 00 00 00 00 00 00 00 00 00 00 00 00
       0.0 0.0 0.0 0.0
000100 00 00 00 00 00 00 00 00 00 00 00 00 00 00 00 00
       0.0 0.0 0.0 0.0
000110 00 00 00 00 00 00 00 00 00 00 00 00 00 00 00 00
       0.0 0.0 0.0 0.0
000120 00 00 00 00 00 00 00 00 00 00 00 00 00 00 00 00
       0.0 0.0 0.0 0.0
000130 00 00 00 00 00 00 00 00 00 00 00 00 00 00 00 00
       0.0 0.0 0.0 0.0
000140 00 00 00 00 00 00 00 00 00 00 00 00 00 00 00 00
       0.0 0.0 0.0 0.0
000150 00 00 00 00 00 00 00 00 00 00 00 00 00 00 00 00
       0.0 0.0 0.0 0.0
000160 00 00 00 00 00 00 00 00 00 00 00 00 00 00 00 00
       0.0 0.0 0.0 0.0
000170 00 00 00 00 00 00 00 00 00 00 00 00 00 00 00 00
       0.0 0.0 0.0 0.0
000180 00 00 00 00 00 00 00 00 00 00 00 00 00 00 00 00
       0.0 0.0 0.0 0.0
000190 00 00 00 00 00 00 00 00 00 00 00 00 00 00 00 00
       0.0 0.0 0.0 0.0
0001a0 00 00 00 00 00 00 00 00 00 00 00 00 00 00 00 00
       0.0 0.0 0.0 0.0
0001b0 00 00 00 00 00 00 00 00 00 00 00 00 00 00 00 00
       0.0 0.0 0.0 0.0
0001c0 00 00 00 00 00 00 00 00 00 00 00 00 00 00 00 00
       0.0 0.0 0.0 0.0
0001d0 00 00 00 00 00 00 00 00 00 00 00 00 00 00 00 00
       0.0 0.0 0.0 0.0
0001e0 00 00 00 00 00 00 00 00 00 00 00 00 00 00 00 00
       0.0 0.0 0.0 0.0
0001f0 00 00 00 00 00 00 00 00 00 00 00 00 00 00 00 00
       0.0 0.0 0.0 0.0

network_body._body_endoder.seq_layers.0.weight f4 [128, 78]
000000 1f 66 7a bd 12 bd f2 3d 7b 89 d3 bd 84 7d 63 be
       -0.061132547 0.118524686 -0.10328957 -0.22215849
000010 06 e4 2b 3d 53 fe 72 bc 7f 04 c2 3d 28 85 aa bc
       0.041965507 -0.014831143 0.09473514 -0.020815447
000020 2d 0f 0d bd f6 90 72 bc da 25 a5 3d 84 7b c1 bd
       -0.0344383 -0.014805069 0.0806386 -0.09447387
000030 85 ab a6 bc 28 9f 87 3a c4 5c 3b 3e 47 be 6e 3e
       -0.020345459 0.0010347115 0.18297106 0.23314773
000040 3f 59 8d 3c 4e e3 75 3e f9 23 b1 bb 47 ba 85 3e
       0.01725447 0.24012491 -0.0054058996 0.2611868
000050 34 dd 70 bc 47 de 03 3e 3b 7c 31 3e e7 cb 38 be
       -0.014701176 0.12877761 0.17332546 -0.18046533
000060 56 e8 61 bc 52 f4 ed bd 73 8b 89 bc 2b a9 08 3e
       -0.013788303 -0.11618866 -0.016790127 0.13345782
000070 6e 56 92 be c3 4b 07 3e 6b 43 af 3d 44 68 3d be
       -0.28581566 0.13212495 0.08557781 -0.18496805
000080 01 00 a0 3d 1c 34 c4 3b 06 6b 6e bb 97 c5 87 bd
       0.07812501 0.0059876572 -0.003637971 -0.06629484
000090 38 b8 ed 3d 17 e2 48 bb 89 05 6d 3d 26 4b 01 3e
       0.116074026 -0.0030652338 0.057866607 0.12626323
0000a0 ff 4b b9 3d 5e 28 86 bd 18 c5 36 bd 3d a8 ac bc
       0.09047698 -0.06550668 -0.044621557 -0.021076316
0000b0 09 14 a0 bd 2f 61 e0 3d 60 f7 0c 3e 06 b0 63 3e
       -0.078163214 0.10956036 0.13766241 0.22235116
0000c0 ae d7 36 bd a6 06 91 3d 83 a3 bd bd e3 37 50 bd
       -0.044639282 0.07081346 -0.09259703 -0.050834548
0000d0 10 ae c2 bd f3 6b 64 be 0d c4 18 3d d1 29 48 bd
       -0.09505856 -0.22306804 0.037296344 -0.048868004
0000e0 99 19 02 3e d9 80 6c 3d cc 2f 87 3d d8 d7 b7 bd
       0.12705077 0.057740066 0.066009134 -0.08976716
0000f0 17 ee 42 be ce f8 f3 3d fb 47 c7 3c af 42 21 3e
       -0.19036137 0.1191269 0.024326315 0.15748094
000100 96 f9 5f 3e 76 10 82 bd d8 ad da 3c cb d2 58 bd
       0.21872553 -0.06350796 0.026694223 -0.052935403
000110 ea d3 18 3e ae a2 bc bb 58 87 83 bc b9 ac 0e be
       0.14924589 -0.0057566976 -0.016055748 -0.13933076
000120 ea 81 35 be 27 d8 f2 bd 53 99 49 3c 07 e0 f3 3d
       -0.1772534 -0.11857634 0.012304622 0.11907964
000130 9f 29 8f bd 77 74 0a 3e d6 57 9f be f8 83 fd 3d
       -0.069903605 0.1352099 -0.311217 0.12378687
000140 ba 1c fd 3d 50 eb e0 bb 45 0c b1 3d eb 4c 58 3d
       0.12358995 -0.006863989 0.08644918 0.05280773
000150 7c bd 1e be 49 27 ad bd 5d 88 58 3e 3d 41 b8 bc
       -0.1550197 -0.08454759 0.21145768 -0.022492046
000160 4e 7b 38 bc ed 5d 00 bd df 68 55 bd 16 3a 0b 3e
       -0.011259867 -0.031339575 -0.052101966 0.13596377
000170 d8 f8 86 bd f3 27 bb bd 74 ed dd bd b0 cd 06 be
       -0.06590432 -0.09138479 -0.10836306 -0.13164401
000180 3e fb 2d be f2 b8 57 bc 21 31 4d 3c 39 c9 14 3d
       -0.16990373 -0.013166653 0.01252392 0.036324713
000190 53 a3 1b be 04 db e8 bc b3 cb 28 3d 3e dd 94 3d
       -0.15199022 -0.028424747 0.041209888 0.07268761
0001a0 9c 1d 06 be 41 5f c3 3c fe e6 4d 3e ca 3a ef 3d
       -0.13097233 0.023849132 0.20107648 0.11681135
0001b0 19 68 e0 3d 14 05 b1 bd b8 15 99 bd a7 31 16 3e
       0.10957355 -0.08643547 -0.07474846 0.14667378
0001c0 2d de 4a 3d 50 ba 42 3c c3 9c 06 3e b2 8a b0 bd
       0.04952829 0.011885241 0.13145737 -0.08620204
0001d0 6a b7 1f be a4 c4 aa 3d 40 8e b7 bd df c1 16 bd
       -0.1559731 0.083382875 -0.08962679 -0.036805984
0001e0 f8 1a 66 be e6 d9 96 3d 4e 9c 68 be 4e 56 a1 3d
       -0.22471225 0.073657796 -0.22715876 0.078777894
0001f0 6e b6 61 3d 00 44 0c 3d 10 05 5e be 76 cb ba bc
       0.05510562 0.034244537 -0.21681619 -0.022802096
000200 8d 11 1b be 7c 52 3e be cb 44 a8 3d 8b e4 b1 3d
       -0.15143414 -0.18586153 0.08216246 0.08686169
000210 db 17 0d be df 95 4b be 07 a1 f9 3d ba 52 09 bd
       -0.13778631 -0.1988139 0.12188917 -0.03352616
000220 e3 9f 21 bd 20 01 7e bd 25 f8 dd 3d 91 64 54 3e
       -0.03945912 -0.06201279 0.108383454 0.20741488
000230 6c db 4e bc ba 7b b9 bd ef da 74 3d de 77 87 be
       -0.012625556 -0.09056802 0.059779104 -0.2645864
000240 58 af 9e 3d 61 cd 0d 3d a7 a0 2e 3e 81 f3 63 be
       0.07748288 0.034619693 0.17053472 -0.22260858
000250 b2 4f 06 3c f1 66 87 3e fb 8b 1d bd c0 8b 69 3d
       0.008197712 0.26445726 -0.038463574 0.05701804
000260 53 b5 39 be 4f d8 13 3e c4 64 81 3b be a7 5c bd
       -0.18135576 0.14437984 0.00394878 -0.05387091
000270 e5 28 87 bd ad 86 28 3e 26 ae 32 bc c0 3d c4 bd
       -0.06599597 0.16457625 -0.010905778 -0.095820904
000280 23 36 3c 3e f9 26 72 3c 17 4e a5 3d ee 6e b0 3c
       0.18380027 0.0147798 0.08071535 0.02153727
000290 52 6a 92 bd 15 49 71 bd 78 8b 05 3e b4 5e b5 3b
       -0.07149185 -0.058907587 0.13041484 0.005534971
0002a0 e5 d2 86 3d 3a 08 58 bc 3b c5 14 be 38 58 63 be
       0.06583194 -0.013185555 -0.14528362 -0.22201622
0002b0 32 df 12 3d 52 1d 6b 39 da ed e5 bc 51 ef 18 3e
       0.035857387 0.00022422269 -0.028067518 0.14935042
0002c0 eb 6b 81 3e 52 7e fe bb 2d 6c 00 be 3f 47 89 3d
       0.25277647 -0.0077665234 -0.12541266 0.06703042
0002d0 57 f8 ae 3d a7 b8 07 3e cc d8 37 bd 83 d1 a7 3c
       0.08543461 0.13254033 -0.044884488 0.020485645
0002e0 d9 e1 22 bd ac f2 6d 3d 62 e1 4c 3e 7f f1 a3 bc
       -0.039766166 0.058092758 0.20007852 -0.020012615
0002f0 00 b0 0a bc 39 ce a1 bd fc b7 ba bd ab c7 4d 3d
       -0.008464813 -0.07900662 -0.091171235 0.050239246
000300 de df 8a 3c 6b 0b 8f bd 63 33 b9 ba 66 64 3d bd
       0.016952451 -0.069846 -0.0014129694 -0.046238326
000310 70 29 c0 bd 10 a6 0c be 13 01 2f bd 21 dc 98 bd
       -0.093829036 -0.13735223 -0.042725634 -0.07463861
000320 de 3f a4 bc 46 4f 72 3d c6 7b 3f bd 6a cc 6f bd
       -0.020049985 0.059157632 -0.0467489 -0.058544554
000330 b5 f3 38 3e 13 70 ba 3d d6 cf 08 3e 0f 41 d6 3d
       0.18061717 0.09103408 0.13360533 0.10461628
000340 44 c1 1b 3e 34 80 a7 3d 61 aa 82 3d 43 f2 86 3d
       0.15210444 0.0817875 0.063801534 0.065891765
000350 3d 4c 01 3e 31 37 4d 3d 78 a1 1b bd bd 44 f7 bd
       0.12626739 0.050101463 -0.037995785 -0.12073658
000360 ae 52 9d bd 03 54 d2 bd a1 c8 ff bc 9a de 1a 3d
       -0.076817855 -0.1026993 -0.031223597 0.037809946
000370 75 f8 32 3e 62 8e e9 bd 2a fc e4 bd 23 0f 96 3d
       0.17477591 -0.114041105 -0.11180909 0.07327106
000380 e6 ac b3 3d 83 4c 55 bc 75 90 b1 be 19 9c df 3d
       0.08773212 -0.01301873 -0.34680524 0.10918445
000390 7c bc af 3d 64 4b d7 bc 4e 7e 3c bd c3 36 a1 bd
       0.085808724 -0.026281066 -0.04601889 -0.07871773
0003a0 71 be fb 3d 0a 1f 75 bd 7a 34 1e be 87 ce 63 3d
       0.12292183 -0.059844054 -0.15449706 0.05561688
0003b0 9e 2d fe 3c 3c 47 41 3d f1 09 d2 bd 97 fb 37 3d
       0.031027611 0.047187075 -0.102558024 0.04491767
0003c0 d4 b8 f1 bd db be b7 bd 8a 26 08 be a5 c5 9c bc
       -0.11802831 -0.0897195 -0.13295951 -0.019137213
0003d0 a1 8a b9 bb e3 2f b3 3d c5 85 78 bd ec 2d b0 3c
       -0.005662278 0.08749368 -0.060674448 0.021506272
0003e0 02 84 0b bb a1 37 2c bd 63 03 2b 3e 67 e5 4b bc
       -0.00212884 -0.04204524 0.1670051 -0.0124448305
0003f0 77 f9 f7 3d e4 ea 13 3e 44 9f a4 3d 25 e3 d3 bc
       0.121081285 0.14445072 0.0803819 -0.025865147

network_body._body_endoder.seq_layers.2.bias f4 [128]
000000 00 00 00 00 00 00 00 00 00 00 00 00 00 00 00 00
       0.0 0.0 0.0 0.0
000010 00 00 00 00 00 00 00 00 00 00 00 00 00 00 00 00
       0.0 0.0 0.0 0.0
000020 00 00 00 00 00 00 00 00 00 00 00 00 00 00 00 00
       0.0 0.0 0.0 0.0
000030 00 00 00 00 00 00 00 00 00 00 00 00 00 00 00 00
       0.0 0.0 0.0 0.0
000040 00 00 00 00 00 00 00 00 00 00 00 00 00 00 00 00
       0.0 0.0 0.0 0.0
000050 00 00 00 00 00 00 00 00 00 00 00 00 00 00 00 00
       0.0 0.0 0.0 0.0
000060 00 00 00 00 00 00 00 00 00 00 00 00 00 00 00 00
       0.0 0.0 0.0 0.0
000070 00 00 00 00 00 00 00 00 00 00 00 00 00 00 00 00
       0.0 0.0 0.0 0.0
000080 00 00 00 00 00 00 00 00 00 00 00 00 00 00 00 00
       0.0 0.0 0.0 0.0
000090 00 00 00 00 00 00 00 00 00 00 00 00 00 00 00 00
       0.0 0.0 0.0 0.0
0000a0 00 00 00 00 00 00 00 00 00 00 00 00 00 00 00 00
       0.0 0.0 0.0 0.0
0000b0 00 00 00 00 00 00 00 00 00 00 00 00 00 00 00 00
       0.0 0.0 0.0 0.0
0000c0 00 00 00 00 00 00 00 00 00 00 00 00 00 00 00 00
       0.0 0.0 0.0 0.0
0000d0 00 00 00 00 00 00 00 00 00 00 00 00 00 00 00 00
       0.0 0.0 0.0 0.0
0000e0 00 00 00 00 00 00 00 00 00 00 00 00 00 00 00 00
       0.0 0.0 0.0 0.0
0000f0 00 00 00 00 00 00 00 00 00 00 00 00 00 00 00 00
       0.0 0.0 0.0 0.0
000100 00 00 00 00 00 00 00 00 00 00 00 00 00 00 00 00
       0.0 0.0 0.0 0.0
000110 00 00 00 00 00 00 00 00 00 00 00 00 00 00 00 00
       0.0 0.0 0.0 0.0
000120 00 00 00 00 00 00 00 00 00 00 00 00 00 00 00 00
       0.0 0.0 0.0 0.0
000130 00 00 00 00 00 00 00 00 00 00 00 00 00 00 00 00
       0.0 0.0 0.0 0.0
000140 00 00 00 00 00 00 00 00 00 00 00 00 00 00 00 00
       0.0 0.0 0.0 0.0
000150 00 00 00 00 00 00 00 00 00 00 00 00 00 00 00 00
       0.0 0.0 0.0 0.0
000160 00 00 00 00 00 00 00 00 00 00 00 00 00 00 00 00
       0.0 0.0 0.0 0.0
000170 00 00 00 00 00 00 00 00 00 00 00 00 00 00 00 00
       0.0 0.0 0.0 0.0
000180 00 00 00 00 00 00 00 00 00 00 00 00 00 00 00 00
       0.0 0.0 0.0 0.0
000190 00 00 00 00 00 00 00 00 00 00 00 00 00 00 00 00
       0.0 0.0 0.0 0.0
0001a0 00 00 00 00 00 00 00 00 00 00 00 00 00 00 00 00
       0.0 0.0 0.0 0.0
0001b0 00 00 00 00 00 00 00 00 00 00 00 00 00 00 00 00
       0.0 0.0 0.0 0.0
0001c0 00 00 00 00 00 00 00 00 00 00 00 00 00 00 00 00
       0.0 0.0 0.0 0.0
0001d0 00 00 00 00 00 00 00 00 00 00 00 00 00 00 00 00
       0.0 0.0 0.0 0.0
0001e0 00 00 00 00 00 00 00 00 00 00 00 00 00 00 00 00
       0.0 0.0 0.0 0.0
0001f0 00 00 00 00 00 00 00 00 00 00 00 00 00 00 00 00
       0.0 0.0 0.0 0.0

network_body._body_endoder.seq_layers.2.weight f4 [128, 128]
000000 86 eb 2d 3e bd 0e b9 bd ba 08 df 3d cf 5e f3 bc
       0.16984376 -0.09036014 0.10890336 -0.029708294
000010 be f6 df bd 6a 7a e4 bd 34 be 2a bd b2 58 ac bc
       -0.10935734 -0.11156161 -0.041685298 -0.021038387
000020 e9 b0 b7 3b b1 8f 5a bc 2e 03 46 bc 7a 10 02 be
       0.005605806 -0.013339923 -0.012085719 -0.12701598
000030 c6 e0 1a bd 75 1c 81 3d d7 f4 7d bd f4 b5 96 3d
       -0.037812017 0.06304256 -0.062001076 0.073589236
000040 d0 95 fa bd e5 67 c3 3c a2 73 33 be 74 24 70 3d
       -0.12235606 0.023853252 -0.17524579 0.058628514
000050 a8 e6 63 3d 0d e4 b6 3c 0a a5 ce bd a5 d2 04 3d
       0.055639893 0.02232554 -0.100900725 0.03242745
000060 ce b4 a9 bd 92 86 07 3e 8a ff ae 3b 70 2e ad bc
       -0.08286439 0.13234928 0.005340521 -0.021140307
000070 bc 56 66 bd b1 45 ea bc 75 99 98 3d 4f c4 95 3e
       -0.05623506 -0.028597685 0.074511446 0.29251334
000080 a0 e5 d1 bc e2 d1 4c be ae 93 87 3d 99 5d 77 bc
       -0.025622189 -0.20001939 0.066199645 -0.015097999
000090 64 7c 29 be 4b f7 07 3d 59 e5 c2 bd 35 73 b2 bd
       -0.16551358 0.03319482 -0.09516401 -0.0871338
0000a0 59 f3 ec bd 60 36 09 be 65 99 78 3d 78 58 9f bd
       -0.115698524 -0.13399649 0.060693163 -0.07780546
0000b0 6d 91 b1 bd ba 77 43 bc 6c a8 8e 3b 00 e5 7f 3d
       -0.08670316 -0.0119304005 0.0043535735 0.06247425
0000c0 35 1e fc 3c 4c c0 d1 3d e5 72 14 bd 50 32 06 be
       0.030776123 0.10241756 -0.036242384 -0.1310513
0000d0 c7 0d e6 3d c6 0e 7a bd 4b d1 20 bd ad 0f 94 bd
       0.112330966 -0.061049245 -0.039262097 -0.072295524
0000e0 6a 9e 72 3d 52 6d 21 3d 72 fe a1 3d 18 8a 2c 3d
       0.059233107 0.039410897 0.0790986 0.042123884
0000f0 3f b1 ae bd 81 1e 8e bd a2 fe 6c bd 96 b4 48 bd
       -0.08529901 -0.06939412 -0.057860024 -0.049000345
000100 5f 46 3b bd 3f de d9 bd 31 ce d2 bc 9d ef 8d 3d
       -0.045721408 -0.10638093 -0.025733085 0.06930468
000110 5e 4d 46 bd 98 ea 95 3d 14 7f 31 be 11 d6 bb ba
       -0.048413627 0.07320136 -0.17333633 -0.0014330765
000120 af f7 90 3d e0 84 4d bc e3 50 32 be 00 38 5f 3d
       0.07078492 -0.012543887 -0.17413668 0.054496765
000130 ad ce 1e bd 9f ea 3c bd b7 39 43 3d fe 6e 9e bc
       -0.03877132 -0.04612219 0.047662463 -0.019340035
000140 9e c0 2f 3e 8a 6e c9 bd 06 36 a2 3d cd b7 b2 bc
       0.17163321 -0.09835537 0.079204604 -0.021816159
000150 7b a4 b4 bd aa b8 71 3d f8 10 04 be 21 b1 f0 3d
       -0.08820435 0.059014 -0.12897098 0.11752535
000160 b1 86 9d bc c7 f7 6a 3d e6 86 e4 bd 75 90 59 be
       -0.019229265 0.057365205 -0.11158542 -0.21246512
000170 83 d0 8f bc b0 f4 07 be 36 2b 48 3d d8 c3 9e 3d
       -0.01755548 -0.13276935 0.048869334 0.07752198
000180 0f 45 43 3c 68 71 a9 3d 6c 50 b8 3d f8 29 70 3d
       0.01191832 0.08273584 0.08999714 0.058633775
000190 97 0f ef bc 8a 6b 2a be f6 c1 10 bd df 55 34 3d
       -0.029182239 -0.16642585 -0.035341226 0.044027206
0001a0 01 f4 06 3d 97 9d df 3c 3f e1 35 bd cc e7 0d be
       0.032947544 0.027296824 -0.044404265 -0.13857955
0001b0 2e 2a 1a 3e cc 2a be 3d e5 37 78 3b c2 29 b6 bd
       0.15055153 0.092855066 0.0037875113 -0.088946834
0001c0 d9 ac 43 3d 9c de bc 3c 75 6f 4b 3c ec 57 02 bd
       0.047772262 0.023055367 0.01241671 -0.03182213
0001d0 63 65 b5 bc 91 58 f8 bc 9b 43 2c 3e 56 2e ac 3d
       -0.022143072 -0.03031567 0.16822664 0.084072754
0001e0 3c 0b 0e be 62 a2 39 be 26 b8 88 3c 94 ba ab 3d
       -0.13871473 -0.1812835 0.016689371 0.08385196
0001f0 dd a5 01 be 60 13 82 3d 0e 72 15 3d 4b 64 00 be
       -0.12660928 0.06351352 0.036485724 -0.12538259
000200 ca 2e 12 bc 89 5f 9c bd 2e d0 02 bd ac 3c 54 bd
       -0.008922288 -0.076354094 -0.031936817 -0.051815674
000210 1d 95 40 bd 33 ff ae bd a1 2c 0c 3c 5a bd d5 3d
       -0.047017206 -0.08544769 0.008555562 0.104365066
000220 0e 6e 0b 3c 9c ed 1d 3e 8c 39 35 3d 46 02 6c 3d
       0.008510126 0.15422672 0.044244334 0.057619356
000230 ba 6a 15 3d 01 db 83 3d 6d 9b ae bc db ac 37 3d
       0.036478736 0.06438256 -0.021314347 0.044842582
000240 e7 b4 1a bd ff de 95 bc 1a cd 2f 3d e1 2c 35 3d
       -0.03777018 -0.01829481 0.04292021 0.044232253
000250 9f 28 38 3d 21 31 78 3d c5 1f c7 3d 01 27 d0 b9
       0.044960614 0.060593728 0.097228564 -0.00039701912
000260 b3 b3 f2 3d 8f 11 b9 bd 03 25 d7 bd 60 5e c9 3d
       0.11850681 -0.09036552 -0.10505106 0.09832454
000270 f2 66 95 3d 88 8e bb bc 36 26 ba bd 87 55 9c 3c
       0.07295026 -0.022895113 -0.090893194 0.019083751
000280 d8 08 c6 3d b8 95 ce 3c 8a 88 40 bc 1e 9f 0f bd
       0.096696556 0.025217876 -0.011751303 -0.035063855
000290 7d a4 82 bd 0a 3f 25 3c 59 e8 08 3c ed 41 0f be
       -0.0637903 0.01008583 0.008356177 -0.13989992
0002a0 b2 bf 53 3d 55 50 40 bd f6 c3 ef ba 90 ae 63 3e
       0.051696487 -0.04695161 -0.0018292654 0.22234559
0002b0 f1 0a 6b bc a4 4a e3 3c 0e 84 a5 3d 4a 06 6e bc
       -0.01434587 0.027745552 0.08081828 -0.014527867
0002c0 1b 66 fa bd 09 ed 08 3c 10 f0 f8 bb 65 52 b4 bd
       -0.12226506 0.008357295 -0.007596977 -0.08804778
0002d0 8d 02 d5 bc 01 fb 56 bd 7a 49 20 3e 99 86 b8 bd
       -0.026002193 -0.05248547 0.15653029 -0.090100475
0002e0 45 ce 10 3e 3f 33 1f be 23 a3 ba 3d bb 51 19 bd
       0.14141186 -0.15546893 0.09113147 -0.03743146
0002f0 e7 54 f3 3c 9a c3 29 3d 6b 8c eb 3c cb 67 29 3d
       0.02970357 0.041446306 0.02875348 0.04135875
000300 f1 4d 9f bc eb ab a0 bd 59 3f f5 3b 28 07 ac 3b
       -0.019446345 -0.07845291 0.0074843583 0.0052498765
000310 47 af 13 bd ac 73 26 bd fc 4a 9a 3d ce 5a ec 3c
       -0.03605583 -0.040637657 0.075338334 0.028851893
000320 ca eb c2 3d ea 5f 0c be 0f 5d c3 bd 86 c2 d1 3d
       0.095176294 -0.13708463 -0.09539234 0.102421805
000330 d8 9f 09 bd a1 ce 39 bd 0d 70 d8 3d c6 01 4a bc
       -0.033599705 -0.045363072 0.10568247 -0.012329524
000340 33 22 c1 bd 5d a0 2f 3d 52 49 be bd ff d4 46 be
       -0.09430351 0.042877544 -0.092913285 -0.19417189
000350 f3 86 ef bd 3b d6 94 3d 25 7b c4 3a 7b 9c 95 3d
       -0.116956614 0.07267424 0.0014990313 0.07305237
000360 6b e9 cb 3c 08 ec a1 3d a0 8a ae bd e6 de ed 3d
       0.024891576 0.079063475 -0.08522534 0.1161478
000370 c1 05 02 be 94 46 90 bd de 68 b0 bb 1c 65 86 3d
       -0.12697507 -0.07044712 -0.005383595 0.06562254
000380 a7 f8 d0 3d 9c 67 4b bd 6c 52 f8 3d e5 b0 62 3d
       0.10203677 -0.049659356 0.12125096 0.05534448
000390 4e 28 64 3b 5e d9 23 3e 5e b8 a9 39 da aa 79 3d
       0.0034814063 0.16000888 0.00032371556 0.060953952
0003a0 c1 22 34 bd 1f 09 70 be 20 53 1f bd c7 c5 d1 bd
       -0.043978456 -0.2344098 -0.038897634 -0.10242801
0003b0 e4 8e 00 bd 48 35 09 3e 46 35 3c bd 3c 7c 61 ba
       -0.03138627 0.13399231 -0.045949243 -0.0008601581
0003c0 b6 9f 6c bd 5a 84 40 3b be d4 fa bb b2 04 cf 3d
       -0.0577695 0.0029375763 -0.0076547554 0.101083174
0003d0 46 2e 9a bc 0b be 27 3d 38 1f f9 bb 4d 48 c7 bb
       -0.018820893 0.040952723 -0.0076025985 -0.006081617
0003e0 d4 b0 8f bc e8 d0 17 bd 26 b0 86 bc a5 7e ac 3d
       -0.017540373 -0.037064463 -0.016441416 0.08422593
0003f0 bf 2f c5 3d 0e bc 42 3d da 3e c4 bc 08 b7 ce 3d
       0.096282475 0.047542624 -0.023955751 0.10093504
