Results/test12/Doughnut/checkpoint.pt (torch, 223239 bytes, 11 tensors)

network_body._body_endoder.seq_layers.0.weight f4 [128, 78]
00000000: e70c 8abd deba 15be ca53 2e3d f649 d63d
00000010: fc59 bc3d 0386 163d e6e5 a63d ee93 acbb
00000020: 90c4 86bc 0b41 1bbe 3a78 013e 4d73 3c3e
00000030: 3997 c0bd f05f 09be 355b eabc 1a0d 02bb
00000040: 8853 d73c d227 ca3d 4e6f 493d 02ae 413e
00000050: 3c1f f1bc 5196 8ebd 0fea 0ebd 96ab a2bc
00000060: 092b e0bd 5436 663d 36a0 173e 2bd4 95be
00000070: 907b ebbc f6a0 573e 9668 a43d b46c c9bd
00000080: fb5d 353e a1e1 e4bb d47f d13c 751b e83d
00000090: 1da4 1bbe 5fd6 133e 7641 a73d d93f 38be
000000a0: 0701 3ebd 46b0 873d 1d08 863c 7a75 d93d
000000b0: bee9 6ebd 3f8d a2bd 5413 8ebe 01ea 1d3d
000000c0: db55 26bc 44db cf3d 5518 84bd d6f5 08bb
000000d0: a6d9 3fbc 7de1 9a3e 6c11 f9bd e383 d7bd
000000e0: 5fe0 0abe d145 5b3d 90db 56be e394 09bd
000000f0: 1a46 183e 3898 9b3c 1c5e 8e3d 4332 133e
00000100: 1538 42be cd61 ecbd 5f9e 55bd b253 89be
00000110: 57f7 cc3d aabb 613c 75e1 a1bd 5b2d 71bd
00000120: 7f98 093d 9eb8 84bc ddd1 af3a d41e 193d
00000130: 86db da3b 5a71 173e 8008 dabd ea57 fb3c
00000140: a676 e13d 89c4 6abd 849a e13d a765 733d
00000150: 7a05 b53c d5bd 033d 1724 e3bc c6b2 fbbd
00000160: 6a76 bebd 72fd 84bd 62c3 be3d 7c2e acbe
00000170: 5e18 64bd 5ed4 b8bd 7626 20bd 68f4 85bd
00000180: 0462 383d 0175 0fbd 99ba 14bb 4414 8d3c
00000190: 910f 88be 4f92 4c3d b90f 78bd 890f ea3b
000001a0: 5c58 55be 2cd8 04be 74b7 03be 9cbd f63d
000001b0: a3b5 33be 07da 8c3d 90ab e63d 29a6 9dbe
000001c0: 3501 e03d b3ad c9bd f666 9d3d d834 ff3d
000001d0: a435 5bbb a612 b2bd 672d e03d b16a 4d3e
000001e0: 8211 84bc 5eeb 743c 5ddb c03b 4c57 24bd
000001f0: 7e31 373e 93e7 39bd c6e2 10be adb3 53bd
00000200: 180a 213d ea5c 13bd 9802 1f3d c60f 7dbd
00000210: abeb f1bd 0ef9 1f3e 2aba d43c 2e0e f8bd
00000220: 38b2 d4bd 02fb a5bc 23b7 d23d 36a3 6a3d
00000230: a036 3c3e 6cf2 bf3d 1bf8 f7bd 65b6 bcbd
00000240: 5f52 5c3c 1943 333d 800e eabd 443b a43d
00000250: 1cca 7a3c de33 74bd e312 0abd c413 cbbb
00000260: e98e ac3d 057b ac3b d347 5bbd ad42 debd
00000270: 3a90 aabd 3fb9 dc3d 532e c23d 5636 f6bd
00000280: 3a5e da3b e012 a73e 5425 c53d 4fe4 dcbd
00000290: 0ca4 3a3b b3d7 a3be 0827 6f3d a431 d33d
000002a0: 64f6 46bc 1593 97bd 32fb 28bd c46e f13c
000002b0: 734a c9bd 2103 283e c01c 4c3d 1178 ddbd
000002c0: 5fa7 133d 2100 b8bd ee43 413d 2dd9 173d
000002d0: 8a59 cdbd 62a3 b43d 2d9e d7bd 5e82 88bd
000002e0: 7d17 0f3e df93 073e 0592 b9bc 7dd7 ec3d
000002f0: 9328 063e f595 f53c e20c dc3d 7e5b 67bc
00000300: 6122 eabd b0a5 573d dccc 013e c029 a33e
00000310: 64b3 24be e248 aebd 7553 4bbe ec08 0f3d
00000320: 7b14 d5bd ceea 5cbd 5fa1 0ebe a803 083d
00000330: 79de d43d e220 05bc 9552 cb3d 8213 c6bd
00000340: 3728 45bd 1685 2cbe 6169 51be a776 1f3d
00000350: 6644 2abd b324 34ba 0ed8 0b3c 71c5 f3bd
00000360: a3ea fb3c 2f02 93bd a60f 10be ce15 82bd
00000370: 0074 ca3d 3622 b7bd 96a2 42bc 5ae4 063e
00000380: 4dd2 6d3c 48d9 34be 81fb 5d3d f843 223d
00000390: 6ffb a5bd b744 703c 1b4b cb3d 8a16 e8bc
000003a0: 7fe7 6cbd 854d 65bc c358 bf3d da2c 9ebd
000003b0: 470e 403e f76e f4bd 3cff a43b 0500 18bc
000003c0: a80b 903d a1f9 273c a353 da3d 960f 653d
000003d0: b3b4 e0bc 1410 ea3a a933 06be 968d b6bd
000003e0: 332f be3d 66c5 a53d 396e 0d3d 3bc1 aa3d
000003f0: 1bbf 70bd f468 7abb 10f5 d13c 1346 cc3d
-0.06740742 -0.14622065 0.042560376 0.10463326 0.09196851 0.036748897 0.081493184 -0.005266658
-0.01645115 -0.1516153 0.12643519 0.18403359 -0.094038434 -0.13415504 -0.028607944 -0.0019844235
0.026284948 0.09870876 0.049178414 0.18914035 -0.029433839 -0.06962264 -0.034891184 -0.01985721
-0.10945708 0.056204155 0.1480721 -0.29263434 -0.028745443 0.21057495 0.08027761 -0.098351866
0.17711632 -0.006984905 0.025573649 0.11333362 -0.15199323 0.14437245 0.081667826 -0.17993106
-0.0463877 0.06625418 0.01636129 0.1061811 -0.058328383 -0.07937097 -0.2774912 0.03855324
-0.0101523055 0.101492435 -0.064499535 -0.0020898483 -0.011709606 0.3025016 -0.12161526 -0.10523202
-0.13562153 0.05353338 -0.20982194 -0.033589255 0.14870492 0.018993482 0.06951544 0.14374642
-0.18966706 -0.115420915 -0.052152988 -0.26821667 0.10008114 0.013777653 -0.07904331 -0.058881145
0.033592697 -0.016201314 0.0013413985 0.037382916 0.0066790013 0.14789334 -0.106461525 0.03068157
0.110089585 -0.057316337 0.110158 0.059423115 0.022097338 0.03216346 -0.02772717 -0.12289958
-0.092999294 -0.06493653 0.0931461 -0.33629215 -0.0556873 -0.09024881 -0.03909918 -0.065407574
0.04501535 -0.035023693 -0.0022694229 0.017221577 -0.26574376 0.04994422 -0.06056187 0.007142965
-0.20834488 -0.12973088 -0.1286295 0.12047884 -0.17549758 0.06877523 0.11263192 -0.30790833
0.1093773 -0.098475836 0.07685654 0.12461251 -0.003344872 -0.08694963 0.1094616 0.20060231
-0.01612163 0.014948694 0.005885525 -0.040122315 0.17889974 -0.045386862 -0.14149007 -0.051685024
0.039316267 -0.03597728 0.038820833 -0.06178262 -0.11812528 0.1562235 0.025967676 -0.121120796
-0.10385555 -0.020261291 0.10288837 0.057284556 0.18380213 0.0937241 -0.12107869 -0.092144765
0.013447373 0.04376516 -0.11428547 0.080191165 0.015306976 -0.059619777 -0.033709418 -0.0061974246
0.084256954 0.0052636885 -0.053535294 -0.10852561 -0.0832829 0.107775204 0.09481492 -0.120220825
0.0066640647 0.32631588 0.096262604 -0.10785734 0.0028479127 -0.32000503 0.058386832 0.103122026
-0.012143705 -0.074011005 -0.041255184 0.029471762 -0.09828653 0.16407444 0.049832106 -0.108139165
0.03604829 -0.089843996 0.047183923 0.03707235 -0.10026844 0.08820225 -0.105282165 -0.066654906
0.13973804 0.13240002 -0.022652635 0.11564539 0.13101415 0.029978732 0.10744645 -0.0141209345
-0.114323385 0.052648246 0.12675804 0.3186779 -0.16084057 -0.08509995 -0.19856055 0.034920618
-0.10404297 -0.053934865 -0.13928746 0.033206612 0.10393996 -0.008125516 0.09927861 -0.096716896
-0.048134055 -0.16847643 -0.20450355 0.038931515 -0.041569136 -0.00068719237 0.008535398 -0.11902893
0.030751532 -0.07178151 -0.1406847 -0.06351815 0.098854065 -0.08942072 -0.011879584 0.13173047
0.014515472 -0.17661011 0.05419493 0.0396156 -0.08104598 0.01466482 0.099264346 -0.02833106
-0.05783796 -0.013995533 0.09343102 -0.077233985 0.18755446 -0.11935227 0.005035309 -0.009277348
0.07033473 0.010252387 0.10660484 0.055923067 -0.027429914 0.0017857575 -0.13105644 -0.08913724
0.09286346 0.080942914 0.034528945 0.08337637 -0.058776002 -0.003820953 0.02562955 0.09974303

network_body._body_endoder.seq_layers.0.bias f4 [128]
00000000: 0000 0000 0000 0000 0000 0000 0000 0000
00000010: 0000 0000 0000 0000 0000 0000 0000 0000
00000020: 0000 0000 0000 0000 0000 0000 0000 0000
00000030: 0000 0000 0000 0000 0000 0000 0000 0000
00000040: 0000 0000 0000 0000 0000 0000 0000 0000
00000050: 0000 0000 0000 0000 0000 0000 0000 0000
00000060: 0000 0000 0000 0000 0000 0000 0000 0000
00000070: 0000 0000 0000 0000 0000 0000 0000 0000
00000080: 0000 0000 0000 0000 0000 0000 0000 0000
00000090: 0000 0000 0000 0000 0000 0000 0000 0000
000000a0: 0000 0000 0000 0000 0000 0000 0000 0000
000000b0: 0000 0000 0000 0000 0000 0000 0000 0000
000000c0: 0000 0000 0000 0000 0000 0000 0000 0000
000000d0: 0000 0000 0000 0000 0000 0000 0000 0000
000000e0: 0000 0000 0000 0000 0000 0000 0000 0000
000000f0: 0000 0000 0000 0000 0000 0000 0000 0000
00000100: 0000 0000 0000 0000 0000 0000 0000 0000
00000110: 0000 0000 0000 0000 0000 0000 0000 0000
00000120: 0000 0000 0000 0000 0000 0000 0000 0000
00000130: 0000 0000 0000 0000 0000 0000 0000 0000
00000140: 0000 0000 0000 0000 0000 0000 0000 0000
00000150: 0000 0000 0000 0000 0000 0000 0000 0000
00000160: 0000 0000 0000 0000 0000 0000 0000 0000
00000170: 0000 0000 0000 0000 0000 0000 0000 0000
00000180: 0000 0000 0000 0000 0000 0000 0000 0000
00000190: 0000 0000 0000 0000 0000 0000 0000 0000
000001a0: 0000 0000 0000 0000 0000 0000 0000 0000
000001b0: 0000 0000 0000 0000 0000 0000 0000 0000
000001c0: 0000 0000 0000 0000 0000 0000 0000 0000
000001d0: 0000 0000 0000 0000 0000 0000 0000 0000
000001e0: 0000 0000 0000 0000 0000 0000 0000 0000
000001f0: 0000 0000 0000 0000 0000 0000 0000 0000
0.0 0.0 0.0 0.0 0.0 0.0 0.0 0.0
0.0 0.0 0.0 0.0 0.0 0.0 0.0 0.0
0.0 0.0 0.0 0.0 0.0 0.0 0.0 0.0
0.0 0.0 0.0 0.0 0.0 0.0 0.0 0.0
0.0 0.0 0.0 0.0 0.0 0.0 0.0 0.0
0.0 0.0 0.0 0.0 0.0 0.0 0.0 0.0
0.0 0.0 0.0 0.0 0.0 0.0 0.0 0.0
0.0 0.0 0.0 0.0 0.0 0.0 0.0 0.0
0.0 0.0 0.0 0.0 0.0 0.0 0.0 0.0
0.0 0.0 0.0 0.0 0.0 0.0 0.0 0.0
0.0 0.0 0.0 0.0 0.0 0.0 0.0 0.0
0.0 0.0 0.0 0.0 0.0 0.0 0.0 0.0
0.0 0.0 0.0 0.0 0.0 0.0 0.0 0.0
0.0 0.0 0.0 0.0 0.0 0.0 0.0 0.0
0.0 0.0 0.0 0.0 0.0 0.0 0.0 0.0
0.0 0.0 0.0 0.0 0.0 0.0 0.0 0.0

network_body._body_endoder.seq_layers.2.weight f4 [128, 128]
00000000: 4697 bbbd f255 4cbe 06c1 b6bd dbb0 3ebe
00000010: bd92 013e d925 803e 8783 c7bd 4fef 09be
00000020: 6093 753d f9fe cb3d a8f5 d13b 27be bf3d
00000030: f462 c5bd 6e4c adbd 6443 e13d f318 bd3d
00000040: 8f53 48bd 7d7f 1e3d 46c2 97bc 9956 c63d
00000050: 5dde f33b a2f6 29be 6832 2ebe 047b a03c
00000060: 2959 88bc 11a6 523b a8bf afbd 62d7 ec3d
00000070: 230c b83d bcec e7bc 4314 a43d 6fb2 753d
00000080: 37fb 1c3e 57fc 903d 6f46 8a3d d8c7 dc3c
00000090: d007 cebd 8f78 3fbe 99fd ad3c 476a 7a3c
000000a0: 2c75 9fbc 0241 2d3d 6774 943d c122 68bd
000000b0: 0354 c53d 1a56 4f3c 8f2d 1cbe 432b 3abc
000000c0: f415 063e c06a 6c3e 243e 1f3e a05f 623e
000000d0: 7f6a d8bd c3e1 e43c 8447 483e 6f69 15bd
000000e0: 9f87 cf3d 219e 103d 5e1a ce3d 3807 96bc
000000f0: 9409 713d d543 4b3d 15c8 d6bd 9831 293d
00000100: 497b 6639 a3b6 c93d 8e95 c33d 1712 b13c
00000110: c4d3 863c 45cc 173b 6eb2 74bd d619 d73d
00000120: 9fce 093d 71a9 503d be7f a0bd 9672 c3ba
00000130: 4094 213d 6fee 11be a680 943d e480 0a3c
00000140: 5142 0bbe 284c ddbc 71db bfbd 9272 e9bd
00000150: 62b9 b53c 93a0 bb3d 755b c4bd 7984 a6ba
00000160: e524 223d 7068 aa3c d7f0 3ebd a3d7 073d
00000170: 9454 533e f998 e1bd 3271 113e 5d01 b1bd
00000180: f113 843b 0db4 23bd e6c3 b13d d806 a2bc
00000190: 5035 d2bd 21c2 4d3d 27e9 df3d e6a6 cb3d
000001a0: 88f6 3b3c 2811 12bd 042f b83c 4ca8 5d3c
000001b0: 69ba de3d 8511 24bd 3b0d 14bb b0c3 273c
000001c0: 7902 bebd 20f7 85bd 5d42 8bbb 81ab d33d
000001d0: 4e09 bfbd c2e2 e43d d0b6 213e 8739 6dbd
000001e0: edb7 3cbe a992 ab3d 2b21 c8bd cce8 0e3e
000001f0: 7089 853d 46af 0e3d 686e 903d b7b9 523e
00000200: f5a5 8dbd 1e2d cfbd 457c 233d c2a3 b0bd
00000210: a5b0 f7bd 940b 5fbe 4841 2b3b a422 15bd
00000220: 30fa d9bd 15fe fd3d 67f5 16bc eeb1 23be
00000230: c8aa acbb d575 463d 8edb 25bd 1f95 8abc
00000240: 639f 3d3e 6ae0 d23d 70e2 bcbc 06d2 873d
00000250: b118 e9bd 32c2 b03d 4259 e1bb 13be 4abe
00000260: cf84 943c da0b 9abd 48ab 09be 311c b53d
00000270: 8265 b0bd 933a f33c ff0d a7bd 8f86 98bd
00000280: cd0f 1c3e 150c a13d 78eb ac3d 6579 dcbc
00000290: 91ca 6abc ec6f 883d 947e b63d fc21 2cbd
000002a0: e10b f53d d8ab 04bd cbac 98bc 5f91 cebc
000002b0: a00e 943c 5caa 753d 1337 da3d 50a8 0c3e
000002c0: 7b8e edbc d63b 21bd 0d32 04bd fc52 f6ba
000002d0: 89f7 703e 3a1e 0c3d d269 b3bd 413d af3c
000002e0: 3eac 96bd c959 f8bc a0ff b73d c87d 083e
000002f0: e238 dabd 8e45 5cbe 35ba 943b 2108 9d3c
00000300: 82da 3dbd 6ca3 ec3d bda3 b23b 9c82 ca3d
00000310: e1c7 b93d b12a e63d 3839 973d bcc2 6fbd
00000320: 4eea 42bd 03e1 d8bc e7af 023c d180 3d3d
00000330: 7360 5cbc 251a 94bd 1339 fa3c a61d 59bd
00000340: d0db 43bd d402 8c3c 666b b13d 509b 803c
00000350: 2e19 aa3c fe47 4f3e a8bc cd3c 9eb3 2bbe
00000360: ba10 de3d 0baf 17bd 097d b5bc 1dd7 34bb
00000370: c511 71bb 8fc8 653d 76a7 6bbe 2207 10bd
00000380: 835c 3fbc b760 cf3d 710f 5f3d 0f15 95bb
00000390: c94f 99bb 929e 073c 8eb6 9d3d acd1 10bd
000003a0: 7a5a 0abe cd70 ce3c 0fab adbd f47b 44be
000003b0: 1823 153d 244f 71be 79a7 0f3d 0b5e ecbd
000003c0: 0d20 373e 388f 0c3d a619 eabd 3c4f f3bd
000003d0: 326e 27be 9306 38bd e726 853c b995 5ebd
000003e0: fbd9 f4bd 9095 ee3d 4a04 34bc f726 d23c
000003f0: 184f 44bd ab57 aa3d bddd 1d3d fc77 e93d
-0.091597125 -0.1995466 -0.08923535 -0.18622153 0.12653632 0.25028875 -0.09741884 -0.13470195
0.059955 0.099607415 0.0064074583 0.093624406 -0.096380144 -0.084618434 0.10999182 0.09233274
-0.048907813 0.0386958 -0.018525254 0.09684486 0.0074422793 -0.16597989 -0.17011416 0.019589908
-0.016644077 0.003214244 -0.085814774 0.115645185 0.0898669 -0.028311126 0.08011677 0.05998462
0.15330206 0.0707938 0.067517154 0.026950762 -0.10060084 -0.18698333 0.021239089 0.015284128
-0.019465052 0.042298324 0.072487645 -0.05667377 0.096351646 0.012654806 -0.15251754 -0.011362853
0.13094312 0.23087597 0.15551049 0.2210679 -0.105671875 0.027939683 0.19558531 -0.036477502
0.101332895 0.035307053 0.10063623 -0.018313989 0.058847025 0.049625237 -0.10487381 0.041307062
0.00021980437 0.09849288 0.0955001 0.021615071 0.0164584 0.0023162526 -0.059740476 0.10502975
0.033644315 0.050942842 -0.07836865 -0.0014911469 0.039448023 -0.14251111 0.072511 0.0084535815
-0.13599516 -0.027013853 -0.09368027 -0.11398806 0.022183124 0.091614865 -0.095877565 -0.0012704275
0.039585967 0.020801753 -0.0466164 0.03316463 0.20637733 -0.11015505 0.14203337 -0.08642838
0.0040306975 -0.03996663 0.08679943 -0.019778654 -0.10264075 0.050233964 0.10933142 0.09943943
0.011472352 -0.035660893 0.022483356 0.013528895 0.10875399 -0.04005577 -0.0022590894 0.010239527
-0.09277815 -0.06541276 -0.0042498545 0.10335446 -0.093279466 0.11176063 0.15792394 -0.05791619
-0.18429537 0.083775826 -0.09771951 0.13955992 0.06520355 0.034835123 0.07052308 0.20578657
-0.069164194 -0.10116027 0.039913435 -0.08624984 -0.12094239 -0.2178176 0.002613144 -0.03640999
-0.106434226 0.12401978 -0.009213782 -0.15985844 -0.005269382 0.048452217 -0.040492587 -0.01691681
0.18517832 0.1029671 -0.023057193 0.06631856 -0.11381663 0.0863079 -0.0068770954 -0.1979907
0.018129734 -0.07521792 -0.13444245 0.08843268 -0.08613111 0.029691016 -0.081569664 -0.0744754
0.15240403 0.078636326 0.084433496 -0.026913354 -0.014330522 0.066619724 0.089108616 -0.042024598
0.11965156 -0.032390445 -0.018637082 -0.025215803 0.01807338 0.05997692 0.10655036 0.13736081
-0.028998604 -0.039363705 -0.032274295 -0.0018793042 0.23531927 0.034208514 -0.08760418 0.021391513
-0.07357071 -0.03031625 0.089843035 0.13329232 -0.10655381 -0.21510908 0.004538799 0.019168915
-0.046350963 0.11554608 0.005451648 0.09888193 0.09071327 0.112386115 0.073839605 -0.058535323
-0.04758673 -0.026474481 0.007976509 0.046265427 -0.01345073 -0.07231549 0.030544793 -0.05300679
-0.04781705 0.017091192 0.08663063 0.015699059 0.02076396 0.20242307 0.025114372 -0.16767737
0.10843034 -0.03703217 -0.022154348 -0.0027594038 -0.0036784273 0.05609947 -0.230131 -0.035163052
-0.011679771 0.10125869 0.054458085 -0.0045496295 -0.0046787006 0.008277552 0.07700835 -0.03535621
-0.13511077 0.025200272 -0.084798925 -0.1918791 0.03641042 -0.23565346 0.035071824 -0.11541375
0.1788332 0.03431627 -0.11430673 -0.11880347 -0.1635063 -0.044928145 0.016253902 -0.054342005
-0.11955639 0.116496205 -0.010987351 0.025653346 -0.047926992 0.083175026 0.038541544 0.11399838

network_body._body_endoder.seq_layers.2.bias f4 [128]
00000000: 0000 0000 0000 0000 0000 0000 0000 0000
00000010: 0000 0000 0000 0000 0000 0000 0000 0000
00000020: 0000 0000 0000 0000 0000 0000 0000 0000
00000030: 0000 0000 0000 0000 0000 0000 0000 0000
00000040: 0000 0000 0000 0000 0000 0000 0000 0000
00000050: 0000 0000 0000 0000 0000 0000 0000 0000
00000060: 0000 0000 0000 0000 0000 0000 0000 0000
00000070: 0000 0000 0000 0000 0000 0000 0000 0000
00000080: 0000 0000 0000 0000 0000 0000 0000 0000
00000090: 0000 0000 0000 0000 0000 0000 0000 0000
000000a0: 0000 0000 0000 0000 0000 0000 0000 0000
000000b0: 0000 0000 0000 0000 0000 0000 0000 0000
000000c0: 0000 0000 0000 0000 0000 0000 0000 0000
000000d0: 0000 0000 0000 0000 0000 0000 0000 0000
000000e0: 0000 0000 0000 0000 0000 0000 0000 0000
000000f0: 0000 0000 0000 0000 0000 0000 0000 0000
00000100: 0000 0000 0000 0000 0000 0000 0000 0000
00000110: 0000 0000 0000 0000 0000 0000 0000 0000
00000120: 0000 0000 0000 0000 0000 0000 0000 0000
00000130: 0000 0000 0000 0000 0000 0000 0000 0000
00000140: 0000 0000 0000 0000 0000 0000 0000 0000
00000150: 0000 0000 0000 0000 0000 0000 0000 0000
00000160: 0000 0000 0000 0000 0000 0000 0000 0000
00000170: 0000 0000 0000 0000 0000 0000 0000 0000
00000180: 0000 0000 0000 0000 0000 0000 0000 0000
00000190: 0000 0000 0000 0000 0000 0000 0000 0000
000001a0: 0000 0000 0000 0000 0000 0000 0000 0000
000001b0: 0000 0000 0000 0000 0000 0000 0000 0000
000001c0: 0000 0000 0000 0000 0000 0000 0000 0000
000001d0: 0000 0000 0000 0000 0000 0000 0000 0000
000001e0: 0000 0000 0000 0000 0000 0000 0000 0000
000001f0: 0000 0000 0000 0000 0000 0000 0000 0000
0.0 0.0 0.0 0.0 0.0 0.0 0.0 0.0
0.0 0.0 0.0 0.0 0.0 0.0 0.0 0.0
0.0 0.0 0.0 0.0 0.0 0.0 0.0 0.0
0.0 0.0 0.0 0.0 0.0 0.0 0.0 0.0
0.0 0.0 0.0 0.0 0.0 0.0 0.0 0.0
0.0 0.0 0.0 0.0 0.0 0.0 0.0 0.0
0.0 0.0 0.0 0.0 0.0 0.0 0.0 0.0
0.0 0.0 0.0 0.0 0.0 0.0 0.0 0.0
0.0 0.0 0.0 0.0 0.0 0.0 0.0 0.0
0.0 0.0 0.0 0.0 0.0 0.0 0.0 0.0
0.0 0.0 0.0 0.0 0.0 0.0 0.0 0.0
0.0 0.0 0.0 0.0 0.0 0.0 0.0 0.0
0.0 0.0 0.0 0.0 0.0 0.0 0.0 0.0
0.0 0.0 0.0 0.0 0.0 0.0 0.0 0.0
0.0 0.0 0.0 0.0 0.0 0.0 0.0 0.0
0.0 0.0 0.0 0.0 0.0 0.0 0.0 0.0

action_model._discrete_distribution.branches.0.weight f4 [2, 128]
00000000: 92df 84bb 7b56 bcbb 8b6a 8c3c 60f0 ddbb
00000010: 72a6 20bc 5129 91ba fcab 1b3a 33e8 25bc
00000020: 70a8 613c c275 1ebb 08f5 69bb 4759 103c
00000030: ea85 6cbc ac89 4837 ff7d 00bb bb38 273c
00000040: 6a3b 713c e418 013c 80a2 6fbc bdfb e3bb
00000050: e70c b33b 958d eabb ff9c 0cbb 00f0 6f3c
00000060: 0568 36bc 1339 2fbc c203 3f3c d33b 103c
00000070: c43a a53b 41c7 8dbc 3733 efbb 1b53 5bbc
00000080: dacc a9bb 3220 62bc c725 9fbc f72a 89bb
00000090: 4dc2 ad3a dda6 cd3a edd2 d1bb 73a1 d9bb
000000a0: d58f fabb e8a5 19bb eb9f 973b 494c 123b
000000b0: 44e6 b5bb e3ec f73a df8c ac3b 7fc4 a3bb
000000c0: ef41 133c e061 123b 8d85 3bbc 53fb 26bb
000000d0: 931a 08bc ec6a 0ebc 9b36 363b 8fde 97bc
000000e0: 0717 7abc 2922 043c 4713 91bc 9e1c 483c
000000f0: 4bed 5339 5b95 f93a 95b0 623b 603f 7bbc
00000100: 4d22 66bb 6e60 453b 8720 4e3c 3bd8 b5bb
00000110: c086 283c e038 903a c3b5 88bc bd69 883b
00000120: f2c8 e53b 63f2 93bc 67aa bf3b 48cc 50bc
00000130: 184c 39bc da30 ce3b b333 213c 85f0 06bb
00000140: 67b5 24ba 6517 62bb 14d5 aa3c d25a 2e3c
00000150: 8df6 073c e35a 36bc 2205 863b b263 d23b
00000160: f293 583b f8b5 73bc 1bf6 3abb dd2e 583c
00000170: 87fa 7bba 4815 733b b02e 9dbb 2299 2cbc
00000180: 6b7f debb 4c02 adbc 5a07 4a3c f518 4dbb
00000190: c30d acbc da8d 71bc 489c 7a3b fa7c f73b
000001a0: fcea a4ba b639 a2bb 0cbf 9fbb bc41 15bc
000001b0: 329e 103c 4225 713c 8e7d 1d3c 9925 483c
000001c0: b489 01bc 9502 4ebc 8270 a43b 1612 b63c
000001d0: f95e b73b fff1 90bb 4b5d 07bc 378c eabb
000001e0: 9833 65ba 1bb2 ec3b 9ac7 07bb 8b6d 67bb
000001f0: 4771 fb39 3e9b 30bb cb7c e5bb 5335 49bb
00000200: 2a23 653c cd03 ddbb 67cc 47bc 3981 c2bb
00000210: 1777 d53b f2b5 6a3b 78a5 2d3c ce03 a33b
00000220: 8795 ef3b 2068 82ba 6cb1 c93b 6e54 9f39
00000230: af9e ec3b 913d ca3b 1652 263b 9d41 a13b
00000240: cd67 d23b 1cdf b03c 67f4 15bc efcc 63bc
00000250: f363 66ba 2e7d 1c3c 5651 173b 7b9f 0c3b
00000260: 3807 50bb cb72 94ba 9fb3 0ebc e3c6 f7b9
00000270: 478d 163c b7d4 94bb 7fc5 aebc 6154 06bc
00000280: bddd 40bb dfcb ae3c 8b93 bcbb e282 d23c
00000290: 0197 3fbc 2b58 64bc 83a7 0dbc d7df 66bc
000002a0: dfce 433b 4ad1 f3ba 308f bdbb 3299 a0bc
000002b0: 3b7a ca3b 8f36 053c afef b23a 8c5c 023c
000002c0: e397 6dbc 5c40 893b 7b94 e9ba 1eb6 10bc
000002d0: 54ed 1dbc 534d 0cbb 95be 083b 73dd b73b
000002e0: 8b4a 38b7 e897 5abc f6f1 39bb 3875 c7b9
000002f0: 10a4 f0bb 111a 263c 8fe5 fe3b 57f3 abbb
00000300: 35cb 99bc 2dd7 373c ed15 cdba 1027 0c3c
00000310: fefd 3cbc 9246 4f3c f802 063b 8968 963b
00000320: 0bd7 08bb 802a 0c3b 55d6 32bc 1b04 5f3a
00000330: 00cf cd3a 6a62 3d3a 8a8e 09ba 7012 ecbb
00000340: 1f3d c63c 17c1 1a3c e801 333c 4a69 363b
00000350: 0178 833c b920 1a3c ab49 9cba fc31 8eba
00000360: 5a9f eabb 43d1 823c 29b3 a0bb fff3 b138
00000370: c78f 783c d60c 83ba e933 27bc 330e b83b
00000380: b77f d83b 3b75 8ebc 587e 7c3b d312 e2bb
00000390: ae15 bd3b 8e26 1bbc 63d3 1a3c 756d a3bc
000003a0: 07e7 35bc cc2e 2a3b c08a f4bb 7b53 1cbc
000003b0: 01b0 003a 461f c6bb c6f3 023b 40c1 1b3c
000003c0: eae0 51ba cd85 753b cf63 37bc 5d18 58bc
000003d0: 6c58 10b8 58ab 0b3c 339b 353b 41cb a63b
000003e0: 4dbe f13b 7fa1 9bba f09d 8ebb 90a2 b6bb
000003f0: da56 d2bb 8ac9 7e3c 6503 fe3b cd39 50bc
-0.004054972 -0.005747614 0.017140647 -0.0067730397 -0.009805309 -0.0011074935 0.00059384084 -0.010126161
0.013773069 -0.0024179076 -0.0035699029 0.008810348 -0.0144362245 1.1952983e-05 -0.001960635 0.010206397
0.014723638 0.00787947 -0.014626145 -0.0069575 0.0054641846 -0.007157991 -0.0021455882 0.014644623
-0.011133199 -0.01069476 0.011658611 0.008803326 0.005042406 -0.017306926 -0.0072998065 -0.013386513
-0.005181891 -0.013801621 -0.019427193 -0.00418603 0.0013256759 0.0015689988 -0.006403318 -0.0066415607
-0.0076465406 -0.0023444835 0.004627218 0.0022323302 -0.0055511314 0.0018915202 0.0052658166 -0.0049977894
0.008987888 0.002233617 -0.011445415 -0.002547939 -0.008307117 -0.008692484 0.0027803543 -0.018538741
-0.015264279 0.008064785 -0.017709387 0.012213854 0.00020210927 0.0019041704 0.0034590114 -0.015334934
-0.003511566 0.003011729 0.012580997 -0.0055494583 0.010286033 0.0011003278 -0.016688233 0.0041629956
0.00701248 -0.018059915 0.005849171 -0.012744017 -0.011309646 0.0062924447 0.009838986 -0.0020590138
-0.00062831346 -0.0034498808 0.020853557 0.01064177 0.008298528 -0.0111300675 0.0040899673 0.006420576
0.0033047167 -0.014874928 -0.0028528038 0.013194767 -0.00096122216 0.0037091542 -0.0047968253 -0.010534557
-0.0067900917 -0.02111926 0.012330854 -0.0031295393 -0.021002656 -0.014743293 0.0038240124 0.00755274
-0.0012582238 -0.0049507273 -0.0048750695 -0.009109911 0.008826779 0.014718356 0.009612454 0.012215995
-0.007906366 -0.012573858 0.005018295 0.02222542 0.0055960384 -0.0044233794 -0.008261989 -0.007157828
-0.0008743345 0.0072233803 -0.0020718337 -0.0035313095 0.0004795885 -0.0026948 -0.007003402 -0.003070195
0.013985435 -0.006744838 -0.012194729 -0.0059358147 0.0065144408 0.0035814014 0.010598533 0.004974819
0.007311526 -0.0009949245 0.0061551835 0.00030389748 0.007221065 0.00617189 0.0025378517 0.004921152
0.0064210654 0.021590762 -0.009152508 -0.01390384 -0.00087886973 0.00955133 0.0023089251 0.0021457362
-0.0031742584 -0.0011325715 -0.008709817 -0.00047259693 0.009188957 -0.004541959 -0.021334408 -0.008198828
-0.0029429041 0.021337448 -0.005754893 0.025697175 -0.011693717 -0.0139370365 -0.008645895 -0.0140914535
0.0029877943 -0.0018601802 -0.0057848915 -0.0196043 0.006179122 0.008130684 0.0013651754 0.007956635
-0.014501545 0.0041885804 -0.001782074 -0.008832483 -0.009639103 -0.0021408394 0.002086555 0.0056111156
-1.09846105e-05 -0.013341881 -0.002837298 -0.00038043573 -0.0073437765 0.010138051 0.0077788304 -0.005247514
-0.018773654 0.0112207355 -0.0015646793 0.008554235 -0.011535166 0.012651103 0.0020448547 0.0045900983
-0.0020880129 0.0021387637 -0.010915359 0.00085073867 0.001570195 0.00072244427 -0.0005247375 -0.0072043464
0.024199067 0.00944545 0.010925747 0.0027833753 0.016048433 0.009407216 -0.001192381 -0.0010848637
-0.0071601095 0.015968924 -0.00490417 8.4854655e-05 0.015170998 -0.0009998332 -0.010205247 0.005616927
0.0066070217 -0.017389884 0.0038527455 -0.0068992167 0.0057704067 -0.009469641 0.009449813 -0.019949654
-0.0111024445 0.0025967835 -0.0074628294 -0.009541388 0.0004909039 -0.0060462086 0.0019981726 0.009506524
-0.0008006232 0.0037463785 -0.01119323 -0.013189402 -3.4414625e-05 0.008524738 0.0027710914 0.0050901477
0.007377422 -0.0011873691 -0.0043523237 -0.005573578 -0.006419045 0.01555098 0.0077518695 -0.012709093

action_model._discrete_distribution.branches.0.bias f4 [2]
00000000: 0000 0000 0000 0000
0.0 0.0

network_body._body_endoder.seq_layers.0.weight f4 [128, 78]
00000000: e9c7 25be 59fa 82bd e82f d53c 439c e5bc
00000010: b558 983e bfe0 0dbd a78b ad3b 3913 32be
00000020: 9587 c13e 5d7e bdbd ba1e a2bd 4406 533d
00000030: abf9 4dbe 87d9 023d ee3d dabd f39a 033d
00000040: 7ff3 59bc 953e 1b3c 64a0 aa3d 9ead 87be
00000050: 4910 49bd 1b26 a8bd a95a 403e f9f8 e83c
00000060: e878 943d 0ee5 c5bd cc6f 893c 2c09 2abe
00000070: a682 6ebd 1e68 40bd 3b75 8f3e 4abe fd3d
00000080: 4fa3 913e 5259 94bd 2139 bdbc 31fa 8f3d
00000090: 3e0a 753d 72cd 683e 8f79 93bc eba1 b33d
000000a0: 2516 b33b 5966 d3bd 781f cebd 15ee 0a3d
000000b0: f2a7 7dbd 4d02 443d 4fdc 6ebd 6f08 4bbe
000000c0: 96b2 08be c773 733d 403d 1dbe 777a 033d
000000d0: 958a 0c3e 05bf c83c 7b48 f2bd 807e 903d
000000e0: ec39 893d f59a a8ba d6a7 c7bd 4cec c83d
000000f0: dfe7 6ebd 7be8 dcbd ebcc 073e 720d 8e3d
00000100: 7df5 6fbd b1bb bbbd a8bf 053d 9804 bebd
00000110: 0735 d7bc 82b2 f0bd a554 99bd cf23 fb3d
00000120: 926b e4bd 5252 d23c 6581 82bc 9e9a 48bd
00000130: 8b4b bfbc 9744 ad3d 2233 3dbc a457 29be
00000140: 2ed0 d93d 6429 3fbb a6b0 2dbe 3536 633d
00000150: 151b f43d a365 893a dc66 3e3e 2a1d 3fbe
00000160: 7b20 58bd bdd5 25bd 19fe 383e a4d3 853d
00000170: feb4 15be b143 c43d 066d 0cbe fe77 813e
00000180: 7a43 5abd 6c89 013e a765 cc3d 8d78 7abd
00000190: ffcc 63be e531 013e 9dac 21be 3bfe 403e
000001a0: ed14 f03d 0343 813d c7fa 05bd b425 6fbc
000001b0: 9232 cebd 9bc5 8c3d 0fb2 2abe 1024 50bd
000001c0: 21f7 c83b 7bfa f4bd b65d cd3d 0184 0abd
000001d0: 3217 02be ef7f 4a3e 1ca2 833d 3230 c6bd
000001e0: 86d9 e1bc be49 b7ba f2b4 3fbe 3309 473d
000001f0: 1ec7 fc3d e39c 9cbe 1f54 d43d 3fe3 333d
00000200: 1ca2 49be 5c98 a13d f463 a43b f4f8 22bb
00000210: 1934 243e 6f6e 653c 6cce 6a3e b929 db3c
00000220: 8cda 6e3c 10fa 11be d650 ac3d 152d a53d
00000230: f45c 163e 88cb ad3d 8781 7c3e 2929 98bc
00000240: 580d bdbd cef8 b6be bcc9 a1be 8ed2 f2bd
00000250: 429c a13d 3465 c0bd b650 293e 5db1 fbbd
00000260: 5861 5f3c 644f 443d 0f6e 7dbd b89f 513e
00000270: 2820 0e3e 02d3 553e 5315 c73d b2f9 0e3e
00000280: 2a39 86bb fb86 96bd 5667 5b3e e6a9 533d
00000290: 7412 cfbd 69da 133e 3556 b13c cc58 4abe
000002a0: d826 4d3c fab4 793e 01c2 dabd 0842 d23e
000002b0: 8ddf 9c3b 572c d93d d3f1 f2bd b4e9 fb3c
000002c0: ac3e 96bd 2b5b b6bc 1ccb 17bd bde1 67be
000002d0: 0a77 103d 30fa 1fbd f5e8 fa3d c99c 853d
000002e0: a394 a53c 8eb8 dcbd 0b09 bf3d af70 b83d
000002f0: 2107 263b 81d5 73be 187d 8e3c 649d 0d3e
00000300: 01c6 94bc da07 773d 772c 94bc f513 11be
00000310: 9fef 50be d54b acbd dcb8 1b3d 9900 04be
00000320: d2f5 9cbd ec8f 89bd 9f58 873b 5870 a93d
00000330: 81ce 2dbd 1399 793d 0a6e 133e 0659 3dbc
00000340: d91a 9bbd 2f44 a1bd a92b 05be a2ff 3dbe
00000350: 6c1c 173c 37e5 843d e871 c0bd 8b3e ccbd
00000360: 8aef 00bd c2a4 1fbe ec57 183c f744 0bbe
00000370: c9dc 56bd acea c63d 9d66 733e 8e60 983d
00000380: 66a1 9cbe 1255 45be fa80 1bbd 4ada d8bc
00000390: 6241 89bd b6e4 94bd 0225 153d 3161 073e
000003a0: 3326 28be 5116 cbbd 4a60 ca3d 768d 393d
000003b0: 56bc 4abc 5d9a b6bd 0490 05be 7eba a9bd
000003c0: 5b63 98bd 35f6 4b3d ba63 32bc c9a5 d93d
000003d0: 5afb 193e 6265 18bd 3620 3cbd 3554 2bbe
000003e0: b365 a43c 9b61 b03d 4a6f c23d d159 723d
000003f0: ab53 71bd eeae 81be 1677 fc3a 5393 5d3d
-0.16189541 -0.06395406 0.02602382 -0.028028613 0.29755178 -0.034638163 0.005296189 -0.17390145
0.37798753 -0.092526175 -0.07916017 0.051519647 -0.20114772 0.03194573 -0.106563434 0.032130193
-0.013302683 0.00947537 0.08331373 -0.26499647 -0.049087796 -0.08210393 0.18784584 0.028439032
0.072496235 -0.09662829 0.016776942 -0.16605061 -0.058230065 -0.046974294 0.28019127 0.123898104
0.28444907 -0.07243599 -0.02309853 0.07030142 0.05982422 0.22734621 -0.0180023 0.08771118
0.0054652863 -0.10322256 -0.10064596 0.03391846 -0.061927743 0.047853757 -0.05831557 -0.19827436
-0.13349375 0.059436586 -0.15355396 0.032099213 0.1372474 0.024505148 -0.11830231 0.07055378
0.06700501 -0.0012863564 -0.09748809 0.09810695 -0.0583266 -0.1078653 0.13261764 0.06936158
-0.058583725 -0.09166659 0.03265348 -0.0927822 -0.026270403 -0.11752798 -0.07486848 0.12262689
-0.1115333 0.025674019 -0.01593084 -0.04897558 -0.023351451 0.08460348 -0.011547836 -0.16537338
0.1063541 -0.0029168958 -0.16961917 0.055471618 0.11919228 0.0010482561 0.18593925 -0.18663469
-0.05276535 -0.04048704 0.1806568 0.06534508 -0.14619824 0.095832236 -0.13713464 0.2528686
-0.053287007 0.12650079 0.09980326 -0.061150122 -0.22246169 0.1261669 -0.15788503 0.18846981
0.11722741 0.063116096 -0.032709863 -0.0145963915 -0.10068239 0.06873628 -0.16669486 -0.050815642
0.0061329757 -0.11961838 0.100276396 -0.033817295 -0.12704161 0.19775365 0.06427404 -0.09677161
-0.027569544 -0.0013983769 -0.18721369 0.048592757 0.12342666 -0.30588445 0.10367607 0.04391789
-0.19690746 0.07890388 0.005016798 -0.0024867626 0.16035499 0.01400338 0.22930306 0.026753293
0.014578473 -0.14255548 0.08413856 0.08065239 0.14683896 0.08486086 0.24658786 -0.018574314
-0.09231061 -0.35736698 -0.31599224 -0.11856566 0.07891132 -0.09394303 0.16534695 -0.12289689
0.013634048 0.047927275 -0.06187254 0.20471084 0.13879454 0.20881274 0.09720864 0.13962439
-0.00409617 -0.07349964 0.21426138 0.0516757 -0.101109415 0.14438786 0.021647552 -0.19760436
0.012521468 0.24385443 -0.106815346 0.41066003 0.0047873915 0.1060416 -0.118625306 0.030751087
-0.073361725 -0.02226027 -0.037058935 -0.22644706 0.035269774 -0.039056957 0.12251464 0.06524045
0.020212477 -0.107773885 0.09327897 0.09005868 0.002533384 -0.23811914 0.017393634 0.13829571
-0.018160822 0.060310222 -0.018087609 -0.14167769 -0.20403908 -0.08412901 0.038018093 -0.12890853
-0.07664074 -0.06716904 0.0041304375 0.08273381 -0.042433266 0.060937 0.14397445 -0.011556869
-0.0757348 -0.07874333 -0.13004936 -0.18554547 0.009223085 0.06489032 -0.09396726 -0.099728666
-0.031478442 -0.15590194 0.009298306 -0.13600527 -0.05245665 0.09712729 0.23769613 0.07440291
-0.30591887 -0.19270733 -0.0379648 -0.026471276 -0.06701924 -0.07270186 0.036412247 0.1322067
-0.16420822 -0.09916366 0.09881647 0.045300923 -0.012374004 -0.08916161 -0.13043219 -0.08287524
-0.074408256 0.04979535 -0.0108880345 0.10627324 0.1503729 -0.03720606 -0.045929156 -0.16731341
0.020068025 0.08612367 0.09493883 0.059167687 -0.058917683 -0.25328773 0.0019261565 0.054095577

network_body._body_endoder.seq_layers.0.bias f4 [128]
00000000: 0000 0000 0000 0000 0000 0000 0000 0000
00000010: 0000 0000 0000 0000 0000 0000 0000 0000
00000020: 0000 0000 0000 0000 0000 0000 0000 0000
00000030: 0000 0000 0000 0000 0000 0000 0000 0000
00000040: 0000 0000 0000 0000 0000 0000 0000 0000
00000050: 0000 0000 0000 0000 0000 0000 0000 0000
00000060: 0000 0000 0000 0000 0000 0000 0000 0000
00000070: 0000 0000 0000 0000 0000 0000 0000 0000
00000080: 0000 0000 0000 0000 0000 0000 0000 0000
00000090: 0000 0000 0000 0000 0000 0000 0000 0000
000000a0: 0000 0000 0000 0000 0000 0000 0000 0000
000000b0: 0000 0000 0000 0000 0000 0000 0000 0000
000000c0: 0000 0000 0000 0000 0000 0000 0000 0000
000000d0: 0000 0000 0000 0000 0000 0000 0000 0000
000000e0: 0000 0000 0000 0000 0000 0000 0000 0000
000000f0: 0000 0000 0000 0000 0000 0000 0000 0000
00000100: 0000 0000 0000 0000 0000 0000 0000 0000
00000110: 0000 0000 0000 0000 0000 0000 0000 0000
00000120: 0000 0000 0000 0000 0000 0000 0000 0000
00000130: 0000 0000 0000 0000 0000 0000 0000 0000
00000140: 0000 0000 0000 0000 0000 0000 0000 0000
00000150: 0000 0000 0000 0000 0000 0000 0000 0000
00000160: 0000 0000 0000 0000 0000 0000 0000 0000
00000170: 0000 0000 0000 0000 0000 0000 0000 0000
00000180: 0000 0000 0000 0000 0000 0000 0000 0000
00000190: 0000 0000 0000 0000 0000 0000 0000 0000
000001a0: 0000 0000 0000 0000 0000 0000 0000 0000
000001b0: 0000 0000 0000 0000 0000 0000 0000 0000
000001c0: 0000 0000 0000 0000 0000 0000 0000 0000
000001d0: 0000 0000 0000 0000 0000 0000 0000 0000
000001e0: 0000 0000 0000 0000 0000 0000 0000 0000
000001f0: 0000 0000 0000 0000 0000 0000 0000 0000
0.0 0.0 0.0 0.0 0.0 0.0 0.0 0.0
0.0 0.0 0.0 0.0 0.0 0.0 0.0 0.0
0.0 0.0 0.0 0.0 0.0 0.0 0.0 0.0
0.0 0.0 0.0 0.0 0.0 0.0 0.0 0.0
0.0 0.0 0.0 0.0 0.0 0.0 0.0 0.0
0.0 0.0 0.0 0.0 0.0 0.0 0.0 0.0
0.0 0.0 0.0 0.0 0.0 0.0 0.0 0.0
0.0 0.0 0.0 0.0 0.0 0.0 0.0 0.0
0.0 0.0 0.0 0.0 0.0 0.0 0.0 0.0
0.0 0.0 0.0 0.0 0.0 0.0 0.0 0.0
0.0 0.0 0.0 0.0 0.0 0.0 0.0 0.0
0.0 0.0 0.0 0.0 0.0 0.0 0.0 0.0
0.0 0.0 0.0 0.0 0.0 0.0 0.0 0.0
0.0 0.0 0.0 0.0 0.0 0.0 0.0 0.0
0.0 0.0 0.0 0.0 0.0 0.0 0.0 0.0
0.0 0.0 0.0 0.0 0.0 0.0 0.0 0.0

network_body._body_endoder.seq_layers.2.weight f4 [128, 128]
00000000: 7806 07bd 4272 3abd 3daa fe3d 2786 4d3d
00000010: 4c4a 72bd 57ee 973e 6b0f a73c 5e29 40be
00000020: b962 ae3d 4704 8d3d 16bb 32be 7500 d53c
00000030: cd0b dc3c c441 cb3d f745 653d b4bf b9bd
00000040: 540a 0a3e 35aa 6c3d 09c1 e63c cad2 393e
00000050: 9939 083d b972 523d c4ca 0bbc 6256 013d
00000060: 1c3f 2ebe 5b21 cb3d 554b 923d ec9b 75bd
00000070: 3a56 2e3d 5f7a 81bc b3a4 c7bd f028 9c3d
00000080: c97f d13b 82bc 9db9 e6c2 ac3b af91 9f3d
00000090: b099 ec3d 64c0 e8bd b8b3 b3bd 44af 3a3e
000000a0: 8c50 8e3d d8f8 6a3d 549f 34bd a90d b43d
000000b0: 7a05 ea3d 4c98 483e fbbc 19bd 6c6e 9ebd
000000c0: 79ab f73c e20a d0ba 47fa e3bc 72b4 893c
000000d0: 7d64 0ebc 7427 243d 48e5 1c3d fcbc c9bd
000000e0: 1fa3 20bd 8cdc d3bc c43a 71be d836 b8bc
000000f0: c926 1bbe a681 c83c d6fa 1c3d 7047 92ba
00000100: 70ed 72bd be67 2fbe 8cbc e73c f22a 1d3e
00000110: 2c99 a5bc f354 1dbe db8b fc3d 8b60 953d
00000120: c347 7e3d fbe5 483d d323 60bd 3f0f 423c
00000130: e0b7 c43d 9e4a 71b9 2c88 4bbb 468f 103e
00000140: 10a5 dc3b ee84 873a 63ac d33d 6050 c33b
00000150: 8a11 113d a6ee 2a3c bc43 67bd 141a 0ebe
00000160: 3007 23be c629 5dbd b530 953d 10bd 713c
00000170: 3f8c f7bc 77d6 a3bc c8a9 19be 78a2 39bd
00000180: ca4a 3f3d 3c20 cdbd df52 1f3d 6b93 9a3c
00000190: 7c1b 0fbe 2bb3 933d 24d4 673d 5768 b13d
000001a0: 5002 5dbd 07ec a93d d968 5bbd 3317 473d
000001b0: 5867 d0bc f57b e73d 76ea 23bb 84e3 d63c
000001c0: 83f6 1a3c 04d6 2d3d 71f8 f4bd 6ecf ea3d
000001d0: 0c22 e6bc da05 a73c 8455 f8bd bcb3 fdbc
000001e0: b005 d6bd 1167 e13d 620b 713c 5cf4 203e
000001f0: f384 b1bc 4575 5b3d eab1 6cbd 17de 3cbe
00000200: 0222 a43c 9103 973d 36be 2bbc 9b0b c1bd
00000210: 0056 293d 45da 003d 656c 8a3d c54d cd3d
00000220: 7cc1 c0bd 2735 693d f775 8d3b 88ac 223d
00000230: 8ab6 0a3e 9a5d 563e fa91 53bb 6c3a e83d
00000240: 6963 d23d a80b ce3d debc 533c 8084 acbc
00000250: 28ae 57bc 0006 963d 99f5 1b3e 2b08 c5bd
00000260: 8dc8 ebba 23b2 a1bd 2bb3 82bd 9597 993d
00000270: ecb2 13bd 46bb 7abc af46 af3d 026f 003d
00000280: 1136 673d 606c 883d e004 fd3d ef05 99bd
00000290: 984d b93d 2c7d a23d b3b1 fabc 9ae9 b9bd
000002a0: 4c30 5abd 9b58 06bd 8387 37bc c60c 023d
000002b0: 0d51 56bd 459d 08be e492 523d a9a5 493d
000002c0: 413a b8bd f04a 72bd 086a 94bd b25f 923c
000002d0: 4a4e c53d 0ac1 2f3e e02a febd 556d b5bd
000002e0: 1e5e 13be a231 95ba 77fd 9e3d de3e 3a3c
000002f0: 8591 3b3e 6b0f 8f3c e8bc 0c3c 8e84 36bd
00000300: 9c02 ab3c 050f cebd 4cca aabd 06f1 0abd
00000310: 96d9 51be 82e8 9d3d 68c5 d63d d320 a5bc
00000320: aa9a bdbc 654d aa3a ee16 a2bd a40b 2e3d
00000330: 1dfd a7bd 371f 633d f666 4cbe e449 8fbd
00000340: 61a3 173d e09f 42bc 937f 613d ca93 023e
00000350: 86df 24ba 3d30 27bd 74d9 783d 0b43 dfbd
00000360: 67f9 6dbd 1e74 eabd d875 5abd 9965 813c
00000370: 3852 64bc 55b4 04bc eb7f 83bc b512 3d3d
00000380: 9d0f 1fbe 616e 203e 4a64 69bd ff00 2e3d
00000390: 99c7 e6bd fe92 c43d dff9 783d 18f1 6f3d
000003a0: 8365 09be 7b21 c0bc a550 84bd 83a4 57bd
000003b0: 3412 1a3d f9d1 9cbe a43a 823e 5118 85bd
000003c0: 211e bc3c e991 343d 9af1 073d 298f cb3d
000003d0: 70fc 3f3e 2063 1dbe 4860 2fbe 92c3 ce3c
000003e0: 93e1 843d 5e6f 233e 537b 863d a783 283e
000003f0: fb8e 993d fba9 b43d 52d8 033e 6e2c 1f3d
-0.032965153 -0.04551912 0.12434814 0.050176766 -0.059152886 0.29674026 0.020393094 -0.1876578
0.085149236 0.068855815 -0.1745418 0.026001194 0.026861096 0.09924653 0.055974927 -0.090697676
0.13480502 0.05777951 0.028168218 0.18146816 0.033258054 0.05137894 -0.00853223 0.03157652
-0.17016262 0.099184714 0.07143275 -0.05996315 0.0425627 -0.015805421 -0.09748211 0.07624996
0.006393407 -0.00030085823 0.005272257 0.07791459 0.11552751 -0.113648206 -0.08774513 0.18230921
0.06948957 0.057366222 -0.04409726 0.08791668 0.11426826 0.19589347 -0.03753374 -0.07735905
0.030233132 -0.0015872384 -0.027829302 0.016809676 -0.00869095 0.040076688 0.038304597 -0.09850499
-0.039218064 -0.025862 -0.23557574 -0.022487089 -0.15151514 0.024475884 0.038325153 -0.0011160206
-0.05930847 -0.17129418 0.028288148 0.15348414 -0.02021464 -0.15364437 0.12331363 0.07293805
0.062080156 0.04904745 -0.054721665 0.011844455 0.09605384 -0.00023011348 -0.0031056507 0.14117154
0.006733544 0.0010339299 0.103356145 0.005960509 0.035417117 0.010432875 -0.05646108 -0.13877136
-0.1592071 -0.053994916 0.07284681 0.014754549 -0.030218242 -0.019999726 -0.15006173 -0.045320958
0.046702184 -0.10015914 0.03889739 0.018869122 -0.13975328 0.07211908 0.056598797 0.08662479
-0.053957283 0.08296972 -0.053566787 0.04860611 -0.025439903 0.1130294 -0.0025011576 0.026231535
0.009458187 0.04244043 -0.11961449 0.11465345 -0.028092407 0.020388532 -0.12125686 -0.030969493
-0.104503036 0.110059865 0.0147121865 0.15718216 -0.02166984 0.053578634 -0.05778686 -0.18444096
0.020035747 0.07373727 -0.010482362 -0.09426042 0.04134178 0.031458158 0.06758956 0.10024599
-0.09411904 0.056935456 0.004317041 0.03971532 0.13546196 0.20934144 -0.0032283054 0.11339268
0.10272867 0.10060817 0.012923447 -0.021059275 -0.013164081 0.07325363 0.15230407 -0.096206985
-0.0017988846 -0.07895305 -0.0638183 0.07499615 -0.036059305 -0.0153034385 0.08558404 0.031355865
0.056448046 0.06661296 0.123544455 -0.07471835 0.09048003 0.07934031 -0.030602312 -0.09077759
-0.053268716 -0.032799345 -0.011201742 0.031750463 -0.05232339 -0.13341244 0.051409617 0.04923025
-0.08995486 -0.059153497 -0.07246786 0.017867897 0.09634073 0.17163482 -0.124105215 -0.08858744
-0.14391372 -0.001138259 0.07763188 0.011367528 0.1831723 0.017463407 0.008589961 -0.044560008
0.020875268 -0.100614585 -0.08339366 -0.033921264 -0.20493159 0.07710363 0.10486871 -0.020157253
-0.023145039 0.0012993036 -0.0791453 0.04249157 -0.082025744 0.05544969 -0.19961151 -0.069965154
0.037021045 -0.0118789375 0.055053305 0.1275169 -0.0006289411 -0.040817488 0.060754254 -0.10901459
-0.058099177 -0.11447929 -0.05333504 0.015795516 -0.013935618 -0.008099635 -0.016052207 0.04616042
-0.155333 0.15667106 -0.05698041 0.04248142 -0.11268539 0.09598349 0.06078517 0.058579534
-0.1341763 -0.023453465 -0.06460694 -0.052647125 0.037615016 -0.30628946 0.25435364 -0.064987786
0.022963585 0.044084463 0.033189394 0.09939415 0.18748641 -0.15369844 -0.17126572 0.02523974
0.06488337 0.15960452 0.06566491 0.16456471 0.074979745 0.08821484 0.12875488 0.03886073

network_body._body_endoder.seq_layers.2.bias f4 [128]
00000000: 0000 0000 0000 0000 0000 0000 0000 0000
00000010: 0000 0000 0000 0000 0000 0000 0000 0000
00000020: 0000 0000 0000 0000 0000 0000 0000 0000
00000030: 0000 0000 0000 0000 0000 0000 0000 0000
00000040: 0000 0000 0000 0000 0000 0000 0000 0000
00000050: 0000 0000 0000 0000 0000 0000 0000 0000
00000060: 0000 0000 0000 0000 0000 0000 0000 0000
00000070: 0000 0000 0000 0000 0000 0000 0000 0000
00000080: 0000 0000 0000 0000 0000 0000 0000 0000
00000090: 0000 0000 0000 0000 0000 0000 0000 0000
000000a0: 0000 0000 0000 0000 0000 0000 0000 0000
000000b0: 0000 0000 0000 0000 0000 0000 0000 0000
000000c0: 0000 0000 0000 0000 0000 0000 0000 0000
000000d0: 0000 0000 0000 0000 0000 0000 0000 0000
000000e0: 0000 0000 0000 0000 0000 0000 0000 0000
000000f0: 0000 0000 0000 0000 0000 0000 0000 0000
00000100: 0000 0000 0000 0000 0000 0000 0000 0000
00000110: 0000 0000 0000 0000 0000 0000 0000 0000
00000120: 0000 0000 0000 0000 0000 0000 0000 0000
00000130: 0000 0000 0000 0000 0000 0000 0000 0000
00000140: 0000 0000 0000 0000 0000 0000 0000 0000
00000150: 0000 0000 0000 0000 0000 0000 0000 0000
00000160: 0000 0000 0000 0000 0000 0000 0000 0000
00000170: 0000 0000 0000 0000 0000 0000 0000 0000
00000180: 0000 0000 0000 0000 0000 0000 0000 0000
00000190: 0000 0000 0000 0000 0000 0000 0000 0000
000001a0: 0000 0000 0000 0000 0000 0000 0000 0000
000001b0: 0000 0000 0000 0000 0000 0000 0000 0000
000001c0: 0000 0000 0000 0000 0000 0000 0000 0000
000001d0: 0000 0000 0000 0000 0000 0000 0000 0000
000001e0: 0000 0000 0000 0000 0000 0000 0000 0000
000001f0: 0000 0000 0000 0000 0000 0000 0000 0000
0.0 0.0 0.0 0.0 0.0 0.0 0.0 0.0
0.0 0.0 0.0 0.0 0.0 0.0 0.0 0.0
0.0 0.0 0.0 0.0 0.0 0.0 0.0 0.0
0.0 0.0 0.0 0.0 0.0 0.0 0.0 0.0
0.0 0.0 0.0 0.0 0.0 0.0 0.0 0.0
0.0 0.0 0.0 0.0 0.0 0.0 0.0 0.0
0.0 0.0 0.0 0.0 0.0 0.0 0.0 0.0
0.0 0.0 0.0 0.0 0.0 0.0 0.0 0.0
0.0 0.0 0.0 0.0 0.0 0.0 0.0 0.0
0.0 0.0 0.0 0.0 0.0 0.0 0.0 0.0
0.0 0.0 0.0 0.0 0.0 0.0 0.0 0.0
0.0 0.0 0.0 0.0 0.0 0.0 0.0 0.0
0.0 0.0 0.0 0.0 0.0 0.0 0.0 0.0
0.0 0.0 0.0 0.0 0.0 0.0 0.0 0.0
0.0 0.0 0.0 0.0 0.0 0.0 0.0 0.0
0.0 0.0 0.0 0.0 0.0 0.0 0.0 0.0

value_heads.value_heads.extrinsic.weight f4 [1, 128]
00000000: a1ef 0a3e f000 b3bc 7dec 183e fb69 42be
00000010: 4a6b 0d3d e0e4 f83c 9edd 26bd 187c b0bd
00000020: 325b 493c ddf9 b3bd cf1c 5abe f5cb e23d
00000030: 5b9f 2d3e fcb3 d63d f1e6 62bd f331 29be
00000040: bc6e ac3d e651 733d 6c08 f6bd cc1d 8bbd
00000050: 4dfd 013e b6df 123e 01e3 eab9 fde0 323e
00000060: 6e48 3bbe bb90 293b 7aa7 2a3e 6378 cf3c
00000070: d20b 82bd 03dd cabd 8503 7b3d 3096 0cbd
00000080: 1222 e3bd 0fa8 423e 8db1 a1bb f3f3 12be
00000090: 323b 54be 9e05 763d d518 27ba c31b f43d
000000a0: db75 543e bddc e5bd 3b93 5a3e 483b 83bd
000000b0: 61c1 173e 305e 3fbe 830c 08be c56d 983c
000000c0: de8a 55be 8a71 cfbc 34d6 9b3d a3e7 34be
000000d0: 06c4 1fbe 3466 2d3e a566 cebd a58d c93d
000000e0: d73f 4fbe 2ee1 a03d 0c91 853d dd25 c4bd
000000f0: a94c 0ebc 830b 453e 236a 4d3e b9a4 333e
00000100: d5b0 70bd a3b7 0bbe cd44 01bc f5a6 f2bc
00000110: 9f6b 58be 0635 0ebe d8fd 133e 6bed 8a3d
00000120: a41f dc3d d07b c43d 66b5 f2bd ce35 0dbd
00000130: b457 a33d 7d22 c6bc b1d0 263c ddf0 c73d
00000140: 9a1d 013d 2e0a 0abe 7405 64bd 290e 4d3e
00000150: 9786 4e3e 6b27 0a3e b291 c0bd 6a14 57bd
00000160: 9d2c d03d 5a3d 3f3e 6730 15bd 2996 473d
00000170: d4e0 8a3d 1ea7 47bc 6b7f 1f3d e772 3d3e
00000180: 8ba7 f13d 8ef2 023e 9e34 083d 8dc4 d33d
00000190: 10cc c73d 0752 c6bd 02de 2a3e 5253 34bd
000001a0: bea9 e6bd f3db 213e ddbd 69bc dd38 d6bd
000001b0: 34c3 36be 2879 5cbe 1b0c 973d 166e 3bbe
000001c0: d48a 3abe 3fe2 163e 76f1 69bc 037e 8dbd
000001d0: 90ff 95bd fd2c 693d 986d 47be 0e7a d5bc
000001e0: 5c5f a6bd 9dca 4d3e 8b0a 00be 8d64 1dbd
000001f0: b918 1abe 77df d13a 2f5d f53d a1ee 183b
0.13567974 -0.021851033 0.14933963 -0.18985741 0.034526147 0.030382574 -0.040738694 -0.08617419
0.012289809 -0.08787892 -0.21300052 0.11074058 0.1695532 0.10483548 -0.055396024 -0.1652296
0.084195584 0.059404276 -0.12013325 -0.06792793 0.12694283 0.14343151 -0.0004480109 0.17468639
-0.18289348 0.002587362 0.1666545 0.02532596 -0.06349911 -0.09905436 0.061282653 -0.034322917
-0.11090483 0.19009422 -0.004934496 -0.14350872 -0.20725706 0.06006395 -0.00063742447 0.11919358
0.20748083 -0.11223743 0.21345226 -0.064077914 0.14819862 -0.18688273 -0.13286023 0.01860703
-0.20853755 -0.025322694 0.076092154 -0.17666487 -0.15602121 0.16933519 -0.10078172 0.0984147
-0.20239197 0.078554496 0.06521806 -0.09577534 -0.008685269 0.19242673 0.20060019 0.17543305
-0.05876239 -0.1364427 -0.007889939 -0.029620627 -0.21134804 -0.13887414 0.14452302 0.06783565
0.107482225 0.09593928 -0.11851005 -0.03447514 0.079757124 -0.024186367 0.010181592 0.09762738
0.03152237 -0.13480446 -0.055669263 0.20024933 0.2016853 0.134916 -0.09402789 -0.052509703
0.10164759 0.18675748 -0.036423113 0.04872719 0.06781164 -0.01218584 0.038939875 0.18500863
0.117995344 0.1278784 0.033253305 0.103402235 0.09755719 -0.09683614 0.16686252 -0.044024773
-0.112628445 0.1580656 -0.014266458 -0.104600646 -0.17847902 -0.21530592 0.07375356 -0.18303713
-0.18217021 0.14734744 -0.01427876 -0.069088005 -0.07324135 0.05692767 -0.194754 -0.026059177
-0.08123657 0.20096822 -0.12504022 -0.03842597 -0.15048493 0.0016012032 0.11980664 0.0023335593
