Results/test12/Doughnut/Doughnut-9265.onnx (onnx, 109697 bytes, 6 tensors)

action_model._discrete_distribution.branches.0.bias f4 [2]
000000 00 00 00 00 00 00 00 00
       0.0 0.0

action_model._discrete_distribution.branches.0.weight f4 [2, 128]
000000 92 df 84 bb 7b 56 bc bb 8b 6a 8c 3c 60 f0 dd bb
       -0.004054972 -0.005747614 0.017140647 -0.0067730397
000010 72 a6 20 bc 51 29 91 ba fc ab 1b 3a 33 e8 25 bc
       -0.009805309 -0.0011074935 0.00059384084 -0.010126161
000020 70 a8 61 3c c2 75 1e bb 08 f5 69 bb 47 59 10 3c
       0.013773069 -0.0024179076 -0.0035699029 0.008810348
000030 ea 85 6c bc ac 89 48 37 ff 7d 00 bb bb 38 27 3c
       -0.0144362245 1.1952983e-05 -0.001960635 0.010206397
000040 6a 3b 71 3c e4 18 01 3c 80 a2 6f bc bd fb e3 bb
       0.014723638 0.00787947 -0.014626145 -0.0069575
000050 e7 0c b3 3b 95 8d ea bb ff 9c 0c bb 00 f0 6f 3c
       0.0054641846 -0.007157991 -0.0021455882 0.014644623
000060 05 68 36 bc 13 39 2f bc c2 03 3f 3c d3 3b 10 3c
       -0.011133199 -0.01069476 0.011658611 0.008803326
000070 c4 3a a5 3b 41 c7 8d bc 37 33 ef bb 1b 53 5b bc
       0.005042406 -0.017306926 -0.0072998065 -0.013386513
000080 da cc a9 bb 32 20 62 bc c7 25 9f bc f7 2a 89 bb
       -0.005181891 -0.013801621 -0.019427193 -0.00418603
000090 4d c2 ad 3a dd a6 cd 3a ed d2 d1 bb 73 a1 d9 bb
       0.0013256759 0.0015689988 -0.006403318 -0.0066415607
0000a0 d5 8f fa bb e8 a5 19 bb eb 9f 97 3b 49 4c 12 3b
       -0.0076465406 -0.0023444835 0.004627218 0.0022323302
0000b0 44 e6 b5 bb e3 ec f7 3a df 8c ac 3b 7f c4 a3 bb
       -0.0055511314 0.0018915202 0.0052658166 -0.0049977894
0000c0 ef 41 13 3c e0 61 12 3b 8d 85 3b bc 53 fb 26 bb
       0.008987888 0.002233617 -0.011445415 -0.002547939
0000d0 93 1a 08 bc ec 6a 0e bc 9b 36 36 3b 8f de 97 bc
       -0.008307117 -0.008692484 0.0027803543 -0.018538741
0000e0 07 17 7a bc 29 22 04 3c 47 13 91 bc 9e 1c 48 3c
       -0.015264279 0.008064785 -0.017709387 0.012213854
0000f0 4b ed 53 39 5b 95 f9 3a 95 b0 62 3b 60 3f 7b bc
       0.00020210927 0.0019041704 0.0034590114 -0.015334934
000100 4d 22 66 bb 6e 60 45 3b 87 20 4e 3c 3b d8 b5 bb
       -0.003511566 0.003011729 0.012580997 -0.0055494583
000110 c0 86 28 3c e0 38 90 3a c3 b5 88 bc bd 69 88 3b
       0.010286033 0.0011003278 -0.016688233 0.0041629956
000120 f2 c8 e5 3b 63 f2 93 bc 67 aa bf 3b 48 cc 50 bc
       0.00701248 -0.018059915 0.005849171 -0.012744017
000130 18 4c 39 bc da 30 ce 3b b3 33 21 3c 85 f0 06 bb
       -0.011309646 0.0062924447 0.009838986 -0.0020590138
000140 67 b5 24 ba 65 17 62 bb 14 d5 aa 3c d2 5a 2e 3c
       -0.00062831346 -0.0034498808 0.020853557 0.01064177
000150 8d f6 07 3c e3 5a 36 bc 22 05 86 3b b2 63 d2 3b
       0.008298528 -0.0111300675 0.0040899673 0.006420576
000160 f2 93 58 3b f8 b5 73 bc 1b f6 3a bb dd 2e 58 3c
       0.0033047167 -0.014874928 -0.0028528038 0.013194767
000170 87 fa 7b ba 48 15 73 3b b0 2e 9d bb 22 99 2c bc
       -0.00096122216 0.0037091542 -0.0047968253 -0.010534557
000180 6b 7f de bb 4c 02 ad bc 5a 07 4a 3c f5 18 4d bb
       -0.0067900917 -0.02111926 0.012330854 -0.0031295393
000190 c3 0d ac bc da 8d 71 bc 48 9c 7a 3b fa 7c f7 3b
       -0.021002656 -0.014743293 0.0038240124 0.00755274
0001a0 fc ea a4 ba b6 39 a2 bb 0c bf 9f bb bc 41 15 bc
       -0.0012582238 -0.0049507273 -0.0048750695 -0.009109911
0001b0 32 9e 10 3c 42 25 71 3c 8e 7d 1d 3c 99 25 48 3c
       0.008826779 0.014718356 0.009612454 0.012215995
0001c0 b4 89 01 bc 95 02 4e bc 82 70 a4 3b 16 12 b6 3c
       -0.007906366 -0.012573858 0.005018295 0.02222542
0001d0 f9 5e b7 3b ff f1 90 bb 4b 5d 07 bc 37 8c ea bb
       0.0055960384 -0.0044233794 -0.008261989 -0.007157828
0001e0 98 33 65 ba 1b b2 ec 3b 9a c7 07 bb 8b 6d 67 bb
       -0.0008743345 0.0072233803 -0.0020718337 -0.0035313095
0001f0 47 71 fb 39 3e 9b 30 bb cb 7c e5 bb 53 35 49 bb
       0.0004795885 -0.0026948 -0.007003402 -0.003070195
000200 2a 23 65 3c cd 03 dd bb 67 cc 47 bc 39 81 c2 bb
       0.013985435 -0.006744838 -0.012194729 -0.0059358147
000210 17 77 d5 3b f2 b5 6a 3b 78 a5 2d 3c ce 03 a3 3b
       0.0065144408 0.0035814014 0.010598533 0.004974819
000220 87 95 ef 3b 20 68 82 ba 6c b1 c9 3b 6e 54 9f 39
       0.007311526 -0.0009949245 0.0061551835 0.00030389748
000230 af 9e ec 3b 91 3d ca 3b 16 52 26 3b 9d 41 a1 3b
       0.007221065 0.00617189 0.0025378517 0.004921152
000240 cd 67 d2 3b 1c df b0 3c 67 f4 15 bc ef cc 63 bc
       0.0064210654 0.021590762 -0.009152508 -0.01390384
000250 f3 63 66 ba 2e 7d 1c 3c 56 51 17 3b 7b 9f 0c 3b
       -0.00087886973 0.00955133 0.0023089251 0.0021457362
000260 38 07 50 bb cb 72 94 ba 9f b3 0e bc e3 c6 f7 b9
       -0.0031742584 -0.0011325715 -0.008709817 -0.00047259693
000270 47 8d 16 3c b7 d4 94 bb 7f c5 ae bc 61 54 06 bc
       0.009188957 -0.004541959 -0.021334408 -0.008198828
000280 bd dd 40 bb df cb ae 3c 8b 93 bc bb e2 82 d2 3c
       -0.0029429041 0.021337448 -0.005754893 0.025697175
000290 01 97 3f bc 2b 58 64 bc 83 a7 0d bc d7 df 66 bc
       -0.011693717 -0.0139370365 -0.008645895 -0.0140914535
0002a0 df ce 43 3b 4a d1 f3 ba 30 8f bd bb 32 99 a0 bc
       0.0029877943 -0.0018601802 -0.0057848915 -0.0196043
0002b0 3b 7a ca 3b 8f 36 05 3c af ef b2 3a 8c 5c 02 3c
       0.006179122 0.008130684 0.0013651754 0.007956635
0002c0 e3 97 6d bc 5c 40 89 3b 7b 94 e9 ba 1e b6 10 bc
       -0.014501545 0.0041885804 -0.001782074 -0.008832483
0002d0 54 ed 1d bc 53 4d 0c bb 95 be 08 3b 73 dd b7 3b
       -0.009639103 -0.0021408394 0.002086555 0.0056111156
0002e0 8b 4a 38 b7 e8 97 5a bc f6 f1 39 bb 38 75 c7 b9
       -1.09846105e-05 -0.013341881 -0.002837298 -0.00038043573
0002f0 10 a4 f0 bb 11 1a 26 3c 8f e5 fe 3b 57 f3 ab bb
       -0.0073437765 0.010138051 0.0077788304 -0.005247514
000300 35 cb 99 bc 2d d7 37 3c ed 15 cd ba 10 27 0c 3c
       -0.018773654 0.0112207355 -0.0015646793 0.008554235
000310 fe fd 3c bc 92 46 4f 3c f8 02 06 3b 89 68 96 3b
       -0.011535166 0.012651103 0.0020448547 0.0045900983
000320 0b d7 08 bb 80 2a 0c 3b 55 d6 32 bc 1b 04 5f 3a
       -0.0020880129 0.0021387637 -0.010915359 0.00085073867
000330 00 cf cd 3a 6a 62 3d 3a 8a 8e 09 ba 70 12 ec bb
       0.001570195 0.00072244427 -0.0005247375 -0.0072043464
000340 1f 3d c6 3c 17 c1 1a 3c e8 01 33 3c 4a 69 36 3b
       0.024199067 0.00944545 0.010925747 0.0027833753
000350 01 78 83 3c b9 20 1a 3c ab 49 9c ba fc 31 8e ba
       0.016048433 0.009407216 -0.001192381 -0.0010848637
000360 5a 9f ea bb 43 d1 82 3c 29 b3 a0 bb ff f3 b1 38
       -0.0071601095 0.015968924 -0.00490417 8.4854655e-05
000370 c7 8f 78 3c d6 0c 83 ba e9 33 27 bc 33 0e b8 3b
       0.015170998 -0.0009998332 -0.010205247 0.005616927
000380 b7 7f d8 3b 3b 75 8e bc 58 7e 7c 3b d3 12 e2 bb
       0.0066070217 -0.017389884 0.0038527455 -0.0068992167
000390 ae 15 bd 3b 8e 26 1b bc 63 d3 1a 3c 75 6d a3 bc
       0.0057704067 -0.009469641 0.009449813 -0.019949654
0003a0 07 e7 35 bc cc 2e 2a 3b c0 8a f4 bb 7b 53 1c bc
       -0.0111024445 0.0025967835 -0.0074628294 -0.009541388
0003b0 01 b0 00 3a 46 1f c6 bb c6 f3 02 3b 40 c1 1b 3c
       0.0004909039 -0.0060462086 0.0019981726 0.009506524
0003c0 ea e0 51 ba cd 85 75 3b cf 63 37 bc 5d 18 58 bc
       -0.0008006232 0.0037463785 -0.01119323 -0.013189402
0003d0 6c 58 10 b8 58 ab 0b 3c 33 9b 35 3b 41 cb a6 3b
       -3.4414625e-05 0.008524738 0.0027710914 0.0050901477
0003e0 4d be f1 3b 7f a1 9b ba f0 9d 8e bb 90 a2 b6 bb
       0.007377422 -0.0011873691 -0.0043523237 -0.005573578
0003f0 da 56 d2 bb 8a c9 7e 3c 65 03 fe 3b cd 39 50 bc
       -0.006419045 0.01555098 0.0077518695 -0.012709093

network_body._body_endoder.seq_layers.0.bias f4 [128]
000000 00 00 00 00 00 00 00 00 00 00 00 00 00 00 00 00
       0.0 0.0 0.0 0.0
000010 00 00 00 00 00 00 00 00 00 00 00 00 00 00 00 00
       0.0 0.0 0.0 0.0
000020 00 00 00 00 00 00 00 00 00 00 00 00 00 00 00 00
       0.0 0.0 0.0 0.0
000030 00 00 00 00 00 00 00 00 00 00 00 00 00 00 00 00
       0.0 0.0 0.0 0.0
000040 00 00 00 00 00 00 00 00 00 00 00 00 00 00 00 00
       0.0 0.0 0.0 0.0
000050 00 00 00 00 00 00 00 00 00 00 00 00 00 00 00 00
       0.0 0.0 0.0 0.0
000060 00 00 00 00 00 00 00 00 00 00 00 00 00 00 00 00
       0.0 0.0 0.0 0.0
000070 00 00 00 00 00 00 00 00 00 00 00 00 00 00 00 00
       0.0 0.0 0.0 0.0
000080 00 00 00 00 00 00 00 00 00 00 00 00 00 00 00 00
       0.0 0.0 0.0 0.0
000090 00 00 00 00 00 00 00 00 00 00 00 00 00 00 00 00
       0.0 0.0 0.0 0.0
0000a0 00 00 00 00 00 00 00 00 00 00 00 00 00 00 00 00
       0.0 0.0 0.0 0.0
0000b0 00 00 00 00 00 00 00 00 00 00 00 00 00 00 00 00
       0.0 0.0 0.0 0.0
0000c0 00 00 00 00 00 00 00 00 00 00 00 00 00 00 00 00
       0.0 0.0 0.0 0.0
0000d0 00 00 00 00 00 00 00 00 00 00 00 00 00 00 00 00
       0.0 0.0 0.0 0.0
0000e0 00 00 00 00 00 00 00 00 00 00 00 00 00 00 00 00
       0.0 0.0 0.0 0.0
0000f0 00 00 00 00 00 00 00 00 00 00 00 00 00 00 00 00
       0.0 0.0 0.0 0.0
000100 00 00 00 00 00 00 00 00 00 00 00 00 00 00 00 00
       0.0 0.0 0.0 0.0
000110 00 00 00 00 00 00 00 00 00 00 00 00 00 00 00 00
       0.0 0.0 0.0 0.0
000120 00 00 00 00 00 00 00 00 00 00 00 00 00 00 00 00
       0.0 0.0 0.0 0.0
000130 00 00 00 00 00 00 00 00 00 00 00 00 00 00 00 00
       0.0 0.0 0.0 0.0
000140 00 00 00 00 00 00 00 00 00 00 00 00 00 00 00 00
       0.0 0.0 0.0 0.0
000150 00 00 00 00 00 00 00 00 00 00 00 00 00 00 00 00
       0.0 0.0 0.0 0.0
000160 00 00 00 00 00 00 00 00 00 00 00 00 00 00 00 00
       0.0 0.0 0.0 0.0
000170 00 00 00 00 00 00 00 00 00 00 00 00 00 00 00 00
       0.0 0.0 0.0 0.0
000180 00 00 00 00 00 00 00 00 00 00 00 00 00 00 00 00
       0.0 0.0 0.0 0.0
000190 00 00 00 00 00 00 00 00 00 00 00 00 00 00 00 00
       0.0 0.0 0.0 0.0
0001a0 00 00 00 00 00 00 00 00 00 00 00 00 00 00 00 00
       0.0 0.0 0.0 0.0
0001b0 00 00 00 00 00 00 00 00 00 00 00 00 00 00 00 00
       0.0 0.0 0.0 0.0
0001c0 00 00 00 00 00 00 00 00 00 00 00 00 00 00 00 00
       0.0 0.0 0.0 0.0
0001d0 00 00 00 00 00 00 00 00 00 00 00 00 00 00 00 00
       0.0 0.0 0.0 0.0
0001e0 00 00 00 00 00 00 00 00 00 00 00 00 00 00 00 00
       0.0 0.0 0.0 0.0
0001f0 00 00 00 00 00 00 00 00 00 00 00 00 00 00 00 00
       0.0 0.0 0.0 0.0

network_body._body_endoder.seq_layers.0.weight f4 [128, 78]
000000 e7 0c 8a bd de ba 15 be ca 53 2e 3d f6 49 d6 3d
       -0.06740742 -0.14622065 0.042560376 0.10463326
000010 fc 59 bc 3d 03 86 16 3d e6 e5 a6 3d ee 93 ac bb
       0.09196851 0.036748897 0.081493184 -0.005266658
000020 90 c4 86 bc 0b 41 1b be 3a 78 01 3e 4d 73 3c 3e
       -0.01645115 -0.1516153 0.12643519 0.18403359
000030 39 97 c0 bd f0 5f 09 be 35 5b ea bc 1a 0d 02 bb
       -0.094038434 -0.13415504 -0.028607944 -0.0019844235
000040 88 53 d7 3c d2 27 ca 3d 4e 6f 49 3d 02 ae 41 3e
       0.026284948 0.09870876 0.049178414 0.18914035
000050 3c 1f f1 bc 51 96 8e bd 0f ea 0e bd 96 ab a2 bc
       -0.029433839 -0.06962264 -0.034891184 -0.01985721
000060 09 2b e0 bd 54 36 66 3d 36 a0 17 3e 2b d4 95 be
       -0.10945708 0.056204155 0.1480721 -0.29263434
000070 90 7b eb bc f6 a0 57 3e 96 68 a4 3d b4 6c c9 bd
       -0.028745443 0.21057495 0.08027761 -0.098351866
000080 fb 5d 35 3e a1 e1 e4 bb d4 7f d1 3c 75 1b e8 3d
       0.17711632 -0.006984905 0.025573649 0.11333362
000090 1d a4 1b be 5f d6 13 3e 76 41 a7 3d d9 3f 38 be
       -0.15199323 0.14437245 0.081667826 -0.17993106
0000a0 07 01 3e bd 46 b0 87 3d 1d 08 86 3c 7a 75 d9 3d
       -0.0463877 0.06625418 0.01636129 0.1061811
0000b0 be e9 6e bd 3f 8d a2 bd 54 13 8e be 01 ea 1d 3d
       -0.058328383 -0.07937097 -0.2774912 0.03855324
0000c0 db 55 26 bc 44 db cf 3d 55 18 84 bd d6 f5 08 bb
       -0.0101523055 0.101492435 -0.064499535 -0.0020898483
0000d0 a6 d9 3f bc 7d e1 9a 3e 6c 11 f9 bd e3 83 d7 bd
       -0.011709606 0.3025016 -0.12161526 -0.10523202
0000e0 5f e0 0a be d1 45 5b 3d 90 db 56 be e3 94 09 bd
       -0.13562153 0.05353338 -0.20982194 -0.033589255
0000f0 1a 46 18 3e 38 98 9b 3c 1c 5e 8e 3d 43 32 13 3e
       0.14870492 0.018993482 0.06951544 0.14374642
000100 15 38 42 be cd 61 ec bd 5f 9e 55 bd b2 53 89 be
       -0.18966706 -0.115420915 -0.052152988 -0.26821667
000110 57 f7 cc 3d aa bb 61 3c 75 e1 a1 bd 5b 2d 71 bd
       0.10008114 0.013777653 -0.07904331 -0.058881145
000120 7f 98 09 3d 9e b8 84 bc dd d1 af 3a d4 1e 19 3d
       0.033592697 -0.016201314 0.0013413985 0.037382916
000130 86 db da 3b 5a 71 17 3e 80 08 da bd ea 57 fb 3c
       0.0066790013 0.14789334 -0.106461525 0.03068157
000140 a6 76 e1 3d 89 c4 6a bd 84 9a e1 3d a7 65 73 3d
       0.110089585 -0.057316337 0.110158 0.059423115
000150 7a 05 b5 3c d5 bd 03 3d 17 24 e3 bc c6 b2 fb bd
       0.022097338 0.03216346 -0.02772717 -0.12289958
000160 6a 76 be bd 72 fd 84 bd 62 c3 be 3d 7c 2e ac be
       -0.092999294 -0.06493653 0.0931461 -0.33629215
000170 5e 18 64 bd 5e d4 b8 bd 76 26 20 bd 68 f4 85 bd
       -0.0556873 -0.09024881 -0.03909918 -0.065407574
000180 04 62 38 3d 01 75 0f bd 99 ba 14 bb 44 14 8d 3c
       0.04501535 -0.035023693 -0.0022694229 0.017221577
000190 91 0f 88 be 4f 92 4c 3d b9 0f 78 bd 89 0f ea 3b
       -0.26574376 0.04994422 -0.06056187 0.007142965
0001a0 5c 58 55 be 2c d8 04 be 74 b7 03 be 9c bd f6 3d
       -0.20834488 -0.12973088 -0.1286295 0.12047884
0001b0 a3 b5 33 be 07 da 8c 3d 90 ab e6 3d 29 a6 9d be
       -0.17549758 0.06877523 0.11263192 -0.30790833
0001c0 35 01 e0 3d b3 ad c9 bd f6 66 9d 3d d8 34 ff 3d
       0.1093773 -0.098475836 0.07685654 0.12461251
0001d0 a4 35 5b bb a6 12 b2 bd 67 2d e0 3d b1 6a 4d 3e
       -0.003344872 -0.08694963 0.1094616 0.20060231
0001e0 82 11 84 bc 5e eb 74 3c 5d db c0 3b 4c 57 24 bd
       -0.01612163 0.014948694 0.005885525 -0.040122315
0001f0 7e 31 37 3e 93 e7 39 bd c6 e2 10 be ad b3 53 bd
       0.17889974 -0.045386862 -0.14149007 -0.051685024
000200 18 0a 21 3d ea 5c 13 bd 98 02 1f 3d c6 0f 7d bd
       0.039316267 -0.03597728 0.038820833 -0.06178262
000210 ab eb f1 bd 0e f9 1f 3e 2a ba d4 3c 2e 0e f8 bd
       -0.11812528 0.1562235 0.025967676 -0.121120796
000220 38 b2 d4 bd 02 fb a5 bc 23 b7 d2 3d 36 a3 6a 3d
       -0.10385555 -0.020261291 0.10288837 0.057284556
000230 a0 36 3c 3e 6c f2 bf 3d 1b f8 f7 bd 65 b6 bc bd
       0.18380213 0.0937241 -0.12107869 -0.092144765
000240 5f 52 5c 3c 19 43 33 3d 80 0e ea bd 44 3b a4 3d
       0.013447373 0.04376516 -0.11428547 0.080191165
000250 1c ca 7a 3c de 33 74 bd e3 12 0a bd c4 13 cb bb
       0.015306976 -0.059619777 -0.033709418 -0.0061974246
000260 e9 8e ac 3d 05 7b ac 3b d3 47 5b bd ad 42 de bd
       0.084256954 0.0052636885 -0.053535294 -0.10852561
000270 3a 90 aa bd 3f b9 dc 3d 53 2e c2 3d 56 36 f6 bd
       -0.0832829 0.107775204 0.09481492 -0.120220825
000280 3a 5e da 3b e0 12 a7 3e 54 25 c5 3d 4f e4 dc bd
       0.0066640647 0.32631588 0.096262604 -0.10785734
000290 0c a4 3a 3b b3 d7 a3 be 08 27 6f 3d a4 31 d3 3d
       0.0028479127 -0.32000503 0.058386832 0.103122026
0002a0 64 f6 46 bc 15 93 97 bd 32 fb 28 bd c4 6e f1 3c
       -0.012143705 -0.074011005 -0.041255184 0.029471762
0002b0 73 4a c9 bd 21 03 28 3e c0 1c 4c 3d 11 78 dd bd
       -0.09828653 0.16407444 0.049832106 -0.108139165
0002c0 5f a7 13 3d 21 00 b8 bd ee 43 41 3d 2d d9 17 3d
       0.03604829 -0.089843996 0.047183923 0.03707235
0002d0 8a 59 cd bd 62 a3 b4 3d 2d 9e d7 bd 5e 82 88 bd
       -0.10026844 0.08820225 -0.105282165 -0.066654906
0002e0 7d 17 0f 3e df 93 07 3e 05 92 b9 bc 7d d7 ec 3d
       0.13973804 0.13240002 -0.022652635 0.11564539
0002f0 93 28 06 3e f5 95 f5 3c e2 0c dc 3d 7e 5b 67 bc
       0.13101415 0.029978732 0.10744645 -0.0141209345
000300 61 22 ea bd b0 a5 57 3d dc cc 01 3e c0 29 a3 3e
       -0.114323385 0.052648246 0.12675804 0.3186779
000310 64 b3 24 be e2 48 ae bd 75 53 4b be ec 08 0f 3d
       -0.16084057 -0.08509995 -0.19856055 0.034920618
000320 7b 14 d5 bd ce ea 5c bd 5f a1 0e be a8 03 08 3d
       -0.10404297 -0.053934865 -0.13928746 0.033206612
000330 79 de d4 3d e2 20 05 bc 95 52 cb 3d 82 13 c6 bd
       0.10393996 -0.008125516 0.09927861 -0.096716896
000340 37 28 45 bd 16 85 2c be 61 69 51 be a7 76 1f 3d
       -0.048134055 -0.16847643 -0.20450355 0.038931515
000350 66 44 2a bd b3 24 34 ba 0e d8 0b 3c 71 c5 f3 bd
       -0.041569136 -0.00068719237 0.008535398 -0.11902893
000360 a3 ea fb 3c 2f 02 93 bd a6 0f 10 be ce 15 82 bd
       0.030751532 -0.07178151 -0.1406847 -0.06351815
000370 00 74 ca 3d 36 22 b7 bd 96 a2 42 bc 5a e4 06 3e
       0.098854065 -0.08942072 -0.011879584 0.13173047
000380 4d d2 6d 3c 48 d9 34 be 81 fb 5d 3d f8 43 22 3d
       0.014515472 -0.17661011 0.05419493 0.0396156
000390 6f fb a5 bd b7 44 70 3c 1b 4b cb 3d 8a 16 e8 bc
       -0.08104598 0.01466482 0.099264346 -0.02833106
0003a0 7f e7 6c bd 85 4d 65 bc c3 58 bf 3d da 2c 9e bd
       -0.05783796 -0.013995533 0.09343102 -0.077233985
0003b0 47 0e 40 3e f7 6e f4 bd 3c ff a4 3b 05 00 18 bc
       0.18755446 -0.11935227 0.005035309 -0.009277348
0003c0 a8 0b 90 3d a1 f9 27 3c a3 53 da 3d 96 0f 65 3d
       0.07033473 0.010252387 0.10660484 0.055923067
0003d0 b3 b4 e0 bc 14 10 ea 3a a9 33 06 be 96 8d b6 bd
       -0.027429914 0.0017857575 -0.13105644 -0.08913724
0003e0 33 2f be 3d 66 c5 a5 3d 39 6e 0d 3d 3b c1 aa 3d
       0.09286346 0.080942914 0.034528945 0.08337637
0003f0 1b bf 70 bd f4 68 7a bb 10 f5 d1 3c 13 46 cc 3d
       -0.058776002 -0.003820953 0.02562955 0.09974303

network_body._body_endoder.seq_layers.2.bias f4 [128]
000000 00 00 00 00 00 00 00 00 00 00 00 00 00 00 00 00
       0.0 0.0 0.0 0.0
000010 00 00 00 00 00 00 00 00 00 00 00 00 00 00 00 00
       0.0 0.0 0.0 0.0
000020 00 00 00 00 00 00 00 00 00 00 00 00 00 00 00 00
       0.0 0.0 0.0 0.0
000030 00 00 00 00 00 00 00 00 00 00 00 00 00 00 00 00
       0.0 0.0 0.0 0.0
000040 00 00 00 00 00 00 00 00 00 00 00 00 00 00 00 00
       0.0 0.0 0.0 0.0
000050 00 00 00 00 00 00 00 00 00 00 00 00 00 00 00 00
       0.0 0.0 0.0 0.0
000060 00 00 00 00 00 00 00 00 00 00 00 00 00 00 00 00
       0.0 0.0 0.0 0.0
000070 00 00 00 00 00 00 00 00 00 00 00 00 00 00 00 00
       0.0 0.0 0.0 0.0
000080 00 00 00 00 00 00 00 00 00 00 00 00 00 00 00 00
       0.0 0.0 0.0 0.0
000090 00 00 00 00 00 00 00 00 00 00 00 00 00 00 00 00
       0.0 0.0 0.0 0.0
0000a0 00 00 00 00 00 00 00 00 00 00 00 00 00 00 00 00
       0.0 0.0 0.0 0.0
0000b0 00 00 00 00 00 00 00 00 00 00 00 00 00 00 00 00
       0.0 0.0 0.0 0.0
0000c0 00 00 00 00 00 00 00 00 00 00 00 00 00 00 00 00
       0.0 0.0 0.0 0.0
0000d0 00 00 00 00 00 00 00 00 00 00 00 00 00 00 00 00
       0.0 0.0 0.0 0.0
0000e0 00 00 00 00 00 00 00 00 00 00 00 00 00 00 00 00
       0.0 0.0 0.0 0.0
0000f0 00 00 00 00 00 00 00 00 00 00 00 00 00 00 00 00
       0.0 0.0 0.0 0.0
000100 00 00 00 00 00 00 00 00 00 00 00 00 00 00 00 00
       0.0 0.0 0.0 0.0
000110 00 00 00 00 00 00 00 00 00 00 00 00 00 00 00 00
       0.0 0.0 0.0 0.0
000120 00 00 00 00 00 00 00 00 00 00 00 00 00 00 00 00
       0.0 0.0 0.0 0.0
000130 00 00 00 00 00 00 00 00 00 00 00 00 00 00 00 00
       0.0 0.0 0.0 0.0
000140 00 00 00 00 00 00 00 00 00 00 00 00 00 00 00 00
       0.0 0.0 0.0 0.0
000150 00 00 00 00 00 00 00 00 00 00 00 00 00 00 00 00
       0.0 0.0 0.0 0.0
000160 00 00 00 00 00 00 00 00 00 00 00 00 00 00 00 00
       0.0 0.0 0.0 0.0
000170 00 00 00 00 00 00 00 00 00 00 00 00 00 00 00 00
       0.0 0.0 0.0 0.0
000180 00 00 00 00 00 00 00 00 00 00 00 00 00 00 00 00
       0.0 0.0 0.0 0.0
000190 00 00 00 00 00 00 00 00 00 00 00 00 00 00 00 00
       0.0 0.0 0.0 0.0
0001a0 00 00 00 00 00 00 00 00 00 00 00 00 00 00 00 00
       0.0 0.0 0.0 0.0
0001b0 00 00 00 00 00 00 00 00 00 00 00 00 00 00 00 00
       0.0 0.0 0.0 0.0
0001c0 00 00 00 00 00 00 00 00 00 00 00 00 00 00 00 00
       0.0 0.0 0.0 0.0
0001d0 00 00 00 00 00 00 00 00 00 00 00 00 00 00 00 00
       0.0 0.0 0.0 0.0
0001e0 00 00 00 00 00 00 00 00 00 00 00 00 00 00 00 00
       0.0 0.0 0.0 0.0
0001f0 00 00 00 00 00 00 00 00 00 00 00 00 00 00 00 00
       0.0 0.0 0.0 0.0

network_body._body_endoder.seq_layers.2.weight f4 [128, 128]
000000 46 97 bb bd f2 55 4c be 06 c1 b6 bd db b0 3e be
       -0.091597125 -0.1995466 -0.08923535 -0.18622153
000010 bd 92 01 3e d9 25 80 3e 87 83 c7 bd 4f ef 09 be
       0.12653632 0.25028875 -0.09741884 -0.13470195
000020 60 93 75 3d f9 fe cb 3d a8 f5 d1 3b 27 be bf 3d
       0.059955 0.099607415 0.0064074583 0.093624406
000030 f4 62 c5 bd 6e 4c ad bd 64 43 e1 3d f3 18 bd 3d
       -0.096380144 -0.084618434 0.10999182 0.09233274
000040 8f 53 48 bd 7d 7f 1e 3d 46 c2 97 bc 99 56 c6 3d
       -0.048907813 0.0386958 -0.018525254 0.09684486
000050 5d de f3 3b a2 f6 29 be 68 32 2e be 04 7b a0 3c
       0.0074422793 -0.16597989 -0.17011416 0.019589908
000060 29 59 88 bc 11 a6 52 3b a8 bf af bd 62 d7 ec 3d
       -0.016644077 0.003214244 -0.085814774 0.115645185
000070 23 0c b8 3d bc ec e7 bc 43 14 a4 3d 6f b2 75 3d
       0.0898669 -0.028311126 0.08011677 0.05998462
000080 37 fb 1c 3e 57 fc 90 3d 6f 46 8a 3d d8 c7 dc 3c
       0.15330206 0.0707938 0.067517154 0.026950762
000090 d0 07 ce bd 8f 78 3f be 99 fd ad 3c 47 6a 7a 3c
       -0.10060084 -0.18698333 0.021239089 0.015284128
0000a0 2c 75 9f bc 02 41 2d 3d 67 74 94 3d c1 22 68 bd
       -0.019465052 0.042298324 0.072487645 -0.05667377
0000b0 03 54 c5 3d 1a 56 4f 3c 8f 2d 1c be 43 2b 3a bc
       0.096351646 0.012654806 -0.15251754 -0.011362853
0000c0 f4 15 06 3e c0 6a 6c 3e 24 3e 1f 3e a0 5f 62 3e
       0.13094312 0.23087597 0.15551049 0.2210679
0000d0 7f 6a d8 bd c3 e1 e4 3c 84 47 48 3e 6f 69 15 bd
       -0.105671875 0.027939683 0.19558531 -0.036477502
0000e0 9f 87 cf 3d 21 9e 10 3d 5e 1a ce 3d 38 07 96 bc
       0.101332895 0.035307053 0.10063623 -0.018313989
0000f0 94 09 71 3d d5 43 4b 3d 15 c8 d6 bd 98 31 29 3d
       0.058847025 0.049625237 -0.10487381 0.041307062
000100 49 7b 66 39 a3 b6 c9 3d 8e 95 c3 3d 17 12 b1 3c
       0.00021980437 0.09849288 0.0955001 0.021615071
000110 c4 d3 86 3c 45 cc 17 3b 6e b2 74 bd d6 19 d7 3d
       0.0164584 0.0023162526 -0.059740476 0.10502975
000120 9f ce 09 3d 71 a9 50 3d be 7f a0 bd 96 72 c3 ba
       0.033644315 0.050942842 -0.07836865 -0.0014911469
000130 40 94 21 3d 6f ee 11 be a6 80 94 3d e4 80 0a 3c
       0.039448023 -0.14251111 0.072511 0.0084535815
000140 51 42 0b be 28 4c dd bc 71 db bf bd 92 72 e9 bd
       -0.13599516 -0.027013853 -0.09368027 -0.11398806
000150 62 b9 b5 3c 93 a0 bb 3d 75 5b c4 bd 79 84 a6 ba
       0.022183124 0.091614865 -0.095877565 -0.0012704275
000160 e5 24 22 3d 70 68 aa 3c d7 f0 3e bd a3 d7 07 3d
       0.039585967 0.020801753 -0.0466164 0.03316463
000170 94 54 53 3e f9 98 e1 bd 32 71 11 3e 5d 01 b1 bd
       0.20637733 -0.11015505 0.14203337 -0.08642838
000180 f1 13 84 3b 0d b4 23 bd e6 c3 b1 3d d8 06 a2 bc
       0.0040306975 -0.03996663 0.08679943 -0.019778654
000190 50 35 d2 bd 21 c2 4d 3d 27 e9 df 3d e6 a6 cb 3d
       -0.10264075 0.050233964 0.10933142 0.09943943
0001a0 88 f6 3b 3c 28 11 12 bd 04 2f b8 3c 4c a8 5d 3c
       0.011472352 -0.035660893 0.022483356 0.013528895
0001b0 69 ba de 3d 85 11 24 bd 3b 0d 14 bb b0 c3 27 3c
       0.10875399 -0.04005577 -0.0022590894 0.010239527
0001c0 79 02 be bd 20 f7 85 bd 5d 42 8b bb 81 ab d3 3d
       -0.09277815 -0.06541276 -0.0042498545 0.10335446
0001d0 4e 09 bf bd c2 e2 e4 3d d0 b6 21 3e 87 39 6d bd
       -0.093279466 0.11176063 0.15792394 -0.05791619
0001e0 ed b7 3c be a9 92 ab 3d 2b 21 c8 bd cc e8 0e 3e
       -0.18429537 0.083775826 -0.09771951 0.13955992
0001f0 70 89 85 3d 46 af 0e 3d 68 6e 90 3d b7 b9 52 3e
       0.06520355 0.034835123 0.07052308 0.20578657
000200 f5 a5 8d bd 1e 2d cf bd 45 7c 23 3d c2 a3 b0 bd
       -0.069164194 -0.10116027 0.039913435 -0.08624984
000210 a5 b0 f7 bd 94 0b 5f be 48 41 2b 3b a4 22 15 bd
       -0.12094239 -0.2178176 0.002613144 -0.03640999
000220 30 fa d9 bd 15 fe fd 3d 67 f5 16 bc ee b1 23 be
       -0.106434226 0.12401978 -0.009213782 -0.15985844
000230 c8 aa ac bb d5 75 46 3d 8e db 25 bd 1f 95 8a bc
       -0.005269382 0.048452217 -0.040492587 -0.01691681
000240 63 9f 3d 3e 6a e0 d2 3d 70 e2 bc bc 06 d2 87 3d
       0.18517832 0.1029671 -0.023057193 0.06631856
000250 b1 18 e9 bd 32 c2 b0 3d 42 59 e1 bb 13 be 4a be
       -0.11381663 0.0863079 -0.0068770954 -0.1979907
000260 cf 84 94 3c da 0b 9a bd 48 ab 09 be 31 1c b5 3d
       0.018129734 -0.07521792 -0.13444245 0.08843268
000270 82 65 b0 bd 93 3a f3 3c ff 0d a7 bd 8f 86 98 bd
       -0.08613111 0.029691016 -0.081569664 -0.0744754
000280 cd 0f 1c 3e 15 0c a1 3d 78 eb ac 3d 65 79 dc bc
       0.15240403 0.078636326 0.084433496 -0.026913354
000290 91 ca 6a bc ec 6f 88 3d 94 7e b6 3d fc 21 2c bd
       -0.014330522 0.066619724 0.089108616 -0.042024598
0002a0 e1 0b f5 3d d8 ab 04 bd cb ac 98 bc 5f 91 ce bc
       0.11965156 -0.032390445 -0.018637082 -0.025215803
0002b0 a0 0e 94 3c 5c aa 75 3d 13 37 da 3d 50 a8 0c 3e
       0.01807338 0.05997692 0.10655036 0.13736081
0002c0 7b 8e ed bc d6 3b 21 bd 0d 32 04 bd fc 52 f6 ba
       -0.028998604 -0.039363705 -0.032274295 -0.0018793042
0002d0 89 f7 70 3e 3a 1e 0c 3d d2 69 b3 bd 41 3d af 3c
       0.23531927 0.034208514 -0.08760418 0.021391513
0002e0 3e ac 96 bd c9 59 f8 bc a0 ff b7 3d c8 7d 08 3e
       -0.07357071 -0.03031625 0.089843035 0.13329232
0002f0 e2 38 da bd 8e 45 5c be 35 ba 94 3b 21 08 9d 3c
       -0.10655381 -0.21510908 0.004538799 0.019168915
000300 82 da 3d bd 6c a3 ec 3d bd a3 b2 3b 9c 82 ca 3d
       -0.046350963 0.11554608 0.005451648 0.09888193
000310 e1 c7 b9 3d b1 2a e6 3d 38 39 97 3d bc c2 6f bd
       0.09071327 0.112386115 0.073839605 -0.058535323
000320 4e ea 42 bd 03 e1 d8 bc e7 af 02 3c d1 80 3d 3d
       -0.04758673 -0.026474481 0.007976509 0.046265427
000330 73 60 5c bc 25 1a 94 bd 13 39 fa 3c a6 1d 59 bd
       -0.01345073 -0.07231549 0.030544793 -0.05300679
000340 d0 db 43 bd d4 02 8c 3c 66 6b b1 3d 50 9b 80 3c
       -0.04781705 0.017091192 0.08663063 0.015699059
000350 2e 19 aa 3c fe 47 4f 3e a8 bc cd 3c 9e b3 2b be
       0.02076396 0.20242307 0.025114372 -0.16767737
000360 ba 10 de 3d 0b af 17 bd 09 7d b5 bc 1d d7 34 bb
       0.10843034 -0.03703217 -0.022154348 -0.0027594038
000370 c5 11 71 bb 8f c8 65 3d 76 a7 6b be 22 07 10 bd
       -0.0036784273 0.05609947 -0.230131 -0.035163052
000380 83 5c 3f bc b7 60 cf 3d 71 0f 5f 3d 0f 15 95 bb
       -0.011679771 0.10125869 0.054458085 -0.0045496295
000390 c9 4f 99 bb 92 9e 07 3c 8e b6 9d 3d ac d1 10 bd
       -0.0046787006 0.008277552 0.07700835 -0.03535621
0003a0 7a 5a 0a be cd 70 ce 3c 0f ab ad bd f4 7b 44 be
       -0.13511077 0.025200272 -0.084798925 -0.1918791
0003b0 18 23 15 3d 24 4f 71 be 79 a7 0f 3d 0b 5e ec bd
       0.03641042 -0.23565346 0.035071824 -0.11541375
0003c0 0d 20 37 3e 38 8f 0c 3d a6 19 ea bd 3c 4f f3 bd
       0.1788332 0.03431627 -0.11430673 -0.11880347
0003d0 32 6e 27 be 93 06 38 bd e7 26 85 3c b9 95 5e bd
       -0.1635063 -0.044928145 0.016253902 -0.054342005
0003e0 fb d9 f4 bd 90 95 ee 3d 4a 04 34 bc f7 26 d2 3c
       -0.11955639 0.116496205 -0.010987351 0.025653346
0003f0 18 4f 44 bd ab 57 aa 3d bd dd 1d 3d fc 77 e9 3d
       -0.047926992 0.083175026 0.038541544 0.11399838
