Results/test2/Doughnut.onnx (onnx, 103553 bytes, 6 tensors)

action_model._discrete_distribution.branches.0.bias f4 [2]
0	0x00000000	0.0
1	0x00000000	0.0

action_model._discrete_distribution.branches.0.weight f4 [2, 128]
0	0x3be543f7	0.0069966274
1	0xbbf97148	-0.007612381
2	0x3a2df859	0.0006636433
3	0xbc1bd710	-0.009511724
4	0xbc779f22	-0.015113624
5	0x3a5d496d	0.0008441422
6	0xbc8fea9e	-0.017567929
7	0xbb5cda10	-0.0033699311
8	0xbaaee18e	-0.0013342367
9	0xbc28eeaf	-0.010310813
10	0xbb64aab7	-0.0034891793
11	0xbc20b608	-0.009809025
12	0x3bc2871d	0.005936517
13	0x3c5b3d67	0.013381339
14	0xb9fb2a78	-0.00047906092
15	0xbc53e84a	-0.0129338
16	0xbc7f3513	-0.015576619
17	0x3c568475	0.013093104
18	0x3c1c0e50	0.009524897
19	0x3c8b4c2f	0.0170041
20	0xbc45a7e6	-0.012063956
21	0xbb8b192e	-0.004244945
22	0x3b5d1fc0	0.0033740848
23	0x3a31840f	0.00067716924
24	0x3a18bd5b	0.0005826556
25	0x3beb0cd0	0.007173158
26	0x3a9ac486	0.0011807836
27	0xbc1bf8a7	-0.009519733
28	0x3cacdc0f	0.021101026
29	0x3c1825b6	0.009286335
30	0x3c176dc8	0.0092424825
31	0xbb7f30df	-0.0038939042
32	0xbc3e6732	-0.011621283
33	0xb7d2ccba	-2.5129284e-05
34	0xba459187	-0.0007536639
35	0x3a6d8b9d	0.00090616365
36	0x3c9dd5d7	0.019267006
37	0x3c36df77	0.011161677
38	0x3aa5db93	0.0012653939
39	0xbb8ae2b2	-0.00423845
40	0xb99d38de	-0.00029987743
41	0x3c39d93e	0.0113432985
42	0xbb156faf	-0.0022802164
43	0xbc06264f	-0.008187844
44	0x3b3ae3d1	0.0028517137
45	0xbb7c1782	-0.003846616
46	0xbb6afbfb	-0.0035855758
47	0xbc2d824a	-0.010590145
48	0xbac4cca7	-0.0015014604
49	0xbbc61c57	-0.006045859
50	0xbbbfc6a4	-0.005852537
51	0xbbfd1bf0	-0.0077242777
52	0xbb1605c0	-0.002289161
53	0xbb17c3e5	-0.0023157534
54	0xbb6aaeab	-0.0035809677
55	0xbbd5e647	-0.0065276953
56	0xbbc975cf	-0.006148077
57	0x3a051532	0.0005076706
58	0x3c145fb4	0.0090560205
59	0xbc0d8487	-0.008637554
60	0xbc83f753	-0.016109144
61	0x3c78ab53	0.015177566
62	0x3a8c00aa	0.001068135
63	0xba4f5242	-0.0007908681
64	0x3c8dc768	0.017306998
65	0x3c07562c	0.008260291
66	0xbc0399e3	-0.008032295
67	0xbc80d48b	-0.015726348
68	0x3bd5b950	0.006522335
69	0x3c2d231f	0.010567456
70	0x3beb87cf	0.0071878205
71	0xbc119653	-0.008885938
72	0x3bd1302b	0.006383916
73	0xbc509490	-0.012730733
74	0x3bc9ecd7	0.0061622667
75	0x3b985787	0.004649106
76	0xbb5dbaff	-0.0033833382
77	0xba8f0147	-0.0010910415
78	0x3b855c11	0.004069813
79	0xba4549b3	-0.00075259357
80	0xbbebbbf3	-0.007194036
81	0x3bc790b1	0.0060902466
82	0xbc11c577	-0.008897177
83	0x3c52b9d5	0.012861689
84	0x39f5b698	0.00046866084
85	0xbc845c07	-0.016157163
86	0xbbfb636d	-0.0076717646
87	0x3c233c22	0.009963067
88	0xbc3b49ef	-0.011431201
89	0xbc0814df	-0.008305757
90	0xba07058b	-0.0005150667
91	0x3accc26f	0.001562191
92	0x3c84b260	0.016198337
93	0x3c6a4a5b	0.014299954
94	0x3bec9a05	0.007220509
95	0xbb8eab6b	-0.0043539307
96	0x3ca0dd85	0.019636879
97	0xba68e865	-0.0008884727
98	0x3b884769	0.0041589034
99	0xbb8323f3	-0.004002088
100	0xbb467235	-0.0030280475
101	0xbc59a4a8	-0.013283886
102	0xbb423c6e	-0.002963807
103	0xbc2ff021	-0.010738404
104	0xb9e88b12	-0.00044354104
105	0xbc1b00ba	-0.009460622
106	0xbc915a56	-0.01774327
107	0xbc12bf29	-0.008956709
108	0xbc0eba38	-0.00871139
109	0x3adb9988	0.001675413
110	0xbc0077ef	-0.007841094
111	0xbc2ddc98	-0.010611676
112	0x3bb96f3a	0.005659011
113	0x3acc0119	0.0015564292
114	0x3ad02967	0.001588148
115	0x3b8067ab	0.003918608
116	0x3bc80562	0.0061041573
117	0x3bc5e469	0.0060391915
118	0xbb5a7d52	-0.0033338857
119	0xbbcf03ad	-0.006317577
120	0xbc15cc0d	-0.009142888
121	0x3c7ec8fb	0.015550847
122	0xbc2b2e34	-0.010448027
123	0x3bd25140	0.006418377
124	0xbbf6120a	-0.0075094746
125	0xbbbfef1a	-0.0058573605
126	0xbbf21962	-0.00738828
127	0x3c52c840	0.012865126
128	0x3c56b81f	0.013105421
129	0xbbe03de3	-0.006843315
130	0xbc18f157	-0.009334884
131	0xbc012bbf	-0.007883965
132	0xba802e78	-0.0009779474
133	0xba54fe2f	-0.00081250345
134	0xbc63809f	-0.013885646
135	0xb99c470e	-0.00029807579
136	0xbbc8c162	-0.0061265687
137	0x3c751323	0.014958176
138	0x3b84c350	0.0040516034
139	0x3c26bcf1	0.010176883
140	0xbc4afd0b	-0.012389432
141	0xbbf9ca87	-0.00762302
142	0xbcb0ed33	-0.02159748
143	0xbca87bdf	-0.020566879
144	0xba1303f2	-0.0005608193
145	0x3c2238cb	0.009901236
146	0x3c1d17cf	0.009588196
147	0x3b340d07	0.0027473585
148	0x3c4cac82	0.012492301
149	0x3a6adeef	0.00089596113
150	0xbb84ae3f	-0.004049092
151	0x3b592308	0.0033132453
152	0xbbc346f0	-0.005959384
153	0x3a6eecd8	0.0009114272
154	0xbc09913f	-0.008396446
155	0x3ae9c7d0	0.0017836038
156	0x3a47089b	0.000759253
157	0x3c2f9fb6	0.01071923
158	0xbafba485	-0.0019198811
159	0x3c4bb893	0.012434143
160	0xb9789e13	-0.0002371001
161	0x3b639002	0.0034723287
162	0xbb962ed7	-0.0045832205
163	0xbc2acd17	-0.010424874
164	0xbbea313a	-0.0071469815
165	0x3c3d67f5	0.01156043
166	0x3bfd23b3	0.007725203
167	0xbb4e0e97	-0.0031441802
168	0x39b1cd86	0.00033913198
169	0xbcbb9c1e	-0.02290159
170	0xbc5c8108	-0.013458498
171	0x3b8c458f	0.004280753
172	0x3a94b84d	0.001134643
173	0xba9239a3	-0.0011156093
174	0xbb164e52	-0.0022934866
175	0x390cc4bc	0.0001342473
176	0xbc2c4354	-0.010514099
177	0xbbb45de3	-0.005504356
178	0xbc0cf243	-0.008602682
179	0xbc23e039	-0.010002189
180	0xb92b7c78	-0.00016354199
181	0x3c147bc4	0.009062711
182	0xb9d972d8	-0.0004147503
183	0xbc4b015a	-0.012390459
184	0x3bc62594	0.00604696
185	0xbbda691d	-0.0066653625
186	0x3c151872	0.0091000665
187	0x3b4086d7	0.0029377246
188	0xbc93f48a	-0.018060941
189	0xbbcb9521	-0.006212846
190	0x3c1ffb2c	0.009764474
191	0x3aad51e2	0.0013223256
192	0x3b06f1d7	0.0020590925
193	0x3c075c34	0.008261729
194	0xbc19ec2b	-0.009394686
195	0x3c8bb684	0.017054804
196	0xbb56ec25	-0.0032794562
197	0xbb92a7f9	-0.0044755903
198	0x3c6c762d	0.014432472
199	0x3c95e28f	0.018296508
200	0xbc0ceea1	-0.008601815
201	0xbbf2553a	-0.0073954137
202	0x3c1ed4da	0.009694302
203	0xbba7559c	-0.005106641
204	0x3c004063	0.007827851
205	0x3c12df1d	0.008964327
206	0x3a720248	0.00092319073
207	0xbb0d6ea8	-0.002158085
208	0xbc5b47b3	-0.013383794
209	0xbb923563	-0.0044619306
210	0x3c3064f4	0.010766257
211	0x3bb3ade6	0.005483377
212	0x3c7df31f	0.015499859
213	0x3b9019ef	0.004397623
214	0xbb19f18b	-0.0023489918
215	0x3b9fcc3c	0.0048766416
216	0xbc228a92	-0.009920733
217	0xbb81b800	-0.003958702
218	0x3bd87ea7	0.006606895
219	0x3c1a6266	0.009422874
220	0x3c1faee0	0.009746283
221	0x3c537370	0.01290594
222	0xb81108e2	-3.4578967e-05
223	0xbb49f800	-0.0030817986
224	0x3b67ed8f	0.0035389399
225	0x3be660b8	0.0070305727
226	0xba3ccdf8	-0.00072023226
227	0x3b153003	0.0022764213
228	0xbaa1c93b	-0.0012343297
229	0x3b60034f	0.003418166
230	0x3ad36f88	0.0016131261
231	0xbbbb6043	-0.0057182624
232	0x3c10cd02	0.00883794
233	0x3b989938	0.004656937
234	0x3c75d750	0.015004948
235	0xbb984f92	-0.0046481574
236	0xbc1efdad	-0.009704036
237	0xbc2077a4	-0.00979415
238	0xba56d3cb	-0.0008195012
239	0x3c31abae	0.010844154
240	0x3b9c6cbd	0.004773705
241	0xbc27373f	-0.010206043
242	0xbada43ea	-0.001665232
243	0xbc607fca	-0.013702342
244	0xbb2572e2	-0.0025245477
245	0xbc4b0b02	-0.012392761
246	0xbb808000	-0.003921509
247	0xbc31bc5f	-0.010848134
248	0x3b54cdcf	0.0032471304
249	0xba1a1c16	-0.0005878819
250	0x3c72cf07	0.014819867
251	0xbc5bd3d7	-0.013417206
252	0xbb86c958	-0.0041133575
253	0xbc20dfe1	-0.009819002
254	0x3b141c7c	0.0022599986
255	0x384ba644	4.855382e-05

network_body._body_endoder.seq_layers.0.bias f4 [128]
0	0x00000000	0.0
1	0x00000000	0.0
2	0x00000000	0.0
3	0x00000000	0.0
4	0x00000000	0.0
5	0x00000000	0.0
6	0x00000000	0.0
7	0x00000000	0.0
8	0x00000000	0.0
9	0x00000000	0.0
10	0x00000000	0.0
11	0x00000000	0.0
12	0x00000000	0.0
13	0x00000000	0.0
14	0x00000000	0.0
15	0x00000000	0.0
16	0x00000000	0.0
17	0x00000000	0.0
18	0x00000000	0.0
19	0x00000000	0.0
20	0x00000000	0.0
21	0x00000000	0.0
22	0x00000000	0.0
23	0x00000000	0.0
24	0x00000000	0.0
25	0x00000000	0.0
26	0x00000000	0.0
27	0x00000000	0.0
28	0x00000000	0.0
29	0x00000000	0.0
30	0x00000000	0.0
31	0x00000000	0.0
32	0x00000000	0.0
33	0x00000000	0.0
34	0x00000000	0.0
35	0x00000000	0.0
36	0x00000000	0.0
37	0x00000000	0.0
38	0x00000000	0.0
39	0x00000000	0.0
40	0x00000000	0.0
41	0x00000000	0.0
42	0x00000000	0.0
43	0x00000000	0.0
44	0x00000000	0.0
45	0x00000000	0.0
46	0x00000000	0.0
47	0x00000000	0.0
48	0x00000000	0.0
49	0x00000000	0.0
50	0x00000000	0.0
51	0x00000000	0.0
52	0x00000000	0.0
53	0x00000000	0.0
54	0x00000000	0.0
55	0x00000000	0.0
56	0x00000000	0.0
57	0x00000000	0.0
58	0x00000000	0.0
59	0x00000000	0.0
60	0x00000000	0.0
61	0x00000000	0.0
62	0x00000000	0.0
63	0x00000000	0.0
64	0x00000000	0.0
65	0x00000000	0.0
66	0x00000000	0.0
67	0x00000000	0.0
68	0x00000000	0.0
69	0x00000000	0.0
70	0x00000000	0.0
71	0x00000000	0.0
72	0x00000000	0.0
73	0x00000000	0.0
74	0x00000000	0.0
75	0x00000000	0.0
76	0x00000000	0.0
77	0x00000000	0.0
78	0x00000000	0.0
79	0x00000000	0.0
80	0x00000000	0.0
81	0x00000000	0.0
82	0x00000000	0.0
83	0x00000000	0.0
84	0x00000000	0.0
85	0x00000000	0.0
86	0x00000000	0.0
87	0x00000000	0.0
88	0x00000000	0.0
89	0x00000000	0.0
90	0x00000000	0.0
91	0x00000000	0.0
92	0x00000000	0.0
93	0x00000000	0.0
94	0x00000000	0.0
95	0x00000000	0.0
96	0x00000000	0.0
97	0x00000000	0.0
98	0x00000000	0.0
99	0x00000000	0.0
100	0x00000000	0.0
101	0x00000000	0.0
102	0x00000000	0.0
103	0x00000000	0.0
104	0x00000000	0.0
105	0x00000000	0.0
106	0x00000000	0.0
107	0x00000000	0.0
108	0x00000000	0.0
109	0x00000000	0.0
110	0x00000000	0.0
111	0x00000000	0.0
112	0x00000000	0.0
113	0x00000000	0.0
114	0x00000000	0.0
115	0x00000000	0.0
116	0x00000000	0.0
117	0x00000000	0.0
118	0x00000000	0.0
119	0x00000000	0.0
120	0x00000000	0.0
121	0x00000000	0.0
122	0x00000000	0.0
123	0x00000000	0.0
124	0x00000000	0.0
125	0x00000000	0.0
126	0x00000000	0.0
127	0x00000000	0.0

network_body._body_endoder.seq_layers.0.weight f4 [128, 66]
0	0x3dacb20c	0.08432397
1	0xbdb46e8c	-0.08810148
2	0x3e25f4ef	0.16206716
3	0x3e03fd6e	0.12889645
4	0xbdb8d7e1	-0.09025551
5	0xbd22fa2b	-0.03978936
6	0xba9e2dce	-0.0012068094
7	0xbe89991f	-0.26874635
8	0x3d5b7d2a	0.053586163
9	0x3e227cc1	0.15867902
10	0x3c18e2a4	0.009331379
11	0x3e0c41a0	0.13696909
12	0xbd94c63d	-0.072643735
13	0x3d20ff1f	0.039305802
14	0x3d096bc8	0.033550054
15	0xbc649b96	-0.01395311
16	0xbda3129e	-0.07962535
17	0xbe3bce46	-0.18340406
18	0x3d90f3d1	0.07077754
19	0x3e316fa4	0.17327744
20	0xbc9d1ccd	-0.019178772
21	0x3d048a5b	0.03235851
22	0x3db2aec6	0.08724742
23	0x3e3fd71d	0.18734403
24	0xbd30c102	-0.043152817
25	0xbe640764	-0.22268444
26	0x3d12d28d	0.035845328
27	0xbe02d755	-0.12777455
28	0xbe844024	-0.25830185
29	0x3d95061a	0.072765544
30	0x3dc3194e	0.09526311
31	0xbca4321e	-0.020043429
32	0x3df85a12	0.121265545
33	0xbd3ed8eb	-0.046593588
34	0xbdad1f78	-0.08453268
35	0x3da25a90	0.0792743
36	0x3db83252	0.08993973
37	0x3d7df200	0.061998367
38	0x3e72b402	0.2370148
39	0x3d93b5c0	0.072124004
40	0xbe4a600d	-0.19763203
41	0xbe004e59	-0.12529887
42	0xbe43003e	-0.19043061
43	0x3d624a3a	0.05524657
44	0x3dc7fc12	0.097648755
45	0xbe43502b	-0.1907355
46	0xbea76561	-0.32694533
47	0x3dbb8ff2	0.09158315
48	0x3dfd1107	0.12356763
49	0xbdec011e	-0.115236506
50	0xbcfe4b9e	-0.031041916
51	0xbe0f803b	-0.1401376
52	0xbe151492	-0.14558628
53	0x3e559216	0.20856509
54	0xbdcb2b16	-0.09920327
55	0x3da9231b	0.08258649
56	0xbd56b8bb	-0.052422266
57	0xbd72b9dc	-0.05925928
58	0xbde7c5d3	-0.11317029
59	0x3cd87e9d	0.026427561
60	0xbe0cdb14	-0.13755447
61	0x3d3c6f30	0.046004474
62	0x3cd5b791	0.026088508
63	0x3de51da5	0.11187295
64	0xbd95e13e	-0.07318352
65	0xbd18a1de	-0.037263744
66	0xbd7b8728	-0.061408192
67	0xbe6866df	-0.22695492
68	0xbc3ea8cf	-0.011636927
69	0x3e967fdd	0.29394427
70	0xbc8031a2	-0.015648667
71	0x3ded4b82	0.115866676
72	0xbde2adeb	-0.110683285
73	0x3e372636	0.1788567
74	0x3e640b28	0.22269881
75	0x3e5ffc92	0.21873692
76	0x3e601fd9	0.21887149
77	0xbd719395	-0.058978636
78	0xbe09f466	-0.13472137
79	0xbd876e18	-0.066127956
80	0x3ca791a5	0.02045519
81	0xbd754220	-0.059877515
82	0x3ca07b03	0.019589907
83	0xbd8c3049	-0.06845147
84	0x3de05823	0.10954311
85	0x3daf7fee	0.085693225
86	0x3d02dc77	0.031948533
87	0xbdd3e7a2	-0.10346915
88	0xbd45301d	-0.048141588
89	0xbcc70697	-0.024295134
90	0x3db789a7	0.08961802
91	0x3d755ce1	0.05990303
92	0x3e168af5	0.14701445
93	0xbd4c0017	-0.049804773
94	0xbd64a155	-0.05581792
95	0x3e046789	0.1293012
96	0x3e0e5c9d	0.13902517
97	0x3d765344	0.060138002
98	0xbe00ed4d	-0.12590523
99	0x3d94c109	0.07263381
100	0x3d7f7a18	0.062372297
101	0xbd0c5184	-0.034257427
102	0x3e04b6a9	0.12960304
103	0x3da25ee6	0.07928257
104	0x3db3483f	0.08754014
105	0x3e2eab37	0.17057501
106	0x3e69af5f	0.22820805
107	0x3c36d829	0.011159935
108	0xbe0850d7	-0.13312088
109	0xbd64f190	-0.055894434
110	0x3e24c003	0.16088872
111	0x3c36f5d5	0.011167009
112	0xbd5c97f8	-0.053855866
113	0xbd821d09	-0.06353194
114	0x3dd0b7dc	0.101913184
115	0x3d487d22	0.04894746
116	0xbe0f1fd7	-0.1397699
117	0x3e0f261a	0.13979378
118	0x3ddee86a	0.10884173
119	0x3db85a87	0.09001642
120	0x3d99327b	0.074803315
121	0x3e81ae23	0.25328168
122	0x3e20c85a	0.15701428
123	0xbe820120	-0.25391483
124	0xbc5aa1cb	-0.0133442385
125	0xbda2b21a	-0.079441264
126	0x3d8df77f	0.06931972
127	0xbd8f71dc	-0.07004139
128	0xbd983f5c	-0.0743396
129	0xbdf13d3c	-0.11779258
130	0xbdba0d33	-0.09084549
131	0xbd13282e	-0.03592699
132	0x3dffc89a	0.124894336
133	0x3e365fc0	0.17809963
134	0xbe0afac8	-0.13572228
135	0x3e2c6030	0.16833568
136	0xbd9d0c7d	-0.076683976
137	0x3dbe299d	0.09285281
138	0xbe9298f3	-0.28632316
139	0xbbf16e46	-0.007367882
140	0xbe9c0583	-0.30472955
141	0xbea47d0c	-0.32126653
142	0xbe071206	-0.13190469
143	0xbdd8c69b	-0.10584756
144	0x3e7256ae	0.23665878
145	0xbc62decf	-0.013847067
146	0xbe2edcb0	-0.17076373
147	0x3d24cffa	0.040237404
148	0x3d267ad5	0.040644486
149	0x3e45dc67	0.19322358
150	0x3cc01d37	0.02345143
151	0x3e379cd6	0.17930922
152	0xbdabc3e6	-0.08386974
153	0x3e58fe76	0.21190819
154	0x3e3beffd	0.18353267
155	0xbd8ed96c	-0.06975064
156	0xbe826d9c	-0.2547425
157	0xbcf45d30	-0.029829592
158	0xbec8fc23	-0.39254865
159	0x3dbded7c	0.09273812
160	0x3e0d1e06	0.13780984
161	0x3e42d0fc	0.19025034
162	0x3e0de3ae	0.13856384
163	0x3b0d372b	0.0021547775
164	0xbdc4eeef	-0.096158855
165	0x3c96d328	0.018411234
166	0xbd73d696	-0.059530817
167	0xbe4d5167	-0.20050584
168	0xbdd32ac8	-0.10310894
169	0x3e81d743	0.25359544
170	0xbd93b168	-0.07211572
171	0xbd9b7e1a	-0.07592411
172	0xbdb7a14f	-0.08966314
173	0xbc45b4d7	-0.012067041
174	0xbd728f65	-0.059218783
175	0xbc0b33ce	-0.008496238
176	0x3e29af46	0.16570768
177	0x3dd58807	0.10426336
178	0x3e6d6336	0.23182377
179	0xbe0046ab	-0.12526958
180	0x3dbe0340	0.09277964
181	0xbe64b7ea	-0.22335783
182	0xbe0c8658	-0.13723123
183	0xbe546081	-0.20739938
184	0x3dc96e98	0.09835547
185	0x3e15c0a7	0.14624272
186	0x3d4e8829	0.05042282
187	0xbdec15dc	-0.11527607
188	0x3dc6a14e	0.09698735
189	0x3e067041	0.13128759
190	0x3d542349	0.051791463
191	0xbe18e269	-0.14930119
192	0x3d709648	0.05873707
193	0xbd855b2b	-0.065115295
194	0xbe6c4496	-0.23073038
195	0x3dd72bff	0.105064385
196	0xbdcc5c67	-0.09978562
197	0x3d62d757	0.055381145
198	0x3e893ed8	0.26805758
199	0x3c9282dc	0.017884664
200	0xbe00ef7a	-0.12591353
201	0xbe5a3b47	-0.21311675
202	0xbe34ab1c	-0.17643398
203	0x3e1f05c8	0.15529549
204	0x3d97b32a	0.0740722
205	0xbda3b3df	-0.07993292
206	0x3e86be0f	0.26316878
207	0xbd0a1d15	-0.03371914
208	0x3dddfc2e	0.10839115
209	0xbe419528	-0.18904555
210	0x3da7ac0f	0.081871144
211	0x3dc0d1bf	0.09415006
212	0xbe4679fe	-0.19382474
213	0xbd59cb2a	-0.053172268
214	0x3ce4e2dd	0.027940208
215	0xbd370adc	-0.04468809
216	0x3dba679c	0.09101793
217	0x3d2cfe37	0.042234626
218	0xbbe1d7fc	-0.0068922024
219	0x3e21785c	0.1576857
220	0x3d9223f5	0.071357645
221	0xbe25d081	-0.16192819
222	0xbcbbc8be	-0.02292287
223	0x3de9f847	0.11424308
224	0xbcaadb84	-0.020856626
225	0x3ddeb772	0.10874833
226	0xbe8b6674	-0.27226603
227	0xbe1a034c	-0.1504032
228	0x3e659210	0.22419
229	0xbe236bcc	-0.1595909
230	0x3e1dc9e3	0.15409045
231	0xbe769d35	-0.24083407
232	0x3c3c6508	0.011498697
233	0xbe612688	-0.21987355
234	0x3da9ef00	0.08297539
235	0xbdb4d3e2	-0.08829476
236	0xbcc22f4a	-0.02370419
237	0xb9dea922	-0.00042469153
238	0x3e40d64d	0.1883175
239	0xbc55c087	-0.01304639
240	0x3d759656	0.059957825
241	0x3d66b1cb	0.0563219
242	0xbd373958	-0.04473242
243	0x3db8cfb9	0.09023995
244	0x3b8b2aa8	0.0042470284
245	0x3cd1e2af	0.025620786
246	0x3da163aa	0.078803375
247	0x3de2ef62	0.11080815
248	0x3da3c0ed	0.07995782
249	0x3e4f7079	0.20257749
250	0x3dfe2d72	0.12411012
251	0xbe268ce7	-0.16264687
252	0x3d9c7e0e	0.076412305
253	0xbe46b1e0	-0.19403791
254	0xbd94dac0	-0.07268286
255	0xbe6e9ff8	-0.2330321

network_body._body_endoder.seq_layers.2.bias f4 [128]
0	0x00000000	0.0
1	0x00000000	0.0
2	0x00000000	0.0
3	0x00000000	0.0
4	0x00000000	0.0
5	0x00000000	0.0
6	0x00000000	0.0
7	0x00000000	0.0
8	0x00000000	0.0
9	0x00000000	0.0
10	0x00000000	0.0
11	0x00000000	0.0
12	0x00000000	0.0
13	0x00000000	0.0
14	0x00000000	0.0
15	0x00000000	0.0
16	0x00000000	0.0
17	0x00000000	0.0
18	0x00000000	0.0
19	0x00000000	0.0
20	0x00000000	0.0
21	0x00000000	0.0
22	0x00000000	0.0
23	0x00000000	0.0
24	0x00000000	0.0
25	0x00000000	0.0
26	0x00000000	0.0
27	0x00000000	0.0
28	0x00000000	0.0
29	0x00000000	0.0
30	0x00000000	0.0
31	0x00000000	0.0
32	0x00000000	0.0
33	0x00000000	0.0
34	0x00000000	0.0
35	0x00000000	0.0
36	0x00000000	0.0
37	0x00000000	0.0
38	0x00000000	0.0
39	0x00000000	0.0
40	0x00000000	0.0
41	0x00000000	0.0
42	0x00000000	0.0
43	0x00000000	0.0
44	0x00000000	0.0
45	0x00000000	0.0
46	0x00000000	0.0
47	0x00000000	0.0
48	0x00000000	0.0
49	0x00000000	0.0
50	0x00000000	0.0
51	0x00000000	0.0
52	0x00000000	0.0
53	0x00000000	0.0
54	0x00000000	0.0
55	0x00000000	0.0
56	0x00000000	0.0
57	0x00000000	0.0
58	0x00000000	0.0
59	0x00000000	0.0
60	0x00000000	0.0
61	0x00000000	0.0
62	0x00000000	0.0
63	0x00000000	0.0
64	0x00000000	0.0
65	0x00000000	0.0
66	0x00000000	0.0
67	0x00000000	0.0
68	0x00000000	0.0
69	0x00000000	0.0
70	0x00000000	0.0
71	0x00000000	0.0
72	0x00000000	0.0
73	0x00000000	0.0
74	0x00000000	0.0
75	0x00000000	0.0
76	0x00000000	0.0
77	0x00000000	0.0
78	0x00000000	0.0
79	0x00000000	0.0
80	0x00000000	0.0
81	0x00000000	0.0
82	0x00000000	0.0
83	0x00000000	0.0
84	0x00000000	0.0
85	0x00000000	0.0
86	0x00000000	0.0
87	0x00000000	0.0
88	0x00000000	0.0
89	0x00000000	0.0
90	0x00000000	0.0
91	0x00000000	0.0
92	0x00000000	0.0
93	0x00000000	0.0
94	0x00000000	0.0
95	0x00000000	0.0
96	0x00000000	0.0
97	0x00000000	0.0
98	0x00000000	0.0
99	0x00000000	0.0
100	0x00000000	0.0
101	0x00000000	0.0
102	0x00000000	0.0
103	0x00000000	0.0
104	0x00000000	0.0
105	0x00000000	0.0
106	0x00000000	0.0
107	0x00000000	0.0
108	0x00000000	0.0
109	0x00000000	0.0
110	0x00000000	0.0
111	0x00000000	0.0
112	0x00000000	0.0
113	0x00000000	0.0
114	0x00000000	0.0
115	0x00000000	0.0
116	0x00000000	0.0
117	0x00000000	0.0
118	0x00000000	0.0
119	0x00000000	0.0
120	0x00000000	0.0
121	0x00000000	0.0
122	0x00000000	0.0
123	0x00000000	0.0
124	0x00000000	0.0
125	0x00000000	0.0
126	0x00000000	0.0
127	0x00000000	0.0

network_body._body_endoder.seq_layers.2.weight f4 [128, 128]
0	0x3ddedddb	0.10882159
1	0x3d2e0788	0.04248765
2	0xbd92559b	-0.07145234
3	0xbe182fca	-0.1486198
4	0x3c011abc	0.007879909
5	0xbda7d5a4	-0.081950456
6	0x3d266f0f	0.040633257
7	0x3d8a702d	0.06759677
8	0x3d889bc6	0.066703364
9	0x3d06c2ef	0.032900747
10	0xbc89af10	-0.01680711
11	0x3df0ccaf	0.1175779
12	0x3e07977d	0.13241382
13	0xbddffc67	-0.10936814
14	0x3def3820	0.11680627
15	0xbd092cf5	-0.03349014
16	0x3e92c65a	0.28666955
17	0xbbd73c03	-0.0065684333
18	0xbda8929f	-0.08231091
19	0x3d22ee28	0.039777905
20	0xbc170431	-0.009217308
21	0xbdc2e162	-0.095156446
22	0x3d740fbc	0.059585318
23	0xbc5c5dc5	-0.013450091
24	0x3d396b78	0.045268506
25	0xbb84f5c3	-0.0040576174
26	0xbd423964	-0.047418013
27	0xbd51fba6	-0.05126538
28	0xbdcc64e2	-0.09980179
29	0x3ddc484d	0.10755978
30	0xbceb0bce	-0.028692152
31	0x3d3f0782	0.04663802
32	0x3d3e9dba	0.04653714
33	0x3a04066b	0.0005036357
34	0x3c75a40e	0.014992727
35	0x3e373fb5	0.17895396
36	0x3e1a44fc	0.15065378
37	0xbc37b86f	-0.011213406
38	0x3d338f95	0.043838102
39	0xbbab4642	-0.0052268812
40	0x3cc9ab20	0.024617732
41	0xbdc2565c	-0.09489128
42	0xbdbdbc52	-0.09264435
43	0xbe18ba8a	-0.14914909
44	0xbc2027c6	-0.009775108
45	0xbcb8b27a	-0.022546042
46	0x3dc7d9fb	0.09758373
47	0xbdca1b31	-0.098684676
48	0x3e44a1f5	0.19202407
49	0xbd8494ab	-0.06473669
50	0xbd6075fa	-0.05480001
51	0x3d198b53	0.037486386
52	0x3da617e2	0.08110024
53	0x3d44be4e	0.04803305
54	0x3d24eff8	0.040267915
55	0xbde895df	-0.11356711
56	0x3e0ead4a	0.13933292
57	0xbbe8f8f3	-0.007109755
58	0xbdbe2463	-0.09284284
59	0xbcab7489	-0.020929592
60	0x3e0d001b	0.13769571
61	0x3df7867d	0.120861985
62	0x3cd4e0c8	0.02598609
63	0x3e112d35	0.14177401
64	0x3d1e0c45	0.03858592
65	0x3da4812b	0.08032449
66	0xbdd74bb7	-0.10512488
67	0xbd2fe84f	-0.042946156
68	0xbd5cd001	-0.053909305
69	0xbd2d75b6	-0.042348586
70	0x3d57856e	0.052617483
71	0xbdf48a51	-0.11940444
72	0x3d024e01	0.03181267
73	0xbdac4ba1	-0.084128626
74	0x3e24497b	0.16043656
75	0xbdc1598c	-0.09440908
76	0x3c7a15ed	0.015264017
77	0x3a9ea726	0.0012104257
78	0xbd45664c	-0.04819326
79	0xbb956ca7	-0.0045600715
80	0x3cf793ff	0.030221937
81	0xbcdd264b	-0.026995799
82	0x3d1f7073	0.0389256
83	0x3c8b475d	0.017001802
84	0xba8adb77	-0.001059397
85	0xbdc264a2	-0.094918504
86	0x3d924b7d	0.071433045
87	0x3d455422	0.04817594
88	0x3e1162e3	0.14197879
89	0x3cb6461f	0.022250233
90	0xbdc7b649	-0.09751565
91	0x3db684ea	0.0891207
92	0x3d2d4446	0.04230144
93	0x3da58898	0.08082694
94	0xbcdb11ea	-0.02674194
95	0x3dd32cca	0.10311277
96	0xba035eb7	-0.0005011367
97	0x3bbff7d6	0.005858402
98	0x3db50d29	0.08840401
99	0x3d330905	0.043709774
100	0xbc9c5f25	-0.019088337
101	0xbdecb215	-0.11557404
102	0xbdc71898	-0.09721488
103	0xbcd4b08d	-0.025963092
104	0x3ccf36f3	0.025294757
105	0xbe06a3be	-0.131484
106	0xbdb16a0f	-0.08662807
107	0x3e303bec	0.17210358
108	0xbd04e833	-0.032448005
109	0xbc9c0f47	-0.019050254
110	0x3cb2b9fe	0.021817204
111	0x3c9d4a24	0.019200392
112	0xbdebbdf0	-0.11510837
113	0x3c031834	0.008001376
114	0x3e10b165	0.1413017
115	0x3da754c2	0.08170463
116	0xbde85533	-0.113443755
117	0x3dd08334	0.10181275
118	0x3d0d1332	0.034442134
119	0xbc22cef5	-0.009937038
120	0xbd2aef06	-0.041731857
121	0xbd12440d	-0.03570943
122	0xbe304001	-0.17211916
123	0x3dc88083	0.09790137
124	0x3dae677f	0.08515834
125	0x3d8a1139	0.06741566
126	0x3d1371c9	0.035997186
127	0xbdcc0d61	-0.09963489
128	0x3c32dd6d	0.01091705
129	0x3cabc352	0.02096716
130	0x3cd75253	0.026284372
131	0x3cabd1ed	0.020974124
132	0xbc6edb9c	-0.014578726
133	0x3b0595ae	0.0020383405
134	0xbdfbf442	-0.12302448
135	0x3c9c1b52	0.019055996
136	0x3dd7f3b9	0.10544533
137	0xbd063f05	-0.032774944
138	0xbe3963f1	-0.18104531
139	0x3d83e085	0.06439308
140	0x3d9f8a00	0.07789993
141	0x3d5e6682	0.054296978
142	0x3e5a457a	0.21315566
143	0x3d23d22c	0.039995357
144	0x3db1eaaa	0.08687337
145	0x3e6217e9	0.22079434
146	0xbd0046d4	-0.031317547
147	0xbdbb50d2	-0.091462746
148	0xbdacc2d2	-0.084355965
149	0x3d907342	0.07053234
150	0xbda5cc5e	-0.080956206
151	0xbda7a09d	-0.081849314
152	0xbe72bb9c	-0.2370438
153	0x3d1a81cc	0.03772144
154	0x3d8fc8f8	0.070207536
155	0xbd000335	-0.03125306
156	0x3e13d44e	0.14436457
157	0xbd92de91	-0.071713574
158	0x3dc16b1b	0.09444257
159	0xbe03993b	-0.12851422
160	0xbd63a393	-0.05557592
161	0xbcb52522	-0.022112433
162	0xbe2813ad	-0.16413756
163	0x3ba3ff2f	0.0050047855
164	0xbd3f42cd	-0.046694566
165	0xba60d2b9	-0.0008576322
166	0xbe79506e	-0.24347088
167	0x3e32f3bb	0.17475788
168	0xbd87e416	-0.06635301
169	0x3cc08416	0.023500483
170	0xbd0fe9e9	-0.035135183
171	0xbdcc31c6	-0.09970431
172	0xbd0f33c7	-0.034961488
173	0x3e0dc23e	0.13843629
174	0xbbb2f282	-0.005461038
175	0xbded19dd	-0.11577199
176	0x3de2df19	0.11077709
177	0x3c096c9c	0.008387711
178	0x3ccb7d48	0.024840012
179	0x3d80d46f	0.062905185
180	0x3d0c81a6	0.03430333
181	0xbd892d22	-0.066980615
182	0x3d99f361	0.07517124
183	0x3d4f8e10	0.05067259
184	0x3c28ed12	0.010310428
185	0x3c84bd61	0.016203584
186	0xbe10b209	-0.14130415
187	0x3e0fb79f	0.1403489
188	0xbe0c5643	-0.13704781
189	0x3dfb11d8	0.12259263
190	0xbe8b928d	-0.27260247
191	0x3da7226f	0.081608646
192	0x3ca4830e	0.020082023
193	0xbcd56e11	-0.02605346
194	0xbdd3fe09	-0.10351188
195	0xbdb359a6	-0.087573335
196	0x3c734cd3	0.014849859
197	0xbd851467	-0.06498032
198	0x3cfd3288	0.030907884
199	0x3bff5e59	0.0077932295
200	0x3d6535ba	0.05595944
201	0x3dd6bcfa	0.10485263
202	0xbdb5a921	-0.088701494
203	0xbe21f34f	-0.15815471
204	0x3dbc6139	0.09198231
205	0x3e377cc7	0.17918693
206	0x3d684812	0.056709357
207	0x3d93d779	0.072188325
208	0x3d5b2554	0.053502396
209	0xbe178588	-0.14797032
210	0x3e125605	0.14290626
211	0xbe2de6d2	-0.16982582
212	0x3e1b1dbd	0.15148063
213	0xbe080067	-0.13281403
214	0x3d5e6067	0.054291155
215	0x3dc764c2	0.09736015
216	0xbb92fabf	-0.0044854577
217	0x3a4c2766	0.0007787853
218	0x3d2d4a3b	0.04230712
219	0x3ccd38bc	0.025051467
220	0x3e771ace	0.24131319
221	0x3cbdceef	0.023169963
222	0x3d2a7fe5	0.041625876
223	0xbd04676e	-0.0323252
224	0xbd4cef58	-0.050032943
225	0x3e10c33f	0.1413698
226	0x3e22642b	0.15858524
227	0xbd56c895	-0.052437384
228	0xbc687692	-0.014188426
229	0x3e3056da	0.17220631
230	0x3d8af367	0.067847066
231	0x3e136a9f	0.14396141
232	0xbd1308b2	-0.035896964
233	0x3e041ef5	0.12902434
234	0xbdedde4b	-0.11614665
235	0x3caa4570	0.020785064
236	0x3d85ab70	0.0652684
237	0xbd49a19f	-0.0492264
238	0xbd3cbc83	-0.046078216
239	0xbbfde1c9	-0.007747863
240	0x3c6fd372	0.014637815
241	0xbd2b2fe8	-0.041793734
242	0x3d5875e6	0.05284681
243	0xbca16516	-0.019701522
244	0x3c4e48d4	0.012590606
245	0xbe1cf5bc	-0.15328115
246	0xbc3748c8	-0.011186786
247	0xbafbd778	-0.0019213995
248	0xbd2ba933	-0.041909408
249	0xbbb55dc6	-0.0055348603
250	0xbe37dbd9	-0.17954959
251	0x3e1b0847	0.15139876
252	0x3dcef0c8	0.10104519
253	0xbdae6aa4	-0.08516434
254	0x3a163890	0.00057304744
255	0xbd8607c8	-0.06544453
