Results/test35/Doughnut.onnx (onnx, 128129 bytes, 6 tensors)

action_model._discrete_distribution.branches.0.bias f4 [2]
0.013977795 -0.013977791
00000000: 1f03 653c 1b03 65bc

action_model._discrete_distribution.branches.0.weight f4 [2, 128]
-0.030268658 -0.017532969 -0.05742196 0.031076603 0.03055927 -0.038348645 0.03248363 -0.025010439
0.034865603 0.0061545675 0.03355538 0.04376163 0.02718458 0.04139204 0.015349716 0.040082224
0.017095825 -0.017872445 0.042497993 0.031438034 0.06092828 0.020693585 -0.008702899 -0.0067814174
-0.050431374 0.03181749 -0.053661358 -0.035736177 0.033655617 0.028268218 0.03151741 0.02473319
-0.025224162 -0.03079754 -0.009261371 0.044622935 -0.06771963 0.023182275 -0.04010022 0.033436466
-0.027234249 0.013621933 -0.04752684 -0.07061584 -0.044414304 0.04341309 -0.037837647 -0.030656224
-0.045986764 0.024027131 0.048086945 0.05421547 0.023177946 0.044843193 -0.02574041 -0.07537862
-0.06311057 -0.0374955 -0.05275003 0.005411896 0.047507275 -0.0032600823 0.0032728224 -0.014449807
0.013412481 0.03882007 -0.0526316 -0.0453884 0.05398457 -0.019618321 0.04505585 -0.067751616
-0.0015249006 -0.03784415 -0.059298273 0.023796631 0.022372453 -0.071008325 -0.04701937 0.016774742
0.0467728 -0.053401623 0.02286686 0.0023650532 0.016813122 -0.06396732 -0.04371997 0.014897316
0.029668685 0.032164816 0.032532457 -0.045462143 -0.021608021 0.016731089 0.010745006 -0.031371392
0.03596616 0.03686752 -0.049636405 -0.042776227 0.04355446 -0.054446276 0.03820933 -0.06870777
0.016705373 -0.03930889 0.031207101 -0.034717392 -0.029516265 0.008561433 -0.039999597 0.02729542
0.064335085 0.02704555 -0.05789372 -0.04107604 -0.02685316 0.030527104 -0.06630403 0.021366926
-0.048584457 -0.03691682 0.045663256 0.030381398 -0.034920473 0.017143678 0.04172093 0.036138598
0.04695699 0.015187678 0.06868044 -0.02637541 -0.01746606 0.012373537 -0.030565377 0.016959714
-0.029335458 -0.017026016 -0.041303113 -0.026067916 -0.037206214 -0.0480981 -0.013972188 -0.01560637
-0.03170865 0.008488066 -0.044194415 -0.02247051 -0.038543716 -0.012362254 0.0055052526 0.0074607325
0.049908727 -0.03231868 0.041160937 0.06635934 -0.036758795 -0.033821788 -0.039371844 -0.026483912
0.035201784 0.04427924 0.0064118467 -0.0316125 0.04968589 -0.013182998 0.04894688 -0.04233666
0.03896685 -0.022047948 0.05855878 0.052111786 0.07110979 -0.033815492 0.05271492 0.043901596
0.06009165 -0.032368492 -0.031555206 -0.046510335 -0.024801897 -0.036144037 0.024527851 0.056510236
0.06581408 0.036685497 0.05181361 -0.012550229 -0.044706367 0.009933854 0.00096687785 0.024243493
-0.024188753 -0.02767433 0.05247128 0.045029245 -0.0692917 0.0062711528 -0.01628923 0.060041197
-0.01762829 0.062258255 0.06983992 -0.03216033 -0.013365435 0.049091607 0.03647764 -0.04310068
-0.052939136 0.065271966 -0.012730794 0.01557025 -0.025930261 0.05883642 0.021493966 0.020707184
-0.027121082 -0.047937546 -0.025810463 0.078971095 0.031396065 -0.018277073 -0.025756337 0.030475903
-0.02285536 -0.036661748 0.0454602 0.053151157 -0.03303751 0.061501242 -0.02639148 0.060055196
-0.029088981 0.05212521 0.00020130428 0.025038958 0.029300066 -0.0039082323 0.037874494 -0.022076678
-0.0555506 -0.037208073 0.047848307 0.04281824 0.032396156 -0.05144281 0.053605013 -0.01687104
0.03745305 0.04127217 -0.033022728 -0.017861199 0.052505303 -0.020726582 -0.03999904 -0.038841948
00000000: faf5 f7bc 4da1 8fbc 4a33 6bbd 5c94 fe3c
00000010: 6f57 fa3c 7813 1dbd 8e0d 053d b1e2 ccbc
00000020: 3ccf 0e3d 41ac c93b 5e71 093d 653f 333d
00000030: 32b2 de3c b38a 293d 607d 7b3c 422d 243d
00000040: 8b0c 8c3c 3c69 92bc 6012 2e3d 2bc5 003d
00000050: ef8f 793d 9885 a93c 9b96 0ebc a736 debb
00000060: 2191 4ebd 0e53 023d 03cc 5bbd 1960 12bd
00000070: 79da 093d c092 e73c 6618 013d 429d ca3c
00000080: e7a2 cebc 1f4b fcbc 01bd 17bc 8ac6 363d
00000090: 97b0 8abd c1e8 bd3c 2140 24bd adf4 083d
000000a0: 5c1a dfbc 872e 5f3c 81ab 42bd 0a9f 90bd
000000b0: c6eb 35bd edd1 313d a6fb 1abd c322 fbbc
000000c0: 9e5c 3cbd 8cd4 c43c d1f6 443d 0a11 5e3d
000000d0: addf bd3c 7fad 373d 8ddd d2bc 1b60 9abd
000000e0: 1d40 81bd e294 19bd 6a10 58bd 4656 b13b
000000f0: fd96 423d 1ba7 55bb d97c 563b e2be 6cbc
00000100: 06c0 5b3c cb01 1f3d 3c94 57bd 30e9 39bd
00000110: ed1e 5d3d 9ab6 a0bc 7c8c 383d 5cc1 8abd
00000120: 2cdf c7ba 7802 1bbd bfe2 72bd 27f1 c23c
00000130: 6f46 b73c d06c 91bd 6297 40bd 2f6b 893c
00000140: d694 3f3d a9bb 5abd 4853 bb3c 02ff 1a3b
00000150: acbb 893c 4c01 83bd b613 33bd df13 743c
00000160: be0b f33c 41bf 033d c140 053d 8336 3abd
00000170: 4e03 b1bc a30f 893c d20b 303c 4a7f 00bd
00000180: 4151 133d 6602 173d 8b4f 4bbd 2036 2fbd
00000190: 2966 323d 0f03 5fbd 6381 1c3d a9b6 8cbd
000001a0: b5d9 883c 5c02 21bd 09a6 ff3c d333 0ebd
000001b0: 18cc f1bc 4145 0c3c 9ed6 23bd a59a df3c
000001c0: 1dc2 833d a18e dd3c f721 6dbd 5a3f 28bd
000001d0: 28fb dbbc fa13 fa3c 68ca 87bd b109 af3c
000001e0: 7f00 47bd 1736 17bd 6509 3b3d 69e2 f83c
000001f0: c508 0fbd e670 8c3c 91e3 2a3d 1106 143d
00000200: f955 403d bdd5 783c 55a8 8c3d 3e11 d8bc
00000210: fc14 8fbc 60ba 4a3c 3e64 fabc 19ef 8a3c
00000220: ea50 f0bc 257a 8bbc 742d 29bd 628c d5bc
00000230: 8b65 18bd 8302 45bd 9beb 64bc dcb1 7fbc
00000240: eee0 01bd 8711 0b3c 3405 35bd 1314 b8bc
00000250: 04e0 1dbd 0d8b 4abc 6865 b43b 2979 f43b
00000260: 186d 4c3d 9860 04bd 5f98 283d 68e7 873d
00000270: 6490 16bd b788 0abd 5f44 21bd caf4 d8bc
00000280: bf2f 103d 265e 353d 781a d23b 1c7c 01bd
00000290: 6f83 4b3d 80fd 57bc 867c 483d 3569 2dbd
000002a0: b49b 1f3d e69d b4bc 55db 6f3d 2b73 553d
000002b0: 02a2 913d 1d82 0abd 9aeb 573d 29d2 333d
000002c0: a922 763d d394 04bd 0840 01bd 9f81 3ebd
000002d0: 592d cbbc c50b 14bd a2ee c83c 4777 673d
000002e0: 88c9 863d 8843 163d 823a 543d 7a9f 4dbc
000002f0: 061e 37bd 9bc1 223c 1376 7d3a 4a9a c63c
00000300: 7e27 c6bc 47b5 e2bc 20ec 563d 9670 383d
00000310: cfe8 8dbd 3e7e cd3b fe70 85bc c2ed 753d
00000320: 3469 90bc 8302 7f3d 3b08 8f3d 8dba 03bd
00000330: b3fa 5abc 4814 493d 9469 153d 578a 30bd
00000340: b5d6 58bd 4fad 853d d294 50bc 5d1a 7f3c
00000350: b36b d4bc 75fe 703d 1d14 b03c 1da2 a93c
00000360: 082d debc 295a 44bd 7770 d3bc 99bb a13d
00000370: 2999 003d cdb9 95bc f4fe d2bc 9aa8 f93c
00000380: 2a3b bbbc a12a 16bd 7a34 3a3d 07b5 593d
00000390: 5752 07bd bae8 7b3d f232 d8bc 70fc 753d
000003a0: 044c eebc 3f81 553d 3515 5339 801e cd3c
000003b0: b106 f03c a110 80bb 4922 1b3d 26da b4bc
000003c0: 0789 63bd 7e67 18bd 96fc 433d 2e62 2f3d
000003d0: d5b1 043d b2b5 52bd ee90 5b3d 2335 8abc
000003e0: 5f68 193d 020d 293d d742 07bd a651 92bc
000003f0: cd0f 573d cbca a9bc 09d6 23bd bc18 1fbd

network_body._body_endoder.seq_layers.0.bias f4 [128]
0.014186149 0.0039198594 -0.0038116816 -0.008753368 0.0028533977 0.007788397 0.007514447 0.009780805
-0.0028332074 0.015730577 0.028115204 0.019391172 0.027245004 0.019790104 0.014082876 0.012213195
0.014859537 0.018626291 0.02435747 0.02132363 0.0014871673 -0.0145247625 0.010678627 -0.0036751763
0.011415314 0.03308685 0.024976686 0.024097681 0.0100682955 0.01684126 -0.0061784834 -0.03428601
0.02048029 0.011126199 0.024898505 0.02977751 0.0038523017 0.014537636 0.035110142 0.04495154
0.00474639 0.04713972 -0.0058418075 0.010169763 -0.0033555157 0.03223779 0.0075260154 0.018039398
0.047689226 -0.0034005784 0.014541993 0.012807371 0.0052480022 0.023008984 0.01257148 0.0024890804
0.030983357 0.029458536 0.020477988 0.02011597 0.0056499736 0.003998421 0.0145231765 0.0068822047
0.014198453 0.005061595 0.0062528546 0.008810638 0.011230578 0.03939085 0.0069309305 0.00985004
0.030184459 0.013389344 0.017567314 0.0064395773 0.021717187 -0.0023322238 0.008754499 0.018856458
0.010326618 -0.0003022185 0.021023216 0.023456793 -0.009973939 0.011302497 0.0023053198 0.016610509
0.017928027 0.030017609 -0.025381982 0.029478062 0.021217499 0.012678286 -0.02380458 0.017203035
0.032977045 0.0067084664 0.017966073 0.020038482 0.009538377 0.013435019 0.038536448 0.020013282
0.016749997 0.003487133 0.023821238 0.0025944286 0.022865687 0.016138768 0.016238905 0.0072207847
-0.010956671 0.010022257 0.009470299 -0.0024512727 0.00719269 0.007992829 0.0115765445 0.0020460007
0.033790205 0.010394326 -0.0038453697 0.019942295 0.01700936 0.013910903 0.033612646 -0.0064090183
00000000: 066d 683c 2a72 803b 68cd 79bb 496a 0fbc
00000010: 1200 3b3b cf35 ff3b c03b f63b ab3f 203c
00000020: 55ad 39bb 69dd 803c db51 e63c 3cda 9e3c
00000030: ea30 df3c db1e a23c ddbb 663c da19 483c
00000040: 6a75 733c 2a96 983c 5189 c73c e5ae ae3c
00000050: 0eed c23a 45f9 6dbc 68f5 2e3c 3adb 70bb
00000060: 4c07 3b3c 1486 073d e89b cc3c 8068 c53c
00000070: 7ef5 243c aff6 893c e074 cabb 7d6f 0cbd
00000080: 48c6 a73c a94a 363c f3f7 cb3c f7ef f33c
00000090: e676 7c3b 442f 6e3c a7cf 0f3d 1b1f 383d
000000a0: 9b87 9b3b 9415 413d a26c bfbb 149f 263c
000000b0: 36e8 5bbb c60b 043d cb9c f63b 5cc7 933c
000000c0: c755 433d 3ddc 5ebb 8a41 6e3c 02d6 513c
000000d0: 6ff7 ab3b 567d bc3c 9cf8 4d3c d71f 233b
000000e0: cfd0 fd3c 0753 f13c 74c1 a73c 3fca a43c
000000f0: 6a23 b93b 3005 833b 9ef2 6d3c 1e84 e13b
00000100: a1a0 683c bcdb a53b bfe4 cc3b 7f5a 103c
00000110: 7500 383c 4d58 213d dc1c e33b 1062 213c
00000120: 6645 f73c fb5e 5b3c 54e9 8f3c 1703 d33b
00000130: 3ee8 b13c 39d8 18bb 086f 0f3c dc78 9a3c
00000140: fa30 293c 1573 9eb9 e138 ac3c 7628 c03c
00000150: bb69 23bc 1c2e 393c d914 173b c312 883c
00000160: ccdd 923c 7de7 f53c e0ed cfbc fa7b f13c
00000170: 52d0 ad3c 96b8 4f3c d301 c3bc 61ed 8c3c
00000180: f012 073d b2d2 db3b 962d 933c be27 a43c
00000190: da46 1c3c 8e1e 5c3c 65d8 1d3d e5f2 a33c
000001a0: 4a37 893c 6288 643b c224 c33c 4a07 2a3b
000001b0: d250 bb3c 7335 843c 7407 853c 559c ec3b
000001c0: 9c83 33bc 6534 243c 5029 1b3c 88a5 20bb
000001d0: a8b0 eb3b 5bf4 023c 8cab 3d3c 3216 063b
000001e0: 9967 0a3d f74c 2a3c 9902 7cbb 065e a33c
000001f0: 3757 8b3c 8eea 633c 6aad 093d be02 d2bb

network_body._body_endoder.seq_layers.0.weight f4 [128, 114]
0.010740263 0.012848483 -0.08648643 0.19594568 0.008950399 -0.0003792626 -0.10352298 -0.0076379552
-0.15226896 0.033892997 -0.04647562 -0.25783706 -0.010653872 0.033728212 0.06599313 0.116592914
0.059148315 -0.14208485 0.04808915 0.07315159 0.10232935 0.13997287 -0.19416465 0.094688155
-0.003209326 0.047797684 0.13425821 0.21417642 -0.08358313 0.053256426 0.123028964 0.03712049
-0.30507252 -0.12733649 -0.13584614 -0.059964124 0.043664146 -0.09645052 -0.1088355 -0.04703589
0.11013293 0.047814336 0.0582009 0.048796717 -0.14674543 -0.080374934 -0.032808773 0.11854357
0.052091546 0.05424011 -0.023587279 0.015725952 0.026403688 -0.054114327 0.0032030216 -0.06296616
-0.02166787 0.09854211 -0.055252884 -0.017539758 0.054048732 -0.027780218 0.09619426 0.092206165
-0.09127137 0.17547189 0.23920546 -0.06339452 0.08653387 0.048397865 0.047275785 0.09030182
-0.022815937 0.048054017 0.12777829 -0.05733924 -0.045515962 0.12779878 0.014425319 0.012337645
0.082446136 -0.07562479 -0.1882148 0.18207082 0.051827975 0.21846382 0.11668767 0.10445088
-0.13914025 0.024816707 -0.0671017 -0.015872201 -0.046350263 0.23524472 -0.015553354 0.051784616
-0.110437036 0.036245607 -0.026882099 -0.116611764 -0.107613616 0.2100807 0.120950334 0.10658351
0.16839986 0.18423556 0.028557062 0.19444385 -0.02104348 -0.035598855 -0.080927745 0.011306361
0.048917864 0.091407776 -0.13417277 -0.07262193 0.07164191 -0.18273407 -0.028259378 0.060171094
0.040774625 -0.111221135 0.041801844 0.037342235 0.0017269247 0.04065417 -0.0068527013 0.06783726
0.06107974 0.12849265 0.13579981 0.09366684 0.05166627 0.09011385 0.100394726 0.13471636
0.0191422 0.00870432 0.098494366 -0.040394194 0.16458338 0.026325468 0.031220203 0.12221313
0.0485558 0.007073533 0.08381747 0.009683685 0.082002096 0.08662891 0.2329617 -0.018591916
0.0020469674 -0.15582827 0.1500531 -0.1802027 0.07013992 -0.0016443189 0.09421575 -0.0918688
0.004146994 0.028539013 -0.018688943 0.081453815 0.36690125 -0.024606118 -0.09714508 0.09421821
0.029087856 0.042091947 -0.09559076 -0.029882258 -0.070705265 -0.22511111 0.13411479 -0.06403084
-0.19431376 0.047496013 -0.114742756 -0.10632746 0.1711606 0.09606868 -0.21247685 0.115272306
-0.042171627 -0.08718328 0.25412905 0.11388188 -0.08422971 -0.11866107 -0.039425686 -0.20117927
0.1651651 0.014008279 -0.1346381 0.15471649 -0.20441692 -0.13072711 0.047995184 -0.030656364
-0.17840567 -0.12423193 0.16416135 -0.00841172 0.066989474 0.0057731275 -0.14886342 -0.01442057
0.06617809 -0.08032484 -0.054464966 -0.02215633 -0.24681096 -0.039103847 0.014797423 -0.10005047
0.07788229 -0.034958363 -0.0639726 -0.15071794 0.09416971 -0.205281 -0.031262346 -0.016685044
-0.10217171 0.175601 0.053515226 -0.035316627 -0.19701949 0.069482446 -0.1879534 0.09751834
0.0242986 0.13925658 0.081026174 0.022410698 -0.027855884 0.05025395 0.011153928 0.03815554
-0.042149622 -0.002687699 0.19865781 -0.10217498 0.08648846 0.13203548 -0.17028151 -0.06627021
0.10170344 -0.1058911 0.19387743 0.13123146 0.019633152 -0.02466547 0.14057994 0.022092141
00000000: eef7 2f3c 7282 523c cc1f b1bd fca5 483e
00000010: b2a4 123c c4d7 c6b9 db03 d4bd d047 fabb
00000020: 65ec 1bbe 62d3 0a3d 385d 3ebd 3803 84be
00000030: 948d 2ebc 9826 0a3d 6827 873d 44c8 ee3d
00000040: 8145 723d b17e 11be 21f9 443d 80d0 953d
00000050: 0d92 d13d 0c55 0f3e 19d3 46be ddeb c13d
00000060: 8e53 52bb 81c7 433d fc7a 093e 1051 5b3e
00000070: a22d abbd 6923 5a3d 9cf6 fb3d a80b 183d
00000080: 7732 9cbe 7f64 02be 401b 0bbe f19c 75bd
00000090: 2dd9 323d da87 c5bd 26e5 debd b5a8 40bd
000000a0: 608d e13d f7d8 433d 1164 6e3d 11df 473d
000000b0: 6f44 16be 9d9b a4bd 7e62 06bd f9c6 f23d
000000c0: f25d 553d e12a 5e3d 1c3a c1bc b6d3 803c
000000d0: 8c4c d83c fca6 5dbd c9e9 513b 67f4 80bd
000000e0: d180 b1bc 72d0 c93d d950 62bd 8aaf 8fbc
000000f0: 3462 5d3d 5793 e3bc 7f01 c53d 96d6 bc3d
00000100: 7cec babd e7ae 333e 47f2 743e fcd4 81bd
00000110: ab38 b13d d73c 463d 41a4 413d 29f0 b83d
00000120: 7de8 babc 4ad4 443d 50d8 023e 8ddc 6abd
00000130: f26e 3abd afdd 023e 2c58 6c3c d523 4a3c
00000140: 85d9 a83d 2be1 9abd 61bb 40be c670 3a3e
00000150: 9249 543d fbb4 5f3e f2f9 ee3d 58ea d53d
00000160: c87a 0ebe 684c cb3c 9e6c 89bd 6b06 82bc
00000170: c6d9 3dbd fee3 703e 7fd3 7ebc 1b1c 543d
00000180: d02c e2bd 4676 143d d937 dcbc 26d2 eebd
00000190: 8764 dcbd 651f 573e cfb4 f73d 7548 da3d
000001a0: 0371 2c3e 3fa8 3c3e 80f0 e93c 4a1c 473e
000001b0: 6063 acbc 1bd0 11bd 72bd a5bd 513e 393c
000001c0: 195e 483d 0034 bb3d 9664 09be ceba 94bd
000001d0: feb8 923d a41e 3bbe 3680 e7bc f775 763d
000001e0: 4b03 273d e8c7 e3bd 6938 2b3d 2cf4 183d
000001f0: fa59 e23a fd84 263d a08c e0bb 43ee 8a3d
00000200: c02e 7a3d 9493 033e 1b0f 0b3e 66d4 bf3d
00000210: 03a0 533d 9c8d b83d c09b cd3d 16f3 093e
00000220: 1ad0 9c3c 909c 0e3c 6ab7 c93d 6274 25bd
00000230: 8c88 283e 82a8 d73c 83c1 ff3c e14a fa3d
00000240: 72e2 463d 18c9 e73b 7ea8 ab3d 52a8 1e3c
00000250: b7f0 a73d 7f6a b13d 838d 6e3e 134e 98bc
00000260: 6a26 063b 7291 1fbe 85a7 193e 0e87 38be
00000270: 85a5 8f3d 3086 d7ba 30f4 c03d b625 bcbd
00000280: 82e3 873b a6ca e93c 8e19 99bc 42d1 a63d
00000290: 7bda bb3e c592 c9bc 00f4 c6bd 7af5 c03d
000002a0: a849 ee3c 9b68 2c3d 17c5 c3bd a3cb f4bc
000002b0: eccd 90bd 8783 66be 6355 093e 9a22 83bd
000002c0: 30fa 46be 2e8b 423d 40fe eabd 36c2 d9bd
000002d0: b944 2f3e a8bf c43d 8893 59be e313 ec3d
000002e0: 28bc 2cbd 268d b2bd 341d 823e e73a e93d
000002f0: a080 acbd 9304 f3bd d47c 21bd f001 4ebe
00000300: 0a21 293e fb82 653c 92de 09be 006e 1e3e
00000310: ab52 51be 54dd 05be 9996 443d 0e23 fbbc
00000320: faaf 36be 4f6d febd ea19 283e 50d1 09bc
00000330: c731 893d 812c bd3b a76f 18be 4144 6cbc
00000340: 6188 873d 5a81 a4bd a816 5fbd 3181 b5bc
00000350: 03bc 7cbe 5b2b 20bd e470 723c 43e7 ccbd
00000360: c080 9f3d 8030 0fbd 1104 83bd ce55 1abe
00000370: 0ddc c03d 2f35 52be f20c 00bd 13af 88bc
00000380: 673f d1bd c0d0 333e c832 5b3d 2ba8 10bd
00000390: 7abf 49be d04c 8e3d db76 40be b2b7 c73d
000003a0: dc0d c73c 4799 0e3e 0df1 a53d a496 b73c
000003b0: 0632 e4bc 16d7 4d3d f7be 363c fc48 1c3d
000003c0: 15a5 2cbd 1b24 30bb f46c 4b3e 1e41 d1bd
000003d0: dd20 b13d 4f34 073e 475e 2ebe adb8 87bd
000003e0: e549 d03d 6fdd d8bd ce87 463e 8a61 063e
000003f0: b4d5 a03c 3d0f cabc 30f4 0f3e 94fa b43c

network_body._body_endoder.seq_layers.2.bias f4 [128]
0.006151564 -0.010531714 0.0026600247 0.020091964 0.022339795 -0.007086971 0.020052884 -0.013217552
0.020810517 0.0062689423 0.018323794 0.017946875 0.019925294 0.024444927 0.01737743 0.01555401
0.019060137 0.010489727 0.020399375 0.018360598 0.024317846 0.01386239 -0.0059639877 -0.0111410925
0.021483658 0.0069438852 0.01960618 0.009601158 0.019167611 0.012517332 0.020293092 0.014104509
0.0007817791 -0.001953621 -0.0050417203 0.02445967 -0.0032025254 0.017076733 -0.00071439997 0.013653738
0.0044952566 0.017625222 0.008995034 0.010849689 0.0054479907 0.018394032 0.009417793 -0.0030051216
-0.0025207666 0.015510715 0.021043641 0.01835788 0.006775428 0.019012462 0.0009991766 0.0026677423
-0.00080427143 -0.0033586833 0.018219905 0.010740614 0.011277612 -0.008999196 0.0034668248 -0.0059087644
0.0134284245 0.016471384 0.0064805583 0.01599167 0.024694026 -0.0076921796 0.01751608 0.01302208
0.010831882 0.009312445 0.004806313 0.015290161 0.013303964 0.020588975 0.0053705624 0.014536789
0.011680292 2.4634332e-06 0.010387463 -0.0073675048 0.018650636 0.005780239 0.0065147644 0.008567493
0.01778385 0.0075857113 0.02150296 0.01249578 -0.006219745 0.005137272 0.019575289 0.010353568
0.009539897 0.018136136 -0.010230555 0.0010747123 0.022135563 -0.0009945827 0.035358958 0.00474114
0.016810708 -0.006337224 -8.548398e-05 0.00054720795 -0.0052602272 0.0026551532 -0.009330385 0.014916174
0.029025627 0.01912865 0.009632947 0.0022022836 0.0011296401 0.008286947 0.0009047752 0.013938704
-0.0021254236 0.0074925665 0.013784926 0.019648809 -0.00011210469 0.019154675 0.0132146645 0.02020024
00000000: 0f93 c93b 368d 2cbc cf53 2e3b e797 a43c
00000010: f201 b73c d239 e8bb f245 a43c 6e8e 58bc
00000020: d17a aa3c b36b cd3b c81b 963c 5305 933c
00000030: 5f3a a33c ba40 c83c 1d5b 8e3c 3fd6 7e3c
00000040: 0124 9c3c 1bdd 2b3c 971c a73c f768 963c
00000050: 3836 c73c 141f 633c 8e6d c3bb 2189 36bc
00000060: 7ffe af3c 8889 e33b 249d a03c 2d4e 1d3c
00000070: 6505 9d3c 7f15 4d3c b33d a63c 9916 673c
00000080: 4ff0 4c3a 5208 00bb 0435 a5bb a55f c83c
00000090: 76e1 51bb 81e4 8b3c 9246 3bba eeb3 5f3c
000000a0: f24c 933b c562 903c e85f 133c e5c2 313c
000000b0: 0f85 b23b 15af 963c 164d 1a3c 93f1 44bb
000000c0: 7233 25bb a720 7e3c b763 ac3c 4463 963c
000000d0: 6904 de3b 06c0 9b3c cef6 823a 4ad5 2e3b
000000e0: bed5 52ba 5b1d 5cbb e941 953c 66f9 2f3c
000000f0: bcc5 383c 5d71 13bc ab33 633b 4f9e c1bb
00000100: e502 5c3c ffee 863c dd5a d43b f600 833c
00000110: 204b ca3c ae0e fcbb e27d 8f3c 905a 553c
00000120: 3578 313c 3a93 183c 477e 9d3b 9583 7a3c
00000130: dff8 593c 36aa a83c 8bfb af3b b62b 6e3c
00000140: b25e 3f3c 7651 2536 2d30 2a3c 1c6b f1bb
00000150: 38c9 983c 2968 bd3b ce79 d53b ac5e 0c3c
00000160: 70af 913c 8f91 f83b fa26 b03c 1abb 4c3c
00000170: 01cf cbbb 9056 a83b 5b5c a03c 03a2 293c
00000180: 3a4d 1c3c 3c92 943c 0f9e 27bc 5cdd 8c3a
00000190: a455 b53c a85c 82ba 8ed4 103d 915b 9b3b
000001a0: 9cb6 893c 7da8 cfbb dd45 b3b8 8172 0f3a
000001b0: fc5d acbb 1402 2e3b 79de 18bc f862 743c
000001c0: 27c7 ed3c b0b3 9c3c 82d3 1d3c 3054 103b
000001d0: 6f10 943a fac5 073c 702e 6d3a 295f 643c
000001e0: b14a 0bbb 3484 f53b 2cda 613c 8af6 a03c
000001f0: bf19 ebb8 44ea 9c3c 5282 583c f97a a53c

network_body._body_endoder.seq_layers.2.weight f4 [128, 128]
0.05606489 0.14590195 0.0711714 -0.14735581 0.045273084 0.037507765 0.019378092 -0.01953993
0.04799431 0.08613056 0.006026614 -0.14067346 0.015927361 0.01706715 -0.085479945 0.18907762
-0.12553884 -0.04230257 -0.020329405 0.02093729 0.07460826 -0.101512626 -0.02245668 -0.11699164
-0.080713876 -0.05487133 -0.057505593 -0.17987816 -0.060160413 -0.079493016 0.08283293 -0.056710646
0.14477521 0.109059446 -0.15190125 0.062793374 0.14894742 -0.0314678 0.06505338 0.12662612
-0.06289113 0.07616788 -0.1303573 -0.048897665 -0.032263704 -0.075668655 -0.030760098 0.0028092521
-0.14078625 -0.054486997 0.048314955 -0.055864047 -0.016726626 0.0028700295 0.060204316 -0.10187823
0.119840525 -0.094960906 0.10100519 -0.051509682 -0.12993108 -0.2329942 0.07651199 0.06812674
-0.23087682 -0.04192205 0.15697476 -0.041346014 0.116370104 -0.0017274804 0.1750801 -0.113914326
0.14418875 -0.07567113 -0.09156244 0.040098287 0.02026248 -0.036887046 -0.05696022 -0.072406515
-0.002289892 0.13678129 0.02743741 0.050869476 0.03122126 -0.01100772 -0.13385198 -0.05524407
0.094941065 -0.0041265436 0.07266292 0.15544993 -0.052052442 0.048658334 -0.13529308 0.074457385
-0.07318766 0.18460244 -0.20531219 0.086598665 -0.06721864 0.09673983 0.2433543 -0.14126611
0.18206915 -0.06392594 0.07684623 -0.034685023 0.09316337 -0.07509569 0.052163906 0.041019645
0.058701575 0.06419643 -0.053541098 0.059007693 -0.09569944 0.17877898 -0.00740326 0.15548487
-0.004153591 0.019305926 0.083418444 0.3485914 0.32327697 0.052270543 0.21764173 -0.061726328
0.1265879 0.0144381225 0.03325061 -0.055184383 -0.13861857 -0.033097584 -0.044828936 -0.046549458
0.025486933 0.2091423 0.035719845 0.015825225 0.068692334 0.075017065 0.048802935 -0.0012461332
-0.054356538 0.111783914 0.060463943 -0.04317006 -0.05133447 -0.01699534 0.111489415 -0.045265332
0.0034520826 -0.06916959 0.018173965 -0.026189871 -0.08901914 0.21059446 0.033469956 0.06258509
0.03425408 0.007927877 -0.055764496 0.0905245 0.026830819 0.102041036 -0.0828177 0.13522758
-0.17704408 0.054257836 -0.10214491 -0.0055931495 0.17917567 0.12103648 0.052852932 1.1520662e-05
-0.11745126 0.13467845 0.053265255 0.056816313 0.14255835 0.05076723 0.17963876 0.046911247
0.13848776 -0.09872964 -0.13609663 0.01642746 0.15133971 -0.06798875 -0.055211417 0.1006957
0.046575386 0.07170562 0.087177254 0.020701291 0.053089008 0.07015921 -0.044305768 0.06296718
0.010833313 -0.047813777 0.023599219 -0.01421182 -0.0643288 -0.1360913 0.19960478 -0.08666253
-0.015916137 -0.0889873 -0.07771992 0.032068077 0.052530743 -0.117067434 -0.14024784 -0.051625997
-0.11974679 -0.050014652 -0.050462782 0.1442171 -0.058920808 -0.18934911 -0.022401566 -0.0061760545
0.08893067 0.10111421 -0.03959775 0.031089423 -0.0011427569 -0.03210733 -0.06671865 0.094301194
0.14620973 0.037723977 0.06597434 -0.017276034 0.055654418 0.007385041 0.21460217 0.078423
0.03990367 0.117602564 -0.102366775 0.09204111 0.07720085 0.073440224 0.04151496 -0.10137892
-0.08019939 0.047647994 0.02174411 0.028934307 -0.068865575 0.10911198 0.068755746 0.11498669
00000000: 4ca4 653d 5267 153e 50c2 913d 71e4 16be
00000010: 4570 393d bea1 193d cebe 9e3c 3412 a0bc
00000020: ae95 443d 3865 b03d e77a c53b b40c 10be
00000030: 197a 823c 68d0 8b3c 1c10 afbd 909d 413e
00000040: 418d 00be 7645 2dbd da89 a6bc ae84 ab3c
00000050: 37cc 983d dae5 cfbd 12f7 b7bc 5099 efbd
00000060: 514d a5bd c2c0 60bd fc8a 6bbd fb31 38be
00000070: c46a 76bd 3ccd a2bd 50a4 a93d 6c49 68bd
00000080: f43f 143e 8f5a df3d 008c 1bbe d099 803d
00000090: ac85 183e 61e4 00bd b53a 853d 47aa 013e
000000a0: 11cd 80bd e8fd 9b3d 627c 05be eb48 48bd
000000b0: f226 04bd 2bf8 9abd 9afc fbbc 6e1b 383b
000000c0: 452a 10be c22d 5fbd e7e5 453d b3d1 64bd
000000d0: 4706 89bc 1b17 3c3b cd98 763d 89a5 d0bd
000000e0: f36e f53d dd7a c2bd cfdb ce3d d1fb 52bd
000000f0: a70c 05be 0896 6ebe 51b2 9c3d 0886 8b3d
00000100: f96a 6cbe 75b6 2bbd febd 203e 705a 29bd
00000110: 7353 ee3d a06c e2ba 3348 333e ea4b e9bd
00000120: 37a6 133e 77f9 9abd 1785 bbbd 1a3e 243d
00000130: 80fd a53c df16 17bd 1f4f 69bd de49 94bd
00000140: 0312 16bb 6510 0c3e 6bc4 e03c 835c 503d
00000150: bac3 ff3c b959 34bc 7e10 09be 9b47 62bd
00000160: 7670 c23d f537 87bb 4cd0 943d 442e 1f3e
00000170: f134 55bd f64d 473d 458a 0abe 1d7d 983d
00000180: 69e3 95bd 6c08 3d3e 5c3d 52be a45a b13d
00000190: eda9 89bd 881f c63d df31 793e 10a8 10be
000001a0: 5670 3a3e 9aeb 82bd 8e61 9d3d e211 0ebd
000001b0: 70cc be3d c5cb 99bd d2a9 553d 3704 283d
000001c0: 1071 703d 6b79 833d e94d 5bbd 0db2 713d
000001d0: 11fe c3bd d611 373e 0c97 f2bb 6d37 1f3e
000001e0: d91a 88bb 7627 9e3c 4ad7 aa3d 927a b23e
000001f0: 8f84 a53e a319 563d 79dd 5e3e bfd4 7cbd
00000200: 42a0 013e e08d 6c3c cb31 083d 0509 62bd
00000210: 07f2 0dbe 5591 07bd 8c9e 37bd a5aa 3ebd
00000220: f9c9 d03c 6629 563e f94e 123d e7a3 813c
00000230: 91ae 8c3d 8ca2 993d 96e5 473d 4b55 a3ba
00000240: f6a4 5ebd f7ee e43d 0aa9 773d 17d3 30bd
00000250: 1844 52bd d039 8bbc 9054 e43d 2468 39bd
00000260: 563c 623b c9a8 8dbd 91e1 943c 248c d6bc
00000270: ab4f b6bd 13a6 573e cb17 093d 9d2c 803d
00000280: 024e 0c3d ede3 013c 5069 64bd e964 b93d
00000290: 4ecc db3c e4fa d03d 549c a9bd 1979 0a3e
000002a0: 0b4b 35be 773d 5e3d 5a31 d1bd bd46 b7bb
000002b0: d479 373e f9e1 f73d 517c 583d de48 4137
000002c0: 498a f0bd 26e9 093e ab2c 5a3d 39b8 683d
000002d0: d1fa 113e 4df1 4f3d 39f3 373e 0226 403d
000002e0: bccf 0d3e c432 cabd ea5c 0bbe e192 863c
000002f0: ccf8 1a3e b03d 8bbd 5e25 62bd 8c39 ce3d
00000300: d5c5 3e3d 65da 923d fd89 b23d c195 a93c
00000310: dc73 593d a2af 8f3d f779 35bd f0f4 803d
00000320: 357e 313c 61d8 43bd 2653 c13c b2d8 68bc
00000330: d1be 83bd 855b 0bbe 3265 4c3e 207c b1bd
00000340: 8f62 82bc f93e b6bd 9f2b 9fbd d159 033d
00000350: 7a2a 573d 0dc1 efbd 219d 0fbe c875 53bd
00000360: ce3d f5bd 2adc 4cbd 10b2 4ebd a6ad 133e
00000370: f256 71bd bce4 41be 7d83 b7bc 8060 cabb
00000380: 4821 b63d f814 cf3d 4031 22bd 3faf fe3c
00000390: 8fc8 95ba fa82 03bd caa3 88bd fc20 c13d
000003a0: 01b8 153e 7584 1a3d 8e1d 873d 7886 8dbc
000003b0: e3f5 633d 37fe f13b acc0 5b3e 3d9c a03d
000003c0: 0872 233d 9dd9 f03d aca5 d1bd 0d80 bc3d
000003d0: 7b1b 9e3d d467 963d 970b 2a3d c09f cfbd
000003e0: 943f a4bd 8b2a 433d b420 b23c a407 ed3c
000003f0: 6509 8dbd 1a76 df3d d0cf 8c3d 247e eb3d
