Results/test4/Doughnut/Doughnut-0.onnx (onnx, 109697 bytes, 6 tensors)

action_model._discrete_distribution.branches.0.bias f4 [2]
000000 00 00 00 00 00 00 00 00
       0.0 0.0

action_model._discrete_distribution.branches.0.weight f4 [2, 128]
000000 c3 89 14 3c 11 28 a6 bb 33 1e c7 3b 18 05 42 bb
       0.009066048 -0.0050706943 0.006076598 -0.0029605087
000010 3c da bc bb 9f 75 63 ba ee 9d 3b bc f6 14 0e bc
       -0.0057633203 -0.00086768897 -0.011451228 -0.00867199
000020 ab 87 45 bb f5 d9 ec ba ec 34 05 b8 a8 8e d2 3b
       -0.003014068 -0.0018070327 -3.175896e-05 0.0064256974
000030 ef 9e 77 bb 86 69 2a bc 47 17 27 bc b3 c1 98 3b
       -0.003778394 -0.010401135 -0.010198421 0.0046617626
000040 85 1b f7 bb bf 20 8a 3a 5b 61 52 ba 0b f9 a4 bb
       -0.0075411224 0.0010538324 -0.00080253714 -0.005034571
000050 44 4b 3b 3b 28 14 78 3c 77 83 5b 3c 94 86 2c bb
       0.0028578797 0.015141524 0.013398043 -0.0026325332
000060 c2 85 20 b9 50 34 87 3b 28 72 f6 3b 13 13 5a 3c
       -0.00015308618 0.004126109 0.0075209327 0.013310212
000070 53 d5 9a 3b 0a 0c 6e 3c 41 66 4a 3c 50 63 78 b9
       0.0047251373 0.0145292375 0.012353481 -0.0002368812
000080 46 b8 99 bb a8 13 56 3b fa 71 28 bc 60 f8 e1 3b
       -0.0046911566 0.0032665525 -0.01028108 0.0068960637
000090 af 07 af 3a a7 fd fa bb 93 e0 f6 bb 03 52 dc 3a
       0.001335373 -0.0076596322 -0.0075340956 0.0016809109
0000a0 d1 9e 84 ba e4 5c 84 3b 56 2b 8b bc f4 a7 ad ba
       -0.0010118132 0.0040393937 -0.016988438 -0.0013248906
0000b0 7d b6 2e bc bd 8d db bb 54 60 17 3c 20 9c f9 bb
       -0.010663626 -0.006700246 0.009239275 -0.0076174885
0000c0 0d f7 a4 3c 2f b3 08 3c c0 32 97 bb 2c 34 c9 bb
       0.020137334 0.008343502 -0.004614204 -0.0061402526
0000d0 5b 7c da bb c9 44 19 3c c2 e1 12 bc 9f f6 cd bb
       -0.0066676564 0.009354779 -0.008964958 -0.006285503
0000e0 bb 47 7c bc 20 ed fa bb 8e 3a 3a bb ee 01 03 bb
       -0.015397961 -0.007657662 -0.002841625 -0.0019990164
0000f0 5f 31 60 bc 4b 6e c2 bb 37 a8 1a bc d4 7c 81 39
       -0.013683646 -0.005933558 -0.00943952 0.00024697802
000100 1f 00 a1 ba 84 33 c5 bb bb f3 0d bc ce 86 27 3c
       -0.0012283361 -0.006018104 -0.008664067 0.010225011
000110 d9 f4 37 ba db 91 8b bc 03 97 cc 3a 03 bb a4 bb
       -0.0007017381 -0.017037323 0.001560897 -0.0050271763
000120 20 50 56 bc 10 fa 5c 3b 67 74 ea ba ce e4 9e bb
       -0.013080627 0.0033718385 -0.0017887474 -0.004849053
000130 6b b2 b1 ba f3 b6 c5 bb 60 1e aa 39 fb 56 ac 3a
       -0.0013557201 -0.006033772 0.00032447558 0.0013148481
000140 1d f2 af 3b dd 97 40 ba 2a 50 1c 3c 7f 94 86 3b
       0.0053694383 -0.0007346848 0.009540597 0.0041070576
000150 d3 2a 97 3b a4 35 41 3b 4c 22 ab bc 11 9c a7 3c
       0.0046132593 0.0029481435 -0.020890377 0.02046016
000160 d7 77 ea 3a 2c ca 92 3a e3 76 66 3c a2 e8 da bb
       0.0017888498 0.0011199168 0.014066431 -0.006680564
000170 0d 7b ee bb ac 19 cc 3b b8 31 e0 ba f0 c5 5c bc
       -0.0072778524 0.0062286463 -0.0017104661 -0.013474926
000180 cd 4a 7b 3b 61 c6 c0 bb 3f 48 16 3b 4b 04 32 bc
       0.0038344145 -0.0058830236 0.0022931246 -0.010865281
000190 9c 03 c1 bb d3 2c f4 3b b8 1d df bb ca ad e8 bb
       -0.005890323 0.0074516325 -0.0068089627 -0.0071007954
0001a0 8f ae 93 bb 1b 62 57 bc e3 2c f8 3b 17 2b a2 bb
       -0.004506893 -0.013145949 0.0075737103 -0.0049489844
0001b0 8f 13 46 3c 81 56 89 b9 9f e2 56 bc 90 02 7d 3b
       0.012089624 -0.00026195127 -0.013115554 0.0038606264
0001c0 cf 60 b2 bb 10 52 6c 3b 6f 10 03 3c 57 21 80 bb
       -0.0054436694 0.0036059655 0.007999524 -0.0039102244
0001d0 16 33 b3 bb 77 72 c7 bb 85 d8 d8 3b a8 7b f0 bb
       -0.0054687364 -0.0060866433 0.006617608 -0.0073389597
0001e0 f5 d0 cf 3b db 9e de 3b 78 4a 37 bc cf d8 03 bb
       0.0063420483 0.0067938394 -0.011187188 -0.0020118242
0001f0 be e6 aa 3b cb df a5 3b 10 a3 27 bc 37 e5 8f 3c
       0.005215495 0.0050620786 -0.010231748 0.017565353
000200 9b 1c 24 bb 4b 40 b4 ba b7 66 0c 3c 2b 80 21 bc
       -0.0025041464 -0.0013752071 0.008569411 -0.009857218
000210 22 00 ee 3b 7f b6 2d 3c a7 f1 3a 3a 0d 16 01 bc
       0.0072631994 0.0106025925 0.0007131346 -0.0078787925
000220 32 fa 2c bc a7 d6 41 bc a5 32 65 3c 8b 13 8a bb
       -0.010557698 -0.011830962 0.013989125 -0.0042137555
000230 5b f3 2c bc 8a 10 fe ba 9f a2 b8 3b 10 b8 98 bc
       -0.010556067 -0.0019383591 0.0056346203 -0.018642455
000240 17 db 72 bc 51 c9 1d 3c d1 c3 13 3c 95 be aa bb
       -0.014822743 0.009630517 0.009018854 -0.0052107074
000250 52 77 d8 3a f3 49 27 bc 28 25 a6 bb 95 f8 55 bc
       0.0016515052 -0.010210502 -0.0050703473 -0.013059755
000260 b3 71 a1 3c e7 52 49 3b bf cc 94 bb 79 c1 2d 3b
       0.019707536 0.003071958 -0.004541009 0.0026513024
000270 77 9d 0b 3b a1 d9 92 3c c3 35 8c 3b 66 c0 39 3b
       0.0021303573 0.01792604 0.00427887 0.0028343438
000280 ff 2e 0c 3c 3f cf 34 3c 42 f0 bb ba 6c 82 8b b9
       0.008556127 0.011035739 -0.001433857 -0.00026609318
000290 83 2c e2 3b 54 f7 46 bc a4 03 17 bb f8 b2 96 bc
       0.006902279 -0.012143929 -0.0023042941 -0.018395886
0002a0 46 6e 9b ba b1 42 3c bc 15 81 d5 bb c8 99 aa 39
       -0.0011858426 -0.01149051 -0.006515632 0.00032539503
0002b0 72 8d 7b bb 3a 92 be 3b 78 9c 4d bc 15 a2 e7 3a
       -0.0038383869 0.0058157714 -0.012549512 0.0017672206
0002c0 cd b1 4c bc 05 e3 f9 3b 5d 1c d3 3b 12 57 a2 3a
       -0.012493563 0.00762594 0.00644259 0.0012385568
0002d0 cb 69 0a 3b df a1 ce 3a 99 de 14 3c 33 89 00 3b
       0.0021120186 0.0015764794 0.009086275 0.0019613027
0002e0 e3 8b e8 bb 57 24 91 3a 32 01 43 bc 3a 98 38 3c
       -0.007096754 0.0011073452 -0.01190214 0.011266762
0002f0 3f bf bd ba be c6 44 3b 0d 9d a3 bb cc 07 88 3b
       -0.0014476551 0.0030025686 -0.004993087 0.00415132
000300 e6 e1 00 bc 67 6c e6 bb 5c c9 9d 3c 13 3a c4 3c
       -0.007866358 -0.0070319655 0.019261055 0.023953473
000310 17 50 8a bc e2 78 5d 3c d8 06 ee bb e7 53 33 3b
       -0.016883893 0.01351759 -0.0072639994 0.0027363242
000320 33 ff 91 3b 3d 32 7a 3c bb b3 84 b9 ad 9d fd 3b
       0.004455471 0.015270767 -0.00025310912 0.0077397437
000330 b9 4a 9d ba c1 e6 19 bb b5 45 d0 bb 6f ab 43 bc
       -0.0012000419 -0.0023483487 -0.006355966 -0.011942728
000340 45 be 95 3b f3 37 0f 3b b0 4d d9 bb a3 7f dc ba
       0.004569801 0.0021853417 -0.0066315755 -0.0016822707
000350 74 d7 a3 3a 27 19 e3 3a a5 6b d0 bc 50 69 50 3c
       0.0012500123 0.0017326222 -0.025441954 0.012720421
000360 1c 2b 46 bc e2 2c 05 3b 34 c9 88 3c 30 59 7d ba
       -0.012095239 0.0020320942 0.016697504 -0.0009664474
000370 87 c2 19 ba 68 ed 72 3b 4d 8b 1a 3c 40 1b 10 bb
       -0.00058654736 0.0037067775 0.009432626 -0.0021988899
000380 d7 bc a4 ba 1d 07 4f bc 8f 4f 05 bc b2 29 e1 38
       -0.0012568486 -0.012635973 -0.008136644 0.000107366024
000390 3a 56 13 3c d7 7a 92 ba 27 01 db 3b 48 ed 4a ba
       0.008992726 -0.0011175525 0.006683487 -0.0007741046
0003a0 ce 79 81 bb 9f 0d 38 3c 53 74 66 3c 1b 9a 22 bc
       -0.003951288 0.011233716 0.01406582 -0.009924437
0003b0 15 3b 05 3c 93 ed 6a bc b1 f9 ab bb e7 6c 5b 3c
       0.008131762 -0.014338869 -0.0052482714 0.013392664
0003c0 1f 12 84 3b c8 47 d9 bb 85 6c 19 3b d7 c0 c0 bb
       0.0040304805 -0.0066308714 0.002341063 -0.0058823633
0003d0 df d0 1b 3b da 5f ef 3b 54 70 86 bb c7 fe 27 bc
       0.002377562 0.0073051276 -0.004102746 -0.010253615
0003e0 8f a4 81 3c 68 fd be bc 2b 58 7a ba 42 06 57 bc
       0.015825538 -0.023314193 -0.0009549881 -0.013124051
0003f0 f8 bf 16 bc 5d 0d 0b 3a 2f 0f 7c ba 51 41 99 3b
       -0.009201042 0.00053044205 -0.00096152996 0.004676976

network_body._body_endoder.seq_layers.0.bias f4 [128]
000000 00 00 00 00 00 00 00 00 00 00 00 00 00 00 00 00
       0.0 0.0 0.0 0.0
000010 00 00 00 00 00 00 00 00 00 00 00 00 00 00 00 00
       0.0 0.0 0.0 0.0
000020 00 00 00 00 00 00 00 00 00 00 00 00 00 00 00 00
       0.0 0.0 0.0 0.0
000030 00 00 00 00 00 00 00 00 00 00 00 00 00 00 00 00
       0.0 0.0 0.0 0.0
000040 00 00 00 00 00 00 00 00 00 00 00 00 00 00 00 00
       0.0 0.0 0.0 0.0
000050 00 00 00 00 00 00 00 00 00 00 00 00 00 00 00 00
       0.0 0.0 0.0 0.0
000060 00 00 00 00 00 00 00 00 00 00 00 00 00 00 00 00
       0.0 0.0 0.0 0.0
000070 00 00 00 00 00 00 00 00 00 00 00 00 00 00 00 00
       0.0 0.0 0.0 0.0
000080 00 00 00 00 00 00 00 00 00 00 00 00 00 00 00 00
       0.0 0.0 0.0 0.0
000090 00 00 00 00 00 00 00 00 00 00 00 00 00 00 00 00
       0.0 0.0 0.0 0.0
0000a0 00 00 00 00 00 00 00 00 00 00 00 00 00 00 00 00
       0.0 0.0 0.0 0.0
0000b0 00 00 00 00 00 00 00 00 00 00 00 00 00 00 00 00
       0.0 0.0 0.0 0.0
0000c0 00 00 00 00 00 00 00 00 00 00 00 00 00 00 00 00
       0.0 0.0 0.0 0.0
0000d0 00 00 00 00 00 00 00 00 00 00 00 00 00 00 00 00
       0.0 0.0 0.0 0.0
0000e0 00 00 00 00 00 00 00 00 00 00 00 00 00 00 00 00
       0.0 0.0 0.0 0.0
0000f0 00 00 00 00 00 00 00 00 00 00 00 00 00 00 00 00
       0.0 0.0 0.0 0.0
000100 00 00 00 00 00 00 00 00 00 00 00 00 00 00 00 00
       0.0 0.0 0.0 0.0
000110 00 00 00 00 00 00 00 00 00 00 00 00 00 00 00 00
       0.0 0.0 0.0 0.0
000120 00 00 00 00 00 00 00 00 00 00 00 00 00 00 00 00
       0.0 0.0 0.0 0.0
000130 00 00 00 00 00 00 00 00 00 00 00 00 00 00 00 00
       0.0 0.0 0.0 0.0
000140 00 00 00 00 00 00 00 00 00 00 00 00 00 00 00 00
       0.0 0.0 0.0 0.0
000150 00 00 00 00 00 00 00 00 00 00 00 00 00 00 00 00
       0.0 0.0 0.0 0.0
000160 00 00 00 00 00 00 00 00 00 00 00 00 00 00 00 00
       0.0 0.0 0.0 0.0
000170 00 00 00 00 00 00 00 00 00 00 00 00 00 00 00 00
       0.0 0.0 0.0 0.0
000180 00 00 00 00 00 00 00 00 00 00 00 00 00 00 00 00
       0.0 0.0 0.0 0.0
000190 00 00 00 00 00 00 00 00 00 00 00 00 00 00 00 00
       0.0 0.0 0.0 0.0
0001a0 00 00 00 00 00 00 00 00 00 00 00 00 00 00 00 00
       0.0 0.0 0.0 0.0
0001b0 00 00 00 00 00 00 00 00 00 00 00 00 00 00 00 00
       0.0 0.0 0.0 0.0
0001c0 00 00 00 00 00 00 00 00 00 00 00 00 00 00 00 00
       0.0 0.0 0.0 0.0
0001d0 00 00 00 00 00 00 00 00 00 00 00 00 00 00 00 00
       0.0 0.0 0.0 0.0
0001e0 00 00 00 00 00 00 00 00 00 00 00 00 00 00 00 00
       0.0 0.0 0.0 0.0
0001f0 00 00 00 00 00 00 00 00 00 00 00 00 00 00 00 00
       0.0 0.0 0.0 0.0

network_body._body_endoder.seq_layers.0.weight f4 [128, 78]
000000 60 41 25 3c 81 b8 57 3d a8 da 1e 3c 57 da f6 3d
       0.010086387 0.05266619 0.009695686 0.12053364
000010 a1 ba bf 3c 64 d7 de 3d ce 7b 85 3e 9d a8 f4 bd
       0.023404421 0.10880926 0.26071018 -0.11946223
000020 ce bb 24 be 9f a8 57 be 30 73 23 3c e8 4f 38 bd
       -0.16087267 -0.21060418 0.009976193 -0.04499808
000030 d6 3d 23 be 17 e2 10 3c b5 ab 12 be 52 9d 24 bd
       -0.15941557 0.0088429665 -0.14323314 -0.040189095
000040 c0 0c 39 3d be 65 da 3d 66 ae 1d bd 38 b3 58 3d
       0.045178175 0.10663937 -0.038496397 0.05290529
000050 24 06 68 3d 6d c4 76 3e 7f 28 30 3c 6a 1b 78 bc
       0.05664648 0.24098368 0.0107518425 -0.015143255
000060 90 17 77 bd d0 48 28 be ba f4 8b 3d 6f f4 c1 3d
       -0.060325205 -0.16434026 0.06833787 0.0947045
000070 3a 33 f7 3b d8 6a c4 3b 98 82 4f be f7 61 15 3e
       0.0075439485 0.005994182 -0.20264661 0.14588152
000080 f8 8d 85 3d 39 55 6d 3e 3b 7a dd bd b6 4e 7e bd
       0.06521219 0.23177041 -0.10814329 -0.062086783
000090 18 ef 8e bd 99 c4 0b 3d 65 25 89 bc 98 e1 3c 3c
       -0.06979197 0.034123037 -0.016741464 0.011528395
0000a0 67 43 b8 3d eb 5a 13 be 22 98 8d 3d 77 42 f2 bd
       0.08997231 -0.14390151 0.06913783 -0.118290834
0000b0 8d 03 1c bb 9f c4 04 be 4f 11 70 bd d1 18 e0 3c
       -0.0023805827 -0.1296563 -0.058610257 0.027355583
0000c0 f1 7f f2 bc e5 79 82 bd c9 05 56 3e d5 2a cd 3d
       -0.029602023 -0.06370906 0.20900644 0.10017935
0000d0 74 37 64 ba 3c 5c 92 bc 75 fc 55 bd 76 5e 4e bd
       -0.0008705773 -0.017866246 -0.052242715 -0.050383054
0000e0 94 50 34 bd 87 eb 16 3e a5 7b 86 bd 39 92 ec 3c
       -0.044022158 0.14738284 -0.06566552 0.028878318
0000f0 a5 15 5d 3e 81 c8 03 bd 24 7a 22 3d 05 2b e3 bd
       0.21590288 -0.032173637 0.039667264 -0.1109219
000100 7c 24 4e bd 1f f6 c9 3c 14 cb c8 bc d8 45 8a 3c
       -0.050327763 0.024653492 -0.024510898 0.016879007
000110 52 45 ca bd 99 a1 69 3d 56 5f ae bd 5e c9 26 be
       -0.09876503 0.057038877 -0.08514278 -0.16287753
000120 52 bc 53 bc b1 f6 75 bd 40 d8 b1 3d 47 57 14 3d
       -0.012923317 -0.060049716 0.086838245 0.036216047
000130 1c 5f 17 be f4 2c 30 3d 5c c8 3b be 02 bf 34 3d
       -0.14782375 0.04301162 -0.1833815 0.04412747
000140 15 74 24 3d 5a f1 1a be 85 43 2b 3e a7 fe 3c be
       0.040149767 -0.15131131 0.16724975 -0.18456517
000150 f2 2f 0f 3d 90 b5 85 3d 75 b2 41 3e 83 f6 91 3d
       0.034957834 0.06528771 0.18915732 0.071270965
000160 74 5f e2 bd e1 fc 30 3e 75 f3 f0 bd 1d f3 a6 bc
       -0.110533625 0.17283966 -0.11765186 -0.020379597
000170 08 ef a6 bd d7 d7 49 be c9 53 e7 bc 60 de 37 3e
       -0.0815106 -0.19711243 -0.028238194 0.17955923
000180 65 4d 97 3c 60 dc b2 3c ed 0b 1e be e1 24 9f bd
       0.018469522 0.021833599 -0.15434237 -0.07770706
000190 05 e2 8c bd c7 53 d8 3c 00 5a 9b 3d 17 4f 08 be
       -0.06879047 0.026407136 0.075855255 -0.1331142
0001a0 96 6e 30 3e 97 92 6a 3d a1 b0 b2 3d bf 03 29 3d
       0.17229685 0.057268705 0.087250955 0.04126334
0001b0 5b 31 b7 bb 5b 54 5f 3e 06 3e ac 3d bf 04 33 3d
       -0.0055906004 0.21809523 0.084102675 0.043705698
0001c0 07 02 34 3d ee a6 6d bd 02 62 4b 3d 89 9c 4b bd
       0.043947246 -0.058020525 0.049654014 -0.04970983
0001d0 35 fb 01 3d fa 7f 95 3d ff 2b aa 3d 5d 85 cf 3d
       0.03173371 0.072998 0.08309173 0.10132859
0001e0 8b 36 99 3d ca 99 f1 bd 5e aa f7 3d 0b e4 17 be
       0.07481106 -0.11796911 0.12093042 -0.14833085
0001f0 c3 54 34 3e 90 70 56 3e 7a 01 cc 3d 93 fe 93 bc
       0.17610459 0.20941377 0.09961219 -0.018065726
000200 0a 3b a7 bd 23 8d 0c be dd 41 09 3e ca b0 fa bb
       -0.08165558 -0.13725714 0.13404031 -0.0076504694
000210 21 e7 c9 3b 04 6f cc bd 67 6b 9b bb 07 75 35 3e
       0.006161586 -0.09982112 -0.004743028 0.17720424
000220 ff fa 53 3d 3a a7 09 bd 63 26 02 3e d1 6a 03 3e
       0.05175304 -0.033606745 0.12709956 0.12833716
000230 d8 d1 e7 3d 6c 78 21 3e 4e a1 d6 3d 0c 8a c2 3d
       0.113193214 0.15768594 0.10479985 0.094989866
000240 a2 e8 5e bd 6b f5 c4 bd 29 e2 61 3d 71 97 42 3e
       -0.054421075 -0.09617122 0.055147324 0.19003083
000250 a5 f3 84 3e db 36 27 3d 99 d3 14 3e 33 64 2b bd
       0.25967136 0.0408238 0.14533843 -0.041843604
000260 38 75 d8 bd 80 de ea 3c f7 e7 67 be d4 41 d6 bd
       -0.10569233 0.02867055 -0.22647081 -0.104617745
000270 10 f4 45 bd b4 4f 12 3d ce fc b9 3d 88 03 b1 bc
       -0.04832846 0.035720542 0.09081422 -0.02160813
000280 d3 a8 e0 bc f9 29 2c bc fd d3 17 bd 7b 1b c4 bd
       -0.027424252 -0.010508054 -0.037067402 -0.09575554
000290 a2 76 23 be 8d 76 7c bc 77 20 16 3e 87 50 fc bd
       -0.15963224 -0.015409124 0.14660822 -0.12320047
0002a0 e7 39 af bd b8 e8 fe 3d cc 7a 8f 3d 35 63 c0 bd
       -0.08555966 0.12446731 0.070058435 -0.09393922
0002b0 da 9c 25 be e8 2b 3e 3c 63 87 92 3c e1 00 76 be
       -0.16173115 0.011607148 0.017886823 -0.24023773
0002c0 b5 82 0f be 20 bb 24 bd 57 56 26 be 92 62 7c bb
       -0.14014705 -0.04021752 -0.16243874 -0.00385109
0002d0 f5 5c cd 3d 3f 1d 36 3b d8 9c 95 3d 06 1a 83 bd
       0.10027496 0.0027788428 0.07305306 -0.06401448
0002e0 a1 e6 17 be 7f 03 fe 3c dd f2 b6 bc d8 16 3d bd
       -0.14834072 0.031007526 -0.022332603 -0.046164364
0002f0 e0 e2 84 bd 38 38 95 3d 7d 03 09 3e c3 6d 48 be
       -0.064885855 0.072861135 0.13380237 -0.19573121
000300 e3 e9 9a bd 84 45 b0 bc ac 36 34 be d8 67 69 3d
       -0.075641416 -0.021517523 -0.1759898 0.0569838
000310 87 5f c3 bd f1 9e 80 bd e1 0c 0c be fc 4a 90 bd
       -0.09539705 -0.06280316 -0.13676788 -0.07045552
000320 04 ef 8b bd 88 4e 6b 3d 94 4c 94 3d 54 c4 8f bc
       -0.06832698 0.05744794 0.072411686 -0.017549671
000330 58 25 45 3a 9b 00 5b 3d 3b b7 28 3d fe 03 3b be
       0.0007520518 0.053467374 0.041190367 -0.18263242
000340 00 94 ca 3c 4d 66 97 3d 93 69 cc 3c 72 33 b7 3c
       0.024728775 0.07392559 0.024952685 0.022363398
000350 09 fa 68 bd bc 0c 82 3d c5 44 96 be 0b 21 d3 bb
       -0.056879077 0.06350085 -0.29349342 -0.006443148
000360 a8 9a dc 3d 48 55 97 be 14 06 86 be 3a b1 11 3e
       0.10771686 -0.29557252 -0.26176512 0.14227763
000370 cf 68 b4 3d 0f b9 83 3d 47 07 b2 3d 2d b3 8d 3e
       0.08809053 0.064317815 0.08692794 0.27675763
000380 c7 bb 18 bc ca ac 76 3d b8 a7 3b 3d a1 43 4a 3d
       -0.009322113 0.06022338 0.045814246 0.049380902
000390 39 e4 60 bd d1 04 bf 3c e8 05 62 3e 63 39 46 bd
       -0.05490515 0.023317726 0.22072566 -0.048394572
0003a0 28 e5 65 be 49 b7 7b be a5 53 d1 bc be 55 0f be
       -0.22450697 -0.24581636 -0.02555258 -0.13997552
0003b0 6a f4 02 3e aa b2 1e 3c 8a 83 60 be 16 60 b5 3c
       0.12788549 0.0096861515 -0.21925178 0.022140544
0003c0 32 f7 88 3d be a2 84 bd 5a 8b 14 be c1 34 a6 bd
       0.06687774 -0.06476353 -0.14506283 -0.08115531
0003d0 8f 46 a6 38 07 f3 52 bd 7a 0f 18 3e 48 ba 0a bd
       7.9286394e-05 -0.0515013 0.14849654 -0.033869058
0003e0 6b 70 1d be b6 2e 0c be 08 eb 0d 3e a6 7b 6c 3e
       -0.15374915 -0.13689694 0.13859189 0.23094043
0003f0 83 4c 9f bc b7 1c 95 3c 84 12 d4 3d 1c 86 e1 3c
       -0.019445663 0.018202169 0.10355094 0.027529769

network_body._body_endoder.seq_layers.2.bias f4 [128]
000000 00 00 00 00 00 00 00 00 00 00 00 00 00 00 00 00
       0.0 0.0 0.0 0.0
000010 00 00 00 00 00 00 00 00 00 00 00 00 00 00 00 00
       0.0 0.0 0.0 0.0
000020 00 00 00 00 00 00 00 00 00 00 00 00 00 00 00 00
       0.0 0.0 0.0 0.0
000030 00 00 00 00 00 00 00 00 00 00 00 00 00 00 00 00
       0.0 0.0 0.0 0.0
000040 00 00 00 00 00 00 00 00 00 00 00 00 00 00 00 00
       0.0 0.0 0.0 0.0
000050 00 00 00 00 00 00 00 00 00 00 00 00 00 00 00 00
       0.0 0.0 0.0 0.0
000060 00 00 00 00 00 00 00 00 00 00 00 00 00 00 00 00
       0.0 0.0 0.0 0.0
000070 00 00 00 00 00 00 00 00 00 00 00 00 00 00 00 00
       0.0 0.0 0.0 0.0
000080 00 00 00 00 00 00 00 00 00 00 00 00 00 00 00 00
       0.0 0.0 0.0 0.0
000090 00 00 00 00 00 00 00 00 00 00 00 00 00 00 00 00
       0.0 0.0 0.0 0.0
0000a0 00 00 00 00 00 00 00 00 00 00 00 00 00 00 00 00
       0.0 0.0 0.0 0.0
0000b0 00 00 00 00 00 00 00 00 00 00 00 00 00 00 00 00
       0.0 0.0 0.0 0.0
0000c0 00 00 00 00 00 00 00 00 00 00 00 00 00 00 00 00
       0.0 0.0 0.0 0.0
0000d0 00 00 00 00 00 00 00 00 00 00 00 00 00 00 00 00
       0.0 0.0 0.0 0.0
0000e0 00 00 00 00 00 00 00 00 00 00 00 00 00 00 00 00
       0.0 0.0 0.0 0.0
0000f0 00 00 00 00 00 00 00 00 00 00 00 00 00 00 00 00
       0.0 0.0 0.0 0.0
000100 00 00 00 00 00 00 00 00 00 00 00 00 00 00 00 00
       0.0 0.0 0.0 0.0
000110 00 00 00 00 00 00 00 00 00 00 00 00 00 00 00 00
       0.0 0.0 0.0 0.0
000120 00 00 00 00 00 00 00 00 00 00 00 00 00 00 00 00
       0.0 0.0 0.0 0.0
000130 00 00 00 00 00 00 00 00 00 00 00 00 00 00 00 00
       0.0 0.0 0.0 0.0
000140 00 00 00 00 00 00 00 00 00 00 00 00 00 00 00 00
       0.0 0.0 0.0 0.0
000150 00 00 00 00 00 00 00 00 00 00 00 00 00 00 00 00
       0.0 0.0 0.0 0.0
000160 00 00 00 00 00 00 00 00 00 00 00 00 00 00 00 00
       0.0 0.0 0.0 0.0
000170 00 00 00 00 00 00 00 00 00 00 00 00 00 00 00 00
       0.0 0.0 0.0 0.0
000180 00 00 00 00 00 00 00 00 00 00 00 00 00 00 00 00
       0.0 0.0 0.0 0.0
000190 00 00 00 00 00 00 00 00 00 00 00 00 00 00 00 00
       0.0 0.0 0.0 0.0
0001a0 00 00 00 00 00 00 00 00 00 00 00 00 00 00 00 00
       0.0 0.0 0.0 0.0
0001b0 00 00 00 00 00 00 00 00 00 00 00 00 00 00 00 00
       0.0 0.0 0.0 0.0
0001c0 00 00 00 00 00 00 00 00 00 00 00 00 00 00 00 00
       0.0 0.0 0.0 0.0
0001d0 00 00 00 00 00 00 00 00 00 00 00 00 00 00 00 00
       0.0 0.0 0.0 0.0
0001e0 00 00 00 00 00 00 00 00 00 00 00 00 00 00 00 00
       0.0 0.0 0.0 0.0
0001f0 00 00 00 00 00 00 00 00 00 00 00 00 00 00 00 00
       0.0 0.0 0.0 0.0

network_body._body_endoder.seq_layers.2.weight f4 [128, 128]
000000 99 a9 58 bd c6 f7 2b be f1 7f 5d 3d bf 57 fd 3b
       -0.052896116 -0.16793737 0.054077093 0.0077314074
000010 33 29 70 3c a8 f4 ff bc 07 08 a9 bc 2b 90 e8 3d
       0.01465826 -0.03124459 -0.02063371 0.11355623
000020 a5 70 04 be b3 7f 5e 3d 1c 38 ca bd 37 c4 99 3d
       -0.12933595 0.054321002 -0.09873983 0.07508128
000030 c2 ec 1c bc 6e 25 7f 3c 4c 36 99 bc d9 f3 e5 3d
       -0.009577932 0.015572889 -0.018702649 0.11228151
000040 cf 38 85 ba e8 e1 8b bd 88 7d 80 bc 82 fd 89 3d
       -0.0010164025 -0.068301976 -0.015684858 0.06737806
000050 56 90 20 bb 4a 9e e1 bd 86 9e 1e 3d 36 30 15 3d
       -0.0024500093 -0.11016519 0.0387254 0.03642293
000060 61 ab 9c bd 2e fe 7a 3d 63 83 c0 bc 5e 5a a2 3d
       -0.076498754 0.06127756 -0.02350015 0.079273924
000070 72 68 95 3c 2f 20 37 3e a1 64 98 bc f7 d5 0f 3d
       0.01823828 0.17883371 -0.018602671 0.035116162
000080 ce d7 43 3d 6e f5 9d bd a4 dd 24 bd 8f e9 06 3e
       0.04781323 -0.077128276 -0.040250435 0.13175033
000090 0e e8 88 bd 51 34 f8 bd cf 05 aa 3d 16 c1 11 be
       -0.06684886 -0.121193536 0.08301889 -0.14233813
0000a0 ca 66 6a bd 1a 2e a9 bd 02 c7 23 3d d2 fa a6 bd
       -0.057226934 -0.08260746 0.03998471 -0.08153309
0000b0 d6 be c7 bd d8 d5 78 bd 82 3a 0c bd 6a e9 d1 3c
       -0.09753196 -0.060750812 -0.034235485 0.025623996
0000c0 41 11 a5 bb 4b 3b c9 3d 3d 07 a4 bc 45 a0 ba bd
       -0.005037457 0.09825762 -0.020022983 -0.091126
0000d0 95 9d b9 bb 59 34 d0 bc c5 e3 90 3d d4 b0 58 3c
       -0.005664537 -0.025415586 0.070746936 0.013225753
0000e0 2a 61 bd 3d 8b cc 11 3d 70 82 ca 3d 9e 82 13 3e
       0.09247048 0.035595458 0.0988816 0.14405295
0000f0 6d e3 fa 3c c3 f1 7c 3d 76 1a 03 3d 5b 7b a2 3d
       0.030626023 0.061754 0.032007657 0.079336844
000100 f0 56 01 be 01 45 cb 3c d5 69 83 3d 78 aa df 3c
       -0.1263082 0.024813177 0.0641667 0.027302966
000110 e2 57 5b 3d f6 f5 c1 bc 63 d2 63 3d f8 09 53 3d
       0.05355061 -0.023676854 0.055620562 0.05152318
000120 81 4c 4a 3c dc 0d 4c bd 7e d0 9f bc 2d ee 8f 3d
       0.0123473415 -0.049817905 -0.019508597 0.0702785
000130 21 a4 06 3e 4a 46 9e 3c f1 53 35 bc 0b fc c3 3c
       0.13148548 0.019320626 -0.0110673765 0.023923894
000140 39 be 2d bd cd 06 95 3d e8 38 49 3d f9 e9 e7 bb
       -0.04241774 0.07276688 0.049126536 -0.0070774523
000150 8e b1 85 3c 2f 6a fe bd 41 a8 86 3d 4c ea 84 bd
       0.016320016 -0.12422597 0.06575061 -0.06490001
000160 3c 13 72 bd 8b 02 79 3d 94 ba 79 bd a3 4f 07 3e
       -0.059100375 0.06079344 -0.06096895 0.13213973
000170 7f 11 9c 3d eb 6d 23 bd ed 75 37 3d 45 fb ac bc
       0.076205246 -0.039899748 0.044790197 -0.021115908
000180 91 39 93 bc 42 24 e8 3c d0 83 d7 3d 75 28 9e 3c
       -0.017971786 0.028337602 0.10523188 0.0193064
000190 35 be 4b be 9e 20 2f bc 50 92 b3 bd 3a 04 cf 3c
       -0.19896777 -0.010688929 -0.08768141 0.02527057
0001a0 3c a4 97 bd 4e bb 08 3d 22 27 fd bc 47 f6 e2 3d
       -0.07404372 0.033381753 -0.030902449 0.1108213
0001b0 11 9b 98 bd 44 66 8f bd d4 8c 6a bc 19 65 a6 3d
       -0.074514516 -0.070019275 -0.014315803 0.081247516
0001c0 44 d9 61 bd 84 17 6d 3d ee 55 e5 bd e0 47 85 bd
       -0.05513884 0.057883754 -0.111980304 -0.0650785
0001d0 5c e4 d6 3c f7 e3 51 3e 73 41 8b 3d f4 99 a7 3c
       0.026231937 0.20497118 0.06799593 0.020459153
0001e0 c6 58 2b be 46 a9 58 bd ea c6 ac bd 36 af 03 3e
       -0.16733083 -0.052895807 -0.08436377 0.12859806
0001f0 9a 89 a6 3d cf e5 22 3d d7 e2 d1 bd 58 d4 cb 3d
       0.08131714 0.039769944 -0.102483444 0.09952611
000200 b6 83 31 bd ca 65 28 3d 39 e3 c3 bd 66 a7 b7 bd
       -0.0433385 0.0411127 -0.09564824 -0.089674756
000210 ee 03 0e bc d5 6c 60 bd e6 20 17 3c 91 74 ac 3d
       -0.008667929 -0.05479129 0.009224152 0.08420671
000220 95 74 3d 3d c6 b1 94 3d 92 00 94 bd 9b 46 ed 3d
       0.04625376 0.0726047 -0.07226671 0.115857325
000230 65 21 b6 bd 95 4e bb 3c e3 e8 21 bd 2b 06 ac bd
       -0.08893088 0.02286462 -0.03952874 -0.08399614
000240 73 7c dd bd 9c 36 52 bd 7f 56 89 3e 65 21 d1 bd
       -0.108147524 -0.05132161 0.26823804 -0.102114476
000250 4f 9f 4a bd 13 f3 ae bd 27 83 e5 bd 44 ab 4e 3d
       -0.049468335 -0.085424565 -0.11206656 0.0504563
000260 ce e2 0c bd 6c a3 31 3e 23 1c c2 bd 36 70 cd bc
       -0.034395985 0.17347497 -0.09478023 -0.02507792
000270 c9 56 96 3d 1e 56 e4 3d 6a e0 bc bc 38 a4 46 bd
       0.07340772 0.11149238 -0.023056228 -0.048496455
000280 0e e6 90 3e c4 f4 9f 3c a8 5a 3f bd c7 7f fb bd
       0.28300518 0.019525893 -0.046717316 -0.12280231
000290 9e ca 7b 3d 85 61 dc 3d e1 e3 45 3d 26 13 87 3d
       0.061472528 0.10760788 0.048313025 0.06595449
0002a0 5d ca b7 3c e0 18 2d be 24 98 8e 3d e9 5e d4 3d
       0.022435362 -0.1690402 0.06962612 0.10369665
0002b0 a4 d5 81 bd be 27 0b bd 8d d3 c5 bd 95 1e cb 3d
       -0.06339577 -0.033973448 -0.09659491 0.099179424
0002c0 f4 96 3b 3d 91 6f b0 3d ea 11 49 bd b7 72 bd 3d
       0.045798257 0.086150296 -0.04908935 0.09250396
0002d0 5d 1a 2e bc f8 48 5a 3b bd 27 ac 3d 66 e3 f0 bc
       -0.010626403 0.0033307653 0.08406017 -0.029405307
0002e0 6f 31 ce 3c 86 e8 f2 3c c5 76 6f bb 78 3c f8 bd
       0.025170056 0.029651891 -0.0036539298 -0.121209085
0002f0 74 d9 af bd 60 36 1b be d7 3f 0e 3d eb b7 55 3d
       -0.08586398 -0.15157461 0.03472885 0.05217735
000300 a4 27 cc bd 83 94 bf bc 99 83 d6 bc 3d 8e 62 3d
       -0.09968498 -0.023386246 -0.026185798 0.05531143
000310 fc d3 7b 3d 5b 9b 6d 3c 0c 30 6d 3d 2e b7 ca bd
       0.06148146 0.014502372 0.05790715 -0.0989822
000320 39 9e ae bd 0a 73 4e 3d e3 f2 23 3e e0 5c 17 3e
       -0.08526272 0.05040268 0.16010623 0.14781523
000330 c3 0a 1d 3c 84 e7 59 bc 45 3a 6c bd ee dc 8e 3c
       0.009585085 -0.0132998265 -0.057672758 0.017439332
000340 be c4 cc 3d 1a e2 98 3d ed 7d 49 3c 35 c9 a0 3d
       0.09998463 0.074650005 0.012298089 0.07850877
000350 0c c6 09 bc 1c 97 41 3c 18 02 2e 3e 62 e3 c4 3c
       -0.008409034 0.011815812 0.16992986 0.024034206
000360 08 b0 dc 3c dc a5 1f bd f2 44 14 3e 61 6c 34 3d
       0.026939407 -0.038976535 0.14479426 0.04404867
000370 41 ec 1f bd c6 d0 00 3c a4 2e ff 3d 2d 1c 40 bd
       -0.03904367 0.0078622755 0.12460068 -0.04690187
000380 46 61 32 bd 0f b3 db bd aa b0 c4 3d 72 ea fd 3c
       -0.0435498 -0.10727512 0.096040085 0.030995581
000390 84 73 e4 3d d0 d5 2d 3c c0 82 a1 bc 9d 10 61 3d
       0.11154845 0.010610059 -0.019715667 0.054947484
0003a0 6c 04 62 3d b7 5f 54 39 7e fd 73 bd 67 1d b2 3c
       0.05518 0.00020253552 -0.05956792 0.021742536
0003b0 cc c8 f3 bd 41 cc 38 3e e6 6f fd bc 8a 91 4c bc
       -0.11903533 0.18046667 -0.030937146 -0.012485871
0003c0 57 b0 09 3d a5 32 1a bd 71 ca e2 bc c8 53 12 3d
       0.033615436 -0.037645955 -0.027684422 0.03572443
0003d0 db 23 81 bd eb 0b ff 3d af 0f 4d 3d 9c ef 6d bd
       -0.06305667 0.12453445 0.050063785 -0.058089837
0003e0 eb 87 27 3b 6a 49 eb bd f7 ac 0d 3e b3 b6 91 3d
       0.002556319 -0.11488612 0.13835512 0.07114925
0003f0 dc 51 16 3d a8 5c 6b bc 8a 15 dc bc d2 d4 03 bd
       0.03669916 -0.014365353 -0.02686574 -0.032185383
