Results/test11/Doughnut/checkpoint.pt (torch, 659719 bytes, 33 tensors)

network_body._body_endoder.seq_layers.0.weight f4 [128, 78]
00000000: 236d 9e3b 49d2 acbc 7c0a eabc 146b acbd
00000010: 85be f7bd f4c6 e63d 5846 b03c fe9f 723d
00000020: f644 4fbd 2059 99bc 7da1 a4bd 88eb 333b
00000030: 30b7 9cbd efd1 c33d 8c12 31bb a929 c63d
00000040: 3cb3 303d f93f ec3d 6d58 9b3d 1c5c 4e3e
00000050: 47d7 2bbe 7c0b aa3d 0b2b f2bc 0a48 3c3d
00000060: 480b 5dbe cf4d 16bd 74ff 2e3d ac5d a2bc
00000070: daba 053d 5b56 c1bd 10df 0cbc 83da 41be
00000080: faf3 41bd 0260 e63d 05f2 173e cc71 40be
00000090: c320 97be ec63 24be ee94 363e ca0c 48be
000000a0: 581b 96bb 6fd1 00be 2a3c aebd 2abb 333c
000000b0: 545f d7bd a38d 02be cc93 0fbe 615f 26bd
000000c0: 5285 c83d bed4 4d3d dd20 50bd 2944 0a3d
000000d0: c186 a33d 0506 ee3d a091 ca3c 8b6e 87bd
000000e0: c56b ce3d 4de7 ca3d 3767 4fbc 3f1f 083d
000000f0: dbb8 d2bc 424a 363d 362c 893d 6392 8abc
00000100: 7ee8 f2bd 49da 2dbe 5830 dd3d bf13 c2be
00000110: 5d56 af3d 6a68 44bd 872b 56be 02c7 863c
00000120: a8ce d73d 3f72 cebc 2814 bcbd c94c 01bd
00000130: f79f 33be 2758 4c3d 03a4 903d 2f55 9abd
00000140: 5271 9a3d c074 073e 9d3b af3d 1a3b f53d
00000150: 3c50 2f3c 5f67 0a3d cb71 0dbe 3e57 4d3e
00000160: 4727 663d f6aa c73d a6ec c53d acfc 2f3c
00000170: 1abb 903c fbdb 113e 3caf debc 183b efbd
00000180: b270 93bd fe2b 81bd f4c0 43be c360 073d
00000190: 7cec 8f3e eabd 27bd feaf 96be 4a08 91bb
000001a0: a32c 4eba f8c8 10be 6e7c fb3c 03b9 903e
000001b0: 0f63 e8bc 9cad b83d 74ae 333d aa8c f93c
000001c0: 252b ac3d a47b fc3c 575a 07be 4a28 ebbd
000001d0: 4c17 c8bd f130 df3c e42a 17bd fc08 1f3e
000001e0: 1ed6 edbc 0c0c 003e b899 58be 675f 4bbd
000001f0: 74e2 943d 5691 fbbd c893 f0bc 9de4 f53d
00000200: b2b4 9e3d deec 0ebe 252a a73d d2a3 06be
00000210: f2d7 fbbc aa26 963d 524a 633e cce5 003e
00000220: 87ca 61bd b8db a13d 2bca f7bc 297e 20be
00000230: 0b20 d8bd 3efd 6d3e 0e0a 3c3e f555 fdbd
00000240: 4077 3e3e 3b87 bf3d 79ee ffbd c00c d03d
00000250: 0c7e 86be 9b25 3a3e 2ed2 f73d 9337 36be
00000260: fbec 0abe a1b6 913d 57e1 783d 49a7 be3b
00000270: 2b50 01bd de87 323d a1fb 4a3d e32b cd3d
00000280: 5270 5a3c a211 21bb 129c b93c 8118 edbd
00000290: a484 26be b54d 07bc 07ff f1bd e4b6 0d3e
000002a0: cd4d cc3d ad8c 38be 30d5 b83c 58ce e93d
000002b0: 38b5 d3bc ded6 febd fd2d 95be 4d4b 00bd
000002c0: 1af8 bf3c d22b df3d 7a21 9dbd d697 ea3d
000002d0: 4eda cbbc 9f0e fbbd c868 303a 5082 213d
000002e0: 790f 7d3d e3a7 8a3d d0d3 783e 2470 93bd
000002f0: d92b cfbd 1f37 a53d f970 f7bd 109a ebbc
00000300: e909 f6bd f9e8 26bc 9f5d 11bd 3060 f03b
00000310: e6d6 5c3d 0647 9f3d b7e8 6c3d 09b7 cd3d
00000320: c875 f9ba e3c3 733e c953 8b3d 6ece 1cbd
00000330: a4ff b63b 9f21 953d 1635 483e bb78 71be
00000340: f883 743d bc99 ad3d a3d7 49be e7fc 7cbe
00000350: 15ad 5e3d 268a 79bd 87ac 3c3e 0e2d 353d
00000360: 89d0 3b3c 9679 513d 40a3 93bd bcc9 98bc
00000370: 6e2f 17be 8ab0 15be 30ba 99bd 60fd febc
00000380: 10cc 1dbc d0cb 783c 7479 6ebd cd7b a03d
00000390: 2855 263c 38de b0bd 085f 23be 6145 a43d
000003a0: 02d3 653d 1b76 c43b cd55 2fbe 4cbe 26bd
000003b0: 76b4 a2ba a83d 86bd 82dc 3bbe 06e3 adbd
000003c0: 0686 213b 77ca 3b3e 4922 1dbe f172 193e
000003d0: e5e1 493e 12f2 89bd 4438 893d 9f9c 293c
000003e0: ec87 973d 5963 7abd c6fc 4e3d a0fd 133e
000003f0: e25c d1bd 5732 303d 550b 0abe 3458 dfbc
0.0048347875 -0.021096366 -0.028569452 -0.08418861 -0.120968856 0.11268416 0.021517918 0.05923461
-0.050602876 -0.018719256 -0.08038614 0.002745362 -0.07652128 0.09561526 -0.0027019111 0.09675915
0.04313968 0.11535639 0.07585225 0.20152324 -0.1678134 0.08302972 -0.02956154 0.04596714
-0.21586335 -0.036695298 0.042724088 -0.019820057 0.0326489 -0.09440299 -0.008598104 -0.18931012
-0.047351815 0.11248781 0.14838417 -0.1879341 -0.29517183 -0.16053742 0.1783025 -0.19536129
-0.0045808963 -0.12579893 -0.08507569 0.010969916 -0.10516229 -0.12749343 -0.14021224 -0.040618304
0.09791054 0.050251715 -0.05081259 0.03375641 0.07984687 0.11622242 0.024727643 -0.06612881
0.10079149 0.099073984 -0.012658886 0.033232924 -0.025722912 0.04450441 0.06697886 -0.016915506
-0.118607506 -0.169778 0.108002365 -0.3790569 0.08561394 -0.04795114 -0.20915042 0.016452316
0.105374634 -0.025200961 -0.09183532 -0.03156737 -0.1754149 0.049888756 0.07062533 -0.07535779
0.075411454 0.1322813 0.08556292 0.11974163 0.010700282 0.03378999 -0.1381294 0.20052812
0.0561898 0.09749405 0.09664278 0.010741394 0.017667342 0.14244072 -0.027183168 -0.11681193
-0.07199229 -0.06307219 -0.19116575 0.033051264 0.2811011 -0.0409526 -0.29431146 -0.004426037
-0.0007864928 -0.14139163 0.030698981 0.28266153 -0.028367547 0.09017488 0.043867543 0.030462582
0.08406667 0.030820675 -0.13218056 -0.11482294 -0.097700685 0.027245017 -0.036906138 0.15530771
-0.029032763 0.12504596 -0.21152389 -0.04965153 0.07269755 -0.1228358 -0.029367343 0.12006495
0.07749309 -0.13957545 0.08162335 -0.1314843 -0.03074262 0.07331593 0.2219632 0.1258766
-0.055124786 0.07903236 -0.030247768 -0.15673126 -0.10552987 0.23241135 0.1836321 -0.12369911
0.18600178 0.09351965 -0.12496657 0.10158682 -0.2626804 0.18178408 0.121006355 -0.17794637
-0.13566963 0.07114912 0.060761776 0.005818282 -0.031570595 0.043586604 0.04955638 0.10018136
0.013332443 -0.002457716 0.022657428 -0.115769394 -0.16261536 -0.008258273 -0.11816221 0.13839298
0.09975777 -0.18022414 0.022562593 0.1141631 -0.025843248 -0.124433264 -0.2913665 -0.031321812
0.023433734 0.1089703 -0.07672401 0.11454742 -0.02488437 -0.12258648 0.0006729481 0.039430916
0.061782334 0.06770303 0.2429955 -0.071991235 -0.10115785 0.08067154 -0.12082095 -0.028759986
-0.12013609 -0.010187381 -0.035489675 0.007335685 0.05391588 0.077772185 0.05783912 0.10044677
-0.0019032294 0.23805194 0.0680309 -0.038282804 0.005584674 0.07281803 0.195515 -0.23581211
0.059696168 0.08476588 -0.19711165 -0.2470585 0.054364283 -0.060922764 0.18425189 0.04423242
0.011463293 0.051141344 -0.07208872 -0.018650882 -0.14764187 -0.14618126 -0.075062156 -0.031126678
-0.009631172 0.015185311 -0.058221295 0.07836113 0.010152139 -0.08636135 -0.1595422 0.080210455
0.056109436 0.0059955246 -0.17122574 -0.040708825 -0.0012413401 -0.06554729 -0.18345836 -0.08490567
0.0024646535 0.18338953 -0.1534511 0.14985253 0.19715078 -0.067356244 0.06700185 0.010352283
0.07398972 -0.0611299 0.050534032 0.14452219 -0.10222794 0.043016758 -0.13480885 -0.027263738

network_body._body_endoder.seq_layers.0.bias f4 [128]
00000000: 8591 bb3a 1220 853b 2b4d 81bb 8ac5 8ebb
00000010: 77b4 82bb e0d6 853b 495a 87bb 98c3 6dbb
00000020: 5698 2c3b b153 933b a42a 8d3b 63b7 4d3a
00000030: ec69 86bb 6799 883b d213 ea3a 49b0 84bb
00000040: a6c5 76bb 5c87 66bb ac73 673b 2fb6 983b
00000050: db9e 6dbb 2adc 9c3b d073 95bb c843 5ebb
00000060: f529 803b 3afe 893b dc37 413a 8adc 8ebb
00000070: 745b 84ba cfe4 993b f2bd 85bb c674 6e3b
00000080: 20ef 83bb aae3 953b 5b57 6dbb 4d1d 6fbb
00000090: 3250 943b 7972 83bb 47fc 0dbb a918 8cbb
000000a0: 7f2f 9b3b acdf 74ba ec7c a03b c1e5 863b
000000b0: 93cc 8f3b 7359 953b 030d 6e3b 45db 7bbb
000000c0: 10cd 7bbb 7725 15bb a30d 9e3b 1682 73ba
000000d0: 2908 5fbb a44f 973b 3751 833b ec77 eeba
000000e0: 68d8 883b 97ff 89ba fda9 56bb d938 9e3b
000000f0: b273 68bb 1913 11bb 3cf8 8abb dd38 70bb
00000100: 4d01 74ba 1514 623b a3c8 913b bcce 953b
00000110: 657a 10bb 2b93 f43a 7fb5 6cbb a1c2 063b
00000120: 0e1d 69bb d6fc 813b a5ff 943b 51d2 92ba
00000130: 69e1 5bbb 8a1e 7e3b f0d7 86bb fbf6 8e3b
00000140: 9e1b 88bb 8f0d 9d3b a7d7 64bb 5d13 96bb
00000150: 1c6e 7d3b cb26 8f3b 5e06 60bb 29ee 983b
00000160: efd1 793b 4254 903b 2d00 9c3b 4fd8 b13a
00000170: e6b5 72bb 4c04 8d3b 647c 9c3b 2c0f 36bb
00000180: ccc5 9a3b 8c41 68bb e162 76bb b02b 893b
00000190: 3b0c 833b f142 65bb 0a2b 2e3b cb98 8c3b
000001a0: 6c18 9f3b 11d5 84bb 3df4 963b 14ad 83bb
000001b0: 079d 6bbb 1f7b 63bb db21 103b 915d 983b
000001c0: cdb0 953b 3d58 863b bd35 7fbb da3b 0fba
000001d0: 6806 913b 3b69 903b a903 813b b054 8d3b
000001e0: 19ca 8b3b 0337 4b3b 2bd6 963b 991e 7b3b
000001f0: b7c7 89bb b3bf 393b 5372 7dbb ff82 8b3b
0.0014310336 0.004062661 -0.0039459667 -0.0043570446 -0.0039887982 0.004084453 -0.004130636 -0.0036279913
0.0026335916 0.004496061 0.0043080617 0.0007847456 -0.0041019823 0.0041686776 0.001785869 -0.004049335
-0.0037654429 -0.0035175895 0.0035316749 0.00466039 -0.0036258015 0.004786988 -0.004560925 -0.0033914912
0.0039112517 0.0042112144 0.00073706894 -0.0043597864 -0.0010098056 0.0046964656 -0.004081481 0.003638552
-0.0040263087 0.004574259 -0.0036215398 -0.003648597 0.0045261616 -0.004011449 -0.0021665262 -0.0042754007
0.0047358866 -0.0009341191 0.0048977043 0.0041167443 0.004388401 0.0045577823 0.0036323674 -0.0038430255
-0.0038421787 -0.0022757926 0.004823403 -0.00092890987 -0.0034031963 0.004617648 0.0040074843 -0.0018193698
0.0041761883 -0.0010528442 -0.003275513 0.004828554 -0.003546935 -0.0022136627 -0.0042410176 -0.0036654987
-0.0009308055 0.0034496833 0.0044489666 0.004571764 -0.002204561 0.0018659582 -0.0036118922 0.0020562785
-0.0035570296 0.003966908 0.0045470768 -0.0011201595 -0.0033551103 0.0038775527 -0.004115097 0.0043629385
-0.004153683 0.004792876 -0.0034918578 -0.004579945 0.0038670367 0.004368638 -0.0034183483 0.004667063
0.0038119515 0.0044045756 0.004760763 0.0013568493 -0.003703469 0.0043034907 0.0047755707 -0.002778004
0.0047232863 -0.003543946 -0.0037595558 0.004186116 0.0039992607 -0.0034982527 0.0026575946 0.0042906753
0.0048552062 -0.00405372 0.004606752 -0.0040184353 -0.003595175 -0.0034710837 0.0021992836 0.004649826
0.0045681954 0.0040998743 -0.0038941943 -0.00054639357 0.0044258125 0.0044070757 0.003937204 0.004313074
0.0042660353 0.0031008131 0.0046031675 0.0038317798 -0.004204716 0.0028343021 -0.003867288 0.0042575593

network_body._body_endoder.seq_layers.2.weight f4 [128, 128]
00000000: f053 03ba 2c69 abbd 9eaf 82bd 6258 5bbe
00000010: 4e10 da3d b762 333c 0676 2ebc eef7 433b
00000020: c0a0 da3d eafb 993d 4157 e9ba 6ba7 21be
00000030: acf6 2d3e 5f89 e1bb 4daa debd 8f93 cfbc
00000040: 8718 973d c8d6 07be 79e4 ecbd e42f 59be
00000050: ef91 cfbd d149 2cbe f322 aebd 85c0 8fbd
00000060: f501 7a3d e0d2 9fbd 5a10 303e d76f e43d
00000070: 38cd 6ebd 3e31 94bd f70c 9a3d 4ee9 8d3c
00000080: 563b fdbd 4658 4f3c 017b 0dbd 32a9 4fbd
00000090: b50b e73c 9974 b63d 22b0 41bd 01c2 1abe
000000a0: 22cc 6f3d cf69 f4bb 6089 64bc c59e beba
000000b0: 025d b3bd a21f 5c3d 33a7 963d 845f 30bd
000000c0: 4907 82be 2ee0 d83d d10f 963d af01 753c
000000d0: 8bf4 d73b 9019 95bc fd9e 29bd dea9 17be
000000e0: b029 f93d 75bc 9c3c 9bf4 b93b b724 ac3d
000000f0: 0f11 1dbe 057e 743b e319 29bd d64e 16bc
00000100: b7c4 283d 4344 7cbd 90ac acbd 85fb f1bb
00000110: 80a7 54bd 7a20 08bd 35df aebd bd83 3b3d
00000120: c197 803a cc6b 46bd 4536 833c c423 8dbd
00000130: 34cf 7a3c c1d5 343e dad7 503e f372 d7bd
00000140: 66d9 f6bd 2989 99bd 2a93 25bd ad7a 363d
00000150: fa9f 12bd af50 78bd d0b6 26bd aa8d 89bc
00000160: 83b2 013d b380 4e3c 40f1 843d 7962 b63d
00000170: d4f4 693d dc42 693c d408 f8bc d738 7fbd
00000180: a4ba 023c e381 de3d c988 4cbc f04a bdbd
00000190: 6f33 0e3c 633e efbd 6b69 a2bd 6432 5cbd
000001a0: f6ef 7abd 15dd 05be ef6c 87bd f60c 1c3e
000001b0: dccf 48be fbe0 78bc f43e 703d aedd 5dbb
000001c0: f88b aa3d 0e03 173e 03e2 83bd 4bbd abbd
000001d0: f430 7d3c fc99 7abc eb8e d2bc 4004 e3bd
000001e0: 30c0 dd3c 8289 273e 9872 ddbd a949 fcbc
000001f0: 571f 7abd 60ec 0f3c 3fdc 003e 584c 05bd
00000200: f179 343c e1f6 683e 4040 2e3e 74bb 1ebd
00000210: 5523 143d d61a 483e 1b43 2ebe 7b12 c33c
00000220: 2e5b 053b a4b8 7fbd 0a04 023d 26aa f5bd
00000230: 1ca2 4f3e 9019 f4bd ed92 043d 3fb2 b23d
00000240: 6c5c b63c 49e6 6cbd 0408 94bd b0bc ef3d
00000250: 93f6 eebc ff37 783d 78f9 79bd 5fd9 be3d
00000260: 9592 da3c 286f 543b e651 45bd 83e5 4c3d
00000270: 3dbc 1d3e 25b7 a43d 3c42 b8bc fd6e cbbd
00000280: b323 57bd 9d24 95be a1ee 343c 2360 ac3c
00000290: 3165 04be 536f 96bd 6985 35bd 2222 613d
000002a0: 2315 fb3d 89b8 173c e4d7 09bd 0b23 073d
000002b0: 1fd7 b7b9 a265 4a3d dbe2 4dbe 3b09 5dbd
000002c0: f00c 17be 1f41 29bc 8f0d 8bbd d7ce b93d
000002d0: c459 a1bd 67c0 c03d 31e2 1abd 6f2c 8f3d
000002e0: f4e0 a93c e0c6 97ba 9336 ebbc a3c5 2f3d
000002f0: a8e0 79bc a571 bb3d fda1 46bc a324 08be
00000300: d103 1f3d 2c16 c6bd c111 2abd c8b1 9bbd
00000310: 657a ce3c 5bc9 143e 9739 8f3d c09b c1bd
00000320: 67c9 753c 53fc d83d 7d74 a2bb 5977 383d
00000330: 90cd 893d e99c ca3d 2d55 e93d 6033 a5bd
00000340: 02ae c33d 459f eabd fd74 49bd aaa6 203c
00000350: 7201 91bc 4e5d 21be dba6 9a3d acc6 83bd
00000360: 8186 d1bd 90df a83d b16c 713d d5c0 ad3d
00000370: fd09 c63d 02fd aebd 534f b6bd 4446 a73d
00000380: ad41 d63d c025 993d 3822 91bd 9938 3abe
00000390: 7075 023d 97cc b8bd 3f03 fb3d 4849 a0bc
000003a0: 7732 e33c 441f ae3d 4399 56bd cf20 eabd
000003b0: 78d9 0d3b f561 063c 9a4c c53d dfec eabd
000003c0: 1944 8fbd f864 d93d 536f 00bd 1e68 983c
000003d0: 9747 a33d ee0a 7e3d 31d3 c63c 530c a2bc
000003e0: d0c1 a9bc 552e c83d 1de7 0f3d c8fd 333c
000003f0: daa2 3a3d d34d 3b3d e9ac a5bd 39ba 3d3d
-0.0005009761 -0.08369669 -0.063811526 -0.21420434 0.10647641 0.010948828 -0.010648256 0.0029902416
0.10675192 0.07518752 -0.0017802493 -0.15786521 0.16988629 -0.006882831 -0.10872326 -0.025338916
0.07377725 -0.13265526 -0.11567015 -0.21209675 -0.101352565 -0.16825034 -0.0850276 -0.07019142
0.061037023 -0.07803893 0.17193738 0.11154144 -0.05830118 -0.07235955 0.07522004 0.017323162
-0.12364833 0.012655323 -0.034541134 -0.050698467 0.028203825 0.08908958 -0.047287114 -0.15113069
0.058544286 -0.0074589024 -0.013948768 -0.0014543167 -0.08757974 0.053741105 0.073561095 -0.04305984
-0.25396183 0.10589634 0.073272355 0.014954015 0.006590431 -0.018200666 -0.04141139 -0.14810893
0.121661544 0.019132832 0.005674911 0.0840544 -0.15338539 0.0037306559 -0.041284453 -0.009174069
0.041203227 -0.061588537 -0.08431351 -0.00738472 -0.051917553 -0.033234097 -0.08538667 0.045779932
0.0009810851 -0.048442647 0.016017089 -0.068915874 0.01530819 0.17659666 0.20394841 -0.10519972
-0.12053184 -0.07496864 -0.04042355 0.044550586 -0.035797097 -0.06062382 -0.040701687 -0.016791184
0.031664383 0.0126039265 0.06491327 0.08905501 0.057118252 0.014237132 -0.030277647 -0.062310066
0.007979069 0.10864618 -0.012483784 -0.09242809 0.008679255 -0.11681821 -0.07930263 -0.053758994
-0.061264 -0.13072617 -0.06612574 0.15239319 -0.19610542 -0.015190358 0.058653787 -0.0033854055
0.08327478 0.14747259 -0.06439593 -0.08385714 0.015453566 -0.015295502 -0.025702914 -0.11084795
0.027069181 0.16361049 -0.10812873 -0.030796843 -0.061065044 0.008784384 0.12584017 -0.03254351
0.011015401 0.22750427 0.17016697 -0.038752988 0.036166508 0.19541487 -0.17017786 0.023812523
0.0020348537 -0.062431946 0.031742133 -0.11995344 0.20276684 -0.11918938 0.03236668 0.08725404
0.022260867 -0.057836805 -0.07228091 0.11705911 -0.02917031 0.060600277 -0.061028928 0.09318804
0.026681224 0.0032414887 -0.048173808 0.050023567 0.15403838 0.080427445 -0.02249252 -0.09933279
-0.05252428 -0.29129496 0.011043222 0.021041935 -0.12929226 -0.07345452 -0.044316683 0.054964192
0.12259891 0.009260305 -0.033653155 0.032992404 -0.00035064758 0.04941333 -0.2010607 -0.05396388
-0.14751029 -0.0103304675 -0.067896955 0.09072655 -0.078784496 0.09411698 -0.03781337 0.06990897
0.020737149 -0.0011579655 -0.028712546 0.04291309 -0.015251316 0.09152535 -0.012123582 -0.13295226
0.038822 -0.09672198 -0.041520838 -0.076022685 0.025204847 0.14529936 0.06993406 -0.09453535
0.015001631 0.10595002 -0.004957734 0.045035694 0.06728661 0.098932095 0.11393199 -0.0806644
0.09554674 -0.114561595 -0.049183834 0.009805361 -0.017700884 -0.15758249 0.075513564 -0.06434378
-0.10230733 0.08245766 0.058941547 0.084840454 0.09669874 -0.08544351 -0.08901849 0.08167699
0.104617454 0.07477903 -0.07086605 -0.18185653 0.03185028 -0.090233974 0.122564785 -0.019566193
0.027734024 0.08502057 -0.052392256 -0.11432039 0.0021644514 0.008202066 0.09633751 -0.11470961
-0.069954105 0.106149614 -0.031356167 0.018604334 0.07972639 0.062022142 0.024270626 -0.019781267
-0.0207223 0.09774462 0.035132516 0.010985799 0.045565464 0.045728516 -0.080896206 0.046320174

network_body._body_endoder.seq_layers.2.bias f4 [128]
00000000: a148 713b 307e 86bb 36b5 6ebb b81a 89bb
00000010: 5d77 923b e49b 8f3b dfae 793b 7f83 84bb
00000020: ac4f 9bbb 00ae 6bbb 20ac 80bb 147e 923b
00000030: 6dbe 8cbb 6780 72bb bf2a 8e3b 5fc5 823b
00000040: b801 673b 9acd 8d3b b09a ca3a 43e3 99bb
00000050: 57c5 533b 00e0 8fbb 9555 903b 126a 743b
00000060: 1c2f 63bb 0475 8bbb 9c23 6cbb 2ded 87bb
00000070: 7687 2a3b 6812 9b3b d5cc dbb9 dc60 0f3b
00000080: 0f90 a03b 940d 8bbb 210d 9c3b 16e9 66bb
00000090: 7057 8bbb 1965 53bb e913 983b 7ee2 8b3b
000000a0: 7d8c 8cbb 0f80 8a3b 28b5 8f3b 283b 803b
000000b0: 37af 83bb cf52 faba 590e 5fbb 7cfe 6e3b
000000c0: 649c 8a3b 12d3 9e3b c35a 39bb b242 973b
000000d0: 1fc0 8e3b 7df9 57bb 6f48 7c3b f25f 6e3b
000000e0: d587 8c3b 38f8 923b ddfd 38bb 6941 8abb
000000f0: 9a20 84bb 0dbf 72bb 6571 82bb 3e2c 3cbb
00000100: 581a 8b3b c49d 9abb 5a81 e6ba 36e9 52bb
00000110: 4ed8 6f3a 4a7e 183b e8f8 903b 376a 8e3b
00000120: 7924 9e3b 7dc6 0239 1d59 4b3b c864 9f3b
00000130: a7b4 8f3b a3f3 86bb 1ef8 8fbb bbad 903b
00000140: b78b 82bb 24a1 c5ba a444 913b d0f3 5fba
00000150: 44b7 88bb 1058 92bb adb5 98bb f57d 6c3b
00000160: 2b7e 8e3b 9daf 6ebb 8eea 8d3b 36af 84bb
00000170: 741e 69bb 9ac4 903b 2180 093a 8fa5 963b
00000180: ee9c 96bb 74fb 84bb ee86 89bb 7891 7c3b
00000190: 286f 803b 560e 6bbb 86a3 963b 1077 8eb9
000001a0: 20ab a9bb 5165 5e3b 9318 84bb f93b 8c3b
000001b0: 9a12 833b c62d 993b ca0c 8b3b b849 54bb
000001c0: 1533 81bb 0aad 783b f69f de3a ed73 8d3b
000001d0: ddb9 8c3b 6f1a 65bb 67ee 8d3b 9107 483b
000001e0: e8e1 81bb e087 8a3b d20b 6a3b 1f63 69bb
000001f0: ca89 8cba 79da 89ba 876c 5eba 50cb 5bbb
0.0036816972 -0.004104398 -0.0036423928 -0.0041840933 0.0044697956 0.0043825973 0.0038098616 -0.004043996
-0.0047397222 -0.0035961866 -0.003926769 0.004470596 -0.0042951615 -0.0037002803 0.004338592 0.0039908136
0.0035248827 0.004327488 0.0015457477 -0.004696281 0.0032313669 -0.0043907166 0.0044047334 0.0037294668
-0.003466553 -0.0042558927 -0.0036031967 -0.0041481466 0.0026020682 0.004732419 -0.00041923547 0.00218778
0.0048999856 -0.004243562 0.0047623073 -0.0035234145 -0.0042523667 -0.0032256304 0.0046410454 0.0042689433
-0.0042892084 0.0042266916 0.004385609 0.003913302 -0.00401869 -0.0019098165 -0.0034035651 0.0036467602
0.004230069 0.004846939 -0.0028282858 0.004616105 0.0043563987 -0.0032955103 0.0038495322 0.0036373106
0.0042886534 0.0044851564 -0.0028227486 -0.0042192233 -0.0040322067 -0.0037040145 -0.003980803 -0.0028712894
0.004245084 -0.004718514 -0.0017586157 -0.0032182462 0.00091493584 0.0023268634 0.004424203 0.004346158
0.004826125 0.00012471709 0.0031028457 0.004864309 0.004385549 -0.004118399 -0.0043935915 0.0044152415
-0.0039839405 -0.0015077931 0.0044332314 -0.0008543106 -0.0041722376 -0.0044660643 -0.0046603293 0.0036085818
0.0043485365 -0.0036420592 0.0043309396 -0.004049207 -0.003557113 0.004417968 0.0005245228 0.004597373
-0.004596344 -0.004058296 -0.004196993 0.0038538855 0.003919501 -0.00358667 0.00459713 -0.0002717306
-0.0051778704 0.00339349 -0.00403125 0.0042796102 0.00400002 0.004674646 0.004243468 -0.0032392573
-0.003942857 0.0037944936 0.0016984928 0.004316798 0.0042946176 -0.0034958383 0.0043313983 0.0030522088
-0.0039636977 0.0042276233 0.0035712612 -0.003561206 -0.0010722217 -0.001051738 -0.00084848 -0.0033537932

action_model._discrete_distribution.branches.0.weight f4 [2, 128]
00000000: 3694 e73b 48a2 43bc 74c1 a3bc 34e6 18bc
00000010: c77a 273a 0c45 013b ac13 963c 88ec 69bc
00000020: 6f54 cbbb c9a6 a7bb 8985 c4bc 52b8 2e3c
00000030: 0b61 10bc b3d4 d9ba b1fc 993c ff54 683b
00000040: 2fbc db39 30db 7a3a ed24 cb3b 8faa 323b
00000050: 4077 8a3b 5afb d2bb c590 af3b ee27 053b
00000060: aa83 463b 21fc 7c3a e450 a63b 56b9 50bc
00000070: 5e6b 95ba 0c03 47ba 23d0 b3bb 19f4 593c
00000080: 1ce3 2e3c 3a83 bbbc 45e5 313b 3985 4dba
00000090: b2cd b0bc 4dea 91bb 0fdf aeb9 f88a 9c3c
000000a0: c916 96bb 4ea4 aa3c deb7 3e3c 8375 4c3c
000000b0: e6ee 2a3a 2db5 47bb 6c0a 113b 5609 7dbb
000000c0: cd76 593c b2d0 2a3b 6e10 f239 950e e03b
000000d0: 137b 723b 3607 1ebb 4f4f 8c3c 1b3e 853b
000000e0: 188b a23b 082d 4b3c c001 a4bb 0661 debb
000000f0: fe67 9fbc de03 5ebc 69ee 4fbc 7755 ecba
00000100: 9d5c 4b3c 43b6 33ba 30d8 e7ba 5955 61bc
00000110: a747 5bbb c464 36bb 8276 553c 18fb 5c3c
00000120: 572e a23b 3b36 ff3a e057 363c e0f3 073c
00000130: b2ee 623b 49a6 81bc 6d9e 01bc 3bad bc3b
00000140: 8621 46bc 36f4 92bb 5fee 0f3c 8216 ccbb
00000150: 59d5 e6bb 6620 02bc 30cc 0b3b d5a2 99ba
00000160: 773c 1c3c 23ed 73bc 2200 923c 1b1e 06bc
00000170: 99b8 213b f45b e2bb 666c 843b d83e a4bb
00000180: d4a9 353a e1c2 cfbb 8bbb 77bb f47c 1f3c
00000190: e6de 173c af01 14bc e4af 313c 41b5 30bc
000001a0: 73c1 c73a 968a 60ba 8ddd 8bbc 6df1 903c
000001b0: c839 473c 1f93 b73c a518 ba3c a562 b0bb
000001c0: 6de0 8cbc dd28 593b e0b3 a33b 36d5 2d3c
000001d0: 2cca 083c d2be 7dbb e04b 9b3c a89f bcbb
000001e0: 6bc8 99bc d115 413c e632 9ebb c77f a4bb
000001f0: b9bb 923b e135 d13a a841 f3bb 617d 393a
00000200: c936 88b9 f23e 263c 6dbd 8f3b 7027 db3b
00000210: 5852 67bc 32b2 8dbc 5ed4 733c 45a5 003c
00000220: 244a 4c3b fa30 093b 5ff3 de3b 51dc 90bb
00000230: 7b74 c43b ce85 973c 07f9 d83a e147 9ebb
00000240: b55c 5abb 0b0c 8ebc 80fb 243c b213 543c
00000250: ce75 b63b 98f0 e43b e125 85bc 3f3f e7bb
00000260: de4d c83b 1aa8 953c 508c 753c 0310 843b
00000270: a099 a939 422e 43bc 37d3 24bc c8ba 853c
00000280: 428e e93a cd85 72bb 17f3 14bc 4efe fd3b
00000290: c7dd afbb 0dfb 49bb e4f8 44bc 59aa 9abb
000002a0: 34b5 423c 48c8 8dbc b5df e7bb 1344 bcba
000002b0: 0a60 9f3c 3e03 d6bb c34e ce3b ac3d 2abc
000002c0: bd4f 8cbc 7ffc f7bb 11ac ebba e1e1 a2bb
000002d0: 3b13 8fbc bdde 31bb 7bb6 9fb9 ebd9 e7ba
000002e0: 8666 62bc 12fa a4bb af6c efbb 62b9 4d3c
000002f0: c4b4 ea3b 5db8 ac3b c74c 293c 1c36 7a3a
00000300: 582e 8bbc 961f 1c3c 5a80 a9bb bd1a 0ebc
00000310: 9c68 29bb 5aed b3bb 652f e3bb bf28 a1bb
00000320: d21d babb 24f4 52bb ba8c 6c3b a104 00bb
00000330: 9924 afbc b11b a73a 40a4 913b 7e24 59bc
00000340: 0bbb 6d3c 7d3a 0abc 9e91 24bc 6ccf 2cbc
00000350: 7689 cc3b 06f1 813b ec6a 3b3c d394 09bb
00000360: eedd 72bc 2533 3e3c dc10 20bc 8ec9 883c
00000370: ed79 0b3c c3e9 c7bc f27a 113c 4d4d 8ebc
00000380: ca81 3e3c 9b73 783c cb42 7c3c f0f5 ddbb
00000390: a4c5 ebbb f1fc 8a3b 2adf 2bbb 70e5 adbb
000003a0: 5900 2b3c 02f7 c2b9 59ee 743b 7bff 2cbc
000003b0: a99b 10bc 9ec3 0d3c 9b6f 2bbc 4342 fb3a
000003c0: b42b f63b 42cf 95bb b8ef 063c d5f1 37bc
000003d0: b36b 23bc 83ac d83a 635e 533a b699 7abb
000003e0: 1afb a63b ca06 c9bc 46a7 12bc 86a7 783b
000003f0: 6f6b a13b 2052 9a3b ff50 09bb 15b3 bf3a
0.0070672287 -0.011940546 -0.019989707 -0.009332228 0.00063888397 0.0019724993 0.018319927 -0.014277585
-0.0062051336 -0.005116318 -0.023989456 0.010664063 -0.008812199 -0.0016619175 0.01879725 0.0035451052
0.00041911143 0.00095694046 0.0061994703 0.0027262305 0.0042256415 -0.006438655 0.005357834 0.002031799
0.003029088 0.0009650607 0.005075561 -0.0127395 -0.0011399796 -0.00075917016 -0.0054874583 0.013302826
0.010674264 -0.022889722 0.0027144712 -0.0007839981 -0.021582458 -0.0044529797 -0.00033354058 0.019109234
-0.004580353 0.0208303 0.011640517 0.012479189 0.0006520584 -0.003047298 0.0022131456 -0.00386103
0.013272953 0.0026064334 0.00046170078 0.006837676 0.0036999627 -0.0024113185 0.017127661 0.0040662414
0.004960429 0.012400873 -0.0050050914 -0.0067864684 -0.019458767 -0.013550727 -0.012691119 -0.0018030842
0.012412217 -0.0006855467 -0.001768833 -0.013753259 -0.0033459456 -0.0027831057 0.013028743 0.0134876
0.004949372 0.0019471118 0.0111293495 0.00829789 0.0034627137 -0.015826361 -0.007911307 0.0057579554
-0.012092954 -0.0044846786 0.008784859 -0.006228269 -0.007044476 -0.007942295 0.0021331422 -0.0011721501
0.0095359 -0.014888081 0.017822329 -0.008185889 0.002467668 -0.0069079343 0.0040412424 -0.0050123744
0.00069299084 -0.00634037 -0.0037800993 0.009734381 0.009269452 -0.0090336045 0.010845158 -0.010785402
0.0015240147 -0.0008565573 -0.017073417 0.017693246 0.012159772 0.02240902 0.02271683 -0.005382853
-0.017196858 0.0033135929 0.004995808 0.0106099155 0.008348983 -0.0038718474 0.018957078 -0.005756337
-0.018772325 0.011784987 -0.004827845 -0.005020115 0.0044779447 0.0015961492 -0.0074235983 0.0007075873
-0.0002598076 0.010146843 0.004386595 0.006688051 -0.014118753 -0.017296884 0.014882175 0.007851903
0.003117212 0.0020933733 0.0068039144 -0.004420795 0.005995331 0.01849642 0.0016553708 -0.004830346
-0.0033319418 -0.017339727 0.010069728 0.012944149 0.0055682426 0.006986689 -0.016253414 -0.0070571
0.006112798 0.018268634 0.014987066 0.004030229 0.0003234865 -0.011912884 -0.010060123 0.016324416
0.0017818885 -0.003700602 -0.00909116 0.0077512627 -0.005367014 -0.0030819804 -0.012022231 -0.004720014
0.0118840225 -0.017307416 -0.0070762285 -0.0014363549 0.019454975 -0.006531148 0.00629601 -0.01039068
-0.017127866 -0.0075679417 -0.0017980357 -0.0049707745 -0.017465224 -0.002714082 -0.00030462802 -0.0017688846
-0.013818389 -0.0050346935 -0.0073066573 0.012556406 0.007162662 0.0052710013 0.010333247 0.0009544806
-0.016989872 0.009529015 -0.0051727714 -0.008673367 -0.0025849706 -0.005490941 -0.00693314 -0.0049181874
-0.0056798244 -0.0032188976 0.0036094622 -0.001953401 -0.021379756 0.0012749342 0.004444629 -0.013253329
0.014509927 -0.008436796 -0.0100444835 -0.0105475 0.0062419726 0.0039655 0.011439066 -0.0020993247
-0.01482342 0.0116088735 -0.009769645 0.016697671 0.008512956 -0.024403458 0.00887941 -0.017370844
0.011627624 0.015164281 0.015396784 -0.006773703 -0.0071951915 0.0042415787 -0.0026225545 -0.005306892
0.010437095 -0.000371866 0.0037373512 -0.010558958 -0.008826175 0.008652596 -0.010463621 0.0019169528
0.007512534 -0.004571826 0.008235864 -0.011227091 -0.009974408 0.0016530905 0.0008063076 -0.0038238592
0.0050958516 -0.02453937 -0.008951014 0.0037941649 0.004926137 0.004709497 -0.0020952818 0.0014625514

action_model._discrete_distribution.branches.0.bias f4 [2]
00000000: 5e79 813b 5d79 81bb
0.0039512357 -0.003951235

exp_avg f4 [128, 78]
00000000: 0000 0000 9154 eab5 9154 eab5 0000 0000
00000010: 9154 eab5 9154 eab5 0000 0000 9154 eab5
00000020: 9154 eab5 0000 0000 9154 eab5 9154 eab5
00000030: 0000 0000 9154 eab5 9154 eab5 0000 0000
00000040: 9154 eab5 9154 eab5 0000 0000 9154 eab5
00000050: 9154 eab5 0000 0000 9154 eab5 9154 eab5
00000060: 0000 0000 9154 eab5 9154 eab5 0000 0000
00000070: 9154 eab5 9154 eab5 0000 0000 9154 eab5
00000080: 9154 eab5 0000 0000 9154 eab5 9154 eab5
00000090: 0000 0000 9154 eab5 9154 eab5 ad05 2cae
000000a0: 3a53 eab5 4f54 eab5 9c81 8a30 3277 eab5
000000b0: 9454 eab5 ad05 2cae 3a53 eab5 5354 eab5
000000c0: 442c 7030 9772 eab5 cc55 eab5 8973 2dae
000000d0: 3753 eab5 5554 eab5 08c7 21b0 5940 eab5
000000e0: 4656 eab5 2740 06af 6050 eab5 7c54 eab5
000000f0: 5df1 1ab0 3341 eab5 5255 eab5 0000 0000
00000100: 9154 eab5 9154 eab5 5df1 1ab0 3341 eab5
00000110: 7f53 eab5 0000 0000 9154 eab5 9154 eab5
00000120: a7f9 c8b0 5322 eab5 3253 eab5 0000 0000
00000130: 9154 eab5 9154 eab5 0000 0000 4e8a dd38
00000140: 4e8a dd38 0000 0000 4e8a dd38 4e8a dd38
00000150: 0000 0000 4e8a dd38 4e8a dd38 0000 0000
00000160: 4e8a dd38 4e8a dd38 0000 0000 4e8a dd38
00000170: 4e8a dd38 0000 0000 4e8a dd38 4e8a dd38
00000180: 0000 0000 4e8a dd38 4e8a dd38 0000 0000
00000190: 4e8a dd38 4e8a dd38 0000 0000 4e8a dd38
000001a0: 4e8a dd38 0000 0000 4e8a dd38 4e8a dd38
000001b0: 0000 0000 4e8a dd38 4e8a dd38 0000 0000
000001c0: 4e8a dd38 4e8a dd38 0000 0000 4e8a dd38
000001d0: 4e8a dd38 e620 01b1 518b dd38 6b8a dd38
000001e0: d88c acb0 fa8a dd38 6c8a dd38 e620 01b1
000001f0: 518b dd38 668a dd38 a874 99b1 b48c dd38
00000200: 6e8a dd38 c23c a0b1 cf8c dd38 628a dd38
00000210: 1203 ab30 a389 dd38 758a dd38 1123 f5b0
00000220: 448b dd38 548a dd38 74a4 0031 4d89 dd38
00000230: 5e8a dd38 0000 0000 4e8a dd38 4e8a dd38
00000240: 74a4 0031 4d89 dd38 3f8a dd38 0000 0000
00000250: 4e8a dd38 4e8a dd38 6b35 c431 3d87 dd38
00000260: 398a dd38 0000 0000 4e8a dd38 4e8a dd38
00000270: 0000 0000 cc39 abb8 cc39 abb8 0000 0000
00000280: cc39 abb8 cc39 abb8 0000 0000 cc39 abb8
00000290: cc39 abb8 0000 0000 cc39 abb8 cc39 abb8
000002a0: 0000 0000 cc39 abb8 cc39 abb8 0000 0000
000002b0: cc39 abb8 cc39 abb8 0000 0000 cc39 abb8
000002c0: cc39 abb8 0000 0000 cc39 abb8 cc39 abb8
000002d0: 0000 0000 cc39 abb8 cc39 abb8 0000 0000
000002e0: cc39 abb8 cc39 abb8 0000 0000 cc39 abb8
000002f0: cc39 abb8 0000 0000 cc39 abb8 cc39 abb8
00000300: 0000 0000 cc39 abb8 cc39 abb8 8929 c630
00000310: 943a abb8 dd39 abb8 cf5b c3b0 0a39 abb8
00000320: e039 abb8 8929 c630 943a abb8 d739 abb8
00000330: 38e4 ae31 893c abb8 f839 abb8 a0f3 7231
00000340: b33b abb8 d739 abb8 a0c4 63b0 5c39 abb8
00000350: fc39 abb8 a916 7a30 4b3a abb8 d039 abb8
00000360: fb11 12b1 a938 abb8 db39 abb8 0000 0000
00000370: cc39 abb8 cc39 abb8 fb11 12b1 a938 abb8
00000380: bd39 abb8 0000 0000 cc39 abb8 cc39 abb8
00000390: cf5c cbb1 a136 abb8 b839 abb8 0000 0000
000003a0: cc39 abb8 cc39 abb8 0000 0000 4a4e 1db8
000003b0: 4a4e 1db8 0000 0000 4a4e 1db8 4a4e 1db8
000003c0: 0000 0000 4a4e 1db8 4a4e 1db8 0000 0000
000003d0: 4a4e 1db8 4a4e 1db8 0000 0000 4a4e 1db8
000003e0: 4a4e 1db8 0000 0000 4a4e 1db8 4a4e 1db8
000003f0: 0000 0000 4a4e 1db8 4a4e 1db8 0000 0000
0.0 -1.7458971e-06 -1.7458971e-06 0.0 -1.7458971e-06 -1.7458971e-06 0.0 -1.7458971e-06
-1.7458971e-06 0.0 -1.7458971e-06 -1.7458971e-06 0.0 -1.7458971e-06 -1.7458971e-06 0.0
-1.7458971e-06 -1.7458971e-06 0.0 -1.7458971e-06 -1.7458971e-06 0.0 -1.7458971e-06 -1.7458971e-06
0.0 -1.7458971e-06 -1.7458971e-06 0.0 -1.7458971e-06 -1.7458971e-06 0.0 -1.7458971e-06
-1.7458971e-06 0.0 -1.7458971e-06 -1.7458971e-06 0.0 -1.7458971e-06 -1.7458971e-06 -3.9113313e-11
-1.7458581e-06 -1.7458896e-06 1.0077659e-09 -1.7469049e-06 -1.7458974e-06 -3.9113313e-11 -1.7458581e-06 -1.74589e-06
8.7374397e-10 -1.7467709e-06 -1.7459329e-06 -3.943826e-11 -1.7458577e-06 -1.7458902e-06 -5.88543e-10 -1.7453086e-06
-1.7459467e-06 -1.221002e-10 -1.7457751e-06 -1.7458947e-06 -5.636787e-10 -1.7453334e-06 -1.745919e-06 0.0
-1.7458971e-06 -1.7458971e-06 -5.636787e-10 -1.7453334e-06 -1.7458659e-06 0.0 -1.7458971e-06 -1.7458971e-06
-1.4622871e-09 -1.7444348e-06 -1.7458572e-06 0.0 -1.7458971e-06 -1.7458971e-06 0.0 0.000105638625
0.000105638625 0.0 0.000105638625 0.000105638625 0.0 0.000105638625 0.000105638625 0.0
0.000105638625 0.000105638625 0.0 0.000105638625 0.000105638625 0.0 0.000105638625 0.000105638625
0.0 0.000105638625 0.000105638625 0.0 0.000105638625 0.000105638625 0.0 0.000105638625
0.000105638625 0.0 0.000105638625 0.000105638625 0.0 0.000105638625 0.000105638625 0.0
0.000105638625 0.000105638625 0.0 0.000105638625 0.000105638625 -1.8790671e-09 0.00010564051 0.000105638836
-1.2554677e-09 0.000105639876 0.00010563884 -1.8790671e-09 0.00010564051 0.0001056388 -4.4661483e-09 0.00010564309
0.00010563886 -4.6635202e-09 0.00010564329 0.00010563877 1.244276e-09 0.00010563738 0.00010563891 -1.7836063e-09
0.000105640414 0.00010563867 1.8719932e-09 0.000105636755 0.00010563874 0.0 0.000105638625 0.000105638625
1.8719932e-09 0.000105636755 0.000105638515 0.0 0.000105638625 0.000105638625 5.7104237e-09 0.00010563291
0.00010563847 0.0 0.000105638625 0.000105638625 0.0 -8.164681e-05 -8.164681e-05 0.0
-8.164681e-05 -8.164681e-05 0.0 -8.164681e-05 -8.164681e-05 0.0 -8.164681e-05 -8.164681e-05
0.0 -8.164681e-05 -8.164681e-05 0.0 -8.164681e-05 -8.164681e-05 0.0 -8.164681e-05
-8.164681e-05 0.0 -8.164681e-05 -8.164681e-05 0.0 -8.164681e-05 -8.164681e-05 0.0
-8.164681e-05 -8.164681e-05 0.0 -8.164681e-05 -8.164681e-05 0.0 -8.164681e-05 -8.164681e-05
0.0 -8.164681e-05 -8.164681e-05 1.4418201e-09 -8.1648264e-05 -8.164693e-05 -1.4214211e-09 -8.16454e-05
-8.1646955e-05 1.4418201e-09 -8.1648264e-05 -8.164689e-05 5.090012e-09 -8.165191e-05 -8.164713e-05 3.535412e-09
-8.165035e-05 -8.164689e-05 -8.286154e-10 -8.1645994e-05 -8.164716e-05 9.098167e-10 -8.164773e-05 -8.164684e-05
-2.1256017e-09 -8.164469e-05 -8.164692e-05 0.0 -8.164681e-05 -8.164681e-05 -2.1256017e-09 -8.164469e-05
-8.16467e-05 0.0 -8.164681e-05 -8.164681e-05 -5.9186287e-09 -8.164091e-05 -8.164666e-05 0.0
-8.164681e-05 -8.164681e-05 0.0 -3.750463e-05 -3.750463e-05 0.0 -3.750463e-05 -3.750463e-05
0.0 -3.750463e-05 -3.750463e-05 0.0 -3.750463e-05 -3.750463e-05 0.0 -3.750463e-05
-3.750463e-05 0.0 -3.750463e-05 -3.750463e-05 0.0 -3.750463e-05 -3.750463e-05 0.0

exp_avg_sq f4 [128, 78]
00000000: 0000 0000 7a9e 652a 7a9e 652a 0000 0000
00000010: 7a9e 652a 7a9e 652a 0000 0000 7a9e 652a
00000020: 7a9e 652a 0000 0000 7a9e 652a 7a9e 652a
00000030: 0000 0000 7a9e 652a 7a9e 652a 0000 0000
00000040: 7a9e 652a 7a9e 652a 0000 0000 7a9e 652a
00000050: 7a9e 652a 0000 0000 7a9e 652a 7a9e 652a
00000060: 0000 0000 7a9e 652a 7a9e 652a 0000 0000
00000070: 7a9e 652a 7a9e 652a 0000 0000 7a9e 652a
00000080: 7a9e 652a 0000 0000 7a9e 652a 7a9e 652a
00000090: 0000 0000 7a9e 652a 7a9e 652a 998d 7a23
000000a0: 2b9d 652a 629f 652a 319f 4a25 8c14 662a
000000b0: 96a0 652a 998d 7a23 2b9d 652a 4c9f 652a
000000c0: afb9 3825 d909 662a 2ea1 652a 57a0 8923
000000d0: 899a 652a 7e9f 652a 26a3 9f26 21c2 662a
000000e0: 47a2 652a 594e 5522 24b1 652a d59e 652a
000000f0: b73c a026 64c3 662a afa0 652a 0000 0000
00000100: 7a9e 652a 7a9e 652a b73c a026 64c3 662a
00000110: 669d 652a 0000 0000 7a9e 652a 7a9e 652a
00000120: f714 ae26 d2a1 662a 4e9c 652a 0000 0000
00000130: 7a9e 652a 7a9e 652a 0000 0000 0d23 e730
00000140: 0d23 e730 0000 0000 0d23 e730 0d23 e730
00000150: 0000 0000 0d23 e730 0d23 e730 0000 0000
00000160: 0d23 e730 0d23 e730 0000 0000 0d23 e730
00000170: 0d23 e730 0000 0000 0d23 e730 0d23 e730
00000180: 0000 0000 0d23 e730 0d23 e730 0000 0000
00000190: 0d23 e730 0d23 e730 0000 0000 0d23 e730
000001a0: 0d23 e730 0000 0000 0d23 e730 0d23 e730
000001b0: 0000 0000 0d23 e730 0d23 e730 0000 0000
000001c0: 0d23 e730 0d23 e730 0000 0000 0d23 e730
000001d0: 0d23 e730 8650 b626 7f18 e730 c321 e730
000001e0: 0900 2a28 301d e730 0e22 e730 8650 b626
000001f0: 7f18 e730 e321 e730 43ed 9e27 b122 e730
00000200: 1323 e730 a41d bc27 f415 e730 5522 e730
00000210: 716a be28 9046 e730 4623 e730 8ab9 3826
00000220: ab19 e730 dd22 e730 c936 b928 e545 e730
00000230: 0424 e730 0000 0000 0d23 e730 0d23 e730
00000240: c936 b928 e545 e730 8724 e730 0000 0000
00000250: 0d23 e730 0d23 e730 60d8 cc28 2347 e730
00000260: 0324 e730 0000 0000 0d23 e730 0d23 e730
00000270: 0000 0000 ba5a d130 ba5a d130 0000 0000
00000280: ba5a d130 ba5a d130 0000 0000 ba5a d130
00000290: ba5a d130 0000 0000 ba5a d130 ba5a d130
000002a0: 0000 0000 ba5a d130 ba5a d130 0000 0000
000002b0: ba5a d130 ba5a d130 0000 0000 ba5a d130
000002c0: ba5a d130 0000 0000 ba5a d130 ba5a d130
000002d0: 0000 0000 ba5a d130 ba5a d130 0000 0000
000002e0: ba5a d130 ba5a d130 0000 0000 ba5a d130
000002f0: ba5a d130 0000 0000 ba5a d130 ba5a d130
00000300: 0000 0000 ba5a d130 ba5a d130 b61e 2327
00000310: 2a50 d130 8c59 d130 fe67 9328 935b d130
00000320: 045a d130 b61e 2327 2a50 d130 9859 d130
00000330: 811c c427 ea5a d130 dd5a d130 5fd4 d927
00000340: cd4b d130 0e5a d130 4078 cd28 0f91 d130
00000350: 245b d130 6ad8 7025 4c52 d130 8f5a d130
00000360: 01bb c028 008f d130 2d5c d130 0000 0000
00000370: ba5a d130 ba5a d130 01bb c028 008f d130
00000380: f65c d130 0000 0000 ba5a d130 ba5a d130
00000390: 40a4 d628 1991 d130 315c d130 0000 0000
000003a0: ba5a d130 ba5a d130 0000 0000 8c53 832f
000003b0: 8c53 832f 0000 0000 8c53 832f 8c53 832f
000003c0: 0000 0000 8c53 832f 8c53 832f 0000 0000
000003d0: 8c53 832f 8c53 832f 0000 0000 8c53 832f
000003e0: 8c53 832f 0000 0000 8c53 832f 8c53 832f
000003f0: 0000 0000 8c53 832f 8c53 832f 0000 0000
0.0 2.0394268e-13 2.0394268e-13 0.0 2.0394268e-13 2.0394268e-13 0.0 2.0394268e-13
2.0394268e-13 0.0 2.0394268e-13 2.0394268e-13 0.0 2.0394268e-13 2.0394268e-13 0.0
2.0394268e-13 2.0394268e-13 0.0 2.0394268e-13 2.0394268e-13 0.0 2.0394268e-13 2.0394268e-13
0.0 2.0394268e-13 2.0394268e-13 0.0 2.0394268e-13 2.0394268e-13 0.0 2.0394268e-13
2.0394268e-13 0.0 2.0394268e-13 2.0394268e-13 0.0 2.0394268e-13 2.0394268e-13 1.3582512e-17
2.0393814e-13 2.0394583e-13 1.7574643e-16 2.0435232e-13 2.0395e-13 1.3582512e-17 2.0393814e-13 2.0394553e-13
1.6022368e-16 2.043152e-13 2.0395206e-13 1.4921476e-17 2.0392901e-13 2.0394621e-13 1.1077063e-15 2.0495456e-13
2.0395587e-13 2.890836e-18 2.0400744e-13 2.0394392e-13 1.1118687e-15 2.0495893e-13 2.0395034e-13 0.0
2.0394268e-13 2.0394268e-13 1.1118687e-15 2.0495893e-13 2.0393894e-13 0.0 2.0394268e-13 2.0394268e-13
1.2079358e-15 2.0484246e-13 2.0393515e-13 0.0 2.0394268e-13 2.0394268e-13 0.0 1.6817424e-09
1.6817424e-09 0.0 1.6817424e-09 1.6817424e-09 0.0 1.6817424e-09 1.6817424e-09 0.0
1.6817424e-09 1.6817424e-09 0.0 1.6817424e-09 1.6817424e-09 0.0 1.6817424e-09 1.6817424e-09
0.0 1.6817424e-09 1.6817424e-09 0.0 1.6817424e-09 1.6817424e-09 0.0 1.6817424e-09
1.6817424e-09 0.0 1.6817424e-09 1.6817424e-09 0.0 1.6817424e-09 1.6817424e-09 0.0
1.6817424e-09 1.6817424e-09 0.0 1.6817424e-09 1.6817424e-09 1.2650613e-15 1.6814424e-09 1.6817058e-09
9.436903e-15 1.6815758e-09 1.6817141e-09 1.2650613e-15 1.6814424e-09 1.6817093e-09 4.411105e-15 1.6817322e-09
1.6817431e-09 5.221262e-15 1.6813702e-09 1.681722e-09 2.1140399e-14 1.6827517e-09 1.6817487e-09 6.4089276e-16
1.6814757e-09 1.6817371e-09 2.0562885e-14 1.6827327e-09 1.6817698e-09 0.0 1.6817424e-09 1.6817424e-09
2.0562885e-14 1.6827327e-09 1.6817844e-09 0.0 1.6817424e-09 1.6817424e-09 2.2742387e-14 1.682768e-09
1.6817697e-09 0.0 1.6817424e-09 1.6817424e-09 0.0 1.5232537e-09 1.5232537e-09 0.0
1.5232537e-09 1.5232537e-09 0.0 1.5232537e-09 1.5232537e-09 0.0 1.5232537e-09 1.5232537e-09
0.0 1.5232537e-09 1.5232537e-09 0.0 1.5232537e-09 1.5232537e-09 0.0 1.5232537e-09
1.5232537e-09 0.0 1.5232537e-09 1.5232537e-09 0.0 1.5232537e-09 1.5232537e-09 0.0
1.5232537e-09 1.5232537e-09 0.0 1.5232537e-09 1.5232537e-09 0.0 1.5232537e-09 1.5232537e-09
0.0 1.5232537e-09 1.5232537e-09 2.2637443e-15 1.5229535e-09 1.5232202e-09 1.6365378e-14 1.5232778e-09
1.5232335e-09 2.2637443e-15 1.5229535e-09 1.5232215e-09 5.4431832e-15 1.5232591e-09 1.5232576e-09 6.0459852e-15
1.5228295e-09 1.5232346e-09 2.2811722e-14 1.524798e-09 1.5232655e-09 2.0890006e-16 1.5230142e-09 1.523249e-09
2.1397382e-14 1.5247394e-09 1.5232949e-09 0.0 1.5232537e-09 1.5232537e-09 2.1397382e-14 1.5247394e-09
1.5233173e-09 0.0 1.5232537e-09 1.5232537e-09 2.3830005e-14 1.5247991e-09 1.5232954e-09 0.0
1.5232537e-09 1.5232537e-09 0.0 2.3888125e-10 2.3888125e-10 0.0 2.3888125e-10 2.3888125e-10
0.0 2.3888125e-10 2.3888125e-10 0.0 2.3888125e-10 2.3888125e-10 0.0 2.3888125e-10
2.3888125e-10 0.0 2.3888125e-10 2.3888125e-10 0.0 2.3888125e-10 2.3888125e-10 0.0

exp_avg f4 [128]
00000000: ff50 eab5 889b dd38 663c abb8 9f4e 1db8
00000010: 2565 7bb8 61e4 3f38 6f80 2eb6 4143 27b8
00000020: 60c0 4739 ee74 af39 80e0 c038 4423 86b7
00000030: c50f a6b8 2503 2b36 9aeb 4339 5372 7cb8
00000040: 0429 27b7 c98d 15b7 9a43 eb38 dd0c 1f39
00000050: 04bd 83b8 e995 be38 abfc 8db6 2276 9b34
00000060: 24db 5838 8f1e 8e38 81f5 f138 53e9 9fb6
00000070: f193 e437 dc3a 3e39 57fe 89b7 ab1e b437
00000080: 92f8 52b8 9e76 7139 c8d2 a4b8 eaba 01b8
00000090: bd46 1a39 195b 42b8 bd2e b938 b1b5 80b8
000000a0: d7e4 8139 cf5a 7ab7 e99e 1e39 1c07 2939
000000b0: 6d18 df38 283f 1a39 7aa7 5a38 c775 92b7
000000c0: 8a31 01b9 bc79 8437 281f 7339 ef05 36b4
000000d0: d274 14b8 eae6 7e39 49b1 a436 36b6 44b6
000000e0: 484b a137 4576 cb38 ea19 c8b7 e61f 8939
000000f0: 8bfe 72b6 a0fb 32b7 69ab 67b6 4f76 6ab6
00000100: fe3b 1338 20e1 cfb6 5cce 8339 6e13 0739
00000110: f76e f0b7 a983 19b7 7e79 a1b7 bd60 1b39
00000120: 041f c4b7 061c 9138 369d 8139 4e4d 3cb7
00000130: ab9b b9b4 a281 9938 5af7 b7b8 c1a4 9f39
00000140: 05ae e0b6 fb98 b939 45a6 0b38 bf26 76b8
00000150: e267 d437 aaba 2337 8b0c 22b8 6c46 d738
00000160: d09d 8a37 2c58 7a37 9208 ca38 b6cc 58b8
00000170: bc5f 81b8 6e99 3039 7078 0a39 c308 3434
00000180: fcb8 8639 c913 51b7 7f9e 41b7 a90c fd38
00000190: 22d4 9338 8a89 d4b7 ad39 7138 7492 c139
000001a0: 4b44 ce38 d498 15b8 f355 ce39 2092 5db9
000001b0: 6ebb cab8 7b8d 7db7 8d43 6c38 11e8 8c39
000001c0: a5bc 0639 460d 8c38 d6d6 5bb8 e168 deb7
000001d0: 3363 be38 c4e4 ef38 862d 2238 f4c0 8b39
000001e0: 454d 5138 4066 97b6 b13f 6e39 a7d9 d537
000001f0: d9ec dbb7 b156 9c39 0a2d 2ab6 5fac e938
-1.7457932e-06 0.00010567071 -8.1651655e-05 -3.750494e-05 -5.993726e-05 4.5750643e-05 -2.6002779e-06 -3.9878538e-05
0.00019049784 0.0003346572 9.19709e-05 -1.5990467e-05 -7.918434e-05 2.5482816e-06 0.00018684418 -6.0187955e-05
-9.963525e-06 -8.914104e-06 0.00011218265 0.00015168214 -6.281774e-05 9.087829e-05 -4.231542e-06 2.8956953e-07
5.1702504e-05 6.7767796e-05 0.00011537504 -4.765732e-06 2.7248609e-05 0.00018141739 -1.6450109e-05 2.1471953e-05
-5.02994e-05 0.0002302774 -7.8593905e-05 -3.0930074e-05 0.00014712937 -4.6338046e-05 8.830193e-05 -6.137358e-05
0.00024775296 -1.4922304e-05 0.00015127253 0.00016119744 0.00010638018 0.00014710112 5.2131225e-05 -1.74594e-05
-0.00012320853 1.5792313e-05 0.00023185892 -1.695223e-07 -3.5394747e-05 0.0002430935 4.9082196e-06 -2.9312337e-06
1.9227751e-05 9.701824e-05 -2.3853925e-05 0.00026154442 -3.6208974e-06 -1.0668213e-05 -3.4521456e-06 -3.4937582e-06
3.5103403e-05 -6.1952887e-06 0.00025140017 0.00012881841 -2.8661902e-05 -9.150165e-06 -1.924927e-05 0.0001481799
-2.3379464e-05 6.9193586e-05 0.0002472193 -1.1223672e-05 -3.45722e-07 7.3197545e-05 -8.772193e-05 0.00030449594
-6.6959788e-06 0.0003539993 3.3295033e-05 -5.8687056e-05 2.5320744e-05 9.759018e-06 -3.863549e-05 0.00010265116
1.652437e-05 1.492169e-05 9.633707e-05 -5.1689065e-05 -6.169031e-05 0.00016841825 0.00013205572 1.6766994e-07
0.00025696296 -1.2461977e-05 -1.1540599e-05 0.00012066338 7.049019e-05 -2.5336416e-05 5.7512592e-05 0.00036920945
9.835566e-05 -3.56667e-05 0.0003935542 -0.00021130638 -9.667022e-05 -1.5112916e-05 5.6329696e-05 0.00026875784
0.00012849511 6.6781926e-05 -5.241375e-05 -2.65133e-05 9.078383e-05 0.00011439019 3.8666207e-05 0.00026655907
4.9901446e-05 -4.512054e-06 0.00022721176 2.5492931e-05 -2.6217125e-05 0.0002981923 -2.535819e-06 0.000111424124

exp_avg_sq f4 [128]
00000000: 52a4 652a 202a e730 6b5b d130 9554 832f
00000010: d0ac 3130 7093 b52f a76e c12b 09c6 3e30
00000020: f044 a331 3c91 9032 c5ef 9e30 3f89 fa2d
00000030: f1fa bf30 c644 a62c 6929 a131 29d8 4f30
00000040: d47a 8c2d b974 5d2d 67a6 d430 eebb 4b31
00000050: 0444 4a30 dbe1 8f30 d6da 692c b7f6 4e2b
00000060: 4449 1430 3564 3830 cacc e130 1ab0 de2c
00000070: 59b1 c52e 4167 9931 a6d9 b62e b819 c92e
00000080: 6be7 e02f 865f 0a32 bd4f c430 c1d0 1b2f
00000090: 56a0 6231 cbf2 ee2f 5434 8330 7e55 4d30
000000a0: 7a4f 1332 a86f 062e 323f 4e31 8ece a831
000000b0: ac62 e330 b8d3 4131 66d5 d12f a048 d12e
000000c0: 5a5e 7431 b00f 1b2e 1381 f631 93d5 7429
000000d0: 7c39 452f f0b6 0f32 79bf a92c 89aa b42b
000000e0: 9a39 832e 2602 ad30 d677 182f 6613 2432
000000f0: 7d17 ef2c 5746 0b2e 7967 602c 82d9 132d
00000100: a91b 292f b044 d92c dbe9 2132 c039 1831
00000110: 6d85 002f fbf1 2e2d 84e5 be2e 2776 3931
00000120: 47c7 0430 09fe 7230 ef02 1732 70be 9a2d
00000130: ae67 042c e814 8330 c143 c730 5a4a 8032
00000140: fdcf 1e2d 1cc8 9732 66b9 162f b59b 1b30
00000150: 511e 132f 6b1d 882d b7c6 7d2f 74f6 c030
00000160: 288a 882e a0d3 0c2e 41e3 a230 b4a3 b92f
00000170: 649e 0931 cfa0 9531 bdcd 2b31 2927 d02a
00000180: 8353 1d32 9b8b 8f30 2b68 f32d d6b5 1a31
00000190: cc03 6c30 8650 db2e 4bff dc2f d1a7 b932
000001a0: 0409 b230 e50a a62f 3513 c232 f5dc 2f32
000001b0: f3d8 3431 d6cc e82e d9b5 bc2f 56e8 3332
000001c0: a666 3331 1961 1c30 4ceb 0830 0350 a72e
000001d0: a271 9d30 9ba9 0e31 388a 392f 9bab 4232
000001e0: dbd8 f72f 33ee a12e e326 0132 7ba4 2b2f
000001f0: e423 222f 165b 4a32 38c5 ac2b 3dd0 ee30
2.0396296e-13 1.6819435e-09 1.5232734e-09 2.388886e-10 6.4637806e-10 3.302847e-10 1.3744187e-12 6.940302e-10
4.7517617e-09 1.6829851e-08 1.156416e-09 2.8482659e-11 1.3968401e-09 4.725639e-12 4.6904245e-09 7.5613343e-10
1.5970704e-11 1.2588313e-11 1.5472325e-09 2.9647214e-09 7.358383e-10 1.0468811e-09 3.323277e-12 7.352829e-13
5.3946203e-10 6.7081213e-10 1.6429109e-09 6.3291707e-12 8.990026e-11 4.4646247e-09 8.315064e-11 9.14499e-11
4.0909795e-10 8.054377e-09 1.428354e-09 1.4171332e-10 3.2978469e-09 4.3464463e-10 9.546377e-10 7.470006e-10
8.574597e-09 3.0567243e-11 3.0012868e-09 4.912926e-09 1.6544468e-09 2.8205545e-09 3.8168507e-10 9.5171204e-11
3.5560306e-09 3.5256853e-11 7.1742163e-09 5.436413e-14 1.7937468e-10 8.365291e-09 4.8245266e-12 1.2837102e-12
5.9674224e-11 1.2588017e-09 1.3866894e-10 9.550467e-09 6.7953963e-12 3.1667415e-11 3.1889753e-12 8.404279e-12
1.5380287e-10 6.175137e-12 9.424606e-09 2.2151738e-09 1.1688935e-10 9.944485e-12 8.68097e-11 2.6988205e-09
4.830451e-10 8.8400093e-10 8.790024e-09 1.7592344e-11 1.8815882e-12 9.537446e-10 1.4498412e-09 1.4934972e-08
9.027443e-12 1.7669713e-08 1.3708287e-10 5.6609945e-10 1.3380343e-10 1.5474474e-11 2.3080814e-10 1.4039885e-09
6.2091055e-11 3.2020275e-11 1.1851641e-09 3.3767622e-10 2.0026159e-09 4.3547526e-09 2.5000724e-09 3.6975395e-13
9.157591e-09 1.0444298e-09 2.7672161e-11 2.2513311e-09 8.5861696e-10 9.973271e-11 4.0199163e-10 2.1613149e-08
1.2953767e-09 3.0202965e-10 2.2593307e-08 1.02365805e-08 2.6316769e-09 1.0586525e-10 3.432621e-10 1.0471998e-08
2.6106277e-09 5.6890453e-10 4.981089e-10 7.608494e-11 1.145555e-09 2.076013e-09 1.6874757e-10 1.1331305e-08
4.5083123e-10 7.363745e-11 7.51763e-09 1.5610795e-10 1.4746565e-10 1.1778658e-08 1.2276074e-12 1.7375964e-09
