Results/test5/Doughnut.onnx (onnx, 128129 bytes, 6 tensors)

action_model._discrete_distribution.branches.0.bias f4 [2]
0	0x3c232e52	0.009959774
1	0xbc232e52	-0.009959774

action_model._discrete_distribution.branches.0.weight f4 [2, 128]
0	0x3c8310b4	0.015999176
1	0xbbf074d8	-0.0073381476
2	0xbc13359c	-0.008984949
3	0x3c544a15	0.012957116
4	0xbc3c328b	-0.01148666
5	0xbc05bc24	-0.008162532
6	0xbb9c282d	-0.0047655315
7	0xbb5c9062	-0.0033655395
8	0xbbed9209	-0.0072500748
9	0xbc8b96da	-0.017039705
10	0xbc22b85f	-0.009931653
11	0xbacb0a18	-0.0015490679
12	0x3bbda009	0.0057869
13	0x3b7e31b2	0.0038786945
14	0xba43d723	-0.00074707175
15	0xba1c1fff	-0.00059556955
16	0xbb48071f	-0.0030521823
17	0x3c88b93f	0.016689895
18	0xbb22e953	-0.002485831
19	0x3c8f9113	0.017525231
20	0xbc8574c2	-0.016291026
21	0x3aaa757d	0.0013004985
22	0xbb2c7859	-0.002631685
23	0x3c53d12f	0.012928291
24	0x3c52925f	0.01285228
25	0x3bde4883	0.0067835464
26	0xbb8dcf16	-0.004327665
27	0x3c1552c2	0.009113969
28	0x3985c24c	0.000255125
29	0x3afe04f8	0.0019380143
30	0xbbbbee97	-0.0057352292
31	0x3c9622fd	0.01832723
32	0x3b42d433	0.0029728531
33	0xbb51f3e3	-0.0032036237
34	0xbc25362b	-0.010083715
35	0xbc87117b	-0.016487828
36	0xbccc948b	-0.024973175
37	0xbb964b0c	-0.004586583
38	0x3c60ac85	0.013713007
39	0xbc70427c	-0.014664289
40	0xbc574bdf	-0.013140648
41	0x3be93018	0.007116329
42	0x3c6d9a2b	0.014502089
43	0x3c1fc177	0.009750715
44	0xbc8afd21	-0.016966404
45	0x3ba08d0a	0.0048996257
46	0x3c916c1c	0.017751746
47	0xbb676083	-0.0035305328
48	0xbcdfcbaf	-0.027318804
49	0xbc3eb454	-0.011639673
50	0x3c509462	0.01273069
51	0xbc4fffbf	-0.012695252
52	0xbc8a8c3f	-0.016912578
53	0x3ca5ac17	0.02022366
54	0x3bdab04d	0.0066738487
55	0x3c87d798	0.016582295
56	0xbc234465	-0.009965037
57	0xbc714db1	-0.014727996
58	0xbc97e4e1	-0.018541755
59	0xbc47f51f	-0.0122044375
60	0xbad1f950	-0.0016019735
61	0x3c0aa4d3	0.008462149
62	0x3b1f9af0	0.0024353825
63	0x3c03be57	0.008040986
64	0xbaf06d8b	-0.0018343193
65	0xb9c69516	-0.0003787658
66	0x3b95f4f9	0.004576322
67	0xbc0fb7a8	-0.008771814
68	0xbc08867e	-0.008332847
69	0x3c35f227	0.011105097
70	0xbc3d975c	-0.011571731
71	0xba1a45c3	-0.0005885029
72	0x3c846343	0.016160613
73	0x3c619afc	0.013769861
74	0x3c037fe5	0.008026098
75	0xbbf3505a	-0.00742535
76	0xba9c11eb	-0.0011907195
77	0x3cdef30c	0.027215503
78	0xba060d5a	-0.0005113684
79	0xbb34c527	-0.0027583332
80	0x3abe5200	0.0014520288
81	0x3b042cf3	0.0020168393
82	0xbc356d91	-0.011073486
83	0x3bdc06d5	0.0067146816
84	0x3c715b85	0.014731293
85	0xbc871ea1	-0.016494097
86	0x3c8bc4c3	0.017061597
87	0x3c497b56	0.012297472
88	0x3bbdf65f	0.005797192
89	0xbc959852	-0.018261109
90	0xbcc589ff	-0.024113653
91	0xbb8a4910	-0.0042201355
92	0x3bddf97a	0.0067741247
93	0x3c79ddeb	0.015250663
94	0x3bd5c904	0.006524207
95	0xba81f806	-0.0009915836
96	0x3c033692	0.008008616
97	0x3abe667b	0.0014526391
98	0x3c60e7d3	0.013727146
99	0x3bfade16	0.0076558692
100	0x39315833	0.00016912892
101	0x3c248ff2	0.010044085
102	0x3bfce9fa	0.007718322
103	0x3b5d7cf2	0.0033796397
104	0x3b940aa8	0.004517872
105	0xbb862343	-0.004093559
106	0xba0c92f7	-0.00053624756
107	0xbc7c8612	-0.015412824
108	0xbd06ea38	-0.032938212
109	0xbbb75df6	-0.005595918
110	0x3ae1b08c	0.0017218753
111	0xbc62dd9d	-0.013846782
112	0x3c96598f	0.018353252
113	0x3c8046af	0.015658705
114	0xb98f0a3e	-0.00027282716
115	0xbb87a2fe	-0.004139303
116	0x3ccd5755	0.025066057
117	0xbadaed70	-0.0016702842
118	0xbc8fee59	-0.017569708
119	0x3c08fc81	0.008360983
120	0x3c07e0e1	0.008293361
121	0xbb7723ac	-0.003771047
122	0xbc95919d	-0.01825791
123	0x3bb1e5e6	0.0054290174
124	0xbb91338a	-0.0044311928
125	0x3c7e6d53	0.015528995
126	0x3c1b18ac	0.009466331
127	0x3cff0ee7	0.031135036
128	0xbc59bd15	-0.01328971
129	0x3cf8b79b	0.030360987
130	0x3cabf1d5	0.020989338
131	0xbb825164	-0.0039769877
132	0x3cb7afed	0.022422755
133	0x3c8be894	0.017078675
134	0x3c904b84	0.017614134
135	0x3c4709b3	0.012148309
136	0x3ca0ef64	0.0196454
137	0x3b905c29	0.0044055176
138	0x3bfb7af2	0.0076745683
139	0xba90511f	-0.0011010504
140	0x3c9d831c	0.019227557
141	0xbba448b8	-0.0050135516
142	0x3b5eff48	0.0034026671
143	0x39229cae	0.00015507892
144	0xbb8bb158	-0.0042630844
145	0x3b76c2ba	0.0037652687
146	0xbc6a7e3a	-0.014312321
147	0xbcb05656	-0.021525543
148	0x3b9df259	0.00482015
149	0x3ad1400b	0.0015964521
150	0x3b8380aa	0.0040131407
151	0xbcab3624	-0.02089984
152	0x3c1255c6	0.008931583
153	0x3af0684a	0.0018341627
154	0x3b013b9d	0.001971937
155	0xb71a0a03	-9.181446e-06
156	0xbcbf3ba4	-0.023343869
157	0x3c95678c	0.018237852
158	0x3c89123c	0.016732328
159	0xbabb4f34	-0.0014290572
160	0x3b728f34	0.0037011625
161	0x3c4adc5f	0.012381642
162	0xba2f7f52	-0.00066946924
163	0x3a74a1d2	0.00093319744
164	0x3bb07c77	0.005385931
165	0xbb7685d1	-0.0037616382
166	0xbc416ec2	-0.011806192
167	0x3c388218	0.0112614855
168	0x3cb7df81	0.022445442
169	0x3bb19614	0.005419502
170	0xbc2cc393	-0.010544675
171	0xbc202aa3	-0.00977579
172	0x3bd5e803	0.006527902
173	0x3c69a159	0.01425966
174	0xbc352f2e	-0.011058612
175	0x3c73ad97	0.01487293
176	0x3bd2fc8f	0.0064387987
177	0x3b62e6a3	0.0034622333
178	0xbbe1ac52	-0.0068869973
179	0x3c2c56eb	0.01051877
180	0x3c86a782	0.016437296
181	0x3b3f9215	0.0029231359
182	0xbb81b443	-0.0039582564
183	0x3ba972ca	0.0051711546
184	0xbb8fbda5	-0.004386621
185	0x3ceda610	0.029009849
186	0x3c95b9d6	0.01827709
187	0x3c7d7cfa	0.015471691
188	0x3c9ba821	0.019001069
189	0x3c1a0cbe	0.009402452
190	0x3b5482bc	0.0032426557
191	0x3c01492f	0.0078909835
192	0xbc972109	-0.01844837
193	0x3bfabbd2	0.0076517845
194	0x3bb08fe5	0.0053882473
195	0x3af864c8	0.0018950934
196	0x3c92f1cb	0.017937561
197	0xbc23bc1e	-0.009993581
198	0x3c74416e	0.014908178
199	0x3caa88fc	0.020817272
200	0xbcec33b3	-0.028833246
201	0xbbec8a13	-0.007218608
202	0x3af7310f	0.0018859225
203	0x3c66c57c	0.01408517
204	0x3c2cf3f1	0.010556207
205	0xbbfac1ce	-0.007652498
206	0xbc5b587b	-0.013387795
207	0xbbb70728	-0.00558557
208	0xb9bef8b7	-0.0003642493
209	0xbc5f597e	-0.013632176
210	0x3c76b42f	0.015057608
211	0x3c137be7	0.009001709
212	0xbc6be25d	-0.014397231
213	0x3bd752d9	0.0065711555
214	0xbc83c22a	-0.016083796
215	0x3b91bb59	0.0044473824
216	0xbbdb4790	-0.0066918805
217	0x3c28ad85	0.0102952765
218	0x3b85a7db	0.004078848
219	0x3c227f7e	0.009918092
220	0xbcbe4e6e	-0.023230758
221	0xbbfbf524	-0.007689135
222	0x3c42e940	0.011896431
223	0xbc697116	-0.014248153
224	0xbc018abb	-0.007906611
225	0xbac3b3fc	-0.0014930959
226	0xbbbad850	-0.005702056
227	0xbc3d9e72	-0.011573421
228	0xbcc65187	-0.024208797
229	0xbaca4690	-0.0015432406
230	0x3c06a4a8	0.008217968
231	0x3b80a3dc	0.0039257836
232	0x3a5cb674	0.00084195216
233	0x3c9f3c0e	0.019437816
234	0xbca1eb6e	-0.019765582
235	0x3b31b8ec	0.0027118279
236	0x3bc47362	0.0059952
237	0x3ccca3da	0.024980474
238	0xbc709561	-0.014684052
239	0x3bfd7a9f	0.007735565
240	0xbc41d318	-0.011830114
241	0x3b7b96e6	0.0038389503
242	0x3a033538	0.00050051836
243	0x3c63da8b	0.013907085
244	0xbc511f9a	-0.012763882
245	0xbbb26177	-0.0054437476
246	0x3c56e83d	0.013116893
247	0x3b86b5a5	0.004111009
248	0x3b3681a6	0.0027848273
249	0xbb12e7e3	-0.0022416047
250	0x3c2bb804	0.010480884
251	0xbc5a120e	-0.013309969
252	0x3beed03f	0.0072880085
253	0xba5403d4	-0.00080877286
254	0xbc87fac3	-0.016599065
255	0x3bb3e0b2	0.0054894323

network_body._body_endoder.seq_layers.0.bias f4 [128]
0	0xbc0de1d3	-0.008659798
1	0x3bed7d1a	0.0072475793
2	0xbbc3373e	-0.005957513
3	0x3bc371a5	0.005964475
4	0x3bb2d175	0.005457098
5	0x3b9d083a	0.0047922404
6	0xbc166904	-0.009180311
7	0xbc123aaf	-0.008925124
8	0x3bb2012d	0.005432269
9	0x3b06d733	0.0020575046
10	0x3c133b33	0.008986282
11	0x3ba3d629	0.004999895
12	0x3a50f2e5	0.00079707644
13	0xbaad4c57	-0.0013221604
14	0x3b44b941	0.0030017646
15	0xbc010956	-0.007875761
16	0xbc1243d6	-0.008927306
17	0xbbe5736e	-0.0070022857
18	0x3c9fbb30	0.019498438
19	0x3bf18db7	0.00737163
20	0xbafc7bf5	-0.0019263016
21	0x3b89a1a1	0.004200176
22	0xbc106495	-0.008813043
23	0x3b8247d9	0.00397585
24	0x3bc00e4f	0.0058610807
25	0x3bab99a3	0.005236821
26	0x3c0b882e	0.0085163545
27	0x3c35d373	0.011097777
28	0x3c1b3cc1	0.009474934
29	0xbbd9e39e	-0.0066494485
30	0x3bd87c58	0.00660662
31	0xbb981d65	-0.004642176
32	0x3bc78657	0.0060890126
33	0x3a9b80a1	0.0011863896
34	0x3bafcb23	0.005364792
35	0x3bb7d110	0.005609639
36	0xbbdd0ade	-0.0067456802
37	0xbbf36ddc	-0.0074288677
38	0x3b666437	0.0035154948
39	0x3bd89971	0.0066100885
40	0x3c311998	0.010809325
41	0x39ba2067	0.00035500826
42	0xba1e7672	-0.00060448714
43	0x3bca4a00	0.0061733723
44	0xbbec6a05	-0.007214787
45	0x3bd4e2a2	0.0064967433
46	0x3b994ed1	0.004678585
47	0xbbc93bd1	-0.006141164
48	0x3bb251a9	0.0054418636
49	0xbc1b9fb5	-0.009498526
50	0x3ae74ca4	0.0017646742
51	0x3c099149	0.008396455
52	0xbbbb64fc	-0.0057188254
53	0xba137734	-0.00056253676
54	0x3b52ae35	0.0032147293
55	0x3c63e0eb	0.013908605
56	0xbbff85b5	-0.0077979215
57	0x3c01fc50	0.007933691
58	0xbacb94c2	-0.0015532004
59	0x3bdb2345	0.006687554
60	0x3ac792f8	0.0015226295
61	0xbc186db2	-0.009303497
62	0xbc0f5273	-0.008747685
63	0xbc190e84	-0.00934184
64	0xb9814cd9	-0.00024662053
65	0xbb4d9373	-0.0031368404
66	0x3bfa4f78	0.007638868
67	0x3b7c6f7a	0.0038518594
68	0x3bc95eab	0.0061453185
69	0xbc41052a	-0.011781016
70	0xbbbd9362	-0.0057853917
71	0x3bd5ae0e	0.006520993
72	0x3be72c4a	0.00705484
73	0xbc38cc70	-0.01127921
74	0x3ade6dee	0.0016970017
75	0x3bc5c521	0.0060354625
76	0xbbf9ecea	-0.0076271193
77	0xbbfa84de	-0.0076452335
78	0xbc11997e	-0.008886693
79	0xbc048c45	-0.0080900835
80	0x3af35ba0	0.0018566735
81	0x3b8260cb	0.003978824
82	0xbba53907	-0.0050421986
83	0x3be06884	0.0068483967
84	0xbb7dc8d3	-0.0038724437
85	0xbbe4b27b	-0.0069792843
86	0xbc17c43a	-0.009263093
87	0x3b707e1e	0.0036696265
88	0x3ba3b491	0.0049958904
89	0x3bd1536a	0.0063881176
90	0x3bae6403	0.005321981
91	0x3bb0c841	0.005394966
92	0xbbd3d8ab	-0.006465038
93	0x3b7cc651	0.0038570354
94	0x3c00b097	0.007854602
95	0x3c30746d	0.010769946
96	0x3ba10923	0.0049144193
97	0xbb2a56b7	-0.0025991627
98	0x3bfb77c4	0.0076741893
99	0x3c220a58	0.009890161
100	0xbc0b9006	-0.008518225
101	0xba6a0f6f	-0.00089286914
102	0xbc1202aa	-0.008911768
103	0x3a699a2a	0.0008911217
104	0x3c0bba51	0.008528308
105	0x3befea0b	0.0073216013
106	0xbc23e711	-0.010003821
107	0xbb23c3b3	-0.0024988472
108	0x3bf4bb4e	0.0074686175
109	0x3bd501d9	0.0065004644
110	0x3bb9047d	0.005646287
111	0xbc106e3c	-0.008815344
112	0xbbee02b8	-0.0072635077
113	0x3c00887f	0.007845043
114	0xbb754478	-0.0037424844
115	0x3c01db6b	0.0079258485
116	0xbc118c20	-0.008883506
117	0x3c07de2c	0.008292716
118	0x3b9aa870	0.0047197863
119	0xbbcd47b9	-0.0062646535
120	0xbbf6e143	-0.0075341775
121	0x3c4182cd	0.0118109705
122	0xbc0fd023	-0.008777651
123	0x3c03779e	0.008024124
124	0x3bc60108	0.0060426034
125	0x3bcb3edc	0.006202562
126	0x3a4a8730	0.0007725833
127	0xbc2f684f	-0.010706021

network_body._body_endoder.seq_layers.0.weight f4 [128, 114]
0	0x3daa04a7	0.083016686
1	0xbd5dea98	-0.054178804
2	0xbabef5d0	-0.0014569107
3	0xbe0f472c	-0.13991994
4	0xbdd80e4d	-0.10549603
5	0x3de316e0	0.110883474
6	0xbdc9d29f	-0.09854626
7	0xbd43f402	-0.047840126
8	0x3e930d37	0.2872102
9	0xbdef7648	-0.11692482
10	0x3d8a1621	0.06742502
11	0xbd4e1492	-0.050312586
12	0x3e1f31d1	0.15546347
13	0xbdcac161	-0.09900165
14	0xbc25c98c	-0.010118853
15	0x3d550091	0.052002493
16	0x3d50e735	0.051001746
17	0xbdd48e95	-0.10378758
18	0x3bb2e874	0.0054598395
19	0xbe0599f0	-0.13047004
20	0x3c1d6adb	0.009607996
21	0xbd9e0fbd	-0.077178456
22	0xbdc590b0	-0.096467376
23	0x3d833dc4	0.06408265
24	0xbdb5868d	-0.08863554
25	0xbcf251c5	-0.029580006
26	0xbcd16829	-0.025562363
27	0xbbab96ca	-0.0052364813
28	0x3d86c949	0.06581361
29	0x3e0ce7a2	0.13760236
30	0x3d08d14e	0.033402734
31	0xbe290b37	-0.16508184
32	0xbe36aba9	-0.1783892
33	0x3e1ed70c	0.15511721
34	0xbd09e2e5	-0.03366365
35	0xbd8bf155	-0.0683314
36	0x3d8f32fb	0.06992146
37	0xbd901235	-0.07034723
38	0x3ca0f3a7	0.019647432
39	0xbd844d53	-0.06460061
40	0xbc86dbbf	-0.016462205
41	0xbd831c93	-0.064019345
42	0x3c96f65d	0.018428022
43	0xbcd12e7c	-0.02553486
44	0xbe021171	-0.12701966
45	0xbd65cd76	-0.056104146
46	0x3d517842	0.051140077
47	0xbcc68976	-0.024235468
48	0x3e0cc318	0.13746297
49	0x3ca3456b	0.019930562
50	0xbdf39b21	-0.11894823
51	0xbca39346	-0.019967686
52	0xbd2a3e74	-0.041563466
53	0x3e14e789	0.14541449
54	0xbdf15cc4	-0.11785272
55	0xbd71f28b	-0.059069198
56	0x3be90ebb	0.0071123517
57	0xbcef564a	-0.02921595
58	0x3ded92c6	0.116002604
59	0xbd813fdb	-0.063110076
60	0x3db20f52	0.08694328
61	0x3c81ed0b	0.015860101
62	0x3dbc96d6	0.09208457
63	0xbce4823d	-0.027894134
64	0x3d5e8159	0.054322574
65	0x3d2121b2	0.039338775
66	0x3d131496	0.035908304
67	0x3e01ca51	0.12674834
68	0x3d4d779b	0.050162893
69	0xbd8a4376	-0.067511484
70	0x3ddfdeb4	0.10931149
71	0x3c2361cb	0.009972046
72	0x3db74e9f	0.08950543
73	0xba04b30f	-0.0005062082
74	0x3d61feb4	0.055174544
75	0x3dc11497	0.09427755
76	0xbdb01ec1	-0.08599616
77	0x3dabc24e	0.0838667
78	0xbd826147	-0.063662104
79	0xbd103f6f	-0.035216745
80	0x3d0b7e08	0.03405574
81	0x3d0d1532	0.03444404
82	0xbd828fc3	-0.063750766
83	0x3d4dfc8e	0.050289683
84	0xbc8f5e1e	-0.017500933
85	0xbd26a426	-0.040683888
86	0x3d5b3662	0.05351866
87	0x3e051c48	0.1299907
88	0xbd878bcb	-0.0661846
89	0x3ca320d1	0.019913109
90	0x3d426fe5	0.047469992
91	0x3e0e29a6	0.13883075
92	0x3cf27686	0.029597532
93	0xbcf41e36	-0.029799562
94	0xbce7d960	-0.028301895
95	0x3d4edebc	0.050505385
96	0x3d2693a1	0.040668134
97	0xbbfddcf3	-0.0077472865
98	0xbd07920a	-0.033098258
99	0xbd1a2890	-0.03763634
100	0xbd674331	-0.056460563
101	0xbdb735d8	-0.08945817
102	0xbbec66c2	-0.007214398
103	0xbb921e1b	-0.0044591553
104	0x3d66330f	0.056201037
105	0xbe1fb7df	-0.15597485
106	0xbdaa5922	-0.08317782
107	0x3dbaac01	0.091148384
108	0x3e1a396c	0.15060967
109	0x3cc7c0d1	0.024383934
110	0xbdcd3938	-0.10020679
111	0x3e008705	0.12551506
112	0xbbcbe349	-0.006222163
113	0x3dd071a3	0.101779245
114	0xbd527abf	-0.05138659
115	0x3d3b6495	0.04575022
116	0x3cbaa0b8	0.022781715
117	0x3dd30156	0.10302989
118	0x3c745a9a	0.014914179
119	0xbe018e01	-0.12651826
120	0xbd926c04	-0.071495086
121	0x3dea827b	0.114506684
122	0x3dc84d1a	0.09780331
123	0xbde30739	-0.11085362
124	0x3cdf6959	0.027271913
125	0xbd76f3ba	-0.06029103
126	0xbe3a2377	-0.18177591
127	0x3e2219b8	0.15830123
128	0x3d6a72d8	0.05723843
129	0xbc768c35	-0.015048076
130	0x3df78d15	0.12087456
131	0xbcfef27e	-0.031121489
132	0xbe09958f	-0.13435958
133	0xbce7cfec	-0.028297387
134	0x3de278a9	0.1105817
135	0x3c937720	0.01800114
136	0xbd514ce3	-0.051098716
137	0xbd344acf	-0.044016656
138	0xbe4279d3	-0.18991785
139	0x3e2d7b55	0.16941579
140	0x3cd36303	0.025804048
141	0x3db2231b	0.08698102
142	0xbc5f2f04	-0.013622049
143	0xbc8bd2a1	-0.01706821
144	0x3d45d748	0.04830101
145	0xbd6d5907	-0.05794623
146	0x3ddaa874	0.10676661
147	0xbd0f4e9f	-0.03498709
148	0x3dfe2d4e	0.12410985
149	0xbc7f77ee	-0.015592558
150	0xbdaa8570	-0.083262324
151	0x3d8f2428	0.06989318
152	0xbcefabdc	-0.029256754
153	0x3e897651	0.2684808
154	0xbbeb1e83	-0.007175268
155	0xbd9a194d	-0.07524357
156	0xbe24956f	-0.1607263
157	0xbdd6e281	-0.10492421
158	0xbb60f573	-0.0034325987
159	0xbc133d75	-0.0089868205
160	0xbd8110fc	-0.06302068
161	0xbd87e14c	-0.06634769
162	0x3dee0ec4	0.1162391
163	0x3ca43e47	0.020049227
164	0x3e07dd5f	0.1326804
165	0xbd738547	-0.059453275
166	0xbe330e2b	-0.17485873
167	0x3e0f0ba4	0.13969284
168	0xbd62fd83	-0.05541755
169	0x3cf10698	0.02942209
170	0xbca96251	-0.020676764
171	0x3d383ed1	0.04498178
172	0x3d491116	0.04908856
173	0x3c1dc4f1	0.009629474
174	0xbd696fe8	-0.056991488
175	0xbe275d8d	-0.1634428
176	0x3ca746cf	0.020419506
177	0xbd8cc523	-0.06873538
178	0x3d67821a	0.05652056
179	0x3d3bfc3d	0.04589485
180	0x3d0631c7	0.032762315
181	0xbd5cf337	-0.053942885
182	0xbdef58d4	-0.116868645
183	0xbe2ba9ce	-0.16763994
184	0x3bcd1b80	0.006259382
185	0x3db39647	0.087688975
186	0xbdea250b	-0.11432847
187	0x3dbb29e2	0.09138848
188	0x3dd79a7b	0.10527512
189	0xbccbb01c	-0.024864249
190	0x3dffe901	0.12495614
191	0x3dc742fc	0.09729573
192	0x3bd2b437	0.0064301747
193	0xbd6b36e5	-0.0574254
194	0x3cd47cc4	0.0259384
195	0xbbddab8e	-0.0067648357
196	0xbd5f3853	-0.054497074
197	0x3e2ff437	0.17183004
198	0xbde6bb72	-0.11266221
199	0xbdf0dd38	-0.11760944
200	0xbc083f4d	-0.008315873
201	0x3cc1ca78	0.023656115
202	0xbdabe79d	-0.08393786
203	0xbd60a688	-0.054846317
204	0xbda830d7	-0.082124405
205	0xbd9014da	-0.07035227
206	0xbd276665	-0.040869135
207	0x3d212bc3	0.039348375
208	0x3d7c6e0f	0.061628398
209	0xbba12faa	-0.004919012
210	0x3e03b1c8	0.12860787
211	0xbd04fab1	-0.03246564
212	0x3de80846	0.11329703
213	0x3daba96c	0.08381924
214	0x3d0198eb	0.031639975
215	0xbc7d04ef	-0.015443071
216	0xbd805723	-0.0626662
217	0xbdbf1026	-0.09329252
218	0x3e2ec672	0.17067888
219	0xbdc30faa	-0.09524472
220	0xbc86860b	-0.016421339
221	0xbd10dddb	-0.035367828
222	0x3d8059b9	0.06267113
223	0xbd6870f7	-0.056748357
224	0xbd572067	-0.052521136
225	0x3b4c7976	0.0031200326
226	0x3c3fb677	0.011701218
227	0x3d044f4b	0.032302182
228	0x3e3d9d6e	0.18517086
229	0x3ca2d459	0.019876646
230	0xbd7a7e3e	-0.06115555
231	0xbd085574	-0.03328462
232	0xbd1d3039	-0.038376067
233	0xbd4a21d1	-0.049348656
234	0x3e0f8450	0.14015317
235	0x3cd1ed45	0.025625834
236	0x3c1ff8e2	0.009763928
237	0x3d8b3562	0.06797291
238	0xbdfcf978	-0.1235227
239	0x3ea119c1	0.3146496
240	0x3e62a653	0.2213376
241	0xbbe07c80	-0.006850779
242	0xbd15728b	-0.03648619
243	0xbd52d62f	-0.051473793
244	0x3e287f89	0.16454901
245	0x3dab19f3	0.08354559
246	0xbe1c121d	-0.15241285
247	0xbd7aba32	-0.061212726
248	0x3d5997b1	0.05312318
249	0xbcea8dfe	-0.02863216
250	0xbc96c898	-0.018406197
251	0x3d6f579d	0.058433164
252	0xbb8dc472	-0.0043263966
253	0xbd6c4247	-0.057680395
254	0xbcc07d29	-0.023497181
255	0xbd9fdb87	-0.078055434

network_body._body_endoder.seq_layers.2.bias f4 [128]
0	0x3c146684	0.009057645
1	0x3bf008d2	0.00732527
2	0xbc413408	-0.01179219
3	0x3bf5284a	0.0074816095
4	0xbc36b6dd	-0.011151996
5	0xbc386180	-0.011253715
6	0xbc32a3f0	-0.010903344
7	0xbc06d6cb	-0.008229922
8	0xbc2bdc11	-0.01048948
9	0xbc1db5a9	-0.009625831
10	0xbbdb8b52	-0.006699958
11	0x3c37c082	0.011215331
12	0xbc32dc88	-0.010916837
13	0x3aab72cb	0.0013080476
14	0xbc045b7a	-0.00807845
15	0xbb3ac895	-0.0028500904
16	0xba674baf	-0.00088232284
17	0x3bc57ee0	0.0060270876
18	0x3ac8c768	0.0015318217
19	0x3c1c6c97	0.009547374
20	0xbc0d4260	-0.008621782
21	0xbbcac226	-0.006187695
22	0x3b611314	0.0034343647
23	0x3c166cdf	0.00918123
24	0xbb9a008d	-0.0046997727
25	0xbbb9ad7e	-0.005666434
26	0x3b529a38	0.0032135379
27	0x3a27c056	0.0006399205
28	0x3c03c6f9	0.008043044
29	0xbbdff679	-0.0068348018
30	0xbc33dbe7	-0.010977722
31	0x3c008a55	0.007845481
32	0x3b2d3e74	0.002643493
33	0xbc23551f	-0.009969025
34	0xbb3e0491	-0.002899442
35	0xbc0b3cf9	-0.008498424
36	0xbc30696a	-0.01076732
37	0xba90571b	-0.0011012288
38	0x3c09d6dd	0.008413044
39	0xbc2345b0	-0.009965345
40	0xba89807f	-0.0010490565
41	0xbb8820dc	-0.004154308
42	0x3c08760c	0.008328926
43	0x3c0318f2	0.008001553
44	0xbc29b5fc	-0.01035833
45	0xbbc4079a	-0.0059823515
46	0x3c0c851a	0.008576656
47	0xbc1df76e	-0.009641511
48	0xbc2da3a5	-0.010598098
49	0xbc00008a	-0.0078126285
50	0x3c060f3d	0.008182344
51	0xbc2b60eb	-0.010460119
52	0xbc3f5f6a	-0.011680463
53	0x3bfe535b	0.0077614016
54	0x3bedd0f3	0.0072575747
55	0x3b6eb4c5	0.0036423665
56	0xba3d11e7	-0.00072124455
57	0xbc2820b7	-0.010261706
58	0xbc13b636	-0.00901561
59	0xbc1bde4d	-0.00951345
60	0xbc411ba0	-0.0117863715
61	0xba3ee186	-0.00072815304
62	0x3c070e2c	0.008243125
63	0xbb0cd6f9	-0.0021490438
64	0x3be79abb	0.007068006
65	0x3b84161c	0.004030956
66	0xbba11271	-0.0049155285
67	0xba240cd1	-0.00062580133
68	0xbc1ed4fb	-0.009694333
69	0x3bf46d56	0.007459323
70	0xbc40abd2	-0.011759715
71	0xb830a2e5	-4.2113377e-05
72	0x3c115694	0.0088707395
73	0x3c0c6a99	0.008570337
74	0xbba95b91	-0.0051683863
75	0xbc2e7ce4	-0.010649893
76	0xbb7e38aa	-0.0038791099
77	0x3c12835f	0.008942454
78	0x3be09f16	0.006854902
79	0x3ba7738a	0.005110209
80	0xbbd3e7fe	-0.0064668646
81	0x3be37532	0.006941461
82	0xbc4284ef	-0.011872514
83	0xbc17a5d6	-0.009255847
84	0x3c06a63f	0.008218347
85	0xbc4e55d1	-0.012593702
86	0x3c07e3ec	0.008294087
87	0x3c03c6ef	0.008043035
88	0x3b8f9969	0.0043823016
89	0xbbe0637d	-0.0068477974
90	0xbbc6dc64	-0.006068753
91	0xbc1a3e3d	-0.009414253
92	0x3c189ab6	0.00931423
93	0x3c093d9f	0.008376508
94	0xbc112d17	-0.008860848
95	0x3b25204c	0.0025196252
96	0x3bf292a0	0.007402733
97	0xbbf17226	-0.007368344
98	0x3c1708c5	0.009218399
99	0x3c04521e	0.008076219
100	0x3bff6a16	0.007794629
101	0xb8780442	-5.9131773e-05
102	0x3c11aebc	0.008891758
103	0x3bc009bd	0.005860536
104	0xbc20b2d7	-0.009808264
105	0xbc336a99	-0.010950708
106	0x3c06a437	0.008217863
107	0x3bb954b6	0.0056558503
108	0xbc361513	-0.011113423
109	0xbc38be07	-0.011275775
110	0x3bf4edce	0.0074746376
111	0xbc28d71c	-0.010305192
112	0x3c0c0358	0.008545719
113	0xb9fc7b33	-0.00048156976
114	0xbc05a11a	-0.008156085
115	0xbc1debd4	-0.009638745
116	0x3c14d726	0.0090844985
117	0x3b42f94c	0.0029750643
118	0xbc1d836f	-0.009613856
119	0x3c36e8fb	0.011163945
120	0xbc090b0f	-0.008364453
121	0x3c3f6b81	0.011683346
122	0xbc3de448	-0.011590071
123	0x3c060302	0.008179428
124	0x3b8b97c5	0.0042600357
125	0x3bf3ae4f	0.0074365507
126	0x3c0aa40a	0.0084619615
127	0x3c04de2c	0.0081096105

network_body._body_endoder.seq_layers.2.weight f4 [128, 128]
0	0xbd0d5044	-0.034500375
1	0x3e519bf6	0.2046965
2	0xbe3729b6	-0.17887005
3	0xbdc528c6	-0.096269175
4	0x3d7fe527	0.062474396
5	0x3c732fd0	0.014842942
6	0xbc265cd2	-0.010153966
7	0xbbaee88d	-0.005337781
8	0xbdce4108	-0.100709975
9	0x3ce0da33	0.027447795
10	0x3e990189	0.29883984
11	0xbd839830	-0.06425512
12	0xbbcc49f3	-0.0062344014
13	0xbc86a943	-0.016438132
14	0x3c88ee49	0.016715186
15	0xbdf289d4	-0.11842695
16	0x3d0758fa	0.03304384
17	0xbc985d2f	-0.01859912
18	0xbd7115e2	-0.05885876
19	0x3cb74d28	0.022375658
20	0x3df117d8	0.11772126
21	0x3cc58f38	0.024116144
22	0x3b0b7c6a	0.0021283873
23	0xbb7b2667	-0.003832245
24	0xbd57232f	-0.052523788
25	0xbd49068b	-0.049078505
26	0xbd2094a2	-0.039204247
27	0xbd0d630b	-0.034518283
28	0x3dbad753	0.09123101
29	0xbc8dd397	-0.017312808
30	0xbd792bf7	-0.060832944
31	0xbbeea9bc	-0.0072834175
32	0x3dae1f99	0.085021205
33	0x3d902ddd	0.07039998
34	0xbcb518cb	-0.022106549
35	0x3cf554bc	0.029947631
36	0xbdc8767c	-0.09788224
37	0x3cc1098a	0.023564119
38	0xbddee776	-0.108839914
39	0xbd6fa0d0	-0.058502972
40	0xbd95969b	-0.07304116
41	0xbe204cfe	-0.1565437
42	0xbd889834	-0.066696554
43	0x3d0eb85e	0.034843795
44	0xbd905dbe	-0.0704913
45	0xbc3e0f29	-0.011600294
46	0xbda7d7ff	-0.08195495
47	0xbd6d245e	-0.05789601
48	0x3cba61b6	0.02275167
49	0x3d1e2f89	0.03861955
50	0x3d320115	0.043458063
51	0xbc586332	-0.013207244
52	0xbde36a47	-0.11104255
53	0x3d9c7864	0.0764015
54	0x3d9eac82	0.07747747
55	0xbe51eb17	-0.20499836
56	0xbe8f4b8d	-0.27987328
57	0x3d491036	0.049087726
58	0xbd73b001	-0.059494022
59	0xbd417881	-0.047234062
60	0x3d976451	0.07392181
61	0x3c26c9fd	0.010179994
62	0x3db8589d	0.09001277
63	0xbe041d6b	-0.12901847
64	0xbd797955	-0.060906727
65	0x3cb0a4bb	0.021562925
66	0x3daa5441	0.083168514
67	0x3deceb47	0.11568313
68	0xbd52ba01	-0.05144692
69	0x3daac181	0.08337689
70	0xbe056ba2	-0.1302934
71	0xbd512813	-0.05106361
72	0xbd1e4be9	-0.038646612
73	0xbc8ca90d	-0.017170453
74	0xbd118d2f	-0.035535034
75	0x3dbb1ffe	0.091369614
76	0xbd861b27	-0.06548148
77	0x3dd05ff6	0.10174553
78	0xbd6aa8b0	-0.05728978
79	0xbd7e4b16	-0.062083326
80	0x3dc3898d	0.0954772
81	0xbe403e5b	-0.18773787
82	0xbe0a5960	-0.13510656
83	0x3d39a9e1	0.045328025
84	0xbe3ffe0c	-0.18749255
85	0xbc1d2ee1	-0.009593696
86	0xbd3e1b59	-0.0464128
87	0x3d2d35e1	0.04228771
88	0x3dc918d1	0.098191865
89	0xbd8a0bb5	-0.06740514
90	0x3b8208eb	0.0039683483
91	0xbd1be48f	-0.038059767
92	0xbb88caf2	-0.0041745836
93	0x3d80aa06	0.062824294
94	0x3b84f7c2	0.0040578553
95	0x3d035b6b	0.032069605
96	0x3de279eb	0.1105841
97	0x3de74208	0.11291891
98	0xbe56dcfb	-0.20982735
99	0xbcb95494	-0.022623338
100	0xbe1f7ced	-0.15574999
101	0x3c40d759	0.011770093
102	0x36cc2c32	6.084819e-06
103	0xbd31200f	-0.043243464
104	0x3c569163	0.013096186
105	0xbd372004	-0.044708267
106	0xbdec134f	-0.1152712
107	0x3cd8794f	0.026425032
108	0xbd45ddaf	-0.048307117
109	0x3e2cad1c	0.16862911
110	0xbe09b7f3	-0.13449077
111	0xbd865769	-0.06559641
112	0x3e1b55d0	0.15169454
113	0x3c016fa7	0.007900155
114	0xbd84df42	-0.064878955
115	0x3de09ab6	0.10967009
116	0xbe0ca6aa	-0.13735452
117	0x3d50a0c0	0.050934553
118	0x3d989e39	0.074520536
119	0xbd5361e9	-0.051607046
120	0x3d1e43c4	0.038638845
121	0xbcb11155	-0.02161471
122	0x3cfc9c93	0.03083638
123	0x3e30b1c6	0.17255315
124	0xbd564d1e	-0.05231964
125	0x3c959364	0.018258758
126	0xbeb47c68	-0.35251164
127	0x3d248dfe	0.040174477
128	0x3d6b4d46	0.05744674
129	0xbe216118	-0.15759695
130	0x3c5f6a1b	0.013636137
131	0x3c378f95	0.011203666
132	0xbd2aa624	-0.04166235
133	0x3dcaef9a	0.099089816
134	0xbaad2a61	-0.0013211482
135	0xbe25eeec	-0.16204423
136	0xbd98bdb2	-0.074580565
137	0xbd8cff0d	-0.068845846
138	0x3d66cfdb	0.05635057
139	0xbcea94b6	-0.028635364
140	0x3d7f394a	0.062310494
141	0x3c7f7930	0.015592858
142	0xbdfa813a	-0.12231679
143	0xbe497c26	-0.19676265
144	0x3e1a69df	0.15079449
145	0x3df79dc0	0.12090635
146	0x3da60c80	0.08107853
147	0xbda6904d	-0.08132992
148	0x3d2b1555	0.04176839
149	0xbcc12349	-0.023576396
150	0x3d3e6b81	0.046489242
151	0xbe2315d8	-0.15926301
152	0xbc00b95a	-0.007856691
153	0x3d2fd312	0.0429259
154	0xbe02d16b	-0.12775199
155	0x3da400c5	0.08007959
156	0x3deb5c9e	0.11492275
157	0xbdfd0fc7	-0.12356525
158	0x3c5589d4	0.013033349
159	0x3d882a8d	0.06648741
160	0xbd14a454	-0.036289528
161	0x3e18dab8	0.14927185
162	0xbe115ffa	-0.14196768
163	0xbd675b54	-0.05648358
164	0x3c1d9961	0.009619088
165	0x3c8fd062	0.01755542
166	0xbcf9e5c5	-0.03050507
167	0x3b5e062e	0.0033878195
168	0xbd02168f	-0.031759795
169	0x3d0004bf	0.031254526
170	0x3d0d3c6b	0.034481447
171	0xbdd6b28d	-0.104832746
172	0x3cf69a58	0.030102894
173	0x3e22f688	0.15914357
174	0xbce2cf78	-0.02768682
175	0xbde40395	-0.11133496
176	0x3d21df23	0.03951944
177	0x3a958bf8	0.0011409512
178	0x3e3e6fbb	0.1859731
179	0xbcf2a60d	-0.029620195
180	0xbd8b5f38	-0.06805271
181	0xbd15e1ca	-0.036592282
182	0xbd9bffee	-0.07617174
183	0xbbcced50	-0.006253876
184	0xbd96d821	-0.07365442
185	0x3d7f06eb	0.062262457
186	0x3dc6ce40	0.09707308
187	0xbc857298	-0.016289994
188	0xbe000973	-0.12503605
189	0x3dd558a1	0.10417295
190	0x3cba32fe	0.022729393
191	0xbd92ffb7	-0.0717768
192	0xbda4fdec	-0.08056244
193	0xbd8c6cca	-0.06856687
194	0xbcdb6739	-0.026782619
195	0xbba84974	-0.0051357094
196	0x3cb65d8b	0.022261402
197	0xbdc933d3	-0.09824338
198	0xbcb8f7aa	-0.022579033
199	0x3e08b723	0.13351111
200	0xbd9f3382	-0.07773496
201	0x3d4a74dd	0.049427856
202	0xbd94c7c7	-0.07264667
203	0xbb03a6dd	-0.0020088472
204	0xbdb8f01d	-0.09030173
205	0x3d1be7f2	0.038062997
206	0xbd8ac155	-0.067751564
207	0xbea9bea7	-0.3315327
208	0xbb26c23a	-0.0025445358
209	0xbdabcdbc	-0.0838885
210	0x3cc73148	0.024315491
211	0xbd0364cd	-0.032078553
212	0x3de748ec	0.112932056
213	0xbe2c5cc2	-0.1683226
214	0xbd1d5fd8	-0.03842148
215	0xbd6b3b4f	-0.057429608
216	0xbd1ea3fb	-0.038730603
217	0xbd1c9c03	-0.038234722
218	0x3bd9afea	0.006643285
219	0x3e018add	0.12650628
220	0x3d07de05	0.03317072
221	0xbccd0c46	-0.025030266
222	0xbdb63897	-0.088975124
223	0x3dcc7a8f	0.09984314
224	0x3d857ad2	0.06517567
225	0xbe1a6589	-0.15077795
226	0xbe0a2614	-0.13491088
227	0xbcd2737e	-0.025689837
228	0xbd9fe978	-0.078082025
229	0x3e1a4d46	0.1506854
230	0x3d9c6b23	0.07637622
231	0xbda49a92	-0.080372944
232	0xbd870311	-0.06592382
233	0x3d7b0895	0.06128748
234	0x3c42de00	0.011893749
235	0x3c9b1d54	0.018934883
236	0xbd56f577	-0.052480187
237	0xbc94fb04	-0.0181861
238	0x3d1016e4	0.03517808
239	0x3e317a5e	0.17331836
240	0x3d683cd0	0.05669862
241	0xbdadbdb2	-0.08483447
242	0xbe3edafe	-0.18638226
243	0xbdcd28c8	-0.10017544
244	0x3df7c97a	0.120989755
245	0xbda1373f	-0.078718655
246	0xbbf3bf01	-0.007438541
247	0x3de5f6e1	0.11228729
248	0x3d9d7543	0.076883815
249	0x3db8976e	0.09013258
250	0x3d30562a	0.043050922
251	0x3de1e948	0.11030823
252	0xbccee1ec	-0.025254212
253	0x3df6122f	0.12015187
254	0xbd831677	-0.06400769
255	0x3da224e5	0.07917193
