Results/test9/Doughnut/Doughnut-102540.pt (torch, 659719 bytes, 33 tensors)

network_body._body_endoder.seq_layers.0.weight f4 [128, 78]
00000000: be80 593e ce4d 40be 32ec 0e3d 6ea0 433d
00000010: bdfc 003e 28da 5cbd 238f 253e 326e 723c
00000020: 5de5 35be 60b1 153e 5d97 09be a722 c93c
00000030: d95d 97bd 29f2 423e e01b 4ebd 8125 3b3a
00000040: cab2 ccbd cb0a 613e d3bd 903c e6a8 2abd
00000050: 71d4 01be 47f9 c3bd 212b 95bd 83cc 933c
00000060: a005 a63d b1f1 8fbd d824 1fbd 882e 023d
00000070: b21c a4bd f16a e63d d508 1e3d 6116 d7bd
00000080: 2454 533e 8180 8dbd 90e0 21be ff75 453e
00000090: 3749 893e d720 45bd 53ed 48be 57ec 8c3e
000000a0: 644c bd3c f1d0 643e a9e1 f03d a7af 60be
000000b0: d8df d13d f9c0 963c 3993 5ebe fbf4 703c
000000c0: 271b 0fbe 7643 26be 082e bb3c 4b92 663e
000000d0: d2a2 e2bd b3f0 943d 084a 093d 3701 513d
000000e0: ce7a 36be ed8a 873d 0216 e13d 57bf 103d
000000f0: f08d b5bd becd b6bd 07d6 8e3d 1337 a93d
00000100: 397d 7dbe 2886 143d 319d f2bc 8c1b 533e
00000110: 686c 51bd 5dbb 0abd 0fe1 08bd 2632 08be
00000120: ed4b ff3c 2ae1 d63d 666a b63c dfa0 653d
00000130: f0ad 043e e729 2f3e 8d84 c73b fbbb 55be
00000140: f335 933d f6f5 1f3d 4637 983d cb59 18be
00000150: a318 733b e08d c3bc 0fa5 3ebd 982a d23d
00000160: aa7f 6c3e 8245 183e ab2d 0dbd 50ac c13d
00000170: b9b2 20be 34bd c2bd 7ee9 8cbd b23a 94bd
00000180: 811d b13c f88b 543d 7745 193e 9b85 5e3e
00000190: cc5e 8f3d 9d9c b2bd 98a7 82be 73db 833d
000001a0: 68d8 f5bd 90e1 08be 33a9 443d 79e4 b03c
000001b0: 3301 b33c 2277 d93d 1a41 a13d 10d6 b9bd
000001c0: ab31 363e bf2c 01bc f1b8 c6bc b54f 493d
000001d0: a525 ef3c cc9d 233e ed16 c03d 7366 50be
000001e0: 2706 81bd 26b5 263e 4678 833e f93d 623d
000001f0: 165a a8be 07df e1ba 806c 6bbd d6b8 1cbe
00000200: 98a7 ef3c fc49 193e e224 b93d adb1 4e3c
00000210: b943 e23d b2c2 773d 53eb 203e 7db0 27bd
00000220: c6aa 853d ba71 04be a076 0fbd 3f95 21be
00000230: 9e52 33be 1731 093e e347 5a3e 1575 d03d
00000240: 981f b13c 1565 b73c 4a60 b23c 89f8 2a3e
00000250: d40e 2cbe a892 d33c b9bc 913d 7adb 9dbd
00000260: a2ce 2cbe 8c11 8e3c 8fcb 523d 3ac2 57bd
00000270: ff05 513e 78a1 273e 00ba 293e 7c7e 833b
00000280: 177e 9d3c e2e2 c5bd c5d4 46bd 5027 13be
00000290: 41cf 093e 2931 2bbd 0574 6b3d ef00 903d
000002a0: 6702 033d c202 19be adee 12bd a58b f63c
000002b0: a6fd 783e 66dd 373d e9d8 033d 7fd8 5bbd
000002c0: 5751 2fbc bb35 4cbd 2c20 46bd 5ef1 13be
000002d0: 4d99 be3b fbd0 483e 82cd a43e 2f13 8cb9
000002e0: 89a9 853d ca69 22bd 6d16 a33d 23cd c2ba
000002f0: 3b6e 4f3d 3f69 a13b 3571 c33d b6c6 453e
00000300: d04e b03d f1cf b1bd 283e 493e 7c59 a9bd
00000310: c8c2 0abe 2794 06be 2f01 373d b36f 77bd
00000320: 78d6 423e ddd1 913c acdc 363e e3fb 23be
00000330: 03d4 383d 1ff1 41bd 4fc9 97bd 5941 49be
00000340: 752d ffbd 732b 4dbc b63f ce3c c6dc 87bc
00000350: deda a8bc 42e1 3bbd fa0b 703e e11b 42be
00000360: 4bb0 113e 8d8c a1bd 93c9 8dbd a622 36bd
00000370: 895e 233e 8e2e 1ebe 3a86 283e 7ecb 1cbd
00000380: ab67 d2bd b4a3 0cbd d10e 783d c436 ecbd
00000390: d6c4 653c 4472 283b 3e77 e2bd bafc 923d
000003a0: 130a db3c e578 fd3c 705b 89bd 4046 10bd
000003b0: d815 3bbe ffe9 033e 657e 8bbd 638b 3b3d
000003c0: 9a96 433e 087a 963c 08a5 a0bc cc1b 5f3d
000003d0: 6ec6 943d 4ee1 e8bb d090 bf3d 71d2 033d
000003e0: b85b 213e d569 63bd 3f39 25be b117 f3bb
000003f0: 7386 fabd 847d 303e d6eb 38bd b5e6 8b3d
0.21240517 -0.1877968 0.034893222 0.04776042 0.12596412 -0.053918988 0.16167884 0.01479678
-0.17763276 0.14618444 -0.13436647 0.024552656 -0.07390947 0.1903769 -0.050319552 0.00071390724
-0.09995039 0.21976773 0.01766864 -0.04166498 -0.12678696 -0.0956903 -0.07283617 0.018041855
0.08106542 -0.07028521 -0.038853496 0.031782657 -0.08013286 0.11250866 0.03858264 -0.10502315
0.20637566 -0.06909276 -0.1580832 0.19283293 0.2681367 -0.04812702 -0.19621782 0.27524063
0.023107715 0.2234533 0.11761791 -0.21942006 0.10247773 0.018402563 -0.21735848 0.014706845
-0.13975202 -0.16236672 0.022849098 0.22516744 -0.11066212 0.07272472 0.033517867 0.05102655
-0.17820284 0.06618295 0.10990526 0.035338726 -0.08864963 -0.08925961 0.06974416 0.08262458
-0.247548 0.036260754 -0.02961597 0.20615977 -0.051128775 -0.03387009 -0.033417758 -0.1330038
0.031164134 0.104921654 0.022267532 0.05606162 0.12956977 0.17105828 0.0060887993 -0.2087249
0.07188024 0.039052926 0.074324176 -0.14878003 0.0037093542 -0.023871362 -0.04654413 0.1026203
0.23095575 0.14870265 -0.03446738 0.09456694 -0.15693177 -0.09508744 -0.068804726 -0.07237758
0.021620514 0.051891297 0.14967905 0.21730654 0.07000503 -0.08721278 -0.2551849 0.06438341
-0.12004167 -0.13367295 0.048012923 0.02159332 0.021851158 0.10618426 0.07873745 -0.09074032
0.17792384 -0.007884203 -0.024258109 0.04914828 0.029192755 0.15978163 0.09379373 -0.20351581
-0.063000016 0.1628004 0.256777 0.055234883 -0.3288123 -0.0017232605 -0.05747652 -0.15304884
0.02925472 0.14969629 0.09040238 0.012615603 0.11048073 0.06048841 0.15714769 -0.040939797
0.06526713 -0.12934008 -0.03502524 -0.15779589 -0.17511985 0.13397633 0.21316485 0.101785816
0.02162151 0.022387067 0.02177443 0.16696371 -0.16802531 0.025826767 0.07116074 -0.077078775
-0.16875699 0.017342351 0.05146366 -0.052675463 0.20412444 0.16370189 0.1657486 0.004012881
0.019225163 -0.09662415 -0.048542757 -0.14370465 0.13457967 -0.04179493 0.05748369 0.07031428
0.031984713 -0.14942458 -0.03587215 0.030095885 0.24315509 0.044888876 0.032189284 -0.053673264
-0.010700545 -0.04985593 -0.048370525 -0.14447543 0.0058166147 0.1961097 0.3218804 -0.00026717174
0.06526477 -0.03965167 0.07963262 -0.0014862161 0.050642233 0.0049258764 0.09543077 0.19314083
0.08608782 -0.0868224 0.19652617 -0.08269021 -0.13550866 -0.13142453 0.044678863 -0.06040926
0.19027126 0.017800266 0.17857617 -0.16014056 0.045124065 -0.04734909 -0.074114434 -0.19653834
-0.12459842 -0.012522566 0.025176864 -0.016584765 -0.020612177 -0.04586912 0.23442069 -0.18955947
0.14227407 -0.07888136 -0.06923213 -0.044466637 0.15954031 -0.15447447 0.16457453 -0.038280003
-0.10273679 -0.034335807 0.060561005 -0.11533883 0.01402398 0.0025702873 -0.110579 0.0717711
0.026738202 0.030941436 -0.067068934 -0.035223246 -0.18270051 0.12882231 -0.06811217 0.045787226
0.19100419 0.018368736 -0.019609943 0.05446987 0.0726441 -0.0071069365 0.09353793 0.032183114
0.15757644 -0.05552085 -0.16135119 -0.0074185957 -0.122326754 0.1723538 -0.045146786 0.06831113

network_body._body_endoder.seq_layers.0.bias f4 [128]
00000000: 6ea9 973c 2b51 e338 f26c ab3c c420 923b
00000010: f1a8 763b a184 8a3c 6bea 883c 44ad 7d3c
00000020: f71d 91ba f461 d93a 3632 a33c d888 f13b
00000030: d032 603c cbe1 5e3c 7c1b 8d3c 2f7c 2f3c
00000040: 4683 853c 79ac cb3b 1a7b 9f3b 3d32 813c
00000050: 8cab 333b f1dc a13c bd12 953c bdd1 8a3c
00000060: c8a2 9f3b a09e 703b 7487 bc3c 0b9e 7e3c
00000070: 917b f0bb d075 553c ec6b 1bbc 1bc9 b0bb
00000080: db31 f23c c92a 0e3c eb86 d63b d4e7 613b
00000090: 8b2d a63c af50 65bc 4037 763c b513 283c
000000a0: a138 253c 4783 d33b aabd 1a3b f0c6 413c
000000b0: 5b95 0f3c d75c 783c f970 6abc a78e da3c
000000c0: f7e0 853c 49ab a5bb 38e4 bb3c 6d57 c43c
000000d0: 0245 4abc e935 cb3c 3bb7 f23a 7a76 4a3c
000000e0: f512 80bc f545 963c 51ef 563c b9bb ab3b
000000f0: 7770 6bbc abc0 4a3b 9106 813c a0fb b33c
00000100: 5379 023c e9de 453b 0a99 343c 404c 043d
00000110: a287 533c af9f ab3c f999 5f3c e47a f73a
00000120: 23b8 cb3c b9c9 8f3c ac66 8dbb 9cbe 3a3c
00000130: 06be 72bb 9f97 273c e88a 4ebc c660 9bbc
00000140: 82b0 6738 6db1 c93c d057 9ebc 8e84 b8bc
00000150: 3631 d2bc 6186 933c 033d ff3b 7e4e 82bb
00000160: 13f5 893c 23a7 6cbc 6365 8cbc e462 a7ba
00000170: 3118 7abb b5fb 3cbc 9d1d a7bc 01b8 943c
00000180: 6201 7e3c 7d0e de3c b866 7dbc 47e6 1b3c
00000190: ca91 90bb a893 c4bc d6ac 7e3c 1965 4d3c
000001a0: 7409 9f3c 6ae9 0a3c 3728 4c3c f2cf d0ba
000001b0: 2a67 803c 627a e83a 756b 343c c250 87bc
000001c0: 8844 a93c 3f4d d33c 8db9 90bc 8c40 ebbb
000001d0: ab64 b43c 63e8 523c afca 083c 628d 0abc
000001e0: 5a53 c13b ee52 89bc 29c5 0a3c 5574 1b3b
000001f0: eab1 8b3b 48e1 703c ea22 98bc d44a 993c
0.018513408 0.00010839322 0.020925973 0.0044594724 0.0037637318 0.016908946 0.016713342 0.015483204
-0.0011071552 0.0016584978 0.019921403 0.0073710494 0.01368399 0.013603638 0.01722502 0.01071076
0.016297948 0.0062156287 0.00486697 0.015771026 0.0027415482 0.019758673 0.018197412 0.016945714
0.0048717 0.0036715642 0.023013808 0.01554061 -0.007338949 0.013028577 -0.00948618 -0.0053950674
0.029564789 0.008677193 0.006546845 0.0034470456 0.020285388 -0.013996287 0.015027821 0.010258605
0.010084302 0.0064548585 0.0023611584 0.011827216 0.008763636 0.0151588535 -0.014309161 0.02667935
0.016342623 -0.005055819 0.022935972 0.02396747 -0.012345554 0.02480598 0.0018517742 0.012357349
-0.01563404 0.018343905 0.013118581 0.005240884 -0.014370075 0.0030937593 0.015750201 0.02197057
0.007963496 0.003019268 0.0110228155 0.03229928 0.012910755 0.020950167 0.01364755 0.0018881229
0.024868077 0.017552244 -0.004315218 0.011397984 -0.0037039532 0.01022902 -0.01260636 -0.018967044
5.5239077e-05 0.024620736 -0.019328982 -0.022524145 -0.025658231 0.018008413 0.0077892556 -0.003976642
0.016840493 -0.014444145 -0.017138189 -0.001277056 -0.0038161392 -0.011534621 -0.020399863 0.018154146
0.015503259 0.027106518 -0.015466385 0.009515352 -0.0044119107 -0.02399619 0.015544137 0.012536311
0.019413687 0.008478502 0.01246076 -0.0015931113 0.015674192 0.0017736668 0.011011948 -0.016518
0.020662561 0.02579367 -0.017666603 -0.0071793254 0.022020658 0.012872788 0.008349105 -0.00845656
0.005899829 -0.016763177 0.008469858 0.0023720462 0.0042631524 0.014702149 -0.018571336 0.018712439

network_body._body_endoder.seq_layers.2.weight f4 [128, 128]
00000000: 1c0b 063e 2594 8b3c 1850 263e 16ae 69bb
00000010: 6590 24be 344f 8dbd f67d 34be ed14 463d
00000020: 7a9f 20bd 0eee 153e 8b9a cfbd 23d5 1cbd
00000030: ba4a 903e 1697 9a3c c50b 66bd 614f c03d
00000040: 0f31 b9bd f8ab 823b 3ea6 c13d 04f1 abbd
00000050: 412d 02be dd8e 55bc dd10 7bbd dfb9 6a3e
00000060: 8932 44bc 174b edbc b2d8 95bd b0f8 0b3d
00000070: d5f8 373e 0324 abbd 79e8 6b3d 0b94 8cbd
00000080: 2696 873e b204 e43d 7078 d33d 5fac c93d
00000090: 6142 6a3d 4b94 58bd 4d36 6fbd af58 ad3d
000000a0: bb0e 0f3b 53e3 233d a1c7 323d b777 b23d
000000b0: 1819 f53d a6a2 0fbe 898a 31bc 9a36 81bc
000000c0: cc9c 163e fd68 28bc a09f a5bd d3e0 093e
000000d0: b998 66be 6192 a03c a0c2 45bd 6e7d 03bd
000000e0: 5a8a c13d 0d84 eabd 1251 063e 8386 e9bc
000000f0: 67ad 133d 3ab8 abbd c40b 19be be8e 2abc
00000100: 2bbc 1e3e c9f7 003e be06 1f3d b299 bbbc
00000110: cb68 a1bc 30d3 9ebd cde0 cbbc c0aa cebc
00000120: 0844 79bc 4d49 013e 293d 9cbd a371 ad3d
00000130: f820 7fbd 6f6e 9b3d bd48 d2bd 01a1 01be
00000140: 59e2 ccbd 7e4b fcbd 2006 31bd ce4e b1ba
00000150: 5704 d83c 1ea8 37ba 6058 05be 6627 3d3d
00000160: 21c0 a33c 58c9 543b 915a 573d b705 84bc
00000170: 7dc9 d1bd ac5b e73c 7180 c0bd ea49 263e
00000180: 8130 8a3c 9d24 a13c 2cf1 f23d d7b0 943d
00000190: 316d 88bd e155 febd 99fc 493e a2e9 a4bd
000001a0: 729c 393d 2ae8 ccbd fb5e dd3d 6742 353d
000001b0: 8a84 7e3e 6a1c 093e 4c3d 433d 8740 29be
000001c0: 3f3e 2c3d e89e 37be 95c6 05bd 6147 88bb
000001d0: cef9 113b 8131 83be 6802 2dbd 5b16 3ebd
000001e0: c641 4f3c 89e4 2d3d 5aa6 293d f80c d0bd
000001f0: a4a7 b7bc 6849 31bd c082 a8bd 6afe c83d
00000200: f08d 93bd a9c1 d83c c0c5 613c bba2 e0bd
00000210: b455 3cbc 5341 87bd 97a4 6cbd 1482 72bc
00000220: 8802 ce3d 6b96 4f3d ebda 9bbd b8d8 1f3e
00000230: 264f f73d 2938 5dbc c5f2 87bd 3574 78bd
00000240: 2ffd 113c c135 903d 4d14 6a3d c7d1 c53c
00000250: 5b6a b9bd 12a3 913d 98d5 53bc f71c 723c
00000260: 2b3b ffbd 1851 ca3b 3d8d d63c 76b8 0abc
00000270: d37e 053d 9f61 53be c48b 36bd 347a 0f3d
00000280: 76c6 b6bd bb41 99bc c026 b33d 65cd ec3d
00000290: da3f 56bd 964b 1bbe a887 e93c 8a8a 0b3e
000002a0: 3b52 04bd d470 163e 5f0a 90bc 3624 30bc
000002b0: c313 13bd 30dd 94bc 5e5b c93d d2ee e33c
000002c0: 38aa 6bbd 57a1 54bd 7fe2 ec3d ea24 413d
000002d0: acfd 743d 79a1 b5bc 0442 ae3d 2869 e73c
000002e0: 942a 44bd 1478 4c3d 2f28 253d ad89 d9bc
000002f0: 4d2b 723d 7acb d5bc 14aa b2bc 9134 a93c
00000300: bdc3 543d 3102 a23c 4275 283d fe57 22bd
00000310: def2 eabd d333 043e 1cf7 ebbd fcd9 53bd
00000320: 391d b9bc d19f 39be 583a 303e 5056 283e
00000330: d16b 19bd dc2c 30bd f8b0 6d3d c2ed 1f3d
00000340: f1ee 1cbb 982c d8bc 8d5e 87bd 1767 f5bb
00000350: 2151 f13d c7f7 2cbd c6b3 5dbc cfd6 d23c
00000360: 9845 d7bd 396b 85bd d06e d23c 84dc 48bc
00000370: 36cc 1c3e 3b21 d4bd c76c e63d 19e5 dc3c
00000380: afe6 1bbd 0345 0a3e 1ca4 23bd a476 373c
00000390: 027b d0bd b355 bc3d 5ffe 3e3d e814 4f3d
000003a0: bc28 88bd cc65 f7bd f702 edbd f1e1 553e
000003b0: 9eab 173e ad15 93bb 2ae6 8f3d 44df e53c
000003c0: 284a b73d 8e24 55bd 1ee8 5f3d 032d 17bd
000003d0: f4b5 613c a9c9 9c3d f8cd cc3d f716 8e3d
000003e0: 05b2 8cbd 4f20 0c3c f7ef 53bc aab9 24bd
000003f0: be34 85bd 4338 84bd 4915 433e 3ef7 b7bb
0.13090175 0.017038414 0.16241491 -0.0035656742 -0.16070707 -0.068998724 -0.17626175 0.0483598
-0.03921459 0.14641592 -0.101368986 -0.0382892 0.28182012 0.018870872 -0.056163568 0.0939014
-0.0904256 0.0039877854 0.09455536 -0.083955795 -0.12712575 -0.01303455 -0.06129538 0.22922467
-0.011974939 -0.02896647 -0.07316722 0.034172714 0.17966016 -0.08356478 0.05759475 -0.068641745
0.26481742 0.11133708 0.10325706 0.0984733 0.05719221 -0.0528758 -0.058401395 0.08464181
0.0021828848 0.040011715 0.043647412 0.0871424 0.11967677 -0.14026889 -0.010836252 -0.015773106
0.14708251 -0.010278937 -0.08087087 0.1346467 -0.22519197 0.019601049 -0.048281312 -0.03210204
0.094502166 -0.11450968 0.13116863 -0.028506523 0.03605404 -0.08384748 -0.14945894 -0.010410009
0.15501468 0.12594523 0.03882479 -0.022900436 -0.01970329 -0.077551246 -0.024887467 -0.025227904
-0.015213974 0.12625618 -0.07628853 0.0846894 -0.0622873 0.07589423 -0.1026778 -0.12659074
-0.1000411 -0.123190865 -0.043218732 -0.0013527514 0.026369257 -0.00070059474 -0.13021994 0.04618015
0.019989075 0.0032468643 0.052576605 -0.016116006 -0.10243509 0.028241955 -0.09399498 0.16239133
0.016868832 0.019670779 0.11862406 0.07260292 -0.066614516 -0.12418724 0.19725265 -0.080523744
0.045315214 -0.10005219 0.10809132 0.04425278 0.24855247 0.13389745 0.04766588 -0.16528521
0.04205155 -0.17931712 -0.032660086 -0.0041588997 0.002227414 -0.25623706 -0.042238623 -0.04640804
0.012649959 0.042454276 0.04141841 -0.101587236 -0.022418804 -0.043282896 -0.082280636 0.09814151
-0.07204807 0.026459532 0.013780057 -0.109685384 -0.011495043 -0.066042565 -0.057774153 -0.014801521
0.100590765 0.05068056 -0.07610115 0.15610015 0.12075643 -0.013502159 -0.066381015 -0.0606577
0.008910461 0.07041503 0.057148267 0.024147881 -0.09053489 0.07111181 -0.012929343 0.014777414
-0.12462457 0.006174218 0.026190395 -0.0084668305 0.032591652 -0.20642708 -0.044566885 0.03502865
-0.08924572 -0.0187081 0.08747625 0.115626134 -0.052306987 -0.15165552 0.028507069 0.13627067
-0.032304984 0.14691478 -0.01758307 -0.010750821 -0.035907518 -0.018171877 0.0983188 0.02782384
-0.05753538 -0.05191168 0.11566638 0.047154345 0.059812233 -0.022171723 0.08508685 0.028248385
-0.04789217 0.049919203 0.040321525 -0.026554907 0.059123326 -0.026098002 -0.021809615 0.020654948
0.051944483 0.019776436 0.04112745 -0.039634697 -0.114721045 0.12910394 -0.11521742 -0.051721558
-0.022596942 -0.18127371 0.17209756 0.16439176 -0.037456337 -0.04301153 0.0580301 0.039045103
-0.002394613 -0.026388451 -0.06609831 -0.007489096 0.11783052 -0.042228486 -0.013531631 0.025737194
-0.10511321 -0.06514592 0.025687605 -0.012259606 0.15312275 -0.10357901 0.112512164 0.026964711
-0.038061794 0.13502888 -0.03995143 0.01119772 -0.10179712 0.09196033 0.046629306 0.050557047
-0.066483945 -0.12079963 -0.11572831 0.20886971 0.1481156 -0.004488668 0.07026322 0.028060563
0.08949691 -0.052036814 0.054664724 -0.03690816 0.013776291 0.07655651 0.10000223 0.06937974
-0.06869892 0.008552625 -0.01293563 -0.040216126 -0.065042004 -0.064560436 0.19051088 -0.0056141904

network_body._body_endoder.seq_layers.2.bias f4 [128]
00000000: 07a8 903c 8597 1fbc 9bf9 a5bb 4958 be3c
00000010: 5f1b 1ebc 10b2 823b c7d3 393c 6021 933c
00000020: d676 ab3a 3bde 4e3c f17c 9e3b 12c6 0bbb
00000030: 0373 773c c7f9 7d3b 7f8b 1e3c ea3c 2bbb
00000040: 9adc 563c 1451 59bb 1fb9 6c3c 97fa 4d3b
00000050: 4ba9 463c 2302 31bc 10dd 563c 2498 4e3c
00000060: db0d 483c d066 613c 1b0f d33a 9abe ac38
00000070: 6a7e 333c 05ec 613c c250 12bb 800a 793c
00000080: e4ca 9f3b c1c7 52bc 78e3 4f3c 9883 0bbc
00000090: 5501 2e3b 7d9b 5cbc ffcc 6dbb c547 a83b
000000a0: 9c26 61bb cf01 763c 6a88 263b 614d 4e3c
000000b0: 415d 463c 16d2 5a3c c82d 25bc 0966 9dba
000000c0: 49b4 113b 91e0 fdbb 1585 d93b f5bb 5a3c
000000d0: cdaf 763b e7cd 2a3c 3797 693c 31b5 413c
000000e0: 344c 593c 88be fcbb b1db 7dbb dab1 bf3a
000000f0: 5161 5c3c 4981 10bc aacd b33b a7b1 083c
00000100: 6857 bdbb 1281 b33a cf42 f23b 2f96 08bc
00000110: 7957 6b3c 9c71 9a3a f4b0 503c 42c4 97bb
00000120: 224d 9dbb 5e26 163c 708d 8fbb 623f 6e3c
00000130: 25da 563c b079 5c3c 4a86 423c 8306 dbba
00000140: 11e5 9e3c c15f 5dbb a611 943c 0596 883a
00000150: cf06 9e3b 45c1 00bc 1203 9e3c 135b 273c
00000160: 7fd8 643c d6d8 80bc 207b b43c 7c04 a53c
00000170: b69d 713c b1d0 843b 34fc f3bb 4174 203c
00000180: 909b 23bc ae2f 4a3c fb6f ac3b 92b0 753c
00000190: 3710 3b3c 1daa 673c f971 cb3b f358 c63b
000001a0: 1ac6 2ebc fa7f a13b b742 ccbb 68f8 4cbc
000001b0: 53b4 493c 4e54 dabb 3e2f e6bb 42a9 62bb
000001c0: ff43 7d3b de76 7f3c 3908 4a3c 8d10 d7ba
000001d0: f13e 583c 436c 6a3c 8145 123c d861 033c
000001e0: 8178 043c 14d4 363b 1874 8abb 7f47 35bc
000001f0: 9fb4 513c 581d 5c3c b85e 5e3c d973 f3ba
0.017658247 -0.009740715 -0.0050651557 0.023235457 -0.00965008 0.003988512 0.011341996 0.01796025
0.001308168 0.012626226 0.0048366715 -0.0021327776 0.0151031045 0.0038753615 0.009676813 -0.0026128837
0.013114119 -0.0033159899 0.014448433 0.003142988 0.0121253235 -0.010803732 0.013114229 0.012609515
0.012210335 0.013757423 0.0016102524 8.2371014e-05 0.010955432 0.013789182 -0.0022325967 0.015200257
0.0048764814 -0.012865008 0.01268851 -0.008515261 0.0026551087 -0.013464806 -0.0036285517 0.0051355087
-0.0034355288 0.01501508 0.00254109 0.012591691 0.012107194 0.013355752 -0.010081716 -0.0012008558
0.0022232702 -0.0077477177 0.006638179 0.0133504765 0.0037641407 0.0104250675 0.014257244 0.011822985
0.013262797 -0.007713143 -0.0038735683 0.0014625147 0.013450936 -0.0088198865 0.0054871636 0.008343137
-0.005778242 0.0013695082 0.007393218 -0.008336588 0.014364117 0.0011783126 0.012737501 -0.00463155
-0.0048004547 0.009164421 -0.0043808743 0.014541479 0.013113533 0.013456747 0.011872837 -0.0016710315
0.019396337 -0.0033778998 0.018074822 0.0010420686 0.004822589 -0.007858579 0.019288573 0.010214585
0.013967632 -0.015728395 0.022031367 0.02014374 0.014747074 0.0040531983 -0.0074458364 0.009793342
-0.009985819 0.012340469 0.0052623725 0.014995711 0.01141744 0.014139679 0.006208655 0.006053084
-0.010667348 0.004928586 -0.006233539 -0.012510397 0.012311059 -0.006662882 -0.0070246747 -0.0034585749
0.0038645265 0.015592305 0.012331062 -0.0016408131 0.0131986 0.014308038 0.008927704 0.008018933
0.008085371 0.0027897405 -0.0042252652 -0.011064409 0.012799411 0.0134347305 0.013572387 -0.0018573954

action_model._discrete_distribution.branches.0.weight f4 [2, 128]
00000000: 7618 03bd 1227 e0bc 3bf9 4bba 3204 673d
00000010: 06b4 fdbc b284 d7bc fa71 453c dae9 323d
00000020: a034 36bd 4ff1 cfbc 0ff2 c93c 961f c7bc
00000030: 532d de3c a7f0 95bc 18b0 093c 028e bb3c
00000040: 151f f93c d99f dbbc a790 cf3c b886 ddbb
00000050: 608f 933c 108a 23bc a6a2 943c d586 703c
00000060: 4b6f f43c a864 a83c 4ae9 9fbc 11aa 2dbb
00000070: adb6 eabc 3f26 cd3c 5b47 1c3c 436f 3e3d
00000080: 01a2 dd3a 9f8f 7cbc 25e9 24bc cb15 8bbb
00000090: c5a0 edbc a4d1 8cbc 2f92 a13c e580 1ebd
000000a0: aa00 e7bb e41b d33c f509 adbc 5291 883c
000000b0: 3cb0 da3b 1017 f23c 6aaa 94bc 65d1 40bc
000000c0: 2523 4d3c a651 aabc 377f 963c 6a87 c53c
000000d0: cfe0 c4bc 8b93 ad3c 89f7 f83c 5dce be3c
000000e0: 0f04 0e3d d9c3 443b a7a0 b0bc 54d5 dabc
000000f0: a473 e23c e4b2 1b3b 4ad7 9abc 5686 fbbc
00000100: ec58 5cbc bf1b e6bc 7908 d6ba a49f 8ebc
00000110: 3ad5 2e3d b6fe 893c d2a9 243d 0fcd 9cbc
00000120: ab5a 77bc 3038 a6bc cfd9 15bd 63e9 e33c
00000130: 1209 d03c 1de9 a63c 7e21 4f3c 6028 20bd
00000140: 5e73 623c 1661 363c db24 093d c6c1 76bc
00000150: da43 74bc b5e8 c4bc 5c0f e0bc 2e83 98bc
00000160: b734 dc3c fd4a b0bc 5c1f efbc 3f7f 5b3d
00000170: 9b15 0c3d 0e29 f3bc 6d23 08bc acb4 bf3c
00000180: 0f4e c5bc 3857 e63c 7b4e 2f3d 99f7 16bd
00000190: abfc a63c d88e 9f3c f793 833a 679c 3bbc
000001a0: 699d 17bc 6952 11bd 3054 32bd 1b0d 9fbc
000001b0: cfbc e83a fda1 f7bc ff83 c0bc 3730 04bd
000001c0: 67eb 413c 947b af3c 9017 983c e4f4 e4bc
000001d0: 7e0d e73c 9dca 143c a250 db3c 3525 853c
000001e0: 9344 e63b c463 983c 78fd 3ebc 0e1b 7abc
000001f0: 6d7b fd3c 5318 043d 3b5f c93c 46f3 16bd
00000200: bf52 283d 6096 323a 6a14 3dbb 2a77 4dbd
00000210: 9a03 703c 93dd 0d3c 2855 89bc d88b 0cbd
00000220: dbcb e83c 2df8 1f3d 16b9 07bd f82e 853c
00000230: 9bb8 edbc fa30 a53c 0450 5ebc 0bd2 68bc
00000240: 87b9 babc a08c f33c e03d e6bc a64b 82bb
00000250: 5cca cebc b996 103c a012 bbbc 8c82 f4bc
00000260: ae8c 8fbc 91cf e2bc 8458 f23c 0011 703c
00000270: e8ac de3c e8cf 0fbd 0f64 aebc 28e0 0cbd
00000280: b5a4 b93a d0d6 883c 4ec0 643c fc16 683c
00000290: 092f da3c 38ec bd3b 485c 3ebc bc31 093d
000002a0: 8400 8f3c ceef 1dbd e239 043d 43fe ffbc
000002b0: 0d4d 04bd 1512 babc 8928 d83c 153c 843c
000002c0: c98c c33b 9d83 843c 2164 46bc 84db 70bc
000002d0: d756 843c 8387 5bbc bd11 02bd 3a86 9bbc
000002e0: c0d4 40bc b066 173c 6f30 d73c b8c7 083d
000002f0: 8086 a5bc 96ee 313c 394b cfbb 1d80 7a3c
00000300: d431 7d3c fe46 da3c ddcb d93b 01e3 c43c
00000310: a34d 00bd 5435 05bc 61fc 76bc 816c 9d3c
00000320: 544e c83c b3db d63c 425f 943c 483e 9cbc
00000330: 9d3e d2bc 1206 e3bc 1475 9cbc 81df 173d
00000340: 1acd 1abd 410a d43a 4133 fdbc a6d1 903c
00000350: f730 e73c 7ec2 a83c ddcc 103d 5e7c e73b
00000360: a0bd 92bc eb0b 953c d9a2 f33c 86a3 0dbd
00000370: 8c76 34bd e9c0 583c 8fc2 fc3c f8b7 e2bc
00000380: 97d8 b13b 58eb b9bc 7daf dfbc e1a0 943c
00000390: 5e91 30bc 9e01 18bd 6f72 9bbb 0611 6a3c
000003a0: d449 be3c f303 0b3d aecd a73c e82e 6b3c
000003b0: a72a 0fbd 7f2c d53c f9a4 5e3c 656d d23c
000003c0: b558 003b 5fc3 59bd 3c80 adbc be67 353d
000003d0: 0527 8fbc 7b44 e7bc 395f fdbc 9c9c 3ebc
000003e0: 3443 663b 9962 f4bc 43e6 da3c 1a4d 913c
000003f0: 2834 7dbc 138c 90bc 25a7 c1bc f38d 123d
-0.03200575 -0.02736238 -0.00077809737 0.056400485 -0.03096963 -0.026308391 0.0120511 0.04368005
-0.04448378 -0.02538362 0.024651555 -0.024307054 0.027121222 -0.018303229 0.0084038 0.022894863
0.030410329 -0.02680962 0.02533753 -0.0067604445 0.018012702 -0.009981647 0.018143963 0.014680584
0.029838225 0.02055581 -0.01952042 -0.0026499073 -0.02865156 0.025042651 0.009538497 0.046492826
0.0016909243 -0.015415101 -0.010065352 -0.0042445413 -0.029007325 -0.017189808 0.019723026 -0.038697142
-0.0070496397 0.025770135 -0.021122912 0.016670857 0.006673841 0.029552013 -0.018147666 -0.011768674
0.012520586 -0.020790886 0.018371208 0.024112422 -0.024032978 0.021188518 0.030391471 0.023291761
0.03467184 0.003002396 -0.02156098 -0.02671305 0.027643032 0.002375775 -0.018901486 -0.030703705
-0.013448935 -0.028089402 -0.0016329429 -0.017410107 0.042683817 0.016845088 0.040201016 -0.019140748
-0.0150973005 -0.020290464 -0.03658467 0.027821248 0.02539495 0.020374829 0.0126422625 -0.039101005
0.013821451 0.0111315455 0.033482414 -0.015060848 -0.014908755 -0.024036745 -0.027351074 -0.018617239
0.026880605 -0.021520132 -0.029189758 0.05358815 0.034200292 -0.029682662 -0.008309227 0.02340158
-0.024085073 0.028117761 0.042799454 -0.03685722 0.020384153 0.019477293 0.0010038604 -0.011450863
-0.009253838 -0.035478983 -0.04353732 -0.019415429 0.0017756465 -0.03022861 -0.02350044 -0.032272544
0.011835909 0.021421231 0.018565923 -0.027948804 0.028204676 0.00908151 0.026771847 0.016253093
0.0070272177 0.01860226 -0.011657111 -0.015265239 0.030942643 0.03224976 0.024581542 -0.036853097
0.041094538 0.0006812569 -0.002885128 -0.05016247 0.014649296 0.008658784 -0.016764238 -0.034313053
0.028417518 0.03905504 -0.033135496 0.016257748 -0.02901869 0.020164955 -0.013568882 -0.014210234
-0.022793544 0.029730141 -0.028105676 -0.003976303 -0.025242977 0.008824998 -0.02283603 -0.029847406
-0.017523136 -0.027686866 0.029583223 0.014652491 0.027182057 -0.035110384 -0.021287946 -0.03439346
0.0014163466 0.016703993 0.013961865 0.014165636 0.026633756 0.0057959817 -0.011618681 0.033494696
0.0174563 -0.038558774 0.032281764 -0.031249171 -0.032300044 -0.0227137 0.026386516 0.01614193
0.0059677106 0.01617604 -0.0121088335 -0.014700774 0.01615469 -0.013399008 -0.031755198 -0.018984903
-0.011769474 0.009240791 0.026268212 0.03339359 -0.020205736 0.010860106 -0.006326106 0.015289334
0.0154537745 0.02664518 0.006646617 0.024034025 -0.03132404 -0.00813039 -0.01507482 0.019216778
0.024451412 0.026227808 0.018111829 -0.019072667 -0.025664622 -0.027712855 -0.019098796 0.037078384
-0.037793256 0.0016177372 -0.030908229 0.017678093 0.02822159 0.020600554 0.035351623 0.0070643863
-0.017912686 0.01819416 0.029740738 -0.034579776 -0.044058368 0.013229587 0.030854492 -0.027675614
0.005427431 -0.022695228 -0.027305359 0.01814312 -0.010776846 -0.037110917 -0.004743866 0.014286285
0.023228563 0.033939313 0.020483818 0.014354445 -0.034952786 0.026022194 0.013589137 0.025686929
0.0019584124 -0.053164836 -0.021179311 0.04428839 -0.01747466 -0.028230896 -0.030929195 -0.011634018
0.003513527 -0.029832171 0.026721125 0.01773696 -0.01545433 -0.017644918 -0.023639271 0.035779905

action_model._discrete_distribution.branches.0.bias f4 [2]
00000000: fe16 3e3c f716 3ebc
0.011602161 -0.011602155

exp_avg f4 [128, 78]
00000000: 7a88 1c37 9912 96b8 6db4 85b8 c5b2 2937
00000010: e3b7 97b8 2255 85b8 5ee4 8e36 cf6f 8bb8
00000020: 92e9 69b8 a0d4 f237 b136 bfb8 2156 84b8
00000030: 3e99 8136 209b 8ab8 973b 69b8 6ef9 1338
00000040: 3f7e ccb8 5a43 6bb8 7b83 bc36 c149 8eb8
00000050: 88ae 6cb8 5f91 d538 7309 2cb9 b5b6 85b8
00000060: b466 8736 f6f7 8ab8 dbc3 69b8 24d2 e738
00000070: d629 35b9 5e38 7ab8 5106 0c37 5702 94b8
00000080: 8e1f 6eb8 56fc aa38 f0be 16b9 b98f 46b8
00000090: db5a 0338 f72e c4b8 29f4 8cb8 7c51 8938
000000a0: 84e9 05b9 c482 0eb9 29ab 4f38 1f57 eab8
000000b0: 579b 02b9 fc0f 5938 8809 efb8 4778 09b9
000000c0: faec 3e38 05f8 e1b8 d177 fcb8 88fa 0338
000000d0: cc7e c4b8 9c50 03b9 4663 5538 2f33 edb8
000000e0: 50d1 00b9 8165 7037 378e a0b8 33eb fab8
000000f0: 9dd2 5438 d6ea ecb8 4cf4 00b9 5b1b 1837
00000100: f484 95b8 f128 e1b8 1cd9 5438 17ee ecb8
00000110: 40fa 03b9 bea0 6b37 9ef5 9fb8 8396 eeb8
00000120: b947 6938 6425 f7b8 37b9 06b9 2d3a c537
00000130: 14d0 b3b8 0a01 e9b8 a453 9a38 b75f 1339
00000140: d30b 5b39 b0db 8938 b09b 1b39 feae 6039
00000150: 767e a438 4d4a 0e39 a7e5 5239 0bc5 1538
00000160: 4618 3b39 ef78 6739 b748 a738 2ce5 0c39
00000170: c86c 4e39 c752 8637 2fbf 4f39 86ec 6739
00000180: e2ee a738 1792 0c39 74ec 4a39 906d 38b8
00000190: 7752 8739 62cb 6639 0850 a338 85e1 0e39
000001a0: 972b 4839 1c17 70b8 a747 8e39 a80b 6339
000001b0: 6a1c 8b38 53fb 1a39 0af8 4639 d1ae 45b8
000001c0: 9dfa 8839 d811 5c39 13ef 6738 c38d 2639
000001d0: 2a82 4a39 73ee 4138 ea0d 3039 9068 3839
000001e0: c324 4d38 5840 2d39 2700 3639 7988 5d38
000001f0: 6a27 2939 6a9b 3539 2679 5738 3dab 2a39
00000200: 1faa 3339 089b 8238 033c 1f39 0cba 3239
00000210: d5e9 4438 134f 2f39 5f6e 3639 5b53 9438
00000220: da5f 1639 cfee 2e39 cb82 5238 d6e8 2b39
00000230: e8cb 3239 f1f9 9638 900c 1539 03ac 2939
00000240: 56ad 3f38 329e 3039 dabf 3739 8481 8b38
00000250: c7c8 1a39 195f 2d39 4429 3338 37bf 3339
00000260: c7d1 3939 47db 9238 e41b 1739 7cf8 2a39
00000270: ea21 8a39 eaf5 1b3a 3cae 5c3a 10c5 6d39
00000280: 9b95 253a 71ea 613a 18fa 8f39 d409 193a
00000290: 486c 523a ed15 ac38 2184 4b3a 5a5b 683a
000002a0: e6e0 9439 6c96 163a b90d 4e3a 9873 ee36
000002b0: f629 5f3a 0f45 683a ceb6 9439 79ab 163a
000002c0: 16ab 4a3a c7a3 79b9 eab7 8f3a 4294 6b3a
000002d0: 7b72 8b39 a14d 1b3a 0c66 483a 0702 9ab9
000002e0: f103 973a 9947 673a 8578 5239 bd68 2c3a
000002f0: a10e 483a 364b 8ab9 3d16 933a b97c 5f3a
00000300: 20a8 2339 d81c 383a 9385 4b3a 38fe cf38
00000310: 1607 473a d890 4c3a a684 0a39 b465 3e3a
00000320: f6cd 463a 9598 0039 b8e0 403a 4c55 4a3a
00000330: b880 1b39 b226 3a3a 4a5d 433a 226b 3039
00000340: 17ec 343a 20d5 453a b230 1039 b3fa 3c3a
00000350: 07f9 443a 8f7d 5b39 7c27 2a3a 2968 403a
00000360: 7c82 1b39 3f26 3a3a d2b3 413a 49c3 6139
00000370: 0d96 283a 822a 3a3a c496 0d39 2da1 3d3a
00000380: 311e 463a 3992 5839 52e2 2a3a 6f60 3b3a
00000390: acd8 ff38 c90b 413a 813f 483a fc6b 6d39
000003a0: e1ab 253a 8464 383a 7e9b d2b7 4e8f 16b9
000003b0: 6fd8 27b9 f3c0 c4b7 9f4a 18b9 8ac8 28b9
000003c0: a2cf d2b7 ca88 16b9 6b67 21b9 29e7 a2b6
000003d0: 85cb 2bb9 619d 29b9 7ab9 e1b7 8fab 14b9
000003e0: e977 20b9 a257 99b6 0118 2cb9 3369 27b9
000003f0: 155d d9b7 1cb7 15b9 df1f 20b9 8456 ea37
9.3301005e-06 -7.1560215e-05 -6.375541e-05 1.0114808e-05 -7.234493e-05 -6.3577914e-05 4.258515e-06 -6.6488625e-05
-5.576906e-05 2.894766e-05 -9.117777e-05 -6.310293e-05 3.8623393e-06 -6.609247e-05 -5.5607026e-05 3.527983e-05
-9.750993e-05 -5.6091092e-05 5.618143e-06 -6.7848254e-05 -5.642933e-05 0.00010183709 -0.00016406718 -6.375966e-05
4.0352697e-06 -6.626539e-05 -5.5733934e-05 0.0001105408 -0.0001727709 -5.965714e-05 8.346121e-06 -7.057626e-05
-5.677301e-05 8.153233e-05 -0.00014376245 -4.734073e-05 3.131745e-05 -9.354756e-05 -6.7211986e-05 6.547847e-05
-0.0001277086 -0.0001359089 4.951205e-05 -0.00011174217 -0.00012455635 5.175172e-05 -0.000113981834 -0.00013110145
4.552023e-05 -0.00010775033 -0.00012038614 3.146616e-05 -9.369626e-05 -0.00012523163 5.0875613e-05 -0.00011310574
-0.00012285006 1.4328748e-05 -7.655884e-05 -0.00011964738 5.0740888e-05 -0.000112970985 -0.00012298039 9.066275e-06
-7.129638e-05 -0.00010736462 5.0746938e-05 -0.000112977046 -0.00012586359 1.4044517e-05 -7.6274606e-05 -0.00011376759
5.5618326e-05 -0.00011784842 -0.00012848234 2.351132e-05 -8.574143e-05 -0.00011110499 7.3588715e-05 0.00014054669
0.00020889872 6.573589e-05 0.0001483995 0.00021427494 7.8436846e-05 0.00013569854 0.00020112713 3.570788e-05
0.00017842752 0.00022074928 7.976725e-05 0.00013436814 0.00019686215 1.6012591e-05 0.0001981228 0.00022117989
8.007676e-05 0.00013405863 0.00019352307 -4.3971057e-05 0.00025810648 0.00022010275 7.787353e-05 0.00013626188
0.00019089725 -5.724198e-05 0.00027137736 0.0002165275 6.633329e-05 0.0001478021 0.00018975153 -4.713127e-05
0.00026126663 0.00020987482 5.5297347e-05 0.00015883804 0.00019312711 4.623686e-05 0.00016789851 0.0001758656
4.8910046e-05 0.00016522536 0.0001735693 5.2817606e-05 0.00016131779 0.00017319401 5.1372823e-05 0.00016276255
0.00017134145 6.22776e-05 0.00015185778 0.0001704471 4.6947815e-05 0.00016718758 0.00017397989 7.072716e-05
0.00014340822 0.00016682896 5.0189712e-05 0.00016394569 0.00017051364 7.1991126e-05 0.00014214427 0.00016181175
4.569938e-05 0.000168436 0.0001752371 6.652161e-05 0.0001476138 0.00016533992 4.2715357e-05 0.00017142003
0.00017721123 7.002666e-05 0.00014410872 0.00016305031 0.0002634668 0.0005949425 0.0008418297 0.00022675493
0.00063165434 0.00086180033 0.0002746142 0.00058379513 0.00080269994 8.205683e-05 0.0007763524 0.000886371
0.00028396322 0.00057444605 0.0007860321 7.1064096e-06 0.00085130276 0.0008860388 0.0002836496 0.00057475973
0.0007731182 -0.00023807502 0.0010964845 0.0008986631 0.0002659744 0.00059243484 0.00076446007 -0.0002937468
0.001152156 0.00088226196 0.00020072058 0.00065768865 0.00076315744 -0.00026377448 0.0011221837 0.000852536
0.00015607523 0.0007023341 0.00077637396 9.917881e-05 0.00075923034 0.0007803566 0.00013210121 0.000726308
0.0007583791 0.00012263872 0.00073577045 0.00077183987 0.00014829903 0.0007101103 0.0007452561 0.00016824578
0.0006901635 0.0007546712 0.0001375105 0.0007208988 0.00075139146 0.00020932242 0.0006490869 0.000733974
0.00014830561 0.0007101036 0.0007389161 0.00021530422 0.0006431051 0.0007101671 0.00013502972 0.0007233795
0.00075575995 0.00020653837 0.00065187097 0.00071478536 0.00012199706 0.0007364122 0.00076388574 0.00022642309
0.00063198624 0.0007034021 -2.5106357e-05 -0.000143585 -0.00016006989 -2.345487e-05 -0.00014523648 -0.00016096435
-2.5130637e-05 -0.00014356073 -0.00015392683 -4.854887e-06 -0.00016383648 -0.00016175724 -2.690846e-05 -0.0001417829
-0.00015303459 -4.569957e-06 -0.0001641214 -0.00015965551 -2.591176e-05 -0.00014277961 -0.00015270662 2.793526e-05

exp_avg_sq f4 [128, 78]
00000000: cdd3 0034 5de3 2d32 e8d5 1333 f085 0034
00000010: b1f6 3532 c3d9 1f33 d942 0134 1ea1 2932
00000020: 1419 0a33 edc7 fe33 4ef4 4c32 a02f 2f33
00000030: a170 0134 d64c 2632 137d 0333 b8ca 0034
00000040: 603a 9032 8e8a 4133 f285 0134 2b70 2532
00000050: e87c fe32 5c71 0234 4073 ca32 f79e 5533
00000060: 5374 ff33 9ca3 2732 e40d fd32 4aae fb33
00000070: fc24 1233 797b 6d33 f681 e233 30bf 5732
00000080: 5f70 0633 33bf eb33 c434 4a33 70c4 8133
00000090: e5ad c733 aef8 8732 9036 1133 1e02 f233
000000a0: d1fa 5c32 2447 5b33 7caf f233 5b08 5932
000000b0: 1785 4333 ecf0 f533 f48b 5232 9ebd 7333
000000c0: c4c2 ea33 05a9 6e32 53fc 3933 3682 fd33
000000d0: 5c73 4232 ad60 8633 6197 e933 e6c6 7432
000000e0: fd54 2e33 4846 e033 9a0d 7232 71e9 9b33
000000f0: c310 df33 aa29 8532 177d 2d33 94ca af33
00000100: bb5a a732 16b6 b433 81a0 cc33 ccc3 af32
00000110: 5af7 3c33 9227 7b33 2386 0b33 7600 d233
00000120: a6d4 ce33 ea2d bb32 c452 3633 6a15 3833
00000130: 3df7 7233 2f9b ee33 eea5 1832 4808 3a32
00000140: 8adf 8632 cd3e 1632 a340 3d32 171d 8c32
00000150: ceb4 1c32 c696 3732 3249 8232 6b87 0e32
00000160: 08ed 4532 3134 9232 70b4 1d32 b514 3632
00000170: 7f50 7e32 5015 ed31 afdd 5832 f80d 9932
00000180: ebe4 1d32 9eb5 3632 031e 7a32 a240 c931
00000190: 7440 7532 1e06 9f32 1613 1d32 9ed1 3732
000001a0: b61f 7832 b1df 6d31 55d5 9032 644d a432
000001b0: 3535 1232 abd9 4332 d08b 7832 1eb5 1431
000001c0: d841 a532 1f7e a732 d1ce 0c32 01d0 4932
000001d0: 7e29 7932 905b 0e32 4dd2 4532 31ad 5132
000001e0: d983 0f32 7366 4432 1796 4e32 66b4 1132
000001f0: ecfb 4332 9123 5232 5332 0e32 4914 4a32
00000200: cf6d 5132 b045 1932 db86 3e32 a258 5032
00000210: c5b2 0b32 5036 4b32 bfb0 5132 1533 1732
00000220: 5587 4032 b77c 5532 268c 0a32 735e 4a32
00000230: c6f9 5032 cb5a 1132 c449 4032 aec4 5832
00000240: 6907 0832 2363 5332 9897 5732 284f 0732
00000250: 4855 3f32 e298 5e32 ece2 fe31 27f7 5832
00000260: 241a 5c32 45ab 0632 27c2 3b32 b74a 6132
00000270: 3267 3434 7e8a 8f34 fa95 d134 ab92 2f34
00000280: 0c18 9334 369a d934 ca61 3d34 50b3 8d34
00000290: 370c ca34 7900 2034 11d9 9c34 3498 e234
000002a0: ccdc 3f34 7044 8b34 cb09 c534 74b0 f433
000002b0: 0fb1 b134 481a ec34 c48b 4134 f6a2 8b34
000002c0: 1895 c134 c53a c833 163d c834 3bbc f334
000002d0: f422 4434 534c 8c34 5d7d bf34 4ea9 6d33
000002e0: 7cbc e334 68f5 f934 78e7 3d34 ffd2 9234
000002f0: 8c68 be34 d211 1133 bfe6 fd34 1335 fd34
00000300: c867 3534 0ee9 9534 cc0c be34 4aec 2834
00000310: 0073 9a34 6006 a034 8b0f 2a34 c5fb 9834
00000320: a606 9e34 ccb8 2a34 bdd1 9934 5185 a034
00000330: dea4 2834 9aeb 9a34 44de 9e34 1ea3 3234
00000340: 2965 9634 cd1d 9f34 9693 2634 3378 9b34
00000350: d60a 9f34 8e35 3534 6c49 9734 4f5a a134
00000360: f9b4 2634 dd04 9b34 549b 9e34 746e 3234
00000370: 8f84 9634 ab70 a234 9183 2434 c761 a034
00000380: 7e7d a234 1f98 2b34 07f1 9434 48d1 a434
00000390: 37f1 1634 30d1 a434 d20e a634 46a7 3534
000003a0: 1798 8f34 e70a a534 a6c5 5d33 1bf6 a133
000003b0: 1baf d233 7b73 5833 3e9b a333 5465 d733
000003c0: 1aa1 6033 4ef3 a033 c1b2 ce33 564a 4a33
000003d0: 1120 a933 bfcc dc33 5498 6233 d175 9f33
000003e0: defc cb33 b2f2 4633 cb23 b633 dbbc e233
000003f0: 9b13 6433 7739 9f33 7f5f ca33 63d9 4333
1.1997982e-07 1.0121622e-08 3.442065e-08 1.1969655e-07 1.0591678e-08 3.7218125e-08 1.203838e-07 9.8737285e-09
3.2153437e-08 1.1864163e-07 1.1929911e-08 4.0788677e-08 1.2055035e-07 9.679942e-09 3.061457e-08 1.1994678e-07
1.6790352e-08 4.506233e-08 1.206279e-07 9.629768e-09 2.9626293e-08 1.2148433e-07 2.3568305e-08 4.9737505e-08
1.1895522e-07 9.75788e-09 2.9459393e-08 1.1719801e-07 3.402691e-08 5.529316e-08 1.0547585e-07 1.2558118e-08
3.1301507e-08 1.0977819e-07 4.707978e-08 6.0427624e-08 9.298291e-08 1.5829155e-08 3.3810068e-08 1.1269388e-07
1.28627144e-08 5.1054613e-08 1.13009236e-07 1.2632962e-08 4.552302e-08 1.1452525e-07 1.22554304e-08 5.6750302e-08
1.0931902e-07 1.3891854e-08 4.3303157e-08 1.1804916e-07 1.1318516e-08 6.2574465e-08 1.0877444e-07 1.42478935e-08
4.058983e-08 1.0443597e-07 1.4089347e-08 7.260213e-08 1.0387296e-07 1.5502184e-08 4.039347e-08 8.185921e-08
1.9482618e-08 8.4150244e-08 9.528686e-08 2.046172e-08 4.3997126e-08 5.847648e-08 3.2485456e-08 9.778971e-08
9.631303e-08 2.1790544e-08 4.2450452e-08 4.2860314e-08 5.6569878e-08 1.11109664e-07 8.8852925e-09 1.0828508e-08
1.5701307e-08 8.745428e-09 1.1015945e-08 1.6311374e-08 9.121505e-09 1.0686284e-08 1.5167277e-08 8.296278e-09
1.1520804e-08 1.7020371e-08 9.1796295e-09 1.05985025e-08 1.4803049e-08 6.9000308e-09 1.262326e-08 1.7817896e-08
9.190653e-09 1.0635089e-08 1.4558739e-08 5.857218e-09 1.4275532e-08 1.8512818e-08 9.142942e-09 1.0699663e-08
1.444271e-08 3.4615193e-09 1.6860819e-08 1.9127306e-08 8.510416e-09 1.1399986e-08 1.446729e-08 2.1639788e-09
1.923847e-08 1.9498712e-08 8.196097e-09 1.17470345e-08 1.4503142e-08 8.286307e-09 1.1514726e-08 1.220478e-08
8.353674e-09 1.1431996e-08 1.2024905e-08 8.481129e-09 1.1407774e-08 1.2231696e-08 8.27693e-09 1.176256e-08
1.2190369e-08 8.921617e-09 1.1090118e-08 1.2127346e-08 8.131512e-09 1.1828504e-08 1.22055885e-08 8.8009715e-09
1.1206642e-08 1.2426589e-08 8.064523e-09 1.1779423e-08 1.2163985e-08 8.460755e-09 1.1192643e-08 1.26175745e-08
7.917927e-09 1.23043575e-08 1.25491155e-08 7.876032e-09 1.1137054e-08 1.2956862e-08 7.418171e-09 1.2629051e-08
1.2811629e-08 7.838769e-09 1.0928978e-08 1.3113712e-08 1.6801349e-07 2.6736592e-07 3.9038406e-07 1.6351503e-07
2.739838e-07 4.0531603e-07 1.7637572e-07 2.6393764e-07 3.763432e-07 1.4901333e-07 2.92152e-07 4.2206523e-07
1.7868587e-07 2.5940562e-07 3.6701235e-07 1.1394232e-07 3.3097646e-07 4.3977548e-07 1.8025372e-07 2.6009337e-07
3.605753e-07 9.323916e-08 3.729735e-07 4.5399233e-07 1.8266638e-07 2.6132565e-07 3.5667736e-07 5.5334844e-08
4.2419185e-07 4.655842e-07 1.7686205e-07 2.734814e-07 3.5466326e-07 3.377665e-08 4.7292812e-07 4.716354e-07
1.6894694e-07 2.7922982e-07 3.539957e-07 1.5732181e-07 2.876841e-07 2.980696e-07 1.5838138e-07 2.8495393e-07
2.943463e-07 1.5899712e-07 2.8651075e-07 2.9899323e-07 1.5706198e-07 2.8856158e-07 2.9591513e-07 1.6636884e-07
2.801328e-07 2.963774e-07 1.5513646e-07 2.8958456e-07 2.9623942e-07 1.6876422e-07 2.8179363e-07 3.0054295e-07
1.5525792e-07 2.8874538e-07 2.954281e-07 1.6617724e-07 2.8036126e-07 3.0256828e-07 1.5321554e-07 2.9873465e-07
3.026616e-07 1.5980957e-07 2.774252e-07 3.0699653e-07 1.4057592e-07 3.0699584e-07 3.0930693e-07 1.6917792e-07
2.6746486e-07 3.0741577e-07 5.1635332e-08 7.541913e-08 9.8107385e-08 5.0396448e-08 7.6185174e-08 1.0030149e-07
5.2300585e-08 7.4948375e-08 9.625138e-08 4.7099398e-08 7.8755086e-08 1.02817914e-07 5.2758267e-08 7.425445e-08
9.4989204e-08 4.6321198e-08 8.481546e-08 1.0558298e-07 5.3103218e-08 7.414467e-08 9.4237286e-08 4.5599688e-08

exp_avg f4 [128]
00000000: ada2 82b8 7989 6039 f10a 613a 2dec 30b9
00000010: 5ad5 17ba 4dc1 d438 49ab 10ba 3eaf 6d39
00000020: bb94 0d3a ab0c 103a 30f5 1139 1c52 a9b9
00000030: 9d7e ceb6 4ed6 7739 aab4 3ab9 1242 aa38
00000040: 9908 1aba b38d af38 1a00 b438 98a8 09b8
00000050: ac72 bfb9 5510 b439 067d a839 a485 353a
00000060: cc84 4439 8188 333a b5c8 3b38 36e0 a1b8
00000070: 9938 c239 edd5 2bba 3fcf 6938 37b8 97b7
00000080: c1f7 0f39 7220 a239 d0c9 c039 b77d ea38
00000090: 8a9a 2839 4bd4 4c37 acb2 13ba 2482 503a
000000a0: b9ff 39ba 6507 25b9 9f42 8439 677d bfb9
000000b0: f88b ab3a fd49 0cba be03 01b8 f6ba 1eba
000000c0: ef64 f139 6d88 29b9 e8e9 f439 a9ca 803a
000000d0: a95e a338 c8b5 d839 b106 36b9 11f1 13ba
000000e0: 1664 42b9 6b50 02ba 3b00 9cb9 df3d 9539
000000f0: 94dc 0139 9ff3 c039 5ff5 17ba 650e ef39
00000100: 2aed 2f3a b85e 8639 5d39 21b9 fa0b 9e39
00000110: 71da 2dba 55f0 69ba 7747 77b7 eb00 373a
00000120: 6277 c0b9 5075 8bb9 6fe6 33b8 1ac7 23b9
00000130: e4b7 1a39 9604 b4b9 4c12 2839 06d6 19b9
00000140: 59b5 05ba 1fd8 0eba 552b bbb6 8734 07b8
00000150: 6a77 19b8 9bce 1c38 f6e7 7cb9 e4d5 0039
00000160: 1f94 16ba ba5a 0e39 a885 b437 8ff2 7a38
00000170: d3b5 1739 ec5e 43b8 5611 6c38 9d83 8439
00000180: b6c4 90b9 5b31 9439 6960 6038 3f81 6fb7
00000190: bff7 5ab8 5df0 60b7 fcfa 0bb9 f55f 5cba
000001a0: ba41 6cb9 4b3a 9ab9 10f0 9739 a2ae 5a3a
000001b0: 1cbc 8db9 b008 9439 82c4 3c39 7400 4639
000001c0: 87d4 2a3a c2af 2ab9 b0e1 b1b8 f1d9 f4b6
000001d0: 07b8 343a 4e22 b4b9 01fe adb9 a3a5 0fb7
000001e0: eac8 c239 00e4 50b7 5f97 e638 2424 d538
000001f0: 9f57 a9b9 4eb9 6e39 8c1a e1b7 c4db 8fb9
-6.229184e-05 0.00021413517 0.0008584699 -0.0001687265 -0.0005791985 0.00010144953 -0.00055186875 0.00022667364
0.0005400886 0.0005495052 0.00013919617 -0.00032295368 -6.154018e-06 0.0002363559 -0.00017805645 8.118538e-05
-0.0005875915 8.371044e-05 8.583088e-05 -3.282036e-05 -0.00036515796 0.00034344444 0.00032136607 0.0006924516
0.00018741487 0.0006848649 4.4771197e-05 -7.718841e-05 0.00037044732 -0.000655501 5.5744542e-05 -1.8086384e-05
0.00013729838 0.00030923221 0.00036771456 0.00011181406 0.00016079299 1.2208776e-05 -0.0005634229 0.0007953963
-0.00070952956 -0.00015738381 0.00025226639 -0.0003652379 0.0013087979 -0.0005351601 -3.0759482e-05 -0.0006055081
0.00046042303 -0.00016167919 0.0004671358 0.0009826022 7.7900775e-05 0.00041334168 -0.00017359365 -0.00056435267
-0.00018538567 -0.00049710897 -0.0002975481 0.00028465592 0.0001238457 0.00036802606 -0.0005796756 0.00045596357
0.00067110604 0.00025629043 -0.00015375526 0.00030145032 -0.00066319766 -0.0008924057 -1.47389865e-05 0.0006981033
-0.0003671004 -0.0002659955 -4.2891534e-05 -0.00015619062 0.00014755089 -0.00034335692 0.00016028545 -0.00014670947
-0.000510057 -0.00054490747 -5.578079e-06 -3.2235428e-05 -3.6589256e-05 3.7385715e-05 -0.00024119005 0.00012286712
-0.00057441177 0.00013575974 2.151991e-05 5.9830545e-05 0.00014468217 -4.6580026e-05 5.628293e-05 0.00025275061
-0.0002761238 0.00028265532 5.349555e-05 -1.4275603e-05 -5.220598e-05 -1.3407404e-05 -0.00013349572 -0.00084066327
-0.00022531199 -0.000294166 0.00028979825 0.00083420624 -0.00027033768 0.00028235232 0.00018002282 0.0001888292
0.00065166544 -0.00016277938 -8.482055e-05 -7.2971384e-06 0.0006893877 -0.00034357834 -0.0003318638 -8.5620295e-06
0.00037152256 -1.24508515e-05 0.0001099545 0.00010163363 -0.00032299475 0.0002276648 -2.6834452e-05 -0.00027438824

exp_avg_sq f4 [128]
00000000: 2904 1234 cd81 af32 4780 fd34 7588 1a34
00000010: 0d42 9834 458d 2932 54b3 0b35 78f8 cc33
00000020: f400 2734 faf3 0434 821b 1d32 af34 3834
00000030: 3af0 0d33 aa86 0e33 623f f233 0564 8732
00000040: 15c1 f634 4369 4532 d625 9b32 c453 1034
00000050: 4764 6634 d6d6 8733 80f9 3d33 c05d a034
00000060: b5a3 f032 51ff 9a34 228a 1831 20b9 9b32
00000070: 4b42 d933 4578 0135 23d0 8e31 95db ed2e
00000080: c826 d431 d4ea 9633 f374 b033 7cb2 ba31
00000090: 83c1 5b32 5ced f932 a6f3 3735 b954 ed34
000000a0: cbdc c534 ff4f 4232 cb37 4f33 8e89 ba34
000000b0: f189 8d35 68d1 d934 1674 ba30 0373 b334
000000c0: be00 0c34 2640 cd32 d3d8 9834 2aeb 1835
000000d0: d777 2832 bc70 c333 15f8 f032 0ce9 ea34
000000e0: 4cf7 0833 97ee 6b34 af59 7a34 7bd4 7733
000000f0: d1b6 1a33 23cd cf33 9eec 0435 b7cc af33
00000100: d660 b934 7baf 4433 3df8 9233 8400 8134
00000110: 956f 1635 acf2 6c35 4bca 4c32 1c3e 9134
00000120: 5772 cd34 c2fb 9e34 7b7b f731 6b51 8b33
00000130: 812d c132 af36 2934 0886 2733 e6bf 8132
00000140: bd67 7f34 eaa4 9f34 9a29 f92f f696 9231
00000150: bea0 1531 56f7 5233 dbd7 0634 7083 5932
00000160: aa2a 3b35 6916 b632 5460 c330 bbb6 6f32
00000170: 46b6 d232 ca72 ac32 2784 4132 c39c 6b33
00000180: 9d99 2f34 7f87 6d33 ff96 7a31 370f 5b32
00000190: 8e3e 0e33 a829 4430 50b1 4634 d5c4 8a35
000001a0: 1123 c233 7cf4 1534 aada 2e33 b073 b534
000001b0: bf36 7834 eebc 7f33 817e cb32 7e23 5c33
000001c0: 9143 b234 5cbf 9834 5713 9031 54cd 8a30
000001d0: 082c 7934 691a 1f34 ab9d 9734 8471 3e2f
000001e0: 5e9b e133 4fa4 f52f 8e98 2932 e60d e631
000001f0: 97f3 da33 dfc7 fd32 eeaf 8f30 33ba da33
1.3598823e-07 2.0431708e-08 4.7218256e-07 1.439201e-07 2.8360265e-07 9.869216e-09 5.204249e-07 9.5446865e-08
1.5553434e-07 1.2382216e-07 9.144857e-09 1.7155502e-07 3.3047606e-08 3.3184428e-08 1.12805324e-07 1.5761552e-08
4.5961556e-07 1.1490843e-08 1.806158e-08 1.3441519e-07 2.14569e-07 6.325506e-08 4.423191e-08 2.9870534e-07
2.8014123e-08 2.8870502e-07 2.219743e-09 1.812856e-08 1.01169086e-07 4.823126e-07 4.1564063e-09 1.0816518e-10
6.174421e-09 7.027634e-08 8.2169116e-08 5.433604e-09 1.2791477e-08 2.9095354e-08 6.852737e-07 4.4206334e-07
3.6854757e-07 1.1310475e-08 4.8246687e-08 3.4745284e-07 1.0545465e-06 4.0571763e-07 1.3566275e-09 3.342503e-07
1.3038786e-07 2.3894312e-08 2.8469967e-07 5.696662e-07 9.8061355e-09 9.1009014e-08 2.8052492e-08 4.375546e-07
3.1889883e-08 2.1972879e-07 2.3315691e-07 5.770242e-08 3.602219e-08 9.676503e-08 4.9518155e-07 8.18631e-08
3.4529393e-07 4.5794405e-08 6.843809e-08 2.4028498e-07 5.604173e-07 8.8269985e-07 1.1920359e-08 2.7053545e-07
3.826742e-07 2.961297e-07 7.2026842e-09 6.487502e-08 2.248885e-08 1.5759245e-07 3.9004618e-08 1.5104842e-08
2.3786465e-07 2.973605e-07 4.5322396e-10 4.2663215e-09 2.1773725e-09 4.9119386e-08 1.255825e-07 1.2660948e-08
6.9725013e-07 2.119778e-08 1.4215495e-09 1.3953179e-08 2.4530106e-08 2.0075635e-08 1.12641265e-08 5.4857775e-08
1.6354029e-07 5.5304096e-08 3.646562e-09 1.2750937e-08 3.3118845e-08 7.136358e-10 1.8504693e-07 1.0339087e-06
9.0402075e-08 1.3965649e-07 4.0711406e-08 3.379805e-07 2.3116716e-07 5.9543645e-08 2.3689838e-08 5.125502e-08
3.3204245e-07 2.8451439e-07 4.1931503e-09 1.0099179e-09 2.320595e-07 1.4817637e-07 2.824066e-07 1.7320728e-10
1.050564e-07 4.468199e-10 9.871782e-09 6.695461e-09 1.0195725e-07 2.9543967e-08 1.0454622e-09 1.01852855e-07
