Results/test9/Doughnut/Doughnut-289331.pt (torch, 659719 bytes, 33 tensors)

network_body._body_endoder.seq_layers.0.weight f4 [128, 78]
0.22323103 -0.20521757 2.6200461e-05 0.058441304 0.10920606 -0.07753944 0.17251286 -0.0028311273
-0.22104286 0.1553263 -0.14527959 0.016237697 -0.06311318 0.17271972 -0.09945631 0.015192638
-0.123855665 0.22980216 0.028870136 -0.061839607 -0.18011346 -0.10711308 -0.025816446 0.037315216
0.08462119 -0.06344378 -0.095311195 0.01563237 -0.043555923 0.13047363 0.04020609 -0.09323004
0.1480873 -0.10532736 -0.109094135 0.20737049 0.26971257 -0.037776887 -0.25581726 0.28592527
0.0077739693 0.25697538 0.12834395 -0.23500685 0.14487661 0.02911025 -0.23313631 0.041326668
-0.12890661 -0.17754611 0.0701393 0.23584555 -0.12717772 0.09232855 0.04436761 0.03601171
-0.12703696 0.075856484 0.10264171 0.044462953 -0.07765061 -0.10388944 0.12331986 0.09197204
-0.24528587 0.029247178 -0.018374711 0.19292407 0.0029918845 -0.030119177 -0.0057851365 -0.14500369
0.042357914 0.09202593 0.0783076 0.068330765 0.12982658 0.15293168 0.009555222 -0.2128167
0.056429952 0.043635283 0.069240764 -0.15709853 0.007009736 -0.027858106 -0.067543134 0.105440274
0.2288195 0.14953624 -0.031428073 0.09081448 -0.18174364 -0.08929517 -0.07589727 -0.062402684
0.026866069 0.04529267 0.1219282 0.19455989 0.105551444 -0.074912846 -0.25533688 0.06769991
-0.15028282 -0.15054294 0.0620799 0.03148091 0.02092013 0.110796675 0.046313606 -0.12950784
0.19937919 -4.1428313e-05 -0.021856273 0.050020035 -0.005350589 0.16359122 0.089427955 -0.18398437
-0.059188094 0.15841873 0.28255475 0.05888185 -0.33305922 0.012794547 -0.053694166 -0.15736659
0.0586139 0.15324527 0.086134955 0.021304505 0.11430031 0.05615266 0.18909886 -0.03853552
0.06434955 -0.12920904 -0.03230693 -0.16116212 -0.14015053 0.13585597 0.21633118 0.0880466
0.024433628 0.018984374 0.057939947 0.16392975 -0.1471615 0.007889228 0.074005604 -0.08048452
-0.13158599 0.019961627 0.05229112 -0.07445411 0.2140227 0.17032179 0.19925387 0.01627178
0.024084475 -0.07037372 -0.039384905 -0.13651843 0.17361933 -0.025079748 0.058029793 0.08655615
0.040512234 -0.14175378 0.006764854 0.034485992 0.2549077 0.049053032 0.037703667 -0.04182004
0.034566723 -0.014795402 -0.072924346 -0.14603376 0.036141176 0.17764533 0.36885175 0.05172225
0.05034952 -0.03975408 0.11650776 -0.027043208 0.09857164 0.09190299 0.07061514 0.1961255
0.12166909 -0.110472195 0.24538839 -0.07335223 -0.12845573 -0.15077488 0.053965244 -0.05329835
0.16466781 0.026954785 0.18576914 -0.17447704 0.054273926 -0.040134378 -0.10298052 -0.18748273
-0.117277555 -0.021359628 0.034309786 -0.009353163 -0.051737685 -0.03563315 0.2384096 -0.18948641
0.15155944 -0.071878575 -0.10237116 -0.033187643 0.15885717 -0.1398422 0.1739741 -0.031389013
-0.13709536 -0.017251903 0.041182373 -0.094134614 0.023538293 0.009412752 -0.1458274 0.08114654
0.028382413 0.059719335 -0.05354418 -0.036643784 -0.19136576 0.14241496 -0.06950553 0.042104933
0.20447983 0.016943792 -0.03188362 0.067054525 0.07230408 -0.0037969905 0.10695124 0.030777454
0.14301918 -0.038873997 -0.16476245 0.0040167025 -0.10741369 0.16952962 -0.061332673 0.06199693
00000000: ad96 643e 8e24 52be 10c9 db37 2660 6f3d
00000010: 6da7 df3d ffcc 9ebd 36a7 303e 6f8a 39bb
00000020: 0f59 62be dc0d 1f3e 2cc4 14be eb04 853c
00000030: 7c41 81bd 70dd 303e c0af cbbd 8bea 783c
00000040: 0aa8 fdbd 4251 6b3e 1081 ec3c 874b 7dbd
00000050: aa6f 38be 1a5e dbbd 037d d3bc d7d7 183d
00000060: e04d ad3d d0ee 81bd 8432 c3bd 750f 803c
00000070: b267 32bd e19a 053e 24af 243d 64ef bebd
00000080: 32a4 173e dfb5 d7bd bf6c dfbd ee58 543e
00000090: c417 8a3e f0bb 1abd 7bfa 82be cc64 923e
000000a0: c8bc fe3b 4792 833e 996c 033e a3a5 70be
000000b0: 895a 143e 9e78 ee3c 49bb 6ebe 2746 293d
000000c0: 1800 04be a6ce 35be 31a5 8f3d 7f81 713e
000000d0: e03a 02be c016 bd3d d0ba 353d 0481 133d
000000e0: fa15 02be a55a 9b3d d135 d23d c91e 363d
000000f0: 4807 9fbd fdc3 d4bd 1f8f fc3d d65b bc3d
00000100: 382c 7bbe c797 ef3c 9086 96bc e38d 453e
00000110: 7e13 443b 7ebc f6bc 3e91 bdbb d97b 14be
00000120: 7e7f 2d3d 1778 bc3d bc5f a03d 00f1 8b3d
00000130: 42f1 043e 1f9a 1c3e 818d 1c3c 9fec 59be
00000140: 1823 673d e9ba 323d 1ace 8d3d 70de 20be
00000150: edb1 e53b af36 e4bc 0e54 8abd 12f1 d73d
00000160: a94f 6a3e 0720 193e b9ba 00bd f1fc b93d
00000170: 011b 3abe 63e0 b6bd 0770 9bbd f599 7fbd
00000180: 3b16 dc3c cf84 393d 7eb5 f93d b53a 473e
00000190: 5b2b d83d e86b 99bd 84bb 82be 40a6 8a3d
000001a0: bde3 19be ee27 1abe 7e47 7e3d 20f2 003d
000001b0: b160 ab3c 5ee9 e23d 56b3 3d3d b49d 04be
000001c0: 0f2a 4c3e 50c3 2db8 ed0b b3bc cfe1 4c3d
000001d0: fe53 afbb 7584 273e 0126 b73d 6666 3cbe
000001e0: 376f 72bd 8538 223e 04ab 903e 182e 713d
000001f0: bd86 aabe 38a0 513c 6aee 5bbd b524 21be
00000200: 2115 703d 54ec 1c3e 8667 b03d c986 ae3c
00000210: 4816 ea3d 5500 663d 22a3 413e 6cd7 1dbd
00000220: b2c9 833d 604f 04be 4554 04bd af07 25be
00000230: 9f83 0fbe d41d 0b3e ec85 5d3e c751 b43d
00000240: 0829 c83c 1e85 9b3c 7052 6d3d 33dd 273e
00000250: 81b1 16be d241 013c 4090 973d 11d5 a4bd
00000260: 7abe 06be 9186 a33c 372f 563d 657b 98bd
00000270: c428 5b3e d668 2e3e 3509 4c3e 654c 853c
00000280: ce4c c53c 1920 90bd 1152 21bd 7dcb 0bbe
00000290: 44c9 313e 0b74 cdbc a6b0 6d3d 5a44 b13d
000002a0: 28f0 253d e727 11be b5ab dd3b 2f41 0d3d
000002b0: 4383 823e d5eb 483d 296f 1a3d 7e4b 2bbd
000002c0: d695 0d3d 6a68 72bc 5c59 95bd e089 15be
000002d0: c508 143d a8e8 353e 23da bc3e b6da 533d
000002e0: 4c3b 4e3d 2dd5 22bd 9f9b ee3d b889 ddbc
000002f0: eedf c93d a337 bc3d ac9e 903d 20d5 483e
00000300: a52d f93d 3f3f e2bd 1847 7b3e b239 96bd
00000310: e689 03be bb64 1abe a90a 5d3d 5f4f 5abd
00000320: ae9e 283e 48d0 dc3c 443a 3e3e 1caa 32be
00000330: 564e 5e3d f263 24bd 73e7 d2bd 79fb 3fbe
00000340: 372f f0bd 63fa aebc 6b88 0c3d 023e 19bc
00000350: e5ea 53bd 11f4 11bd a521 743e ba08 42be
00000360: 6632 1b3e 1335 93bd f9a7 d1bd c4ef 07bd
00000370: 74ab 223e cb32 0fbe 4426 323e c491 00bd
00000380: ba62 0cbe dd53 8dbc d9ae 283d a6c9 c0bd
00000390: 61d3 c03c f237 1a3c c753 15be 2830 a63d
000003a0: 3c82 e83c 439c 743d 2451 5bbd cb17 16bd
000003b0: 63f5 43be 3ad5 113e ea58 8ebd 3976 2c3d
000003c0: 2963 513e b5cd 8a3c 6698 02bd e253 893d
000003d0: 2914 943d eed6 78bb 4009 db3d 0021 fc3c
000003e0: 9f73 123e 573a 1fbd 7db7 28be 8b9e 833b
000003f0: b5fb dbbd 2c99 2d3e f837 7bbd 7ef0 7d3d

network_body._body_endoder.seq_layers.0.bias f4 [128]
0.024003698 0.0018878178 0.031218491 0.012919088 0.0022551452 0.024757398 0.01874535 0.032320503
0.012906272 0.006134875 0.009143476 0.012010052 0.03441912 0.025876796 0.041200705 0.038480334
0.020646144 0.02039894 -0.0060212356 0.032053646 0.014741487 0.027871275 0.027932223 0.0218344
0.01116877 0.01572992 0.031594377 0.025309421 -0.009425952 0.015071369 -0.024090517 0.033320565
0.03478282 0.017007764 0.0054543423 0.028588707 0.034212828 -0.0042598546 0.019566841 0.015887976
0.016186066 0.029761123 0.025204137 0.01420241 0.010873161 0.02107763 -0.013118499 0.033900686
0.024160746 0.01286919 0.033560194 0.03191923 0.005360877 0.032130893 0.005802579 0.010479146
-0.019574303 0.03594976 0.018426618 0.014598631 -0.007504593 0.0075539434 0.012742856 0.035399843
0.016856771 -0.009430037 0.021437854 0.040079895 0.022228668 0.025883341 0.039406527 0.007955975
0.04157965 0.02731145 -0.021597419 0.009398566 -0.011062511 0.01718881 -0.0172966 0.004229446
-4.8744164e-06 0.035385754 -0.010063217 -0.00365759 0.016450824 0.052847642 0.00855385 0.03179712
0.02294332 -0.007363694 -0.021888586 -0.011642407 -0.0032837521 0.013486317 -0.0143984975 0.01469786
0.018841714 0.035138253 -0.024800155 0.01883713 0.0025657753 -0.020161346 0.026658613 0.012248524
0.042525057 0.0057708607 0.021101251 -3.3801378e-05 0.021168377 0.0142808715 0.0206962 -0.019441849
0.01481844 0.0419875 -0.020362716 -0.015997386 0.031065246 0.015052599 0.0125818 -0.026198667
-0.0022652019 -0.02354887 -0.003182308 -0.0010882665 0.005541505 0.019348623 -0.016490806 0.036263216
00000000: 67a3 c43c a770 f73a ecbd ff3c 95aa 533c
00000010: 0fcb 133b 07d0 ca3c d98f 993c 8162 043d
00000020: d474 533c 1007 c93b 85ce 153c cfc5 443c
00000030: 10fb 0c3d 93fb d33c 12c2 283d 8e9d 1d3d
00000040: 1a22 a93c ae1b a73c c94d c5bb af4a 033d
00000050: 4786 713c 4d52 e43c 1ed2 e43c 0ede b23c
00000060: 37fd 363c 08dc 803c 1b69 013d b455 cf3c
00000070: 4f6f 1abc e7ed 763c 7a59 c5bc 257b 083d
00000080: 6e78 0e3d de53 8b3c 57ba b23b dd32 ea3c
00000090: c022 0c3d 4096 8bbb a44a a03c 8027 823c
000000a0: a498 843c 99cd f33c e878 ce3c 3ab1 683c
000000b0: 5825 323c feaa ac3c f9ee 56bc 72db 0a3d
000000c0: c2ec c53c 4cd9 523c 6a76 093d bdbd 023d
000000d0: 4caa af3b af9b 033d 9023 be3b b9b0 2b3c
000000e0: 4a5a a0bc 0e40 133d 6bf3 963c 192f 6f3c
000000f0: 17e9 f5bb 1287 f73b 69c7 503c 6dff 103d
00000100: 3617 8a3c 7180 1abc 709e af3c d12a 243d
00000110: e518 b63c 4d09 d43c bd68 213d c759 023c
00000120: 6c4f 2a3d 43bc df3c 12ed b0bc 71fc 193c
00000130: 893f 35bc 8ccf 8c3c 99b1 8dbc 2a97 8a3b
00000140: eb8e a3b6 a7f0 103d 31e0 24bc 2db4 6fbb
00000150: e1c3 863c c576 583d 7325 0c3c b23d 023d
00000160: a1f3 bb3c 244b f1bb b14f b3bc cbbf 3ebc
00000170: 3834 57bb b7f5 5c3c ade7 6bbc 4bcf 703c
00000180: f059 9a3c 21ed 0f3d b229 cbbc 5350 9a3c
00000190: 9126 283b 6829 a5bc 2a63 da3c 09ae 483c
000001a0: c12e 2e3d 7d19 bd3b 88dc ac3c f4c5 0db8
000001b0: 4e69 ad3c 51fa 693c 148b a93c 8344 9fbc
000001c0: 0bc9 723c 16fb 2b3d b6cf a6bc f30c 83bc
000001d0: 8b7c fe3c 2d9f 763c e523 4e3c 969e d6bc
000001e0: c873 14bb 8fe9 c0bc 458e 50bb 2aa4 8eba
000001f0: 8395 b53b 0181 9e3c ba17 87bc bd88 143d

network_body._body_endoder.seq_layers.2.weight f4 [128, 128]
0.117620185 -0.0075628124 0.19403127 -0.0078074886 -0.14941178 -0.038441364 -0.14083096 0.054535586
0.0023277437 0.15315725 -0.106796205 -0.05176942 0.24981698 0.067762986 -0.058082454 0.117890306
-0.0881873 -0.036724575 0.09289198 -0.084566005 -0.1180289 0.013358818 -0.057389475 0.2326102
-0.0028230632 0.0059122206 -0.06411677 0.0125780115 0.18350938 -0.091157235 0.051160514 -0.058843948
0.23816809 0.1318229 0.10288235 0.1022583 0.07650223 -0.028854696 -0.046642818 0.09551216
-0.0130361775 -0.010475731 0.099408045 0.08969482 0.12262905 -0.14514725 -0.014637764 -0.053677723
0.16235948 -0.058320623 -0.059451543 0.14077681 -0.18719365 0.044080123 -0.055788804 -0.02818029
0.09454078 -0.16359633 0.12835823 0.009662657 0.053304322 -0.06148384 -0.12157561 0.010123202
0.17177121 0.106901154 0.028823756 -0.002535501 -0.047530185 -0.09487586 -0.047462232 -0.015983105
-0.041781686 0.1259002 -0.07493547 0.08471484 -0.058661513 0.06497603 -0.10966033 -0.16179106
-0.074912295 -0.14138874 -0.036631294 -0.00035692952 0.033328593 0.00044120976 -0.122936286 0.106653206
0.031015117 0.009560949 0.05270018 -0.015314799 -0.100127384 -0.020084834 -0.085042484 0.16358924
0.02380614 0.038724393 0.122398846 0.061905365 -0.09682832 -0.1232385 0.19698717 -0.07924319
-0.005853695 -0.080637805 0.11376301 0.055498358 0.23883805 0.16156827 0.053589094 -0.16357347
0.038562153 -0.19657268 -0.04470983 -0.004729507 0.019886374 -0.23266114 -0.050136942 -0.0484175
0.0067738667 0.042480133 0.031022185 -0.09316021 0.0046935887 -0.012902084 -0.0844723 0.060591135
-0.06980064 0.011008272 0.054033518 -0.099581815 0.0034284338 -0.044266514 -0.016550956 0.0013073568
0.16173975 0.07249481 -0.08553786 0.15292373 0.112118624 0.026312128 -0.039297845 -0.009337326
0.014452532 0.043392655 0.044196222 0.037730265 -0.07464259 0.1153547 9.7355194e-05 0.038509075
-0.10832722 0.038879886 0.030017613 -0.023386464 0.038446974 -0.20279172 -0.05839249 0.05201949
-0.10894542 0.009494705 0.09275151 0.14639877 -0.025013443 -0.13762021 0.04774245 0.16355826
-0.03516641 0.10878537 0.036103357 0.0023342217 -0.016043687 -0.009404229 0.082534164 0.020674696
-0.031609625 -0.077493764 0.14936496 0.0726771 0.10566768 0.019082325 0.05597857 0.030029582
-0.04724081 0.028755374 0.046074197 0.004012896 0.07286341 -0.0024291065 0.009689535 0.048311584
0.08620971 -0.0016869159 0.04445752 -0.009306574 -0.12056907 0.13373935 -0.12614729 -0.020819338
-0.03147805 -0.16467796 0.1614662 0.16800319 -0.026882999 -0.042638097 0.035575807 0.0041369377
0.02555517 -0.047068294 -0.068541184 -0.015895978 0.119659476 -0.012927536 0.0024245288 0.08340017
-0.08763599 -0.06829773 0.015268429 -0.022359261 0.1511856 -0.13159011 0.115925804 0.032219402
-0.026849892 0.16143447 -0.04125372 -0.004396013 -0.12516592 0.08301862 0.05574241 0.0553683
-0.096332006 -0.11575909 -0.09301202 0.23596005 0.15082976 0.022836626 0.095532045 0.01850944
0.091764376 -0.056894545 0.032498658 -0.050379165 0.044241015 0.08991076 0.10014314 0.05796645
-0.07532465 -0.0006132062 -0.023932248 -0.03501024 -0.04634181 -0.0366614 0.18126823 -0.032697722
00000000: dae2 f03d 78d1 f7bb 22b0 463e f6d5 ffbb
00000010: 67ff 18be b174 1dbd fe35 10be b560 5f3d
00000020: 0f8d 183b 41d5 1c3e f8b7 dabd 2c0c 54bd
00000030: 06d0 7f3e 52c7 8a3d dee7 6dbd 7970 f13d
00000040: 8b9b b4bd 826c 16bd 273e be3d f130 adbd
00000050: 23b9 f1bd f2de 5a3c 3a11 6bbd 5e31 6e3e
00000060: 2403 39bb 4dbb c13b a74f 83bd 0114 4e3c
00000070: e2e9 3b3e a5b0 babd b08d 513d 5a06 71bd
00000080: 56e2 733e 95fc 063e fbb3 d23d cd6c d13d
00000090: 33ad 9c3d af60 ecbc 8a0c 3fbd e19b c33d
000000a0: b195 55bc 67a2 2bbc 7296 cb3d ebb1 b73d
000000b0: f024 fb3d 7ba1 14be 3bd3 6fbc 2cdd 5bbd
000000c0: 9041 263e 9be1 6ebd 7683 73bd cc27 103e
000000d0: b1af 3fbe 5c8d 343d cd82 64bd 5ada e6bc
000000e0: 999e c13d cc85 27be 5770 033e 1f50 1e3c
000000f0: a255 5a3d 7bd6 7bbd a2fc f8bd c9db 253c
00000100: cbe4 2f3e feee da3d cc1f ec3c a62a 26bb
00000110: 03af 42bd 464e c2bd c267 42bd 00ef 82bc
00000120: 4623 2bbd fbeb 003e c577 99bd f97e ad3d
00000130: 0e47 70bd 2712 853d 9895 e0bd 8eac 25be
00000140: 9e6b 99bd 36c8 10be b20a 16bd 4522 bbb9
00000150: 9083 083d 2c52 e739 05c6 fbbd ff6c da3d
00000160: 6a13 fe3c 87a5 1c3c 25dc 573d ecea 7abc
00000170: 960f cdbd f388 a4bc c12a aebd f083 273e
00000180: 1805 c33c 789d 1e3d 3fac fa3d 7b90 7d3d
00000190: ed4d c6bd 7764 fcbd 01b7 493e 414a a2bd
000001a0: 5ad0 bfbb 6f25 a5bd 95fc e83d 3f52 633d
000001b0: f691 743e 2772 253e 3d80 5b3d ce7f 27be
000001c0: 59f3 1d3d 594a 49be a821 37bd fbf9 9abb
000001d0: c0e8 a23c b93e 6ebe 655c 4dbd 6e51 46bd
000001e0: 50f7 dd3b a6ff 2d3d 3d22 fe3c c8ca bebd
000001f0: adcc 993b 4363 53bc d0ff acbd 692e 783d
00000200: a3f3 8ebd 0a5c 343c 4052 5d3d 8df1 cbbd
00000210: 93af 603b ce50 35bd df95 87bc 9d5b ab3a
00000220: 1b9f 253e 2978 943d 792e afbd 0a98 1c3e
00000230: 739e e53d 888c d73c c7f6 20bd 95fb 18bc
00000240: 50ca 6c3c 7fbc 313d 1907 353d 0d8b 1a3d
00000250: 37de 98bd 163f ec3d 2c2b cc38 b1bb 1d3d
00000260: a9da ddbd 8440 1f3d 7fe7 f53c f894 bfbc
00000270: 937a 1d3d a2a8 4fbe f72c 6fbd 6412 553d
00000280: c71e dfbd ae8f 1b3c 81f4 bd3d 8fe9 153e
00000290: fee8 ccbc 50ec 0cbe 968d 433d d17b 273e
000002a0: a70a 10bd ddca de3d 1de1 133d bef9 183b
000002b0: 0d6e 83bc 3214 1abc ac07 a93d fb5d a93c
000002c0: 1879 01bd 0db5 9ebd 21f3 183e bbd7 943d
000002d0: 4c68 d83d 8952 9c3c c949 653d 9900 f63c
000002e0: 947f 41bd 6490 eb3c 4cb8 3c3d 9d7e 833b
000002f0: 6939 953d a531 1fbb dbc0 1e3c 5ee2 453d
00000300: b78e b03d 811b ddba 1719 363d 9a7a 18bc
00000310: ebec f6bd f8f2 083e c12c 01be 518d aabc
00000320: 21ef 00bd 57a1 28be 6557 253e 0709 2c3e
00000330: bc39 dcbc 49a5 2ebd f0b7 113d 268f 873b
00000340: 1359 d13c afca 40bd 525f 8cbd 4838 82bc
00000350: 0710 f53d 04ce 53bc d8e4 1e3b b5cd aa3d
00000360: 7f7a b3bd aedf 8bbd 6f28 7a3c c52a b7bc
00000370: 66d0 1a3e 8fbf 06be 826a ed3d 7ef8 033d
00000380: 4ef4 dbbc 144f 253e a9f9 28bd 6e0c 90bb
00000390: 7f2b 00be ab05 aa3d 2752 643d dfc9 623d
000003a0: b749 c5bd 1a13 edbd 167d bebd 839f 713e
000003b0: 1e73 1a3e e013 bb3c 4ea6 c33d 1ca1 973c
000003c0: f6ee bb3d 410a 69bd 501d 053d 625a 4ebd
000003d0: 1136 353d 2223 b83d d917 cd3d 3a6e 6d3d
000003e0: cf43 9abd 92bf 20ba 900d c4bc e666 0fbd
000003f0: e9d0 3dbd 442a 16bd 619e 393e 0cee 05bd

network_body._body_endoder.seq_layers.2.bias f4 [128]
0.018818885 0.00076039997 0.013702047 0.03717093 0.0007172822 0.016750908 0.013964145 0.027484536
0.0075999754 0.020601988 0.012895546 0.0037145768 0.022371713 0.01128221 0.015742898 0.015501422
0.015866732 0.004436291 0.029103087 0.020399414 0.012689142 -0.008408023 0.01582032 0.017235259
0.015597341 0.018846802 0.013501731 0.025518868 0.01759196 0.01878976 0.006927752 0.01965554
0.0071418383 -0.013429236 0.0222859 -0.011839653 0.006989163 -0.006166715 0.012648481 0.009929538
0.013892548 0.015749082 0.01479797 0.015508834 0.011849392 0.019711005 -0.0044958685 0.012921992
0.008451851 0.004701885 0.0272525 0.026408117 0.018976547 0.019950364 0.018818647 0.015584387
0.018191293 -0.00876035 0.0049280864 0.010358091 0.017861972 -0.007283224 0.02052798 0.01776565
0.012835959 0.012630025 0.008834694 0.0011686706 0.019343825 0.008664254 0.013926974 0.013868617
7.6852e-05 0.019799085 0.009593605 0.020252606 0.017947398 0.029670266 0.013986991 0.005905992
0.030371072 0.012716761 0.02422097 0.015157778 0.015515333 0.0070704944 0.023675235 0.022474188
0.018017283 -0.015280687 0.027247751 0.031009391 0.0188847 0.009772649 -0.0022443635 0.016129324
0.009479006 0.013178613 0.014517612 0.017076055 0.016468056 0.019811772 0.009006153 0.021932987
0.010730388 0.013185108 0.003390041 -0.018337384 0.013119849 0.0049109864 0.008159111 0.0062601706
0.020962173 0.025190972 0.012372956 0.0088453265 0.016870756 0.027205028 0.014760462 0.015415793
0.01488199 0.018397428 0.017869232 -0.0139846 0.014890247 0.02349657 0.017905168 0.0026951842
00000000: 102a 9a3c 9455 473a 8d7e 603c 8c40 183d
00000010: fe07 3c3a 3339 893c dfc9 643c 4027 e13c
00000020: 3709 f93b 80c5 a83c d747 533c 4270 733b
00000030: e244 b73c 05d9 383c 40f7 803c adf9 7d3c
00000040: f3fa 813c 4e5e 913b 9969 ee3c ac1c a73c
00000050: 1ee6 4f3c cec1 09bc 9e99 813c f530 8d3c
00000060: fd8b 7f3c 9c64 9a3c 5d36 5d3c f20c d13c
00000070: 041d 903c fcec 993c 3202 e33b a804 a13c
00000080: 1506 ea3b 4c06 5cbc eb90 b63c 1bfb 41bc
00000090: 5905 e53b 2812 cabb 933b 4f3c 80af 223c
000000a0: 929d 633c 3804 813c 2f73 723c c418 7e3c
000000b0: f423 423c f978 a13c 1452 93bb c3b6 533c
000000c0: a279 0a3c 4512 9a3b a340 df3c d655 d83c
000000d0: b474 9b3c f26e a33c 9029 9a3c a855 7f3c
000000e0: e805 953c 9287 0fbc c97b a13b fcb4 293c
000000f0: 4553 923c 1ca8 eebb 4b2a a83c 4589 913c
00000100: ea4d 523c 2aee 4e3c 64bf 103c 142e 993a
00000110: f176 9e3c 84f4 0d3c f62d 643c 3239 633c
00000120: 9a2b a138 b131 a23c 7f2e 1d3c cbe8 a53c
00000130: 6c06 933c 0f0f f33c b129 653c 0d87 c13b
00000140: c1cc f83c f659 503c 0e6b c63c 5458 783c
00000150: 0634 7e3c 9baf e73b 91f2 c13c ca1b b83c
00000160: fb98 933c d95b 7abc ad36 df3c 6807 fe3c
00000170: 16b4 9a3c 761d 203c 2c16 13bb a521 843c
00000180: d54d 1b3c 1ceb 573c 47db 6d3c 15e3 8b3c
00000190: 04e8 863c 4c4c a23c 8b8e 133c cfac b33c
000001a0: 82ce 2f3c 5a06 583c 732b 5e3b 4838 96bc
000001b0: a3f4 563c 57ec a03b cbad 053c 1e22 cd3b
000001c0: ddb8 ab3c 4c5d ce3c f0b7 4a3c fdeb 103c
000001d0: 8a34 8a3c 14dd de3c ddd5 713c 8692 7c3c
000001e0: 97d3 733c 34b6 963c 7f62 923c aa1f 65bc
000001f0: 39f6 733c e17b c03c dcad 923c b0a1 303b

action_model._discrete_distribution.branches.0.weight f4 [2, 128]
-0.035784923 -0.042720955 -0.043611515 0.08908267 -0.06971995 -0.05886453 0.017078608 0.0838793
-0.06804618 -0.054547668 0.06178402 -0.039713804 0.055167925 -0.03965319 0.029851034 0.077928856
0.0473854 -0.057556834 0.06152653 -0.054027013 0.02375968 -0.018072594 0.02679853 0.032479413
0.05013565 0.035118986 -0.05570196 -0.041280095 -0.059353035 0.04187173 0.030015057 0.06332603
0.0058722985 -0.015062459 -0.032571685 -0.0039222906 -0.049250863 -0.022301214 0.068528526 -0.05326661
-0.048077222 0.03339602 -0.05380116 0.02388092 0.007580493 0.05586214 -0.033284355 -0.05722387
0.031423982 -0.056690406 0.08159124 0.05016248 -0.06156005 0.050952345 0.039727714 0.035760224
0.045839082 0.0035721094 -0.05805062 -0.0575071 0.043543734 0.00024286407 -0.06570427 -0.054014433
-0.06489751 -0.07012745 0.022998592 -0.028628219 0.059758842 0.049429122 0.050497342 -0.052515626
-0.021423247 -0.048305497 -0.07637479 0.03844795 0.04041368 0.07161273 0.022408515 -0.06757941
0.04323747 0.04704044 0.069174245 -0.03589736 -0.04782414 -0.0440186 -0.04956776 -0.04975659
0.037440773 -0.021843081 -0.057113033 0.08988956 0.044687845 -0.05654507 -0.023061726 0.04288149
-0.04712519 0.035959966 0.07427979 -0.054492917 0.041774504 0.043279096 0.018118352 -0.03972875
-0.0397249 -0.06928911 -0.08258796 -0.019087028 0.0033289315 -0.044235952 -0.055916738 -0.07039235
0.0653802 0.060909335 0.035375997 -0.07221668 0.043827724 0.04849618 0.05155195 0.0370399
-0.012635426 0.06476283 -0.05935512 -0.01569085 0.041743863 0.07680612 0.043884702 -0.048305377
0.0448737 0.016039826 0.03994831 -0.08284464 0.053399567 0.04121488 -0.02179176 -0.07451226
0.051979896 0.06821907 -0.070267886 0.03166451 -0.057065364 0.041514933 -0.035016093 -0.06924421
-0.039768614 0.060477357 -0.06429467 0.043290272 -0.030989945 0.01691593 -0.031490587 -0.04764624
-0.037820544 -0.042250045 0.0657647 0.05328266 0.057883527 -0.05193945 -0.041764453 -0.051226642
-0.0027650276 0.01635135 0.03646817 0.013843382 0.046877284 0.01090736 -0.060424052 0.048064165
0.058483906 -0.04618466 0.064959966 -0.038459226 -0.03320669 -0.049023826 0.04152317 0.061597116
-0.012935658 0.05207554 -0.075328805 -0.04075083 0.05368179 -0.043162834 -0.04109144 -0.03145335
-0.022936702 0.008671075 0.062757865 0.06418767 -0.036106404 0.012993014 0.040476684 0.038600046
0.06690238 0.068683244 -0.017984886 0.035252172 -0.048399046 -0.040714394 -0.02537109 0.052591655
0.030777358 0.054242857 0.05790193 -0.02969934 -0.04068334 -0.078950725 -0.028865041 0.06555676
-0.06720924 -0.03429114 -0.06660004 0.038514614 0.061136976 0.04058239 0.057568297 0.038203713
-0.02847286 0.018517105 0.05766401 -0.07088118 -0.054545913 0.04009199 0.045607008 -0.04715551
0.028467555 -0.030537453 -0.05878571 0.03577883 -0.032167185 -0.06091267 -0.021858335 0.04256417
0.053699642 0.06774943 0.059534412 0.014026045 -0.036506075 0.04002954 0.046005428 0.063806735
-0.051585894 -0.092652954 -0.037989352 0.088556305 -0.033097684 -0.06764552 -0.05570928 -0.0324208
0.023176184 -0.07599274 0.074419156 0.01816256 -0.026255455 -0.062201265 -0.042942416 0.047232177
00000000: 3693 12bd 2bfc 2ebd fda1 32bd fa70 b63d
00000010: 55c9 8ebd ef1b 71bd 70e8 8b3c e9c8 ab3d
00000020: cc5b 8bbd 606d 5fbd 3e11 7d3d f1aa 22bd
00000030: c3f7 613d 626b 22bd 288a f43c 2a99 9f3d
00000040: 3117 423d b7c0 6bbd 3e03 7c3d 6e4b 5dbd
00000050: a9a3 c23c fa0c 94bc 9788 db3c 2209 053d
00000060: 0a5b 4d3d edd8 0f3d bd27 64bd 5115 29bd
00000070: 2b1c 73bd b181 2b3d 23e2 f53c 14b1 813d
00000080: 696c c03b 88c8 76bc e369 05bd 8f86 80bb
00000090: 46bb 49bd 09b1 b6bc af58 8c3d 172e 5abd
000000a0: 9fec 44bd 44ca 083d 9b5e 5cbd eba1 c33c
000000b0: c965 f83b b3cf 643d 2d55 08bd 9463 6abd
000000c0: 6fb6 003d 3334 68bd 4f19 a73d 2c77 4d3d
000000d0: 6426 7cbd 68b3 503d 87b9 223d 5079 123d
000000e0: c3c1 3b3d 0d1a 6a3b 7dc6 6dbd 918c 6bbd
000000f0: ea5a 323d 54a9 7e39 f68f 86bd 3d3e 5dbd
00000100: fce8 84bd fb9e 8fbd 8b67 bc3c ba85 eabc
00000110: b0c5 743d 3176 4a3d 4dd6 4e3d a01a 57bd
00000120: ce7f afbc fcdb 45bd 636a 9cbd 997b 1d3d
00000130: d188 253d b2a9 923d 1092 b73c 1367 8abd
00000140: c619 313d 7aad 403d 3aab 8d3d 1c09 13bd
00000150: 3fe3 43bd d94c 34bd 9007 4bbd 91cd 4bbd
00000160: 7f5b 193d 43f0 b2bc 5bef 69bd 0518 b83d
00000170: 9a0a 373d ce9b 67bd f2eb bcbc 80a4 2f3d
00000180: 5806 41bd c24a 133d 0120 983d f733 5fbd
00000190: be1b 2b3d 6c45 313d f06c 943c 9dba 22bd
000001a0: 94b6 22bd 73e7 8dbd e023 a9bd 665c 9cbc
000001b0: 342a 5a3b c230 35bd f308 65bd dd29 90bd
000001c0: 0ee6 853d 117c 793d 6ce6 103d 57e6 93bd
000001d0: b384 333d eea3 463d 2328 533d 26b7 173d
000001e0: d104 4fbc 60a2 843d 5b1e 73bd 198a 80bc
000001f0: 9dfb 2a3d 874c 9d3d 72c0 333d dcdb 45bd
00000200: 7ccd 373d f465 833c d7a0 233d 73aa a9bd
00000210: 81b9 5a3d efd0 283d a284 b2bc e299 98bd
00000220: dfe8 543d 71b6 8b3d 9ce8 8fbd a5b2 013d
00000230: 5fbd 69bd 900b 2a3d 096d 0fbd e9cf 8dbd
00000240: 6ae4 22bd 1bb7 773d edac 83bd 2451 313d
00000250: a0de fdbc 4793 8a3c 46fc 00bd b428 43bd
00000260: b7e9 1abd 620e 2dbd a5af 863d eb3e 5a3d
00000270: 4717 6d3d 76be 54bd 3411 2bbd 07d3 51bd
00000280: 7735 35bb 44f3 853c a65f 153d 5acf 623c
00000290: 6502 403d c9b4 323c 367f 77bd eede 443d
000002a0: d28c 6f3d 202c 3dbd bb09 853d 6c87 1dbd
000002b0: bd03 08bd 35cd 48bd 3314 2a3d 424d 7c3d
000002c0: 15f0 53bc 294d 553d fd45 9abd 58ea 26bd
000002d0: 70e1 5b3d 83cb 30bd 7f4f 28bd 3ad5 00bd
000002e0: c0e5 bbbc 2011 0e3c 3287 803d d374 833d
000002f0: 4fe4 13bd a7e0 543c e1ca 253d 151b 1e3d
00000300: 1d04 893d cda9 8c3d 0a55 93bc 9564 103d
00000310: 143e 46bd 23c4 26bd 08d7 cfbc 596a 573d
00000320: cc20 fc3c c22d 5e3d 932a 6d3d 084c f3bc
00000330: 93a3 26bd ebb0 a1bd 6176 ecbc 9f42 863d
00000340: ffa4 89bd de74 0cbd 9a65 88bd 80c1 1d3d
00000350: c46a 7a3d b839 263d bccc 6b3d 7f7b 1c3d
00000360: ea3f e9bc 2fb1 973c 1931 6c3d 272a 91bd
00000370: 896b 5fbd 8037 243d 6ace 3a3d 2326 41bd
00000380: ca34 e93c ae29 fabc 49c9 70bd d38c 123d
00000390: bdc1 03bd 907f 79bd 4010 b3bc c457 2e3d
000003a0: 28f4 5b3d 37c0 8a3d 5bda 733d 7fcd 653c
000003b0: 6587 15bd 04f6 233d 3070 3c3d 1bad 823d
000003c0: bb4b 53bd d5c0 bdbd b99a 1bbd 025d b53d
000003d0: 7091 07bd bc89 8abd 6a2f 64bd accb 04bd
000003e0: fbdb bd3c 15a2 9bbd 1269 983d a6c9 943c
000003f0: ae15 d7bc c1c6 7ebd 63e4 2fbd 8776 413d

action_model._discrete_distribution.branches.0.bias f4 [2]
0.011599609 -0.011599601
00000000: 490c 3e3c 410c 3ebc

exp_avg f4 [128, 78]
-0.0012493072 -2.895537e-07 -0.0005884757 -0.0012493071 -2.8964905e-07 -0.00067842635 -0.0012493072 -2.895701e-07
-0.00051708653 -0.0012492556 -3.4088296e-07 -0.0008039007 -0.0012493072 -2.8956708e-07 -0.00046523023 -0.0012560247
6.4281467e-06 -0.0008867618 -0.0012497082 1.1159119e-07 -0.0004278534 -0.0010160436 -0.00023355313 -0.00094880525
-0.0012495968 5.876143e-11 -0.00038967966 -0.0011663581 -8.323855e-05 -0.0009861793 -0.0012495968 5.876143e-11
-0.00035847232 -0.00072960695 -0.00051998993 -0.0010386527 -0.0012495968 5.6666227e-11 -0.00033301386 -0.0012493072
-2.8956475e-07 -0.0002885124 -0.0012493072 -2.8956708e-07 -0.0003146125 -0.0012493079 -2.8866688e-07 -0.00029004415
-0.0012493072 -2.8956708e-07 -0.00031891317 -0.0012493212 -2.7564232e-07 -0.00030952622 -0.0012493072 -2.8956708e-07
-0.00031797824 -0.0012517656 2.168939e-06 -0.00042520033 -0.0012493072 -2.8956708e-07 -0.000315422 -0.0010766747
-0.00017292233 -0.00061484496 -0.0012493072 -2.8956708e-07 -0.0003127649 -0.0006420296 -0.0006075675 -0.00077150064
-0.0012493072 -2.8956708e-07 -0.0003105536 -0.0005707355 -0.0006788615 -0.0009255323 -0.00046772428 -1.9410307e-07
-0.00021507438 -0.00046772423 -1.9419484e-07 -0.00025390336 -0.00046772428 -1.9412522e-07 -0.00018491277 -0.00046769038
-2.280308e-07 -0.00030888282 -0.00046772428 -1.9411874e-07 -0.00016320428 -0.0004712901 3.371748e-06 -0.00034520097
-0.00046801183 9.340863e-08 -0.0001474245 -0.0003507458 -0.0001171727 -0.00037073845 -0.0004679186 1.5206753e-10
-0.00013205643 -0.0004298265 -3.8091956e-05 -0.00038425272 -0.0004679186 1.5206753e-10 -0.00011947766 -0.00022690085
-0.00024101767 -0.00040576418 -0.0004679186 1.4854544e-10 -0.000109146036 -0.00046772428 -1.94118e-07 -0.00011412282
-0.00046772428 -1.9411871e-07 -0.00012446303 -0.00046772452 -1.9389563e-07 -0.0001141917 -0.00046772428 -1.9411874e-07
-0.00012700848 -0.000467729 -1.8949113e-07 -0.000120280114 -0.00046772428 -1.9411874e-07 -0.00012735209 -0.00046858357
6.651067e-07 -0.00015260212 -0.00046772428 -1.9411874e-07 -0.00012694113 -0.00040926956 -5.8648948e-05 -0.00021439821
-0.00046772428 -1.9411874e-07 -0.00012638545 -0.00028415475 -0.00018376384 -0.00026120953 -0.00046772428 -1.9411874e-07
-0.00012593874 -0.0002600507 -0.00020786788 -0.0003223251 0.0028810438 1.537487e-06 0.0013633528 0.0028810431
1.5379565e-06 0.0015698363 0.0028810438 1.5376229e-06 0.0011998173 0.002880884 1.6970852e-06 0.0018566919
0.0028810438 1.5375805e-06 0.0010809269 0.0028976446 -1.50641345e-05 0.0020418759 0.0028833034 -7.2191267e-07
0.0009952204 0.0023548147 0.00052776677 0.0021809079 0.002882582 -5.8884003e-10 0.00090609206 0.0026926
0.0001899812 0.002265692 0.002882582 -5.8884003e-10 0.0008330234 0.001733678 0.0011489037 0.0023845527
0.002882582 -5.734539e-10 0.000773367 0.0028810438 1.5375767e-06 0.00066483725 0.0028810438 1.5375805e-06
0.000724752 0.0028810455 1.5359694e-06 0.0006688003 0.0028810438 1.5375805e-06 0.00073513965 0.0028810697
1.5118442e-06 0.0007119392 0.0028810438 1.5375805e-06 0.0007333736 0.0028867766 -4.1950066e-06 0.0009722846
0.0028810438 1.5375805e-06 0.0007278188 0.0024583875 0.00042419485 0.0014244069 0.0028810438 1.5375805e-06
0.0007220078 0.0014339654 0.0014486169 0.0017915618 0.0028810438 1.5375805e-06 0.0007171303 0.0012950188
0.0015875633 0.0021364102 -0.00047856185 -2.348629e-07 -0.0002244743 -0.00047856182 -2.3487509e-07 -0.00025946408
-0.00047856185 -2.3486268e-07 -0.00019694357 -0.00047854302 -2.537086e-07 -0.00030850372 -0.00047856185 -2.3486376e-07
-0.00017699269 -0.00048119077 2.3940217e-06 -0.00034089704 -0.00047889308 9.636683e-08 -0.00016262116 -0.0003833719
00000000: cbbf a3ba f573 9bb4 f043 1aba cabf a3ba
00000010: 1081 9bb4 6cd8 31ba cbbf a3ba 3676 9bb4
00000020: 178d 07ba 10be a3ba 9902 b7b4 ddbc 52ba
00000030: cbbf a3ba cc75 9bb4 25ea f3b9 32a1 a4ba
00000040: 5cb1 d736 9475 68ba 40cd a3ba e8a3 ef33
00000050: 8351 e0b9 c42c 85ba f1e5 74b9 3eb9 78ba
00000060: 83c9 a3ba bf37 812e eb4d ccb9 7ce0 98ba
00000070: 5b90 aeb8 b042 81ba 83c9 a3ba bf37 812e
00000080: 57f1 bbb9 1843 3fba ef4f 08ba 6723 88ba
00000090: 83c9 a3ba 8038 792e 5d98 aeb9 cbbf a3ba
000000a0: 7a75 9bb4 7b43 97b9 cbbf a3ba cc75 9bb4
000000b0: 93f2 a4b9 d1bf a3ba 13fa 9ab4 1111 98b9
000000c0: cbbf a3ba cc75 9bb4 cd33 a7b9 43c0 a3ba
000000d0: fefb 93b4 e847 a2b9 cbbf a3ba cc75 9bb4
000000e0: 51b6 a6b9 4912 a4ba 178e 1136 6ced deb9
000000f0: cbbf a3ba cc75 9bb4 395f a5b9 351f 8dba
00000100: 7c52 35b9 8c2d 21ba cbbf a3ba cc75 9bb4
00000110: 98fa a3b9 e14d 28ba 2a45 1fba 883e 4aba
00000120: cbbf a3ba cc75 9bb4 ccd1 a2b9 699d 15ba
00000130: a0f5 31ba 6c9f 72ba e438 f5b9 a56a 50b4
00000140: 9785 61b9 e238 f5b9 df83 50b4 551e 85b9
00000150: e438 f5b9 bc70 50b4 25e5 41b9 5734 f5b9
00000160: a1d8 74b4 8df1 a1b9 e438 f5b9 f46e 50b4
00000170: d121 2bb9 7d17 f7b9 3146 6236 17fc b4b9
00000180: 7c5f f5b9 f097 c833 f695 1ab9 4ee4 b7b9
00000190: 9dba f5b8 ac5f c2b9 f952 f5b9 3433 272f
000001a0: a178 0ab9 565a e1b9 edc4 1fb8 8775 c9b9
000001b0: f952 f5b9 3433 272f 1590 fab8 3cec 6db9
000001c0: b0b9 7cb9 bfbc d4b9 f952 f5b9 d353 232f
000001d0: 55e5 e4b8 e438 f5b9 c06e 50b4 3955 efb8
000001e0: e438 f5b9 f26e 50b4 4a82 02b9 ec38 f5b9
000001f0: a031 50b4 347a efb8 e438 f5b9 f46e 50b4
00000200: 942d 05b9 8639 f5b9 ed76 4bb4 e53e fcb8
00000210: e438 f5b9 f46e 50b4 d189 05b9 39ac f5b9
00000220: c989 3235 d203 20b9 e438 f5b9 f46e 50b4
00000230: 801b 05b9 3b93 d6b9 d4fd 75b8 15d0 60b9
00000240: e438 f5b9 f46e 50b4 5686 04b9 9bfa 94b9
00000250: bbb0 40b9 f3f2 88b9 e438 f5b9 f46e 50b4
00000260: 6c0e 04b9 6a57 88b9 1cf7 59b9 befd a8b9
00000270: e5cf 3c3b a75b ce35 87b2 b23a e2cf 3c3b
00000280: c86b ce35 f7c2 cd3a e5cf 3c3b 5260 ce35
00000290: 3043 9d3a 37cd 3c3b 67c7 e335 3e5c f33a
000002a0: e5cf 3c3b dd5e ce35 e3ad 8d3a 69e6 3d3b
000002b0: f7bb 7cb7 fed0 053b cef5 3c3b 76c9 41b5
000002c0: 0e72 823a 3c53 1a3b d459 0a3a 90ed 0e3b
000002d0: b3e9 3c3b efdb 21b0 cf86 6d3a 5576 303b
000002e0: b135 4739 017c 143b b3e9 3c3b efdb 21b0
000002f0: 415f 5a3a 953c e33a d096 963a 2846 1c3b
00000300: b3e9 3c3b 3ba1 1db0 c8bb 4a3a e5cf 3c3b
00000310: bc5e ce35 7948 2e3a e5cf 3c3b dd5e ce35
00000320: 49fd 3d3a eccf 3c3b 8227 ce35 6e52 2f3a
00000330: e5cf 3c3b dd5e ce35 63b6 403a 54d0 3c3b
00000340: 92ea ca35 6ea1 3a3a e5cf 3c3b dd5e ce35
00000350: df3f 403a 1330 3d3b d5c2 8cb6 eae0 7e3a
00000360: e5cf 3c3b dd5e ce35 18cb 3e3a e61c 213b
00000370: 7866 de39 2ab3 ba3a e5cf 3c3b dd5e ce35
00000380: 2045 3d3a e5f3 bb3a 84df bd3a d7d2 ea3a
00000390: e5cf 3c3b dd5e ce35 cdfd 3b3a 9fbd a93a
000003a0: c915 d03a 0403 0c3b 7ce7 fab9 9f2e 7cb4
000003b0: dc60 6bb9 7be7 fab9 f931 7cb4 ae08 88b9
000003c0: 7ce7 fab9 902e 7cb4 a382 4eb9 f5e4 fab9
000003d0: 7235 88b4 abbe a1b9 7ce7 fab9 dc2e 7cb4
000003e0: 1d97 39b9 5548 fcb9 fba8 2036 6dba b2b9
000003f0: f113 fbb9 3af2 ce33 4985 2ab9 4eff c8b9

exp_avg_sq f4 [128, 78]
2.5553754e-06 1.2216816e-08 7.004124e-07 2.5547422e-06 1.24942074e-08 8.313542e-07 2.5555717e-06 1.2051109e-08
6.085154e-07 2.553611e-06 1.3444629e-08 1.0281641e-06 2.5556037e-06 1.1894204e-08 5.427398e-07 2.5275644e-06
2.3486942e-08 1.2709232e-06 2.555274e-06 1.0560813e-08 4.939894e-07 2.15387e-06 1.2079893e-07 1.5198101e-06
2.5543873e-06 8.3320915e-09 4.550836e-07 1.793179e-06 2.9683986e-07 1.7805735e-06 2.5472011e-06 1.0160455e-08
4.245563e-07 1.2347363e-06 6.721949e-07 1.9958336e-06 2.539493e-06 1.1419684e-08 4.0297772e-07 2.5509644e-06
1.3702993e-08 1.7047336e-07 2.551159e-06 1.3535182e-08 1.459633e-07 2.552048e-06 1.3348262e-08 2.008766e-07
2.5490147e-06 1.426537e-08 1.310478e-07 2.5540446e-06 1.2729477e-08 2.4428653e-07 2.5486922e-06 1.4487347e-08
1.1956115e-07 2.5292675e-06 1.9293811e-08 3.3066553e-07 2.5458758e-06 1.5230826e-08 1.11993764e-07 2.4495077e-06
3.614409e-08 4.897856e-07 2.540864e-06 1.8115495e-08 1.08489154e-07 2.2111205e-06 1.6411747e-07 7.579907e-07
2.5414877e-06 1.8891084e-08 1.0342019e-07 1.6922623e-06 3.4477932e-07 1.1691309e-06 5.4570063e-07 1.3919903e-08
1.644653e-07 5.452977e-07 1.4126686e-08 1.9475617e-07 5.4595296e-07 1.3750937e-08 1.4338777e-07 5.4455444e-07
1.4752378e-08 2.4062578e-07 5.4604686e-07 1.3750603e-08 1.283966e-07 5.341623e-07 1.7872974e-08 3.0164355e-07
5.4571666e-07 1.32661615e-08 1.17397e-07 4.2890133e-07 5.019947e-08 3.635068e-07 5.471318e-07 1.3275963e-08
1.08877764e-07 3.2422915e-07 1.1025462e-07 4.249467e-07 5.4716503e-07 1.3809366e-08 1.02152306e-07 1.9417735e-07
2.1189153e-07 4.693003e-07 5.470233e-07 1.3040841e-08 9.726027e-08 5.455466e-07 1.4279462e-08 4.5004683e-08
5.45588e-07 1.4222513e-08 4.039051e-08 5.4566135e-07 1.419787e-08 5.0692815e-08 5.455489e-07 1.4404155e-08
3.7494527e-08 5.459446e-07 1.4007429e-08 5.894866e-08 5.4545774e-07 1.4447008e-08 3.531015e-08 5.4366217e-07
1.4698403e-08 7.3921534e-08 5.4567334e-07 1.4401848e-08 3.3593256e-08 5.344501e-07 1.6336061e-08 1.03229524e-07
5.455762e-07 1.4707267e-08 3.2581e-08 5.0788304e-07 2.8350167e-08 1.4667056e-07 5.4529403e-07 1.4899237e-08
3.1815368e-08 4.141875e-07 5.630297e-08 2.2428308e-07 1.4847074e-05 4.979342e-07 4.7927083e-06 1.4833783e-05
5.0918743e-07 5.5588616e-06 1.4853636e-05 4.95178e-07 4.2463425e-06 1.4820796e-05 5.2605327e-07 6.686894e-06
1.4856994e-05 4.95846e-07 3.849924e-06 1.4541028e-05 6.020969e-07 8.075779e-06 1.4863521e-05 4.4595296e-07
3.550857e-06 1.2322311e-05 1.2186906e-06 9.512646e-06 1.5052016e-05 3.9588812e-07 3.297684e-06 1.0097054e-05
2.2965696e-06 1.1027816e-05 1.5101129e-05 4.1987707e-07 3.0882518e-06 6.900373e-06 4.4341937e-06 1.22821075e-05
1.5086286e-05 3.8496577e-07 2.936442e-06 1.4844567e-05 5.1175596e-07 1.2530186e-06 1.4845625e-05 5.083938e-07
1.127855e-06 1.4845624e-05 5.104308e-07 1.4064527e-06 1.4844879e-05 5.0988865e-07 1.0506327e-06 1.4850388e-05
5.057138e-07 1.6329075e-06 1.4843402e-05 5.1095566e-07 9.950821e-07 1.4760876e-05 5.326538e-07 2.0916648e-06
1.4850914e-05 5.0951803e-07 9.523894e-07 1.439829e-05 6.0843814e-07 2.993307e-06 1.4849423e-05 5.151365e-07
9.250578e-07 1.315294e-05 1.2878432e-06 4.5615784e-06 1.4843062e-05 5.2009847e-07 9.0551515e-07 1.0167763e-05
2.2733998e-06 6.969929e-06 4.1646382e-07 6.710918e-08 1.833985e-07 4.1569314e-07 6.755273e-08 2.0511999e-07
4.168437e-07 6.68291e-08 1.6810405e-07 4.1365018e-07 6.9064725e-08 2.3774894e-07 4.170862e-07 6.641408e-08
1.5723604e-07 4.0908597e-07 7.32816e-08 2.7959248e-07 4.179681e-07 6.353146e-08 1.4921649e-07 3.4441845e-07
00000000: 047d 2b36 20e2 5132 f903 3c35 2372 2b36
00000010: 1ba6 5632 3a2a 5f35 6380 2b36 5709 4f32
00000020: dc58 2335 b45e 2b36 1bfa 6632 73ff 8935
00000030: f080 2b36 4357 4c32 ccb0 1135 3a9f 2936
00000040: 55c0 c932 9794 aa35 467b 2b36 f26e 3532
00000050: b19a 0435 348b 1036 f5b4 0134 47fc cb35
00000060: 0a6c 2b36 ed24 0f32 3752 f434 29ad f035
00000070: 5c5d 9f34 0afc ee35 95f0 2a36 278e 2e32
00000080: 93ee e334 37b9 a535 e270 3435 29f0 0536
00000090: 286c 2a36 4d30 4432 d658 d834 3c31 2b36
000000a0: 676a 6b32 5c0b 3734 9434 2b36 5c88 6832
000000b0: 16ba 1c34 da43 2b36 4752 6532 8ab0 5734
000000c0: bd0f 2b36 c313 7532 25b6 0c34 2766 2b36
000000d0: d5b0 5a32 7c26 8334 330a 2b36 07e4 7832
000000e0: b860 0034 7cbc 2936 8abb a532 5386 b134
000000f0: d0d9 2a36 f1d4 8232 3981 f033 3962 2436
00000100: d93c 1b33 cf79 0335 b683 2a36 659c 9b32
00000110: 8bfa e833 c362 1436 4438 3034 b978 4b35
00000120: 6d8e 2a36 ef45 a232 da17 de33 b121 e335
00000130: 1c1a b934 08eb 9c35 437c 1235 6124 6f32
00000140: e197 3034 9360 1235 d2b1 7232 2b1e 5134
00000150: 9a8d 1235 433d 6c32 21f6 1934 7f2d 1235
00000160: a571 7d32 5b2f 8134 0e94 1235 cb3b 6c32
00000170: 63dd 0934 5b63 0f35 1687 9932 93f1 a134
00000180: 5d7d 1235 32e9 6332 af1b fc33 c043 e634
00000190: e79a 5733 ff27 c334 9cde 1235 4e14 6432
000001a0: 2fd0 e933 b711 ae34 1ec5 ec33 3b24 e434
000001b0: e5e0 1235 3c3e 6d32 d35e db33 107f 5034
000001c0: 4d84 6334 24f4 fb34 28d7 1235 3a0a 6032
000001d0: 66dd d033 ad71 1235 bd51 7532 2c4b 4133
000001e0: 8674 1235 4657 7432 d679 2d33 9079 1235
000001f0: e5ea 7332 57b9 5933 d671 1235 2576 7732
00000200: ab09 2133 078d 1235 53a5 7032 bd2e 7d33
00000210: 926b 1235 9d32 7832 eca7 1733 2ef0 1135
00000220: 4384 7c32 cbbe 9e33 637a 1235 ff6b 7732
00000230: 2d48 1033 2277 0f35 6153 8c32 08af dd33
00000240: b673 1235 3fab 7c32 30ef 0b33 7555 0835
00000250: ad86 f332 7f7c 1d34 5260 1235 8af7 7f32
00000260: 5ea5 0833 7f5d de34 c5d1 7133 77d2 7034
00000270: b317 7937 c7a9 0535 0dd1 a036 9dde 7837
00000280: 18af 0835 4286 ba36 e133 7937 60ec 0435
00000290: ce7b 8e36 d6a6 7837 1b36 0d35 fb5f e036
000002a0: 4e42 7937 471a 0535 982e 8136 3df5 7337
000002b0: c99f 2135 357d 0737 565e 7937 4f6b ef34
000002c0: 424b 6e36 ecbb 4e37 e491 a335 8198 1f37
000002d0: eb87 7c37 738a d434 c84d 5d36 8466 2937
000002e0: c41e 1a36 1c04 3937 db5a 7d37 776b e134
000002f0: c33f 4f36 c189 e736 6fc9 9436 400f 4e37
00000300: 1b1b 7d37 4bad ce34 b00f 4536 ee0c 7937
00000310: 9a5f 0935 642d a835 7911 7937 8e78 0835
00000320: cd60 9735 7811 7937 8a04 0935 59c5 bc35
00000330: 450e 7937 48df 0835 7703 8d35 ee25 7937
00000340: 63c0 0735 462a db35 ed07 7937 9b28 0935
00000350: c38e 8535 7ba5 7737 b1fb 0e35 875e 0c36
00000360: 3128 7937 d0c5 0835 b4a7 7f35 2f90 7137
00000370: 8d53 2335 9fe0 4836 c921 7937 e947 0a35
00000380: 7d51 7835 72ab 5c37 f5d9 ac35 a90f 9936
00000390: 7706 7937 e59c 0b35 8712 7335 3696 2a37
000003a0: b690 1836 3cdf e936 5a96 df34 a91d 9033
000003b0: 32ec 4434 6e2c df34 8211 9133 f43e 5c34
000003c0: 90ca df34 b083 8f33 1780 3434 a613 de34
000003d0: bc50 9433 ee47 7f34 e4eb df34 879f 8e33
000003e0: b7d4 2834 59a0 db34 fc5e 9d33 e61a 9634
000003f0: 1965 e034 ca6e 8833 5138 2034 83e8 b834

exp_avg f4 [128]
-0.001249469 -0.00046796814 0.0028825135 -0.00047878874 -0.00058076123 0.0010769919 0.00033233472 0.0004987696
0.0024041217 0.0008537126 1.4866607e-05 -0.0014093299 -0.0016461922 0.0024873714 -0.00028957255 0.0013830226
-0.0011414572 -0.0013817847 6.482322e-06 -0.00019552173 -0.0002161891 0.0013397681 0.00046928387 0.0014802298
0.0008296411 0.0020675596 0.00018181877 -0.0011123294 0.00022535851 -0.0011636574 -9.8478e-07 0.0005464371
-0.0007467051 0.001252455 0.00058524555 0.0002576842 0.0014118957 0.0009593013 -0.00068591424 0.0022442744
-0.0017184735 -0.0027900282 0.0021782902 -0.0006128956 0.0015660166 -0.00092264503 -0.0002438445 -0.0032427215
0.0015769833 -0.0018302718 0.0031889065 0.002030208 0.0012393104 0.0019664825 -0.0003591938 -0.00032085594
-9.561212e-05 -0.0030486165 -0.000600409 0.0021220788 0.000527331 0.00031485382 -0.0003456671 0.0015328397
0.0024568827 -1.3707234e-05 -0.0009895384 0.0026952203 -0.0020637834 -0.0025387877 -0.0010351749 0.0011587405
-0.0026602107 -0.0006323391 3.6656877e-07 -4.0145507e-05 1.1224975e-05 -0.0008480583 1.5499381e-05 -0.0011828486
7.110128e-05 -0.0019193043 -2.071127e-05 0.00017715458 0.00014863047 -6.1838924e-05 0.00022864928 0.0024818683
-0.0006068635 -6.775823e-05 9.8740855e-08 4.406474e-05 0.00020030783 -0.002763439 6.2056664e-05 0.0006144008
-7.09884e-05 0.0016881041 6.178017e-05 -0.0005364521 -0.001798095 -9.781345e-06 6.757039e-05 -0.00078052416
-0.003139585 0.00021967117 0.0006735169 0.0010760705 -0.001242003 0.00087961403 0.00061090116 5.5931287e-06
0.0010277901 -0.0027188186 -5.356293e-05 -5.1252073e-06 0.0019532796 0.00028090103 -0.00058986444 2.7544564e-05
7.974768e-05 -1.7523918e-05 5.221414e-07 6.1413106e-05 0.00024319696 0.0009693719 -1.7514356e-05 -0.0025662733
00000000: 39c5 a3ba 9f59 f5b9 8de8 3c3b f005 fbb9
00000010: 3a3e 18ba da29 8d3a 363d ae39 dcbf 023a
00000020: 788e 1d3b afcb 5f3a 976b 7937 44b9 b8ba
00000030: 0bc5 d7ba 2b03 233b c5d1 97b9 8a46 b53a
00000040: f39c 95ba 001d b5ba b982 d936 f704 4db9
00000050: d2b0 62b9 289b af3a 370a f639 4504 c23a
00000060: 467c 593a e57f 073b 9ba6 3e39 95cb 91ba
00000070: 374e 6c39 dd85 98ba c82c 84b5 c63e 0f3a
00000080: 88be 43ba 6b29 a43a 2a6b 193a ca19 8739
00000090: 5c0f b93a 9f79 7b3a edce 33ba ad14 133b
000000a0: 673e e1ba e8d8 36bb a5c1 0e3b baaa 20ba
000000b0: cc42 cd3a a9dd 71ba 82b0 7fb9 d783 54bb
000000c0: c7b2 ce3a bbe5 efba f9fc 503b 3d0d 053b
000000d0: 5b70 a23a 1ae0 003b 2d52 bcb9 8e38 a8b9
000000e0: 5e83 c8b8 4ccb 47bb c464 1dba 9312 0b3b
000000f0: 963c 0a3a f712 a539 a73a b5b9 91e9 c83a
00000100: a703 213b 1ff8 65b7 66b3 81ba 4ba2 303b
00000110: 8a40 07bb ca61 26bb b5ae 87ba e1e0 973a
00000120: ee56 2ebb 8fc3 25ba d4cc c434 e961 28b8
00000130: e752 3c37 3b50 5eba ab04 8237 d009 9bba
00000140: 361c 9538 2a91 fbba 1dbd adb7 92c2 3939
00000150: b0d9 1b39 85af 81b8 93c1 6f39 d7a6 223b
00000160: ec15 1fba 6c19 8eb8 5c0b d433 28d2 3838
00000170: b909 5239 d01a 35bb 6b24 8238 bd0f 213a
00000180: 9bdf 94b8 6043 dd3a fa8f 8138 b1a0 0cba
00000190: 0eae ebba 8f1a 24b7 94b4 8d38 179c 4cba
000001a0: 7fc1 4dbb 8857 6639 f48e 303a ef0a 8d3a
000001b0: b5ca a2ba e695 663a e224 203a 9cac bb36
000001c0: eab6 863a 352e 32bb c2a8 60b8 32f9 abb6
000001d0: 9802 003b e645 9339 22a1 1aba 800f e737
000001e0: 363e a738 5400 93b7 4929 0c35 e9ca 8038
000001f0: b002 7f39 721d 7e3a cbeb 92b7 ec2e 28bb

exp_avg_sq f4 [128]
2.5678935e-06 5.603937e-07 1.5374962e-05 4.928792e-07 1.1921592e-06 1.5023505e-06 5.194032e-07 4.29573e-07
9.435369e-06 1.2582332e-06 1.3396958e-08 3.3203912e-06 4.052447e-06 1.0652883e-05 4.0366183e-07 3.0853655e-06
3.6050374e-06 2.795798e-06 1.394938e-08 1.5831444e-07 2.8235294e-07 3.2564478e-06 3.9757418e-07 4.36206e-06
1.037864e-06 6.570606e-06 7.062019e-08 1.2087997e-06 3.9022734e-07 2.528962e-06 3.291618e-09 3.4936699e-07
8.470653e-07 2.4805893e-06 8.072097e-07 9.197479e-08 2.9896967e-06 1.0927636e-06 1.6184963e-06 1.0079927e-05
5.2474156e-06 8.029494e-06 7.691383e-06 9.2352536e-07 6.2312643e-06 1.9124952e-06 3.883492e-08 1.544062e-05
4.2423376e-06 5.1867805e-06 1.9771875e-05 8.836565e-06 1.7128608e-06 6.3608213e-06 1.3146985e-07 6.2401114e-07
4.0255422e-08 1.5377567e-05 6.752732e-07 6.8713093e-06 2.8995012e-07 3.2841857e-07 1.1108549e-06 4.199977e-06
1.1304592e-05 4.0595722e-08 1.4430838e-06 1.3362366e-05 8.5018e-06 1.2897251e-05 1.8303571e-06 2.393173e-06
1.3545805e-05 1.0242072e-06 5.4139804e-09 5.0341686e-08 4.112858e-08 1.2016324e-06 3.0244326e-08 1.5725277e-06
2.4348577e-07 6.547084e-06 1.6677585e-09 4.242547e-08 2.461932e-08 5.2860194e-08 1.8634277e-07 9.2249475e-06
1.8431043e-06 4.7830927e-08 9.446057e-10 1.5812867e-08 6.161594e-08 9.940144e-06 1.9871488e-08 6.8957286e-07
1.6252818e-07 4.770653e-06 7.5199065e-09 3.2794213e-07 3.7183977e-06 1.0594363e-09 1.3294743e-07 2.366924e-06
1.5121529e-05 1.3881547e-07 7.720962e-07 2.438915e-06 3.1195768e-06 1.0910813e-06 5.895402e-07 5.4217068e-08
2.7386973e-06 1.38059195e-05 2.5528271e-08 6.969278e-10 7.29304e-06 1.8629522e-07 9.1805884e-07 1.0366378e-09
1.3077054e-07 8.266307e-10 9.7859e-09 2.7546388e-08 1.5972368e-07 1.4237716e-06 1.7457564e-09 1.0134895e-05
00000000: 1354 2c36 f66d 1635 7bf9 8037 674e 0435
00000010: 4702 a035 5fa4 c935 1e6d 0b35 10a0 e634
00000020: 9a4c 1e37 90e0 a835 7228 6632 e3d3 5e36
00000030: 41fa 8736 c9b9 3237 dcb6 d834 2d0e 4f36
00000040: 12ee 7136 729f 3b36 06a6 6f32 24fd 2934
00000050: 4b96 9734 5989 5a36 2e72 d534 cf5d 9236
00000060: bc4c 8b35 1379 dc36 dca7 9733 0b3e a235
00000070: 7080 d134 3db7 2936 c232 6231 a290 bb34
00000080: e261 6335 3378 2636 07af 5835 ad83 c533
00000090: 99a2 4836 12ab 9235 1c3b d935 f51c 2937
000000a0: f512 b036 6ab6 0637 3d0a 0137 2ee8 7735
000000b0: 2716 d136 6b58 0036 72cb 2633 7b86 8137
000000c0: 6759 8e36 1b0a ae36 c7db a537 c240 1437
000000d0: 73e5 e535 0a6f d536 282a 0d34 b881 2735
000000e0: 4ee5 2c33 13ff 8037 6c44 3535 1990 e636
000000f0: 71aa 9b34 8151 b034 af18 9535 87ed 8c36
00000100: daa8 3d37 785b 2e33 fbaf c135 ed2e 6037
00000110: f4a2 0e37 4561 5837 97aa f535 669a 2036
00000120: ca42 6337 7e77 8935 e005 ba31 4537 5833
00000130: 5aa5 3033 c647 a135 fde5 0133 a40f d335
00000140: 6eb8 8234 06af db36 0937 e530 4c37 3633
00000150: 757a d332 6608 6333 8315 4834 d9c4 1a37
00000160: 9560 f735 a96e 4d33 5cd3 8130 ddd4 8732
00000170: b951 8433 98c4 2637 ddb1 aa32 161b 3935
00000180: 6883 2e34 9913 a036 e630 0132 0610 b034
00000190: 9689 7936 9a9b 9130 50c0 0e34 72d7 1e36
000001a0: 79b2 7d37 4e0d 1534 0c42 4f35 3eac 2336
000001b0: ec59 5136 4571 9235 e540 1e35 4cdc 6833
000001c0: 76ca 3736 f99f 6737 4349 db32 ef91 3f30
000001d0: bdb6 f436 7108 4834 8670 7635 7379 8e30
000001e0: ef69 0c34 f738 6330 d81e 2832 269f ec32
000001f0: 8380 2b34 6b18 bf35 58ef ef30 0b09 2a37
