Results/test15/Doughnut.onnx (onnx, 109697 bytes, 6 tensors)

action_model._discrete_distribution.branches.0.bias f4 [2]
0.0042791497 -0.0042791497
00000000: 1c38 8c3b 1c38 8cbb

action_model._discrete_distribution.branches.0.weight f4 [2, 128]
0.0009971171 0.018057192 -0.022100063 -0.00167365 -0.0039913724 -0.0135721285 -0.005849644 0.00019982336
-0.007890473 0.027331144 -0.006276316 0.0056089032 0.0020266767 0.009463387 0.0020442002 -0.0018221287
-0.022219852 0.0010785437 -0.008082109 0.0035093585 0.0028353808 0.013870325 -0.0025099977 -0.01048311
-0.0042123874 -0.0016857801 -0.02108354 -0.00010818683 0.0006351578 -0.0124729965 0.0035484252 -0.0035958323
0.015398394 -0.005232645 -0.004111004 0.011684349 0.013650996 -0.005676459 -0.0013537247 -0.00594993
-0.013814636 -0.010509142 -0.013356612 -0.0070627667 0.012331573 -0.0021084098 -0.010955874 -0.009653666
0.011777859 -0.0105855735 -0.0018756208 -0.012979125 -0.0103256535 0.015703313 0.004247397 0.0022582547
-0.009046268 0.0001990043 -0.01853462 -0.010702111 0.007928902 -0.008199414 0.008451717 -0.0019567949
0.002617972 -0.0066069285 -0.0063564493 0.0013348168 -0.010775797 -0.013098426 0.0029189545 0.011467855
0.029153494 -0.014090636 -0.010965118 0.021372488 0.0073570814 0.0057449182 0.023050373 -0.020579765
8.0707396e-05 -0.009233601 -0.012719465 0.00037494578 -0.0067661842 -0.011694753 -0.011272826 -0.0059786593
-0.020824105 0.0136578325 -0.0038136228 -3.9315768e-05 -0.009661134 0.002773322 -0.0054842904 -0.011485901
-0.012185905 0.012353853 0.009135436 0.014169024 0.01705623 0.02278126 -0.0041927896 0.007097552
-0.013334953 0.002010069 0.0064338036 -1.393395e-05 -0.002311721 0.002217596 -0.015741345 0.015494873
0.00047556072 0.004793022 -0.004557838 -0.0057917577 -0.00058235886 -0.0069039147 0.0019541064 0.013983063
0.0044709896 -0.008810633 -0.003954518 -0.013038657 0.016485017 -0.006468002 0.006063393 -0.0031272254
0.01186736 -0.018849388 0.011969834 -0.0025027744 0.013809687 -0.010209101 0.010842223 -0.012726497
-7.7999444e-05 -0.0015893219 0.005932007 -0.008303614 -0.001246109 -0.003872929 0.0005093711 -0.0025462515
0.0021662407 0.023111857 0.006707761 -0.0050637675 -0.0073053157 0.0015622474 0.0041044946 0.004486444
0.010853118 0.00089598185 0.020257417 0.010501386 -0.0024457127 0.004659399 0.003560796 0.015511499
-0.0056160293 -0.008745287 0.0029194842 -0.0024330372 -0.008759383 -0.0047602784 0.0023122292 0.013629608
0.0018100636 -0.0017561634 -0.00042564224 -0.005831761 -0.004421192 0.011756795 -0.003379722 0.0017491607
-0.008762417 -4.586244e-05 5.7055313e-05 0.009494033 -0.0023290557 0.007166809 -0.015330439 0.0060394974
9.240009e-06 0.005618228 0.0043761274 -0.01770177 0.005263139 -0.009816527 -0.015618936 -0.013343301
0.008635734 0.00310972 -0.013315581 -0.0069522224 -0.002317438 -0.0061607533 -0.014781725 -0.009925542
-0.017775789 0.0050378023 0.0068578906 -0.016248722 0.000107341744 -0.00030092523 -0.0067133354 -0.0093025435
-0.006181474 0.001690444 0.00443746 -0.003691873 0.01052889 -0.0049894806 -0.0014243406 -0.0010122402
-0.009368786 -0.014719161 -0.0011382145 -0.0034534496 0.023228457 -0.006970411 -0.010118238 -0.0011575428
-0.0048053684 -0.0060819527 0.0037392743 -0.0015325546 -0.0055739116 -0.00074349623 0.0064450568 -0.0050865766
-0.0016701565 -0.01977749 -0.0044836435 -0.0015263098 -0.0034182663 0.0034308592 0.01697363 -0.0075809164
-0.0010393461 -0.0064234613 -0.00027188993 -0.0029832383 -0.0010472734 0.0060506207 0.0004065027 -0.0072024628
0.019459696 -0.0005505501 0.0010388755 -0.0044850353 0.005476984 -0.002193878 0.011289925 0.012307184
00000000: b3b1 823a adec 933c 310b b5bc 605e dbba
00000010: 0fca 82bb a25d 5ebc 5fae bfbb ad87 5139
00000020: 0b47 01bc 90e5 df3c 8ea9 cdbb e4ca b73b
00000030: fed1 043b 520c 1b3c fdf7 053b 7ed4 eeba
00000040: 6806 b6bc ec5d 8d3a d26a 04bc 44fd 653b
00000050: ccd1 393b 5c40 633c c67e 24bb 5ac1 2bbc
00000060: 1108 8abb 65f5 dcba 63b7 acbc 5de2 e2b8
00000070: b880 263a 8a5b 4cbc b28c 683b 0ea8 6bbb
00000080: 8c49 7c3c 9c76 abbb 9ab5 86bb b66f 3f3c
00000090: 6da8 5f3c 9701 babb 776f b1ba a1f7 c2bb
000000a0: c856 62bc 892e 2cbc b1d5 5abc c86e e7bb
000000b0: 5e0a 4a3c 3f2d 0abb 4480 33bc 692a 1ebc
000000c0: ecf7 403c 1d6f 2dbc 64d7 f5ba 65a6 54bc
000000d0: ee2c 29bc 3ca4 803c c02d 8b3b 3aff 133b
000000e0: cc36 14bc cfab 5039 ead5 97bc e857 2fbc
000000f0: 3ae8 013c d656 06bc 1279 0a3c 923d 00bb
00000100: 4892 2b3b ef7e d8bb c349 d0bb 05f5 ae3a
00000110: f88c 30bc c89a 56bc ee4b 3f3b ace3 3b3c
00000120: 4fd3 ee3c 69dc 66bc 0aa7 33bc 5b15 af3c
00000130: ac13 f13b de3f bc3b 23d4 bc3c e596 a8bc
00000140: 7441 a938 8848 17bc 4e65 50bc 5f94 c439
00000150: deb6 ddbb 599b 3fbc a9b1 38bc a1e8 c3bb
00000160: 5097 aabc 1ac5 5f3c f9ed 79bb fce6 24b8
00000170: bc49 1ebc 9fc0 353b 90b5 b3bb 5c2f 3cbc
00000180: 64a7 47bc d167 4a3c ccac 153c 3225 683c
00000190: 82b9 8b3c c49f ba3c ab63 89bb 9592 e83b
000001a0: d97a 5abc 5dbb 033b a8d2 d23b dcc5 69b7
000001b0: 3e80 17bb 1655 113b fef3 80bc 35de 7d3c
000001c0: ae54 f939 c80e 9d3b eb59 95bb c9c8 bdbb
000001d0: 71a9 18ba 3c3a e2bb 7710 003b 3819 653c
000001e0: 6181 923b 795a 10bc e794 81bb 17a0 55bc
000001f0: 960b 873c 89f1 d3bb 6daf c63b 23f2 4cbb
00000200: 516f 423c 086a 9abc 1f1d 443c 9605 24bb
00000210: 0742 623c 1344 27bc 94a3 313c cc82 50bc
00000220: a293 a3b8 cb50 d0ba 4861 c23b e20b 08bc
00000230: 7b54 a3ba f7d0 7dbb 5187 053a 03df 26bb
00000240: 7df7 0d3b 1455 bd3c c7cc db3b f6ed a5bb
00000250: 6e61 efbb 53c4 cc3a ff7e 863b 0503 933b
00000260: 47d1 313c 53e0 6a3a e2f2 a53c 010e 2c3c
00000270: 4048 20bb dfad 983b 3e5c 693b f123 7e3c
00000280: ab06 b8bb 6448 0fbc d154 3f3b 9773 1fbb
00000290: 8483 0fbc 1cfc 9bbb c588 173b b84e 5f3c
000002a0: a83f ed3a 112f e6ba bc28 dfb9 5b18 bfbb
000002b0: a6df 90bb 939f 403c 537e 5dbb 1844 e53a
000002c0: 3e90 0fbc 6c5c 40b8 ad4e 6f38 dc8c 1b3c
000002d0: 12a3 18bb 8dd7 ea3b 862c 7bbc fae6 c53b
000002e0: 8905 1b37 1d19 b83b 9e65 8f3b 4d03 91bc
000002f0: 6976 ac3b 80d5 20bc 91e6 7fbc dc9d 5abc
00000300: e57c 0d3c 72cc 4b3b 9829 5abc 78cf e3bb
00000310: 28e0 17bb 25e0 c9bb 0c2f 72bc be9e 22bc
00000320: 889e 91bc 2614 a53b 28b8 e03b 0a1c 85bc
00000330: a91c e138 80c5 9db9 8afb dbbb b269 18bc
00000340: f68d cabb e391 dd3a 1d68 913b 5af3 71bb
00000350: 5e81 2c3c cc7e a3bb f1b0 baba 25ad 84ba
00000360: 897f 19bc a328 71bc 2430 95ba 4553 62bb
00000370: 9b49 be3c 0c68 e4bb f7c6 25bc b1b8 97ba
00000380: 5a76 9dbb 1e4b c7bb 9d0e 753b 00e0 c8ba
00000390: 5ca5 b6bb 30e7 42ba 0e31 d33b 4cad a6bb
000003a0: 27e9 daba 6704 a2bc 87eb 92bb 750e c8ba
000003b0: fe04 60bb 44d8 603b 480c 8b3c 5669 f8bb
000003c0: ab3a 88ba e67b d2bb 738c 8eb9 6f82 43bb
000003d0: aa44 89ba 4944 c63b de1f d539 a302 ecbb
000003e0: f169 9f3c cb52 10ba e12a 883a 34f7 92bb
000003f0: 4678 b33b 2ac7 0fbb 61f9 383c 12a4 493c

network_body._body_endoder.seq_layers.0.bias f4 [128]
-0.003384988 0.004168397 -0.0050103446 0.005883569 -0.004145949 0.0008123002 -0.0041067763 -0.0024047976
-0.0010552314 0.0024727425 0.0025961732 -0.004196139 0.0059097684 0.0041248715 0.004185316 0.0042412463
0.004140016 -0.003392099 -0.0015763937 0.0062044077 0.003734532 0.004209708 0.0010214479 0.00044292893
-0.004182457 -0.0041184435 -0.0044327606 0.004579841 0.004149539 0.0050556227 -0.004245239 0.0045807306
-0.004307092 -0.003976893 0.0038980045 0.0024494352 0.0011980732 -0.0040614256 -0.0013254666 0.0052331705
0.0039623715 0.0038556946 -0.0020663193 -0.004327033 0.0036558318 0.0057913894 -0.0043173623 -0.0040070317
-0.00433788 -0.0047163637 0.0040919296 0.002545703 -0.0041387123 -0.0039438903 0.0039366814 -0.0047800164
0.0021345369 0.0041021253 -0.004440184 0.0022284193 0.004287032 -0.004357428 -0.0041210516 0.0030673228
-0.0041623 0.0056910156 -0.004489258 0.004169972 -0.004125511 0.0036909208 -0.0042973314 0.004903218
0.0040793987 -0.00036425857 0.0027022136 -0.0039513176 0.0014308327 0.0040682745 0.0045941593 0.0040774546
-0.004339044 0.0040352317 -0.0046158424 0.0041815913 -0.0044087023 -0.004288178 0.00048073026 0.0040365253
0.0041106776 -0.004335215 0.0030070771 -0.0034058813 0.005138493 -0.0048354873 -0.004090735 0.0031701985
-0.0040379805 0.0018519524 0.004200314 0.004938487 0.0040623504 -0.0023030876 0.004327793 -0.004176547
-0.004115883 -0.0042381603 -0.0039386703 -0.004776133 0.0038545227 0.0040745554 0.003957942 -0.004409072
0.0041056084 0.0041227927 -0.0037898743 -0.00046391148 0.00403995 -0.004027591 0.0022720029 0.0051312977
0.0041666813 -0.004281709 0.004036724 -0.0039659203 0.0050205328 -0.00411069 -0.0022437198 0.0041224565
00000000: add6 5dbb 0c97 883b d12d a4bb f4ca c03b
00000010: beda 87bb 8bf0 543a 2392 86bb cf99 1dbb
00000020: b14f 8aba bc0d 223b 8f24 2a3b c47f 89bb
00000030: bba6 c13b ee29 873b fa24 893b 27fa 8a3b
00000040: f9a8 873b fa4d 5ebb ff9e ceba 584e cb3b
00000050: 0dbf 743b 97f1 893b 1be2 853a ea38 e839
00000060: fe0c 89bb 02f4 86bb b140 91bb 7e12 963b
00000070: dbf8 873b a3a9 a53b a51b 8bbb f419 963b
00000080: 8222 8dbb 9950 82bb aa75 7f3b b486 203b
00000090: aa08 9d3a b515 85bb 47bb adba 047b ab3b
000000a0: c8d6 813b d2af 7c3b 166b 07bb c9c9 8dbb
000000b0: ae96 6f3b b2c5 bd3b a978 8dbb 6b4d 83bb
000000c0: c624 8ebb ba8b 9abb 9815 863b cfd5 263b
000000d0: 099e 87bb c03b 81bb 47ff 803b afa1 9cbb
000000e0: 96e3 0b3b 1f6b 863b f77e 91bb ac0a 123b
000000f0: 3b7a 8c3b c1c8 8ebb e309 87bb 2305 493b
00000100: e763 88bb b37b ba3b a01a 93bb 43a4 883b
00000110: 4b2f 87bb 60e3 713b a1d0 8cbb 2cab a03b
00000120: 7aac 853b f5f9 beb9 9f17 313b 0e7a 81bb
00000130: c78a bb3a 294f 853b 9a8a 963b 2b9c 853b
00000140: 8a2e 8ebb fa39 843b 7e40 97bb bb05 893b
00000150: e076 90bb d883 8cbb 860a fc39 d444 843b
00000160: ddb2 863b 6b0e 8ebb 6212 453b 3535 5fbb
00000170: ce60 a83b 0273 9ebb 930b 86bb 1bc3 4f3b
00000180: 0951 84bb 36bd f23a caa2 893b 08d3 a13b
00000190: 771d 853b 66ef 16bb 29d0 8d3b 6adb 88bb
000001a0: 87de 86bb 44e0 8abb f60f 81bb 1c81 9cbb
000001b0: 299c 7c3b d983 853b a0b1 813b fa79 90bb
000001c0: 5788 863b 7e18 873b 8a5f 78bb 2539 f3b9
000001d0: 8f61 843b e2f9 83bb e2e5 143b 7224 a83b
000001e0: a888 883b 944d 8cbb 7f46 843b 8df4 81bb
000001f0: 4883 a43b f8b2 86bb 5f0b 13bb ac15 873b

network_body._body_endoder.seq_layers.0.weight f4 [128, 78]
-0.039419305 0.00033010537 -0.052414227 0.0108740395 -0.27534983 -0.0367274 0.052279774 0.1043852
0.052707862 -0.2460798 -0.022801945 0.10943145 -0.08675049 0.18490791 -0.12814015 0.0018810793
0.04743642 -0.058617618 0.024950787 -0.16895871 0.04552255 0.06538194 -0.14631617 -0.06614461
0.022259893 -0.052774537 -0.0062854043 -0.09833209 0.15043172 -0.078216605 -0.008112494 -0.04164596
-0.11569981 -0.17059779 0.084852874 -0.096549936 -0.06895485 0.14022775 -0.11861828 0.14744349
-0.13595511 -0.113674745 0.054954235 -0.020429816 -0.14813046 0.05967101 -0.0829758 -0.2470906
-0.07286146 0.24954668 0.3825435 -0.061485663 -0.062146783 -0.15935485 -0.0125561645 -0.044562187
-0.17479312 0.14376722 -0.24165243 -0.14052096 -0.19555283 0.047334418 0.06987388 -0.14660688
0.086048275 0.06018473 -0.016442504 -0.0154582495 -0.13913746 -0.09257999 0.055490345 -0.0009449196
-0.14557332 -0.19561435 -0.045436073 -0.081123754 -0.08679358 0.09650838 0.067865685 -0.07257914
-0.04720165 0.01457965 0.06606986 -0.056767337 0.022878397 0.042267073 -0.020085737 0.1850141
0.008763464 -0.045555662 0.059746612 -0.019599762 0.03731204 0.08905541 -0.05729035 0.100240715
-0.13901098 0.24299319 0.1161739 -0.07656549 -0.0042637265 0.1783342 -0.37431973 0.13482255
-0.03948914 0.046263732 -0.06657398 -0.10156024 0.029557703 0.28185102 0.15365198 -0.043378916
0.14739265 -0.1275045 0.028437296 0.07401639 -0.05630989 0.026531577 -0.11276709 -0.011310591
0.01700716 0.1831598 0.0658163 0.061355475 -0.16765931 0.083468795 -0.041576944 0.03447092
-0.12222389 0.2550628 -0.16951989 -0.057085548 0.04927078 -0.019879563 -0.088421404 -0.0674853
-0.061301857 0.17555542 0.10386867 0.0841924 -0.0975417 -0.07210925 0.13934836 -0.008053929
0.07826407 -0.08638085 -0.06563636 -0.045593508 -0.029026601 0.10690499 0.129518 -0.15030032
0.045681085 0.4003193 0.008549073 0.059103563 -0.06688111 -0.03529822 -0.030830925 0.011895421
-0.31859714 0.16137497 0.06940605 -0.29241276 -0.021718467 0.11257918 0.0637097 0.30369234
0.026688213 -0.04409091 0.0315744 -0.04211424 0.14495891 0.11936545 0.10685716 -0.011308322
0.0160964 0.03505815 0.03448526 0.03325775 -0.15257147 -0.16344698 -0.024506642 -0.11254419
-0.20492147 0.10155474 0.04052311 0.09923348 0.0087076165 0.10411205 -0.13291687 -0.11280456
-0.11753785 -0.091939226 -0.15016574 0.07854938 -0.19433072 0.117692076 -0.12468893 -0.17595233
-0.073578306 -0.1854613 -0.013069193 -0.19444369 0.0011930091 0.029788539 -0.13107632 -0.05091687
-0.021248875 -0.22942768 0.039367262 0.037935082 -0.054713298 -0.06229902 0.06368979 0.2580864
-0.011711392 -0.036658466 -0.10467657 -0.049062833 0.0465883 0.10171198 -0.10940052 -0.08754647
-0.044202905 -0.16592695 0.035451654 0.05073459 0.16978511 -0.037725635 0.13603434 -0.080941625
-0.08736475 -0.06298806 0.03201258 0.038711898 -0.18736777 0.28238195 -0.017154768 -0.07927846
0.25737727 -0.047753736 -0.0507583 0.102029316 0.018812047 -0.045185678 -0.026182694 0.017933566
-0.14238828 -0.15838957 -0.052778628 -0.09652881 -0.09339301 -0.12337071 0.11770473 -0.023127226
00000000: 2376 21bd fe11 ad39 4db0 56bd 0729 323c
00000010: a7fa 8cbe 786f 16bd 5123 563d e8c7 d53d
00000020: 33e4 573d 58fc 7bbe 25cb babc 991d e03d
00000030: 3eaa b1bd 8058 3d3e 2c37 03be 8c8e f63a
00000040: b14c 423d 0719 70bd 9865 cc3c 8303 2dbe
00000050: da75 3a3d f7e6 853d e8d3 15be d376 87bd
00000060: 615a b63c 1d2a 58bd cbf5 cdbb 5662 c9bd
00000070: c60a 1a3e 0730 a0bd 44ea 04bc f494 2abd
00000080: 06f4 ecbd 30b1 2ebe 58c7 ad3d f9bb c5bd
00000090: 3338 8dbd dd97 0f3e 24ee f2bd 6dfb 163e
000000a0: d137 0bbe 4ece e8bd b117 613d 6e5c a7bc
000000b0: 83af 17be 9769 743d 37ef a9bd 5105 7dbe
000000c0: 6438 95bd 2a89 7f3e bedc c33e 64d8 7bbd
000000d0: a08d 7ebd eb2d 23be 5fb8 4dbc d786 36bd
000000e0: f8fc 32be b737 133e bc73 77be bae4 0fbe
000000f0: 003f 48be bce1 413d 091a 8f3d 1d20 16be
00000100: 143a b03d 4384 763d 6eb2 86bc 9944 7dbc
00000110: 0d7a 0ebe 949a bdbd d849 633d 7bb4 77ba
00000120: 2c11 15be 214f 48be 2d1b 3abd 3624 a6bd
00000130: d5c0 b1bd 2fa6 c53d 2afd 8a3d 5fa4 94bd
00000140: 8456 41bd 7cdf 6e3c a24f 873d de84 68bd
00000150: 7a6b bb3c 3d20 2d3d d88a a4bc 5674 3d3e
00000160: a294 0f3c 9398 3abd ddb8 743d ae8f a0bc
00000170: 82d4 183d af62 b63d 49a9 6abd 014b cd3d
00000180: e558 0ebe 35d3 783e 95ec ed3d 5ece 9cbd
00000190: bbb6 8bbb 3e9d 363e d6a6 bfbe ec0e 0a3e
000001a0: 5dbf 21bd 0a7f 3d3d f057 88bd d1fe cfbd
000001b0: ff22 f23c c74e 903e f256 1d3e 17ae 31bd
000001c0: 19ee 163e 8a90 02be 55f5 e83c e895 973d
000001d0: 33a5 66bd c058 d93c 6ff2 e6bd 0f50 39bc
000001e0: 9952 8b3c 3e8e 3b3e b2ca 863d e14f 7b3d
000001f0: e2ae 2bbe b0f1 aa3d 964c 2abd 6131 0d3d
00000200: 8550 fabd 9797 823e 9f96 2dbe 89d2 69bd
00000210: 28d0 493d 77da a2bc 4816 b5bd bc35 8abd
00000220: a817 7bbd cdc4 333e 19b9 d43d 116d ac3d
00000230: f1c3 c7bd 04ae 93bd 56b1 0e3e a0f4 03bc
00000240: ea48 a03d 71e8 b0bd 5b6c 86bd 42c0 3abd
00000250: 32c9 edbc 01f1 da3d 5ea0 043e 54e8 19be
00000260: 171c 3b3d a7f6 cc3e 6911 0c3c 9416 723d
00000270: f7f8 88bd de94 10bd 2391 fcbc 03e5 423c
00000280: 2a1f a3be 7b3f 253e c224 8e3d 20b7 95be
00000290: edea b1bc ea8f e63d 3b7a 823d 907d 9b3e
000002a0: 3da1 da3c ac98 34bd 2854 013d fb7f 2cbd
000002b0: 1c70 143e e075 f43d edd7 da3d 8a46 39bc
000002c0: 99dc 833c 2299 0f3d 6a40 0d3d 4739 083d
000002d0: b23b 1cbe a55e 27be 27c2 c8bc 917d e6bd
000002e0: efd6 51be eefb cf3d 90fb 253d ec3a cb3d
000002f0: 64aa 0e3c b338 d53d 5c1b 08be 1406 e7bd
00000300: afb7 f0bd a24a bcbd 0cc5 19be 7fde a03d
00000310: a2fe 46be 8b08 f13d e95c ffbd d92c 34be
00000320: 39b0 96bd 91e9 3dbe 2b20 56bc 3f1c 47be
00000330: be5e 9c3a 1807 f43c df38 06be 358e 50bd
00000340: 1f12 aebc 17ef 6abe 913f 213d d161 1b3d
00000350: 0d1b 60bd 422d 7fbd cb6f 823d e723 843e
00000360: 23e1 3fbc 3027 16bd ab60 d6bd 1cf6 48bd
00000370: 60d3 3e3d 5f4e d03d 610d e0bd 904b b3bd
00000380: 1b0e 35bd c1e8 29be c135 113d 13cf 4f3d
00000390: 26dc 2d3e 3286 1abd 964c 0b3e b9c4 a5bd
000003a0: 4aec b2bd e2ff 80bd a01f 033d 5e90 1e3d
000003b0: 56dd 3fbe 5e94 903e 2888 8cbc bf5c a2bd
000003c0: f4c6 833e 6c99 43bd efe7 4fbd bff4 d03d
000003d0: b91b 9a3c 9e14 39bd 177d d6bc 6ae9 923c
000003e0: 3cce 11be e030 22be 672e 58bd e6b0 c5bd
000003f0: d644 bfbd c8a9 fcbd 2d0f f13d 4f75 bdbc

network_body._body_endoder.seq_layers.2.bias f4 [128]
-0.004376727 0.0041687624 -0.0044135097 -0.0049220794 -0.004336743 -0.0045041298 -0.0041652815 0.004144501
-0.002229854 0.0042064427 -0.004375663 0.004147028 -0.004138275 0.0041703577 -0.0048318184 -0.004655693
-0.004387326 -0.0048541967 -0.004278871 0.0039328495 0.0045087403 0.0041014585 -0.00027004452 -0.0040017064
-0.0045039267 -0.004368434 -0.004386432 -0.0042143767 -0.0040204152 -0.005346377 -0.004786175 -0.0042679915
0.004099101 0.004703107 -0.0040268907 0.0041034166 0.004089363 0.0044423896 -0.0043373387 -0.004522528
-0.004108283 -0.004135055 -0.005026143 -0.00080573035 0.004351123 -0.004092261 -0.0034177625 -0.004494359
0.0041518947 -0.004611855 0.0045129065 -0.004119595 -0.0040674713 0.0039373925 0.0040788767 0.0031122828
-0.0045095766 0.0025652358 -0.004316015 0.0043883426 0.0030063828 0.005137757 0.004203109 0.004400421
-0.0042642513 -0.004797475 0.0022915388 0.0038725706 -0.00435816 0.0002148443 0.0041198633 0.004203543
0.0042049433 -0.0044723353 -0.004289854 0.004218341 0.0046039326 0.00093236554 0.0042476393 -0.0043678093
0.00024171663 -0.004416683 -0.00432092 0.003929033 -0.004517714 -0.0045461673 -0.0038794826 -0.0034491383
-0.0043062647 0.004142442 0.0039804038 -0.0034558303 -0.004478021 0.004071337 -0.002539091 -0.004412934
-0.0029168173 0.0040865825 -0.0025995427 0.004126406 0.004114446 0.004102364 -0.0042935726 0.004217299
-0.004563958 0.004118268 0.004072081 0.0052096792 -0.0048886226 0.0049460046 -0.004430542 0.0042021372
0.0050558434 0.0041375216 -0.0041805445 -0.00451636 0.005628555 -0.004252972 0.0037486248 0.00425387
-0.0042904895 -0.0025747821 -0.0035321922 -0.0041397163 0.0041043055 -0.0032443388 -0.004391356 -0.004410119
00000000: a66a 8fbb 1d9a 883b 349f 90bb 6549 a1bb
00000010: 3d1b 8ebb 6197 93bb ea7c 88bb 98ce 873b
00000020: be22 12bb 33d6 893b b961 8fbb cbe3 873b
00000030: 5e9a 87bb 7fa7 883b 3b54 9ebb c98e 98bb
00000040: 8fc3 8fbb f40f 9fbb c635 8cbb 22df 803b
00000050: 0ebe 933b 8765 863b c394 8db9 bf20 83bb
00000060: ad95 93bb 1525 8fbb 0fbc 8fbb c118 8abb
00000070: b0bd 83bb a930 afbb 59d5 9cbb 82da 8bbb
00000080: c051 863b 851c 9a3b 02f4 83bb f475 863b
00000090: 1000 863b 7791 913b 3c20 8ebb b731 94bb
000000a0: c79e 86bb 5b7f 87bb 58b2 a4bb a637 53ba
000000b0: dd93 8e3b 6018 86bb 8afc 5fbb 6a45 93bb
000000c0: 9e0c 883b 0b1f 97bb 01e1 933b abfd 86bb
000000d0: 6c48 85bb 3e05 813b 19a8 853b 71f7 4b3b
000000e0: 12c5 93bb 841d 283b 5c6d 8dbb 16cc 8f3b
000000f0: bc06 453b a15a a83b 3cba 893b 6831 903b
00000100: 22bb 8bbb 2334 9dbb a42d 163b f4ca 7d3b
00000110: e5ce 8ebb d447 6139 ebff 863b e0bd 893b
00000120: 9fc9 893b ab8c 92bb e791 8cbb 023a 8a3b
00000130: 96dc 963b fe69 743a c82f 8b3b d71f 8fbb
00000140: 5075 7d39 d3b9 90bb 8196 8dbb 1ebf 803b
00000150: 5509 94bb 04f8 94bb eb3e 7ebb f00a 62bb
00000160: 911b 8dbb 52bd 873b 0c6e 823b 367b 62bb
00000170: 5dbc 92bb da68 853b e166 26bb 609a 90bb
00000180: 1328 3fbb bde8 853b 175d 2abb cd36 873b
00000190: 7ad2 863b 206d 863b 19b1 8cbb 4531 8a3b
000001a0: 418d 95bb 89f2 863b 176f 853b f5b5 aa3b
000001b0: bd30 a0bb 1812 a23b 142e 91bb 15b2 893b
000001c0: 7dab a53b 0c94 873b f3fc 88bb f9fd 93bb
000001d0: be6f b83b 845c 8bbb 7dab 753b 0c64 8b3b
000001e0: 3c97 8cbb adbd 28bb 5a7c 67bb 75a6 87bb
000001f0: 697d 863b f99e 54bb 5de5 8fbb c282 90bb

network_body._body_endoder.seq_layers.2.weight f4 [128, 128]
0.028833883 0.04224345 0.038509123 0.082641676 0.066372626 -0.19368143 -0.027967187 0.0946111
-0.012709062 0.12648824 -0.007920752 -0.05465853 -0.037475344 0.030354667 0.095030025 -0.052718095
-0.050815698 -0.10704606 -0.16499928 0.12100068 -0.040146336 0.13654935 0.043989234 -0.0571348
-0.021601813 0.09319173 -0.06892548 -0.021257285 -0.1075235 0.17001802 -0.034434516 -0.016779447
0.14093266 0.030844405 0.04296577 -0.0050235633 -0.18678015 -0.03679701 -0.01659247 -0.009094557
-0.006731935 -0.002009321 0.023742925 0.056095682 0.033725727 -0.02950189 -0.016715707 0.13873042
0.012195173 -0.04944845 -0.052424967 -0.17866091 -0.23643354 -0.10454782 0.022011323 -0.02552042
0.2037606 -0.056601614 0.038290456 -0.10545311 -0.074117124 0.07442247 -0.12280201 0.042576365
0.03289128 0.06304415 0.071328126 -0.008486148 -0.20696846 -0.12328756 0.14713213 -0.013816006
0.032305922 -0.02978706 -0.107258864 0.054553345 -0.044234987 0.03840369 -0.020741247 -0.10857404
-0.033201057 0.009414837 -0.012171006 -0.091274336 -0.08499436 0.1528758 0.037798103 -0.09125943
-0.20301886 0.041606233 -0.058705926 0.1148738 -0.12719736 0.01780684 -0.13427669 -0.087945454
-0.03626337 0.13150755 0.024287146 0.093862906 -0.020084638 -0.09652508 0.03014796 0.051385853
0.04625052 -0.11336007 -0.041187156 0.10298951 -0.11021564 0.17224225 -0.0031312832 -0.11852809
-0.09097575 -0.16542667 -0.056948587 0.05393075 0.056469887 0.04996741 -0.057876848 0.124615565
0.020291043 -0.09339231 0.03847318 0.012232662 -0.14888741 -0.1298499 0.13910155 -0.1494032
-0.07845792 0.09027714 -0.014492638 0.049683224 0.10613648 0.05786089 0.015149039 -0.05939407
0.019573862 -0.13691378 -0.06367399 0.03191978 -0.06992593 -0.012821801 -0.104875654 0.1260802
0.0013461494 0.031899393 0.08834729 0.02376643 0.1379624 -0.09115113 0.0015076232 0.24465717
0.08770584 0.06776173 0.043800086 0.069659114 0.06960898 -0.033989742 0.032063928 0.042307682
-0.019927843 0.08659923 -0.059014417 -0.13535711 -0.077896334 0.013378055 -0.09256232 -0.089864396
-0.1547962 -0.0015982483 0.049415972 -0.08660164 -0.010504819 0.0672575 -0.07172275 0.009921092
-0.04491371 -0.03004743 -0.1026027 -0.16221042 -0.10396439 0.05047251 0.11411666 0.061240368
-0.043778084 -0.011753611 -0.061194386 0.18314993 0.18292207 0.0452936 0.047966115 0.048521142
0.0041961973 -0.114652894 -0.10773364 0.047172543 0.09394243 -0.020466017 0.005264905 0.038028352
0.06198058 -0.042361844 -0.119287826 -0.11208629 -0.08465786 0.035476334 0.096724465 0.075960204
0.046700727 0.047273353 -0.0078080245 0.14450365 0.013488069 0.27486107 0.04501749 0.21337157
0.0030326906 0.19066992 0.091806896 -0.014786754 0.048150524 -0.13963811 -0.12900312 -0.07537446
0.13448878 0.090929456 0.067358874 0.011846308 0.043126933 0.082375005 0.17147274 0.13623044
-0.18804675 -0.1333332 0.119053535 0.05701116 -0.08226469 0.035505272 0.00039835158 0.05022163
-0.05933125 0.060859066 0.05313448 0.08597779 0.014643825 -0.12103347 -0.16886526 0.042070534
-0.066322595 -0.03785934 -0.08728151 -0.03516812 0.008411375 -0.009047307 0.14458676 0.100988545
00000000: 0935 ec3c 7807 2d3d bebb 1d3d 0a40 a93d
00000010: 5fee 873d 6d54 46be 711b e5bc 77c3 c13d
00000020: ab39 50bc 2286 013e 0bc6 01bc 9fe1 5fbd
00000030: bf7f 19bd 5aaa f83c 1a9f c23d eeee 57bd
00000040: 1f24 50bd f73a dbbd 92f5 28be 34cf f73d
00000050: 7c70 24bd 98d3 0b3e 0e2e 343d 2e06 6abd
00000060: 49f6 b0bc 4edb be3d cd28 8dbd c223 aebc
00000070: 4835 dcbd 3419 2e3e 350b 0dbd 0d75 89bc
00000080: a750 103e 68ad fc3c e0fc 2f3d b49c a4bb
00000090: 4c43 3fbe 76b8 16bd efec 87bc 5601 15bc
000000a0: 9097 dcbb d0ae 03bb 8680 c23c 96c4 653d
000000b0: fd23 0a3d f3ad f1bc 61ef 88bc 590f 0e3e
000000c0: 43ce 473c 758a 4abd 90bb 56bd e3f2 36be
000000d0: a21b 72be 2b1d d6bd 1751 b43c 3310 d1bc
000000e0: 9ea6 503e 18d7 67bd 74d6 1c3d cdf7 d7bd
000000f0: b8ca 97bd cf6a 983d 9f7f fbbd 8e64 2e3d
00000100: 02b9 063d 4b1d 813d 7b14 923d 7c09 0bbc
00000110: 8aef 53be 307e fcbd cea9 163e 875c 62bc
00000120: 3753 043d fe03 f4bc 89aa dbbd 5473 5f3d
00000130: bf2f 35bd 304d 1d3d 8ce9 a9bc 115c debd
00000140: d5fd 07bd b040 1a3c e668 47bc 0aee babd
00000150: 8611 aebd 798b 1c3e 2fd2 1a3d 39e6 babd
00000160: 2de4 4fbe 4c6b 2a3d a075 70bd f442 eb3d
00000170: 0640 02be a6df 913c d47f 09be bf1c b4bd
00000180: e688 14bd eaa9 063e d6f5 c63c 323b c03d
00000190: 8a88 a4bc f1ae c5bd dbf8 f63c f979 523d
000001a0: 2f71 3d3d 5329 e8bd ddb3 28bd 2aec d23d
000001b0: bdb8 e1bd 4660 303e 3736 4dbb dbbe f2bd
000001c0: 7e51 babd 9c65 29be ec42 69bd 7de6 5c3d
000001d0: f84c 673d a0aa 4c3d 4610 6dbd 7236 ff3d
000001e0: 6739 a63c 7844 bfbd 0e96 1d3d 816b 483c
000001f0: f175 18be 5ff7 04be a370 0e3e 27fd 18be
00000200: 8cae a0bd 39e3 b83d 8872 6dbc a380 4b3d
00000210: 155e d93d 8aff 6c3d ad33 783c 3247 73bd
00000220: 5d59 a03c 2033 0cbe 8267 82bd 51be 023d
00000230: 5335 8fbd 8812 52bc 0cc9 d6bd 2b1b 013e
00000240: 4771 b03a f0a8 023d 6def b43d d1b1 c23c
00000250: 0446 0d3e 72ad babd 719b c53a 6987 7a3e
00000260: 1f9f b33d a9c6 8a3d b867 333d 70a9 8e3d
00000270: 278f 8e3d d438 0bbd 7755 033d d24a 2d3d
00000280: b73f a3bc f05a b13d 1ab9 71bd 0e9b 0abe
00000290: 1d88 9fbd a12f 5b3c 5091 bdbd d30a b8bd
000002a0: e582 1ebe 507c d1ba 6768 4a3d 335c b1bd
000002b0: 681c 2cbc 4dbe 893d 61e3 92bd 138c 223c
000002c0: 70f7 37bd 0726 f6bc 5d21 d2bd 7d1a 26be
000002d0: 48eb d4bd 43bc 4e3d ffb5 e93d 2ed7 7a3d
000002e0: a650 33bd 3892 40bc f7a6 7abd a88b 3b3e
000002f0: ec4f 3b3e c885 393d 1e78 443d 1bbe 463d
00000300: 4180 893b 23cf eabd 74a3 dcbd ff37 413d
00000310: e464 c03d 59a8 a7bc 3985 ac3b 9ec3 1b3d
00000320: 59df 7d3d 9d83 2dbd 2d4d f4bd 7f8d e5bd
00000330: 1a61 adbd a24f 113d 7a17 c63d 0691 9b3d
00000340: 4349 3f3d b4a1 413d 75da ffbb c4f8 133e
00000350: 10fd 5c3c 97ba 8c3e 4264 383d 147e 5a3e
00000360: 1bc0 463b fa3e 433e 4105 bc3d 2444 72bc
00000370: 7c39 453d 4bfd 0ebe 6519 04be ed5d 9abd
00000380: 6db7 093e 3939 ba3d 73f3 893d 0417 423c
00000390: dea5 303d 3ab4 a83d 8d96 2f3e fe7f 0b3e
000003a0: 548f 40be 8088 08be 57d2 f33d 8984 693d
000003b0: 647a a8bd fa6d 113d d8d9 d039 32b5 4d3d
000003c0: 5305 73bd 5b47 793d 8aa3 593d 2015 b03d
000003d0: a7ec 6f3c 65e0 f7bd 04eb 2cbe 2752 2c3d
000003e0: 24d4 87bd 6512 1bbd a6c0 b2bd 720c 10bd
000003f0: ddcf 093c 283b 14bc 8d0e 143e 15d3 ce3d
