Results/test14/Doughnut.onnx (onnx, 109697 bytes, 6 tensors)

action_model._discrete_distribution.branches.0.bias f4 [2]
00000000: 8d63 a83b 8263 a8bb
0.0051388205 -0.0051388154

action_model._discrete_distribution.branches.0.weight f4 [2, 128]
00000000: 92dd 2ebc f7aa 853c c476 0ebd 8576 1dbd
00000010: d506 54bc 3572 2bbd 7fc9 973c 6665 ffbc
00000020: 3f80 e5ba 7153 1cbd 896f 97bc ca67 b4bc
00000030: d1fb 9dbc 635e 0a3d 0a24 d9bb d65d fd3c
00000040: 142c 6c3d 8ba1 a33c 6e60 e23c fadd 9d3c
00000050: bc42 95bc 638e 203d d933 fb3c d821 2c3d
00000060: 1113 793c d7ce e3bc 76c3 023d 893a 933c
00000070: 445d 933c ff79 2ebd d869 6d3c d1f0 c3bc
00000080: 9367 70bc 6f96 bf3c 5932 8ebc 7015 dc3c
00000090: 66fe aabc c405 283d 55ca 1fbd e7ad 3b3d
000000a0: d4f4 65bb 3587 98bc 3200 c63b 3a6b 11bd
000000b0: 756b 0a3d 29ce d03c c0c7 efbc c377 abbc
000000c0: 89d2 0fbd 91d3 223d 01da 2abd 4270 ca3c
000000d0: ca3c c33c 5eed a8bc 4029 c83b 9429 fbbc
000000e0: b09a c4bc 428a aa3c 77ce 3e3d e59b ddbc
000000f0: 401c debc 22b9 65bb 4656 bb3c 36e8 b93a
00000100: 77b1 87bc b707 1b3d b40e fdbc ca17 c03b
00000110: 17a7 02bd c9d9 5bbb 8923 9cbc 8c85 073d
00000120: a1f3 fe3c 6786 1dbd 37b4 203d bdf2 05bd
00000130: e0cf 003c 6b07 07bd c921 b1bc 6971 023c
00000140: 7f71 e13c a1bd f93c c502 ecbc cfc1 2ebc
00000150: 2b05 fcbc 2c20 acbc b757 743c 2800 fcbb
00000160: fe43 033d a6de fdbb 1098 59bb 9a55 8bbc
00000170: cec9 1b3d d1a4 993c 8b45 dfbc 11a7 fdbc
00000180: 5908 963c f706 d8bc 2774 e93c 7c1c dd3c
00000190: 1826 9a3c 2f45 d5bb 032a 203d e5b7 1c3d
000001a0: e81d 233d 0358 24bb b30b 8b3c c2a7 edbc
000001b0: feee e6bc 9676 84bc 01d6 8abc 75e6 cdbc
000001c0: 5d43 2e3b d23f ecba 8bd5 0b3c 729d 5a3a
000001d0: c3fd 2f3d 6d03 b03c fe6c 413d 503d e5bc
000001e0: 92ed 4ebd 70dd 1ebd 7f4a 00bc 0687 0c3d
000001f0: 8325 b13a 9c85 ddbc a101 233b ebdb 353d
00000200: 13e5 103d aaf6 d2bc ac39 143d c221 483d
00000210: d3e4 293c 73c4 443d 18c0 40bc 3600 403c
00000220: c7a0 803c 3629 3b3d d428 683c 03d6 103d
00000230: 7406 d03c 94e0 4cbd 8d45 dbbb 4f7c b3bc
00000240: e580 8abd 10c0 6cbc 4f61 26bd b04c 90bc
00000250: a9ed 113d 4467 41bd 3bdd 04bd 92bf 3fbd
00000260: 6228 2bbd 057e 733c 1820 d4bc ed7a 9ebc
00000270: 72ff 20bd eb20 d13c f62e 99bc 8d77 213c
00000280: 4cc5 fd3c 1eb8 8cbc fb0b 33bb 46c7 dbbc
00000290: d72c 883c 7f81 f4bc 4487 313d 740a eabc
000002a0: 3a6e fd3b 62a0 873c a71e aebc 1a6b b03c
000002b0: d8bc b1bc bbde febc 3a25 d23c cd83 093d
000002c0: 7c8f 123d f4c6 2ebd 0c45 2a3c 12ac a2bb
000002d0: 82df 9cbc cb07 a73b 8ecc 88bc 54dd 153d
000002e0: 4dbe 9e3c 2004 bbbc ebc6 b0bc 3f84 2b3c
000002f0: cc56 9f3c cedf 30bb 8a5e 69bb a737 40bb
00000300: 3653 a33c 3ed3 d4bc 5c69 8e3c 465f 013d
00000310: c0b4 653c ba1c 4e3c 13a5 3cbb 1d64 bcbc
00000320: 96e8 b1bc 9268 e03c bd08 f2bc d148 3a3d
00000330: a50e 38bc 1081 243d 7239 b63c 8efe 80bc
00000340: 3089 cbbc f681 c8bc aae2 d43b 63f5 de3c
00000350: a4bd 043d feb4 203c 59c4 debc fdf1 4e3c
00000360: 1edf 26bd 22ac 9bbb 372c 1e3b cc43 863c
00000370: 373b 39bc 6fb4 7a3c 0f9d 9b3c af6e b43c
00000380: f017 89bb cd4f 733c 1885 c9bb 0bba 0cbc
00000390: 1192 c2bc 3a1e cdba 191e 03bd 7d5a f9bc
000003a0: 8a43 7bbc 9e41 9f3c 1e1f 9cbc 8055 0a3d
000003b0: 5919 1f3d b8b1 3c3a 4db0 9abb 35f0 e63c
000003c0: fe33 64bb 86ba 7d3c 1fae f8bc d9be b83b
000003d0: cf8b 39bd e9db 19bd bd1d 1ebd 86ce f93c
000003e0: 7bdb 0b3d df5d ed3c 5d61 283d fff5 9cbc
000003f0: 7c38 2abc 31c1 a33c 950e fb3c 9795 cabc
-0.010672944 0.016316874 -0.034781232 -0.038443107 -0.012941082 -0.041856963 0.018528698 -0.03117628
-0.0017509534 -0.038165513 -0.018485801 -0.022022147 -0.019285114 0.03378142 -0.0066266106 0.030928534
0.057659224 0.01997449 0.027633872 0.019270886 -0.018220298 0.03919829 0.030664371 0.042024463
0.0152023 -0.02780859 0.031924687 0.017972248 0.017988808 -0.042596813 0.014490567 -0.023918541
-0.0146731315 0.023387162 -0.017357992 0.026865691 -0.02087326 0.041021124 -0.03901132 0.045820143
-0.0035088556 -0.01861916 0.0060425038 -0.03550265 0.033793885 0.02548893 -0.029270053 -0.02093113
-0.03511289 0.039752547 -0.04171181 0.024711732 0.023832697 -0.020620998 0.006108433 -0.030659474
-0.023999542 0.02081788 0.04658362 -0.027051875 -0.02711308 -0.0035052975 0.022868287 0.0014183584
-0.016564114 0.037849154 -0.0308908 0.005862211 -0.03189763 -0.0033546558 -0.019059913 0.033086345
0.03112203 -0.038458254 0.039234366 -0.032702196 0.007862061 -0.03296606 -0.021622555 0.007961609
0.02751994 0.03048593 -0.028809914 -0.010666325 -0.030764183 -0.021011434 0.014913491 -0.0076904483
0.032047264 -0.007747489 -0.0033202209 -0.017008591 0.038034253 0.018755348 -0.02725484 -0.030963453
0.018314527 -0.026370509 0.028497769 0.026991121 0.018816993 -0.0065084915 0.039102565 0.038261313
0.039823443 -0.0025076873 0.016973352 -0.029010657 -0.028190132 -0.016169827 -0.016947748 -0.025134305
0.0026590445 -0.0018024391 0.008534799 0.0008339501 0.042966615 0.021486009 0.047223084 -0.027983338
-0.050519533 -0.038785398 -0.007830261 0.034308456 0.0013515208 -0.027041249 0.0024872797 0.044399183
0.035374712 -0.025752384 0.036187813 0.04886032 0.010369497 0.04803891 -0.011764549 0.0117188
0.015701665 0.0456936 0.01416989 0.035360347 0.025393702 -0.050018862 -0.0066916407 -0.02190986
-0.06762866 -0.014450088 -0.040620144 -0.017614692 0.03562704 -0.047217622 -0.032437544 -0.046813555
-0.04178656 0.014861588 -0.02589421 -0.019345725 -0.03930611 0.025528392 -0.01869915 0.009855163
0.030977868 -0.017177638 -0.0027320373 -0.02682842 0.016622944 -0.029846905 0.04334189 -0.028569438
0.0077340873 0.016555969 -0.02125485 0.021535445 -0.021696493 -0.031112066 0.025652517 0.03357296
0.03578137 -0.042670205 0.010392439 -0.00496436 -0.019149546 0.0050973645 -0.016699102 0.036588028
0.019377852 -0.022829115 -0.021579226 0.010468542 0.019450568 -0.0026988867 -0.0035609328 -0.0029330046
0.019937139 -0.025979634 0.017384224 0.031585 0.014020145 0.012580091 -0.0028784915 -0.022996956
-0.02171735 0.027393613 -0.029545182 0.0454796 -0.01123396 0.040162146 0.022244189 -0.015746381
-0.02484569 -0.024476033 0.006496747 0.027216619 0.032407418 0.009808777 -0.027193235 0.012630937
-0.040740125 -0.0047507444 0.002413524 0.01638975 -0.011305622 0.015301808 0.01899579 0.022025434
-0.004183762 0.014850569 -0.006149899 -0.008589278 -0.02375129 -0.0015649267 -0.032011125 -0.030438656
-0.015335927 0.019440468 -0.019057807 0.033772945 0.038842533 0.0007198113 -0.0047207237 0.028190712
-0.0034821029 0.015486365 -0.030356465 0.005637985 -0.045299347 -0.03756324 -0.03860258 0.030493986
0.03414486 0.028975425 0.041108478 -0.019160269 -0.0103894435 0.019989582 0.030646602 -0.024729533

network_body._body_endoder.seq_layers.0.bias f4 [128]
00000000: a63e 7a3c e127 703b 2693 193b 9020 8a3c
00000010: fca2 3e3c 0af1 19bb 7fd9 003d 9994 403c
00000020: b4dc 6a3c afcb 94bb 5ba7 c73c 5650 e63c
00000030: 7959 16bb 0b12 fa3b 485b 433c 42eb 973b
00000040: d776 883c c503 f13c 7ae4 7f3c d087 8c3c
00000050: a463 ca3a 2888 c03c bf9f 4f3c ace9 5cbc
00000060: a5ac 1a3c 540d 0e3b bc55 ce3c dbff 3e3c
00000070: 0f16 243c 51ed b73c 03e7 93bc 24aa 073c
00000080: f80b a33c 75a6 d93b b637 2e3c 9ab2 063c
00000090: 0e70 e63a 1ec6 bfba 2d16 653c edb6 27bc
000000a0: b861 c53c 11aa 3b3c 16c4 2e3c c274 1fbb
000000b0: e4cd 4cbc c7a9 0e3b 7772 043c 0586 b33c
000000c0: adab e93b a57d 4b3c 9759 a43c 3e4e 5b3c
000000d0: 10a8 31bc f100 b93c 48c9 813b 843d 463c
000000e0: 2fd7 d03a 3110 ef3b 8ef8 eb3c b235 ea3c
000000f0: a2f3 883c f053 4c3c 85b1 f0bb f509 993b
00000100: 9a57 b83c 7f52 e13c 6cff 133c bc44 743b
00000110: 96bb 1abb 97f3 d43a 7e20 12bd a9b5 373b
00000120: bed4 723c 81b2 55bb 5c0d 963c a0d3 24bb
00000130: 401c a33b b403 883c 0f3f 563c 98fb f13b
00000140: 337c fbbc 4042 813c 5b7b f93b 0a73 713b
00000150: 9638 ecbb 7b57 b83c 6cf5 e9bb 8755 dcbb
00000160: 0a04 3f3c b51b 833c e58a 7ebb eef0 ad3b
00000170: 6c86 013d 7382 4e3c 81ae cb3b 2d45 603c
00000180: 9637 bebc 9ebb f93b bd25 36bc 501e f83b
00000190: e13b c73b 900b b13c 3fac 2f3c a51e b2bb
000001a0: 703f a93b f5aa 2f3c 7021 c639 f04a df39
000001b0: 3a8b 4b3c 73ac 603c 643a 5cbc 4864 9e3c
000001c0: c2ad 4f3c 4a88 5e3b 3940 ca3b a098 bb3c
000001d0: ec15 b83c 56eb a63c fab7 1c3c 8d21 6b3b
000001e0: 9fbb cb3c 7198 4c3c d9b9 b53c 0dba 023c
000001f0: 9b8e a73b af78 f83c 574b e5bb e922 183c
0.015273726 0.0036644863 0.0023433655 0.01686123 0.011635538 -0.0023489618 0.03145742 0.011754178
0.014334846 -0.0045408825 0.024371793 0.028114479 -0.0022941513 0.0076315454 0.011923619 0.004636199
0.01665823 0.029420743 0.015618438 0.017154604 0.0015441072 0.023502424 0.012672364 -0.013483446
0.009440576 0.0021675425 0.025187366 0.01165768 0.010015025 0.022452028 -0.01805449 0.008280311
0.019903168 0.0066421577 0.0106334 0.008221293 0.0017581002 -0.0014631187 0.013982338 -0.010236484
0.024094447 0.011454121 0.010666868 -0.0024331068 -0.01250026 0.0021768676 0.008083931 0.021914491
0.007131061 0.012420093 0.020062251 0.013385354 -0.010843292 0.022583457 0.003960762 0.012099627
0.001593327 0.0072956313 0.028805044 0.028590057 0.016717736 0.012471184 -0.0073453807 0.0046703764
0.02250271 0.027505158 0.009033065 0.0037272414 -0.0023610345 0.0016246912 -0.03567552 0.0028031862
0.0148212295 -0.0032607617 0.018316917 -0.0025150552 0.004977733 0.016603328 0.013076558 0.0073847286
-0.030698871 0.01577866 0.007613582 0.003684225 -0.007208894 0.022502651 -0.0071398523 -0.006724063
0.011658678 0.016004423 -0.0038840112 0.005308262 0.031622335 0.012604344 0.006215871 0.013688368
-0.023219865 0.0076212427 -0.011117396 0.007571973 0.006080136 0.021611959 0.010722219 -0.005435782
0.005165033 0.010721912 0.00037790416 0.00042589707 0.012423331 0.01371299 -0.013441656 0.019334927
0.012675704 0.0033955746 0.0061722067 0.022899926 0.02247139 0.020375889 0.009565348 0.0035878152
0.024869738 0.012487517 0.022183346 0.007978928 0.0051134354 0.030330984 -0.0069975066 0.009285667

network_body._body_endoder.seq_layers.0.weight f4 [128, 78]
00000000: 509a 6abd be15 b13c 7a1f bdbb 5a76 ba3d
00000010: 2a14 9bbd d641 b1bc c564 bbbd 29f7 51be
00000020: 13c2 063e f6ec b9bc 4e7e c63b 3406 113e
00000030: da80 82bd b54d 4f3d 0b64 2bbe a430 013d
00000040: 90c9 923d 8216 843d 8ab5 473d de9b 0e3e
00000050: 81a9 d13d 4691 3e3e 43c8 36be 5f1f 1b3e
00000060: d67c 793d deb3 163e 8e74 a73d dca1 3ebd
00000070: 97f8 13be 5829 633e 5461 583e 90f1 eebd
00000080: a367 443d 24cf 913c e373 25bd f431 9b3d
00000090: 06d3 063e 0641 96bd 1934 3c3d 7b4c 473b
000000a0: 3ec8 073d 4199 ccbd 3f46 7c3d 1d20 373e
000000b0: 3954 223e 4565 2c3e 35c9 1ebd 54b8 14be
000000c0: bb20 823e a5a4 633e cd07 ddbd 9bb6 f73d
000000d0: a5f2 05be 3513 8e3a 7662 84bd 3bbd 5c3d
000000e0: 52a9 07bc 23df 43bd 8825 66bd e5c1 5b3e
000000f0: 509d 9cbd e90b bfbd 8cde 9aba 977a 273e
00000100: 7665 2c3e fc24 52be f239 d9bd 80ba 6dbe
00000110: 0d87 cfbd 6cfd 243e bb1c 28be f6fa c1bb
00000120: 5c74 273e 1a0f 1dbe a2fc 5a3d 611f 333e
00000130: 3eb1 c73b 365c f03d f01c 95bd e741 ddbd
00000140: 1043 3e3e c348 05bd 086b 63bb 80c2 543e
00000150: 9161 0d3b f179 0a3d c3bc 89bc f068 7b3e
00000160: 0f4e f4ba 3df7 323d c215 673c 29ee 6e3d
00000170: fa40 b9bd 403a 5c3e 9772 dc3d cb1c aeba
00000180: 5742 10be 6092 8a3d 99c9 863d 0455 49bd
00000190: 63e7 78bd 10d5 f03d c9d4 20be cfea 4cbe
000001a0: 1d4b 8ebc 7cac c3bd f5f3 95bd e2db e53d
000001b0: ae92 a8bd f7d9 ef39 934c eb3d bcb9 a33d
000001c0: b3a8 e1bc de7e 6cbd 0800 363e 088f 63be
000001d0: 9459 ed3c 3c91 7bbc 284f 6dbe 1083 bbbb
000001e0: 6be8 3fbe bc90 683d b2b7 9a3d f6c1 34be
000001f0: 640e 07be 05e3 8d3e d9ca 56be 35bb 183e
00000200: 4e57 f23d ea5a d6bd 105d e03d 9700 73be
00000210: 0027 16be 60c2 153e 9fd4 3e3d 294b d8bd
00000220: 88ff 923d 6168 8f3d e9e4 08be 9193 8fbd
00000230: a983 223e f8d1 87be 31a2 2d3e 7651 00bd
00000240: 7499 78be 65ed 3c3c 29d7 f63c 410a 78bd
00000250: f75a 073e 8568 9b3d e24d 08be 50a0 a93c
00000260: 17b3 273e 6ed0 0abd f9e8 c4bd 0aeb ad3c
00000270: e991 babb 496f 343e 401f 1bbd b8b6 76be
00000280: 9f5a 803d 3a72 e23d 4548 b13d 07a8 a1bc
00000290: 9ba1 df3a 0f74 03bc 6211 3d3c 7950 e33d
000002a0: d35a 253d 51ba fe3d 2636 08bd d503 c3bd
000002b0: 7a48 843d a127 37bd 4257 593d c932 2fbd
000002c0: f854 213e 5adb a6be a9be 36bd 9b0c 293d
000002d0: 86d8 27be 8bd2 683d 2112 3c3e 96a5 8abe
000002e0: f8ca 233e 46c2 d5bd 1b16 c63c c879 49bc
000002f0: 99b3 133e 77bc 08be ce61 463e b81d debd
00000300: fd95 963d a627 313d d62f 5c3e 2537 ce3c
00000310: 2f47 76bc 0317 c4bd 1111 05be d8b8 1e3e
00000320: af0e 5c3b aaec 383e 4ce2 23be 4df6 de3c
00000330: 7618 d5bd ea79 913c 8149 f03d b6e5 2abe
00000340: b115 77bd d921 07bd 1f8a 9cbc 0407 573e
00000350: a3ea 9c3d daef 52be 7f7d 283e e039 703d
00000360: 17aa a9bd beda 00bc 0b5c 73bd d6d5 12be
00000370: d46a 1f3e 7be2 1ebe c5e6 243e d08d 043e
00000380: 0683 133e a7b9 2fbe 6330 a53d a6cd c5bc
00000390: e2ee 08be 88d9 403e 3ca4 173e d2b6 933c
000003a0: 1773 4d3d 6087 fbbd 091d 9f3d 7e50 b43d
000003b0: 561b a4bd ffbe 03be e197 d43d 5495 b8bd
000003c0: 0e04 08bd 3c48 a7bd 16c3 ea3d 70bf c03c
000003d0: 2a26 103e 144d 823c 3d17 f6bc 0db1 a1bc
000003e0: d144 29be 8081 bdbd 7506 a33c 2d24 de3d
000003f0: 6e8e 3abd 03c9 a73d f4a9 95bb cc8a 32be
-0.05727607 0.021616813 -0.0057715746 0.09104605 -0.07572205 -0.021637838 -0.0915008 -0.2050444
0.13159971 -0.022696 0.006057537 0.14162523 -0.06372233 0.050611217 -0.16737382 0.031540528
0.07167351 0.064496055 0.048757114 0.13926646 0.102374084 0.18610105 -0.17849831 0.15148686
0.06091007 0.14717051 0.08176528 -0.04654108 -0.14450298 0.2218374 0.21130878 -0.11667168
0.0479504 0.017798968 -0.04039372 0.07577887 0.13166437 -0.07336621 0.04594812 0.0030410576
0.03314995 -0.09990168 0.06159043 0.17883344 0.15852441 0.16835506 -0.038766105 -0.1452344
0.25415596 0.22230776 -0.107925035 0.12095376 -0.13080843 0.0010839464 -0.064640924 0.0538914
-0.008280115 -0.04782022 -0.056188136 0.21460684 -0.076471925 -0.093284436 -0.0011815592 0.16355358
0.1683558 -0.20521921 -0.10606755 -0.23215675 -0.10133181 0.16112298 -0.1641721 -0.0059198095
0.16352981 -0.15337792 0.053463586 0.17492439 0.006094127 0.11736338 -0.0728091 -0.108035855
0.1858027 -0.032540094 -0.0034701247 0.20777321 0.0021573047 0.0338077 -0.016813641 0.24551749
-0.0018638986 0.043692816 0.014104309 0.058332596 -0.090455964 0.21506596 0.10764044 -0.0013283727
-0.14087807 0.067662 0.065814205 -0.049153343 -0.060767543 0.117593884 -0.15706171 -0.20011447
-0.017369801 -0.09554383 -0.07321922 0.1122358 -0.08231102 0.0004574803 0.11489215 0.079944104
-0.027546262 -0.057738177 0.1777345 -0.22222531 0.028973378 -0.015354451 -0.23174727 -0.005722411
-0.18741004 0.056778654 0.07554568 -0.17652115 -0.13189083 0.27712265 -0.20975818 0.14915164
0.11833058 -0.10466559 0.1095525 -0.23730694 -0.14663315 0.1462493 0.04658949 -0.10561211
0.07177645 0.070023306 -0.13368572 -0.07010568 0.15870537 -0.2652738 0.16956402 -0.031327687
-0.24277288 0.011531209 0.030131893 -0.060556654 0.13218294 0.07588295 -0.1331096 0.020706326
0.16376911 -0.03389018 -0.096147485 0.02123024 -0.0056936634 0.17620577 -0.0378716 -0.24093139
0.062672846 0.11056943 0.086563624 -0.019733442 0.0017061712 -0.008023276 0.011539789 0.11099333
0.04036982 0.12437881 -0.033254765 -0.09522215 0.06459136 -0.044715527 0.05306173 -0.042773042
0.1575507 -0.32589227 -0.04461542 0.041271787 -0.16391191 0.056841414 0.1836629 -0.27079457
0.15995395 -0.10437445 0.024180463 -0.012297101 0.1442398 -0.13353144 0.19373247 -0.10845512
0.07352827 0.043250702 0.21502623 0.02517278 -0.01503162 -0.09574702 -0.12994792 0.155002
0.0033578088 0.1805903 -0.16004294 0.027217055 -0.10405056 0.017758328 0.1173277 -0.1668919
-0.06032342 -0.032991264 -0.01910883 0.2099877 0.07661941 -0.20599309 0.16454123 0.058648944
-0.08284395 -0.007864652 -0.05941395 -0.14339384 0.15568095 -0.15516083 0.16103657 0.12944722
0.1440545 -0.17160664 0.0806587 -0.024145912 -0.13372377 0.18832982 0.14808744 0.018031511
0.050158586 -0.1228168 0.0776921 0.08804415 -0.080130264 -0.12865828 0.10380531 -0.09012857
-0.03320699 -0.081680745 0.11462991 0.023528785 0.14077058 0.015905894 -0.030040378 -0.019737745
-0.16530158 -0.09253216 0.01990054 0.10846744 -0.045545988 0.08192637 -0.004567379 -0.1743576

network_body._body_endoder.seq_layers.2.bias f4 [128]
00000000: aa1c df3c fc2d 013c 4777 d23c 0088 483c
00000010: 6e02 a33a 414c cd3c 6dec 043b 76cf ff3b
00000020: a036 36bc 86e4 b43c a9e8 8b3b e9fa a03b
00000030: 0a59 233c 4002 5f3c 727b e9bb 2b8d bf3b
00000040: dd51 9d3c 6f8f 65bb aadd 4b3c 7d7b ac3b
00000050: 45c2 c53c b298 a63c 98a1 043c 4f2c 6c3c
00000060: fc4a f4ba aba3 9e3c 5b49 323c 87e9 cb3b
00000070: 174e d83b bdc4 693c 0597 0e3c fc49 af3b
00000080: a04a b93c dda3 063c 723e 84ba 20d7 0d3c
00000090: 67f8 813b b2f9 d6ba 6bcd 183c d5ca 213c
000000a0: dda8 d93b dc4a eeb9 d145 963b 2147 ef3b
000000b0: b9a2 ec3a b5fe 1f3c 3cd6 0e3c ffbe 213c
000000c0: cca6 0b3c bd8d 3a3c 50af 5b3c 39c0 933b
000000d0: d497 e13b 1691 ddbb cdf2 963b 8064 b73b
000000e0: 33dc 553c 5183 f83b 152e 523c c0f2 cb3b
000000f0: bd47 5b3b adb1 953b 812d a93b 9214 fdbb
00000100: 4dfa 923c 7797 563c fef7 0f3c f569 7538
00000110: 75bd 693a b6ba 27bc c217 e13c 80a9 e83b
00000120: 1550 1b3c 24d8 0c3c eff6 2d3c 6026 803c
00000130: f0fe 413c 00ce 833b 53fd 403b d2de a43b
00000140: dd8e ca3b 8dab 063c 216c 0fbc 3887 c13c
00000150: 0eb8 333c ec0b 02bb d34b 093c 27fe 273c
00000160: 49a7 f93b bee5 203c ae02 31bb 6b9e 093b
00000170: c1e5 233c 25db a63b 1074 343c 2254 03ba
00000180: 2ded afbb 47d9 0a3d 39f7 363b eedc b5ba
00000190: ba4c 003c 3baf 883c f686 773c b840 0c3c
000001a0: b0fa 103c c4a7 983c 12d2 ce3b e0a8 d03c
000001b0: e1ce 143d ee4a 5c3b ab81 4eba 1264 f13c
000001c0: d61d c0bb 7d7d 0d3c 94f1 0f3c fd80 2abc
000001d0: 9144 c33b d91f 493c db1e 173c 20c0 923c
000001e0: da78 d43c 171e 083c 19ef 233c b650 f63b
000001f0: 91a1 233c 6385 c13c 9435 65ba 3293 213c
0.027235348 0.007884499 0.025691641 0.012239456 0.0012436637 0.025060775 0.0020282522 0.0078067137
-0.011121422 0.022081625 0.0042696786 0.0049127233 0.009969959 0.013611376 -0.0071253115 0.005845686
0.019204075 -0.003502812 0.012442986 0.0052637444 0.024140486 0.020336483 0.008095168 0.014414861
-0.001863807 0.019365152 0.010881747 0.006222907 0.006601106 0.0142680975 0.008702998 0.005349396
0.022618592 0.008217779 -0.0010089411 0.008657247 0.0039663794 -0.0016401319 0.009326319 0.009875019
0.0066424445 -0.00045450672 0.0045859595 0.0073021804 0.0018053866 0.009765317 0.00871807 0.009872197
0.008523654 0.011386332 0.013408497 0.0045089987 0.0068845544 -0.0067616804 0.004606581 0.0055966973
0.013052988 0.0075840135 0.01282837 0.0062240064 0.0033459507 0.0045682997 0.005162895 -0.0077233994
0.017941618 0.0130976355 0.008787153 5.8511232e-05 0.0008916476 -0.010237386 0.027477149 0.007100284
0.009479542 0.008596454 0.010617956 0.015643299 0.011840567 0.00402236 0.0029447868 0.005031445
0.0061815814 0.008219612 -0.008753807 0.023624048 0.010969175 -0.0019843532 0.008379894 0.010253466
0.007618819 0.0098204 -0.0027009654 0.0020998965 0.010003508 0.005092042 0.011014 -0.000500979
-0.0053688497 0.033898618 0.0027918352 -0.0013875046 0.007830793 0.016685119 0.015107861 0.008560352
0.008848831 0.018634684 0.0063116634 0.02547115 0.036330108 0.0033613998 -0.00078775984 0.029466663
-0.0058629317 0.008635876 0.008785624 -0.01040673 0.0059591015 0.0122756595 0.009223665 0.017913878
0.025936533 0.008307955 0.010005736 0.0075169457 0.009987251 0.023623174 -0.00087436405 0.009861754

network_body._body_endoder.seq_layers.2.weight f4 [128, 128]
00000000: 3b4a 15be bb20 81bb d6b0 83bc d864 70bb
00000010: 5d92 7ebc 42bf ed3d 62fb 33bd b7fa d23d
00000020: 3929 56bc bdda a73d f5f5 17bd 84f2 b7bc
00000030: 3fc5 f83d 7b5f 8dbd e525 d93d 69c2 2fbd
00000040: f17a bc3c 60b9 523e 16c7 cdbd ea7a 1fbd
00000050: 8238 213d 63fc 643c 97e6 313e fa66 353e
00000060: f829 5dbe 6406 f1bb 4630 c7bd 7a4e da3b
00000070: f78d a63d 6733 bc3d dc7a f2bc 642b 28be
00000080: 59d2 e5bc 6f71 da3d a765 c0bb faa2 c4bd
00000090: 50ce 163d 9f9b 263e c2a3 5a3c 1862 03be
000000a0: f74a 213c 304a 28bd e7ac 3fbd fd7c d23c
000000b0: 0fdd 3ebe 6e39 3b3e aa0d 17bd 4699 51bd
000000c0: 2808 a3bd 8373 7ebd e1f0 2d3e c98d cebd
000000d0: 4889 913b e31a 123e ff87 543e d7e3 413e
000000e0: bedb 14be 3136 a5bd def7 c8bb 5785 d1bd
000000f0: 4ba0 0dbe 13d3 c1bd b7af 1c3e 966b f3bc
00000100: 6bb7 8a3d 95a8 a9bd 1c69 d1bc 4341 51bd
00000110: ff0c 853d 97f0 6e3b 2be9 78bd a330 cf3c
00000120: e62f ccbd 71ea 37be 8b9c 893c 2a2d f0bd
00000130: 8059 933c 00b0 98bd 8251 823c edea 99be
00000140: 4945 e23d b958 8f3c 3a07 4ebb 7054 abbd
00000150: 8843 9b3d 9063 01bd cfd4 10bd 7923 76bc
00000160: df46 953d 54cd aa3d 5218 03bd 3052 57bd
00000170: e087 d5bc 6a3e 2a3d 414e 263d 227f 4fbd
00000180: 886b 8abd 4138 19bd 73ea f4bd deb2 c73c
00000190: 0eca c83d bfc0 e43c 996b 633d 798b 523d
000001a0: 4adc 683b adcc f8bc 0fd7 153c 629b c7bd
000001b0: 6ffe 8c3d e9e8 493e 2f7e 4cbe ec26 593e
000001c0: 1a48 cdbc df6b ca3d aaac 62be 3376 a03d
000001d0: ca7f a4bd 386d cbbc 7811 92bc c7cc 823d
000001e0: af85 4fbd 1d3c fcba bf5d dbbd dc8c 6cbd
000001f0: 5fc9 4fbd 9441 de3d 4a6d 22bd c5bb 4bbd
00000200: 740c 44bd d5c9 0abe 335e d9bd d56b ea3d
00000210: 34d7 793d 9c6b aa39 9943 b2bd 2fa3 243e
00000220: d42f 1a3d cc1d 793d 68db 05be 1a5e 77bd
00000230: 2956 7dbd 06f1 06be a1b3 f2bc 575a 0c3e
00000240: 869d ad3d 88b7 09be 5058 f03d cc30 89bc
00000250: 3e3c cfbc fbe7 16bd 9d3f 283d 52f3 d4bd
00000260: 620c b23d c082 5a3d e604 85bd 5233 e13c
00000270: 8a6b 0e3c 38cf c9bc 3daf 0a3d c4c6 b7bb
00000280: d06b f2bd bc34 a1bc bbb7 7fbe 38a9 b0bb
00000290: 9dc9 bf3c 5510 efbd 55b3 363d 2599 0f3d
000002a0: 18f2 bab8 95bb 183e 3acc 013d 81ed da3d
000002b0: af6c 413d b96c b2bd e8a9 c7bc 4772 24bd
000002c0: b81f 163d ed04 e2bc 7f92 debd ea02 263c
000002d0: 4811 e9bd b8e7 1bbe 9115 c0bd 6260 c93d
000002e0: d39f 053e d035 88bd 2476 8b3d 144f 973c
000002f0: 49da a93d 0225 8abd c45e e03c 4c8d 623c
00000300: b562 d23b f136 0abd 8cfc 1d3e 6778 233d
00000310: 16fc d63c ff99 343e 84d2 82bb f7f0 3c3e
00000320: 38c0 0c3d 3314 1a3e 717b dfba fa5d 963c
00000330: 74aa 3c3e 03b2 453d 5cd2 7bbd c549 8e3a
00000340: c97a 303b 6854 d4bd b470 3fbb 508a ee3d
00000350: 17ce 69bd f73a 0b3d 8bdf b0bd 2844 d2bd
00000360: b867 623d 14fc b33c 5886 273b 3852 c3bd
00000370: 9211 4f3d 6f58 133e a23d 233d e0f9 55bc
00000380: 29b1 a73d 3e1c c43c dbba 813d 9d06 5bbd
00000390: a532 45be b6d4 e33d 30f7 3abd 99bf 873a
000003a0: 93db ac3c a16e 0bbd b4a8 4fbe 5da2 ae3c
000003b0: d58c a63d 30e3 bd3c 4d43 d9bb e2e8 75be
000003c0: a7a4 123e de78 e73d abe2 3bbd 6493 4fbd
000003d0: 9e48 77bc 9a27 cebd b5ea 9bbd 4dda 2a3d
000003e0: f06d dcbc f31c 0ebd e79a dc3c d97e d83b
000003f0: 2220 cebc 4a93 7abc df49 2f3c 9822 ee3c
-0.14579098 -0.0039406694 -0.016075533 -0.0036681201 -0.015537825 0.11608745 -0.04394091 0.10301726
-0.013071352 0.08196018 -0.037099797 -0.022454508 0.12146997 -0.06902977 0.10602931 -0.042910013
0.023007842 0.20578527 -0.10047738 -0.03893558 0.03936053 0.013976189 0.1737312 0.17715064
-0.21598041 -0.007355498 -0.09726004 0.006662187 0.081325464 0.09189492 -0.0295996 -0.16422802
-0.028054403 0.10666167 -0.005871493 -0.09601398 0.03681785 0.16270302 0.013344707 -0.12830389
0.009844533 -0.041086376 -0.046795752 0.025694365 -0.18639015 0.18283626 -0.036878265 -0.051171564
-0.0796054 -0.06212188 0.1698642 -0.10085637 0.004441414 0.14268069 0.20755003 0.1893457
-0.1453695 -0.08066977 -0.0061330637 -0.10230511 -0.13830678 -0.09464087 0.15301405 -0.029714387
0.067732655 -0.082841076 -0.025562815 -0.05108763 0.064966194 0.003645932 -0.06076924 0.025291746
-0.099700734 -0.17960526 0.016798278 -0.11727364 0.017987013 -0.07455444 0.015908007 -0.30062047
0.11048371 0.017498361 -0.0031437413 -0.083657146 0.0758124 -0.03158909 -0.0353592 -0.015023106
0.07288908 0.083399445 -0.032005616 -0.052568614 -0.026065767 0.04156343 0.040601972 -0.050658353
-0.06758791 -0.037407164 -0.1195878 0.024377283 0.09804164 0.02792394 0.055522535 0.051402543
0.0035531693 -0.030371035 0.009145512 -0.09746434 0.06884467 0.19717754 -0.1997001 0.21206254
-0.025058795 0.09883856 -0.22136179 0.07835045 -0.08032186 -0.024832353 -0.017830595 0.063867144
-0.0506646 -0.0019243989 -0.1071124 -0.05775152 -0.05072915 0.10852352 -0.039655007 -0.049739618
-0.04786344 -0.13553555 -0.1061367 0.114463486 0.06099625 0.00032505102 -0.087042995 0.16077875
0.03764327 0.060819432 -0.13071978 -0.060392477 -0.061849747 -0.1317788 -0.02962667 0.13706337
0.08477311 -0.13448918 0.11735594 -0.016746901 -0.02529728 -0.036842328 0.04107629 -0.10397972
0.08693768 0.05334735 -0.06495075 0.027490292 0.0086926315 -0.024634942 0.033858526 -0.0056084115
-0.1183697 -0.019678466 -0.24972431 -0.005391266 0.023411566 -0.11673037 0.044604618 0.03505816
-8.9142646e-05 0.14915307 0.031688906 0.106898315 0.04722279 -0.087121435 -0.02437301 -0.040148046
0.036651343 -0.02759024 -0.10867786 0.010132531 -0.11380249 -0.15225112 -0.093791135 0.09832837
0.1304925 -0.06650889 0.06809643 0.018470325 0.08293588 -0.0674534 0.027388938 0.013827633
0.006420458 -0.033743802 0.1542837 0.039909746 0.02624325 0.1763687 -0.0039923806 0.18451296
0.034363 0.15046768 -0.0017050338 0.018355358 0.18424398 0.04826547 -0.06147991 0.0010855725
0.0026928654 -0.10367662 -0.0029211463 0.11647475 -0.05708131 0.03399178 -0.086363874 -0.10266906
0.055274695 0.021970786 0.0025562253 -0.09537166 0.050553866 0.14389203 0.0398537 -0.013060063
0.081880875 0.023939248 0.06334468 -0.053473104 -0.192576 0.11124556 -0.045645893 0.0010356783
0.021100795 -0.03404105 -0.20279199 0.021317655 0.0813233 0.02317962 -0.0066303373 -0.24014619
0.14320622 0.113023505 -0.045870464 -0.050677672 -0.015092997 -0.10066147 -0.07613126 0.041712094
-0.026907891 -0.034695577 0.026929332 0.0066069183 -0.025161806 -0.0152939055 0.010698765 0.02906923
