Results/test5/Doughnut/Doughnut-31364.onnx (onnx, 128129 bytes, 6 tensors)

action_model._discrete_distribution.branches.0.bias f4 [2]
0	0x3bedb141	0.0072537963
1	0xbbedb143	-0.0072537973

action_model._discrete_distribution.branches.0.weight f4 [2, 128]
0	0x3c6ae23a	0.014336163
1	0xbb97abaa	-0.0046286182
2	0xbbcc9373	-0.0062431633
3	0x3c49e523	0.012322697
4	0xbc0d4e25	-0.008624588
5	0xbbb27c6b	-0.0054469607
6	0xbaeeffef	-0.0018234233
7	0xb9ba9d7f	-0.00035594028
8	0xbb8c8fe6	-0.004289615
9	0xbc6fa1f9	-0.01462602
10	0xbbe36cc8	-0.006940458
11	0xba22313d	-0.00061871466
12	0x3c094697	0.008378646
13	0x3b8ea764	0.0043534506
14	0xbb0b262d	-0.0021232471
15	0xbad109e3	-0.0015948381
16	0xbb82d4ef	-0.003992669
17	0x3c87273b	0.016498199
18	0xbb46e686	-0.0030349805
19	0x3c8018be	0.015636798
20	0xbc5d821f	-0.013519793
21	0x3af229bc	0.0018475573
22	0xbad0703b	-0.0015902588
23	0x3c3e6010	0.011619583
24	0x3c560ee9	0.013065078
25	0x3be42987	0.0069629583
26	0xbb5aa1f3	-0.003336069
27	0x3c17e435	0.009270717
28	0xb957fc28	-0.00020597933
29	0x3b985a2f	0.0046494226
30	0xbb60d971	-0.0034309293
31	0x3c8e725e	0.017388519
32	0x3b1abd4f	0.0023611372
33	0xba954052	-0.0011386967
34	0xbc15970a	-0.009130249
35	0xbc653255	-0.013989051
36	0xbcb916ec	-0.022593938
37	0xbb236039	-0.002492918
38	0x3c52b23e	0.012859879
39	0xbc405b13	-0.011740464
40	0xbc2ada57	-0.010428033
41	0x3be9e092	0.0071373666
42	0x3c674943	0.014116588
43	0x3c095d2d	0.008384031
44	0xbc71fe6a	-0.01477013
45	0x3b923847	0.004462275
46	0x3c8b2a7c	0.016988032
47	0xba080ed8	-0.00051902
48	0xbcc95d40	-0.024580598
49	0xbc0dfe43	-0.008666578
50	0x3c409f4e	0.011756731
51	0xbc35bd6d	-0.011092526
52	0xbc69c81d	-0.014268902
53	0x3ca626af	0.020282118
54	0x3c11d16c	0.008900028
55	0x3c8868a7	0.016651465
56	0xbc28f85a	-0.010313118
57	0xbc42ace7	-0.011882043
58	0xbc80305b	-0.015648058
59	0xbc1e3810	-0.009656921
60	0x3aa6c121	0.0012722352
61	0x3c0d3b6f	0.008620127
62	0x3afb5b20	0.0019176938
63	0x3c12b051	0.00895317
64	0xbaa2491b	-0.0012381406
65	0x3abafc2a	0.0014265825
66	0x3b544049	0.003238695
67	0xbbc8068e	-0.006104297
68	0xbbaf309b	-0.0053463704
69	0x3c378744	0.011201683
70	0xbc16371e	-0.009168414
71	0x3b0b2bb7	0.0021235773
72	0x3c7cfbe4	0.015440915
73	0x3c4a900c	0.012363445
74	0x3c029e79	0.007972353
75	0xbba5999c	-0.005053712
76	0x3aebe440	0.0017997101
77	0x3cd80f36	0.02637444
78	0x3a8dc10b	0.0010814978
79	0x39da0047	0.00041580407
80	0x3a1cc2bd	0.0005979946
81	0x3b1b2194	0.0023671137
82	0xbc08b338	-0.00834351
83	0x3bb38a08	0.005479101
84	0x3c797641	0.015225948
85	0xbc63aebf	-0.013896643
86	0x3c8ae0c3	0.016952878
87	0x3c8cd378	0.01719068
88	0x3bb8f626	0.0056445776
89	0xbc7e52af	-0.015522643
90	0xbcaf43aa	-0.02139457
91	0xbb891ce1	-0.004184351
92	0x3ba6fa93	0.0050957887
93	0x3c6ac55d	0.014329282
94	0x3bc9074b	0.0061349026
95	0xbaebace4	-0.0017980603
96	0x3bf02cf9	0.00732958
97	0xba0f59f0	-0.0005468419
98	0x3c520de3	0.012820694
99	0x3bc9d245	0.0061590993
100	0x3aa5f74d	0.0012662202
101	0x3c157c2a	0.009123841
102	0x3be8a4b3	0.007099712
103	0x3bb43600	0.0054996014
104	0x3b81acb8	0.0039573573
105	0xbb1a12c2	-0.0023509716
106	0xbada2a52	-0.0016644693
107	0xbc503619	-0.01270821
108	0xbcffb265	-0.031212995
109	0xbb32b117	-0.0027266198
110	0x3ac9920a	0.0015378606
111	0xbc41c25d	-0.011826125
112	0x3c8f8c7f	0.017523048
113	0x3c6af74b	0.014341186
114	0x3a8ee2e9	0.0010901365
115	0xbb38ae8b	-0.0028180208
116	0x3cc21b02	0.023694519
117	0xba271738	-0.00063740043
118	0xbc700d28	-0.014651574
119	0x3c0752e0	0.008259505
120	0x3bf01690	0.0073269084
121	0xbb0f594a	-0.0021873289
122	0xbc7b080f	-0.015321746
123	0x3b982cef	0.0046440284
124	0xbae20b4e	-0.0017245801
125	0x3c6eb2b2	0.0145689715
126	0x3c0b437a	0.008499974
127	0x3cfd8c86	0.030950796
128	0xbc3e7dcf	-0.011626675
129	0x3ce2854f	0.027651457
130	0x3c957bdf	0.018247543
131	0xbb5b0f53	-0.0033425882
132	0x3ca03dc2	0.019560698
133	0x3c6b5340	0.01436311
134	0x3c7062ee	0.014672024
135	0x3c15ba84	0.009138707
136	0x3c88aed3	0.016684925
137	0x3b028959	0.0019918291
138	0x3b9976f8	0.0046833716
139	0xbb052153	-0.0020314052
140	0x3c8847c8	0.01663579
141	0xbbb3d73a	-0.0054883035
142	0x3b9c97dd	0.0047788457
143	0x3a974d78	0.0011543473
144	0xbb59bfec	-0.0033225967
145	0x3b81a96b	0.003956964
146	0xbc617eec	-0.013763171
147	0xbca0de03	-0.019637113
148	0x3b0646cc	0.0020488976
149	0x3a898bcd	0.0010493934
150	0x3b42c140	0.0029717237
151	0xbca07d9e	-0.019591149
152	0x3c0ed93e	0.008718787
153	0x3ad8e49d	0.0016547624
154	0x3a807eca	0.0009803411
155	0xb92dfcbe	-0.0001659272
156	0xbcbb74a6	-0.02288277
157	0x3c7e62b3	0.015526461
158	0x3c6c6390	0.014428034
159	0xba008ba8	-0.0004903623
160	0x3b8d5310	0.0043128803
161	0x3c290774	0.010316718
162	0xbad4b8dc	-0.0016229409
163	0xbacd339c	-0.001565564
164	0x3b450c3e	0.0030067111
165	0xbbbfddba	-0.0058552893
166	0xbc33747a	-0.010953063
167	0x3c089aad	0.008337659
168	0x3ca1a6c4	0.01973284
169	0x3bb0e59f	0.0053984667
170	0xbc2672a2	-0.0101591665
171	0xbc09c65a	-0.008409107
172	0x3b8df036	0.004331614
173	0x3c70cbb1	0.014697001
174	0xbc28abb0	-0.01029484
175	0x3c425670	0.011861429
176	0x3b72856d	0.0037005797
177	0x3a0039c2	0.0004891419
178	0xbbc1c254	-0.0059130583
179	0x3c121499	0.008916044
180	0x3c61fea9	0.013793626
181	0x3b3bbd04	0.0028646598
182	0xbbcaa6cc	-0.0061844345
183	0x3ba72e73	0.0051019727
184	0xbb8455b9	-0.0040385392
185	0x3cd655b4	0.026163913
186	0x3c7c0a93	0.01538338
187	0x3c53bfe4	0.012924168
188	0x3c841c7f	0.01612687
189	0x3c177620	0.009244472
190	0x3b767033	0.0037603497
191	0x3be4ae6b	0.0069788
192	0xbc9c0351	-0.01904455
193	0x3bbf9375	0.0058464357
194	0x3bdc64b2	0.006725871
195	0xba4a7cdc	-0.0007724294
196	0x3c74f562	0.014951082
197	0xbc255133	-0.01009016
198	0x3c4ce12f	0.01250486
199	0x3c94515a	0.018105198
200	0xbce64e64	-0.028113551
201	0xbbbe7438	-0.005812194
202	0x3afe3c43	0.0019396622
203	0x3c3fea15	0.011713524
204	0x3bf7ea46	0.0075657694
205	0xbbdf329a	-0.006811452
206	0xbc757177	-0.014980665
207	0xbc0f84da	-0.008759702
208	0x3a0064ee	0.0004897852
209	0xbc6516a7	-0.0139824515
210	0x3c49f9d8	0.012327634
211	0x3c27ba4f	0.0102372905
212	0xbc73fd12	-0.01489188
213	0x3b8235a8	0.0039736815
214	0xbc82de31	-0.01597509
215	0xb9e9bdff	-0.0004458278
216	0xbbd64749	-0.0065392596
217	0x3bf79f50	0.0075568333
218	0x3ab239fe	0.0013597605
219	0x3c21e94c	0.0098822825
220	0xbcb08ebe	-0.02155244
221	0xbbddc400	-0.00676775
222	0x3c494a1f	0.012285738
223	0xbc5c3a82	-0.013441684
224	0xbbecd54b	-0.007227575
225	0x3a04bef5	0.0005063855
226	0xbb9d2458	-0.0047955923
227	0xbc251891	-0.010076658
228	0xbccf4e53	-0.025305903
229	0xba235072	-0.0006229944
230	0x3c10c753	0.008836585
231	0x3aecb145	0.0018058202
232	0x3ab7d31b	0.0014024706
233	0x3c90f58c	0.01769521
234	0xbc98ad5f	-0.018637357
235	0x36f22ae5	7.2171556e-06
236	0x3b8beb11	0.0042699655
237	0x3cb5227f	0.022111176
238	0xbc6d9188	-0.014500029
239	0x3bbb4408	0.005714897
240	0xbc3438f3	-0.010999906
241	0x3ba8f7c3	0.0051564886
242	0xba6215ba	-0.00086244533
243	0x3c4e34a6	0.012585795
244	0xbc3aa6d2	-0.011392312
245	0xbbd439d4	-0.00647662
246	0x3c2718bf	0.010198771
247	0x3b8a08e6	0.0042124866
248	0x3b75d7ef	0.003751274
249	0xbb7ab251	-0.0038253258
250	0x3bf739ce	0.0075447327
251	0xbc4d359c	-0.0125249885
252	0x3b961f88	0.0045813955
253	0x391e943f	0.0001512328
254	0xbc801027	-0.015632702
255	0x3bb9ea51	0.0056736846

network_body._body_endoder.seq_layers.0.bias f4 [128]
0	0xbbef525b	-0.0073035187
1	0x3bdc4962	0.006722615
2	0xbb501b1d	-0.0031754442
3	0x3bacca7c	0.0052731615
4	0x3bc61f6f	0.0060462276
5	0x3ba62b93	0.0050711124
6	0xbbd1b885	-0.0064001703
7	0xbbe2e44d	-0.006924188
8	0x3b91a5ae	0.0044447994
9	0x3b657ac8	0.003501581
10	0x3bea4949	0.0071498496
11	0x3bc0be20	0.0058820397
12	0x3a079cbc	0.00051731966
13	0xb9199300	-0.00014645979
14	0x3b15573c	0.0022787591
15	0xbb9e980a	-0.004839902
16	0xbbe144ed	-0.0068746717
17	0xbbc7aca9	-0.0060935807
18	0x3c882520	0.016619265
19	0x3bda20f0	0.0066567585
20	0xbabbbbfb	-0.001432299
21	0x3b895d63	0.004192041
22	0xbbddbb69	-0.006766726
23	0x3b97259b	0.004612637
24	0x3bc815e1	0.006106124
25	0x3b167b10	0.0022961535
26	0x3be63156	0.0070249243
27	0x3c09b589	0.008405098
28	0x3bdd33a7	0.006750542
29	0xbbd7a803	-0.006581308
30	0x3bd19bf3	0.0063967644
31	0xbb308966	-0.0026937365
32	0x3bc2636c	0.005932262
33	0x3adf251b	0.0017024608
34	0x3bc0fea4	0.0058897305
35	0x3bbec1d3	0.0058214455
36	0xbbd96ca3	-0.006635265
37	0xbbdd966c	-0.0067623165
38	0x3b39d458	0.0028355327
39	0x3bd83d4d	0.0065991045
40	0x3be23577	0.006903346
41	0x39cc2c91	0.00038943117
42	0xb9d59464	-0.00040737086
43	0x3bc9a541	0.006153733
44	0xbbc94598	-0.0061423294
45	0x3bd04968	0.006356407
46	0x3bb35cd1	0.005473711
47	0xbb5ff868	-0.0034175161
48	0x3bc8e246	0.0061304895
49	0xbbe39aca	-0.0069459425
50	0x3a9d26e6	0.0011989742
51	0x3be288c8	0.0069132783
52	0xbb37ef1a	-0.00280661
53	0x39664085	0.00021958545
54	0x3bb0096d	0.0053722174
55	0x3c0d17a2	0.0086115915
56	0xbbe12daa	-0.0068718987
57	0x3bdea024	0.0067939926
58	0xba0d6251	-0.00053933734
59	0x3bd46a94	0.0064824317
60	0x3b0c100f	0.0021371876
61	0xbbe094ae	-0.0068536615
62	0xbbe29db5	-0.006915773
63	0xbbdda3aa	-0.006763895
64	0xbb09fd35	-0.0021055464
65	0xbb9b5dd6	-0.0047414107
66	0x3bdcd7b6	0.006739582
67	0x3bab1faf	0.005222283
68	0x3bc97a12	0.006148585
69	0xbc0c5b50	-0.0085666925
70	0xbb4a4e44	-0.0030869404
71	0x3bd42298	0.0064738505
72	0x3bd325eb	0.006443729
73	0xbbe25bf6	-0.0069079353
74	0x3abc1d8d	0.0014352069
75	0x3bc8dad9	0.0061296043
76	0xbb92c022	-0.0044784704
77	0xbbd2f981	-0.0064384346
78	0xbbd6d6ea	-0.0065563815
79	0xbbdeb035	-0.006795908
80	0x3a2d2ef5	0.00066064234
81	0x3b3f2da6	0.0029171496
82	0xbb1f3e61	-0.0024298655
83	0x3bd05a57	0.0063584256
84	0xbac96614	-0.0015365505
85	0xbbb3a3cf	-0.005482174
86	0xbbe8448e	-0.0070882505
87	0x3b16c640	0.002300635
88	0x3bbace01	0.005700827
89	0x3bcc13e8	0.006227959
90	0x3bb80294	0.0056155417
91	0x3bcc075f	0.0062264646
92	0xbbbbf2e6	-0.005735743
93	0x3bae9ede	0.005328997
94	0x3bdd9781	0.0067624454
95	0x3bf59c60	0.007495448
96	0x3b863800	0.004096031
97	0xbb86d603	-0.0041148677
98	0x3bdf12fc	0.006807683
99	0x3bd0a821	0.006367699
100	0xbbda2f2c	-0.0066584554
101	0x3b3a4b89	0.002842637
102	0xbbde2c42	-0.0067801783
103	0x3acd130c	0.0015645935
104	0x3be39ea6	0.0069464026
105	0x3bd6a7aa	0.006550749
106	0xbbe5e7ce	-0.0070161587
107	0xbaa03dae	-0.0012225413
108	0x3bdb262e	0.006687901
109	0x3bd5729e	0.0065139076
110	0x3bc70370	0.006073408
111	0xbbe2c88c	-0.0069208797
112	0xbb9a35f6	-0.0047061397
113	0x3bdf6b95	0.0068182447
114	0xbba31909	-0.0049773497
115	0x3bdc5ee5	0.0067251795
116	0xbbb3c0fb	-0.0054856515
117	0x3be39082	0.006944717
118	0x3bb6b0a4	0.0055752564
119	0xbbc8f2ff	-0.006132483
120	0xbbcda667	-0.00627594
121	0x3bd72c1f	0.006566539
122	0xbbddaff0	-0.006765358
123	0x3bdf07f5	0.0068063685
124	0x3bca5159	0.006174248
125	0x3bc7ec4e	0.0061011678
126	0xbac2f860	-0.0014875047
127	0xbbef908d	-0.007310933

network_body._body_endoder.seq_layers.0.weight f4 [128, 114]
0	0x3daa04a7	0.083016686
1	0xbd585a7e	-0.052820675
2	0xb8cf1833	-9.8750366e-05
3	0xbe0f472c	-0.13991994
4	0xbdd5463c	-0.10413787
5	0x3de5def1	0.11224163
6	0xbdc9d29f	-0.09854626
7	0xbd3e63e8	-0.046481997
8	0x3e93bf34	0.28856814
9	0xbdef7648	-0.11692482
10	0x3d8cde32	0.06878318
11	0xbd488478	-0.048954457
12	0x3e1f31d1	0.15546347
13	0xbdc7f950	-0.097643495
14	0xbc0f8912	-0.008760707
15	0x3d550091	0.052002493
16	0x3d56774f	0.052359875
17	0xbdd1c684	-0.10242942
18	0x3bb2e874	0.0054598395
19	0xbe0435e3	-0.12911181
20	0x3c33ab55	0.010966142
21	0xbd9e0fbd	-0.077178456
22	0xbdc2c89f	-0.09510922
23	0x3d8605d5	0.06544081
24	0xbdb5868d	-0.08863554
25	0xbce73174	-0.028221823
26	0xbcc647d8	-0.02420418
27	0xbbab96ca	-0.0052364813
28	0x3d89915a	0.06717177
29	0x3e0e4baf	0.13896058
30	0x3d08d14e	0.033402734
31	0xbe27a72a	-0.16372362
32	0xbe35479c	-0.17703098
33	0x3e1ed70c	0.15511721
34	0xbd0452cb	-0.03230552
35	0xbd892944	-0.06697324
36	0x3d8f32fb	0.06992146
37	0xbd8d4a24	-0.06898907
38	0x3cac13f8	0.021005616
39	0xbd844d53	-0.06460061
40	0xbc7776de	-0.015104024
41	0xbd805482	-0.062661186
42	0x3c96f65d	0.018428022
43	0xbcc60e2b	-0.024176678
44	0xbe00ad64	-0.12566143
45	0xbd65cd76	-0.056104146
46	0x3d57085c	0.052498206
47	0xbcbb6925	-0.022877285
48	0x3e0cc318	0.13746297
49	0x3cae65bc	0.021288745
50	0xbdf0d310	-0.11759007
51	0xbca39346	-0.019967686
52	0xbd24ae5a	-0.040205337
53	0x3e164b96	0.14677271
54	0xbdf15cc4	-0.11785272
55	0xbd6c6271	-0.05771107
56	0x3c0ac7e9	0.008470514
57	0xbcef564a	-0.02921595
58	0x3df05ad7	0.11736076
59	0xbd7cef8f	-0.0617519
60	0x3db20f52	0.08694328
61	0x3c8d0d59	0.017218279
62	0x3dbf5ee7	0.09344273
63	0xbce4823d	-0.027894134
64	0x3d641173	0.055680703
65	0x3d26b1cc	0.040696904
66	0x3d131496	0.035908304
67	0x3e032e5e	0.12810656
68	0x3d5307b5	0.051521022
69	0xbd8a4376	-0.067511484
70	0x3de2a6c5	0.11066965
71	0x3c39a245	0.011330192
72	0x3db74e9f	0.08950543
73	0x3a5f558f	0.0008519524
74	0x3d678ece	0.056532674
75	0x3dc11497	0.09427755
76	0xbdad56b0	-0.084638
77	0x3dae8a5f	0.08522486
78	0xbd826147	-0.063662104
79	0xbd0aaf55	-0.033858616
80	0x3d110e22	0.03541387
81	0x3d0d1532	0.03444404
82	0xbd7f8f65	-0.06239261
83	0x3d538ca8	0.051647812
84	0xbc8f5e1e	-0.017500933
85	0xbd21140c	-0.03932576
86	0x3d60c67c	0.05487679
87	0x3e051c48	0.1299907
88	0xbd84c3ba	-0.064826444
89	0x3cae4122	0.021271292
90	0x3d426fe5	0.047469992
91	0x3e0f8db3	0.14018898
92	0x3cfd96d7	0.030955715
93	0xbcf41e36	-0.029799562
94	0xbcdcb90f	-0.026943712
95	0x3d546ed6	0.051863514
96	0x3d2693a1	0.040668134
97	0xbbd15bdd	-0.006389125
98	0xbd0201f0	-0.03174013
99	0xbd1a2890	-0.03763634
100	0xbd61b317	-0.055102434
101	0xbdb46dc7	-0.08810001
102	0xbbec66c2	-0.007214398
103	0xbb4b39fb	-0.00310099
104	0x3d6bc329	0.057559166
105	0xbe1fb7df	-0.15597485
106	0xbda79111	-0.08181966
107	0x3dbd7412	0.09250654
108	0x3e1a396c	0.15060967
109	0x3cd2e122	0.025742117
110	0xbdca7127	-0.09884863
111	0x3e008705	0.12551506
112	0xbb9f6229	-0.0048639965
113	0x3dd339b4	0.103137404
114	0xbd527abf	-0.05138659
115	0x3d393ffe	0.045227043
116	0x3cb65780	0.02225852
117	0x3dd30156	0.10302989
118	0x3c6bc815	0.014390965
119	0xbe021718	-0.12704122
120	0xbd926c04	-0.071495086
121	0x3de97028	0.11398345
122	0x3dc73ac7	0.09728008
123	0xbde30739	-0.11085362
124	0x3cdb2021	0.026748719
125	0xbd791851	-0.060814206
126	0xbe3a2377	-0.18177591
127	0x3e2190a1	0.15777828
128	0x3d684e41	0.056715254
129	0xbc768c35	-0.015048076
130	0x3df67ac2	0.12035133
131	0xbd019dd6	-0.031644665
132	0xbe09958f	-0.13435958
133	0xbcec1924	-0.028820582
134	0x3de16656	0.11005847
135	0x3c937720	0.01800114
136	0xbd53717a	-0.05162189
137	0xbd366f66	-0.04453983
138	0xbe4279d3	-0.18991785
139	0x3e2cf23e	0.16889283
140	0x3ccf19cb	0.025280854
141	0x3db2231b	0.08698102
142	0xbc67c17b	-0.01414525
143	0xbc901bd7	-0.0175914
144	0x3d45d748	0.04830101
145	0xbd6f7d9e	-0.058469407
146	0x3dd99621	0.10624338
147	0xbd0f4e9f	-0.03498709
148	0x3dfd1afd	0.12358663
149	0xbc840536	-0.016115766
150	0xbdaa8570	-0.083262324
151	0x3d8e11d5	0.06936995
152	0xbcf3f514	-0.029779948
153	0x3e897651	0.2684808
154	0xbbfc435b	-0.007698459
155	0xbd9b2ba0	-0.0757668
156	0xbe24956f	-0.1607263
157	0xbdd7f4d4	-0.10544744
158	0xbb819f93	-0.0039557903
159	0xbc133d75	-0.0089868205
160	0xbd82234d	-0.06354389
161	0xbd88f39f	-0.06687092
162	0x3dee0ec4	0.1162391
163	0x3c9ff50f	0.019526033
164	0x3e075448	0.13215744
165	0xbd738547	-0.059453275
166	0xbe339742	-0.17538169
167	0x3e0e828d	0.13916989
168	0xbd62fd83	-0.05541755
169	0x3cecbd60	0.028898895
170	0xbcadab89	-0.021199958
171	0x3d383ed1	0.04498178
172	0x3d46ec7f	0.048565384
173	0x3c15327a	0.009106273
174	0xbd696fe8	-0.056991488
175	0xbe27e6a4	-0.16396576
176	0x3ca2fd97	0.019896312
177	0xbd8cc523	-0.06873538
178	0x3d655d83	0.055997383
179	0x3d39d7a6	0.045371674
180	0x3d0631c7	0.032762315
181	0xbd5f17ce	-0.05446606
182	0xbdf06b27	-0.11739188
183	0xbe2ba9ce	-0.16763994
184	0x3bbbf6ac	0.0057361927
185	0x3db283f4	0.08716574
186	0xbdea250b	-0.11432847
187	0x3dba178f	0.09086525
188	0x3dd68828	0.104751885
189	0xbccbb01c	-0.024864249
190	0x3dfed6c3	0.12443306
191	0x3dc630a9	0.0967725
192	0x3bd2b437	0.0064301747
193	0xbd6d5b7c	-0.057948574
194	0x3cd0338c	0.025415204
195	0xbbddab8e	-0.0067648357
196	0xbd615cea	-0.05502025
197	0x3e2f6b20	0.17130709
198	0xbde6bb72	-0.11266221
199	0xbdf1ef8b	-0.11813267
200	0xbc10d1c8	-0.008839078
201	0x3cc1ca78	0.023656115
202	0xbdacf9f0	-0.08446109
203	0xbd62cb1f	-0.055369493
204	0xbda830d7	-0.082124405
205	0xbd91272d	-0.0708755
206	0xbd298afc	-0.04139231
207	0x3d212bc3	0.039348375
208	0x3d7a4972	0.0611052
209	0xbbb2547c	-0.0054422
210	0x3e03b1c8	0.12860787
211	0xbd071f48	-0.032988816
212	0x3de6f5f3	0.1127738
213	0x3daba96c	0.08381924
214	0x3cfee89e	0.03111678
215	0xbc82cbb6	-0.015966278
216	0xbd805723	-0.0626662
217	0xbdc02279	-0.09381575
218	0x3e2e3d5b	0.17015593
219	0xbdc30faa	-0.09524472
220	0xbc8acf3e	-0.016944524
221	0xbd130272	-0.035891004
222	0x3d8059b9	0.06267113
223	0xbd6a958e	-0.057271533
224	0xbd5944fe	-0.05304431
225	0x3b4c7976	0.0031200326
226	0x3c372400	0.011178017
227	0x3d022ab2	0.031779
228	0x3e3d9d6e	0.18517086
229	0x3cb9a381	0.022660973
230	0xbd6f16b9	-0.05837128
231	0xbd085574	-0.03328462
232	0xbd11c8b4	-0.035591796
233	0xbd3eba4c	-0.046564385
234	0x3e0f8450	0.14015317
235	0x3ce8bc6d	0.02841016
236	0x3c4d972f	0.012548252
237	0x3d8b3562	0.06797291
238	0xbdf745af	-0.12073838
239	0x3ea286be	0.31743425
240	0x3e62a653	0.2213376
241	0xbb853fe0	-0.0040664524
242	0xbd0a0b06	-0.03370192
243	0xbd52d62f	-0.051473793
244	0x3e2b5970	0.16733336
245	0x3db0cdbc	0.08632991
246	0xbe1c121d	-0.15241285
247	0xbd6f52ad	-0.058428455
248	0x3d64ff36	0.05590745
249	0xbcea8dfe	-0.02863216
250	0xbc7ff2df	-0.01562187
251	0x3d7abf22	0.061217435
252	0xbb8dc472	-0.0043263966
253	0xbd60dac2	-0.054896124
254	0xbca9ae01	-0.020712854
255	0xbd9fdb87	-0.078055434

network_body._body_endoder.seq_layers.2.bias f4 [128]
0	0x3be9019b	0.007110787
1	0x3bd8263f	0.006596356
2	0xbbef318b	-0.007299607
3	0x3bdab1fe	0.0066740504
4	0xbbef2630	-0.0072982535
5	0xbbf3a4c3	-0.0074354126
6	0xbbf8772a	-0.007582565
7	0xba8651b5	-0.0010247739
8	0xbbecb4b1	-0.0072236885
9	0xbbe21f1a	-0.0069006803
10	0xbb0a7f5a	-0.0021133036
11	0x3bf41379	0.0074486104
12	0xbbc5a8ec	-0.0060321
13	0x3b019e4e	0.0019778195
14	0xbbde72ec	-0.006788602
15	0xbb87849b	-0.004135681
16	0xb8f5b76c	-0.00011716675
17	0x3bc18991	0.005906292
18	0x3ab8a817	0.0014088181
19	0x3beb4870	0.007180266
20	0xbbf811b9	-0.007570472
21	0xbbb43717	-0.0054997313
22	0x3bb063c6	0.0053829877
23	0x3be7c6a9	0.0070732427
24	0xbb83d3c4	-0.004023047
25	0xbb81c8a1	-0.0039606844
26	0x3ba93847	0.0051641795
27	0x3a1aca21	0.00059047533
28	0x3bde307a	0.006780681
29	0xbad4bd97	-0.0016230819
30	0xbbeff2f9	-0.007322666
31	0x3bde0b13	0.0067762225
32	0x3b922e95	0.0044611194
33	0xbbd8046b	-0.0065923235
34	0x382f38ee	4.177627e-05
35	0xbb7c92d7	-0.0038539672
36	0xbbef0a0f	-0.0072949002
37	0x3b3a45a9	0.0028422868
38	0x3be3956f	0.006945304
39	0xbbef5498	-0.0073037855
40	0xbb52204e	-0.0032062712
41	0xbb877463	-0.0041337474
42	0x3be1400e	0.006874091
43	0x3bdf4ecf	0.0068148146
44	0xbbe51990	-0.0069915727
45	0xbb9dcc41	-0.0048156087
46	0x3be45f50	0.00696937
47	0xbb7ab7ba	-0.0038256482
48	0xbbeacc98	-0.0071655028
49	0xba0d092a	-0.00053800887
50	0x3be022ab	0.0068400702
51	0xbbeed379	-0.007288393
52	0xbbf01e27	-0.007327813
53	0x3bdf20c5	0.0068093264
54	0x3bd82212	0.0065958584
55	0x3b504b6c	0.0031783236
56	0xb98d7c1d	-0.00026986087
57	0xbbf676bf	-0.00752148
58	0xbbe61a71	-0.007022195
59	0xbbe7b912	-0.0070716226
60	0xbbf6246c	-0.007511666
61	0xbb06f50c	-0.0020592837
62	0x3bc95cc5	0.006145092
63	0x3a037fa5	0.0005016274
64	0x3bd6b32d	0.006552121
65	0x3bc129ab	0.00589486
66	0xbbc775d1	-0.006087043
67	0x3bafa9ac	0.0053608026
68	0xbbe94073	-0.0071182786
69	0x3bd8588c	0.0066023525
70	0xbbeeb2d1	-0.0072845
71	0xbaf501f5	-0.00186926
72	0x3be52c65	0.0069938176
73	0x3be4f298	0.0069869272
74	0xbb69f1df	-0.0035697145
75	0xbbeb3f84	-0.0071792025
76	0x3b88d9af	0.0041763405
77	0x3be6d87c	0.00704485
78	0x3bd15491	0.006388255
79	0x3bbd2223	0.0057718917
80	0xbbbd8464	-0.0057836045
81	0x3bd4b550	0.0064913407
82	0xbbf252be	-0.0073951175
83	0xbbe1abab	-0.0068869195
84	0x3be28757	0.0069131064
85	0xbbf631fe	-0.0075132838
86	0x3be2a15d	0.0069162087
87	0x3be49f1e	0.006976976
88	0x3b8a4992	0.004220196
89	0xbbf0f8e6	-0.0073538898
90	0xbbe37206	-0.006941083
91	0xbbe9da3e	-0.007136612
92	0x3be8f6ea	0.0071095126
93	0x3be4fa17	0.006987821
94	0xbbe15b2e	-0.0068773245
95	0x3b0b8edc	0.0021294868
96	0x3bd67f82	0.006545962
97	0xbbd5a5b5	-0.006519998
98	0x3bf04279	0.007332143
99	0x3bdf81d9	0.006820899
100	0x3bdf4d47	0.006814632
101	0xb9258365	-0.00015784574
102	0x3bd1c058	0.006401103
103	0x3bd2beb1	0.0064314236
104	0xbbd83db0	-0.0065991506
105	0xbbe89c96	-0.0070987446
106	0x3bdf8609	0.006821398
107	0x3b70c7f1	0.0036740268
108	0xbbec5f37	-0.007213499
109	0xbbf139d3	-0.0073616295
110	0x3bda8d5b	0.006669683
111	0xbbee320e	-0.0072691506
112	0x3be3c749	0.006951247
113	0xba224b20	-0.0006191004
114	0xbbc58989	-0.0060283584
115	0xbbdd1aa6	-0.0067475615
116	0x3be66023	0.0070305034
117	0x3b9f374f	0.004858888
118	0xbbe3957c	-0.00694531
119	0x3bf91e0e	0.0076024598
120	0xbbcc63e9	-0.006237496
121	0x3bf0a797	0.007344197
122	0xbbf6d214	-0.0075323675
123	0x3be0e232	0.006862902
124	0x3b76a86f	0.0037637015
125	0x3bd65e90	0.0065420344
126	0x3be5764d	0.007002628
127	0x3be1d30a	0.006891613

network_body._body_endoder.seq_layers.2.weight f4 [128, 128]
0	0xbd1a2e8e	-0.037642054
1	0x3e5189db	0.20462744
2	0xbe362c9d	-0.17790456
3	0xbdc8534d	-0.09781513
4	0x3d80dbce	0.062919244
5	0x3c763e8e	0.015029563
6	0xbc48ec76	-0.012263408
7	0xbc24269f	-0.010018974
8	0xbdd04d8a	-0.101710394
9	0x3cedb8ec	0.029018842
10	0x3e984df0	0.29746962
11	0xbd82bbb2	-0.06383456
12	0xbbf7d91e	-0.007563724
13	0xbc884e0d	-0.01663878
14	0x3c82341c	0.015893988
15	0xbdeecd1d	-0.11660216
16	0x3d0b3c55	0.033993084
17	0xbc882034	-0.016616918
18	0xbd746a49	-0.059671674
19	0x3cbb6223	0.022873944
20	0x3df1a777	0.117995195
21	0x3cd57281	0.026055576
22	0x3b7be481	0.003843576
23	0xbb6f9b4f	-0.0036561077
24	0xbd591680	-0.052999973
25	0xbd40e91f	-0.04709732
26	0xbd26a297	-0.0406824
27	0xbd0ce1de	-0.03439509
28	0x3dc5519c	0.096347064
29	0xbcb64abb	-0.022252431
30	0xbd7a2ac8	-0.061075956
31	0xbbe0c1ac	-0.006859025
32	0x3db31ae5	0.08745364
33	0x3d9190c0	0.07107687
34	0xbcb8c675	-0.02255557
35	0x3cf8dc55	0.0303785
36	0xbdc47219	-0.09592075
37	0x3cab7b54	0.02093283
38	0xbddffc65	-0.10936812
39	0xbd6922df	-0.05691802
40	0xbd8f40a3	-0.0699475
41	0xbe20d39d	-0.15705724
42	0xbd848789	-0.06471164
43	0x3d0c472e	0.03424757
44	0xbd8fff37	-0.070311
45	0xbc33c9a0	-0.010973364
46	0xbda27378	-0.0793218
47	0xbd67cefd	-0.056593884
48	0x3ce72726	0.02821691
49	0x3d2539b4	0.040338233
50	0x3d29f751	0.041495625
51	0xbc6cd5b7	-0.01445525
52	0xbddf8ec1	-0.109159
53	0x3d9e156a	0.07718928
54	0x3da1378b	0.07871922
55	0xbe4f74a3	-0.20259337
56	0xbe8e4889	-0.27789715
57	0x3d4ed42e	0.05049532
58	0xbd6be187	-0.057588127
59	0xbd3df96b	-0.04638044
60	0x3d9ab7d4	0.07554594
61	0x3c46050e	0.012086166
62	0x3dbc6b95	0.09200207
63	0xbe02ad07	-0.12761317
64	0xbd71ca5b	-0.05903087
65	0x3cc01c7b	0.02345108
66	0x3daad98a	0.083422735
67	0x3df10c94	0.11769977
68	0xbd459896	-0.04824122
69	0x3dad1810	0.08451855
70	0xbe04c902	-0.12967303
71	0xbd54f53f	-0.051991697
72	0xbd218258	-0.039430946
73	0xbc82127a	-0.015877951
74	0xbd125858	-0.035728782
75	0x3db9c25c	0.09070274
76	0xbd8216ad	-0.06351981
77	0x3dcf676a	0.101271465
78	0xbd74f80c	-0.05980687
79	0xbd762e2f	-0.060102638
80	0x3dc0c6b4	0.094128996
81	0xbe440e37	-0.19146048
82	0xbe087aec	-0.13328141
83	0x3d3664e4	0.04452981
84	0xbe4018d3	-0.1875947
85	0xbc10b257	-0.008831582
86	0xbd4e3fdc	-0.05035387
87	0x3d354de4	0.044263735
88	0x3dcd4bbe	0.10024212
89	0xbd89536d	-0.06705365
90	0x3b88619f	0.004162028
91	0xbd083786	-0.033256076
92	0xbb118e5d	-0.00222101
93	0x3d81a8f5	0.06331054
94	0x3b2afccd	0.0026090622
95	0x3cfa1c10	0.03053096
96	0x3de0ed9e	0.10982822
97	0x3deb1d7f	0.11480235
98	0xbe579d1a	-0.21056023
99	0xbca6febe	-0.020385142
100	0xbe228cb4	-0.15873986
101	0x3c60d40a	0.013722429
102	0x3b029c04	0.0019929418
103	0xbd29d5d7	-0.0414637
104	0x3c4180e0	0.011810511
105	0xbd1dc7c4	-0.03852059
106	0xbde81154	-0.1133143
107	0x3cd26c29	0.02568634
108	0xbd44e23e	-0.048067324
109	0x3e2ba77d	0.1676311
110	0xbe06c3f5	-0.13160689
111	0xbd817a56	-0.06322162
112	0x3e1bb5ff	0.15206145
113	0x3bd5b78b	0.006522124
114	0xbd8ae9d8	-0.067828834
115	0x3dde1793	0.1084434
116	0xbe0ab79c	-0.13546604
117	0x3d4c663f	0.049902197
118	0x3d9e027c	0.077153176
119	0xbd4b60c1	-0.04965282
120	0x3d21b78a	0.039481677
121	0xbc9a6447	-0.018846644
122	0x3cd1f263	0.025628274
123	0x3e2f5eb0	0.17125964
124	0xbd577364	-0.05260028
125	0x3c8f450d	0.01748898
126	0xbeb387c4	-0.35064518
127	0x3d2b9871	0.041893426
128	0x3d58f3b4	0.05296679
129	0xbe1fe223	-0.15613608
130	0x3c549f54	0.01297744
131	0x3c38ca21	0.01127866
132	0xbd22a72c	-0.03971021
133	0x3dce6241	0.10077334
134	0xbb3296b7	-0.0027250478
135	0xbe2bb7d2	-0.1676934
136	0xbd97ec50	-0.0741812
137	0xbd8c4de5	-0.06850795
138	0x3d66c4e4	0.056340113
139	0xbcdafd77	-0.02673219
140	0x3d7d5bdb	0.06185518
141	0x3c89fad1	0.016843231
142	0xbdf94b48	-0.12172562
143	0xbe490150	-0.19629407
144	0x3e19c31a	0.15015832
145	0x3df927a3	0.12165763
146	0x3da2a518	0.079416454
147	0xbda23b59	-0.07921476
148	0x3d2576d9	0.040396545
149	0xbcbb242c	-0.022844397
150	0x3d3fe0ed	0.046845365
151	0xbe216db4	-0.15764505
152	0xbbe22852	-0.006901779
153	0x3d32d489	0.04365972
154	0xbe02f9bc	-0.12790579
155	0x3da477a4	0.08030632
156	0x3df75560	0.12076831
157	0xbe053c27	-0.13011228
158	0x3c69ec0f	0.014277472
159	0x3d8bdba1	0.06829
160	0xbd03e382	-0.03219939
161	0x3e1a2e7f	0.150568
162	0xbe1062ec	-0.14100236
163	0xbd5f553d	-0.05452465
164	0x3c29c42c	0.010361712
165	0x3c5ca4af	0.013466998
166	0xbd0683b6	-0.032840453
167	0x3bd8d05d	0.0066166357
168	0xbcf0d28c	-0.029397272
169	0x3d03c133	0.03216667
170	0x3d104ea8	0.035231262
171	0xbdd501a8	-0.104007065
172	0x3cea8ed5	0.02863256
173	0x3e2538f8	0.16135013
174	0xbcc051b9	-0.023476468
175	0xbde47a13	-0.11156096
176	0x3d3e97a4	0.046531335
177	0x3ac08bf3	0.0014690146
178	0x3e3b9bcc	0.1832115
179	0xbcf1a39e	-0.029496964
180	0xbd8a3bf6	-0.06749718
181	0xbd0c86d2	-0.034308262
182	0xbd9685c2	-0.07349731
183	0xbb672962	-0.0035272469
184	0xbd95502a	-0.07290681
185	0x3d85e426	0.065376565
186	0x3dc89f3f	0.09795999
187	0xbc62914a	-0.013828585
188	0xbdf9853b	-0.12183615
189	0x3dd69405	0.10477451
190	0x3cc04eb8	0.023475036
191	0xbd931e50	-0.07183516
192	0xbda3a32f	-0.07990109
193	0xbd8b0b50	-0.06789267
194	0xbccbdfae	-0.024886932
195	0xbad5ab78	-0.0016301712
196	0x3cde7a58	0.027157947
197	0xbdc94a7b	-0.09828659
198	0xbcc1f7fa	-0.023677815
199	0x3e092ff6	0.13397202
200	0xbd9de46f	-0.07709586
201	0x3d4ae163	0.04953135
202	0xbd922207	-0.071353965
203	0xbaa57920	-0.0012624599
204	0xbdb7903f	-0.0896306
205	0x3d12e28d	0.035860587
206	0xbd8e3646	-0.069439456
207	0xbea95ca4	-0.33078492
208	0xbb27a942	-0.0025583063
209	0xbdb63fc2	-0.088988796
210	0x3ccb25f0	0.024798363
211	0xbd0686ad	-0.03284328
212	0x3de9cc89	0.11415965
213	0xbe2a52c0	-0.16633129
214	0xbd33ecc8	-0.043926984
215	0xbd682d3e	-0.05668377
216	0xbd0fd48c	-0.03511481
217	0xbd14db0a	-0.036341704
218	0x3c0855fc	0.0083212815
219	0x3e07f050	0.13275266
220	0x3d0ae328	0.03390804
221	0xbcbd53e7	-0.023111297
222	0xbdb67dc6	-0.08910708
223	0x3dc853a6	0.0978158
224	0x3d86dca0	0.0658505
225	0xbe19b6dc	-0.15011162
226	0xbe096846	-0.13418683
227	0xbcc24c7d	-0.023718113
228	0xbda57c93	-0.08080401
229	0x3e1b017b	0.15137284
230	0x3d9defc9	0.07711751
231	0xbd9dbd06	-0.07702069
232	0xbd86d48e	-0.0658351
233	0x3d8ae096	0.067811176
234	0x3c4db872	0.012556182
235	0x3c86f32b	0.016473373
236	0xbd4f8ef2	-0.050673433
237	0xbc91dcf3	-0.017805552
238	0x3d229870	0.039696157
239	0x3e32cee2	0.17461732
240	0x3d6e6b69	0.058207903
241	0xbdadd3dd	-0.08487675
242	0xbe431acc	-0.19053191
243	0xbdccde89	-0.10003383
244	0x3df8ecda	0.12154551
245	0xbda06f85	-0.07833771
246	0xbbc1a3dc	-0.005909426
247	0x3de77a95	0.113026775
248	0x3d9c0f16	0.07620065
249	0x3dbe1c74	0.09282771
250	0x3d159484	0.03651859
251	0x3de20863	0.11036756
252	0xbcc53dc7	-0.02407731
253	0x3df75c96	0.12078206
254	0xbd81c092	-0.06335558
255	0x3da2b342	0.07944347
