Results/test5/Doughnut/Doughnut-130188.pt (torch, 770311 bytes, 33 tensors)

network_body._body_endoder.seq_layers.0.weight f4 [128, 114]
0	0x3daa04a7	0.083016686
1	0xbd5de0a3	-0.05416931
2	0xbabdb665	-0.0014473913
3	0xbe0f472c	-0.13991994
4	0xbdd8094e	-0.1054865
5	0x3de31bdf	0.110893
6	0xbdc9d29f	-0.09854626
7	0xbd43ea0d	-0.04783063
8	0x3e930e78	0.28721976
9	0xbdef7648	-0.11692482
10	0x3d8a1b20	0.06743455
11	0xbd4e0a9d	-0.05030309
12	0x3e1f31d1	0.15546347
13	0xbdcabc62	-0.098992124
14	0xbc25a1a4	-0.010109339
15	0x3d550091	0.052002493
16	0x3d50f12a	0.051011242
17	0xbdd48996	-0.10377805
18	0x3bb2e874	0.0054598395
19	0xbe059773	-0.13046055
20	0x3c1d92c3	0.00961751
21	0xbd9e0fbd	-0.077178456
22	0xbdc58bb1	-0.09645785
23	0x3d8342c3	0.06409218
24	0xbdb5868d	-0.08863554
25	0xbcf23dc7	-0.029570473
26	0xbcd1542b	-0.02555283
27	0xbbab96ca	-0.0052364813
28	0x3d86ce48	0.06582314
29	0x3e0cea1f	0.13761185
30	0x3d08d14e	0.033402734
31	0xbe2908ba	-0.16507235
32	0xbe36a92c	-0.17837971
33	0x3e1ed70c	0.15511721
34	0xbd09d8f0	-0.033654153
35	0xbd8bec56	-0.06832187
36	0x3d8f32fb	0.06992146
37	0xbd900d36	-0.0703377
38	0x3ca107a5	0.019656966
39	0xbd844d53	-0.06460061
40	0xbc86c7c1	-0.016452672
41	0xbd831794	-0.064009815
42	0x3c96f65d	0.018428022
43	0xbcd11a7e	-0.025525328
44	0xbe020ef4	-0.12701017
45	0xbd65cd76	-0.056104146
46	0x3d518237	0.051149573
47	0xbcc67578	-0.024225935
48	0x3e0cc318	0.13746297
49	0x3ca35969	0.019940095
50	0xbdf39622	-0.1189387
51	0xbca39346	-0.019967686
52	0xbd2a347f	-0.04155397
53	0x3e14ea06	0.14542398
54	0xbdf15cc4	-0.11785272
55	0xbd71e896	-0.0590597
56	0x3be95e98	0.007121872
57	0xbcef564a	-0.02921595
58	0x3ded97c5	0.11601213
59	0xbd813ada	-0.06310053
60	0x3db20f52	0.08694328
61	0x3c820106	0.015869629
62	0x3dbc9bd5	0.0920941
63	0xbce4823d	-0.027894134
64	0x3d5e8b4e	0.05433207
65	0x3d212ba7	0.03934827
66	0x3d131496	0.035908304
67	0x3e01ccce	0.12675783
68	0x3d4d8190	0.05017239
69	0xbd8a4376	-0.067511484
70	0x3ddfe3b3	0.10932102
71	0x3c2389b3	0.0099815605
72	0x3db74e9f	0.08950543
73	0xba023430	-0.0004966883
74	0x3d6208a9	0.05518404
75	0x3dc11497	0.09427755
76	0xbdb019c2	-0.08598663
77	0x3dabc74d	0.08387623
78	0xbd826147	-0.063662104
79	0xbd10357a	-0.03520725
80	0x3d0b87fd	0.034065235
81	0x3d0d1532	0.03444404
82	0xbd828ac4	-0.06374124
83	0x3d4e0683	0.05029918
84	0xbc8f5e1e	-0.017500933
85	0xbd269a31	-0.040674392
86	0x3d5b4057	0.053528156
87	0x3e051c48	0.1299907
88	0xbd8786cc	-0.06617507
89	0x3ca334cf	0.019922642
90	0x3d426fe5	0.047469992
91	0x3e0e2c23	0.13884024
92	0x3cf28a84	0.029607065
93	0xbcf41e36	-0.029799562
94	0xbce7c562	-0.028292362
95	0x3d4ee8b1	0.05051488
96	0x3d2693a1	0.040668134
97	0xbbfd8d20	-0.0077377707
98	0xbd078815	-0.033088762
99	0xbd1a2890	-0.03763634
100	0xbd67393c	-0.056451067
101	0xbdb730d9	-0.08944864
102	0xbbec66c2	-0.007214398
103	0xbb91ce3b	-0.0044496334
104	0x3d663d04	0.056210533
105	0xbe1fb7df	-0.15597485
106	0xbdaa5423	-0.08316829
107	0x3dbab100	0.09115791
108	0x3e1a396c	0.15060967
109	0x3cc7d4cf	0.024393467
110	0xbdcd3439	-0.10019726
111	0x3e008705	0.12551506
112	0xbbcb936c	-0.0062126424
113	0x3dd076a2	0.101788774
114	0xbd527abf	-0.05138659
115	0x3d3f71fb	0.04673956
116	0x3cc2bb7a	0.023771036
117	0x3dd30156	0.10302989
118	0x3c82480f	0.0159035
119	0xbe008a9e	-0.12552878
120	0xbd926c04	-0.071495086
121	0x3dec892f	0.11549603
122	0x3dca53ce	0.09879266
123	0xbde30739	-0.11085362
124	0x3ce7841b	0.028261235
125	0xbd72e654	-0.05930169
126	0xbe3a2377	-0.18177591
127	0x3e231d1b	0.15929072
128	0x3d6e803e	0.05822777
129	0xbc768c35	-0.015048076
130	0x3df993c9	0.12186391
131	0xbcf6d7b3	-0.03013215
132	0xbe09958f	-0.13435958
133	0xbcdfb52a	-0.027308065
134	0x3de47f5d	0.11157105
135	0x3c937720	0.01800114
136	0xbd4d3f7d	-0.050109375
137	0xbd303d69	-0.043027315
138	0xbe4279d3	-0.18991785
139	0x3e2e7eb8	0.17040527
140	0x3cdb7dc5	0.02679337
141	0x3db2231b	0.08698102
142	0xbc4ef977	-0.012632719
143	0xbc83b7dd	-0.016078884
144	0x3d45d748	0.04830101
145	0xbd694ba1	-0.05695689
146	0x3ddcaf28	0.10775596
147	0xbd0f4e9f	-0.03498709
148	0x3e001a01	0.1250992
149	0xbc6f4265	-0.014603232
150	0xbdaa8570	-0.083262324
151	0x3d912adc	0.07088253
152	0xbce7911a	-0.028267432
153	0x3e897651	0.2684808
154	0xbbcab35c	-0.006185932
155	0xbd981299	-0.07425422
156	0xbe24956f	-0.1607263
157	0xbdd4dbcd	-0.10393486
158	0xbb201f29	-0.0024432635
159	0xbc133d75	-0.0089868205
160	0xbd7e148f	-0.062031325
161	0xbd85da98	-0.06535834
162	0x3dee0ec4	0.1162391
163	0x3cac5909	0.021038549
164	0x3e08e0c2	0.13366988
165	0xbd738547	-0.059453275
166	0xbe320ac8	-0.17386925
167	0x3e100f07	0.14068232
168	0xbd62fd83	-0.05541755
169	0x3cf9215a	0.030411411
170	0xbca1478f	-0.019687442
171	0x3d383ed1	0.04498178
172	0x3d4d1e7c	0.0500779
173	0x3c2dfa7e	0.010618804
174	0xbd696fe8	-0.056991488
175	0xbe265a2a	-0.16245332
176	0x3caf6191	0.021408828
177	0xbd8cc523	-0.06873538
178	0x3d6b8f80	0.0575099
179	0x3d4009a3	0.04688419
180	0x3d0631c7	0.032762315
181	0xbd58e5d1	-0.052953545
182	0xbded5220	-0.1158793
183	0xbe2ba9ce	-0.16763994
184	0x3bed86ab	0.0072487197
185	0x3db59cfb	0.08867832
186	0xbdea250b	-0.11432847
187	0x3dbd3096	0.09237783
188	0x3dd9a12f	0.106264465
189	0xbccbb01c	-0.024864249
190	0x3e00f7dd	0.12594552
191	0x3dc949b0	0.09828508
192	0x3bd2b437	0.0064301747
193	0xbd67297f	-0.056436058
194	0x3cdc9786	0.02692772
195	0xbbddab8e	-0.0067648357
196	0xbd5b2aed	-0.053507734
197	0x3e30f79a	0.17281953
198	0xbde6bb72	-0.11266221
199	0xbdeed684	-0.11662009
200	0xbbf01386	-0.007326546
201	0x3cc1ca78	0.023656115
202	0xbda9e0e9	-0.08294851
203	0xbd5c9922	-0.053856976
204	0xbda830d7	-0.082124405
205	0xbd8e0e26	-0.06936292
206	0xbd2358ff	-0.039879795
207	0x3d212bc3	0.039348375
208	0x3d803db8	0.06261772
209	0xbb80c47d	-0.003929673
210	0x3e03b1c8	0.12860787
211	0xbd00ed4a	-0.031476296
212	0x3dea0efa	0.11428638
213	0x3daba96c	0.08381924
214	0x3d05a64c	0.032629296
215	0xbc6ccf67	-0.014453745
216	0xbd805723	-0.0626662
217	0xbdbd0972	-0.09230317
218	0x3e2fc9d5	0.17166837
219	0xbdc30faa	-0.09524472
220	0xbc7cd68c	-0.015432011
221	0xbd0cd075	-0.034378488
222	0x3d8059b9	0.06267113
223	0xbd646391	-0.055759016
224	0xbd531301	-0.051531795
225	0x3b4c7976	0.0031200326
226	0x3c4fec04	0.012690548
227	0x3d085caf	0.033291515
228	0x3e3d9d6e	0.18517086
229	0x3ca76310	0.020432979
230	0xbd7836e5	-0.060599227
231	0xbd085574	-0.03328462
232	0xbd1ae8e0	-0.037819743
233	0xbd47da78	-0.048792332
234	0x3e0f8450	0.14015317
235	0x3cd67bfc	0.026182167
236	0x3c291653	0.010320264
237	0x3d8b3562	0.06797291
238	0xbdfbd5c6	-0.122966334
239	0x3ea162bb	0.31520638
240	0x3e62a653	0.2213376
241	0xbbce4189	-0.0062944335
242	0xbd132b32	-0.035929866
243	0xbd52d62f	-0.051473793
244	0x3e291162	0.16510537
245	0x3dac3da5	0.08410195
246	0xbe1c121d	-0.15241285
247	0xbd7872d9	-0.060656402
248	0x3d5bdf0a	0.053679504
249	0xbcea8dfe	-0.02863216
250	0xbc9239e1	-0.017849864
251	0x3d719ef6	0.058989488
252	0xbb8dc472	-0.0043263966
253	0xbd69faee	-0.05712407
254	0xbcbbee72	-0.022940848
255	0xbd9fdb87	-0.078055434

network_body._body_endoder.seq_layers.0.bias f4 [128]
0	0xbc0dbc46	-0.008650845
1	0x3c06fe98	0.008239411
2	0xbbb10f7e	-0.005403458
3	0x3baec270	0.0053332373
4	0x3be8dee5	0.007106649
5	0x3bce15e9	0.006289233
6	0xbbfdc796	-0.0077447398
7	0xbc0bf89e	-0.008543162
8	0x3bc9408a	0.006141727
9	0x3b4201c8	0.0029603112
10	0x3c148770	0.009065494
11	0x3bdb75d4	0.006697396
12	0x39c9c56f	0.00038484807
13	0x3a716f44	0.000921
14	0x3b844193	0.0040361374
15	0xbbe2815a	-0.0069123926
16	0xbc0ef24e	-0.008724762
17	0xbbe159fb	-0.0068771816
18	0x3c9679a0	0.018368542
19	0x3c04e9b6	0.008112362
20	0xbb267e28	-0.0025404785
21	0x3b89a168	0.0042001493
22	0xbc08e06c	-0.008354288
23	0x3bb76348	0.005596552
24	0x3bf1992e	0.007372997
25	0x3b9e5c9d	0.0048328177
26	0x3c11fc01	0.00891018
27	0x3c2c3457	0.010510526
28	0x3c10beba	0.008834535
29	0xbbfc3f58	-0.007697981
30	0x3c009bbe	0.007849632
31	0xbb0605e5	-0.002045029
32	0x3be8d2b6	0.007105197
33	0x3a16e0a2	0.0005755519
34	0x3be47d38	0.006972935
35	0x3be73f01	0.007057071
36	0xbbdd1c19	-0.0067477343
37	0xbbfb21a4	-0.0076639224
38	0x3b447e62	0.0029982557
39	0x3bf8b624	0.007590072
40	0x3c15334e	0.00910647
41	0x3ad5ef84	0.0016321992
42	0xba1eab8b	-0.00060527836
43	0x3bf7ed4d	0.0075661303
44	0xbbebdd38	-0.007198002
45	0x3bfa57b1	0.007639848
46	0x3bd245a3	0.0064169928
47	0xbbb55673	-0.005533987
48	0x3bdd2f75	0.006750042
49	0xbc0fe42f	-0.008782431
50	0x3acaf1c8	0.0015483433
51	0x3c0fe6a2	0.0087830145
52	0xbb9dc4a4	-0.004814701
53	0x3a9ccccf	0.0011962893
54	0x3bbaebb7	0.005704369
55	0x3c5dfde8	0.0135493055
56	0xbbf9cd58	-0.007623356
57	0x3c0c4a11	0.008562581
58	0xba700c7d	-0.00091571343
59	0x3c018526	0.00790528
60	0x3b4ceec7	0.0031270252
61	0xbc08c028	-0.008346595
62	0xbc059f39	-0.008155637
63	0xbc0ff939	-0.008787447
64	0xb91c8bcc	-0.00014929398
65	0xbb48ea70	-0.0030657314
66	0x3c0333ba	0.008007938
67	0x3bba0c0a	0.0056777047
68	0x3bee79ea	0.007277717
69	0xbc066703	-0.008203271
70	0xbbaa14c2	-0.005190463
71	0x3bff00f9	0.0077820984
72	0x3c02f245	0.007992332
73	0xbc004c49	-0.007830688
74	0x3b437a80	0.0029827654
75	0x3bf6380f	0.007514007
76	0xbbdae431	-0.0066800346
77	0xbbf523fe	-0.0074810972
78	0xbbfeb3a0	-0.007772878
79	0xbc01792f	-0.007902428
80	0x3b2b5f8c	0.002614948
81	0x3b5a197b	0.0033279348
82	0xbb906e7e	-0.004407703
83	0x3bd58379	0.006515917
84	0xba9c660d	-0.0011932269
85	0xbbb340ef	-0.005470387
86	0xbc0e0eed	-0.008670551
87	0x3b63aa1f	0.0034738851
88	0x3bd57888	0.0065146126
89	0x3bfcc1ea	0.007713546
90	0x3bdcb4c5	0.0067354166
91	0x3bda73d5	0.0066666403
92	0xbbd224f8	-0.0064130984
93	0x3bbbebcd	0.0057348968
94	0x3c0c8d84	0.008578662
95	0x3c0d6d5d	0.008632031
96	0x3bc02308	0.005863551
97	0xbb29162c	-0.002580057
98	0x3c09703d	0.008388576
99	0x3c04c0de	0.008102624
100	0xbbfefd7f	-0.007781684
101	0x3a6d7ab7	0.00090591185
102	0xbc06aa37	-0.008219293
103	0x3b295e4b	0.0025843557
104	0x3c0e7bf2	0.008696543
105	0x3c022130	0.007942483
106	0xbc10d53e	-0.008839903
107	0xbb40b1bb	-0.002940281
108	0x3c09a47b	0.008401032
109	0x3bfc4b5f	0.0076994146
110	0x3be61d91	0.0070225676
111	0xbc0fcdf6	-0.008777132
112	0xbbb1887b	-0.005417881
113	0x3c0c5d66	0.00856719
114	0xbba0d1bd	-0.0049078153
115	0x3c0bc2cb	0.008530329
116	0xbbfe1dd5	-0.007755021
117	0x3c0fd3f1	0.008778558
118	0x3bd70dd8	0.0065629296
119	0xbbccf595	-0.0062548616
120	0xbbf8da29	-0.007594366
121	0x3c3e3ed3	0.011611658
122	0xbc0c8aa8	-0.00857798
123	0x3c0eb219	0.008709454
124	0x3bf2efc4	0.007413836
125	0x3bf59b0c	0.0074952897
126	0x3a45ac3e	0.00075406197
127	0xbc19f0a0	-0.009395748

network_body._body_endoder.seq_layers.2.weight f4 [128, 128]
0	0xbd16acae	-0.036785774
1	0x3e53282d	0.20620795
2	0xbe383b5f	-0.17991398
3	0xbdc59794	-0.09648052
4	0x3d8375fe	0.064189896
5	0x3c8672bb	0.01641213
6	0xbc2e4f1a	-0.0106389765
7	0xbc074efc	-0.008258577
8	0xbdcca2b6	-0.09991972
9	0x3cdab2dd	0.026696617
10	0x3e994b0c	0.2994007
11	0xbd802e13	-0.06258788
12	0xbbcdb77a	-0.0062779756
13	0xbc78a8bc	-0.015176948
14	0x3c906822	0.01762778
15	0xbdf31132	-0.11868514
16	0x3d031658	0.03200373
17	0xbc98d630	-0.01865682
18	0xbd740e59	-0.059583995
19	0x3cc74035	0.024322608
20	0x3dee533c	0.116369694
21	0x3cc51ce8	0.024061635
22	0x3aea262d	0.001786416
23	0xbb2230e7	-0.0024748386
24	0xbd528e26	-0.051405095
25	0xbd494760	-0.049140334
26	0xbd1eb571	-0.038747255
27	0xbd0cf47a	-0.03441284
28	0x3dc06cce	0.09395753
29	0xbcb194b9	-0.021677362
30	0xbd73ca6a	-0.05951921
31	0xbbbe98d1	-0.005816557
32	0x3db42450	0.087959886
33	0x3d91d9db	0.07121631
34	0xbcac1bec	-0.021009408
35	0x3d01c3c0	0.031680822
36	0xbdc893da	-0.097938254
37	0x3cac2de9	0.021017985
38	0xbde19cba	-0.11016221
39	0xbd6563ea	-0.05600349
40	0xbd9386f5	-0.072034754
41	0xbe1f3b40	-0.15549946
42	0xbd88b67b	-0.066754304
43	0x3d12fb69	0.035884295
44	0xbd93c222	-0.07214762
45	0xbc1e6279	-0.009667032
46	0xbda1b48b	-0.07895764
47	0xbd702edf	-0.05863845
48	0x3ce14613	0.027499234
49	0x3d1cab77	0.03824946
50	0x3d2ab19a	0.04167328
51	0xbc4dd496	-0.0125628915
52	0xbde3d04b	-0.11123713
53	0x3da03dd3	0.07824292
54	0x3da2c6ce	0.07948075
55	0xbe506f84	-0.2035504
56	0xbe8f5342	-0.27993208
57	0x3d5375de	0.05162608
58	0xbd75296f	-0.059853967
59	0xbd38e276	-0.045137845
60	0x3d9c6f05	0.07638363
61	0x3c23ee10	0.010005489
62	0x3db83776	0.08994953
63	0xbe04c1e0	-0.12964582
64	0xbd79e2a2	-0.06100715
65	0x3cafda71	0.021466466
66	0x3dae0fe0	0.08499122
67	0x3df1e9fc	0.11812207
68	0xbd4433b8	-0.047900885
69	0x3da9d75d	0.082930304
70	0xbe06cefe	-0.13164899
71	0xbd4dc547	-0.050236966
72	0xbd1a6c37	-0.037700858
73	0xbc907a66	-0.01763649
74	0xbd0c1334	-0.034198
75	0x3dbd26ae	0.09235893
76	0xbd86545f	-0.06559061
77	0x3dcc4d35	0.099756636
78	0xbd6d35e0	-0.057912707
79	0xbd7e897d	-0.062142838
80	0x3dc49e1b	0.09600469
81	0xbe4276c2	-0.18990615
82	0xbe0a9922	-0.13534978
83	0x3d398081	0.045288566
84	0xbe3ed9c8	-0.18637764
85	0xbc06b98d	-0.00822295
86	0xbd49a912	-0.049233504
87	0x3d2cf8d3	0.042229485
88	0x3dce8727	0.10084372
89	0xbd868135	-0.06567613
90	0x3bb3dbf9	0.0054888693
91	0xbd0bc7f0	-0.034126222
92	0xbb8a9f28	-0.0042303987
93	0x3d83e90e	0.06440936
94	0x3b93fc92	0.0045161927
95	0x3cfea901	0.031086447
96	0x3de47a59	0.111561485
97	0x3de70cd3	0.11281743
98	0xbe55cd12	-0.2087901
99	0xbcb532cb	-0.022118947
100	0xbe20df1d	-0.15710111
101	0x3c3ce910	0.011530176
102	0xb872cd88	-5.7888712e-05
103	0xbd26d0da	-0.04072652
104	0x3c6103a1	0.013733775
105	0xbd297574	-0.041371778
106	0xbdec5459	-0.115395255
107	0x3cc72427	0.024309231
108	0xbd3eda41	-0.046594862
109	0x3e2d7b60	0.16941595
110	0xbe0667af	-0.1312549
111	0xbd85a212	-0.06525053
112	0x3e1c5602	0.15267184
113	0x3c09fec9	0.008422562
114	0xbd89e17d	-0.067324616
115	0x3de1ee3e	0.11031769
116	0xbe0cd8d8	-0.13754594
117	0x3d53fc5a	0.051754333
118	0x3d996533	0.07490005
119	0xbd539c19	-0.05166254
120	0x3d19fdaf	0.037595447
121	0xbca45f99	-0.020065116
122	0x3ce08c64	0.027410693
123	0x3e314d01	0.17314531
124	0xbd513594	-0.051076487
125	0x3c9d0cdf	0.019171176
126	0xbeb48ac0	-0.35262108
127	0x3d22c69b	0.039740186
128	0x3d5d984e	0.054100327
129	0xbe1f0872	-0.15530565
130	0x3c414e80	0.011798501
131	0x3c47a580	0.012185454
132	0xbd208c47	-0.03919628
133	0x3dcfb432	0.101417914
134	0xbab7ec09	-0.0014032136
135	0xbe29c7fa	-0.16580191
136	0xbd9594b9	-0.07303757
137	0xbd902b17	-0.07039469
138	0x3d6c2c51	0.05765945
139	0xbcd6e0c4	-0.026230223
140	0x3d813dcf	0.06310617
141	0x3c900451	0.017580183
142	0xbdf715a4	-0.120646745
143	0xbe4a7f8c	-0.19775218
144	0x3e188c48	0.14897263
145	0x3df613d7	0.12015503
146	0x3da369a8	0.07979137
147	0xbda0f42d	-0.07859073
148	0x3d226b2e	0.039652996
149	0xbcc73d31	-0.02432117
150	0x3d3a0340	0.045413256
151	0xbe20f31c	-0.15717739
152	0xbbc43bfe	-0.005988597
153	0x3d2cb608	0.042165786
154	0xbe0198b3	-0.12655906
155	0x3da4d64a	0.08048685
156	0x3df23c1b	0.118278705
157	0xbe03f9b5	-0.12888224
158	0x3c779711	0.015111701
159	0x3d8c9de4	0.06866053
160	0xbd057636	-0.032583438
161	0x3e19bda2	0.15013745
162	0xbe0f7e01	-0.1401291
163	0xbd5d2303	-0.053988468
164	0x3c11598b	0.008871446
165	0x3c66a1a7	0.014076627
166	0xbd0788e1	-0.033089522
167	0x3bd9540e	0.0066323346
168	0xbcff17e7	-0.031139327
169	0x3d0757d4	0.033042744
170	0x3d0a290c	0.03373055
171	0xbdd30770	-0.10304153
172	0x3ce28604	0.027651794
173	0x3e25bc68	0.16185153
174	0xbcc43d80	-0.023955107
175	0xbde71f21	-0.11285234
176	0x3d383e53	0.044981312
177	0x37f184e0	2.8791314e-05
178	0x3e3c8ad9	0.18412341
179	0xbce7363f	-0.028224109
180	0xbd8d3f87	-0.068968825
181	0xbd0b5074	-0.034012273
182	0xbd96801a	-0.07348652
183	0xbb8a2f6d	-0.0042170794
184	0xbd98627c	-0.074406594
185	0x3d865e61	0.0656097
186	0x3dc4dbb3	0.09612217
187	0xbc5bce1a	-0.013415838
188	0xbdf980f7	-0.12182801
189	0x3dd384ec	0.10328087
190	0x3cb3f879	0.021969067
191	0xbd95d94e	-0.07316838
192	0xbda6a089	-0.081360884
193	0xbd8e0d1f	-0.069360964
194	0xbcc5fd1f	-0.02416855
195	0xbb03f71e	-0.0020136307
196	0x3cd9a34f	0.02656713
197	0xbdcb84dd	-0.09937451
198	0xbccab784	-0.02474571
199	0x3e0a52c5	0.13508137
200	0xbd9bb5db	-0.076030456
201	0x3d45bb0d	0.04827409
202	0xbd9079b0	-0.0705446
203	0xb98e53b9	-0.0002714673
204	0xbdba9df7	-0.09112161
205	0x3d1088f3	0.035286855
206	0xbd8b015f	-0.06787371
207	0xbeaa217d	-0.33228675
208	0xbaa7bf3c	-0.0012798081
209	0xbdb20936	-0.08693163
210	0x3cbf405f	0.023346124
211	0xbd034696	-0.032049738
212	0x3deaf9da	0.11473437
213	0xbe2a3cf9	-0.16624822
214	0xbd2e2539	-0.042515967
215	0xbd6e4fca	-0.05818156
216	0xbd10cbcc	-0.035350606
217	0xbd125948	-0.035729676
218	0x3c121b43	0.0089176325
219	0x3e063e50	0.13109708
220	0x3d04ce02	0.032423027
221	0xbcba4810	-0.02273944
222	0xbdb3c878	-0.08778471
223	0x3dca73b0	0.09885347
224	0x3d890b56	0.06691615
225	0xbe1b37a6	-0.15157947
226	0xbe084cea	-0.1331059
227	0xbcce97b4	-0.025218822
228	0xbda26ce6	-0.07930927
229	0x3e194a7b	0.14969818
230	0x3d9adba7	0.075614266
231	0xbd9dec2e	-0.07711063
232	0xbd8429a4	-0.06453255
233	0x3d84bdbf	0.06481504
234	0x3c352801	0.011056901
235	0x3c83353e	0.016016599
236	0xbd4cb6df	-0.049979087
237	0xbc887760	-0.016658485
238	0x3d2056a9	0.039145146
239	0x3e313056	0.17303595
240	0x3d6eb02e	0.058273487
241	0xbdab2910	-0.083574414
242	0xbe41c7a9	-0.1892382
243	0xbdca4cf7	-0.09877961
244	0x3df5e8fa	0.120073274
245	0xbd9df975	-0.07713596
246	0xbbfd031b	-0.0077213175
247	0x3de46f65	0.11154059
248	0x3d99be84	0.07507041
249	0x3dbc631c	0.09198591
250	0x3d1d91f9	0.03846929
251	0x3de4a5f5	0.11164466
252	0xbcbe8a9e	-0.023259457
253	0x3df9786b	0.12181171
254	0xbd84bea9	-0.06481678
255	0x3d9fb43a	0.07798047

network_body._body_endoder.seq_layers.2.bias f4 [128]
0	0x3c1538dc	0.009107795
1	0x3c044123	0.00807217
2	0xbc190a0b	-0.009340773
3	0x3c093cbc	0.008376297
4	0xbc13b014	-0.009014148
5	0xbc1c8b93	-0.009554761
6	0xbc15ae2b	-0.009135763
7	0xbb9391f3	-0.0045034825
8	0xbc0e5dde	-0.008689372
9	0xbc14f7b4	-0.00909226
10	0xbb93013f	-0.0044862325
11	0x3c0e45a2	0.008683594
12	0xbc127878	-0.008939855
13	0x3b469bc5	0.0030305248
14	0xbbff3027	-0.0077877226
15	0xbb7eeabe	-0.0038897241
16	0xba2d051a	-0.00066001865
17	0x3bf05b26	0.0073350845
18	0x3b411ff3	0.0029468506
19	0x3c169c65	0.009192561
20	0xbbf3274a	-0.007420455
21	0xbbb85e4f	-0.005626477
22	0x3b422c08	0.0029628295
23	0x3c14943a	0.009068543
24	0xbb48dc5f	-0.003064893
25	0xbb5140f4	-0.0031929584
26	0x3b332ff4	0.0027341815
27	0x3b024a83	0.0019880838
28	0x3c0bbf9f	0.008529573
29	0xbb93fabf	-0.0045159752
30	0xbc1ce0c3	-0.009575072
31	0x3c0cb022	0.008586915
32	0x3b4c1ea0	0.0031146184
33	0xbc1511f2	-0.009098517
34	0xbb2a8a5c	-0.002602241
35	0xbbd5b24f	-0.0065215
36	0xbc1815aa	-0.009282509
37	0x3ade09b5	0.0016940149
38	0x3c101570	0.008794174
39	0xbc0e5994	-0.008688349
40	0xba2ea96e	-0.000666282
41	0xbb833dae	-0.0040051555
42	0x3c0e1b5b	0.008673514
43	0x3c0e3854	0.008680422
44	0xbc13feb5	-0.009032895
45	0xbbd7f782	-0.0065907845
46	0x3c10ae84	0.00883067
47	0xbbd54af7	-0.0065091806
48	0xbc13d36b	-0.009022574
49	0xbb82762c	-0.0039813723
50	0x3c0ed8c2	0.008718671
51	0xbc1b6d65	-0.009486531
52	0xbc1b1bf8	-0.0094671175
53	0x3c09d421	0.008412392
54	0x3c0142db	0.007889475
55	0x3b9956e7	0.004679549
56	0xbb02e3a1	-0.0019972103
57	0xbc0e20a7	-0.008674777
58	0xbc02af72	-0.0079764
59	0xbc156e6b	-0.009120564
60	0xbc1dc828	-0.0096302405
61	0xbac660c7	-0.0015135043
62	0x3bcaeb6b	0.006192615
63	0xb9b842d1	-0.00035144997
64	0x3c01da42	0.007925572
65	0x3b6e4dd5	0.003636231
66	0xbbd0e8db	-0.006375415
67	0x3b1e76dd	0.0024179735
68	0xbc0656ac	-0.008199375
69	0x3c05cdb1	0.008166716
70	0xbc1ca51b	-0.009560849
71	0x3a3a4999	0.0007106304
72	0x3c124705	0.008928065
73	0x3c12a85d	0.008951274
74	0xbb339619	-0.0027402698
75	0xbc1c03ea	-0.009522418
76	0x3a07af6b	0.00051759806
77	0x3c12e214	0.008965034
78	0x3bfb954f	0.007677711
79	0x3bcf249f	0.0063215042
80	0xbbbcde40	-0.005763799
81	0x3c028dad	0.007968348
82	0xbc1c7a8e	-0.009550704
83	0xbc0382b4	-0.0080267675
84	0x3c0c3fec	0.008560162
85	0xbc24be6d	-0.010055167
86	0x3c0dd6b0	0.0086571425
87	0x3c06c5b0	0.008225843
88	0x3bbaddfa	0.005702731
89	0xbbe57f98	-0.0070037358
90	0xbbb51da7	-0.0055272165
91	0xbc164c40	-0.009173453
92	0x3c15bff0	0.00914
93	0x3c10d071	0.008838759
94	0xbc04e809	-0.008111962
95	0x3b7a71b7	0.0038214752
96	0x3c080f30	0.008304402
97	0xbbdfbbf5	-0.006827826
98	0x3c191532	0.009343432
99	0x3c0f6eef	0.008754476
100	0x3c087878	0.008329503
101	0x3ac69e06	0.0015153296
102	0x3be0a09b	0.006855083
103	0x3bd364cc	0.006451225
104	0xbbe1a983	-0.0068866624
105	0xbc196aa1	-0.009363801
106	0x3c0f3626	0.008740937
107	0x3bc415fa	0.005984065
108	0xbc172b79	-0.009226673
109	0xbc169b0e	-0.009192241
110	0x3c07ce6c	0.008288961
111	0xbc1bc46c	-0.00950728
112	0x3c10629e	0.008812575
113	0x3a933ab3	0.0011232704
114	0xbbe457eb	-0.0069684885
115	0xbc10b1a2	-0.008831413
116	0x3c13d158	0.009022079
117	0x3bb0c15f	0.0053941454
118	0xbc0664eb	-0.008202772
119	0x3c1a3f60	0.009414524
120	0xbbbfc799	-0.0058526513
121	0x3c09b96b	0.0084060235
122	0xbc180822	-0.009279283
123	0x3c0f12ac	0.008732479
124	0x3bbd1344	0.005770119
125	0x3c088454	0.008332331
126	0x3c10f2d8	0.008846961
127	0x3c0ca674	0.008584607

action_model._discrete_distribution.branches.0.weight f4 [2, 128]
0	0x3c848103	0.016174799
1	0xbbd57ca5	-0.006515103
2	0xbc0a33a6	-0.0084351655
3	0x3c62ba8a	0.01383842
4	0xbc304474	-0.010758508
5	0xbbf340a9	-0.0074234796
6	0xbb7ee639	-0.0038894548
7	0xbb218483	-0.0024645634
8	0xbbd0b5ec	-0.006369343
9	0xbc8a0e30	-0.016852468
10	0xbc143a8b	-0.009047161
11	0xbaf42a4e	-0.001862833
12	0x3bc8d4ee	0.006128899
13	0x3bb03ec8	0.005378578
14	0xbac871b5	-0.0015292676
15	0xbabe12e1	-0.0014501476
16	0xbb78d299	-0.0037967323
17	0x3c92597b	0.017864933
18	0xbacea211	-0.0015764852
19	0x3c907f3b	0.017638793
20	0xbc7d255b	-0.015450801
21	0x3ab4b6d0	0.0013787393
22	0xbb4747ad	-0.0030407712
23	0x3c5c5975	0.013449063
24	0x3c5e944e	0.013585163
25	0x3bfeba64	0.0077736843
26	0xbb9bed88	-0.0047585405
27	0x3c265318	0.010151647
28	0x3aa0ca8a	0.0012267393
29	0x3b2b00fd	0.0026093118
30	0xbbb5ca33	-0.0055477857
31	0x3c9c7430	0.019098371
32	0x3b3a0951	0.00283869
33	0xbb52c4b3	-0.00321607
34	0xbc310077	-0.0108033335
35	0xbc834c0d	-0.016027475
36	0xbccb7334	-0.024835207
37	0xbb309c81	-0.0026948752
38	0x3c6d6460	0.014489263
39	0xbc62315a	-0.013805712
40	0xbc499447	-0.0123034185
41	0x3be23d44	0.006904276
42	0x3c7e0e4b	0.015506337
43	0x3c263777	0.01014506
44	0xbc8b9a2f	-0.017041294
45	0x3b5e399f	0.0033908857
46	0x3c984139	0.018585788
47	0xbb3c2c4a	-0.0028712922
48	0xbcdc2edd	-0.026877815
49	0xbc31b20a	-0.0108456705
50	0x3c5b3c48	0.013381071
51	0xbc55100e	-0.013004316
52	0xbc84c810	-0.016208678
53	0x3caf6a94	0.021413125
54	0x3c12b950	0.008955315
55	0x3c908393	0.017640864
56	0xbc39f7d6	-0.011350593
57	0xbc63615f	-0.013878196
58	0xbc90d678	-0.017680392
59	0xbc421772	-0.01184641
60	0xba4202cf	-0.0007400931
61	0x3c0ff61d	0.008786705
62	0x3aaebbe1	0.0013331139
63	0x3c0d3446	0.00861842
64	0xb9694d3e	-0.00022249387
65	0xb937c7b3	-0.00017526634
66	0x3b34f405	0.0027611267
67	0xbc0324e5	-0.008004402
68	0xbbf3701c	-0.007429136
69	0x3c4c77ef	0.012479766
70	0xbc3984a3	-0.011323127
71	0x397ae306	0.00023926431
72	0x3c8d10b2	0.017219875
73	0x3c66c051	0.014083938
74	0x3c14c1c5	0.009079401
75	0xbbe8621c	-0.0070917737
76	0xb99471c9	-0.00028313536
77	0x3ce53d00	0.027983189
78	0x3acf7a15	0.001582923
79	0x38dbcab3	0.000104804894
80	0x3ab974eb	0.0014149224
81	0x3b6732be	0.0035278047
82	0xbc2c4fc5	-0.010517065
83	0x3bd4d946	0.0064956276
84	0x3c85c9dd	0.016331607
85	0xbc8294c1	-0.015940072
86	0x3c96c1ae	0.0184029
87	0x3c807331	0.015679928
88	0x3be46a05	0.0069706463
89	0xbc8ed69b	-0.017436316
90	0xbcbec87e	-0.023288961
91	0xbbb79c8b	-0.005603378
92	0x3be582ad	0.007004103
93	0x3c82694f	0.015919356
94	0x3bd9b5f5	0.0066440054
95	0xb97d33be	-0.00024147236
96	0x3c115a82	0.008871676
97	0x3a2856a9	0.0006421605
98	0x3c6637ab	0.014051358
99	0x3c0319ca	0.008001754
100	0x3b09c16c	0.002101983
101	0x3c2fa284	0.010719899
102	0x3bdd8250	0.006759919
103	0x3b9be30c	0.0047572907
104	0x3ba86d15	0.0051399567
105	0xbb8ec5b6	-0.004357065
106	0xb61e0b82	-2.3550533e-06
107	0xbc6f17e0	-0.014593095
108	0xbd087041	-0.03331018
109	0xbb9e945e	-0.004839464
110	0x3b34a3bc	0.0027563414
111	0xbc61c185	-0.013779049
112	0x3c9cf3f4	0.019159295
113	0x3c8408b0	0.016117424
114	0x3a141e7f	0.0005650296
115	0xbb9f0853	-0.0048532872
116	0x3cd1db8c	0.025617383
117	0xb906d63a	-0.00012859041
118	0xbc88e4e5	-0.016710708
119	0x3bf308e3	0.007416831
120	0x3c0c65d6	0.008569201
121	0xbb791fcc	-0.0038013337
122	0xbc8eb48f	-0.017420081
123	0x3bc9ca93	0.006158182
124	0xbb6cbb26	-0.0036122291
125	0x3c84a88f	0.016193656
126	0x3c263da2	0.01014653
127	0x3d043f58	0.03228697
128	0xbc5c9dab	-0.013465325
129	0x3cf1f992	0.02953795
130	0x3ca770d5	0.020439545
131	0xbb9f3267	-0.0048583033
132	0x3cb1b8ea	0.02169462
133	0x3c85daad	0.016339624
134	0x3c891e47	0.01673807
135	0x3c3846b9	0.01124733
136	0x3c99b85a	0.018764663
137	0x3b8a399a	0.0042182924
138	0x3bde7f3d	0.0067900703
139	0xba4e61da	-0.00078728574
140	0x3c9ab5dc	0.018885545
141	0xbbd56ea9	-0.006513436
142	0x3b89212e	0.0041848635
143	0x3a845677	0.0010096569
144	0xbb669731	-0.0035185332
145	0x3b29c0d0	0.0025902279
146	0xbc796448	-0.015221663
147	0xbcb14480	-0.021639109
148	0x3b8269ee	0.003979913
149	0x3ac6feb9	0.0015182114
150	0x3b90e86a	0.004422237
151	0xbcaf7a56	-0.021420639
152	0x3c0653d8	0.008198701
153	0x3a5d41f5	0.00084403093
154	0x3b1d7879	0.0024028106
155	0xba8936d3	-0.0010468609
156	0xbcc73147	-0.02431549
157	0x3c8fe7c4	0.01756657
158	0x3c878925	0.016544888
159	0xbb103174	-0.0022002133
160	0x3b7b5a17	0.0038353258
161	0x3c4b1094	0.012394089
162	0x3852506e	5.0142808e-05
163	0x39f7ea77	0.000472862
164	0x3babf72d	0.0052479715
165	0xbbb93fa5	-0.005653339
166	0xbc4e269f	-0.01258245
167	0x3c2a70f6	0.010402909
168	0x3cb103bd	0.021608228
169	0x3bb888ef	0.005631558
170	0xbc3d37a9	-0.011548915
171	0xbc26a0a7	-0.010170138
172	0x3bd85c12	0.0066027725
173	0x3c812cb9	0.015768396
174	0xbc42d941	-0.011892618
175	0x3c68e091	0.014213697
176	0x3bc4894d	0.005997813
177	0x3b2edd8a	0.002668234
178	0xbbf6fc3e	-0.007537394
179	0x3c31673d	0.010827837
180	0x3c80e355	0.0157334
181	0x3ae33c21	0.0017336645
182	0xbbcc769a	-0.0062397243
183	0x3b86c2df	0.004112586
184	0xbb44ad8f	-0.0030010676
185	0x3ce6aff0	0.028160065
186	0x3c8eab6a	0.017415721
187	0x3c779f48	0.015113659
188	0x3c9498a2	0.018139187
189	0x3c14bb73	0.0090778945
190	0x3b8e5fe4	0.004344927
191	0x3befa680	0.0073135495
192	0xbca4554b	-0.020060202
193	0x3bf410bd	0.0074482844
194	0x3bec0add	0.0072034434
195	0x3a93ce84	0.0011276756
196	0x3c8b8a95	0.017033854
197	0xbc3a41e2	-0.011368247
198	0x3c702eb3	0.014659571
199	0x3ca3c108	0.019989505
200	0xbcf4e124	-0.029892512
201	0xbbf6d4d1	-0.007532694
202	0x3a5a43d6	0.00083261484
203	0x3c614e5f	0.013751595
204	0x3c1e153c	0.009648617
205	0xbc09f4cf	-0.008420183
206	0xbc7da892	-0.015482085
207	0xbc0a6c6f	-0.008448704
208	0xb9ab8457	-0.00032714262
209	0xbc781af1	-0.015143142
210	0x3c6d9667	0.014501191
211	0x3c1712b3	0.009220767
212	0xbc830d49	-0.015997546
213	0x3bc52b38	0.006017115
214	0xbc8ebf1b	-0.01742511
215	0x3a8b94c6	0.0010649196
216	0xbc00dd98	-0.007865332
217	0x3c1b2a2c	0.009470504
218	0x3b5543cb	0.0032541628
219	0x3c39292b	0.011301319
220	0xbcc030c2	-0.02346075
221	0xbc08ef43	-0.008357826
222	0x3c40f2c3	0.011776629
223	0xbc75bb4b	-0.014998267
224	0xbc0faeac	-0.008769672
225	0xba32f1ab	-0.00068261725
226	0xbbc577f3	-0.006026262
227	0xbc43493c	-0.011919316
228	0xbcd6270b	-0.026141664
229	0xbb116d9f	-0.0022190583
230	0x3c16587e	0.009176372
231	0x3b26fe8e	0.0025481316
232	0x39668c62	0.00021986806
233	0x3ca164a7	0.019701315
234	0xbca64b1e	-0.02029949
235	0x3af8005b	0.0018921004
236	0x3bd0a377	0.006367143
237	0x3cc67176	0.024224024
238	0xbc80c41e	-0.015718516
239	0x3bfb425d	0.007667823
240	0xbc4f07ed	-0.012636167
241	0x3b5d8721	0.0033802467
242	0xb9b0dcd2	-0.0003373386
243	0x3c6f8d36	0.01462107
244	0xbc5a27f0	-0.013315186
245	0xbbe4e60e	-0.0069854325
246	0x3c48d559	0.012257897
247	0x3ba5a5c9	0.0050551635
248	0x3b246da3	0.0025089763
249	0xbb10ebcc	-0.0022113202
250	0x3c1dfde2	0.00964305
251	0xbc660469	-0.014039137
252	0x3bd3fa4b	0.006469046
253	0xbac120dc	-0.0014734524
254	0xbc8d8d3f	-0.017279265
255	0x3b8e2196	0.0043375

action_model._discrete_distribution.branches.0.bias f4 [2]
0	0x3c15bd6c	0.0091394
1	0xbc15bd6e	-0.009139402

exp_avg f4 [128, 114]
0	0x00000000	0.0
1	0x35a9e090	1.2656837e-06
2	0x35a9e090	1.2656837e-06
3	0x00000000	0.0
4	0x35a9e090	1.2656837e-06
5	0x35a9e090	1.2656837e-06
6	0x00000000	0.0
7	0x35a9e090	1.2656837e-06
8	0x35a9e090	1.2656837e-06
9	0x00000000	0.0
10	0x35a9e090	1.2656837e-06
11	0x35a9e090	1.2656837e-06
12	0x00000000	0.0
13	0x35a9e090	1.2656837e-06
14	0x35a9e090	1.2656837e-06
15	0x00000000	0.0
16	0x35a9e090	1.2656837e-06
17	0x35a9e090	1.2656837e-06
18	0x00000000	0.0
19	0x35a9e090	1.2656837e-06
20	0x35a9e090	1.2656837e-06
21	0x00000000	0.0
22	0x35a9e090	1.2656837e-06
23	0x35a9e090	1.2656837e-06
24	0x00000000	0.0
25	0x35a9e090	1.2656837e-06
26	0x35a9e090	1.2656837e-06
27	0x00000000	0.0
28	0x35a9e090	1.2656837e-06
29	0x35a9e090	1.2656837e-06
30	0x00000000	0.0
31	0x35a9e090	1.2656837e-06
32	0x35a9e090	1.2656837e-06
33	0x00000000	0.0
34	0x35a9e090	1.2656837e-06
35	0x35a9e090	1.2656837e-06
36	0x00000000	0.0
37	0x35a9e090	1.2656837e-06
38	0x35a9e090	1.2656837e-06
39	0x00000000	0.0
40	0x35a9e090	1.2656837e-06
41	0x35a9e090	1.2656837e-06
42	0x00000000	0.0
43	0x35a9e090	1.2656837e-06
44	0x35a9e090	1.2656837e-06
45	0x00000000	0.0
46	0x35a9e090	1.2656837e-06
47	0x35a9e090	1.2656837e-06
48	0x00000000	0.0
49	0x35a9e090	1.2656837e-06
50	0x35a9e090	1.2656837e-06
51	0x00000000	0.0
52	0x35a9e090	1.2656837e-06
53	0x35a9e090	1.2656837e-06
54	0x00000000	0.0
55	0x35a9e090	1.2656837e-06
56	0x35a9e090	1.2656837e-06
57	0x00000000	0.0
58	0x35a9e090	1.2656837e-06
59	0x35a9e090	1.2656837e-06
60	0x00000000	0.0
61	0x35a9e090	1.2656837e-06
62	0x35a9e090	1.2656837e-06
63	0x00000000	0.0
64	0x35a9e090	1.2656837e-06
65	0x35a9e090	1.2656837e-06
66	0x00000000	0.0
67	0x35a9e090	1.2656837e-06
68	0x35a9e090	1.2656837e-06
69	0x00000000	0.0
70	0x35a9e090	1.2656837e-06
71	0x35a9e090	1.2656837e-06
72	0x00000000	0.0
73	0x35a9e090	1.2656837e-06
74	0x35a9e090	1.2656837e-06
75	0x00000000	0.0
76	0x35a9e090	1.2656837e-06
77	0x35a9e090	1.2656837e-06
78	0x00000000	0.0
79	0x35a9e090	1.2656837e-06
80	0x35a9e090	1.2656837e-06
81	0x00000000	0.0
82	0x35a9e090	1.2656837e-06
83	0x35a9e090	1.2656837e-06
84	0x00000000	0.0
85	0x35a9e090	1.2656837e-06
86	0x35a9e090	1.2656837e-06
87	0x00000000	0.0
88	0x35a9e090	1.2656837e-06
89	0x35a9e090	1.2656837e-06
90	0x00000000	0.0
91	0x35a9e090	1.2656837e-06
92	0x35a9e090	1.2656837e-06
93	0x00000000	0.0
94	0x35a9e090	1.2656837e-06
95	0x35a9e090	1.2656837e-06
96	0x00000000	0.0
97	0x35a9e090	1.2656837e-06
98	0x35a9e090	1.2656837e-06
99	0x00000000	0.0
100	0x35a9e090	1.2656837e-06
101	0x35a9e090	1.2656837e-06
102	0x00000000	0.0
103	0x35a9e090	1.2656837e-06
104	0x35a9e090	1.2656837e-06
105	0x00000000	0.0
106	0x35a9e090	1.2656837e-06
107	0x35a9e090	1.2656837e-06
108	0x00000000	0.0
109	0x35a9e090	1.2656837e-06
110	0x35a9e090	1.2656837e-06
111	0x00000000	0.0
112	0x35a9e090	1.2656837e-06
113	0x35a9e090	1.2656837e-06
114	0x00000000	0.0
115	0xb767e6a3	-1.3822372e-05
116	0xb767e6a3	-1.3822372e-05
117	0x00000000	0.0
118	0xb767e6a3	-1.3822372e-05
119	0xb767e6a3	-1.3822372e-05
120	0x00000000	0.0
121	0xb767e6a3	-1.3822372e-05
122	0xb767e6a3	-1.3822372e-05
123	0x00000000	0.0
124	0xb767e6a3	-1.3822372e-05
125	0xb767e6a3	-1.3822372e-05
126	0x00000000	0.0
127	0xb767e6a3	-1.3822372e-05
128	0xb767e6a3	-1.3822372e-05
129	0x00000000	0.0
130	0xb767e6a3	-1.3822372e-05
131	0xb767e6a3	-1.3822372e-05
132	0x00000000	0.0
133	0xb767e6a3	-1.3822372e-05
134	0xb767e6a3	-1.3822372e-05
135	0x00000000	0.0
136	0xb767e6a3	-1.3822372e-05
137	0xb767e6a3	-1.3822372e-05
138	0x00000000	0.0
139	0xb767e6a3	-1.3822372e-05
140	0xb767e6a3	-1.3822372e-05
141	0x00000000	0.0
142	0xb767e6a3	-1.3822372e-05
143	0xb767e6a3	-1.3822372e-05
144	0x00000000	0.0
145	0xb767e6a3	-1.3822372e-05
146	0xb767e6a3	-1.3822372e-05
147	0x00000000	0.0
148	0xb767e6a3	-1.3822372e-05
149	0xb767e6a3	-1.3822372e-05
150	0x00000000	0.0
151	0xb767e6a3	-1.3822372e-05
152	0xb767e6a3	-1.3822372e-05
153	0x00000000	0.0
154	0xb767e6a3	-1.3822372e-05
155	0xb767e6a3	-1.3822372e-05
156	0x00000000	0.0
157	0xb767e6a3	-1.3822372e-05
158	0xb767e6a3	-1.3822372e-05
159	0x00000000	0.0
160	0xb767e6a3	-1.3822372e-05
161	0xb767e6a3	-1.3822372e-05
162	0x00000000	0.0
163	0xb767e6a3	-1.3822372e-05
164	0xb767e6a3	-1.3822372e-05
165	0x00000000	0.0
166	0xb767e6a3	-1.3822372e-05
167	0xb767e6a3	-1.3822372e-05
168	0x00000000	0.0
169	0xb767e6a3	-1.3822372e-05
170	0xb767e6a3	-1.3822372e-05
171	0x00000000	0.0
172	0xb767e6a3	-1.3822372e-05
173	0xb767e6a3	-1.3822372e-05
174	0x00000000	0.0
175	0xb767e6a3	-1.3822372e-05
176	0xb767e6a3	-1.3822372e-05
177	0x00000000	0.0
178	0xb767e6a3	-1.3822372e-05
179	0xb767e6a3	-1.3822372e-05
180	0x00000000	0.0
181	0xb767e6a3	-1.3822372e-05
182	0xb767e6a3	-1.3822372e-05
183	0x00000000	0.0
184	0xb767e6a3	-1.3822372e-05
185	0xb767e6a3	-1.3822372e-05
186	0x00000000	0.0
187	0xb767e6a3	-1.3822372e-05
188	0xb767e6a3	-1.3822372e-05
189	0x00000000	0.0
190	0xb767e6a3	-1.3822372e-05
191	0xb767e6a3	-1.3822372e-05
192	0x00000000	0.0
193	0xb767e6a3	-1.3822372e-05
194	0xb767e6a3	-1.3822372e-05
195	0x00000000	0.0
196	0xb767e6a3	-1.3822372e-05
197	0xb767e6a3	-1.3822372e-05
198	0x00000000	0.0
199	0xb767e6a3	-1.3822372e-05
200	0xb767e6a3	-1.3822372e-05
201	0x00000000	0.0
202	0xb767e6a3	-1.3822372e-05
203	0xb767e6a3	-1.3822372e-05
204	0x00000000	0.0
205	0xb767e6a3	-1.3822372e-05
206	0xb767e6a3	-1.3822372e-05
207	0x00000000	0.0
208	0xb767e6a3	-1.3822372e-05
209	0xb767e6a3	-1.3822372e-05
210	0x00000000	0.0
211	0xb767e6a3	-1.3822372e-05
212	0xb767e6a3	-1.3822372e-05
213	0x00000000	0.0
214	0xb767e6a3	-1.3822372e-05
215	0xb767e6a3	-1.3822372e-05
216	0x00000000	0.0
217	0xb767e6a3	-1.3822372e-05
218	0xb767e6a3	-1.3822372e-05
219	0x00000000	0.0
220	0xb767e6a3	-1.3822372e-05
221	0xb767e6a3	-1.3822372e-05
222	0x00000000	0.0
223	0xb767e6a3	-1.3822372e-05
224	0xb767e6a3	-1.3822372e-05
225	0x00000000	0.0
226	0xb767e6a3	-1.3822372e-05
227	0xb767e6a3	-1.3822372e-05
228	0x00000000	0.0
229	0x369e9d09	4.7270482e-06
230	0x369e9d09	4.7270482e-06
231	0x00000000	0.0
232	0x369e9d09	4.7270482e-06
233	0x369e9d09	4.7270482e-06
234	0x00000000	0.0
235	0x369e9d09	4.7270482e-06
236	0x369e9d09	4.7270482e-06
237	0x00000000	0.0
238	0x369e9d09	4.7270482e-06
239	0x369e9d09	4.7270482e-06
240	0x00000000	0.0
241	0x369e9d09	4.7270482e-06
242	0x369e9d09	4.7270482e-06
243	0x00000000	0.0
244	0x369e9d09	4.7270482e-06
245	0x369e9d09	4.7270482e-06
246	0x00000000	0.0
247	0x369e9d09	4.7270482e-06
248	0x369e9d09	4.7270482e-06
249	0x00000000	0.0
250	0x369e9d09	4.7270482e-06
251	0x369e9d09	4.7270482e-06
252	0x00000000	0.0
253	0x369e9d09	4.7270482e-06
254	0x369e9d09	4.7270482e-06
255	0x00000000	0.0

exp_avg_sq f4 [128, 114]
0	0x00000000	0.0
1	0x3106a8e1	1.9595563e-09
2	0x3106a8e1	1.9595563e-09
3	0x00000000	0.0
4	0x3106a8e1	1.9595563e-09
5	0x3106a8e1	1.9595563e-09
6	0x00000000	0.0
7	0x3106a8e1	1.9595563e-09
8	0x3106a8e1	1.9595563e-09
9	0x00000000	0.0
10	0x3106a8e1	1.9595563e-09
11	0x3106a8e1	1.9595563e-09
12	0x00000000	0.0
13	0x3106a8e1	1.9595563e-09
14	0x3106a8e1	1.9595563e-09
15	0x00000000	0.0
16	0x3106a8e1	1.9595563e-09
17	0x3106a8e1	1.9595563e-09
18	0x00000000	0.0
19	0x3106a8e1	1.9595563e-09
20	0x3106a8e1	1.9595563e-09
21	0x00000000	0.0
22	0x3106a8e1	1.9595563e-09
23	0x3106a8e1	1.9595563e-09
24	0x00000000	0.0
25	0x3106a8e1	1.9595563e-09
26	0x3106a8e1	1.9595563e-09
27	0x00000000	0.0
28	0x3106a8e1	1.9595563e-09
29	0x3106a8e1	1.9595563e-09
30	0x00000000	0.0
31	0x3106a8e1	1.9595563e-09
32	0x3106a8e1	1.9595563e-09
33	0x00000000	0.0
34	0x3106a8e1	1.9595563e-09
35	0x3106a8e1	1.9595563e-09
36	0x00000000	0.0
37	0x3106a8e1	1.9595563e-09
38	0x3106a8e1	1.9595563e-09
39	0x00000000	0.0
40	0x3106a8e1	1.9595563e-09
41	0x3106a8e1	1.9595563e-09
42	0x00000000	0.0
43	0x3106a8e1	1.9595563e-09
44	0x3106a8e1	1.9595563e-09
45	0x00000000	0.0
46	0x3106a8e1	1.9595563e-09
47	0x3106a8e1	1.9595563e-09
48	0x00000000	0.0
49	0x3106a8e1	1.9595563e-09
50	0x3106a8e1	1.9595563e-09
51	0x00000000	0.0
52	0x3106a8e1	1.9595563e-09
53	0x3106a8e1	1.9595563e-09
54	0x00000000	0.0
55	0x3106a8e1	1.9595563e-09
56	0x3106a8e1	1.9595563e-09
57	0x00000000	0.0
58	0x3106a8e1	1.9595563e-09
59	0x3106a8e1	1.9595563e-09
60	0x00000000	0.0
61	0x3106a8e1	1.9595563e-09
62	0x3106a8e1	1.9595563e-09
63	0x00000000	0.0
64	0x3106a8e1	1.9595563e-09
65	0x3106a8e1	1.9595563e-09
66	0x00000000	0.0
67	0x3106a8e1	1.9595563e-09
68	0x3106a8e1	1.9595563e-09
69	0x00000000	0.0
70	0x3106a8e1	1.9595563e-09
71	0x3106a8e1	1.9595563e-09
72	0x00000000	0.0
73	0x3106a8e1	1.9595563e-09
74	0x3106a8e1	1.9595563e-09
75	0x00000000	0.0
76	0x3106a8e1	1.9595563e-09
77	0x3106a8e1	1.9595563e-09
78	0x00000000	0.0
79	0x3106a8e1	1.9595563e-09
80	0x3106a8e1	1.9595563e-09
81	0x00000000	0.0
82	0x3106a8e1	1.9595563e-09
83	0x3106a8e1	1.9595563e-09
84	0x00000000	0.0
85	0x3106a8e1	1.9595563e-09
86	0x3106a8e1	1.9595563e-09
87	0x00000000	0.0
88	0x3106a8e1	1.9595563e-09
89	0x3106a8e1	1.9595563e-09
90	0x00000000	0.0
91	0x3106a8e1	1.9595563e-09
92	0x3106a8e1	1.9595563e-09
93	0x00000000	0.0
94	0x3106a8e1	1.9595563e-09
95	0x3106a8e1	1.9595563e-09
96	0x00000000	0.0
97	0x3106a8e1	1.9595563e-09
98	0x3106a8e1	1.9595563e-09
99	0x00000000	0.0
100	0x3106a8e1	1.9595563e-09
101	0x3106a8e1	1.9595563e-09
102	0x00000000	0.0
103	0x3106a8e1	1.9595563e-09
104	0x3106a8e1	1.9595563e-09
105	0x00000000	0.0
106	0x3106a8e1	1.9595563e-09
107	0x3106a8e1	1.9595563e-09
108	0x00000000	0.0
109	0x3106a8e1	1.9595563e-09
110	0x3106a8e1	1.9595563e-09
111	0x00000000	0.0
112	0x3106a8e1	1.9595563e-09
113	0x3106a8e1	1.9595563e-09
114	0x00000000	0.0
115	0x33aabe2c	7.950834e-08
116	0x33aabe2c	7.950834e-08
117	0x00000000	0.0
118	0x33aabe2c	7.950834e-08
119	0x33aabe2c	7.950834e-08
120	0x00000000	0.0
121	0x33aabe2c	7.950834e-08
122	0x33aabe2c	7.950834e-08
123	0x00000000	0.0
124	0x33aabe2c	7.950834e-08
125	0x33aabe2c	7.950834e-08
126	0x00000000	0.0
127	0x33aabe2c	7.950834e-08
128	0x33aabe2c	7.950834e-08
129	0x00000000	0.0
130	0x33aabe2c	7.950834e-08
131	0x33aabe2c	7.950834e-08
132	0x00000000	0.0
133	0x33aabe2c	7.950834e-08
134	0x33aabe2c	7.950834e-08
135	0x00000000	0.0
136	0x33aabe2c	7.950834e-08
137	0x33aabe2c	7.950834e-08
138	0x00000000	0.0
139	0x33aabe2c	7.950834e-08
140	0x33aabe2c	7.950834e-08
141	0x00000000	0.0
142	0x33aabe2c	7.950834e-08
143	0x33aabe2c	7.950834e-08
144	0x00000000	0.0
145	0x33aabe2c	7.950834e-08
146	0x33aabe2c	7.950834e-08
147	0x00000000	0.0
148	0x33aabe2c	7.950834e-08
149	0x33aabe2c	7.950834e-08
150	0x00000000	0.0
151	0x33aabe2c	7.950834e-08
152	0x33aabe2c	7.950834e-08
153	0x00000000	0.0
154	0x33aabe2c	7.950834e-08
155	0x33aabe2c	7.950834e-08
156	0x00000000	0.0
157	0x33aabe2c	7.950834e-08
158	0x33aabe2c	7.950834e-08
159	0x00000000	0.0
160	0x33aabe2c	7.950834e-08
161	0x33aabe2c	7.950834e-08
162	0x00000000	0.0
163	0x33aabe2c	7.950834e-08
164	0x33aabe2c	7.950834e-08
165	0x00000000	0.0
166	0x33aabe2c	7.950834e-08
167	0x33aabe2c	7.950834e-08
168	0x00000000	0.0
169	0x33aabe2c	7.950834e-08
170	0x33aabe2c	7.950834e-08
171	0x00000000	0.0
172	0x33aabe2c	7.950834e-08
173	0x33aabe2c	7.950834e-08
174	0x00000000	0.0
175	0x33aabe2c	7.950834e-08
176	0x33aabe2c	7.950834e-08
177	0x00000000	0.0
178	0x33aabe2c	7.950834e-08
179	0x33aabe2c	7.950834e-08
180	0x00000000	0.0
181	0x33aabe2c	7.950834e-08
182	0x33aabe2c	7.950834e-08
183	0x00000000	0.0
184	0x33aabe2c	7.950834e-08
185	0x33aabe2c	7.950834e-08
186	0x00000000	0.0
187	0x33aabe2c	7.950834e-08
188	0x33aabe2c	7.950834e-08
189	0x00000000	0.0
190	0x33aabe2c	7.950834e-08
191	0x33aabe2c	7.950834e-08
192	0x00000000	0.0
193	0x33aabe2c	7.950834e-08
194	0x33aabe2c	7.950834e-08
195	0x00000000	0.0
196	0x33aabe2c	7.950834e-08
197	0x33aabe2c	7.950834e-08
198	0x00000000	0.0
199	0x33aabe2c	7.950834e-08
200	0x33aabe2c	7.950834e-08
201	0x00000000	0.0
202	0x33aabe2c	7.950834e-08
203	0x33aabe2c	7.950834e-08
204	0x00000000	0.0
205	0x33aabe2c	7.950834e-08
206	0x33aabe2c	7.950834e-08
207	0x00000000	0.0
208	0x33aabe2c	7.950834e-08
209	0x33aabe2c	7.950834e-08
210	0x00000000	0.0
211	0x33aabe2c	7.950834e-08
212	0x33aabe2c	7.950834e-08
213	0x00000000	0.0
214	0x33aabe2c	7.950834e-08
215	0x33aabe2c	7.950834e-08
216	0x00000000	0.0
217	0x33aabe2c	7.950834e-08
218	0x33aabe2c	7.950834e-08
219	0x00000000	0.0
220	0x33aabe2c	7.950834e-08
221	0x33aabe2c	7.950834e-08
222	0x00000000	0.0
223	0x33aabe2c	7.950834e-08
224	0x33aabe2c	7.950834e-08
225	0x00000000	0.0
226	0x33aabe2c	7.950834e-08
227	0x33aabe2c	7.950834e-08
228	0x00000000	0.0
229	0x31d8ad64	6.3061396e-09
230	0x31d8ad64	6.3061396e-09
231	0x00000000	0.0
232	0x31d8ad64	6.3061396e-09
233	0x31d8ad64	6.3061396e-09
234	0x00000000	0.0
235	0x31d8ad64	6.3061396e-09
236	0x31d8ad64	6.3061396e-09
237	0x00000000	0.0
238	0x31d8ad64	6.3061396e-09
239	0x31d8ad64	6.3061396e-09
240	0x00000000	0.0
241	0x31d8ad64	6.3061396e-09
242	0x31d8ad64	6.3061396e-09
243	0x00000000	0.0
244	0x31d8ad64	6.3061396e-09
245	0x31d8ad64	6.3061396e-09
246	0x00000000	0.0
247	0x31d8ad64	6.3061396e-09
248	0x31d8ad64	6.3061396e-09
249	0x00000000	0.0
250	0x31d8ad64	6.3061396e-09
251	0x31d8ad64	6.3061396e-09
252	0x00000000	0.0
253	0x31d8ad64	6.3061396e-09
254	0x31d8ad64	6.3061396e-09
255	0x00000000	0.0

exp_avg f4 [128]
0	0x35a9ba99	1.2645788e-06
1	0xb7682b0b	-1.3838299e-05
2	0x369df5f8	4.707599e-06
3	0x33bf9c2f	8.92254e-08
4	0xb700c9ad	-7.676351e-06
5	0xb757513b	-1.2833912e-05
6	0x362eb691	2.6034288e-06
7	0x375cd194	1.3161818e-05
8	0xb749d781	-1.20307095e-05
9	0x33a24de8	7.557884e-08
10	0xb739b1ad	-1.1068228e-05
11	0xb68b29af	-4.1473754e-06
12	0x30397954	6.7475026e-10
13	0xb605ceb0	-1.9938852e-06
14	0xb797271d	-1.8018816e-05
15	0x364d5340	3.0595838e-06
16	0x3644389c	2.9239227e-06
17	0x33d19dd7	9.761032e-08
18	0xb228dd3b	-9.829189e-09
19	0xb73a6a1c	-1.1111169e-05
20	0x352d252f	6.450163e-07
21	0xacaf8bb8	-4.989311e-12
22	0x35dfceb0	1.6674949e-06
23	0xb560e967	-8.378615e-07
24	0xb7733fc5	-1.4498776e-05
25	0xb4139ca4	-1.3747427e-07
26	0xb8114efd	-3.4644258e-05
27	0xb44dc33d	-1.916314e-07
28	0xb5c613f8	-1.4757961e-06
29	0x3673e508	3.6343135e-06
30	0xb7370540	-1.0908872e-05
31	0xb6830adb	-3.905368e-06
32	0xb6560cef	-3.1896013e-06
33	0x3432668a	1.6614845e-07
34	0xb6de892f	-6.632086e-06
35	0xb725aa5d	-9.874432e-06
36	0xb14b87b5	-2.9617528e-09
37	0x35b98d68	1.3824729e-06
38	0x33784cb2	5.7811754e-08
39	0xb61c5483	-2.3295004e-06
40	0xb5a3b735	-1.2197767e-06
41	0xb60ee162	-2.129084e-06
42	0x2e27e67d	3.817612e-11
43	0xb7447c90	-1.1711512e-05
44	0x35c3f3c2	1.4599575e-06
45	0xb7255374	-9.854197e-06
46	0xb68e84fe	-4.247412e-06
47	0x36b0c022	5.267576e-06
48	0xb64777ba	-2.9723e-06
49	0x367f1169	3.8008095e-06
50	0x33717022	5.621417e-08
51	0xb87bd003	-6.003679e-05
52	0x35944c53	1.1049073e-06
53	0xb6ce2385	-6.1434134e-06
54	0xb5ed6992	-1.7688601e-06
55	0xb48e43ed	-2.6498984e-07
56	0x33d65136	9.979924e-08
57	0xb6e380c0	-6.7801157e-06
58	0xb30071fc	-2.990599e-08
59	0xb7651def	-1.3656433e-05
60	0xb6baa5cb	-5.562533e-06
61	0x3615e41d	2.233551e-06
62	0x34b998e5	3.457018e-07
63	0x360a60c5	2.061993e-06
64	0x32937070	1.7164183e-08
65	0x327bc1d9	1.4654199e-08
66	0xb6799db4	-3.7195687e-06
67	0xb5a65c6e	-1.2394864e-06
68	0xb6f2f339	-7.240477e-06
69	0xb4a2b27c	-3.0304716e-07
70	0x366934df	3.475048e-06
71	0xb731fa36	-1.0608279e-05
72	0xb7544fea	-1.2654791e-05
73	0xb3ee4761	-1.10957224e-07
74	0xb72737bd	-9.966953e-06
75	0xb6c8bb1a	-5.982246e-06
76	0x356fe39d	8.936566e-07
77	0x360fdb0f	2.143617e-06
78	0x3644bea1	2.9317237e-06
79	0x336d95f3	5.531724e-08
80	0xb79ce7d9	-1.8704612e-05
81	0xb106d4bb	-1.962049e-09
82	0x35ba6aef	1.3889202e-06
83	0x334579ff	4.597859e-08
84	0xb633ee4e	-2.681179e-06
85	0xb4fdd819	-4.7282154e-07
86	0x36a43641	4.893897e-06
87	0xb381cafa	-6.043952e-08
88	0xb693b46a	-4.4019444e-06
89	0xb78a1367	-1.6459917e-05
90	0xb6f49ce8	-7.290033e-06
91	0xb6161b03	-2.2367465e-06
92	0x32832cd1	1.5270787e-08
93	0xb63d5328	-2.8211598e-06
94	0xb824887a	-3.922775e-05
95	0xb40cb52b	-1.3104425e-07
96	0xb796ab13	-1.7961056e-05
97	0x322eafc3	1.0168097e-08
98	0xb7d77745	-2.5685536e-05
99	0xb53acd78	-6.9589396e-07
100	0x362bc3ab	2.559488e-06
101	0x3365653e	5.3410297e-08
102	0x34b8f465	3.445049e-07
103	0xb6cb2d6b	-6.055159e-06
104	0xb7c8dd59	-2.3944931e-05
105	0xb674b638	-3.6464899e-06
106	0x35946989	1.1057574e-06
107	0x367bfaef	3.7547977e-06
108	0xb765d89e	-1.3699899e-05
109	0xb6a7b7fe	-4.9984073e-06
110	0xb6599d19	-3.2426963e-06
111	0x35bd7ee7	1.4118531e-06
112	0xb3551881	-4.9615213e-08
113	0xb7a889e9	-2.009138e-05
114	0x3483abe5	2.452572e-07
115	0xb7fdfdaa	-3.0278072e-05
116	0x35cc316f	1.5213571e-06
117	0xb7e959f8	-2.781766e-05
118	0xb5c06e68	-1.4337247e-06
119	0x319b35d3	4.517213e-09
120	0x360677d5	2.0037307e-06
121	0xb4dd9a0a	-4.1276536e-07
122	0x36b6e360	5.4504926e-06
123	0xb7e4fb93	-2.7296866e-05
124	0xb72fa2c3	-1.0468709e-05
125	0xb6ecb145	-7.053985e-06
126	0x3214e0d1	8.665851e-09
127	0x35b508c6	1.3488104e-06

exp_avg_sq f4 [128]
0	0x3106a69b	1.959427e-09
1	0x33aabf4e	7.95104e-08
2	0x31d8ab77	6.3059207e-09
3	0x2e9c94fd	7.120524e-11
4	0x331e4ad6	3.6855305e-08
5	0x33c165ef	9.0058045e-08
6	0x3210de8c	8.4325045e-09
7	0x33bb253e	8.7146404e-08
8	0x3375f4d1	5.7266167e-08
9	0x2e3db8ba	4.3137695e-11
10	0x3336e03c	4.2579117e-08
11	0x326e52ba	1.3872233e-08
12	0x2dce30d0	2.3441166e-11
13	0x3151102f	3.0422702e-09
14	0x33f23fbe	1.1280598e-07
15	0x317c66f3	3.6729346e-09
16	0x31509a43	3.0355671e-09
17	0x2f342953	1.6385586e-10
18	0x2d00322d	7.287099e-12
19	0x33757748	5.7151993e-08
20	0x2fe36bad	4.1367568e-10
21	0x2b60c049	7.9847636e-13
22	0x30c891c9	1.459335e-09
23	0x302ef677	6.365108e-10
24	0x33f16ba2	1.1242015e-07
25	0x2d958766	1.6999468e-11
26	0x34d65de0	3.992891e-07
27	0x2f6c66c4	2.1500585e-10
28	0x3083b1e4	9.582064e-10
29	0x322336c6	9.500303e-09
30	0x3372e9da	5.6557703e-08
31	0x32907e24	1.6821168e-08
32	0x31cf47d7	6.03266e-09
33	0x2e635b5b	5.1694964e-11
34	0x32decf13	2.5938368e-08
35	0x3367f72c	5.400868e-08
36	0x2ec1c1dd	8.811061e-11
37	0x317d14c6	3.6828154e-09
38	0x2e365a36	4.1462132e-11
39	0x318ec9a9	4.15567e-09
40	0x2ffda131	4.6134965e-10
41	0x312e9c4e	2.5409181e-09
42	0x2c932ca7	4.1829487e-12
43	0x3388069e	6.334197e-08
44	0x30e752e7	1.6831024e-09
45	0x335c228b	5.125416e-08
46	0x3252212a	1.2231149e-08
47	0x321d1aa9	9.144665e-09
48	0x322bfcd7	1.0010999e-08
49	0x31de4fa7	6.470106e-09
50	0x2ef2d996	1.1043537e-10
51	0x359f3a7d	1.1863445e-06
52	0x3012697d	5.32644e-10
53	0x32f0e0b1	2.8041855e-08
54	0x31a4d037	4.7966995e-09
55	0x2ddf37f7	2.5377018e-11
56	0x2f08dbe4	1.2447249e-10
57	0x328984e0	1.6009324e-08
58	0x2f4b5407	1.8492595e-10
59	0x33bea0b2	8.876795e-08
60	0x32b9ec5a	2.1644315e-08
61	0x31729a17	3.5303225e-09
62	0x2f888a8e	2.4836705e-10
63	0x30c27871	1.4149589e-09
64	0x2d1dc4ac	8.968087e-12
65	0x2d888188	1.5518933e-11
66	0x32239be3	9.523293e-09
67	0x31254f3b	2.4055697e-09
68	0x330bb26a	3.2525726e-08
69	0x2ee87019	1.0570051e-10
70	0x3181925c	3.7710333e-09
71	0x3371710a	5.6214994e-08
72	0x3390824e	6.729225e-08
73	0x2d2768ba	9.516105e-12
74	0x332f4f6a	4.081759e-08
75	0x3298aa3b	1.777254e-08
76	0x2fe31227	4.1303957e-10
77	0x31976cf3	4.4070645e-09
78	0x32014db3	7.526455e-09
79	0x2da5dffe	1.88578e-11
80	0x33f021bb	1.11820064e-07
81	0x2f26fcf0	1.5187474e-10
82	0x306bdddd	8.580779e-10
83	0x2f502702	1.8931348e-10
84	0x324cedcc	1.1928432e-08
85	0x307dd2c4	9.234038e-10
86	0x328a55e0	1.6104366e-08
87	0x2ddca6d1	2.5085186e-11
88	0x32916bd9	1.6929265e-08
89	0x33fa92b3	1.16682166e-07
90	0x330f45bd	3.335821e-08
91	0x324b9b38	1.1851448e-08
92	0x2cda0195	6.1961083e-12
93	0x32496316	1.1722269e-08
94	0x3509d7c0	5.1350435e-07
95	0x2fe9e769	4.254688e-10
96	0x33ecf580	1.10342626e-07
97	0x2d7aa432	1.4247313e-11
98	0x3495ffe4	2.7939598e-07
99	0x2fde8dff	4.048246e-10
100	0x31fb4b0a	7.3135924e-09
101	0x2c7bd100	3.5785264e-12
102	0x2f26d7a7	1.5174227e-10
103	0x32d541c9	2.482638e-08
104	0x3464de22	2.1314966e-07
105	0x31f52e78	7.1357213e-09
106	0x304410ea	7.132842e-10
107	0x31ba0d23	5.414806e-09
108	0x338dec64	6.608823e-08
109	0x326a4b29	1.3637682e-08
110	0x32065894	7.819967e-09
111	0x303a2547	6.771938e-10
112	0x2f0e7da7	1.2959465e-10
113	0x341e64d4	1.4751578e-07
114	0x30825008	9.481491e-10
115	0x34ad0490	3.222708e-07
116	0x306133c8	8.192811e-10
117	0x348ce8dc	2.624646e-07
118	0x30c87a1f	1.4586624e-09
119	0x2f29e05d	1.545017e-10
120	0x312329ee	2.3743456e-09
121	0x2da4d428	1.8738858e-11
122	0x324d4670	1.1948586e-08
123	0x347cdc87	2.3549556e-07
124	0x3384b607	6.1798396e-08
125	0x32c9b167	2.3480153e-08
126	0x2d33a32b	1.02112025e-11
127	0x3027ff8c	6.11174e-10
