Results/test35/Doughnut/Doughnut-1499986.onnx (onnx, 128129 bytes, 6 tensors)

action_model._discrete_distribution.branches.0.bias f4 [2]
00000000: 5d40 823c 4340 82bc
0.015899831 -0.015899783

action_model._discrete_distribution.branches.0.weight f4 [2, 128]
00000000: 9109 62bd d50d e7bc db9c 93bd a880 333d
00000010: 1035 3a3d b514 79bd bff8 403d 4ba6 28bd
00000020: e089 3a3d b2cc af3c c45f 2a3d 354f 643d
00000030: 245f 173d ecbe 7a3d 83d9 043d 0bf8 3a3d
00000040: 368f ea3c 9378 a5bc deb6 5a3d 62e1 393d
00000050: 4990 993d 359c 053d 0b8d 8cbc 036b 69bc
00000060: f701 92bd 2da8 433d f8ef 8ebd 011d 5dbd
00000070: 016d 2b3d 84b1 233d dbbf 373d 22d1 033d
00000080: 9273 40bd e4f8 54bd 69d5 86bc afea 7b3d
00000090: 9f6f a3bd 903d 0d3d 53fa 72bd 60b6 2e3d
000000a0: c254 4ebd 94ca 953c bfa5 90bd 95be bcbd
000000b0: 11b0 86bd 76c8 5d3d 72b2 80bd f32b 50bd
000000c0: 8765 7fbd 541c 143d 437e 843d b10d 9d3d
000000d0: 70b3 393d aaa6 803d 2739 63bd e65d c4bd
000000e0: b705 a4bd 5010 6ebd 38be 91bd fd3f 363b
000000f0: c75f 733d 32fd 0bbc e922 093b 6a45 2dbd
00000100: e18b 9b3c 77d8 593d a123 91bd 24bb 8fbd
00000110: 74f5 8c3d 1957 c8bc e21d 803d 5bd6 abbd
00000120: a0b5 9dbb 2dce 66bd c5b2 aabd 21ac 193d
00000130: b742 013d fc64 b7bd b0b1 87bd 59f7 d63c
00000140: fbc6 663d 8d25 94bd 6ba0 1a3d 79bf f3bb
00000150: 44f7 d43c de36 b5bd d4b1 89bd 2554 5d3c
00000160: bd98 293d 4eed 553d 40e3 373d aa58 8dbd
00000170: 1149 28bd 3c70 c03c f813 0d3d ff54 48bd
00000180: 0ecc 3a3d 7df9 443d fc12 91bd 3aaa 87bd
00000190: 0197 6e3d 295b 99bd 8f20 7f3d 4d76 b8bd
000001a0: 7c70 f53c 2eb0 44bd 81bb 633d 26ec 74bd
000001b0: 9c8c 12bd b1d9 603c 5611 77bd 7126 1e3d
000001c0: cc70 b73d a714 133d 4616 96bd 544d 8dbd
000001d0: 8fb8 2ebd 83c0 3c3d 33d0 b5bd e8b7 fe3c
000001e0: 1a62 8fbd d824 76bd 8a54 743d c11d 2a3d
000001f0: 3bda 67bd c6a4 0b3d f2e3 613d 7917 643d
00000200: 4932 933d 78d7 d33c 93ab aa3d eb3e 20bd
00000210: c593 04bd d6af 0e3d 2e1d 39bd 94ac 073d
00000220: f6e2 23bd a76d 04bd c01b 4abd e2d5 1bbd
00000230: 786b 40bd 631b 8bbd d069 febc ba6e adbc
00000240: 0622 31bd ff2f 313c 95a9 61bd 3226 15bd
00000250: 4270 57bd 1ef8 c6bc 04b6 643c 5d8c 743c
00000260: f4ef 903d 96b5 45bd 43ac 6a3d f245 ad3d
00000270: cd22 38bd bb70 3abd b2eb 57bd c1fc 0abd
00000280: e151 693d eb18 863d dcfa 5e3c 18a0 46bd
00000290: 7301 7d3d b490 c8bc 7f9b 8b3d c72a 53bd
000002a0: 5063 7e3d 08d1 dabc b93d a73d 21d9 963d
000002b0: 305c bd3d 8978 36bd 762a 9f3d 6336 833d
000002c0: ca95 9c3d cd46 36bd 9545 45bd de45 8dbd
000002d0: 245a 40bd 7dab 5dbd b741 5e3d 6fb9 9d3d
000002e0: 258f a93d 06bf 6a3d 3dd3 8f3d 5884 22bc
000002f0: b7e6 67bd cd54 793c f7b7 0c3b d762 553d
00000300: 16d3 f3bc 3f31 2cbd 91cf 903d dbfe 8e3d
00000310: cb4e acbd 0a00 363c 9b67 0abd e10b 9c3d
00000320: 0ef3 6abc 1567 a53d a249 c03d e5ed 3bbd
00000330: 0abc b8bc 3f82 8a3d 7f35 643d 4d50 57bd
00000340: 6304 80bd 0d75 ac3d d337 e2bc cedc cf3c
00000350: 8dd3 0fbd cbb4 aa3d 245a 383d c201 b53c
00000360: 4b29 1fbd 0d44 8bbd ad5a 1cbd fbf8 d13d
00000370: 9960 503d 361a cdbc 5790 4abd 06aa 443d
00000380: 4d18 05bd 9221 44bd 8485 883d b0e9 9c3d
00000390: 0283 43bd fdcd a73d 7fb8 4ebd dfbd a63d
000003a0: 4671 2dbd 162f 793d 842a c6bc 9d47 4d3d
000003b0: eaa9 113d 3d9c 14bc 075d 6e3d 0cc6 08bd
000003c0: 2673 a5bd a7b4 3cbd 9e83 813d c0de 903d
000003d0: d96c 453d 1136 89bd 4ace 9b3d 22e3 d9bc
000003e0: fe2b 713d f0fd 833d db8d 40bd 77aa edbc
000003f0: a9f0 973d 9c51 1abd 47d6 5abd 012a 6fbd
-0.055184904 -0.028204838 -0.07207652 0.043823868 0.04546076 -0.060810763 0.047112223 -0.041174214
0.045541644 0.021459911 0.041595235 0.0557396 0.036955968 0.061217234 0.032433998 0.04564671
0.028632741 -0.020199096 0.053397052 0.045380957 0.07498223 0.032619674 -0.017157098 -0.014246705
-0.07129281 0.047767807 -0.06979364 -0.05398274 0.041852 0.039964214 0.044860702 0.032181866
-0.046985216 -0.051995173 -0.016459184 0.06150311 -0.079802744 0.03448254 -0.05932076 0.042654395
-0.0503738 0.018285073 -0.070628636 -0.09216038 -0.06576551 0.054146253 -0.06284036 -0.050823163
-0.062352683 0.03615983 0.06469395 0.07668627 0.04533714 0.06281789 -0.055474427 -0.09588222
-0.080089025 -0.058121026 -0.071163595 0.0027809136 0.059417512 -0.008544253 0.002092535 -0.042302527
0.018987598 0.053184953 -0.07086874 -0.07018116 0.06882754 -0.024455594 0.062557 -0.083904944
-0.004812911 -0.05634897 -0.08334879 0.03751767 0.031557765 -0.08954808 -0.06625688 0.026240991
0.056342106 -0.07233725 0.037750643 -0.007438597 0.025996812 -0.08848356 -0.06723371 0.013508831
0.04140543 0.052228265 0.044894457 -0.06901677 -0.041085307 0.023491018 0.03444287 -0.048909184
0.045604758 0.048089493 -0.07083699 -0.06624265 0.058249477 -0.074880905 0.06228691 -0.09006939
0.029960863 -0.04801958 0.05559874 -0.05979552 -0.035778627 0.013723777 -0.060319267 0.03861088
0.08957061 0.035908367 -0.07328467 -0.06899515 -0.042656478 0.04608203 -0.088776015 0.031093553
-0.07001133 -0.06009373 0.059650935 0.04153228 -0.056604605 0.034092687 0.055149026 0.055686448
0.071873255 0.02585958 0.083335064 -0.039122503 -0.032367487 0.03483566 -0.045193844 0.033123568
-0.04001137 -0.032331135 -0.04934287 -0.03804577 -0.04697749 -0.06792333 -0.031056315 -0.021170963
-0.043245338 0.010814666 -0.055093367 -0.03641338 -0.05259729 -0.024288233 0.0139594115 0.014926043
0.070770174 -0.048268877 0.057293188 0.08460607 -0.044955064 -0.045517664 -0.05271501 -0.03393245
0.05696285 0.065477215 0.013609614 -0.04849252 0.06176896 -0.024483062 0.06816768 -0.051554468
0.06210643 -0.026711002 0.081660695 0.07365633 0.09246099 -0.044548545 0.07771771 0.06406858
0.076457575 -0.044501115 -0.04816206 -0.06898092 -0.046960965 -0.054118622 0.05426189 0.07701384
0.08279256 0.05731108 0.070227124 -0.0099192485 -0.05661651 0.015217972 0.0021471956 0.052096214
-0.02976374 -0.042039152 0.0707084 0.069822036 -0.08413466 0.011108408 -0.033790212 0.07619453
-0.014340175 0.08076302 0.09389044 -0.04588117 -0.022550602 0.06763124 0.05571508 -0.052566815
-0.06250837 0.08420763 -0.02761451 0.025373843 -0.03511386 0.08335265 0.04500784 0.022095565
-0.03885774 -0.06800089 -0.038172413 0.102525674 0.050873373 -0.025036912 -0.04945406 0.04801371
-0.03249388 -0.047883578 0.06666091 0.0766176 -0.04773236 0.08193586 -0.050468918 0.08141684
-0.042344354 0.06083592 -0.024190195 0.050117124 0.035562433 -0.009070453 0.058194187 -0.033391997
-0.080786034 -0.04607072 0.06323932 0.07073736 0.04819951 -0.066997655 0.07607706 -0.026597563
0.058879845 0.06444919 -0.047010284 -0.029011948 0.07418949 -0.037675485 -0.053427007 -0.058389667

network_body._body_endoder.seq_layers.0.bias f4 [128]
00000000: fd7d 8d3c e2da aa3b 3cec 42bb b7b6 23bc
00000010: 5695 883b 2caf cb3b 5d13 4f3c 4afc fd3b
00000020: b712 823a 1636 9d3c 87e9 f13c 70db b63c
00000030: a1f1 e03c 8f87 bf3c 9636 8d3c 79a2 763c
00000040: 2282 9b3c bb35 b23c ce2e ca3c ab02 d43c
00000050: 7add edba 3188 72bc 4ee8 933c 5e3d 143b
00000060: 2d63 273c 32f6 253d ce18 ef3c 7eb4 d53c
00000070: 60ab 503c 4dc0 9d3c 7479 d1bb 160c d2bc
00000080: a3fa d53c bd85 473c fad3 fe3c b646 063d
00000090: b9c0 cb3a 765a 863c 8082 1a3d 8f51 3d3d
000000a0: ae52 9a3b 2850 463d 8e53 ab3b 844a 4e3c
000000b0: 4ddb 913a 0ac6 e43c ebb3 393c 9440 ac3c
000000c0: c589 433d 2bd2 bf3b ae46 7b3c 8339 8f3c
000000d0: 73e7 eb3b c78c cd3c 8548 6b3c dd12 cd3b
000000e0: 48ee e13c 9980 013d 5671 9d3c c468 c93c
000000f0: aa54 793b e58f 2bbb 992f 6d3c 0d53 f03b
00000100: c57f 8f3c aa24 ea3b e67b 0d3c 868e bb3b
00000110: ba9e f33b de06 1f3d 748d f03b 9b27 383c
00000120: b4aa f73c 8461 583c c676 a53c 1f36 423c
00000130: ac03 ce3c b7ae 353b f9a0 4b3b ba4b b23c
00000140: f1bf 493c d2bd e03b 56bd d63c c5b4 e33c
00000150: cd0a 423b 2fa1 993c 6646 e139 9488 993c
00000160: f856 a83c 70fd ec3c a3f5 cdbc c872 f23c
00000170: abcd cd3c 0436 793c c314 11bd 37e9 ab3c
00000180: b895 063d 17cc c83b d7ba c43c e20b bf3c
00000190: 06ea f93b 1b48 893c b8b6 293d 7112 cf3c
000001a0: 98cb 923c 778a af3b 0ce6 e13c dd00 003a
000001b0: ea11 dc3c 122a 8a3c 52e1 a43c bfa6 593c
000001c0: ffbd 89bc 420e 0b3c 634e 513c 7d4b 21ba
000001d0: 2b49 d73b cbbc b73b 8686 523c d6ce 9d39
000001e0: e69b 1d3d 10d3 4e3c 60e8 b03b 8918 a83c
000001f0: 6b32 8b3c cfcc 5a3c 4597 103d fc50 3d3a
0.01727199 0.005214081 -0.0029742857 -0.009992293 0.004168193 0.0062159505 0.012638894 0.0077510225
0.000992379 0.01919083 0.0295303 0.022321433 0.027458968 0.023380069 0.017237943 0.015053385
0.01898295 0.021754136 0.024680521 0.025880178 -0.001814767 -0.014802978 0.018055107 0.0022619586
0.010216516 0.040517993 0.029186632 0.026087042 0.0127361715 0.019256735 -0.006392652 -0.025640529
0.02612049 0.012177882 0.031106938 0.03278228 0.0015545107 0.016400557 0.03772211 0.04622036
0.004709563 0.048416287 0.0052284664 0.012591008 0.0011127979 0.027926464 0.0113344 0.021026887
0.04773881 0.0058539114 0.015336676 0.017483478 0.0071992218 0.025091542 0.014360552 0.006258352
0.027579442 0.03161678 0.019219082 0.024586089 0.0038044848 -0.0026178297 0.01447668 0.007334119
0.01751698 0.007145484 0.008635497 0.005723777 0.007434693 0.03882491 0.0073410813 0.011239911
0.030232765 0.013206843 0.020198237 0.011853724 0.025148235 0.0027722546 0.003107129 0.021764625
0.012313829 0.006858566 0.02621333 0.027796159 0.0029608489 0.018753616 0.00042967795 0.018741883
0.020549282 0.028929442 -0.025141543 0.029595748 0.025122484 0.015210632 -0.03542019 0.020985229
0.032857627 0.006127845 0.024014873 0.023321096 0.0076267747 0.016758015 0.04143402 0.025277348
0.017919347 0.0053570825 0.027575515 0.0004882941 0.02686401 0.016865764 0.020126972 0.013284384
-0.01681423 0.008487286 0.0127750365 -0.0006152911 0.0065700016 0.0056072227 0.012849456 0.00030099478
0.038478754 0.012623563 0.005398795 0.020519512 0.016991815 0.013354494 0.035300512 0.00072218454

network_body._body_endoder.seq_layers.0.weight f4 [128, 114]
00000000: 0edf 623c 8004 523c a4f2 d3bd 99d4 4b3e
00000010: 1423 123c a00c 12bc 27a7 cdbd 7438 fbbb
00000020: 7485 32be 558d 173d 6480 3ebd 909c 82be
00000030: ab4f f7bb ab09 0a3d fa44 243d 4225 f53d
00000040: e21c 723d e752 06be 0cb2 513d bac3 953d
00000050: 0d43 963d c3f1 133e d437 5ebe bf55 e93d
00000060: f396 d8b8 1eae 433d 7f2c d23d 525c 5f3e
00000070: 4fe7 b6bd a2f7 973d 9229 013e f0f4 173d
00000080: 21a6 adbe 0eff 00be dc3a 06be e0ca 32bd
00000090: 2a91 3f3d 4891 c5bd 44af 14be 3402 3abd
000000a0: 196d e93d b622 753d b71b 7b3d 6ecf 473d
000000b0: 97be 3dbe 9974 b2bd 49cb cdbc 03e5 003e
000000c0: 9615 623d 4c1b 5e3d 31ac 83bd 9dd6 183d
000000d0: e111 b63c 6436 51bd 8cb2 ce3b 2bfc 80bd
000000e0: 5b42 84bd 2fb6 d03d 0929 69bd 350d 513c
000000f0: c222 6a3d 794f e4bc 8b97 063e 50bc c33d
00000100: 4658 bebd 3d3a 4d3e 9022 783e f703 82bd
00000110: f13b ff3d a008 543d eeca 3a3d e27d db3d
00000120: 5c73 a1bc 8fb0 443d 0045 2c3e 0f11 5dbd
00000130: 5447 41bd 0daf 063e 25a1 8f3c b99d 493c
00000140: a5bb ff3d 89f6 93bd ada4 42be d05d 2d3e
00000150: 0604 613d c0ac 5f3e 3abd 243e 3594 db3d
00000160: eff8 08be a749 d23b 6c0f 83bd f348 82bc
00000170: 2e30 0dba 27f2 6e3e 2381 343b aa63 103d
00000180: 9ecf dbbd 1155 143d 7414 a83c 7e9e dabd
00000190: 22de efbd 836e 4e3e 0112 fe3d ee37 da3d
000001a0: fa82 5e3e 547f 513e 9b1f 853c 423b 3f3e
000001b0: 5eee 92bc 50f1 11bd beae f9bc daa0 063d
000001c0: f601 3a3d b34c b33d 5312 08be 4a94 94bd
000001d0: 7dbe c63d 63cc 39be 57e1 e6bc 459a 9a3d
000001e0: 504c 2c3d a0a3 e3bd 9db5 963d 1a3d 1e3d
000001f0: 4356 f03a 53c7 2e3d 4044 b6bb 3b11 8b3d
00000200: c185 c83d c9e5 043e 7640 0b3e aaa1 b03d
00000210: 2ce9 583d 62ab b83d 48d4 103e 6899 093e
00000220: 9e44 6e3d b0d0 01bc 035c cc3d 7739 25bd
00000230: a861 563e f6d3 d93c f99a 233d c089 d53d
00000240: ad2b 4c3d 565e e93b a730 073e f3a5 503c
00000250: bfc5 a13d 943b 973d dfdf 6f3e 38fe 97bc
00000260: d4c1 5a3d 7051 1dbe adc9 183e afe8 40be
00000270: 374a 923d ef3d d3ba f619 183e 1289 a7bd
00000280: 6d26 b739 6fe9 cf3c db86 8ebc 48e2 a63d
00000290: ca1a d93e 37b0 39bd d02c b5bd 57c2 c33d
000002a0: 5bdc f83c a38a 2c3d 3252 12bd 8502 edbc
000002b0: 8356 2abd 01e4 84be 39a6 0a3e 2fd0 78bd
000002c0: db6e 72be b16f 463d a142 b1bd a29a 08be
000002d0: 9495 303e fea3 cb3d c1e5 84be d205 ee3d
000002e0: 2e9f 68bc fab8 d4bd 62c6 823e 530a ea3d
000002f0: 9b9b 0abe 8912 f1bd f1df 59bc f8e0 4ebe
00000300: 5b73 2a3e 0d2b 6a3c cbcb 41be b964 1f3e
00000310: 2391 37be 6701 e6bd aedf 493d 19cf f8bc
00000320: c8d0 71be 2ee4 fabd 0371 323e 0bfe 843c
00000330: 59d6 8b3d 0766 c63b 516e 56be 242e 08bc
00000340: 11f0 453d 51ca 6cbd 90cd 59bd d832 b3bc
00000350: 60b1 9ebe 0f08 3bbd 61f8 e93c a679 b0bd
00000360: 5225 a23d 6a09 0ebd 897f 04be b1e9 2cbe
00000370: 711e e43d 19ea 44be bc87 f5bc ba60 86bc
00000380: 66d1 2dbe 17cc 1f3e c233 7e3d b55d d8bc
00000390: d5a0 48be b94a 8e3d 78bb 45be 16f5 c93d
000003a0: 6b04 c73c 29ae 0c3e 4a2e a83d dc8d b73c
000003b0: 4226 0dbd 5552 523d f4a9 363c 0270 293d
000003c0: 912a 28bd 0069 30bb 36c8 433e 9303 cfbd
000003d0: 111e b13d 4ac5 0d3e da3f 2dbe 4fba 87bd
000003e0: 56d2 bf3d 1ba1 d2bd 39d6 403e bcd5 103e
000003f0: 8ec9 a93c 8716 cabc 8841 073e 72af c63c
0.013847126 0.012818456 -0.103490144 0.19905318 0.008919496 -0.008914143 -0.100416474 -0.007666642
-0.17433721 0.03700002 -0.04650916 -0.25510073 -0.007547339 0.033700626 0.040104844 0.11969997
0.059109576 -0.13117562 0.05119519 0.073127225 0.07337008 0.14447694 -0.21700984 0.11393308
-0.00010327799 0.047773473 0.10262393 0.21812561 -0.08930837 0.07420279 0.12613514 0.037098825
-0.3391581 -0.12597296 -0.1310839 -0.043650508 0.0467693 -0.09646851 -0.14519984 -0.045412257
0.11397762 0.059847556 0.061305728 0.048781805 -0.18529736 -0.087136455 -0.025121348 0.12587361
0.055196367 0.05422525 -0.06429327 0.037314046 0.022225322 -0.05107726 0.0063079055 -0.06298097
-0.06457969 0.10190999 -0.0569239 0.012759496 0.057162054 -0.027869927 0.13143747 0.09557402
-0.092941806 0.20041747 0.24231935 -0.063484125 0.12462605 0.051766038 0.045603685 0.107173696
-0.019708328 0.048019942 0.16823196 -0.053971346 -0.047187164 0.13152714 0.017532894 0.01230567
0.12486962 -0.07224757 -0.19008131 0.16930318 0.054935478 0.21843243 0.16087809 0.107216276
-0.1337621 0.0064174714 -0.06399426 -0.015903926 -0.00053859025 0.23334561 0.0027542792 0.035251297
-0.10732959 0.03621394 0.020517565 -0.10674761 -0.1171229 0.20159344 0.12405778 0.10655199
0.21729651 0.20458728 0.016250422 0.18674949 -0.017935928 -0.035630524 -0.030478831 0.032868244
0.045412026 0.087548636 -0.1328824 -0.072548464 0.097043015 -0.18144374 -0.028183622 0.07548956
0.042064965 -0.11115193 0.07358859 0.03863249 0.0018336255 0.04267056 -0.0055623353 0.06790396
0.097911365 0.12978281 0.13598809 0.08624585 0.052956745 0.09017064 0.14143479 0.13437426
0.058170907 -0.00792329 0.09978487 -0.040338006 0.2093569 0.026590329 0.039942715 0.10426664
0.04984634 0.0071218414 0.13202153 0.012734878 0.07899045 0.073844105 0.23425244 -0.018553838
0.053407505 -0.15363097 0.14920683 -0.18838762 0.071430616 -0.001611648 0.14853653 -0.08180441
0.0003493311 0.025379864 -0.017398288 0.081486285 0.4240325 -0.045334067 -0.08846438 0.09558552
0.030378511 0.0421244 -0.03572292 -0.028931865 -0.04158641 -0.25955203 0.13539971 -0.060745414
-0.236751 0.04844636 -0.086552866 -0.13340238 0.1724456 0.099433884 -0.25956538 0.11622204
-0.014198108 -0.10386844 0.2554198 0.114277504 -0.13535921 -0.117711134 -0.013298021 -0.20203006
0.16645567 0.014292491 -0.18925397 0.15565766 -0.17926459 -0.11230736 0.049285583 -0.03037219
-0.236148 -0.12250553 0.17425923 0.016234418 0.06827993 0.006054643 -0.2094052 -0.008311782
0.04832465 -0.05781013 -0.053174555 -0.02187483 -0.309947 -0.045661982 0.02856082 -0.086169526
0.079172745 -0.034676947 -0.12939276 -0.16886021 0.11138619 -0.19229926 -0.02997195 -0.016403545
-0.1697441 0.15605198 0.06206108 -0.02641187 -0.19592603 0.06947846 -0.19309795 0.098611996
0.024294099 0.13738312 0.08211954 0.022406511 -0.034460314 0.05134805 0.011148918 0.041366585
-0.04105622 -0.0026918054 0.19119343 -0.101081036 0.08648313 0.13844791 -0.16918889 -0.066273324
0.0936629 -0.10284635 0.1883172 0.14144033 0.020725992 -0.024668945 0.13208592 0.02425358

network_body._body_endoder.seq_layers.2.bias f4 [128]
00000000: 883c f83b 809d 40bc 7ba2 04b9 5260 d23c
00000010: 3138 e03c b998 1abb 5346 d53c f2fe 7cbc
00000020: d0db c53c 31d4 403c a2bc a93c fb24 ae3c
00000030: 2c06 ca3c 6d04 f13c c503 d33c d181 973c
00000040: c996 c63c 72bd 453c 5ed5 bb3c c010 c63c
00000050: 242e df3c 5c69 a03c cd1b c6ba 0ff9 56bc
00000060: f75a a73c 29aa 293c a4e2 983c 331d 083c
00000070: 84aa b63c 7fc1 873c b682 c03c e7cc 8a3c
00000080: 998d 8c3a 613a a1ba 6865 f8ba 0a5d ec3c
00000090: 73ff bdbb e071 bc3c d3e5 83bb b793 8d3c
000000a0: 042f 8d3b b65d ac3c 025a fd3b 1cc9 1f3c
000000b0: a4ac a93b 619a b53c c611 1e3c 5390 31bb
000000c0: 9ff6 95bb 827e 9a3c c5a6 d33c d5eb bc3c
000000d0: a384 653c 5e6d c83c 8d2e b83b f270 ac3a
000000e0: b133 19bb ac35 2abb 8ea9 873c 8919 203c
000000f0: 7b39 7b3c 6080 58bb c02c 3d3b d785 55bb
00000100: c697 833c 2acf a73c 4569 7a3b fad9 833c
00000110: 5426 e43c 1882 0abc 9c35 c13c 6038 423c
00000120: 23dd 2a3c 77b7 083c d9d2 bb3b c527 9d3c
00000130: ec8b 8d3c 57ec a23c 24b5 c33b 7757 8f3c
00000140: b8c2 6e3c 53f7 69ba a7e9 813c 8398 99bb
00000150: 741c c33c 7138 c33b 944d 0a3c 127c ee3b
00000160: 0dca b23c 73dd 453c 8a86 d13c 3c6b 2c3c
00000170: 77a4 66ba d9c8 fa3b 10c5 f23c 6241 0d3c
00000180: 7943 493c a75e b53c b093 4bbc df51 1b3b
00000190: 7972 dc3c ee9b 25bb ffa1 2d3d abf3 433b
000001a0: f12f a63c adf0 0ebc 997e 0e3c b88b be3a
000001b0: 9f35 dabb fc6b 943b df0d 29bc 19ba 963c
000001c0: 0308 0c3d 5398 bd3c 9119 053c 13fd a93b
000001d0: 19c8 893a 069b 3d3c 6052 dab9 80c5 903c
000001e0: 2d6c 1abb a4f1 e73b 22b4 8b3c 01ba ba3c
000001f0: 5555 1e3a 8ace cc3c 3da4 833c 5dfe d03c
0.0075755753 -0.011756301 -0.0001264903 0.025680695 0.027370544 -0.0023589565 0.02603451 -0.015441643
0.024152666 0.01176934 0.02071983 0.021257868 0.024661146 0.029421056 0.025758633 0.018494518
0.024241822 0.012069093 0.02292889 0.024177909 0.027243681 0.01958149 -0.0015114486 -0.013120904
0.020429118 0.010355511 0.018662758 0.008307743 0.022298105 0.016571758 0.023499828 0.016943408
0.0010723352 -0.0012300723 -0.001895112 0.028852958 -0.005798274 0.023003519 -0.0040252 0.01728235
0.004308583 0.021040779 0.007731677 0.009752538 0.005178051 0.02216834 0.009647792 -0.002709408
-0.0045765187 0.018859152 0.025836358 0.023061672 0.014008674 0.024466213 0.0056207837 0.0013156219
-0.0023376758 -0.0025971932 0.016560342 0.009771713 0.015333529 -0.0033035502 0.0028865784 -0.0032580995
0.016063582 0.020484526 0.0038209718 0.01609515 0.027850308 -0.008453868 0.023585133 0.011854261
0.0104287 0.008344523 0.005731922 0.019184003 0.017278634 0.019888086 0.0059725214 0.017497761
0.014572792 -0.0008925099 0.015858484 -0.0046873703 0.023817278 0.005957656 0.008441348 0.007277974
0.021824861 0.012076723 0.025576849 0.010523614 -0.0008798311 0.0076533374 0.029634982 0.0086215455
0.012284153 0.02213986 -0.012425348 0.0023699922 0.026910054 -0.0025269943 0.04239082 0.0029899876
0.020286532 -0.008724374 0.008697175 0.0014537489 -0.006659224 0.0045294743 -0.0103182485 0.018399285
0.034187328 0.023143923 0.008123771 0.0051876395 0.0010511904 0.011572605 -0.00041641574 0.0176723
-0.0023563013 0.0070783664 0.017053667 0.022793772 0.0006039937 0.02500083 0.016069526 0.025511915

network_body._body_endoder.seq_layers.2.weight f4 [128, 128]
00000000: 4413 5d3d c6ba 283e 3d25 993d b133 19be
00000010: a826 4e3d 3f9b 293d 4aef fa3b 3c6a 89bc
00000020: dc14 353d 2f2e e73d 48c9 4b3c 2acd 11be
00000030: 4b44 ad3c cb5c 973c ca71 b3bd c5cb 413e
00000040: cfd0 06be 0f03 6dbc 813f afba 2f1b ca3c
00000050: 2369 903d 2f04 d3bd 6fba cb3c 131c 07be
00000060: 7b68 81bd 086a 9abd 88e0 6bbd 5f5a 33be
00000070: 61e5 82bd 813f a7bd 4691 a63d 91ad 6bbd
00000080: c246 343e 04e6 fb3d 3efe 27be 7f9c b33d
00000090: f5aa 0c3e 0c59 0abd 9081 b13d 69c7 143e
000000a0: 2225 58bd cac5 bd3d d82b 28be 441d 10bd
000000b0: 23b8 3abd 8c01 a4bd 011a f2bc d64b bb3a
000000c0: 4b13 00be 99ba a8bd e48f 753d c70b 8cbd
000000d0: 7b23 71bc 006e a73b 871f a23d 750b d4bd
000000e0: e5cf ef3d 93f7 c2bd 8a7d d63d 5d1a 62bd
000000f0: ea95 03be 6e54 72be dbe5 a73d 3ee4 9a3d
00000100: 2c40 72be 1810 4abd 6468 263e 55ba 2dbd
00000110: b948 e73d 658c 9c3b 8eef 413e 3001 e7bd
00000120: 90ca 1e3e 1612 89bd 83f3 b3bd 6944 f03c
00000130: d349 ad3c 2077 17bd 4203 acbd a4cc 98bd
00000140: 0cd9 b5bb 2561 4f3e c588 a43c 833a 403d
00000150: 8f4a dbbc f239 f0bc 7dd8 f1bd 0e4d 60bd
00000160: 2c9d bf3d e491 bf39 94b2 913d 468b 2d3e
00000170: 1a79 5bbd 6c0b 533d 2f09 0dbe 0028 923d
00000180: 8f02 7bbd bb41 463e 6c7d 64be 387f e93d
00000190: 8863 6bbd e382 bb3d 30c1 883e 20c2 1dbe
000001a0: 7f2d 4b3e e49c 2abd 854f 913d ec69 14bd
000001b0: 6eeb b83d 8fad 7abd 2694 403d 89cf 9f3d
000001c0: e25a 623d 0727 913d 00ff 0cbd 5702 693d
000001d0: 3d7b b8bd 8e5a 353e 6db4 8ebb e298 2a3e
000001e0: 8476 ebbb ad94 1c3d 9cef fb3d 75a6 b93e
000001f0: 4bb3 ad3e 572a 7f3d 9bd7 713e 63e7 a9bc
00000200: 219b f93d 8f61 ee3c 05c4 083d 98df 5fbd
00000210: 72cd 0abe 5666 04bd 8a63 69bd c567 3fbd
00000220: 9793 9f3c 1bb3 6c3e 3463 203d de0d 353c
00000230: a164 913d 7ef8 953d 481a 373d 78bf 5bbb
00000240: 9d7b 80bd a581 0a3e 0c5a 933d 3712 2fbd
00000250: 5d3f 55bd 6feb 81bc d50d 123e 2142 7fbd
00000260: 3c3e 7d3c 5f0f bcbd 2370 7a3c 71ff c2bc
00000270: bd42 c4bd 275e 523e e238 0e3d 7314 843d
00000280: 4d3f 803d 70e9 9f3c 43b0 8fbd 0fe7 e63d
00000290: fc28 6a3c 1b7a c63d 33d1 84bd 38a0 1a3e
000002a0: c9cf 2ebe 8e35 873d 6892 0bbe 3744 bc3b
000002b0: 3218 2c3e cc23 e93d b7ea 523d aec1 86bb
000002c0: 906c d6bd c800 db3d b701 7c3d ba04 393d
000002d0: 9ee7 113e fe36 4e3d e4d8 463e 50cc 2d3d
000002e0: 685f 073e f2db cdbd 958c 0abe 9c50 3d3c
000002f0: 4840 1d3e 0e40 8cbd 0415 5abd eab8 d63d
00000300: 3e8f 253d 214c 923d 7047 b83d 5e05 843c
00000310: 6a7c 3c3d 7181 963d 0f9c 0bbd b769 843d
00000320: 63a0 983c 37ca 2cbd 5202 c93c 8ff1 e8bc
00000330: 896c 88bd 6d9e 0ebe 027c 313e c66c babd
00000340: 3d53 98bc 1006 57bd ccf6 b2bd 6501 d13c
00000350: bad0 8c3c 38a6 0dbe 6420 08be 3885 5bbd
00000360: 7bfd fcbd 8390 45bd ff00 4abd 5a70 1e3e
00000370: 7f5c 82bd 7eeb 41be 5e17 b4bc ddff 40bc
00000380: f83b c83d 2b49 db3d 1ffb 75bd 3091 523d
00000390: 44bf d73b 1d3c 24bd b557 3fbd 30f5 a23d
000003a0: ae97 223e c432 643d 9820 6c3d e3fb 77bc
000003b0: e62a 4d3d bafc 973c c2ae 543e 831e e13d
000003c0: f2f3 213d fdd8 f43d eca4 aebd a4ec bd3d
000003d0: 8f79 a13d 8fc6 8d3d 63c8 283d 7f5b c3bd
000003e0: 0b65 b0bd 0211 803d f03a 643d b482 263d
000003f0: 7f49 6dbd 09fc ea3d 3ca9 ab3d 55dd 113e
0.05397345 0.16477498 0.07477806 -0.14961125 0.050329834 0.04140782 0.00765792 -0.01677429
0.044209346 0.11288106 0.012438126 -0.1423842 0.021150729 0.018476864 -0.08761938 0.18925388
-0.13165592 -0.014466061 -0.0013370366 0.024671165 0.07051303 -0.10303532 0.024869172 -0.13194303
-0.06318756 -0.07539755 -0.057587177 -0.17514943 -0.06391407 -0.08166409 0.081331775 -0.057538573
0.17605117 0.122997314 -0.1640558 0.08770084 0.1373709 -0.033776328 0.0866729 0.14529194
-0.052769788 0.09266241 -0.16422975 -0.03518416 -0.045585763 -0.080081075 -0.029553415 0.0014289569
-0.1250736 -0.08238716 0.059951678 -0.06838184 -0.014717932 0.0051095486 0.079161696 -0.10353748
0.117095746 -0.09519877 0.104731634 -0.055200923 -0.12850156 -0.2366502 0.08198138 0.07563065
-0.23657292 -0.049331754 0.1625076 -0.04241403 0.112931676 0.0047774785 0.18939039 -0.112795234
0.15506959 -0.06692903 -0.087866805 0.029329496 0.021153366 -0.03697884 -0.08399059 -0.07460907
-0.0055495556 0.20251901 0.020084748 0.0469308 -0.02676895 -0.029324505 -0.1180887 -0.054760985
0.0935615 0.00036539056 0.07114139 0.1694766 -0.05358229 0.051524565 -0.13773035 0.07136536
-0.061281737 0.19361012 -0.2231347 0.11401218 -0.057467967 0.09155824 0.2670989 -0.15406084
0.19841574 -0.04165353 0.07095245 -0.036233827 0.0902928 -0.061200675 0.047016285 0.07803256
0.055262454 0.07087522 -0.034422874 0.056886997 -0.09007881 0.17710325 -0.0043550045 0.16659883
-0.007185759 0.038227726 0.12301561 0.3625981 0.33925852 0.062296238 0.23617403 -0.020740217
0.121877916 0.029099254 0.033390064 -0.054656595 -0.13554934 -0.032324158 -0.056979693 -0.04672982
0.019479556 0.23115198 0.039157107 0.0110506695 0.070992716 0.07322787 0.044702798 -0.0033530872
-0.06273577 0.13526018 0.071949095 -0.04274198 -0.05206238 -0.015859334 0.14263089 -0.062318925
0.015456732 -0.09182619 0.015285525 -0.023803445 -0.09583042 0.20543729 0.034722216 0.06449213
0.06262074 0.019520491 -0.07016041 0.1127454 0.014291998 0.096912585 -0.06485214 0.15100181
-0.17071451 0.066020116 -0.13630068 0.0057454365 0.16806105 0.11383781 0.051493373 -0.004112444
-0.104699254 0.106935084 0.061525073 0.045170523 0.14248511 0.050345413 0.19418675 0.042431176
0.13219988 -0.10051717 -0.1353019 0.011554863 0.15356553 -0.06848155 -0.0532427 0.10484488
0.04041981 0.07143427 0.089980006 0.01611584 0.046017088 0.07348908 -0.034084376 0.06465476
0.018631166 -0.042185035 0.02453724 -0.028435497 -0.066613264 -0.13927622 0.17332461 -0.09102778
-0.018594379 -0.052496016 -0.08738479 0.02551336 0.017189372 -0.13832939 -0.13293606 -0.053593844
-0.12353035 -0.04823352 -0.049317356 0.15472546 -0.063652985 -0.1893749 -0.021983799 -0.011779753
0.09777063 0.10707315 -0.06005394 0.051407993 0.00658408 -0.04009639 -0.046714503 0.07956922
0.15878174 0.055712476 0.05764827 -0.015135738 0.05008974 0.018553127 0.2076979 0.10992148
0.039539285 0.1195545 -0.0852755 0.09273651 0.078845136 0.06922638 0.04120673 -0.09538936
-0.086130224 0.06253244 0.05572027 0.040651992 -0.05793142 0.11473853 0.08381888 0.14244588
