Results/test35/Doughnut/Doughnut-2000018.pt (torch, 770311 bytes, 33 tensors)

network_body._body_endoder.seq_layers.0.weight f4 [128, 114]
000000 63 b3 62 3c 89 63 6a 3c 0e 98 d2 bd d3 d1 4b 3e
       0.013836714 0.014305958 -0.102829084 0.1990426
000010 1d 82 2a 3c 83 a9 02 bc 87 ac cd bd 85 7a ca bb
       0.010406998 -0.007974985 -0.100426726 -0.0061791562
000020 db 3a 32 be 88 82 17 3d 20 6f 38 bd 9b dd 81 be
       -0.17405264 0.03698972 -0.045027852 -0.25364384
000030 11 a7 f7 bb 75 21 10 3d fc 48 24 3d 74 18 f5 3d
       -0.0075577577 0.035188157 0.040108666 0.11967555
000040 7e 65 7b 3d a3 a3 04 be 1f a7 51 3d 8f cf 98 3d
       0.061376087 -0.12953047 0.05118477 0.07461464
000050 c2 d1 95 3d ef c8 13 3e 08 f8 5a be 56 e8 eb 3d
       0.07315399 0.14432119 -0.21383679 0.11518924
000060 35 6f ee b8 e8 c5 49 3d a6 55 d1 3d e3 82 5f 3e
       -0.00011369438 0.049261004 0.10221414 0.21827273
000070 67 70 b8 bd d6 75 99 3d cb 26 01 3e e4 0c 1e 3d
       -0.09005814 0.074931785 0.12612455 0.038586512
000080 d1 f2 ad be ee 2a 01 be dc a1 05 be a2 40 31 bd
       -0.33974317 -0.12614033 -0.13050026 -0.04327453
000090 3a 86 3f 3d 5f 85 c2 bd 41 73 15 be fe 73 38 bd
       0.046758868 -0.09498095 -0.14594747 -0.045032494
0000a0 3f 83 e8 3d 75 85 75 3d c7 10 7b 3d 62 e7 4d 3d
       0.11353158 0.059941728 0.061295297 0.050269492
0000b0 22 ae 3e be 40 01 ac bd 72 af e0 bc 69 33 00 3e
       -0.18621114 -0.08398676 -0.027427409 0.12519611
0000c0 a6 0a 62 3d 41 33 64 3d 27 e2 85 bd 5d 9f 2d 3d
       0.055185936 0.055712942 -0.06537276 0.04238831
0000d0 dd ce a5 3c 46 d7 52 bd 0c 5b ce 3b 5b e0 7b bd
       0.020240242 -0.051474832 0.0062974747 -0.06149326
0000e0 d1 cf 86 bd d0 e1 d0 3d b6 17 6a bd 61 fc 66 3c
       -0.065826066 0.1019932 -0.05715152 0.014098258
0000f0 25 60 6a 3d 15 a8 df bc 52 5f 08 3e c7 e3 c3 3d
       0.057220597 -0.027301827 0.13317612 0.095649295
000100 71 6a be bd ce 1d 4e 3e 4e 34 78 3e de fd 81 bd
       -0.09297646 0.20128557 0.24238703 -0.063472494
000110 e3 c4 01 3e e5 1f 54 3d e4 4a 3d 3d 7d c4 db 3d
       0.12672763 0.05178823 0.046214 0.107308365
000120 0c e5 a0 bc 6b b0 44 3d a2 bb 2e 3e 34 16 5d bd
       -0.019640468 0.048019808 0.17063764 -0.053976253
000130 2a 84 3c bd 7f 17 06 3e 74 2f 90 3c ab 9c 49 3c
       -0.04602448 0.130949 0.017600752 0.012305419
000140 de 98 02 3e ec ef 93 bd 4e e0 41 be de 99 2c 3e
       0.12753627 -0.07223496 -0.18933222 0.1685557
000150 33 4b 61 3d c0 ac 5f 3e 47 b2 27 3e 66 09 db 3d
       0.055003356 0.21843243 0.16376601 0.10695152
000160 03 b4 06 be be d5 c2 3b eb eb 82 bd 7a 49 82 bc
       -0.13154607 0.00594589 -0.06392654 -0.015904177
000170 81 46 26 3b bd 9e 6d 3e ac cf d3 3b cc d2 0e 3d
       0.0025371613 0.23205085 0.0064639654 0.034869
000180 1d ac db bd d7 54 14 3d 27 c0 c2 3c be ce da bd
       -0.107261874 0.036213722 0.023773266 -0.10683964
000190 53 3d ef bd 13 d2 4d 3e 82 35 fe 3d e8 37 da 3d
       -0.116816185 0.20099668 0.124125496 0.106551945
0001a0 00 03 62 3e 5e 25 53 3e 4f df 78 3c c4 bf 3e 3e
       0.22071457 0.20619723 0.01518996 0.1862784
0001b0 0f 60 92 bc 8a f1 11 bd 5c 7a dc bc d1 1d 0a 3d
       -0.01786807 -0.03563074 -0.026913814 0.03371984
0001c0 be 0a 39 3d bb ae b2 3d fd e7 07 be fb 67 9b bd
       0.04517626 0.087247334 -0.1327209 -0.07588192
0001d0 d1 ac c5 3d 0d a2 39 be 05 18 01 bd ea f1 98 3d
       0.09652103 -0.18128224 -0.031517047 0.074680164
0001e0 78 f5 2c 3d 51 77 ea bd c5 73 96 3d 24 e6 1e 3d
       0.042226285 -0.11448539 0.073463 0.038793698
0001f0 86 8c b6 ba 8e 2c 29 3d 60 fb b0 bb 8a 3d 84 3d
       -0.0013927377 0.041302256 -0.00540106 0.0645705
000200 f1 db c8 3d 82 14 05 3e 5f fa 03 3e 61 6e ad 3d
       0.098075755 0.12996104 0.12888478 0.08468319
000210 54 92 59 3d b1 d7 b1 3d 43 3a 11 3e 05 ef 09 3e
       0.053118065 0.08683718 0.14182381 0.13470085
000220 6a 82 61 3d 43 d7 14 bc 9a b0 cc 3d c5 e0 32 bd
       0.055056013 -0.0090845255 0.099946216 -0.04367139
000230 fc fa 56 3e d2 c5 d9 3c 50 06 27 3d e1 4b d4 3d
       0.2099418 0.026583586 0.040777504 0.10366035
000240 d5 d4 4c 3d 95 44 78 3b 30 f8 07 3e 4f 80 56 3c
       0.05000766 0.0037882675 0.1327827 0.013092115
000250 c7 9a a0 3d d4 b2 96 3d 35 0a 70 3e 40 4d b3 bc
       0.078420214 0.073583275 0.23441394 -0.021887422
000260 b3 89 5e 3d fc 90 1d be 94 51 19 3e f2 dd 40 be
       0.05433054 -0.15387338 0.14972526 -0.18834665
000270 d1 9e 92 3d 8b 0b a2 bb 5e 37 19 3e 1b e4 ad bd
       0.07159198 -0.0049452237 0.14962527 -0.08490773
000280 53 b2 34 3b e2 a5 d6 3c 9f 34 8d bc 83 0e a0 3d
       0.002757211 0.026202146 -0.017237006 0.07815268
000290 37 bf d9 3e 0d 5c 4e bd 5f d8 b0 bd 1e e0 c4 3d
       0.42528698 -0.050380755 -0.086350195 0.096130595
0002a0 97 2e fa 3c 32 e3 1e 3d 83 80 0c bd b7 92 ec bc
       0.030539794 0.03879089 -0.034302246 -0.028878553
0002b0 bd ae 3c bd 3a 7d 85 be 84 be 0a 3e 28 58 97 bd
       -0.04606508 -0.26072103 0.13549238 -0.07389861
0002c0 ea 0d 74 be c8 b4 46 3d a8 d6 b3 bd 73 51 09 be
       -0.23833433 0.04851225 -0.08781177 -0.13409977
0002d0 be ab 30 3e 1d 6a ca 3d e6 e7 85 be 44 47 ee 3d
       0.17253014 0.09883521 -0.26153487 0.116346866
0002e0 e4 4c 83 bc 9a 9c d4 bd 76 d1 82 3e 94 09 ea 3d
       -0.016027875 -0.10381432 0.2555043 0.11427608
0002f0 16 f4 0c be a7 c1 f0 bd 4e 67 82 bc a0 12 4e be
       -0.13764986 -0.11755686 -0.0159184 -0.20124292
000300 7e 89 2a 3e da 31 6a 3c 01 6d 44 be a2 87 1f 3e
       0.16654012 0.014294112 -0.19182207 0.15579084
000310 5a a8 37 be 08 17 e4 bd 70 38 4a 3d b4 cb f8 bc
       -0.17935315 -0.11137205 0.04937023 -0.03037057
000320 ec af 74 be d1 01 fa bd 6b 48 30 3e b7 2f 8a 3c
       -0.23895234 -0.12207378 0.17215125 0.016868455
000330 b9 02 8c 3d a4 73 c6 3b ce 81 59 be 20 7f e0 bb
       0.06836457 0.006056266 -0.21240923 -0.006851092
000340 a8 ef 36 3d a0 9c 6a bd ce 74 59 bd 73 2f b3 bc
       0.044662148 -0.057278275 -0.05308991 -0.021873211
000350 78 54 a0 be dd 19 3a bd 38 36 e8 3c 91 ea ae bd
       -0.31314445 -0.04543482 0.028346166 -0.08540834
000360 b2 51 a2 3d bf 07 0e bd 6b f3 07 be 23 7e 2e be
       0.079257384 -0.034675356 -0.1327645 -0.17040305
000370 85 a6 e6 3d 6b 3c 44 be 4a d6 f4 bc 55 5d 86 bc
       0.1126223 -0.19163673 -0.029887337 -0.016401926
000380 93 6e 31 be 70 ce 1e 3e 6c 10 80 3d ec 41 d4 bc
       -0.17327337 0.15508437 0.06253132 -0.02591034
000390 63 bd 48 be 90 3e 8f 3d ed 41 45 be 06 bc c9 3d
       -0.19603495 0.06994355 -0.1926343 0.09850316
0003a0 d4 d3 ca 3c db 62 0d 3e 3a f5 a7 3d 45 5d bb 3c
       0.02475921 0.13807242 0.0820107 0.022871623
0003b0 90 82 0c bd 4b e0 51 3d 96 45 3e 3c e7 bd 2e 3d
       -0.0343042 0.051239293 0.01161327 0.042661574
0003c0 c4 9c 28 bd c0 ed 11 bb 70 bd 43 3e de 4a cf bd
       -0.04116513 -0.0022266954 0.19115233 -0.10121702
0003d0 87 5f b2 3d a2 5b 0f 3e 68 5c 2d be 78 c6 86 bd
       0.08709627 0.13999799 -0.16929781 -0.06580824
0003e0 69 76 bf 3d 77 61 d3 bd a5 82 42 3e 8b 14 12 3e
       0.09348757 -0.10321324 0.1899515 0.14265649
0003f0 0f e5 a8 3c 1e 47 c6 bc 2f f7 06 3e 80 35 c7 3c
       0.020617036 -0.024203833 0.1318023 0.024317503

network_body._body_endoder.seq_layers.0.bias f4 [128]
000000 4d 0d 8e 3c 68 a1 ad 3b 4b 7f 44 bb c9 2d 20 bc
       0.017340327 0.005298782 -0.00299831 -0.009776541
000010 5a 3a 8e 3b d2 23 ca 3b 30 af 54 3c f0 5c f7 3b
       0.004340452 0.006168821 0.012981221 0.007548921
000020 f2 6f 82 3a 97 8e 9e 3c 24 97 f2 3c a5 da b7 3c
       0.0009951575 0.019355102 0.029613085 0.022443125
000030 a6 d3 e0 3c 2f e1 c0 3c 1e 4d 8e 3c 8e 02 78 3c
       0.027444672 0.023544876 0.017370757 0.015137328
000040 ec fb 9b 3c 0d cc b2 3c fc e5 c7 3c 54 49 d4 3c
       0.019041024 0.021825815 0.024401657 0.025913872
000050 05 3f 3c bb 72 80 85 bc 88 09 9a 3c e8 a9 25 3b
       -0.0028724086 -0.016296599 0.018803373 0.0025278274
000060 69 3e 26 3c 5e 0b 27 3d 81 2a f0 3c 0c ae d5 3c
       0.010146716 0.040782325 0.029317142 0.026083969
000070 1d 1b 4f 3c 42 ff 9e 3c d3 f2 f2 bb fc 2e c7 bc
       0.012640742 0.019408826 -0.007414201 -0.024314396
000080 70 7e d5 3c 35 5c 49 3c a0 3c 00 3d b3 31 06 3d
       0.026061267 0.01229005 0.031307817 0.03276224
000090 29 61 d9 3a 3a 24 87 3c 39 8c 1a 3d d6 27 3d 3d
       0.0016584742 0.016496766 0.037731383 0.04618057
0000a0 b7 f7 9d 3b 4f fe 46 3d 87 d4 b8 3b 8d 3e 4d 3c
       0.0048207897 0.04858237 0.0056405696 0.01252712
0000b0 cf e6 b9 3a 67 05 e1 3c 0b 06 3b 3c 17 92 ad 3c
       0.0014183166 0.027468396 0.011415015 0.021187825
0000c0 87 7c 43 3d e2 51 bf 3b d6 ed 7c 3c 56 9a 92 3c
       0.04772618 0.0058386186 0.015437564 0.017895859
0000d0 de 4b e8 3b f0 ed cd 3c bc 18 6b 3c 89 43 d0 3b
       0.007089122 0.025137872 0.014349159 0.006355707
0000e0 bb f1 e3 3c 79 c6 01 3d e9 39 9c 3c fa fe c9 3c
       0.027825227 0.03168342 0.019070582 0.024657715
0000f0 d4 d0 4b 3b 69 5b 74 bb c6 87 6c 3c f8 cc ee 3b
       0.0031099813 -0.003728593 0.014436668 0.007287618
000100 93 8e 8f 3c 4e 77 fe 3b 4e 76 0d 3c 94 eb b9 3b
       0.01752404 0.007765687 0.008634163 0.005673835
000110 58 ef dd 3b 0c 0e 1f 3d 86 31 f0 3b 97 c7 35 3c
       0.0067729168 0.038831756 0.0073301224 0.011094949
000120 d8 89 f6 3c 00 62 59 3c 19 20 a6 3c dc 7c 43 3c
       0.030095026 0.013267994 0.020278977 0.011931624
000130 da 70 ce 3c 4b e4 5d 3b 68 af 29 3b 66 f4 b2 3c
       0.025200296 0.0033857997 0.0025891904 0.021845054
000140 ea cc 42 3c ea 6d e3 3b 1f fc d8 3c da e6 e3 3c
       0.011889676 0.006940593 0.026487408 0.02782004
000150 3f 16 63 3b 97 86 9a 3c 6c 38 b1 39 38 dc 99 3c
       0.003465071 0.018863006 0.00033802108 0.018781766
000160 54 43 a9 3c 78 89 ed 3c 36 34 c9 bc f8 d2 f2 3c
       0.020661987 0.028996214 -0.024561029 0.029641613
000170 f3 00 cf 3c 97 7e 7b 3c a2 10 18 bd d5 f6 ac 3c
       0.025269007 0.015350006 -0.037125237 0.021113792
000180 9b 9e 06 3d 07 0f cb 3b 87 73 c4 3c e7 b9 bd 3c
       0.0328661 0.0061968598 0.023980869 0.023159934
000190 4d 9b e9 3b e4 b1 89 3c d9 73 2a 3d 6b 99 cf 3c
       0.007129109 0.016808458 0.041614387 0.02534171
0001a0 d6 ca 92 3c a8 a2 b0 3b 99 76 e2 3c be 0b aa b9
       0.017918985 0.005390484 0.027644442 -0.00032433675
0001b0 90 eb dc 3c be 03 8b 3c d6 03 a5 3c 35 10 5e 3c
       0.026967794 0.016969558 0.02014343 0.013553669
0001c0 2e 3c 97 bc bd b7 09 3c a4 03 55 3c d5 cf da ba
       -0.018461313 0.008405623 0.013001356 -0.0016694019
0001d0 03 01 cc 3b 51 7b b3 3b 54 de 54 3c 84 c3 0e 3a
       0.0062257065 0.005477347 0.01299246 0.0005446004
0001e0 43 23 1e 3d a0 76 4d 3c f2 1c cc 3b 80 bb a6 3c
       0.038607847 0.012540489 0.0062290365 0.020353079
0001f0 a9 49 8a 3c 4f 67 5c 3c 6d 22 10 3d 11 76 20 3a
       0.016880827 0.013452365 0.03518908 0.0006121109

network_body._body_endoder.seq_layers.2.weight f4 [128, 128]
000000 10 2c 5e 3d dd 68 29 3e cb ec 97 3d 31 44 19 be
       0.05424124 0.16543908 0.074182115 -0.14967419
000010 cd f1 49 3d 8a 60 29 3d 13 b2 d6 3b 7a e6 8d bc
       0.049302865 0.041351832 0.00655199 -0.017321814
000020 52 64 35 3d 71 1e e9 3d 66 6c 4f 3c 90 11 12 be
       0.044285126 0.11382759 0.012660122 -0.14264512
000030 21 d9 af 3c fb 5d 98 3c c9 d8 b3 bd 0f b3 41 3e
       0.02146584 0.0185995 -0.08781583 0.18915962
000040 2a b5 06 be c4 61 63 bc c1 d4 08 bb 0f a2 ce 3c
       -0.13155046 -0.01387829 -0.0020878764 0.02522376
000050 dd 57 90 3d de f1 d2 bd 71 b4 e0 3c 3d ed 07 be
       0.070480086 -0.10300039 0.027429791 -0.13274093
000060 3d 46 80 bd a6 f9 9b bd 76 aa 6b bd 28 19 33 be
       -0.06263397 -0.07615976 -0.05753561 -0.17490065
000070 a0 7c 81 bd 3a 11 a7 bd b5 72 a6 3d 3d 0e 6a bd
       -0.063225985 -0.081575826 0.081273474 -0.057142485
000080 83 3d 34 3e 50 52 fd 3d 54 88 28 be 3a 52 b4 3d
       0.1760159 0.123692155 -0.16458255 0.08804746
000090 8b bb 0c 3e e1 c9 0b bd 94 0d b2 3d 8a d9 14 3e
       0.13743417 -0.034128074 0.08693996 0.1453611
0000a0 48 8e 55 bd 2e f7 be 3d 99 75 29 be f5 32 10 bd
       -0.052137643 0.093244895 -0.16548766 -0.035204846
0000b0 94 19 3e bd 60 ac a6 bd 01 c9 ee bc 22 50 8d 3a
       -0.046411112 -0.08138347 -0.02914858 0.0010781328
0000c0 f3 5c ff bd a5 20 a8 bd f2 72 77 3d 01 ba 8e bd
       -0.124689005 -0.082093515 0.060412355 -0.06969071
0000d0 02 79 59 bc ba 96 b1 3b bd 63 a2 3d 83 11 d4 bd
       -0.013273479 0.0054195793 0.0792918 -0.103549026
0000e0 6b 4d f0 3d 7e af c3 bd 15 7f d5 3d 18 7e 61 bd
       0.11733516 -0.09554957 0.104246296 -0.055051893
0000f0 02 50 03 be 12 65 72 be 6d 11 a8 3d 35 d9 9b 3d
       -0.1282349 -0.23671368 0.08206449 0.07609788
000100 61 0b 72 be 72 48 57 bd 54 f7 26 3e f6 7c 2e bd
       -0.23637153 -0.052559324 0.16305286 -0.04259964
000110 3d 2d e2 3d 94 de a2 3b 66 1a 42 3e a8 86 e5 bd
       0.11043785 0.004970381 0.18955383 -0.11207324
000120 8c 7e 1e 3e f4 68 89 bd a2 c2 b3 bd e5 d3 ef 3c
       0.15477961 -0.06709471 -0.08777358 0.029275844
000130 9a 7b b0 3c f0 23 19 bd f3 41 b4 bd 6e b1 98 bd
       0.021543313 -0.03738779 -0.08801641 -0.07455717
000140 c1 32 89 bb 7b d6 4f 3e 72 76 9d 3c 52 1f 41 3d
       -0.0041869585 0.20296662 0.019221518 0.04714901
000150 5b bf eb bc fd d8 f2 bc 23 38 f1 bd bb ff 5f bd
       -0.028777769 -0.029644484 -0.11778285 -0.054687243
000160 d6 bc be 3d dd c7 11 3a e3 7e 91 3d c2 ba 2d 3e
       0.09313361 0.0005561093 0.0710428 0.16965774
000170 7d ee 5b bd ea 42 52 3d b5 f0 0c be cf bc 91 3d
       -0.053694237 0.051333345 -0.13763697 0.071160905
000180 5f 2d 79 bd 29 c8 46 3e 26 3a 64 be 52 8c e8 3d
       -0.060834285 0.19412293 -0.22287807 0.11354889
000190 29 ff 75 bd ed 8a bb 3d 43 47 89 3e 5f d1 1d be
       -0.060057793 0.09157357 0.2681218 -0.154119
0001a0 8d 63 4b 3e f7 20 29 bd 70 99 91 3d 79 f0 15 bd
       0.19862194 -0.041291203 0.07109344 -0.036606286
0001b0 0b f2 b8 3d e8 ef 78 bd 6f 69 41 3d 74 4e a2 3d
       0.09030541 -0.060775667 0.04721969 0.0792512
0001c0 20 e8 61 3d 7f b0 90 3d 8a 24 09 bd 54 1b 69 3d
       0.055153012 0.07064914 -0.033482112 0.056910828
0001d0 2d 0e b3 bd 53 ae 34 3e 6a bb 95 bb 53 ab 2b 3e
       -0.08742938 0.17644624 -0.0045694606 0.16764574
0001e0 1a 22 f0 bb 9b a5 1b 3d dd e3 03 3e b7 6e b9 3e
       -0.007328284 0.03799973 0.12879892 0.3621728
0001f0 32 95 ad 3e e8 7b 80 3d 9a 8d 71 3e 6e 4f ad bc
       0.3390289 0.06273633 0.23589173 -0.02115604
000200 39 83 fa 3d 34 4a f5 3c bf 34 05 3d 3c ce 60 bd
       0.1223206 0.02994261 0.032521006 -0.05488418
000210 86 93 0b be 90 cc 03 bd 3a f6 6c bd 1f fd 40 bd
       -0.13630494 -0.032177508 -0.057852007 -0.047116395
000220 73 7c a2 3c 4c cd 6d 3e 19 14 22 3d 08 d5 33 3c
       0.019834733 0.23222846 0.039569948 0.010976084
000230 06 64 92 3d 0b 93 96 3d 84 f6 36 3d 4e b5 53 bb
       0.07147984 0.07352265 0.04466869 -0.003230411
000240 8c 02 80 bd cf 4f 0b 3e 46 0e 92 3d ce 2d 2c bd
       -0.06250486 0.13604663 0.07131629 -0.04203587
000250 94 25 56 bd 60 f6 82 bc 3d a2 14 3e a9 e3 80 bd
       -0.05228193 -0.015986621 0.14515014 -0.06293423
000260 5f 7a 84 3c a9 3f bd bd 5d 5c 7e 3c e0 2f bf bc
       0.016171632 -0.09240658 0.015524951 -0.023338258
000270 49 8f c2 bd 72 97 52 3e 6a 2b 0d 3d f9 97 84 3d
       -0.09499986 0.20565584 0.03446523 0.06474299
000280 d4 97 80 3d c0 46 a7 3c 80 46 90 bd a8 13 e8 3d
       0.06278959 0.020419478 -0.07044697 0.11331874
000290 30 c1 68 3c 02 29 c6 3d 8d cf 83 bd e9 eb 1a 3e
       0.014206216 0.0967579 -0.064360715 0.15129055
0002a0 03 fc 2d be 82 b6 88 3d 49 ac 0c be 15 b2 c4 3b
       -0.16990666 0.066754356 -0.13737597 0.0060026743
0002b0 14 2a 2b 3e 1f c8 e6 3d 3f 6a 55 3d ed 88 8b bb
       0.1671527 0.11268639 0.052103277 -0.004258266
0002c0 59 2c d5 bd 64 c4 db 3d 02 b3 7e 3d 62 11 34 3d
       -0.10408849 0.10730818 0.062182434 0.04396189
0002d0 fd c7 12 3e 0a 22 50 3d 3c 3a 47 3e e3 85 2e 3d
       0.14334102 0.050813712 0.19455808 0.042608153
0002e0 03 9d 07 3e 80 08 ce bd cc d9 0a be ed ff 42 3c
       0.13243489 -0.10060215 -0.13559645 0.011901838
0002f0 ad 41 1d 3e bf b9 8c bd e4 24 59 bd 96 e3 d7 3d
       0.15357085 -0.06871366 -0.053013697 0.105414554
000300 12 94 26 3d f1 37 8c 3d 6e d4 b9 3d f6 93 83 3c
       0.040668555 0.068466075 0.09073721 0.016061764
000310 72 dd 32 3d 2b 4e 97 3d 20 38 0a bd d1 cf 85 3d
       0.043668218 0.07387956 -0.03374493 0.065337785
000320 c5 dd 97 3c 02 d2 2c bd 65 54 cb 3c 97 3a e8 bc
       0.018538365 -0.042192467 0.024820516 -0.02834825
000330 d2 46 87 bd 5e d9 0e be 6d 34 2d 3e 45 09 ba bd
       -0.06605305 -0.13950107 0.1691453 -0.09083799
000340 61 ff 8e bc 61 d6 53 bd a9 45 b4 bd 88 86 d4 3c
       -0.017455759 -0.05171812 -0.08802349 0.025943056
000350 d7 09 7c 3c 8d d6 0d be 28 d9 07 be 52 90 5a bd
       0.015383205 -0.13851376 -0.13266432 -0.05336029
000360 8d 61 fd bd d0 ff 43 bd ae 09 4b bd f2 cf 1e 3e
       -0.12372122 -0.047851384 -0.04956978 0.15509012
000370 7f 3e 82 bd e6 ea 41 be 21 a5 b4 bc 3e b7 40 bc
       -0.063595764 -0.18937263 -0.022051396 -0.011762438
000380 39 90 c9 3d 62 b7 dc 3d e0 5e 74 bd f9 cb 51 3d
       0.098419614 0.10777165 -0.059660792 0.051219914
000390 37 ec 86 3b 85 84 23 bd fc 94 3a bd a5 46 a3 3d
       0.0041175145 -0.039921302 -0.04555224 0.07972459
0003a0 1c fd 22 3e c5 6d 66 3d a9 74 6d 3d 06 1a 80 bc
       0.15916866 0.056257028 0.057972584 -0.015637409
0003b0 b5 fc 4d 3d ac 9f 9d 3c 83 01 55 3e 04 ff e3 3d
       0.05028983 0.019241177 0.20801358 0.11132625
0003c0 31 ac 20 3d 46 b9 f4 3d 4a 18 ac bd da 8f bd 3d
       0.039226715 0.119494006 -0.0840307 0.09255953
0003d0 99 02 a6 3d ef c5 8c 3d ea 8f 28 3d 2f 31 c1 bd
       0.08105964 0.0687369 0.041152872 -0.09433209
0003e0 1f 57 b0 bd 6a 0a 80 3d 29 56 7b 3d 9f cc 25 3d
       -0.08610367 0.06251986 0.061361466 0.040478345
0003f0 ff fa 6d bd b8 15 ec 3d c0 73 ab 3d 53 f6 11 3e
       -0.058100697 0.1152758 0.08371687 0.14254121

network_body._body_endoder.seq_layers.2.bias f4 [128]
000000 a3 50 f7 3b 6d 67 3e bc 63 df 8d b9 fc 92 d3 3c
       0.0075474544 -0.011621338 -0.00027060052 0.025826924
000010 af 78 e1 3c 08 5c 16 bb 17 8e d7 3c 0e c8 7e bc
       0.027523367 -0.0022943038 0.02631287 -0.015550626
000020 2a 25 c7 3c 0e 32 44 3c 06 f4 aa 3c 39 6e af 3c
       0.024309713 0.011974825 0.020868313 0.021414863
000030 82 02 cb 3c 00 4d f2 3c 92 9a d4 3c 3e 92 98 3c
       0.02478147 0.029577732 0.025952611 0.018624421
000040 e8 ec c7 3c 14 d4 3a 3c ae fd bc 3c b9 74 c7 3c
       0.024404958 0.011403102 0.023070183 0.02434765
000050 e0 5a e0 3c 52 b6 a1 3c fd de b8 ba d2 f9 56 bc
       0.027387083 0.019740257 -0.0014104542 -0.013121085
000060 1a 88 a6 3c 86 16 2c 3c 92 65 99 3c 5e c1 06 3c
       0.02032857 0.010503417 0.01872519 0.008224813
000070 07 dc b7 3c 3c 24 89 3c d7 c4 c1 3c 86 1f 8c 3c
       0.022443784 0.01674091 0.02365343 0.017104875
000080 73 93 88 3a 0c bc a0 ba b1 24 15 bb 7a 4e ed 3c
       0.001041992 -0.0012263074 -0.0022757465 0.028968085
000090 af 75 c0 bb bb 57 bd 3c ac 29 86 bb d5 e0 8e 3c
       -0.005873404 0.023113122 -0.004094323 0.017441193
0000a0 04 1e 8a 3b cb 9d ad 3c 0f 11 fa 3b 2d 8e 1e 3c
       0.004215004 0.021193406 0.007631428 0.009677452
0000b0 7b f2 a7 3b 07 bf b6 3c ea 73 1d 3c 4e 94 31 bb
       0.0051253415 0.022307886 0.009610156 -0.0027096453
0000c0 5f 51 98 bb 04 d5 9b 3c 2a e6 d4 3c 05 44 be 3c
       -0.004648372 0.019022472 0.025988657 0.023225794
0000d0 60 e5 68 3c 60 78 c9 3c e9 4d bb 3b 01 92 a2 3a
       0.0142148435 0.024593532 0.0057160747 0.0012403132
0000e0 05 2b 19 bb 99 54 2f bb 0a 9e 87 3c 8c ef 2c 3c
       -0.002337159 -0.0026753305 0.016554851 0.010555159
0000f0 19 9e 7d 3c ad 21 5b bb f1 35 3f 3b 64 5a 51 bb
       0.015479588 -0.003343682 0.0029176439 -0.0031944746
000100 31 e9 84 3c 0c 16 a9 3c 71 ac 75 3b ad 20 83 3c
       0.016224476 0.020640396 0.0037486816 0.016006792
000110 69 6a e5 3c 63 9e 09 bc 9c 57 c2 3c 3b e9 41 3c
       0.028004842 -0.008399579 0.023723416 0.011835392
000120 a9 ef 27 3c ea 9b 08 3c 6a f7 b9 3b 43 98 9e 3c
       0.0102500105 0.008337954 0.005675246 0.019359713
000130 53 22 8e 3c 79 2d a3 3c 19 a9 c7 3b a1 b7 90 3c
       0.017350351 0.019919144 0.006093156 0.017665686
000140 1a 63 71 3c f4 d1 73 ba 87 77 83 3c 47 90 8f bb
       0.0147331 -0.0009301 0.016048206 -0.004381213
000150 d9 7e c4 3c 56 86 c1 3b 25 c9 08 3c 63 1c e8 3b
       0.023986267 0.0059059067 0.008348738 0.007083462
000160 46 72 b4 3c 19 e8 47 3c 04 c5 d2 3c 33 1b 2a 3c
       0.022027146 0.0122013325 0.02572871 0.010382461
000170 8d 17 32 ba ce 2f ff 3b b0 44 f5 3c 7e 1e 0e 3c
       -0.00067936705 0.007787681 0.02993998 0.008674262
000180 30 8d 4b 3c cf fa b6 3c 8f 9b 4d bc 25 8f 1d 3b
       0.012423798 0.022336392 -0.012549295 0.002404162
000190 8f de dd 3c 07 e6 28 bb 07 43 2e 3d f8 6a 3d 3b
       0.027083663 -0.0025771873 0.04254439 0.002890287
0001a0 a3 85 a7 3c 66 e3 0e bc 01 01 12 3c dd 7f b8 3a
       0.020449465 -0.008721208 0.008911372 0.0014076192
0001b0 ea 68 dd bb e9 dd 9a 3b 26 3a 29 bc 56 fe 97 3c
       -0.0067568915 0.004726161 -0.010328805 0.018553894
0001c0 61 b6 0c 3d 68 cb be 3c 9d 20 04 3c 2b 83 a9 3b
       0.034353618 0.023290351 0.008064416 0.005173107
0001d0 50 bd 8f 3a 4a d2 3f 3c a6 9d 03 ba 64 c3 91 3c
       0.0010966454 0.011707852 -0.0005020745 0.017793365
0001e0 72 a1 1d bb 00 8d e6 3b cf f4 8c 3c f4 f7 bb 3c
       -0.0024052528 0.0070358515 0.017206578 0.022945382
0001f0 05 25 22 3a 08 a5 ce 3c 98 f0 84 3c 60 86 d2 3c
       0.0006185326 0.025225177 0.016228005 0.02569884

action_model._discrete_distribution.branches.0.weight f4 [2, 128]
000000 c9 0d 64 bd ce 5d ef bc cd a3 93 bd 41 2e 34 3d
       -0.05567721 -0.029219534 -0.07208977 0.043989424
000010 47 09 3b 3d 25 42 7b bd 5d d9 44 3d 00 4f 2a bd
       0.045663144 -0.061342377 0.048058856 -0.041579247
000020 d0 6e 3b 3d f7 ef b5 3c 57 95 2b 3d 4c 06 66 3d
       0.045759976 0.02220915 0.04189047 0.05615835
000030 a1 54 17 3d 42 e9 7c 3d 52 7d 06 3d 37 07 3b 3d
       0.036945943 0.06174589 0.03283436 0.045661177
000040 5d 18 ed 3c 4b eb a6 bc 07 51 5c 3d 1d 3c 3b 3d
       0.028942281 -0.020375868 0.05378821 0.045711625
000050 3a 32 9a 3d 3f 81 06 3d 64 72 93 bc 5c bc 71 bc
       0.07529111 0.032838102 -0.017998882 -0.014754381
000060 bc 04 93 bd 3f 30 45 3d 7b 5e 90 bd bc 22 5f bd
       -0.071786374 0.048141714 -0.07049271 -0.054476485
000070 ce f7 2b 3d d7 a2 25 3d b3 64 39 3d 42 f4 04 3d
       0.04198437 0.0404385 0.04526205 0.032459505
000080 74 af 42 bd 3c e0 57 bd 94 ab 7a bc d2 37 7d 3d
       -0.047530606 -0.05270408 -0.0152996965 0.061820813
000090 6f 16 a4 bd 01 77 0d 3d 57 33 75 bd 58 8c 2f 3d
       -0.08012091 0.03453732 -0.059863415 0.04285845
0000a0 bc 56 50 bd ce 3d 99 3c 48 76 92 bd 01 54 bd bd
       -0.050863966 0.018706229 -0.071514666 -0.09244538
0000b0 61 23 88 bd 57 66 5e 3d 5b 9b 82 bd 86 af 52 bd
       -0.06647373 0.054296818 -0.06377288 -0.051436923
0000c0 01 8d 80 bd 92 1f 16 3d c3 06 85 3d cf a1 9e 3d
       -0.06276894 0.0366512 0.0649543 0.07745706
0000d0 35 c8 3b 3d 10 c8 80 3d 87 1b 68 bd 97 79 c5 bd
       0.04584523 0.06288159 -0.056666877 -0.09642332
0000e0 99 63 a5 bd e3 8b 6f bd 19 4c 93 bd 49 bb 6b 3b
       -0.08075637 -0.058483016 -0.07192249 0.0035969785
0000f0 19 e9 73 3d 56 1b 0d bc c5 92 36 3b 76 e6 31 bd
       0.05954847 -0.008612474 0.0027858478 -0.043432675
000100 9c b6 9b 3c 57 2e 5b 3d 6e 56 92 bd 77 cd 90 bd
       0.019007973 0.05351099 -0.071453914 -0.07070439
000110 a0 ee 8d 3d 8e 73 cd bc 67 17 80 3d 15 11 ad bd
       0.0693028 -0.025079515 0.06254464 -0.08450524
000120 c4 59 ba bb 9d d4 69 bd 16 b1 ab bd ce eb 1b 3d
       -0.0056869704 -0.05708753 -0.08383386 0.038066678
000130 f1 9d 00 3d 8e 73 b9 bd d1 d0 89 bd f3 be d5 3c
       0.031400625 -0.090552434 -0.06729282 0.026092028
000140 7b d2 66 3d 73 2e 95 bd 88 6a 1c 3d c6 a4 26 bc
       0.056353074 -0.0728425 0.038187534 -0.010171121
000150 31 56 d7 3c 23 69 b6 bd f6 06 8a bd 16 9a 5b 3c
       0.026286216 -0.08906772 -0.06739609 0.013403436
000160 4c 4b 2c 3d c2 9a 56 3d 09 3f 38 3d 40 ad 8e bd
       0.042063996 0.052393682 0.04498199 -0.069666386
000170 32 8d 2d bd 37 ad c2 3c 47 a2 10 3d 3c 9d 4b bd
       -0.042370982 0.023764236 0.03531101 -0.049710497
000180 1a 2f 3c 3d 6c c0 46 3d 12 0c 93 bd 63 7c 89 bd
       0.045943357 0.04852335 -0.071800366 -0.06713178
000190 0e c6 70 3d df d6 9a bd 41 8a 80 3d ee 98 b9 bd
       0.05878263 -0.07560515 0.0627637 -0.09062372
0001a0 f9 0c f9 3c b1 c0 45 bd 16 39 66 3d e6 0c 78 bd
       0.030401694 -0.048279468 0.056206785 -0.060559176
0001b0 f0 16 12 bd 80 33 6a 3c 42 85 7a bd e9 65 1f 3d
       -0.035666406 0.014294505 -0.06116224 0.03891555
0001c0 60 f9 b8 3d ae c8 13 3d 8b b8 96 bd 16 b8 8e bd
       0.090319395 0.036080055 -0.073594175 -0.06968705
0001d0 b3 6b 31 bd 43 ae 3e 3d 1c 2d b7 bd d0 42 ff 3c
       -0.0433156 0.046552908 -0.08944151 0.031159788
0001e0 f3 4a 90 bd da 88 79 bd 55 ff 75 3d b2 84 2c 3d
       -0.070455454 -0.060921527 0.060057957 0.042118736
0001f0 5c dc 69 bd 19 ea 0e 3d bc dd 61 3d b5 55 66 3d
       -0.057094917 0.03489122 0.055143103 0.05623408
000200 46 34 94 3d 74 27 dc 3c 88 b2 aa 3d 7b ec 20 bd
       0.07236533 0.026874281 0.083348334 -0.039288025
000210 f9 67 05 bd 47 dd 10 3d c5 fd 3c bd 49 55 09 3d
       -0.03256986 0.035367277 -0.04614045 0.0335286
000220 e1 c7 24 bd 53 7f 07 bd 51 51 4b bd f5 8c 1d bd
       -0.040229682 -0.03308041 -0.049638096 -0.038464505
000230 f3 60 40 bd 81 30 8c bd a6 d8 00 bd ef 8c ad bc
       -0.046967458 -0.06845189 -0.031456612 -0.021185366
000240 91 66 32 bd 5a 15 34 3c ba 43 63 bd ea 80 16 bd
       -0.043554846 0.010991419 -0.05548451 -0.036744036
000250 2e b4 58 bd 53 c2 c8 bc 7a 80 72 3c bc dd 7c 3c
       -0.052906208 -0.024506724 0.014801139 0.015433725
000260 b9 f2 91 3d a6 3d 47 bd 0c 89 6d 3d e9 48 ae 3d
       0.07126374 -0.048642777 0.057992026 0.0851
000270 96 ad 38 bd 0a 62 3c bd 89 90 59 bd df 1f 0c bd
       -0.04508742 -0.045991935 -0.053116355 -0.034210082
000280 c5 8d 6b 3d 93 8c 87 3d 81 fb 4b 3c 3a ed 47 bd
       0.05750825 0.06618609 0.0124501 -0.04881022
000290 fc 4e 7e 3d 8f 03 c9 bc fd b7 8c 3d bc 00 54 bd
       0.062087044 -0.02453783 0.068710305 -0.051758513
0002a0 b0 32 80 3d 3c 44 de bc 44 0e a9 3d 8d 6e 97 3d
       0.06259668 -0.027132146 0.08254674 0.07394133
0002b0 80 cf be 3d 60 16 37 bd 60 13 a1 3d 38 78 84 3d
       0.09316921 -0.044699073 0.078650236 0.064682424
0002c0 08 70 9d 3d 09 4a 38 bd 85 56 46 bd fa d9 8e bd
       0.07687384 -0.04499248 -0.048422355 -0.069751695
0002d0 e3 6e 42 bd 4c ee 5d bd 18 24 63 3d 21 d5 9e 3d
       -0.04746903 -0.054182336 0.055454344 0.07755495
0002e0 07 ed aa 3d 9b 3a 6c 3d 1e 61 91 3d 35 e3 2f bc
       0.08345991 0.057673078 0.07098602 -0.010735323
0002f0 07 70 68 bd f9 72 7a 3c 4d 90 be 3a e5 03 5a 3d
       -0.056747463 0.015286201 0.0014538855 0.05322637
000300 cd fd f3 bc 1c 87 2d bd 5e 02 92 3d 2f 11 90 3d
       -0.029784108 -0.04236518 0.07129358 0.070345275
000310 f7 47 ad bd de 38 40 3c 82 5a 0a bd 9b 46 9d 3d
       -0.08460992 0.011732308 -0.03377772 0.076794825
000320 e6 a0 5c bc 58 ea a6 3d f4 47 c1 3d 8f 2d 3e bd
       -0.013466096 0.08150166 0.09437552 -0.046430167
000330 55 72 b7 bc d1 90 8c 3d 90 73 68 3d 0d b4 56 bd
       -0.022393385 0.06863559 0.056750834 -0.052417804
000340 1c 0a 80 bd f4 7d ad 3d 1a cc e5 bc 54 3f e6 3c
       -0.06251928 0.08471289 -0.028051425 0.02810637
000350 01 03 11 bd 10 e7 ab 3d 5a 04 39 3d ce de b5 3c
       -0.035403255 0.08393681 0.045170166 0.022200968
000360 d5 db 21 bd c0 9a 8b bd 72 b6 1c bd 91 4d d3 3d
       -0.03951629 -0.068166256 -0.03825993 0.10317529
000370 bc a4 55 3d 29 57 cf bc a4 1e 4e bd 43 f2 47 3d
       0.052159056 -0.025310116 -0.05032219 0.048815023
000380 55 7b 06 bd 7d e8 45 bd 9c 7e 8a 3d da bb 9e 3d
       -0.032832462 -0.04831742 0.0676243 0.077506736
000390 0d b2 45 bd b4 49 a9 3d 73 ac 50 bd 80 e0 a7 3d
       -0.048265506 0.08266011 -0.05094571 0.08197117
0003a0 78 3f 2f bd 99 3f 7a 3d be 25 cb bc 5e 68 50 3d
       -0.042785138 0.061095808 -0.02479827 0.050880782
0003b0 3f 34 11 3d 06 f6 1d bc f3 d0 71 3d 83 05 0a bd
       0.035450216 -0.009641176 0.05903716 -0.033696663
0003c0 b7 fb a6 bd a9 68 3d bd e3 25 82 3d 82 49 92 3d
       -0.081534795 -0.04624239 0.063548826 0.07142927
0003d0 fd 1f 48 3d fe 2c 8a bd 35 2b 9d 3d 05 6e da bc
       0.04885863 -0.06746863 0.07674257 -0.02666379
0003e0 81 fd 72 3d d9 af 85 3d a3 38 42 bd 67 78 f2 bc
       0.05932379 0.06527681 -0.047417294 -0.029598428
0003f0 c1 f1 98 3d e9 96 1d bd 0f d0 5a bd 3a 68 71 bd
       0.07467986 -0.038473997 -0.053421076 -0.05893729

action_model._discrete_distribution.branches.0.bias f4 [2]
000000 45 96 83 3c 26 96 83 bc
       0.016062865 -0.016062807

exp_avg f4 [128, 114]
000000 46 c5 a2 b7 c6 0a a3 b4 99 f1 95 b7 46 c5 a2 b7
       -1.9403768e-05 -3.0368955e-07 -1.7874687e-05 -1.9403768e-05
000010 c6 0a a3 b4 95 78 0b b9 46 c5 a2 b7 eb 0c a3 b4
       -3.0368955e-07 -0.00013300993 -1.9403768e-05 -3.0370515e-07
000020 83 0c e3 37 46 c5 a2 b7 b4 0a a3 b4 aa c7 62 b9
       2.7066335e-05 -1.9403768e-05 -3.0368903e-07 -0.0002162742
000030 46 c5 a2 b7 eb 0c a3 b4 94 c0 4c 38 46 c5 a2 b7
       -1.9403768e-05 -3.0370515e-07 4.8816742e-05 -1.9403768e-05
000040 c9 09 a3 b4 57 b9 97 b9 06 c5 a2 b7 14 19 a3 b4
       -3.0368236e-07 -0.00028939053 -1.9403651e-05 -3.0379363e-07
000050 8b c7 80 38 15 35 24 b6 c4 ca 90 b7 b4 8f f2 b9
       6.1406834e-05 -2.4468802e-06 -1.7260558e-05 -0.00046264904
000060 06 c5 a2 b7 14 19 a3 b4 18 e0 92 38 18 cb d6 39
       -1.9403651e-05 -3.0379363e-07 7.003563e-05 0.00040968577
000070 32 20 e1 b9 26 8f 23 ba 06 c5 a2 b7 14 19 a3 b4
       -0.00042939332 -0.00062392873 -1.9403651e-05 -3.0379363e-07
000080 b6 05 a0 38 65 03 96 3a ab 98 98 ba c4 3f 31 ba
       7.630458e-05 0.0011445103 -0.0011642178 -0.0006761516
000090 06 c5 a2 b7 14 19 a3 b4 be d1 ab 38 89 ca 7b 3a
       -1.9403651e-05 -3.0379363e-07 8.192983e-05 0.000960507
0000a0 8b 7a 80 ba 69 3a 20 ba 06 c5 a2 b7 14 19 a3 b4
       -0.0009802146 -0.00061122194 -1.9403651e-05 -3.0379363e-07
0000b0 0c b3 b7 38 bb 82 76 3a 47 ad 7b ba 1f ef dd b9
       8.75947e-05 0.00094036356 -0.00096007105 -0.00042330564
0000c0 06 c5 a2 b7 14 19 a3 b4 26 f9 c2 38 dc db af 39
       -1.9403651e-05 -3.0379363e-07 9.2970484e-05 0.0003354241
0000d0 f4 30 ba b9 3b 1e 8d b9 06 c5 a2 b7 14 19 a3 b4
       -0.00035513157 -0.0002691614 -1.9403651e-05 -3.0379363e-07
0000e0 57 77 cf 38 c6 53 a5 b7 dc b8 99 30 24 8f f9 b7
       9.892758e-05 -1.9708543e-05 1.1184755e-09 -2.9749768e-05
0000f0 56 54 a5 b7 8c 2b c0 30 29 93 3c b8 26 54 a5 b7
       -1.9708805e-05 1.3982215e-09 -4.4959746e-05 -1.9708717e-05
000100 2a 6b aa 30 22 86 5f b6 56 54 a5 b7 e6 1d c0 30
       1.2399586e-09 -3.3307665e-06 -1.9708805e-05 1.3978336e-09
000110 d3 66 64 b8 26 68 a5 b7 63 44 35 32 a3 75 4d 38
       -5.44552e-05 -1.971803e-05 1.0551136e-08 4.8985366e-05
000120 56 54 a5 b7 e6 1d c0 30 e1 5e 7f b8 96 5b a3 b7
       -1.9708805e-05 1.3978336e-09 -6.08851e-05 -1.9473762e-05
000130 d6 db 7a b4 29 39 19 39 56 54 a5 b7 e6 1d c0 30
       -2.336304e-07 0.00014612511 -1.9708805e-05 1.3978336e-09
000140 18 ae 8a b8 f6 28 a4 b7 b7 14 14 b4 8a b8 c2 39
       -6.61278e-05 -1.9569397e-05 -1.379111e-07 0.00037140056
000150 56 54 a5 b7 e6 1d c0 30 7c f8 93 b8 c2 a6 0d ba
       -1.9708805e-05 1.3978336e-09 -7.05579e-05 -0.0005403572
000160 37 7c 08 3a ff 75 28 3a 56 54 a5 b7 e6 1d c0 30
       0.0005206498 0.0006426274 -1.9708805e-05 1.3978336e-09
000170 b2 86 9c b8 3f c5 64 ba b4 9a 5f 3a e0 df 76 3a
       -7.4637486e-05 -0.0008726902 0.00085298275 0.0009417515
000180 56 54 a5 b7 e6 1d c0 30 7e 63 a5 b8 3a 10 7d ba
       -1.9708805e-05 1.3978336e-09 -7.886345e-05 -0.0009653602
000190 b0 e5 77 3a e2 2e 18 3a 56 54 a5 b7 e6 1d c0 30
       0.00094565284 0.0005805326 -1.9708805e-05 1.3978336e-09
0001a0 06 b3 af b8 c3 03 5b ba 36 d9 55 3a 40 af 0f 3a
       -8.377996e-05 -0.00083547476 0.0008157672 0.00054811314
0001b0 56 54 a5 b7 e6 1d c0 30 59 7b bb b8 0d ae 90 ba
       -1.9708805e-05 1.3978336e-09 -8.93983e-05 -0.0011038199
0001c0 c5 18 8e 3a b0 2d e9 39 4b 64 a2 38 ac 4b 23 35
       0.0010841122 0.00044475263 7.743443e-05 6.083235e-07
0001d0 b4 f9 1e 38 4b 64 a2 38 ac 4b 23 35 aa 91 70 39
       3.790269e-05 7.743443e-05 6.083235e-07 0.00022942448
0001e0 4b 64 a2 38 ec 4b 23 35 1f 5e 1b b8 4b 64 a2 38
       7.743443e-05 6.083271e-07 -3.7042537e-05 7.743443e-05
0001f0 ac 4b 23 35 de 39 c2 39 4b 64 a2 38 ec 4b 23 35
       6.083235e-07 0.00037045678 7.743443e-05 6.083271e-07
000200 a4 d3 99 b8 4b 64 a2 38 ce 4a 23 35 30 36 01 3a
       -7.33503e-05 7.743443e-05 6.0831087e-07 0.0004929034
000210 4b 64 a2 38 89 4d 23 35 e1 23 c6 b8 aa 02 51 38
       7.743443e-05 6.083506e-07 -9.448059e-05 4.9831964e-05
000220 ce a6 ec 37 1b 16 4d 3a 4b 64 a2 38 89 4d 23 35
       2.8211067e-05 0.00078234234 7.743443e-05 6.083506e-07
000230 59 84 e4 b8 f6 02 29 ba 5a 78 3d 3a 1e 60 8a 3a
       -0.00010896539 -0.00064472796 0.00072277116 0.001055721
000240 4b 64 a2 38 89 4d 23 35 f5 97 fa b8 6a 75 f1 ba
       7.743443e-05 6.083506e-07 -0.00011949233 -0.0018421833
000250 1a b0 fb 3a de b4 95 3a 4b 64 a2 38 89 4d 23 35
       0.0019202263 0.00114217 7.743443e-05 6.083506e-07
000260 52 17 07 b9 3b 4e cb ba eb 88 d5 3a fb fd 87 3a
       -0.00012883291 -0.0015510985 0.0016291415 0.0010375375
000270 4b 64 a2 38 89 4d 23 35 f3 d8 10 b9 a7 51 c8 ba
       7.743443e-05 6.083506e-07 -0.0001381373 -0.0015283123
000280 56 8c d2 3a 10 4e 43 3a 4b 64 a2 38 89 4d 23 35
       0.0016063552 0.0007450292 7.743443e-05 6.083506e-07
000290 0d 0e 1a b9 ea b2 21 ba 4b 28 36 3a a0 e5 02 3a
       -0.00014691819 -0.0006168323 0.0006948753 0.0004993323
0002a0 4b 64 a2 38 89 4d 23 35 29 31 24 b9 cb aa a3 38
       7.743443e-05 6.083506e-07 -0.00015658572 7.804258e-05
0002b0 67 c2 8b 2f 9c a7 66 38 fb aa a3 38 7a 8f 61 af
       2.5422084e-10 5.499237e-05 7.804293e-05 -2.0514604e-10
0002c0 38 cb a5 38 e3 aa a3 38 d6 dd 41 2e de 8f 5c 37
       7.9056656e-05 7.804276e-05 4.408015e-11 1.31465185e-05
0002d0 fb aa a3 38 18 16 61 af db 26 c5 38 43 b3 a3 38
       7.804293e-05 -2.047148e-10 9.4009294e-05 7.805836e-05
0002e0 4e 77 86 b2 d3 00 92 b8 fb aa a3 38 18 16 61 af
       -1.5653907e-08 -6.961976e-05 7.804293e-05 -2.047148e-10
0002f0 89 56 da 38 43 b1 a2 38 8e a0 f9 34 af 07 6c b9
       0.000104111685 7.7577795e-05 4.6496683e-07 -0.00022509576
000300 fb aa a3 38 18 16 61 af e2 c2 eb 38 7b e9 a2 38
       7.804293e-05 -2.047148e-10 0.00011241973 7.768251e-05
000310 80 70 c1 34 9c bc 1c ba fb aa a3 38 18 16 61 af
       3.6030906e-07 -0.0005979033 7.804293e-05 -2.047148e-10
000320 d3 8d fa 38 78 31 7d 3a 19 bc 68 ba ee d6 88 ba
       0.00011947346 0.00096585555 -0.00088781264 -0.0010440031
000330 fb aa a3 38 18 16 61 af 0c 22 04 39 b5 b9 c0 3a
       7.804293e-05 -2.047148e-10 0.00012601184 0.0014703783
000340 04 7f b6 ba da 3f c4 ba fb aa a3 38 18 16 61 af
       -0.0013923352 -0.0014972643 7.804293e-05 -2.047148e-10
000350 a9 47 0b 39 da 95 d4 3a 2b 5b ca ba 89 ad 79 ba
       0.00013282768 0.0016218976 -0.0015438547 -0.0009524455
000360 fb aa a3 38 18 16 61 af a4 9e 13 39 e9 42 ba 3a
       7.804293e-05 -2.047148e-10 0.0001407811 0.0014210615
000370 38 08 b0 ba 52 17 69 ba fb aa a3 38 18 16 61 af
       -0.0013430184 -0.00088917196 7.804293e-05 -2.047148e-10
000380 5a 35 1d 39 82 8f ef 3a cf 54 e5 ba cc 45 37 ba
       0.00014992562 0.0018277022 -0.0017496588 -0.00069912965
000390 62 49 51 b8 07 6b aa b3 03 a2 39 b7 62 49 51 b8
       -4.9897826e-05 -7.93571e-08 -1.1064581e-05 -4.9897826e-05
0003a0 07 6b aa b3 4d 19 d5 b7 62 49 51 b8 34 6c aa b3
       -7.93571e-08 -2.540336e-05 -4.9897826e-05 -7.935924e-08
0003b0 c8 2d b0 b6 62 49 51 b8 02 6b aa b3 99 d5 17 b8
       -5.2505384e-06 -4.9897826e-05 -7.9357065e-08 -3.6200134e-05
0003c0 62 49 51 b8 34 6c aa b3 78 11 1c b6 62 49 51 b8
       -4.9897826e-05 -7.935924e-08 -2.325598e-06 -4.9897826e-05
0003d0 51 6a aa b3 75 9f 3f b8 5e 49 51 b8 17 73 aa b3
       -7.935581e-08 -4.5686455e-05 -4.989781e-05 -7.9371766e-08
0003e0 f2 04 15 b5 7a af 47 b8 ef f1 1e b6 e6 2d 8f b8
       -5.551402e-07 -4.7608723e-05 -2.3684659e-06 -6.8273206e-05
0003f0 5e 49 51 b8 17 73 aa b3 c8 b5 30 35 89 b6 59 36
       -4.989781e-05 -7.9371766e-08 6.5829636e-07 3.244177e-06

exp_avg_sq f4 [128, 114]
000000 92 3e 39 37 1f 54 84 33 45 7f 05 35 92 3e 39 37
       1.1041428e-05 6.1620305e-08 4.973156e-07 1.1041428e-05
000010 1f 54 84 33 ab eb 2d 35 92 3e 39 37 1f 54 84 33
       6.1620305e-08 6.4790464e-07 1.1041428e-05 6.1620305e-08
000020 6e 2d dd 34 92 3e 39 37 1f 54 84 33 c9 da 78 35
       4.1197512e-07 1.1041428e-05 6.1620305e-08 9.2705574e-07
000030 92 3e 39 37 1f 54 84 33 fa 1a bf 34 aa 3f 39 37
       1.1041428e-05 6.1620305e-08 3.559615e-07 1.1041682e-05
000040 39 6d 84 33 2c 7a b0 35 92 3e 39 37 1f 54 84 33
       6.1665965e-08 1.3148579e-06 1.1041428e-05 6.1620305e-08
000050 b2 26 aa 34 4f c2 38 37 ce 5b b8 33 0d 9b 05 36
       3.1693122e-07 1.1012496e-05 8.584867e-08 1.9908796e-06
000060 92 3e 39 37 1f 54 84 33 54 27 9b 34 f1 66 31 37
       1.1041428e-05 6.1620305e-08 2.8899615e-07 1.057399e-05
000070 2a a6 b6 34 4e 9c 4f 36 91 3e 39 37 0c 54 84 33
       3.4021042e-07 3.0936385e-06 1.1041427e-05 6.162017e-08
000080 00 6f 90 34 4f e7 1a 37 13 8d b8 35 35 41 9f 36
       2.6902853e-07 9.232971e-06 1.3750126e-06 4.7461604e-06
000090 91 3e 39 37 0c 54 84 33 2a f7 88 34 f4 55 e2 36
       1.1041427e-05 6.162017e-08 2.551181e-07 6.745331e-06
0000a0 80 d5 50 36 03 f2 e2 36 91 3e 39 37 0c 54 84 33
       3.1118689e-06 6.7634987e-06 1.1041427e-05 6.162017e-08
0000b0 d7 10 84 34 d5 d2 78 36 cc 22 d3 36 1f 1a 15 37
       2.4599169e-07 3.70776e-06 6.292341e-06 8.887174e-06
0000c0 91 3e 39 37 0c 54 84 33 d0 5b 81 34 1b 08 e0 35
       1.1041427e-05 6.162017e-08 2.4094925e-07 1.669166e-06
0000d0 21 17 16 37 39 ee 2a 37 91 3e 39 37 0c 54 84 33
       8.946082e-06 1.0188255e-05 1.1041427e-05 6.162017e-08
0000e0 9d 9e 80 34 0d a0 39 37 4f ef c9 31 23 83 7a 34
       2.3957264e-07 1.1064124e-05 5.877076e-09 2.3330772e-07
0000f0 52 b9 39 37 a5 d6 9c 30 bc 10 4f 34 c8 88 39 37
       1.10700075e-05 1.14115e-09 1.9284465e-07 1.1058706e-05
000100 89 84 59 32 f4 dd 9d 34 4d ba 39 37 8a 76 9c 30
       1.2661197e-08 2.940502e-07 1.1070236e-05 1.1384185e-09
000110 a4 2e 31 34 0d 3a 39 37 6c 8c 08 33 dc d3 d6 34
       1.6501377e-07 1.1040375e-05 3.179268e-08 4.0014754e-07
000120 49 ba 39 37 42 76 9c 30 9a fc 1b 34 ba 4b 39 37
       1.1070232e-05 1.1384105e-09 1.4527396e-07 1.1044491e-05
000130 f2 34 67 33 fa 57 20 35 47 ba 39 37 3f 76 9c 30
       5.3832032e-08 5.973267e-07 1.107023e-05 1.1384101e-09
000140 d5 f9 0c 34 12 4f 39 37 86 d9 82 33 d4 24 8d 35
       1.3129404e-07 1.1045269e-05 6.093164e-08 1.0516037e-06
000150 47 ba 39 37 3f 76 9c 30 94 5e 02 34 12 6a 31 37
       1.107023e-05 1.1384101e-09 1.2141601e-07 1.05747185e-05
000160 e9 b3 be 34 97 08 05 36 47 ba 39 37 3f 76 9c 30
       3.552116e-07 1.9823544e-06 1.107023e-05 1.1384101e-09
000170 0e 07 f6 33 2d 0e 1b 37 f2 73 b7 35 33 db 77 36
       1.1456551e-07 9.2420205e-06 1.3668307e-06 3.693346e-06
000180 47 ba 39 37 3f 76 9c 30 5a e2 ec 33 66 77 d9 36
       1.107023e-05 1.1384101e-09 1.10307795e-07 6.4810038e-06
000190 55 aa 73 36 89 70 cb 36 47 ba 39 37 3f 76 9c 30
       3.6308968e-06 6.0629723e-06 1.107023e-05 1.1384101e-09
0001a0 c9 81 e8 33 13 5e 70 36 87 09 d9 36 a6 40 0a 37
       1.082695e-07 3.5817545e-06 6.468213e-06 8.240493e-06
0001b0 47 ba 39 37 3f 76 9c 30 95 a7 e8 33 03 e1 c4 35
       1.107023e-05 1.1384101e-09 1.0833825e-07 1.4668625e-06
0001c0 33 68 17 37 4b db 26 37 86 aa da 37 7c b2 59 34
       9.024562e-06 9.945429e-06 2.6067031e-05 2.0274632e-07
0001d0 f7 11 a5 35 86 aa da 37 7c b2 59 34 5d 40 d6 35
       1.2298686e-06 2.6067031e-05 2.0274632e-07 1.5962975e-06
0001e0 86 aa da 37 7c b2 59 34 57 e4 89 35 87 aa da 37
       2.6067031e-05 2.0274632e-07 1.0273751e-06 2.6067033e-05
0001f0 7e b2 59 34 14 2c 19 36 86 aa da 37 7c b2 59 34
       2.0274635e-07 2.2824433e-06 2.6067031e-05 2.0274632e-07
000200 0e 53 70 35 d3 ab da 37 99 da 59 34 75 1d 58 36
       8.952783e-07 2.6067637e-05 2.0289225e-07 3.2203654e-06
000210 86 aa da 37 7c b2 59 34 f8 a6 57 35 e9 fc d9 37
       2.6067031e-05 2.0274632e-07 8.0336713e-07 2.5986186e-05
000220 c1 fa 91 34 48 4a a3 36 86 aa da 37 7c b2 59 34
       2.7190802e-07 4.866426e-06 2.6067031e-05 2.0274632e-07
000230 17 01 46 35 e8 13 d0 37 45 7d 83 35 61 52 fd 36
       7.3762334e-07 2.4804802e-05 9.796719e-07 7.5495777e-06
000240 86 aa da 37 65 b2 59 34 53 63 39 35 20 b1 b3 37
       2.6067031e-05 2.02746e-07 6.9062406e-07 2.1420943e-05
000250 4e 34 75 36 d3 0e 41 37 86 aa da 37 65 b2 59 34
       3.653829e-06 1.1507148e-05 2.6067031e-05 2.02746e-07
000260 9b 99 30 35 b1 cd 80 37 e2 6f 05 37 e9 27 88 37
       6.5788635e-07 1.5354572e-05 7.9534675e-06 1.6231048e-05
000270 86 aa da 37 65 b2 59 34 8b d7 2a 35 83 02 0d 37
       2.6067031e-05 2.02746e-07 6.364359e-07 8.40484e-06
000280 75 1c 80 37 52 34 b1 37 86 aa da 37 65 b2 59 34
       1.527204e-05 2.1124408e-05 2.6067031e-05 2.02746e-07
000290 b0 ab 27 35 23 52 81 36 5d 4b b2 37 55 1d ca 37
       6.2462186e-07 3.8540616e-06 2.1254347e-05 2.4093935e-05
0002a0 86 aa da 37 65 b2 59 34 cc d2 26 35 50 73 db 37
       2.6067031e-05 2.02746e-07 6.214657e-07 2.6160531e-05
0002b0 3b 70 77 32 fe 52 1c 35 7c 99 db 37 b1 a4 d9 2c
       1.44028105e-08 5.82353e-07 2.6178306e-05 6.1857954e-12
0002c0 bd 47 01 35 94 4a db 37 de fb 1a 33 46 70 44 35
       4.816064e-07 2.6141563e-05 3.608499e-08 7.317907e-07
0002d0 e9 9a db 37 5e 5e 45 2b 6d 61 dd 34 f4 d1 da 37
       2.617897e-05 7.011942e-13 4.1235344e-07 2.6085392e-05
0002e0 fd 71 cf 33 16 9a 84 35 e5 9a db 37 17 45 42 2b
       9.659923e-08 9.879611e-07 2.6178963e-05 6.9018527e-13
0002f0 4f 01 c3 34 da c3 da 37 45 c1 3b 34 9f 67 c3 35
       3.6322533e-07 2.6078826e-05 1.7486043e-07 1.455879e-06
000300 e4 9a db 37 35 1f 42 2b 1e 60 b0 34 40 c6 da 37
       2.6178961e-05 6.8965954e-13 3.285249e-07 2.6079942e-05
000310 ea d4 56 34 40 23 2a 36 e4 9a db 37 35 1f 42 2b
       2.0007761e-07 2.5352492e-06 2.6178961e-05 6.8965954e-13
000320 af 3d a3 34 a7 5e d0 37 b7 3b 88 35 a1 e7 a0 36
       3.0405997e-07 2.4839608e-05 1.0150169e-06 4.7953367e-06
000330 e4 9a db 37 35 1f 42 2b d5 21 9a 34 54 a9 b6 37
       2.6178961e-05 6.8965954e-13 2.870935e-07 2.177494e-05
000340 78 7b 5f 36 ac f4 12 37 e4 9a db 37 35 1f 42 2b
       3.3301458e-06 8.759245e-06 2.6178961e-05 6.8965954e-13
000350 b2 7f 94 34 99 75 81 37 67 2c 0f 37 41 70 6e 37
       2.766006e-07 1.5432759e-05 8.533802e-06 1.4212042e-05
000360 e4 9a db 37 35 1f 42 2b 2b d9 91 34 47 7b 11 37
       2.6178961e-05 6.8965954e-13 2.7166365e-07 8.671376e-06
000370 d1 2f 7e 37 37 ad a1 37 e4 9a db 37 35 1f 42 2b
       1.5150713e-05 1.9273355e-05 2.6178961e-05 6.8965954e-13
000380 96 06 92 34 f6 52 80 36 4f f2 af 37 51 2a c3 37
       2.719941e-07 3.824355e-06 2.097446e-05 2.3265517e-05
000390 b1 5e 9e 33 6f 31 81 31 fc 2b e2 31 b1 5e 9e 33
       7.3746726e-08 3.760014e-09 6.582466e-09 7.3746726e-08
0003a0 6f 31 81 31 26 d8 05 32 b1 5e 9e 33 6f 31 81 31
       3.760014e-09 7.790765e-09 7.3746726e-08 3.760014e-09
0003b0 b5 ba cd 31 b4 5e 9e 33 6f 31 81 31 c6 5c 2e 32
       5.9875114e-09 7.374675e-08 3.760014e-09 1.0149227e-08
0003c0 b1 5e 9e 33 6f 31 81 31 03 d0 c0 31 ae 5f 9e 33
       7.3746726e-08 3.760014e-09 5.6115836e-09 7.3748524e-08
0003d0 f2 39 81 31 c6 e5 63 32 b1 5e 9e 33 6f 31 81 31
       3.7609817e-09 1.32653835e-08 7.3746726e-08 3.760014e-09
0003e0 44 e8 b7 31 6d af 9d 33 8d 18 8e 31 d9 c9 a1 32
       5.3524065e-09 7.342792e-08 4.135535e-09 1.8834657e-08
0003f0 b1 5e 9e 33 6f 31 81 31 6b 89 b1 31 e8 e7 92 33
       7.3746726e-08 3.760014e-09 5.1670006e-09 6.840838e-08

exp_avg f4 [128]
000000 f6 20 a6 b7 ba 07 a4 38 47 99 51 b8 72 f9 b9 b6
       -1.980409e-05 7.8215686e-05 -4.9972234e-05 -5.542469e-06
000010 d6 69 b3 37 f7 6b 9a 36 50 36 06 38 38 e8 80 37
       2.1387747e-05 4.6021264e-06 3.1998672e-05 1.5366924e-05
000020 27 3a b1 37 53 b8 d5 38 a8 f9 25 35 dc 4e 66 b7
       2.1127124e-05 0.000101909645 6.183059e-07 -1.3727429e-05
000030 4e cb bb 34 f3 da 92 b6 db f9 be b7 ee 15 2b 38
       3.4979388e-07 -4.376628e-06 -2.2766113e-05 4.079e-05
000040 80 82 2b b8 04 6a 50 b8 9a f0 98 39 7a 01 d5 b6
       -4.0891115e-05 -4.96898e-05 0.0002917096 -6.3480666e-06
000050 a7 17 a1 36 e4 85 38 b3 4f a5 9f 39 67 86 93 b8
       4.8009274e-06 -4.296261e-08 0.00030450008 -7.0345406e-05
000060 f3 ef 0c b7 23 e5 f5 b8 1c a4 25 b7 1e 55 66 38
       -8.400518e-06 -0.000117251904 -9.872976e-06 5.4915545e-05
000070 22 32 b6 b8 4d 9a 2b b7 99 78 17 b6 eb 13 1b b7
       -8.687774e-05 -1.022832e-05 -2.257095e-06 -9.243357e-06
000080 67 87 04 ba fc 05 54 b8 f1 14 3f 38 a2 01 c6 b9
       -0.0005055577 -5.0550312e-05 4.555745e-05 -0.0003776672
000090 29 52 e4 37 a0 ef 13 37 90 6f 7a b8 64 eb 3b b8
       2.7217977e-05 8.817675e-06 -5.9708545e-05 -4.48035e-05
0000a0 4b e2 5d 38 0a 15 5f 39 6a 02 7b b9 c7 39 b2 b8
       5.2901258e-05 0.00021274775 -0.00023938125 -8.498463e-05
0000b0 57 3e a2 b8 a7 7e 4a 39 83 b0 3b 36 e5 79 2d 36
       -7.736374e-05 0.00019311403 2.7967915e-06 2.584996e-06
0000c0 2d 1e aa b8 64 7e d6 b9 6a ac 80 b8 95 56 c5 b5
       -8.1118524e-05 -0.0004091143 -6.13563e-05 -1.4702842e-06
0000d0 5d b5 01 b7 1d 7c b4 37 9e ac 07 b9 a2 0e 87 b7
       -7.731226e-06 2.1515467e-05 -0.00012938908 -1.6100068e-05
0000e0 3a 0a e4 39 c0 95 ca 39 33 bc 89 b7 07 76 4c 39
       0.00043495168 0.00038640015 -1.641931e-05 0.00019498925
0000f0 0d d0 a6 b7 dc 83 55 b6 8d 03 a1 38 49 9b 14 b8
       -1.9885623e-05 -3.1816226e-06 7.6777396e-05 -3.543057e-05
000100 9d 52 5a b6 9c 34 e2 b5 90 ae cf 37 ac 44 3c 39
       -3.2532619e-06 -1.6853623e-06 2.475761e-05 0.0001795466
000110 35 60 31 39 bb 64 98 37 1c 37 e6 37 f2 6b a8 b8
       0.00016915875 1.8166718e-05 2.7443799e-05 -8.030971e-05
000120 f5 8a c6 38 37 7a ae b6 0d b8 7a 37 05 e4 4e b9
       9.4672585e-05 -5.199832e-06 1.4944014e-05 -0.00019730635
000130 94 f7 ab b7 c0 ad 6a 36 f1 79 8a 37 28 12 b4 37
       -2.0500076e-05 3.4969853e-06 1.6507665e-05 2.1466127e-05
000140 11 7b 8f b9 c8 6c 6a b9 bf 2b ec 38 11 2b 86 38
       -0.00027366777 -0.00022356503 0.00011261505 6.39764e-05
000150 e1 be 55 38 c2 85 61 b9 43 f1 00 37 b1 5f e0 36
       5.0960927e-05 -0.00021507501 7.685568e-06 6.68686e-06
000160 b0 c5 73 38 b1 1a 03 b7 b2 6e 74 37 3a 25 5b 39
       5.8119826e-05 -7.814423e-06 1.4569307e-05 0.00020899336
000170 8f 26 94 b7 dd ab 0e b7 2c 9c d9 35 4b b5 93 38
       -1.766093e-05 -8.503875e-06 1.6213212e-06 7.043275e-05
000180 7f ec 47 b7 9f 1b 1f 38 f7 1f 8b b9 a9 db 51 b8
       -1.1916388e-05 3.793428e-05 -0.00026535962 -5.0034057e-05
000190 c1 68 41 37 db 84 1b b8 26 62 c0 38 cd 53 6a b8
       1.1528086e-05 -3.707861e-05 9.173555e-05 -5.5867993e-05
0001a0 6a c1 47 39 30 e5 08 39 6d 66 05 b8 86 57 b8 b4
       0.00019050171 0.0001305535 -3.1805062e-05 -3.4336352e-07
0001b0 52 6d a4 b6 9c bd b0 b8 8a 29 e4 b8 11 22 7b b9
       -4.9003074e-06 -8.4276515e-05 -0.000108796245 -0.00023949916
0001c0 48 b5 4c 38 12 13 0a 39 35 38 8d b9 71 00 07 b7
       4.880622e-05 0.0001316781 -0.00026935493 -8.04673e-06
0001d0 b7 ef 68 36 df 8e ec 37 75 03 03 b6 78 3b 40 b7
       3.4710226e-06 2.8199922e-05 -1.9522533e-06 -1.1457938e-05
0001e0 29 8a 1f b7 fd 9d 1a b9 df f2 a9 b8 59 fa 99 b8
       -9.509306e-06 -0.0001474544 -8.103786e-05 -7.3422394e-05
0001f0 03 8b 2e 39 da 0b a0 39 50 fa a4 38 94 cb 8b b9
       0.00016645719 0.00030526408 7.866754e-05 -0.00026663824
